Assets/Training/results/b_treasure_test80_Th64_Lr1e-4Bs4096Bs65536_EndDistanceReward_0.2deltaXZ_5deltaY_NoDeltaYReward/TreasureSearch/TreasureSearch-999955.onnx (onnx, 608683 bytes, 13 tensors)

65 f4 [68]
0.384235 0.4680783 0.3512023 0.25328776 0.40066156 0.4999124 0.45358178 0.2619589
0.46891 0.49984184 0.38923886 0.27048147 0.47697484 0.49847862 0.39140952 0.27322572
0.45678622 0.49998352 0.4055132 0.28097573 0.4541271 0.49350634 0.33462462 0.31097504
0.44583806 0.4873646 0.31831023 0.3101899 0.49511677 0.47822335 0.26336002 0.32365936
0.49672994 0.48377383 0.2527414 0.3192352 0.4746352 0.49903134 0.3277025 0.32700875
0.45270067 0.49784723 0.3701032 0.32139516 0.44357356 0.49833408 0.2665185 0.26961714
0.44299784 0.4974018 0.23633966 0.26257533 0.4212267 0.48892358 0.037310418 0.18558866
0.3769162 0.49320626 0.023636123 0.18496515 0.36728302 0.48615906 0.03152835 0.15544191
0.36728302 0.4861593 0.03152835 0.1554419
00000000: 73ba c43e f5a7 ef3e cad0 b33e efae 813e
00000010: 8323 cd3e 85f4 ff3e df3b e83e 7a1f 863e
00000020: f914 f03e 45eb ff3e 514a c73e 8c7c 8a3e
00000030: 0c36 f43e 9738 ff3e d466 c83e 3ee4 8b3e
00000040: e2df e93e d7fd ff3e 6d9f cf3e 0ddc 8f3e
00000050: 5983 e83e ddac fc3e eb53 ab3e 1f38 9f3e
00000060: e344 e43e da87 f93e 8ff9 a23e 36d1 9e3e
00000070: f27f fd3e b1d9 f43e 20d7 863e aeb6 a53e
00000080: 6353 fe3e 34b1 f73e 5267 813e cc72 a33e
00000090: 6303 f33e 0981 ff3e 9fc8 a73e b16d a73e
000000a0: 62c8 e73e d5e5 fe3e 2b7e bd3e e88d a43e
000000b0: 131c e33e a525 ff3e 1d75 883e 420b 8a3e
000000c0: 9dd0 e23e 73ab fe3e 0603 723e 4670 863e
000000d0: 07ab d73e 3154 fa3e cfd2 183d f40a 3e3e
000000e0: 29fb c03e 8885 fc3e 8ba0 c13c 8167 3d3e
000000f0: 850c bc3e d7e9 f83e df23 013d 2a2c 1f3e
00000100: 850c bc3e dfe9 f83e df23 013d 292c 1f3e

68 f4 [6]
1.9737606 3.7047873 0.011050566 0.007071093 3.529522 109.520996
00000000: 30a4 fc3f 3c1b 6d40 6f0d 353c a1b4 e73b
00000010: b0e3 6140 c00a db42

action_model._continuous_distribution.log_sigma f4 [1, 2]
0.0058193463 -0.014316029
00000000: 37b0 be3b c78d 6abc

action_model._continuous_distribution.mu.bias f4 [2]
-0.0033517291 0.00545553
00000000: afa8 5bbb 4dc4 b23b

action_model._continuous_distribution.mu.weight f4 [2, 256]
-0.030837456 -0.0051604933 -0.00408613 0.013894381 0.0086525185 0.021756507 -0.030757682 0.017462013
-0.0036304372 -0.00261589 0.030375307 -0.0010989356 -0.026413996 0.020020466 0.006885287 -0.005190983
-0.04639942 4.1729472e-05 0.019981086 -0.011468918 0.017172841 -0.011486447 -0.012458483 -0.010946015
0.0003985608 0.0056543318 0.0125624575 -0.012720123 0.01496795 -3.749639e-05 -0.006789403 -0.03166242
0.017275019 0.01807475 0.031204497 -0.03601845 0.012613734 -0.010762607 -0.00031000827 0.019274898
0.001855326 -0.004641986 -0.004252501 0.003298169 -0.0030782158 0.018417899 0.0363383 -0.0077772285
-0.024508089 0.019576231 0.031588525 -0.009142559 0.014780439 -0.02044678 -0.013880275 0.00040043727
-0.01868866 -0.020289445 0.0032545538 0.007083594 -0.02332983 -0.019184256 -0.018177748 0.021958653
0.027525397 -0.02147804 -0.030981587 0.017117925 0.0023103186 -0.010028121 0.0035082304 0.019674907
-0.005889551 -0.008704664 0.006049049 -0.00042054235 0.0065272567 0.018692102 0.0016859047 -0.011251996
-0.009557764 0.011825461 0.0014080304 -0.025332239 -0.020296844 -0.0034795203 0.027031569 -0.009871876
0.027542342 -0.0037258994 -0.012916988 0.007964735 -0.016374381 -0.013134248 0.000103723505 0.0075929617
-0.0075354036 0.0015900848 -0.03212702 0.01968986 -0.029198905 0.0066847685 0.006492705 0.009941905
0.008762293 -0.013308255 0.015225579 -0.007730586 0.029548183 -0.018153902 -0.019505445 0.02353715
-0.018891914 0.029455064 -0.033185422 0.030945973 0.015606788 -0.014701351 0.020779919 -0.037177823
0.007215036 0.015189895 0.017800875 -0.011348558 0.009737256 -0.0045355386 0.020228432 0.004095081
-0.004176214 -0.016310161 -0.0035507234 0.018700967 -0.0063479226 0.017638883 0.024254061 -0.00424156
0.021147234 0.019097984 0.003872218 -0.023918882 -0.00054411293 -0.023766385 0.016127685 -0.02224633
0.018733323 0.013143839 0.018938834 0.0015511469 -0.027222442 -0.016445372 0.011681155 0.0051660533
0.03992449 0.01874852 0.012906293 -0.014421453 -0.0018720358 -0.011834957 0.018926283 0.026468443
0.021100078 0.0061231246 0.014093125 -0.029982004 0.008034276 0.00451251 0.020421356 -0.029486533
0.010660452 0.0025802313 0.02875409 0.0062514055 -0.01710966 0.006308509 0.020803157 -0.028473763
0.0014361041 0.011011778 0.012504398 0.0048103766 0.020714967 0.016033541 -0.0040929485 -0.014869985
-0.02252393 -0.004885685 -0.01592 0.004202475 -0.022503896 -0.01809379 -0.008355894 -0.017248223
0.027731422 0.018038759 -0.013985065 -0.031487096 0.020106941 0.017292144 0.03562778 0.021614013
-0.016625786 -0.008234042 -0.0062882234 0.0022445298 -0.015926352 0.016723521 -0.006773708 -0.013634651
-0.020340206 -0.028902719 0.0008430011 -0.02281498 -0.015881913 0.027663805 0.018289065 -0.016779393
-0.0036904728 0.020233098 0.019334543 -0.007855559 0.0060877153 0.019698586 0.006618831 0.013686151
-0.008776888 0.028550828 -0.011674183 -0.018893851 0.018195137 0.0023728723 0.044749517 -0.020952772
0.015650725 0.008007106 0.038361195 -0.008503548 -0.01912 0.00032896484 0.03614251 -0.00029364377
-0.030238748 -0.005811162 0.018391227 0.027523022 -0.042870164 0.024772942 0.019869301 0.012056135
0.025444325 -0.010494189 -0.023331085 -0.0026856165 0.00709622 -0.0054631555 0.0025549973 0.027889904
00000000: d59e fcbc 5b19 a9bb f1e4 85bb 42a5 633c
00000010: 4bc3 0d3c b43a b23c 89f7 fbbc 7f0c 8f3c
00000020: a1ec 6dbb 5a6f 2bbb a3d5 f83c 290a 90ba
00000030: 2a62 d8bc f601 a43c f99d e13b 1f19 aabb
00000040: 510d 3ebd ae06 2f38 60af a33c 21e8 3bbc
00000050: 0fae 8c3c a731 3cbc aa1e 4cbc ea56 33bc
00000060: edf5 d039 f947 b93b c4d2 4d3c 1068 50bc
00000070: 223c 753c 7145 1db8 a479 debb 74b0 01bd
00000080: 5784 8d3c 8011 943c 93a0 ff3c 1588 13bd
00000090: d6a9 4e3c a555 30bc 9b88 a2b9 64e6 9d3c
000000a0: 692e f33a cd1b 98bb 9058 8bbb 1826 583b
000000b0: e4bb 49bb 22e1 963c 78d7 143d 1fd8 febb
000000c0: 30c5 c8bc 555e a03c f862 013d acca 15bc
000000d0: a829 723c 0180 a7bc 186a 63bc c8f1 d139
000000e0: f618 99bc 0d36 a6bc 5a4a 553b 7e1d e83b
000000f0: 331e bfbc 4d28 9dbc 80e9 94bc a2e2 b33c
00000100: f17c e13c b7f2 afbc 19cd fdbc e43a 8c3c
00000110: b768 173b fd4c 24bc 57ea 653b 452d a13c
00000120: 22fd c0bb 029e 0ebc 1a37 c63b 3d7c dcb9
00000130: 99e2 d53b 2e20 993c 93f9 dc3a 4b5a 38bc
00000140: 2b98 1cbc 94bf 413c a98d b83a 8e85 cfbc
00000150: 9145 a6bc aa08 64bb 4f71 dd3c a6bd 21bc
00000160: 7aa0 e13c 382e 74bb c6a1 53bc 857e 023c
00000170: 9123 86bc 0731 57bc 2286 d938 61ce f83b
00000180: 8ceb f6bb 646a d03a 9f97 03bd a14c a13c
00000190: 8b32 efbc e70b db3b c2c0 d43b 5fe3 223c
000001a0: b88f 0f3c de0a 5abc b574 793c db50 fdbb
000001b0: 080f f23c 7eb7 94bc e2c9 9fbc fbd0 c03c
000001c0: 37c3 9abc bf4b f13c 70ed 07bd 6982 fd3c
000001d0: 9db3 7f3c efdd 70bc a63a aa3c c647 18bd
000001e0: 1c6c ec3b 0adf 783c 24d3 913c 4def 39bc
000001f0: 0389 1f3c db9e 94bb 19b6 a53c 0730 863b
00000200: 9fd8 88bb e39c 85bc 41b3 68bb c532 993c
00000210: 3c02 d0bb 6b7f 903c 74b0 c63c c9fc 8abb
00000220: f73c ad3c 6073 9c3c 0ac5 7d3b 88f1 c3bc
00000230: cda2 0eba b9b1 c2bc 351e 843c ef3d b6bc
00000240: a076 993c 4259 573c 9d25 9b3c da4f cb3a
00000250: 9901 dfbc 72b8 86bc 5162 3f3c ff47 a93b
00000260: dd87 233d 7f96 993c eb74 533c f547 6cbc
00000270: 195f f5ba 68e7 41bc 4b0b 9b3c 59d4 d83c
00000280: 12da ac3c 7ea4 c83b dae6 663c d29c f5bc
00000290: 32a2 033c addd 933b b04a a73c be8d f1bc
000002a0: 2da9 2e3c 1919 293b b38d eb3c 97d8 cc3b
000002b0: 8f29 8cbc 9cb7 ce3b 626b aa3c cf41 e9bc
000002c0: a83b bc3a bf6a 343c 3fdf 4c3c 5da0 9d3b
000002d0: 6fb2 a93c c658 833c 241e 86bb 3da1 73bc
000002e0: 1b84 b8bc 1918 a0bb a96a 82bc eab4 893b
000002f0: 175a b8bc 6e39 94bc 29e7 08bc 254c 8dbc
00000300: 022d e33c 05c6 933c 9d21 65bc 9df8 00bd
00000310: 50b7 a43c 41a8 8d3c 6fee 113d df0f b13c
00000320: cd32 88bc 13e8 06bc 710d cebb f618 133b
00000330: fb77 82bc c4ff 883c fbf5 ddbb df63 5fbc
00000340: 81a0 a6bc 65c5 ecbc d9fc 5c3a 7be6 babc
00000350: c91a 82bc 349f e23c f3d2 953c f074 89bc
00000360: dcdb 71bb e2bf a53c 7a63 9e3c 9ab4 00bc
00000370: 757b c73b ee5e a13c c7e2 d83b e13b 603c
00000380: f0cc 0fbc 6de3 e93c 1345 3fbc 47c7 9abc
00000390: f80d 953c 3182 1b3b 454b 373d 26a5 abbc
000003a0: f335 803c 3d30 033c a120 1d3d 7752 0bbc
000003b0: 8ca1 9cbc ea78 ac39 2b0a 143d 33f4 99b9
000003c0: 40b7 f7bc 8f6b bebb 33a9 963c f677 e13c
000003d0: a098 2fbd a0f0 ca3c f2c4 a23c 1887 453c
000003e0: 9e70 d03c d2ef 2bbc d520 bfbc 2b01 30bb
000003f0: 6887 e83b 4504 b3bb be71 273b 5e79 e43c

network_body._body_endoder.seq_layers.0.bias f4 [256]
0.005344712 0.009204573 0.0045026713 0.0107078 0.011889266 0.001516252 -0.0057311975 -0.008324651
0.0025291718 0.012926179 0.012165514 0.009585889 0.0012098935 0.00023315164 0.006475648 0.0098645585
0.008185787 -0.00033389614 0.011062148 -0.006756644 0.009974354 0.0028778936 0.01004666 0.0021281904
0.00796191 0.0024274087 -0.0026017113 -0.0008326895 0.007524771 0.012898182 0.005293178 -0.0046970802
0.010217564 0.014150035 0.012285127 0.011064549 0.010772275 0.012165032 0.00599453 0.0118073085
0.0033552255 0.0016698563 -0.0010635528 0.01090033 0.00084675587 -0.0013998058 -0.0007243747 0.028408319
0.010578769 -0.00025857112 0.0021412878 -0.005596648 0.0019899793 0.0034137531 0.01615254 0.005344697
0.0018190705 -0.0052828314 0.0075463858 0.009045477 0.009586673 0.010896015 0.014814737 -0.005016934
0.0013200135 0.011360647 0.0069771796 -0.0033291664 -0.0042763646 0.0047391094 0.0063572885 0.013635412
0.008326775 0.0089645125 0.005487974 0.009290739 0.0146655785 -0.003431285 -0.005266083 0.0006685779
0.0005634251 0.00929948 0.0018563654 0.006795306 -0.0075522684 0.01111311 0.0013139588 0.010532446
0.006526086 0.006930783 0.007262963 0.007340775 0.015262524 0.010322617 -0.0019476318 0.007478947
0.0060357717 0.005564516 -0.0052876747 -0.00139571 0.00017636544 0.016202834 -0.002357308 0.0015338488
0.009869053 -0.009626349 0.0072632106 0.00534888 -0.013172125 0.013715791 0.012618191 0.012196427
0.013300189 0.015660668 0.007965733 0.003670133 0.0070951316 0.020641793 0.005036609 0.0091659855
-0.0067192954 0.008252141 0.0053896643 0.0101296315 0.0072326674 0.005471491 0.001846748 -0.01025505
-0.0003565788 0.0106307985 0.0024300443 0.00802425 0.0007624843 0.019635053 0.012295818 -0.0039145034
-0.00090562645 0.0024689196 0.0043823365 0.0017937309 0.00044193503 0.0072736964 0.0024509938 0.013889387
0.011901466 0.010299972 -0.004648813 0.010882342 0.012663568 0.001209744 0.01550004 0.009536494
0.0065299007 -0.004376891 0.008051555 -0.0005457476 0.009683944 0.0052889413 0.011642971 0.008952801
0.010255471 0.01292063 0.0075255567 0.014617379 0.019401858 0.00094799546 -0.004454946 -0.0040236767
0.014485355 -0.0014487901 -0.004189705 0.0043879994 0.0104290815 -0.0074108527 0.002551238 0.008958839
0.0058360794 0.0027170402 0.0077936086 0.0017792148 0.0063231266 0.0074541066 0.0056533176 0.0075494675
0.020809948 0.0040842635 0.017769678 0.009830329 0.0079710055 0.004858188 -0.008804817 -0.014059884
0.0010760034 0.01377585 0.0064117387 0.0118001895 0.02151386 0.016017118 0.0140006365 0.014562696
0.005748208 -0.0036863212 0.00088229 0.0021682263 0.015311846 0.0005589184 0.0008208728 -0.0014607451
0.008042577 0.0019481989 0.014278337 0.010488175 0.00036882973 0.009702793 0.011835311 0.01105254
0.014960672 0.012143831 0.0056111 0.014466635 0.0053012795 0.019826178 0.0060215346 0.014615993
0.006475743 0.012141774 -6.0621252e-05 0.0057363547 0.0025156399 0.0046819514 0.0063228076 0.011491211
0.0041138134 0.005407118 0.007192912 -0.0029420583 0.007258274 -0.0007192421 0.00860728 0.0015583098
0.0055706217 0.013852351 0.0067543276 0.01385755 0.0028782224 0.006172568 0.0065140235 0.014963575
-0.0077948044 -0.0003280914 0.00803029 0.006336317 0.014158754 0.008415743 0.00021376996 0.00012690999
00000000: b222 af3b c7ce 163c 258b 933b c56f 2f3c
00000010: 32cb 423c fabc c63a c5cc bbbb 1e64 08bc
00000020: 76c0 253b 53c8 533c dd51 473c 220e 1d3c
00000030: 4a95 9e3a 2b7a 7439 ac31 d43b f59e 213c
00000040: ae1d 063c c80e afb9 033e 353c d766 ddbb
00000050: 796b 233c 0b9b 3c3b bf9a 243c 1c79 0b3b
00000060: ac72 023c 2915 1f3b 7981 2abb d948 5aba
00000070: 5b92 f63b e552 533c 6572 ad3b f7e9 99bb
00000080: 9267 273c 8cd5 673c 8f47 493c 1548 353c
00000090: 327e 303c d84f 473c c36d c43b 7173 413c
000000a0: 58e3 5b3b 14df da3a e966 8bba 4c97 323c
000000b0: d3f8 5d3a b079 b7ba f7e3 3dba 90b8 e83c
000000c0: 9352 2d3c d490 87b9 d954 0c3b 1664 b7bb
000000d0: 506a 023b 46b9 5f3b 5552 843c 9122 af3b
000000e0: e16d ee3a 9a1b adbb ac47 f73b 7b33 143c
000000f0: 6c11 1d3c 3385 323c 83b9 723c 1865 a4bb
00000100: 4e04 ad3a 0222 3a3c d3a0 e43b 252e 5abb
00000110: bf20 8cbb 884a 9b3b cd50 d03b 1067 5f3c
00000120: 076d 083c e4df 123c 76d4 b33b 2f38 183c
00000130: e547 703c 69df 60bb 1b8f acbb 8143 2f3a
00000140: d2b2 133a d95c 183c 4951 f33a 29ab de3b
00000150: 0579 f7bb c313 363c 2439 ac3a 4890 2c3c
00000160: c7d8 d53b 9f1b e33b 26fe ed3b e28a f03b
00000170: aa0f 7a3c 3220 293c ae47 ffba f411 f53b
00000180: b9c7 c53b 8b56 b63b 3b44 adbb 42f0 b6ba
00000190: bdee 3839 cebb 843c 117d 1abb 6d0b c93a
000001a0: cfb1 213c d6b7 1dbc 3a00 ee3b a845 af3b
000001b0: e6cf 57bc 32b8 603c 87bc 4e3c 86d3 473c
000001c0: 09e9 593c cd4a 803c b582 023c 9d86 703b
000001d0: 477e e83b fa18 a93c 230a a53b ee2c 163c
000001e0: 892d dcbb fd33 073c c89b b03b c1f6 253c
000001f0: 0300 ed3b 314a b33b 950e f23a cc04 28bc
00000200: 32f3 bab9 cd2c 2e3c 6141 1f3b 2578 033c
00000210: 75e1 473a b1d9 a03c 6674 493c 3c45 80bb
00000220: 9067 6dba 99cd 213b b499 8f3b 9f1b eb3a
00000230: 84b3 e739 3058 ee3b daa0 203b 5090 633c
00000240: 5efe 423c 37c1 283c 1255 98bb da4b 323c
00000250: db7a 4f3c 4690 9e3a e1f3 7d3c f43e 1c3c
00000260: c7f8 d53b 066c 8fbb abea 033c 8010 0fba
00000270: 68a9 1e3c db4e ad3b 29c2 3e3c c5ae 123c
00000280: 9006 283c 0db1 533c f298 f63b bb7d 6f3c
00000290: a5f0 9e3c e682 783a ccfa 91bb 0cd9 83bb
000002a0: fb53 6d3c 54e5 bdba cb49 89bb 35c9 8f3b
000002b0: bdde 2a3c bdd6 f2bb ac32 273b 18c8 123c
000002c0: 953c bf3b 5f10 323b 8761 ff3b 8b34 e93a
000002d0: 3b32 cf3b 9441 f43b 773f b93b 8661 f73b
000002e0: a079 aa3c 49d5 853b b791 913c 630f 213c
000002f0: d298 023c 6f31 9f3b 1442 10bc 6d5b 66bc
00000300: af08 8d3a 1ab4 613c 9019 d23b 9555 413c
00000310: d63d b03c 5536 833c ed62 653c 6098 6e3c
00000320: 775b bc3b 3596 71bb 7b49 673a cd18 0e3b
00000330: 89de 7a3c 6184 123a d72f 573a 7976 bfba
00000340: 03c5 033c b55a ff3a b0ef 693c 98d6 2b3c
00000350: 7d5f c139 77f8 1e3c e4e8 413c b615 353c
00000360: 9b1d 753c ebf6 463c 51dd b73b 7705 6d3c
00000370: 5bb6 ad3b 826a a23c 4b50 c53b eb77 6f3c
00000380: 7832 d43b 4bee 463c 9343 7eb8 08f8 bb3b
00000390: 6fdd 243b 0e6b 993b 8e2f cf3b a245 3c3c
000003a0: 2bcd 863b 312e b13b 85b2 eb3b 8ccf 40bb
000003b0: d1d6 ed3b 858b 3cba 8d05 0d3c 3340 cc3a
000003c0: c389 b63b f9f4 623c 6853 dd3b c70a 633c
000003d0: 8fa0 3c3b 4143 ca3b 9773 d53b c829 753c
000003e0: 8f6b ffbb af03 acb9 7a91 033c e1a0 cf3b
000003f0: 1efa 673c 2fe2 093c 7027 6039 2413 0539

network_body._body_endoder.seq_layers.0.weight f4 [256, 74]
0.03306634 0.12287443 0.08807542 0.093757525 0.033832483 0.09115039 0.20358671 -0.068425655
-0.036183286 0.0028327722 -0.019836497 0.13267305 -0.07935781 -0.09832291 0.25152838 -0.05860959
0.05828106 -0.24168392 0.04627138 -0.1479535 0.096362695 -0.252785 -0.29785174 0.008359348
-0.08209481 -0.048283122 0.1260034 0.053456146 0.019676978 -0.015267261 -0.20091966 0.03606071
-0.15275611 0.010407711 0.07107973 0.020080792 0.026732054 -0.12009652 0.0042715254 -0.10029211
-0.12185693 0.07926209 -0.035114948 -0.045367572 -0.28424177 0.103902936 -0.087935515 0.0018974761
0.043603197 -0.06724642 0.02657353 0.16510808 -0.01927463 -0.024866672 -0.00036417195 -0.014308365
-0.12654778 0.012487619 0.030955285 -0.10608032 -0.11138185 0.15363804 0.17890835 -0.06288127
0.12526065 0.21123944 0.08164155 0.06530688 -0.1967584 0.0242138 0.0969753 0.16462164
0.10297487 -0.29307294 0.10238072 -0.040302254 -0.16722506 -0.16978592 -0.0029762813 0.042313162
0.0015830443 -0.057448212 0.21683629 -0.010997771 0.2829387 0.0016826402 0.04334768 0.041722443
-0.06088294 -0.15992017 0.036910433 0.24129218 0.06799251 0.00740909 -0.11118919 0.055672884
0.11905299 -0.11866925 -0.21536854 0.21093728 0.026310215 -0.069157764 0.0052887043 -0.025729159
-0.1639959 -0.09347651 0.22336274 -0.19781502 0.038629353 -0.06929007 -0.15468594 -0.021406617
-0.08999971 -0.08607271 -0.25824136 -0.079150654 0.059584547 0.119053744 -0.04207288 0.11185617
-0.07458627 -0.124469206 -0.00978278 0.20341124 -0.16546346 -0.003903408 0.16259526 -0.05738843
-0.044043377 0.008259958 0.030245971 -0.00013635364 -0.04862671 0.034229074 0.11888248 0.18442403
0.12385383 -0.02064283 -0.015021568 0.01299737 0.04401881 -0.25494075 0.04636969 -0.03775003
-0.16702549 0.00669568 -0.21685953 -0.102749094 0.03264731 0.193101 0.030456796 -0.045678914
-0.14680368 0.04010185 -0.11978507 -0.007142938 0.15267296 0.10452407 0.09881967 0.06744359
-0.29086012 0.16869058 0.15416391 -0.17186566 0.22176357 -0.12172933 0.09957031 -0.09136956
-0.04271183 0.087116525 -0.21869068 0.0370061 0.088147074 0.11198073 0.15386517 0.10058739
0.024710665 0.06176956 0.0654606 0.009052381 0.11057145 -0.10898439 -0.082288004 -0.1763796
0.0216149 -0.031830043 -0.047746096 0.08991311 0.06196716 0.11006445 0.06158597 0.08038179
-0.208672 -0.01592889 -0.025336271 0.11782463 -0.20006606 -0.19377832 -0.017375836 -0.08114041
-0.10247702 0.01296686 0.08391901 -0.13572344 -0.025989825 -0.19570993 -0.17545757 -0.0071930555
-0.24304506 0.052335147 0.2002728 0.15562683 0.008781293 -0.034794375 0.0858407 -0.028102899
-0.072320014 0.115811355 -0.050340384 -0.015819123 -0.1437364 -0.029843586 0.120696925 -0.029252358
-0.26470095 -0.088819206 0.0741359 -0.114023075 0.12929179 0.10378177 -0.0410708 0.09725314
-0.03439086 -0.12939519 -0.05607967 -0.0642134 -0.122766495 -0.052413687 0.14464472 -0.070686534
-0.0008821987 -0.02395654 0.07442457 -0.24573216 0.19820955 0.0009349308 0.012669366 -0.13032079
-0.22575018 0.01460537 -0.012290678 -0.051689062 -0.083384424 -0.13743752 -0.2509048 0.15037072
00000000: 9270 073d 97a5 fb3d e360 b43d f203 c03d
00000010: ee93 0a3d 0ead ba3d 0979 503e c022 8cbd
00000020: ed34 14bd 08a6 393b 2680 a2bc 72db 073e
00000030: 5986 a2bd 865d c9bd 54c8 803e 9c10 70bd
00000040: 1fb8 6e3d fd7b 77be 0f87 3d3d 1f81 17be
00000050: ce59 c53d 096d 81be 0680 98be a6f5 083c
00000060: 5321 a8bd 86c4 45bd 0907 013e d5f4 5a3d
00000070: 9d31 a13c 8923 7abc e2bd 4dbe 65b4 133d
00000080: 196c 1cbe 1b85 2a3c 4092 913d 7980 a43c
00000090: 2efd da3c 2af5 f5bd 27f8 8b3b f365 cdbd
000000a0: 2090 f9bd 2a54 a23d b1d4 0fbd 59d3 39bd
000000b0: 2388 91be 10cb d43d 8917 b4bd bcb4 f83a
000000c0: 4499 323d 7eb8 89bd bbb0 d93c 1812 293e
000000d0: d4e5 9dbc 31b5 cbbc 55ee beb9 a26d 6abc
000000e0: be95 01be df98 4c3c f095 fd3c a440 d9bd
000000f0: 2b1c e4bd 4a53 1d3e c033 373e e5c7 80bd
00000100: 5444 003e 274f 583e af33 a73d 9dbf 853d
00000110: 097b 49be 055c c63c fc9a c63d 9392 283e
00000120: 7de4 d23d a80d 96be fcac d13d fa13 25bd
00000130: 0c3d 2bbe 5cdc 2dbe b70d 43bb 9150 2d3d
00000140: 277e cf3a d14e 6bbd 550a 5e3e ff2f 34bc
00000150: 57dd 903e 098c dc3a 568d 313d 27e5 2a3d
00000160: 6460 79bd 1dc2 23be 652f 173d 4c15 773e
00000170: a83f 8b3d f4c7 f23b 28b7 e3bd 4009 643d
00000180: 0ed2 f33d dd08 f3bd 9289 5cbe f1ff 573e
00000190: 8588 d73c 96a2 8dbd de4c ad3b f5c5 d2bc
000001a0: 8bee 27be 9d70 bfbd 34b9 643e 0590 4abe
000001b0: d039 1e3d f4e7 8dbd fe65 1ebe ee5c afbc
000001c0: c551 b8bd e446 b0bd 3638 84be bd19 a2bd
000001d0: ed0e 743d 73d2 f33d 9d54 2cbd d914 e53d
000001e0: b0c0 98bd b6e9 febd f447 20bc 094b 503e
000001f0: 416f 29be 52d0 7fbb 5f7f 263e 2110 6bbd
00000200: d466 34bd c654 073c 66c6 f73c 27fa 0eb9
00000210: cd2c 47bd c933 0c3d a878 f33d a7d9 3c3e
00000220: 14a7 fd3d 271b a9bc 061d 76bc ecf2 543c
00000230: 114d 343d 9887 82be 25ee 3d3d c79f 1abd
00000240: bb08 2bbe 6f67 db3b 6d10 5ebe 1e6e d2bd
00000250: 30b9 053d 45bc 453e 8880 f93c d019 3bbd
00000260: b453 16be d641 243d e051 f5bd 4f0f eabb
00000270: 4d56 1c3e b710 d63d f861 ca3d dd1f 8a3d
00000280: 9eeb 94be 39bd 2c3e 25dd 1d3e 8dfd 2fbe
00000290: fd15 633e 3a4d f9bd 85eb cb3d f71f bbbd
000002a0: 9af2 2ebd 266a b23d 73f0 5fbe b593 173d
000002b0: 7486 b43d 2756 e53d d58e 1d3e c300 ce3d
000002c0: 056e ca3c 1402 7d3d 3510 863d 7050 143c
000002d0: 4973 e23d 3533 dfbd 9d86 a8bd db9c 34be
000002e0: bb11 b13c 3860 02bd 6991 43bd 5d24 b83d
000002f0: 47d1 7d3d 7869 e13d 9241 7c3d 359f a43d
00000300: 1dae 55be 4e7d 82bc 038e cfbc 0a4e f13d
00000310: 1ede 4cbe d36d 46be c557 8ebc f12c a6bd
00000320: 79df d1bd f472 543c bbdd ab3d 16fb 0abe
00000330: 9de8 d4bc 2f68 48be 26ab 33be b9b3 ebbb
00000340: cee0 78be 615d 563d 5014 4d3e a45c 1f3e
00000350: 6adf 0f3c 8c84 0ebd 40cd af3d 0d38 e6bc
00000360: 841c 94bd 812e ed3d b831 4ebd 1b97 81bc
00000370: a32f 13be 897a f4bc f32f f73d a4a2 efbc
00000380: e286 87be d8e6 b5bd 90d4 973d ee84 e9bd
00000390: 1165 043e 898b d43d db39 28bd a72c c73d
000003a0: 6edd 0cbd 2c80 04be ccb3 65bd 5182 83bd
000003b0: 006d fbbd bcaf 56bd bf1d 143e 1ac4 90bd
000003c0: 5a43 67ba 8140 c4bc e96b 983d 36a1 7bbe
000003d0: 72f7 4a3e 2516 753a 2c93 4f3c d072 05be
000003e0: 0e2b 67be 5d4b 6f3c d75e 49bc e9b7 53bd
000003f0: 74c5 aabd 6cbc 0cbe 9876 80be c8fa 193e

network_body._body_endoder.seq_layers.2.bias f4 [256]
-0.001530032 0.013420504 0.015637787 0.012903217 0.009114462 0.004967523 0.015660536 0.014875176
0.004010025 -0.0057755047 0.00023577786 0.008633851 0.018976847 0.005714079 0.005116033 0.013386573
0.0063239476 -0.004349909 0.0039140396 0.017085789 0.0020721552 -0.0014959543 0.0109584695 -0.013781581
0.0096160425 0.00088980596 0.01176977 0.0059535243 0.012161512 -0.002081852 0.0039654584 0.0029343301
-0.00044556696 -0.0023127212 0.0074411933 0.0065072416 -0.00084996363 0.005691369 0.009981202 -0.0013532867
0.007558395 -0.0032864865 0.008493918 0.007355168 0.010490944 -0.0018094681 0.013622657 0.012529409
0.002044028 -0.0035630495 0.013817593 -0.0052794367 0.0053805383 0.013930277 -9.684481e-05 0.006579142
0.0042685512 0.0026006598 0.010806912 4.1777635e-05 0.0003921606 0.007922698 0.0034793227 0.004564016
-0.0016740038 0.005143746 0.008684347 -0.0058534592 -0.0038282522 -0.002521469 -0.008539912 0.0068668923
0.009743315 -0.0003535021 0.004881512 -0.009295528 -0.00022988598 -0.0048554195 0.008454408 0.00450187
0.0014306686 0.019250121 0.001172396 0.001307187 0.0120533835 -0.003774269 0.0006371204 0.0067824647
0.0084634675 0.005204802 0.004591232 -0.010257324 -0.0019181317 0.016632555 0.014906576 -0.0034926992
-0.0068821884 -0.0022604924 0.008939616 0.0002460342 0.0057838922 0.0062224246 -0.004106597 0.013506054
0.011292443 0.004498975 0.006245323 0.005839563 -0.0023871853 0.00042546826 0.00494828 -0.0044571436
0.0069098063 0.009596953 -0.0028243025 0.002023511 0.0027439022 0.007646327 0.006033099 0.0024630055
0.0010749475 -0.00029468854 0.018074954 0.0036555438 -0.0018196122 -0.005631165 0.0068872483 0.01456874
0.008033495 -0.008314784 0.014247171 0.0047912183 0.0057832864 -0.0031519292 0.016087696 0.003897575
0.008764289 -0.0003681838 -0.0006263861 0.0073823915 0.003601131 0.010364697 0.01072738 -0.0013745398
0.0060458067 0.0032790934 0.0005814791 -0.00410839 0.009231574 0.008030467 0.004981119 -0.0010209101
0.0089413 0.013978247 0.006979128 0.014786222 -0.007192922 -0.0038137417 0.015577889 0.012859657
0.006385445 -0.0004589323 0.0019337389 0.0060207215 0.009146174 -0.0032051757 0.01639436 0.0065982286
0.011736538 0.011731336 -0.0022051032 -0.0025301399 0.008965031 0.007129729 0.0024569375 -0.008001492
-0.0103986915 0.006741187 0.0045745606 0.00015375271 -0.0014142564 0.0071121776 0.0020184375 0.0038118626
-0.0012799024 0.014681383 0.0049415673 0.0080461055 0.0036877294 -0.00031579364 0.0048481524 0.010092919
0.014612176 0.0014169321 0.01188796 -0.0012235509 0.0046684975 0.007738362 -0.0074412357 0.0037308019
0.0041877395 0.011170072 0.0050842743 0.014875476 0.0045585027 0.013180547 0.002572886 -0.0074780895
-0.001912385 -0.004252239 -0.00045607873 -0.0008366994 0.008257729 8.091749e-06 0.0013849584 0.011926039
-0.0021221042 -0.00407219 0.010283428 0.004592908 0.0008935705 0.012741135 -0.0036791272 -0.01064092
0.013670517 -0.009271592 0.0038009756 0.011130803 0.004675952 0.008890779 0.009015985 0.010761747
0.004359483 0.000870882 0.013343796 0.005291839 0.005803131 -0.0011849268 0.0067336583 0.002746113
0.010635179 0.0109743355 -0.00038417237 -0.005489634 -0.0005028139 0.0024590266 0.010115874 0.0021535803
0.010389097 -0.009091346 0.0009195784 0.013421109 -0.0057192077 -0.004383562 0.01205505 -4.2050193e-05
00000000: 5b8b c8ba ace1 5b3c d11a 803c 0468 533c
00000010: d354 153c 9ac6 a23b 864a 803c 03b7 733c
00000020: 8766 833b 7240 bdbb 233b 7739 ff74 0d3c
00000030: 5575 9b3c 2b3d bb3b 65a4 a73b 5b53 5b3c
00000040: 1e39 cf3b ae89 8ebb 5841 803b 7ff7 8b3c
00000050: ffcc 073b e613 c4ba 278b 333c 24cc 61bc
00000060: 9b8c 1d3c de41 693a fed5 403c c815 c33b
00000070: 1441 473c ae6f 08bb adf0 813b e44d 403b
00000080: fc9a e9b9 0691 17bb 41d5 f33b b33a d53b
00000090: 18d0 5eba aa7e ba3b 3288 233c c460 b1ba
000000a0: 6aac f73b 1862 57bb 132a 0b3c 9f03 f13b
000000b0: 35e2 2b3c ad2b edba 9131 5f3c 2648 4d3c
000000c0: 19f5 053b 0d82 69bb 3063 623c 20ff acbb
000000d0: 3a4f b03b d13b 643c 2919 cbb8 d895 d73b
000000e0: 34df 8b3b d56f 2a3b 790f 313c 653a 2f38
000000f0: e89a cd39 34ce 013c 5905 643b be8d 953b
00000100: 3f6a dbba de8c a83b cb48 0e3c 60ce bfbb
00000110: 6ae3 7abb 3b3f 25bb fdea 0bbc ab03 e13b
00000120: 6da2 1f3c 4056 b9b9 17f5 9f3b 454c 18bc
00000130: 8c0d 71b9 361a 9fbb 5b84 0a3c 6c84 933b
00000140: 4685 bb3a 6eb2 9d3c 15ab 993a eb55 ab3a
00000150: 8e7b 453c ba59 77bb 6d04 273a 703f de3b
00000160: 5baa 0a3c 0b8d aa3b 0c72 963b 560e 28bc
00000170: d269 fbba ff40 883c b63a 743c c5e5 64bb
00000180: fb83 e1bb c524 14bb 7877 123c 27fe 8039
00000190: ce86 bd3b 7be5 cb3b a290 86bb 7f48 5d3c
000001a0: f003 393c 236c 933b 91a5 cc3b ce59 bf3b
000001b0: 5372 1cbb 6211 df39 2e25 a23b 3b0d 92bb
000001c0: a86b e23b 8a3c 1d3c ef17 39bb e29c 043b
000001d0: 0ad3 333b 0a8e fa3b 4db1 c53b 606a 213b
000001e0: 41e5 8c3a 6d80 9ab9 ed11 943c d991 6f3b
000001f0: 0e80 eeba a385 b8bb 6dae e13b b9b1 6e3c
00000200: ec9e 033c bb3a 08bc f76c 693c a7ff 9c3b
00000210: b981 bd3b 9990 4ebb 58ca 833c 756e 7f3b
00000220: 1898 0f3c cb08 c1b9 0f34 24ba fde7 f13b
00000230: f400 6c3b b1d0 293c e5c1 2f3c e729 b4ba
00000240: e71b c63b 0fe6 563b 676e 183a ac9f 86bb
00000250: 0740 173c 3892 033c a838 a33b 0fd0 85ba
00000260: 887e 123c 0405 653c 2bb1 e43b e941 723c
00000270: 9ab2 ebbb f8ef 79bb 673a 7f3c 50b1 523c
00000280: ff3c d13b da9c f0b9 8375 fd3a 7949 c53b
00000290: d6d9 153c ed0d 52bb 774d 863c f435 d83b
000002a0: 9c4a 403c ca34 403c 7e83 10bb b4d0 25bb
000002b0: 11e2 123c 80a0 e93b 9204 213b b118 03bc
000002c0: 465f 2abc 2de5 dc3b 32e6 953b ae38 2139
000002d0: 925e b9ba 450d e93b c347 043b 71d0 793b
000002e0: 66c2 a7ba 2f8a 703c dfec a13b d0d3 033c
000002f0: d5ad 713b 1b91 a5b9 40dd 9e3b c55c 253c
00000300: e967 6f3c 5ab8 b93a b8c5 423c 8e5f a0ba
00000310: 32fa 983b 1692 fd3b 9cd5 f3bb 7880 743b
00000320: 4e39 893b ad02 373c fc99 a63b 45b8 733c
00000330: 7e5f 953b 39f3 573c dd9d 283b c30a f5bb
00000340: fea8 faba 5e56 8bbb da1d efb9 f255 5bba
00000350: 6d4b 073c ccc1 0737 7e87 b53a 6f65 433c
00000360: 0013 0bbb 0170 85bb d37b 283c 1b80 963b
00000370: 803e 6a3a 32c0 503c 831d 71bb 4157 2ebc
00000380: 4efa 5f3c e0e7 17bc ca19 793b f95d 363c
00000390: ba38 993b a1aa 113c c8b7 133c 0a52 303c
000003a0: fed9 8e3b e74b 643a f09f 5a3c 2a67 ad3b
000003b0: 3128 be3b 8c4f 9bba 05a6 dc3b 22f8 333b
000003c0: 2c3f 2e3c b3cd 333c be6a c9b9 63e2 b3bb
000003d0: 45cf 03ba 9f27 213b 0dbd 253c 1523 0d3b
000003e0: 0837 2a3c def3 14bc dd0f 713a 36e4 5b3c
000003f0: 3168 bbbb fca3 8fbb 8b82 453c 0d5f 30b8

network_body._body_endoder.seq_layers.2.weight f4 [256, 256]
0.015195531 0.06341271 -0.07812562 -0.08282888 -0.019045727 -0.013126856 -0.03316272 0.07211158
0.028189218 -0.07094959 0.032137893 0.102010004 -0.026302775 -0.010831915 0.053555727 -0.10700381
0.028975815 -0.0036489074 0.007414696 -0.013041516 0.017940646 0.07790606 -0.03831256 -0.041046
0.0679877 0.026778068 -0.18513897 0.048426844 0.04481952 -0.04489858 -0.089929014 -0.12506853
-0.05814639 -0.020965423 0.0023639002 0.057617154 -0.07849668 -0.15407012 0.087126404 -0.041558035
0.058445934 0.15384072 0.12004618 -0.003628723 -0.104311794 -0.020400781 0.064757265 -0.056426436
0.09952991 0.061149694 -0.023295257 0.1358819 0.019342955 0.06809015 -0.022489913 -0.041133843
0.049840253 -0.045684576 -0.011839837 0.0013441456 -0.078255564 -0.088887304 -0.12353367 0.0674175
0.017077364 0.12938134 -0.12223231 0.03435022 -0.0036680577 0.02953401 -0.053708635 0.014546105
0.03971215 -0.026342934 -0.05298351 -0.10014069 0.072260626 0.0763115 0.109705396 0.028555673
-0.051529437 -0.062393833 0.15754002 -0.095456645 -0.0253212 0.15055872 0.029597852 -0.0064287144
0.066326804 0.15131363 -0.046721045 -0.038916267 0.021227445 -0.061564762 -0.024419196 -0.059240907
0.111720376 -0.017821383 -0.09584024 0.035154264 -0.11120346 0.023005852 -0.049245168 -0.024429703
-0.0851444 -0.05388589 -0.019283151 0.07215742 -0.029911472 -0.053215954 -0.0056347097 0.03829355
-0.041870873 0.08140346 -0.06237682 -0.01743518 0.09372779 0.13209893 -0.06828108 -0.006636713
-0.017798375 0.050883967 0.038524218 -0.014750548 -0.03353987 -0.12780373 0.046298776 0.02402871
-0.011475661 0.07234609 -0.21820393 0.051057804 0.08411457 -0.08673942 -0.05345594 0.0037655693
0.10400591 -0.042408496 0.03608642 0.0022594265 0.047572266 0.06647908 -0.039597694 0.0001934224
0.0007005386 0.0053916215 -0.038019683 0.056259483 -0.08378025 -0.018606907 0.2067508 0.022658495
0.0059137903 -0.05286871 -0.0036961436 0.0022666554 -0.017320363 -0.07834015 -0.036560312 0.074038394
0.02953751 0.08343661 0.027506461 -0.020026466 0.044067256 0.09349932 -0.00013929895 0.077995144
0.02425228 0.12544867 0.0443323 0.048271477 0.052993424 0.006455803 -0.056206796 0.09146871
-0.040014848 0.02974669 0.15350729 -0.023348123 0.059051394 0.09318129 -0.042402986 -0.029059652
0.054234687 0.01352015 -0.1034088 0.06273725 0.020320866 0.04771766 0.08870378 -0.010823137
-0.0512192 0.09496148 0.03280163 -0.054762833 -0.079002626 -0.054439157 -0.010050717 0.03337435
0.052870046 -0.12526359 0.007420223 0.062279653 0.017530123 0.019233406 -0.06760432 0.14195207
0.07108596 -0.046695564 0.1005578 0.015640534 -0.036591616 -0.020223878 0.0025152748 -0.04066273
0.0035543074 0.010576149 -0.029217588 0.030120105 0.007336471 0.0048354706 0.03134087 0.014171759
-0.121868216 0.034907993 0.031119253 -0.032078937 0.007302894 -0.064416714 0.050497457 0.031374436
-0.0018928469 -0.041100238 0.04750072 0.04998775 -0.01474549 0.06809694 0.066021584 0.029081656
-0.017316204 -0.03376294 -0.077940926 0.063882224 -0.019785265 -0.03673714 0.13436964 0.055064525
0.050868057 0.043038372 -0.052339863 -0.008816576 0.06016965 -0.014997472 0.06826689 -0.018859282
00000000: adf6 783c 86de 813d 5300 a0bd 30a2 a9bd
00000010: c905 9cbc 0612 57bc a2d5 07bd 3caf 933d
00000020: 13ed e63c 054e 91bd 06a3 033d 9fea d03d
00000030: eb78 d7bc 5878 31bc 405d 5b3d d024 dbbd
00000040: b05e ed3c 8222 6fbb faf6 f23b 15ac 55bc
00000050: 43f8 923c 368d 9f3d a2ed 1cbd da1f 28bd
00000060: 233d 8b3d ae5d db3c 1295 3dbe 3a5b 463d
00000070: ac94 373d 93e7 37bd b42c b8bd f711 00be
00000080: e92a 6ebd aebf abbc aaeb 1a3b f7ff 6b3d
00000090: dec2 a0bd 8fc4 1dbe 546f b23d c238 2abd
000000a0: 0165 6f3d 6c88 1d3e c6da f53d dfcf 6dbb
000000b0: 6ca1 d5bd 8a1f a7bc 759f 843d 681f 67bd
000000c0: 56d6 cb3d 1a78 7a3d b2d5 bebc a024 0b3e
000000d0: 1e75 9e3c d972 8b3d c43c b8bc f67b 28bd
000000e0: 4b25 4c3d c01f 3bbd e0fb 41bc 0b2e b03a
000000f0: 7444 a0bd 8c0a b6bd 39ff fcbd 3012 8a3d
00000100: d4e5 8b3c 8b7c 043e ef54 fabd d1b2 0c3d
00000110: cc63 70bb 4ff1 f13c 96fd 5bbd c952 6e3c
00000120: 35a9 223d 23cd d7bc 3d05 59bd 9016 cdbd
00000130: 61fd 933d 3449 9c3d 39ad e03d 96ed e93c
00000140: 8810 53bd ad90 7fbd 2c52 213e c67e c3bd
00000150: 686e cfbc 112c 1a3e 3277 f23c f7a7 d2bb
00000160: 59d6 873d f6f1 1a3e 915e 3fbd aa66 1fbd
00000170: 2ee5 ad3c 552b 7cbd c40a c8bc 98a6 72bd
00000180: a7cd e43d 26fe 91bc e347 c4bd ebfd 0f3d
00000190: a4be e3bd c576 bc3c 4db5 49bd cd20 c8bc
000001a0: 3060 aebd 73b7 5cbd b3f7 9dbc 45c7 933d
000001b0: e708 f5bc f9f8 59bd 5fa3 b8bb b3d9 1c3d
000001c0: cb80 2bbd dbb6 a63d d67e 7fbd 39d4 8ebc
000001d0: 5bf4 bf3d f144 073e f3d6 8bbd c978 d9bb
000001e0: e6cd 91bc b56b 503d 92cb 1d3d 48ac 71bc
000001f0: 1a61 09bd fbde 02be c9a3 3d3d dbd7 c43c
00000200: 6904 3cbc 302a 943d da70 5fbe fd21 513d
00000210: 4244 ac3d 70a4 b1bd 9ef4 5abd c5c7 763b
00000220: 0d01 d53d 88b4 2dbd 5bcf 133d e312 143b
00000230: 23db 423d 2f26 883d 3131 22bd 6ed1 4a39
00000240: 5aa4 373a 33ac b03b 87ba 1bbd 5870 663d
00000250: fb94 abbd 836d 98bc 7bb6 533e 4f9e b93c
00000260: 78c8 c13b dc8c 58bd 003b 72bb 2b8c 143b
00000270: 6fe3 8dbc cd70 a0bd 44c0 15bd 71a1 973d
00000280: a6f8 f13c d0e0 aa3d 3b55 e13c 8b0e a4bc
00000290: de7f 343d 927c bf3d c710 12b9 ebbb 9f3d
000002a0: b8ac c63c 9e75 003e c995 353d 50b8 453d
000002b0: a20f 593d 338b d33b 1939 66bd f253 bb3d
000002c0: 9ce6 23bd 55af f33c 0431 1d3e 9044 bfbc
000002d0: e0df 713d d5d5 be3d c1ae 2dbd 820e eebc
000002e0: 3125 5e3d 9f83 5d3c fec7 d3bd 637c 803d
000002f0: f277 a63c 9873 433d 54aa b53d 8753 31bc
00000300: 39cb 51bd 2a7b c23d 015b 063d fe4e 60bd
00000310: 21cc a1bd 98fb 5ebd c3ab 24bc 8bb3 083d
00000320: 438e 583d 1945 00be 5825 f33b f318 7f3d
00000330: 559b 8f3c 608f 9d3c 2274 8abd e25b 113e
00000340: 8495 913d d943 3fbd 3ff1 cd3d 9420 803c
00000350: 17e1 15bd 8cac a5bc 4fd7 243b f68d 26bd
00000360: 62ef 683b 9647 2d3c b959 efbc 70be f63c
00000370: c866 f03b de72 9e3b 495f 003d aa30 683c
00000380: 0b96 f9bd affb 0e3d ceed fe3c 3465 03bd
00000390: 1d4d ef3b e9ec 83bd 6cd6 4e3d 7b82 003d
000003a0: 6719 f8ba b958 28bd 1d90 423d f4bf 4c3d
000003b0: 1197 71bc 6976 8b3d 5336 873d a73c ee3c
000003c0: b6da 8dbc 024b 0abd 7e9f 9fbd afd4 823d
000003d0: b514 a2bc af79 16bd 3298 093e 578b 613d
000003e0: 065b 503d 0149 303d 5362 56bd 6673 10bc
000003f0: 7374 763d f5b7 75bc 83cf 8b3d c87e 9abc

network_body._body_endoder.seq_layers.4.bias f4 [256]
0.0013154239 0.0067778467 -0.00027295412 0.0070550204 0.010805171 4.4320466e-05 0.014623647 0.0042358446
0.0007301125 -0.0010757481 -0.002021974 0.010299218 0.010287825 -0.00537485 0.002729578 0.008399725
0.005165551 -0.0016196332 0.0025673036 0.0046358607 0.0026312647 -0.0027280513 0.0118538095 0.004186672
0.0060655614 0.008949601 -0.0030212728 0.0004964468 0.0059619714 0.011810173 -0.0037313015 0.008537762
1.5218431e-05 -0.0011035851 0.0014057735 0.004970039 -0.002937361 0.0055114077 0.008669863 -0.005418471
0.009050392 -0.0006701825 -0.0037657158 0.010510433 -0.0013305008 -0.0015138288 0.0075106304 0.009110413
0.0019170978 -0.0020093124 0.00018660918 -0.001324801 -0.002434443 0.008993869 0.0072586103 -0.0038294992
0.013995987 0.010175221 0.010969685 0.003954087 -0.00072239706 0.0019005919 0.011343229 -0.003684377
-0.0031976046 0.0072162715 0.00848568 0.0042308522 0.010832766 -0.0023086192 0.0099846935 0.008469211
-0.0007283204 0.008446046 -0.0045040944 0.0031275642 -0.005967888 -0.0024409394 0.0065341946 0.0003446316
0.0038333586 -0.0038394602 -0.003564538 0.003697496 0.011825632 0.009535821 0.0029158064 0.009504366
0.0021221496 -0.00033404483 0.005201561 0.007707579 0.00025273918 0.0045593265 -0.003581996 -0.004751549
0.004011337 0.0104318 0.012630369 -0.0002430749 0.00833964 -0.0034533008 -0.0021626465 0.009631091
0.0025841587 0.0024910416 -0.0035664197 -0.00016921427 0.0028092777 0.006260543 0.0046316604 0.003127374
0.010526678 0.0022729337 0.008543668 -0.0012086406 -0.0025515265 0.0053148395 0.00019767696 0.0029344296
0.0031816487 0.008698978 -0.0027131375 0.0005999498 -0.0075709145 0.011148194 0.007158076 0.012727128
8.260367e-05 0.012085424 -0.0004828203 0.0073435702 0.008928142 0.007820435 0.0014722049 0.009360765
0.0083828885 0.001654908 0.003574204 0.00620231 -0.0034154528 0.0052685468 -0.0052078757 0.004213381
0.0013803608 -0.0033995262 -0.007632022 0.0050403364 0.003032691 0.000490704 0.011163293 0.0040747724
0.0062597254 -0.001159091 0.0065714996 -0.0009470353 0.010758758 0.010384417 0.0038374623 0.006463169
0.0039123823 -0.0040739034 -0.0010899369 0.010496089 0.0007471671 -0.006202369 -0.0022367674 0.0039398014
0.0009877327 -0.0012139365 0.003636485 0.0005312844 0.0059439 0.009190114 0.010982209 0.003399395
0.009322992 0.008159209 0.00382094 0.009290614 -0.001775262 -0.0028718384 0.010558183 0.0015541328
0.010137085 0.0045851893 0.010005482 0.009339161 0.008708562 0.012939844 -0.0008963295 -0.00030029198
0.002698495 -0.0030306422 -0.00150668 0.0090990085 -0.0034659319 0.008134921 0.0067970036 -3.8520087e-05
0.010028136 -0.0042255674 -0.0005714316 0.0018080459 0.002197923 0.006550472 -0.0016455825 0.0046981745
-2.503004e-05 0.005175696 0.0026708962 0.011714266 0.009038277 -0.0024270057 0.006438266 -0.0011428288
0.010344689 -0.0023120423 -0.0025535934 0.009949045 0.004163042 0.009945439 0.0035966712 0.0047458783
-0.003332888 0.00349103 -0.00012949418 0.0077410284 0.007756835 0.010689434 -0.0010721518 0.010764682
-0.0023127457 0.0024199004 0.0058670603 0.0009152392 0.010077343 0.0024205518 -0.0015609838 -0.005796994
0.008198921 0.012229301 0.0070849736 0.006811648 0.009358182 0.006320776 0.0027744311 -0.003174949
0.0014744201 0.0064870226 0.008124373 0.0022665276 0.010610962 -0.0029341606 -0.0043985243 -0.0007859011
00000000: 4d6a ac3a b318 de3b 481b 8fb9 cd2d e73b
00000010: 2c08 313c bde4 3938 0598 6f3c d7cc 8a3b
00000020: 0565 3f3a 1e00 8dba 1883 04bb 0dbe 283c
00000030: 448e 283c 821f b0bb b8e2 323b 009f 093c
00000040: c843 a93b df49 d4ba 3540 283b 6be8 973b
00000050: 4c71 2c3b 1bc9 32bb 7b36 423c 5a30 893b
00000060: 9ec1 c63b 59a1 123c 8c00 46bb fb23 023a
00000070: a45c c33b 757f 413c da88 74bb f8e1 0b3c
00000080: aa52 7f37 2ca6 90ba ee41 b83a b5db a23b
00000090: bd80 40bb 0a99 b43b 0b0c 0e3c 6e8d b1bb
000000a0: 1848 143c 30af 2fba 3aca 76bb f433 2c3c
000000b0: 3364 aeba aa6b c6ba bc1b f63b d743 153c
000000c0: 2147 fb3a abae 03bb 85ac 4339 f2a4 adba
000000d0: 2d8b 1fbb 055b 133c a3d9 ed3b 56f8 7abb
000000e0: 6d4f 653c f8b5 263c 32ba 333c 4991 813b
000000f0: 3f5f 3dba 481d f93a f3d8 393c 9775 71bb
00000100: e78e 51bb 7976 ec3b 8607 0b3c f6a2 8a3b
00000110: ea7b 313c 344c 17bb d796 233c 72c2 0a3c
00000120: c1ec 3eba 4961 0a3c 1597 93bb d2f7 4c3b
00000130: 468e c3bb 2bf8 1fbb cc1c d63b acaf b439
00000140: 1639 7b3b 749f 7bbb 069b 69bb b051 723b
00000150: 4cc0 413c 223c 1c3c 1d17 3f3b 33b8 1b3c
00000160: c313 0b3b bd22 afb9 db71 aa3b dc8f fc3b
00000170: 1482 8439 6766 953b ecbf 6abb e2b2 9bbb
00000180: 8971 833b 24ea 2a3c 9bef 4e3c ece1 7eb9
00000190: fca2 083c c650 62bb 30bb 0dbb b9cb 1d3c
000001a0: fd5a 293b be40 233b 98ba 69bb 1c6f 31b9
000001b0: dc1b 383b 3e25 cd3b 2fc5 973b a1f4 4c3b
000001c0: 1678 2c3c 80f5 143b befa 0b3c 406b 9eba
000001d0: 8337 27bb 1b28 ae3b 8147 4f39 8f4f 403b
000001e0: 3583 503b 2986 0e3c e5ce 31bb f345 1d3a
000001f0: 6f15 f8bb eaa6 363c 4b8e ea3b 7285 503c
00000200: 823b ad38 f101 463c 0b23 fdb9 55a2 f03b
00000210: 5747 123c 4821 003c 00f7 c03a e55d 193c
00000220: 6258 093c 7fe9 d83a 313d 6a3b bf3c cb3b
00000230: cad5 5fbb c6a3 ac3b d4a6 aabb 6710 8a3b
00000240: 39ed b43a 96ca 5ebb 0a16 fabb 6829 a53b
00000250: 1dc0 463b 97a2 003a 3fe6 363c ab85 853b
00000260: 621e cd3b a4ec 97ba bc55 d73b 7742 78ba
00000270: 8045 303c 6723 2a3c ef7d 7b3b fec8 d33b
00000280: 7133 803b 617e 85bb 37dc 8eba caf7 2b3c
00000290: 89dd 433a 3e3d cbbb bb96 12bb 7319 813b
000002a0: cf76 813a f31c 9fba 1852 6e3b e445 0b3a
000002b0: 0cc5 c23b 2292 163c b9ee 333c 62c8 5e3b
000002c0: 76bf 183c 34ae 053c bc68 7a3b a937 183c
000002d0: e8af e8ba 7435 3cbb 3bfc 2c3c 0bb4 cb3a
000002e0: 0416 263c 5b3f 963b 08ee 233c 4803 193c
000002f0: 5bae 0e3c a401 543c a8f7 6aba 8270 9db9
00000300: 3cd9 303b bd9d 46bb cb7b c5ba 0214 153c
00000310: b024 63bb 5548 053c 66b9 de3b a190 21b8
00000320: 0d4d 243c a176 8abb 20cc 15ba f4fb ec3a
00000330: 070b 103b 58a5 d63b 96b0 d7ba 25f3 993b
00000340: 9af7 d1b7 e398 a93b 340a 2f3b 31ed 3f3c
00000350: 4815 143c 660e 1fbb 17f8 d23b f9ca 95ba
00000360: c57c 293c a285 17bb 305a 27bb 5201 233c
00000370: 216a 883b 32f2 223c 21b6 6b3b 5083 9b3b
00000380: 956c 5abb c4c9 643b d4c8 07b9 74a8 fd3b
00000390: 0c2d fe3b bc22 2f3c 7287 8cba 595e 303c
000003a0: 6f91 17bb 3197 1e3b 7840 c03b aaec 6f3a
000003b0: 711b 253c 1fa2 1e3b ed99 ccba b6f4 bdbb
000003c0: c454 063c 685d 483c 1129 e83b 3f34 df3b
000003d0: 0f53 193c 831e cf3b 3bd3 353b ce12 50bb
000003e0: 5441 c13a 1791 d43b 171c 053c 068a 143b
000003f0: 9ad9 2d3c 0c4b 40bb 7f21 90bb ee04 4eba

network_body._body_endoder.seq_layers.4.weight f4 [256, 256]
-0.0016786457 -0.017436214 0.038297027 0.07096708 0.005078412 -0.18431976 -0.05312685 0.017121013
-0.0540021 -0.028730104 0.004377902 0.06138929 0.005631724 -0.0827499 -0.120698735 -0.17475618
0.009974309 0.15521057 -0.03589126 0.055468917 -0.057081036 -0.084575295 0.029696055 -0.14641583
-0.06517369 -0.10211819 -0.089339204 -0.030622004 -0.048418317 -0.031553593 0.04099109 -0.12461815
0.101263486 0.0083098095 0.04266229 0.030708559 0.08433061 0.044804633 0.054562964 -0.011494716
0.10081168 -0.067377016 0.04885452 -0.023420865 -0.07274009 -0.094664596 -0.073758475 -0.03158528
-0.04628669 -0.06859552 -0.062184244 -0.024609312 0.07686785 0.121057644 -0.010569292 -0.0013271361
0.054155055 0.06800212 -0.021488633 -0.058555335 -0.1011365 -0.043661796 0.016865956 -0.043022785
-0.15633518 -0.05325289 0.057424583 -0.009910154 0.01991287 -0.047232527 -0.006209143 0.03716174
0.11358278 -0.04684948 0.004223915 0.0050495076 -0.054178193 -0.06675336 0.0054063 0.087262
0.001236967 0.011965159 0.08675602 0.0026808141 0.0071288953 0.039227847 -0.039865218 -0.10891205
0.074081905 -0.08464867 -0.13186792 0.0514504 -0.019037236 -0.11655236 0.08898822 0.05250526
0.10192744 0.00013568271 -0.006617284 0.030559234 0.0032210709 0.12108273 0.044760358 0.05722152
-0.10994046 0.004117153 -0.0946642 0.012383147 -0.10229723 0.06645599 0.12847877 -0.14703009
0.073505975 -0.07487082 -0.023049703 0.11145168 -0.043510366 0.02967835 -0.011217876 -0.016250307
0.097679935 -0.033507753 0.018952968 -0.034076232 -0.005971744 -0.05980265 0.13072814 0.031007458
0.08629658 0.00640388 -0.009020323 0.09097259 0.1099695 -0.052773543 0.049820572 -0.04460625
-0.012336959 0.07248176 0.120748244 0.06737554 -0.045451533 -0.053172857 0.058669712 0.04479291
0.04411341 -0.10161673 0.13286583 -0.043620694 0.021334307 0.041096248 0.13842312 -0.0023802007
0.001827923 -0.06799529 -0.032021936 -0.08102404 0.015649315 -9.622965e-05 0.0321336 -0.066433705
0.08823476 -0.08705206 -0.05665698 -0.008698717 0.0077288547 -0.013751909 0.055431213 0.023023086
0.01860593 0.036940318 0.03696486 -0.010106577 -0.024028353 0.0067050094 -0.022845225 0.05268142
-0.056649063 -0.07731105 0.04821356 0.0017937645 0.10670803 -0.028374637 0.02500174 0.027299717
-0.0659834 0.019240225 -0.030961609 -0.09817904 0.029456992 -0.11119293 -0.027647508 -0.033905644
0.009914846 0.056032013 0.014572574 0.121678755 -0.030636571 -0.045910135 -0.07004434 0.049639914
0.089449175 -0.1278537 -0.006114571 0.030315287 0.00017045221 0.014060622 0.04819278 -0.060155246
-0.0069405963 0.14637865 0.052627537 0.11792828 0.0197389 0.0019883732 -0.020745179 0.038213078
0.0017316495 -0.008652488 -0.06635416 0.07195323 0.026351212 0.15755853 0.110590205 0.013135218
0.0480147 -0.067722775 0.023365417 -0.010290754 0.010589565 0.03118911 -0.045961294 -0.101427086
-0.05449938 0.046625987 -0.11193653 0.010196812 -0.034914177 -0.047612615 0.031444926 -0.03161449
0.07397403 -0.008902667 -0.0828945 -0.1315065 -0.006228352 -0.05182073 0.09165626 0.034430597
0.076042324 0.041636173 -0.047008827 0.05080088 0.13510822 0.034024745 0.021112928 0.014102952
00000000: 0106 dcba 64d6 8ebc 58dd 1c3d 3057 913d
00000010: cf68 a63b 52be 3cbe 8a9b 59bd 5e41 8c3c
00000020: 4e31 5dbd 655b ebbc 8174 8f3b 5673 7b3d
00000030: 538a b83b c878 a9bd e630 f7bd 49f3 32be
00000040: 496b 233c 85ef 1e3e b702 13bd 6033 633d
00000050: cecd 69bd d035 adbd 2445 f33c 08ee 15be
00000060: c979 85bd 5723 d1bd 79f7 b6bd ffda fabc
00000070: 4952 46bd 573e 01bd 46e6 273d cd37 ffbd
00000080: 3b63 cf3d de25 083c a7be 2e3d 8490 fb3c
00000090: 87b5 ac3d 1085 373d 6a7d 5f3d 5554 3cbc
000000a0: 5b76 ce3d f6fc 89bd ad1b 483d 1ddd bfbc
000000b0: c2f8 94bd 83df c1bd af0e 97bd 915f 01bd
000000c0: 1d97 3dbd cf7b 8cbd e8b4 7ebd 7899 c9bc
000000d0: e46c 9d3d 12ed f73d d32a 2dbc 4cf3 adba
000000e0: b1d1 5d3d b244 8b3d ee08 b0bc b8d7 6fbd
000000f0: a720 cfbd b6d6 32bd 792a 8a3c a938 30bd
00000100: 5416 20be b41f 5abd 0a36 6b3d 335e 22bc
00000110: 5120 a33c e576 41bd 1176 cbbb e936 183d
00000120: 179e e83d 3ee5 3fbd c468 8a3b 5776 a53b
00000130: f4e9 5dbd fcb5 88bd 5527 b13b 6bb6 b23d
00000140: ba21 a23a 8409 443c 24ad b13d 99b0 2f3b
00000150: 8299 e93b 61ad 203d b649 23bd 480d dfbd
00000160: 41b8 973d 485c adbd 6208 07be a8bd 523d
00000170: faf3 9bbc 01b3 eebd 753f b63d c10f 573d
00000180: 55bf d03d 0d46 0e39 cdd5 d8bb 5c57 fa3c
00000190: 9a18 533b 39fa f73d a356 373d 1d61 6a3d
000001a0: 7728 e1bd 2fe9 863b 4edf c1bd afe2 4a3c
000001b0: 3681 d1bd 141a 883d f08f 033e 0e8f 16be
000001c0: 4d8a 963d df55 99bd bbd2 bcbc c740 e43d
000001d0: ed37 32bd 0320 f33c 2fcb 37bc 5d1f 85bc
000001e0: 6b0c c83d 6d3f 09bd 4143 9b3c 8593 0bbd
000001f0: 9fae c3bb a0f3 74bd 99dd 053e 5a03 fe3c
00000200: 43bc b03d a4d7 d13b fac9 13bc d64f ba3d
00000210: b037 e13d 1229 58bd a810 4c3d 0bb5 36bd
00000220: f520 4abc 5171 943d db4a f73d 30fc 893d
00000230: 632b 3abd c8cb 59bd a74f 703d c578 373d
00000240: 43b0 343d 6f1c d0bd fb0d 083e 9dab 32bd
00000250: 49c5 ae3c 8a54 283d cabe 0d3e 24fd 1bbb
00000260: eb96 ef3a 1d41 8bbd 6f29 03bd efef a5bd
00000270: fe32 803c e6ce c9b8 869e 033d 650e 88bd
00000280: 6db4 b43d 5a48 b2bd 2611 68bd 1085 0ebc
00000290: 5542 fd3b b04f 61bc d70b 633d e99a bc3c
000002a0: 776b 983c bb4e 173d 7768 173d 0e96 25bc
000002b0: 1cd7 c4bc b2b5 db3b e925 bbbc 79c8 573d
000002c0: d908 68bd 4155 9ebd 957b 453d c01c eb3a
000002d0: bd89 da3d ed71 e8bc 73d0 cc3c a8a3 df3c
000002e0: 4e22 87bd ad9d 9d3c 33a3 fdbc 1812 c9bd
000002f0: ca4f f13c 1eb9 e3bd 077d e2bc a5e0 0abd
00000300: e171 223c d381 653d cec1 6e3c b632 f93d
00000310: 8cf9 fabc 440c 3cbd 6873 8fbd 3953 4b3d
00000320: 2131 b73d 15ec 02be bd5c c8bb c457 f83c
00000330: 6bbb 3239 865e 663c cb65 453d 5965 76bd
00000340: f16d e3bb 49e4 153e f98f 573d 6284 f13d
00000350: 79b3 a13c 5e4f 023b cbf1 a9bc 5185 1c3d
00000360: 84f8 e23a 2ac3 0dbc b1e4 87bd 375c 933d
00000370: 7fde d73c 0657 213e 1e7d e23d 1935 573c
00000380: 10ab 443d 3db2 8abd d568 bf3c 8d9a 28bc
00000390: db7f 2d3c 4e80 ff3c e941 3cbd 01b9 cfbd
000003a0: be3a 5fbd e4fa 3e3d fb3e e5bd 8810 273c
000003b0: 2b02 0fbd 7205 43bd 65cc 003d 327e 01bd
000003c0: b27f 973d 7edc 11bc 97c4 a9bd a4a9 06be
000003d0: 3417 ccbb f941 54bd 47b6 bb3d 1907 0d3d
000003e0: 14bc 9b3d b18a 2a3d 548c 40bd 9514 503d
000003f0: cf59 0a3e 885d 0b3d 05f5 ac3c 1110 673c

network_body.observation_encoder.processors.0.normalizer.running_mean f4 [68]
0.18005605 0.6757945 0.14411071 0.7397595 0.2008831 0.5094392 0.2896101 0.7431271
0.32643458 0.4873668 0.18616368 0.6520033 0.3500134 0.461013 0.18887444 0.69842327
0.29666108 0.49579918 0.20749234 0.69774014 0.29079193 0.58032614 0.12848032 0.6993444
0.27366197 0.61169964 0.114410214 0.69032335 0.56971586 0.35404414 0.07497924 0.4941861
0.55709904 0.37365308 0.06858098 0.48745164 0.34276783 0.5311202 0.12236035 0.64968526
0.28772047 0.54635686 0.1638089 0.6808664 0.2692577 0.5407913 0.076953515 0.7006473
0.2681517 0.5509113 0.05938153 0.6814617 0.23061402 0.39533666 0.0013930579 0.608426
0.17146437 0.4178451 0.000558025 0.6100622 0.1607301 0.3831641 0.0009940416 0.5872531
0.1607301 0.38316542 0.0009940416 0.58725303
00000000: 9d60 383e de00 2d3f c291 133e e160 3d3f
00000010: 4db4 4d3e 9b6a 023f c647 943e 943d 3e3f
00000020: 6f22 a73e 2488 f93e b1a1 3e3e b0e9 263f
00000030: f534 b33e e509 ec3e 4d68 413e decb 323f
00000040: f6e3 973e 64d9 fd3e df78 543e 199f 323f
00000050: aee2 943e 4190 143f 5890 033e 3c08 333f
00000060: 6c1d 8c3e 5998 1c3f e74f ea3d 08b9 303f
00000070: e6d8 113f 4645 b53e b78e 993d f605 fd3e
00000080: 0b9e 0e3f 754f bf3e 2f74 8c3d 4393 f93e
00000090: 447f af3e 7ef7 073f 1098 fa3d c651 263f
000000a0: 1950 933e 0bde 0b3f 85bd 273e 434d 2e3f
000000b0: 25dc 893e 4c71 0a3f ce99 9d3d 9f5d 333f
000000c0: 2e4b 893e 8608 0d3f 0c3a 733d 4674 2e3f
000000d0: 1526 6c3e 9169 ca3e 4497 b63a cec1 1b3f
000000e0: 5b94 2f3e cbef d53e 6d48 123a 092d 1c3f
000000f0: 6e96 243e 162e c43e 804a 823a 3856 163f
00000100: 6e96 243e 422e c43e 804a 823a 3756 163f

network_body.observation_encoder.processors.1.normalizer.running_mean f4 [6]
-9.865251 5.202998 -10.999726 6.9998455 3.111356 193.23978
00000000: 11d8 1dc1 f67e a640 e1fe 2fc1 bcfe df40
00000010: 7520 4740 623d 4143
