Assets/Training/results/b_treasure_test80_Th32_Lr1e-4Bs4096Bs65536_Curiosity_EndDistanceReward/TreasureSearch/TreasureSearch-499999.onnx (onnx, 608683 bytes, 13 tensors)

65 f4 [68]
0.42519146 0.49991664 0.44513905 0.270775 0.48684856 0.4938469 0.39395866 0.28847936
0.46952978 0.49763718 0.4144647 0.2933674 0.4885672 0.49497274 0.38163668 0.3291741
0.48546273 0.49534684 0.3903525 0.31867054 0.47731847 0.4928657 0.24529439 0.31094754
0.44936085 0.4883933 0.3146277 0.30948138 0.4397023 0.46374655 0.2162696 0.28682995
0.42805517 0.46249834 0.2490988 0.28504044 0.4385953 0.470193 0.24422494 0.2949703
0.42207974 0.4612653 0.25339624 0.2885019 0.4468267 0.49775004 0.2113142 0.28914315
0.43160218 0.49354908 0.23855853 0.28569913 0.45824897 0.49532822 0.048605952 0.21292849
0.42109433 0.49785691 0.06221588 0.21110223 0.387202 0.49363196 0.064270645 0.19665535
0.387202 0.49363235 0.064270645 0.19665524
00000000: b2b2 d93e 13f5 ff3e 44e9 e33e 05a3 8a3e
00000010: 3744 f93e 80d9 fc3e f3b4 c93e 91b3 933e
00000020: 3566 f03e 4dca fe3e b834 d43e 4034 963e
00000030: 7b25 fa3e 116d fd3e e265 c33e 8289 a83e
00000040: 928e f83e 1a9e fd3e 48dc c73e c928 a33e
00000050: 1663 f43e e558 fc3e 742e 7b3e 8434 9f3e
00000060: a012 e63e b00e fa3e e216 a13e 5874 9e3e
00000070: a920 e13e 3070 ed3e c775 5d3e 60db 923e
00000080: 0c2a db3e 95cc ec3e c113 7f3e d2f0 913e
00000090: 908f e03e 23bd f03e 1a16 7a3e 5906 973e
000000a0: d61a d83e f72a ec3e 27bd 813e 85b6 933e
000000b0: 78c6 e43e 18d9 fe3e c062 583e 920a 943e
000000c0: f6fa dc3e 77b2 fc3e b048 743e 2847 923e
000000d0: 9c9f ea3e a99b fd3e 0917 473d ed09 5a3e
000000e0: ad99 d73e 1ae7 fe3e 14d6 7e3d 2f2b 583e
000000f0: 573f c63e 54bd fc3e 54a0 833d 0560 493e
00000100: 573f c63e 61bd fc3e 54a0 833d fe5f 493e

68 f4 [6]
1.570957 6.998944 0.015627379 0.009999821 3.2460256 150.87865
00000000: 1e15 c93f 59f7 df40 fd04 803c 4ad6 233c
00000010: e2be 4f40 efe0 1643

action_model._continuous_distribution.log_sigma f4 [1, 2]
0.020601643 0.0130453035
00000000: c7c4 a83c f8bb 553c

action_model._continuous_distribution.mu.bias f4 [2]
-0.0024036986 0.0045274263
00000000: 5f87 1dbb ce5a 943b

action_model._continuous_distribution.mu.weight f4 [2, 256]
-0.0016252891 0.0271082 -0.029278714 -0.00852109 -0.012572432 -0.0063721156 0.0013811551 -0.007172093
0.003913938 0.023292974 -0.022696344 -0.01956138 0.01932636 -0.010267848 0.004227007 0.03898689
0.0076787695 -0.0065924022 0.018176602 -0.0197587 0.0015922586 -0.009765479 -0.0012221183 0.0062311683
0.0042052004 0.024535812 -0.01610817 -0.008563588 0.030728664 -0.004838131 0.006028411 -0.03052896
0.009722729 -0.017785737 0.030138046 0.014392572 0.025167711 0.018004796 0.0069037224 -0.017449072
0.0059846393 0.009223084 -0.008978257 -0.003038663 0.0068838215 0.020596797 -0.021348024 -0.03290048
0.017459534 -0.029143093 -0.009484377 0.008976151 -0.009839129 0.0008317118 0.012961155 -0.013223844
0.017361466 -0.00655177 0.0036680563 0.016261002 -0.0072074095 -0.015394751 0.014632739 -0.012949873
0.008785075 0.030954067 0.038898423 0.008679423 -0.006353594 0.0006997842 0.028035572 -0.03602598
0.017287629 0.0062365853 0.00029412063 -0.04641734 -0.013587278 0.047535088 -0.008277408 0.022863636
-0.01458665 0.031033687 0.011043627 0.014926423 -0.016025428 0.0066262474 0.003467161 -0.014876986
0.042646904 -0.0075534857 0.009002771 0.0070426674 0.0020411352 -0.007484536 -0.016862513 0.020940704
0.009333634 -0.017627623 0.018949065 0.02203282 0.011163552 -0.024267372 -0.0040015024 0.017071392
-0.047803767 -0.0042395713 -0.004333703 -0.0070239753 0.0066386154 -0.017133446 -0.008234801 0.017947787
0.016601635 0.0076409397 0.006504391 -0.011408202 0.006459779 0.009753974 -0.014583709 -0.019108113
0.01370056 -0.012215548 -0.0150008295 -0.008944759 -0.0027672509 0.01753277 -0.010384127 0.014563602
-0.016306676 -0.0031011885 -0.022221431 -0.014956577 -0.0076971706 0.014643265 -0.02473021 -0.0019401354
0.002605145 -0.008228716 -0.0066549135 0.014743293 -0.044900578 -0.0016040169 0.00045445905 0.009674856
0.015586895 0.0051305806 -0.001984448 -0.0028927068 0.00943239 0.04001505 -0.0022156553 0.013620814
0.0055950307 -0.03098975 -0.0096967565 -0.038948175 0.0066213277 0.00443474 -0.01066171 -0.02909214
0.010674158 0.009237238 0.025319092 0.02245444 -0.009318671 0.004966014 -0.0015648723 -0.007680852
0.011211854 -0.023097372 -0.011215764 -0.029107844 -0.011776348 0.012995125 0.017938446 0.006230977
0.0020435944 -0.02100641 0.004358588 0.030577723 0.009831396 -0.004870014 -0.022381173 -0.021596245
0.014809964 -0.030687992 0.032766126 -0.01592311 -0.019238854 -0.004611639 0.007975685 -0.009033178
-0.02938594 -0.015790079 0.024620581 0.016161693 -0.013464802 -0.01319205 -0.016154774 -0.0009992259
-0.01253104 0.008709514 0.03841415 0.004110569 -0.028478405 -0.007081106 0.008283093 0.016444527
-0.010826057 -0.033568382 -0.020065395 0.007991499 0.015413948 0.031278476 0.02832542 0.0181227
-0.018743875 -0.016243557 0.013301753 0.0014546209 0.011240316 -0.009774237 0.012301667 0.020603342
-0.0017550101 0.026792206 5.6440254e-05 -0.012015417 0.008654402 0.014682395 0.014987949 -0.0055449945
0.007303578 0.007850807 0.0377265 -0.0015627833 -0.00444279 -0.008209613 0.004101816 0.02319419
-0.047873758 0.022303227 -0.003063764 -0.012135911 0.007128529 0.015386886 -0.013126409 0.011961471
-0.020042164 -0.002419978 0.002629248 0.010329165 0.012635966 0.0139881205 -0.004724415 -0.00036038368
00000000: a707 d5ba 0412 de3c ead9 efbc 0b9c 0bbc
00000010: 9afc 4dbc 2ecd d0bb e007 b53a e003 ebbb
00000020: 7e40 803b e8d0 be3c afed b9bc 303f a0bc
00000030: 5152 9e3c 7a3a 28bc b482 8a3b b8b0 1f3d
00000040: 309e fb3b 1405 d8bb 19e7 943c ffdc a1bc
00000050: 55b3 d03a 63ff 1fbc 7c2f a0ba d42e cc3b
00000060: c7cb 893b 54ff c83c 48f5 83bc 4b4e 0cbc
00000070: aeba fb3c 2f89 9ebb fa89 c53b df17 fabc
00000080: 154c 1f3c 65b3 91bc 10e4 f63c d3ce 6b3c
00000090: 842c ce3c cb7e 933c 9f38 e23b 5bf1 8ebc
000000a0: cb1a c43b 6b1c 173c 8a19 13bc 4e24 47bb
000000b0: ae91 e13b 9dba a83c 0de2 aebc a7c2 06bd
000000c0: 4c07 8f3c 7fbd eebc 5c64 1bbc b510 133c
000000d0: 4c34 21bc 3c07 5a3a 065b 543c d2a8 58bc
000000e0: a239 8e3c 3bb0 d6bb c663 703b cb35 853c
000000f0: 222c ecbb 443a 7cbc 28be 6f3c b42b 54bc
00000100: 46ef 0f3c 6293 fd3c f453 1f3d 2334 0e3c
00000110: cf31 d0bb b971 373a dbaa e53c fa8f 13bd
00000120: c99e 8d3c 455c cc3b 3434 9a39 1c20 3ebd
00000130: 2d9d 5ebc 27b4 423d f79d 07bc 854c bb3c
00000140: d8fc 6ebc 5c3a fe3c 54f0 343c f58d 743c
00000150: c247 83bc fe20 d93b 4f39 633b 9abe 73bc
00000160: 85ae 2e3d 3b83 f7bb 5c80 133c 2dc6 e63b
00000170: 91c4 053b d740 f5bb 4123 8abc d78b ab3c
00000180: 19ec 183c ce67 90bc 123b 9b3c 2c7e b43c
00000190: 55e7 363c 5ecc c6bc 091f 83bb 4ed9 8b3c
000001a0: e2cd 43bd 1aec 8abb bc01 8ebb 6029 e6bb
000001b0: be88 d93b 715b 8cbc 42eb 06bc 3d07 933c
000001c0: 2700 883c d960 fa3b c922 d53b 78e9 3abc
000001d0: 8eac d33b 22cf 1f3c 82f0 6ebc 9e88 9cbc
000001e0: 5078 603c b923 48bc 0ac6 75bc 0a8d 12bc
000001f0: c45a 35bb e2a0 8f3c 2f22 2abc 2d9c 6e3c
00000200: 9495 85bc 4f3d 4bbb b809 b6bc 6e0c 75bc
00000210: 8c38 fcbb 4eea 6f3c 0297 cabc 244c feba
00000220: 15bb 2a3b bdd1 06bc 7611 dabb da8d 713c
00000230: abe9 37bd e03d d2ba 7644 ee39 4a83 1e3c
00000240: 2d60 7f3c 6e1e a83b 830d 02bb 9193 3dbb
00000250: 508a 1a3c d2e6 233d 8734 11bb d629 5f3c
00000260: 8556 b73b 37de fdbc 25df 1ebc 1f88 1fbd
00000270: b9f7 d83b 4c51 913b 74ae 2ebc a452 eebc
00000280: aae2 2e3c c957 173c fc69 cf3c 60f2 b73c
00000290: 57ad 18bc f2b9 a23b 671c cdba a8af fbbb
000002a0: edb1 373c b336 bdbc 53c2 37bc 9373 eebc
000002b0: 95f1 40bc 81e9 543c a6f3 923c 392d cc3b
000002c0: d3ed 053b a215 acbc 7cd2 8e3b 227e fa3c
000002d0: dd13 213c a394 9fbb b958 b7bc 9cea b0bc
000002e0: 7ea5 723c 6265 fbbc c635 063d 2f71 82bc
000002f0: cd9a 9dbc 3b1d 97bb 73ac 023c e5ff 13bc
00000300: c8ba f0bc 325a 81bc 1ab1 c93c 8765 843c
00000310: 799b 5cbc 7823 58bc 0457 84bc 75f8 82ba
00000320: fe4e 4dbc 59b2 0e3c 2858 1d3d f4b1 863b
00000330: 8b4b e9bc 9f08 e8bb cfb5 073c acb6 863c
00000340: c65f 31bc 007f 09bd 2f60 a4bc c7ee 023c
00000350: c98a 7c3c dc1d 003d b60a e83c 0e76 943c
00000360: c18c 99bc 3511 85bc 99ef 593c faa8 be3a
00000370: 4d29 383c 1f24 20bc ee8c 493c 57c8 a83c
00000380: 5e08 e6ba 547b db3c 43ba 6c38 50dc 44bc
00000390: 31cb 0d3c 6e8e 703c 0490 753c c9b2 b5bb
000003a0: da52 ef3b aca0 003c 1a87 1a3d 4ed6 ccba
000003b0: d394 91bb 9d81 06bc 8768 863b be01 be3c
000003c0: 4617 44bd 42b5 b63c 6ec9 48bb b3d5 46bc
000003d0: 6f96 e93b 4719 7c3c 2610 57bc 0cfa 433c
000003e0: 772f a4bc 7e98 1ebb 764f 2c3b a83b 293c
000003f0: 1507 4f3c 6e2e 653c 44cf 9abb e1f1 bcb9

network_body._body_endoder.seq_layers.0.bias f4 [256]
-0.0069027883 0.0016013233 -0.0023003742 0.00622075 -0.0008466865 -0.004166479 -0.0025820865 -0.00890314
-0.0044997693 0.005181853 0.006660746 0.005740391 0.001525817 -0.0013222056 -0.003199795 0.0012688993
0.0065124636 0.00044835315 0.0050132014 0.007851733 0.003019435 -0.00041027708 0.0070364824 -0.002019686
-0.0074408357 -0.0030565225 -1.7597986e-05 0.0020293829 0.004320265 0.0021220273 0.005186064 0.016921883
0.005489051 0.005575011 0.0046458147 -0.0027553686 0.0013941122 -0.005903313 0.000915286 0.0037070278
0.0005796809 0.0022599471 0.008875152 -0.0010633183 -0.0025181887 0.006177665 0.007106 0.0073738904
0.008506896 0.0023799327 0.0011594715 -0.0020940797 -0.007067668 0.013860127 -0.0024606048 0.0055864584
-0.0023231623 0.0043029347 0.008940965 0.0041020564 -0.005718215 -0.008361341 0.0017971422 0.007457006
0.0090735275 -0.006912452 0.0021485516 2.0246427e-05 -0.003363432 -0.00091783603 -0.0049943607 0.0040121805
0.0027180945 0.008541388 -0.0010570415 -0.0055807903 0.0031334972 0.008712479 0.010649869 -0.006475358
-0.003858342 0.006076148 -0.009130603 0.0019281704 -0.0026537955 0.0012256963 0.008213751 -0.0047151395
6.0216542e-05 0.00048299582 0.00706551 0.0099655185 0.009906156 -0.000124818 0.006831588 -0.0068787267
0.010054859 0.0031711499 0.0023605367 0.005218267 0.009081622 0.0005348367 0.0046946807 0.0061525847
-0.003332888 -3.9590086e-05 0.0031067792 0.004217472 0.008119966 -0.0014234774 0.007002426 0.0055899387
0.0117533915 0.005484175 0.008864034 -0.0037689444 0.0014951908 -0.00069876853 0.0017566589 0.008136389
0.0072524995 0.0012131659 -0.009972128 0.0067681917 0.0014609919 0.0071198614 0.004133539 -0.0026951171
0.0025001976 -0.0009840474 0.0043650377 0.00032582038 0.0048432993 -0.00051165966 -0.00018016285 0.01475197
0.0062715113 0.001799608 -0.0042670323 0.006995165 0.00045000916 0.016066844 0.010069564 -0.00020801924
-0.0068728654 -0.0038290827 0.0059693996 0.0080532525 0.0060804426 0.0047791167 0.008167554 0.0029908628
0.011662605 0.0014708148 0.012992493 -0.0018026315 0.008895402 0.0015731227 0.012736296 0.004415747
0.007254057 -0.009375226 0.003731279 0.0012677119 -0.007445012 0.005555803 0.007658541 -0.00040513655
0.012722044 0.0019191056 0.0045692795 -0.002589455 -0.0005476778 0.0005218027 -0.005172719 0.003506951
0.011385202 0.0013859951 -0.0021982496 0.0043280004 0.007157909 0.0109909335 0.00017556798 0.0034068935
0.008531428 -0.003619643 0.0002189557 0.01401125 0.0031794524 -0.00041916175 0.0012607783 -0.0004894471
0.0022412215 0.0075197313 -0.005364405 -0.0020457085 0.0048019006 -0.003150924 -0.0036722873 0.008754742
-0.0024577477 0.0062326915 0.0041560894 -0.0038949898 0.004039556 0.015842644 0.00207053 -0.0010821953
0.0049598916 -7.340648e-05 0.0024643706 0.004626438 0.008550901 0.0014693993 -0.010452233 0.002537727
0.00070940226 -0.01005078 0.0015967445 0.0041846945 0.007825739 0.011359594 -0.003000319 0.012778845
0.001014775 0.0020167928 0.0029878363 0.012485514 -0.0071250373 0.011486154 0.0019836475 0.003183174
0.00044382006 0.0018623571 0.005644868 0.008901003 -0.0037603907 0.013170328 -0.0015364486 0.0044233263
0.0030743026 -0.0026706662 -0.0012767848 0.006042253 0.002519189 -0.006174617 0.0002100369 0.005677804
0.0008837076 0.0033955348 0.0021371038 0.004538897 0.009278449 0.002576303 0.004663801 -0.005145232
00000000: c930 e2bb 7ee3 d13a e0c1 16bb 6fd7 cb3b
00000010: 2bf4 5dba f686 88bb 3938 29bb 7ade 11bc
00000020: cd72 93bb 89cc a93b 6342 da3b e419 bc3b
00000030: ecfd c73a dc4d adba a7b3 51bb 3251 a63a
00000040: 8166 d53b f110 eb39 c845 a43b 8ea4 003c
00000050: b7e1 453b 751a d7b9 4b92 e63b b55c 04bb
00000060: 41d2 f3bb f04f 48bb 639f 93b7 65ff 043b
00000070: 0291 8d3b b611 0b3b dcef a93b c39f 8a3c
00000080: 7fdd b33b 95ae b63b eb3b 983b 6a93 34bb
00000090: a5ba b63a 9470 c1bb ceef 6f3a 9bf1 723b
000000a0: baf5 173a 9f1b 143b 1669 113c 0b5f 8bba
000000b0: 3208 25bb 036e ca3b 73d9 e83b ada0 f13b
000000c0: 8260 0b3c a5f8 1b3b 68f9 973a d43c 09bb
000000d0: e597 e7bb 9615 633c 1942 21bb 9c0e b73b
000000e0: 3240 18bb a2ff 8c3b 207d 123c 8b6a 863b
000000f0: dd5f bbbb 02fe 08bc 168e eb3a e659 f43b
00000100: 22a9 143c da81 e2bb b7ce 0c3b dfd6 a937
00000110: 066d 5cbb ef9a 70ba bca7 a3bb 9c78 833b
00000120: 0f22 323b 2ef1 0b3c 6d8c 8aba 10df b6bb
00000130: 5c5b 4d3b c9be 0e3c ca7c 2e3c 3d2f d4bb
00000140: 3ddc 7cbb 6c1a c73b 8698 15bc aaba fc3a
00000150: 4deb 2dbb 8ba7 a03a f892 063c 7581 9abb
00000160: 0591 7c38 9a3a fd39 cb85 e73b 6a46 233c
00000170: 6e4d 223c 94e1 02b9 84db df3b f166 e1bb
00000180: 23bd 243c 11d3 4f3b 3cb3 1a3b fffd aa3b
00000190: 15cb 143c 4934 0c3a d6d5 993b 9f9b c93b
000001a0: 956c 5abb 880d 26b8 1b9b 4b3b b832 8a3b
000001b0: 9b09 053c fa93 baba 9b74 e53b ce2b b73b
000001c0: 4c91 403c 98b4 b33b 743a 113c 6500 77bb
000001d0: 47fa c33a 902d 37ba b13f e63a 7d4e 053c
000001e0: 60a6 ed3b 1803 9f3a 2362 23bc b5c7 dd3b
000001f0: c17e bf3a ba4d e93b a372 873b 90a0 30bb
00000200: 5bda 233b 27fb 80ba 9708 8f3b dfd2 aa39
00000210: 8ab4 9e3b e620 06ba 19ea 3cb9 3fb2 713c
00000220: 4081 cd3b d3e0 eb3a 76d2 8bbb b237 e53b
00000230: 35ef eb39 9d9e 833c d0fa 243c bd1f 5ab9
00000240: c635 e1bb 59f1 7abb f49a c33b caf1 033c
00000250: 733e c73b 239a 9c3b 34d1 053c 5a02 443b
00000260: 8314 3f3c 5bc8 c03a 77de 543c 4746 ecba
00000270: 05be 113c 3d31 ce3a e6ab 503c f8b1 903b
00000280: 71b3 ed3b 8c9a 19bc 7988 743b 5a29 a63a
00000290: 4af5 f3bb 740d b63b 80f4 fa3b 8268 d4b9
000002a0: 1f70 503c 808a fb3a e5b9 953b d9b3 29bb
000002b0: 0992 0fba 96c9 083a e97f a9bb e0d4 653b
000002c0: 0089 3a3c 47aa b53a 8210 10bb e6d1 8d3b
000002d0: e58c ea3b 5113 343c ac18 3839 3046 5f3b
000002e0: 67c7 0b3c 8837 6dbb 7997 6539 718f 653c
000002f0: 5c5e 503b f0c2 dbb9 b340 a53a 3d4e 00ba
00000300: 75e1 123b 1468 f63b e4c7 afbb 4b11 06bb
00000310: 4359 9d3b bc7f 4ebb c2aa 70bb 0d70 0f3c
00000320: 2a12 21bb 9b3b cc3b ce2f 883b 1643 7fbb
00000330: 405e 843b 6fc8 813c bbb1 073b 73d8 8dba
00000340: 9686 a23b cef1 99b8 4781 213b 6099 973b
00000350: 1419 0c3c dc98 c03a d83f 2bbc fe4f 263b
00000360: 2ef7 393a 07ac 24bc db49 d13a c31f 893b
00000370: 8737 003c 971d 3a3c 00a1 44bb 5c5e 513c
00000380: 3302 853a 2b2c 043b 93cf 433b 0b90 4c3c
00000390: 2579 e9bb 6c30 3c3c 1500 023b cc9c 503b
000003a0: 85b0 e839 561a f43a 96f8 b83b 83d5 113c
000003b0: e370 76bb 5cc8 573c a962 c9ba 8df1 903b
000003c0: 3d7a 493b 5806 2fbb ca59 a7ba 18fe c53b
000003d0: fa18 253b 7154 cabb 5a3d 5c39 df0c ba3b
000003e0: 9da8 673a 9f87 5e3b a70e 0c3b 07bb 943b
000003f0: a304 183c 31d7 283b ccd2 983b 5699 a8bb

network_body._body_endoder.seq_layers.0.weight f4 [256, 74]
0.07155272 -0.043858636 -0.27219322 -0.1367079 -0.082129344 -0.06725442 0.030376032 -0.019961275
0.092247255 0.106041096 0.08592901 -0.09416135 -0.15931651 -0.1876195 0.057065867 0.005924671
-0.028257016 0.08731958 0.10611693 -0.17318188 -0.3042363 0.14935465 -0.05737939 0.14876996
0.08212032 -0.03740282 -0.04798253 -0.046010293 -0.13954177 -0.038884457 -0.057295624 -0.13553555
-0.059993766 -0.02515193 0.10578859 0.037152912 -0.031409614 -0.13293242 -0.09530125 -0.096155256
0.012025415 -0.26334986 0.010859959 -0.06218824 -0.017377058 -0.21162578 0.041288808 -0.012340898
-0.02045104 0.046500564 0.13718775 0.1762328 -0.14015776 -0.16282429 0.010444374 0.025062827
-0.2178314 0.03650123 -0.016722709 0.22796616 -0.011740672 -0.19115363 -0.08839133 -0.14691922
0.16088982 0.1373521 0.17017826 0.020770868 0.1116308 -0.09184168 -0.02613012 -0.19733438
-0.057672586 -0.077062614 -0.0077710846 -0.065230265 -0.08505791 0.21276845 0.08698365 -0.0035505008
0.13732728 0.038994752 -0.01777896 0.28382975 0.017704774 -0.063566856 -0.24723807 -0.14947365
0.033141304 -0.05678134 0.013267948 0.12366698 -0.047026407 -0.03807808 -0.12050425 0.01411859
-0.09272701 -0.28082737 -0.16004528 -0.31307766 0.16900794 0.058392067 0.25583068 0.047294844
-0.075303115 0.14786482 -0.19390775 0.12671132 -0.09221735 -0.036681704 -0.10227494 0.012918314
0.15752389 -0.062459264 -0.03905108 -0.13225533 -0.10530638 0.046552945 0.025852622 -0.21752533
-0.08160181 -0.12731072 -0.17797486 -0.07844295 -0.03688203 -0.09654961 0.23694023 -0.09866147
0.026572445 -0.059127185 -0.017567499 -0.104499206 0.024987064 -0.0016732452 0.09664064 -0.019882238
0.012573413 0.060561493 -0.032868013 -0.21738079 -0.21250461 0.05171989 -0.28863952 0.19795999
-0.08217514 0.1678618 0.079466 -0.11827842 -0.10242265 0.14067216 0.072699524 -0.090475574
0.21407828 0.0071808896 -0.20045781 0.09645418 -0.04866758 0.04165934 0.08528617 0.13512614
-0.1136621 0.12305147 -0.22978498 0.02770587 -0.24966553 -0.06378233 -0.22589643 -0.024299607
0.1686802 0.047007274 -0.24817178 -0.062168967 -0.15736797 -0.083049715 0.24742538 0.049324237
-0.15773901 -0.07802117 -0.02320788 -0.05847415 0.07904673 -0.0090031205 0.09304506 -0.09924879
-0.0312095 0.06276605 0.063881755 0.13336128 0.22493395 -0.043339875 0.104176685 -0.17117107
0.05173783 -0.05974611 -0.09917094 0.11893549 0.22927721 0.08564376 -0.2669948 -0.10633394
-0.11298307 -0.10490769 -0.024820462 -0.075190015 -0.1448745 0.08723487 -0.10627236 0.021702662
0.135801 0.1577493 -0.06262875 -0.06723682 0.049570818 -0.12405859 0.0024032302 -0.032779645
-0.1111815 -0.032847334 0.014153671 0.02339762 0.13356993 0.38795137 0.08773718 -0.11984173
-0.13272007 -0.03345973 0.044619538 -0.16815023 0.025111375 0.037465855 -0.15638037 -0.06202934
0.2186214 0.1785733 -0.016002376 0.011502949 0.03246313 0.10184402 -0.28103974 0.043639176
-0.03492399 0.27686018 0.043429602 -0.009574342 -0.15509656 -0.021659136 -0.0928046 -0.002971335
0.059997894 0.078677826 0.23802167 -0.11070365 -0.11577676 0.13569923 -0.020889066 -0.006436916
00000000: 3c8a 923d 1da5 33bd e95c 8bbe 28fd 0bbe
00000010: 6e33 a8bd afbc 89bd 28d7 f83c d485 a3bc
00000020: 21ec bc3d 132c d93d 8cfb af3d aad7 c0bd
00000030: de23 23be 541f 40be e6bd 693d be23 c23b
00000040: 427b e7bc 9cd4 b23d d553 d93d 9756 31be
00000050: dcc4 9bbe 6df0 183e a706 6bbd 2757 183e
00000060: b32e a83d b333 19bd 5489 44bd 4a75 3cbd
00000070: 0ae4 0ebe 4f45 1fbd d1ae 6abd d5c9 0abe
00000080: 06bc 75bd 6c0b cebc b0a7 d83d a72d 183d
00000090: 5ea7 00bd 701f 08be 4d2d c3bd 0ced c4bd
000000a0: 3f06 453c cbd5 86be f8ed 313c 19b9 7ebd
000000b0: 555a 8ebc 6eb4 58be 741e 293d 7a31 4abc
000000c0: f088 a7bc 6077 3e3d f27a 0c3e 5f76 343e
000000d0: 8485 0fbe 69bb 26be e11e 2b3c 8f50 cd3c
000000e0: 320f 5fbe 5082 153d 10fe 88bc f66f 693e
000000f0: f35b 40bc c7bd 43be 8306 b5bd fe71 16be
00000100: 4dc0 243e 07a6 0c3e 3643 2e3e ab27 aa3c
00000110: b09e e43d 7e17 bcbd d50e d6bc 0612 4abe
00000120: 173a 6cbd 01d3 9dbd 95a4 febb 7297 85bd
00000130: d732 aebd f9df 593e 7c24 b23d 85af 68bb
00000140: 869f 0c3e f6b8 1f3d 2ea5 91bc 2252 913e
00000150: 9a09 913c 572f 82bd fa2b 7dbe 9f0f 19be
00000160: 2dbf 073d 8d93 68bd cf61 593c 1d45 fd3d
00000170: c39e 40bd c3f7 1bbd efca f6bd a951 673c
00000180: a9e7 bdbd 9bc8 8fbe e9e2 23be b74b a0be
00000190: 6b10 2d3e 852c 6f3d 3dfc 823e 3db8 413d
000001a0: 8538 9abd e069 173e c18f 46be 9dc0 013e
000001b0: 73dc bcbd 8e3f 16bd 8675 d1bd 56a7 533c
000001c0: f14d 213e 49d5 7fbd 06f4 1fbd f16d 07be
000001d0: dfaa d7bd 4dae 3e3d e1c8 d33c f6be 5ebe
000001e0: da1e a7bd be5d 02be 0b3f 36be b3a6 a0bd
000001f0: 9d11 17bd cdbb c5bd 76a0 723e 060f cabd
00000200: 75ae d93c 592f 72bd b7e9 8fbc ae03 d6bd
00000210: acb1 cc3c cb50 dbba 87eb c53d 13e0 a2bc
00000220: b700 4e3c 540f 783d 9ca0 06bd 1299 5ebe
00000230: cf9a 59be 3cd8 533d 8fc8 93be 06b6 4a3e
00000240: 714b a8bd f7e3 2b3e 12bf a23d f53b f2bd
00000250: f7c2 d1bd 5d0c 103e 7de3 943d 424b b9bd
00000260: 5637 5b3e ab4d eb3b d044 4dbe c589 c53d
00000270: a857 47bd fca2 2a3d 84aa ae3d 825e 0a3e
00000280: adc7 e8bd 6902 fc3d c14c 6bbe 6cf7 e23c
00000290: 52a8 7fbe 4fa0 82bd 6551 67be f80f c7bc
000002a0: 81ba 2c3e b38a 403d be20 7ebe e3a4 7ebd
000002b0: 1225 21be f815 aabd 145d 7d3e 3608 4a3d
000002c0: 5686 21be 90c9 9fbd 741e bebc 9782 6fbd
000002d0: 41e3 a13d d381 13bc 698e be3d f342 cbbd
000002e0: 11ab ffbc 7d8b 803d 70d4 823d dc8f 083e
000002f0: 1655 663e 2785 31bd 965a d53d 7847 2fbe
00000300: 0ceb 533d 56b8 74bd 221a cbbd 7394 f33d
00000310: a5c7 6a3e ff65 af3d 8bb3 88be 9cc5 d9bd
00000320: ab63 e7bd d8d9 d6bd 4854 cbbc 39fd 99bd
00000330: fb59 14be 32a8 b23d 53a5 d9bd c8c9 b13c
00000340: 6b0f 0b3e 0889 213e 8143 80bd 75b3 89bd
00000350: c50a 4b3d 6e12 febd 837f 1d3b f343 06bd
00000360: 20b3 e3bd ed8a 06bd cde4 673c 5eac bf3c
00000370: 8ec6 083e 90a1 c63e 8daf b33d 956f f5bd
00000380: c5e7 07be 120d 09bd fac2 363d 932f 2cbe
00000390: 5fb6 cd3c cc75 193d 2d22 20be 7a12 7ebd
000003a0: 4ade 5f3e ebdb 363e 6a17 83bc dd76 3c3c
000003b0: 0ff8 043d 9993 d03d 71e4 8fbe febe 323d
000003c0: 750c 0fbd 9ec0 8d3e 3de3 313d b3dd 1cbc
000003d0: a2d1 1ebe 806e b1bc 5710 bebd bbba 42bb
000003e0: 5ac0 753d d721 a13d f4bb 733e 98b8 e2bd
000003f0: 5e1c edbd bdf4 0a3e 8c1f abbc c4ec d2bb

network_body._body_endoder.seq_layers.2.bias f4 [256]
0.010798763 -0.0065953485 -0.0047870977 0.002467548 0.00091339916 -0.002990747 0.009478388 -0.0015357042
0.0034960636 -0.000900181 0.011801158 0.005758477 0.004393021 7.211282e-05 -0.00092036044 0.0008320897
0.0066889618 -0.0026713153 0.004786074 -0.0012078942 0.0038653088 -0.0012766048 0.0034016497 0.007930803
-0.005049223 -0.0024980837 0.0018775653 0.0030121107 -0.004499307 0.0071976804 -0.0052895597 0.0074599404
-0.0024480897 6.4361775e-05 0.0018048637 -0.00050856953 0.010401691 -0.003806 0.003986083 0.0038146987
0.0019017317 0.0003590381 -0.0026899632 0.0050481805 0.0071315854 0.0062222118 0.0041665668 -0.0022375728
-0.00613011 0.00029412578 0.004842809 0.0014450253 0.0036156408 0.0057155252 -0.0065045003 -0.0031052604
-0.0011313008 0.004703961 0.009108062 -0.004702597 0.0036742035 -0.004807309 -0.0069424524 0.006897876
-0.0052986005 0.008695363 0.0015580734 0.0043595624 -0.0044820057 -0.00058306276 -0.0011676205 0.0059300247
-0.0035906828 0.00424416 -0.0019360521 0.005533715 0.005649389 0.009283531 0.0034520326 0.0016603031
0.010384282 0.006135901 0.009233525 0.0016402302 0.0038973354 -0.00491334 -0.00021632304 0.010024882
-0.0038128877 -0.0059265373 0.00469223 -0.00088361686 -0.010230667 0.0048910975 0.002697214 0.0049600382
0.007814106 0.0031728707 0.004542809 0.0039635478 0.0075961845 0.0004506685 0.0017893158 0.006903935
-0.004063907 0.0026796048 -0.0028695716 -0.0034954296 0.0058343215 0.0075964145 0.008355167 -0.0011383137
0.0058009694 0.002995915 0.0070910733 -0.0038867071 0.000298188 -0.003505106 0.0049918867 0.002338225
-0.0049386015 0.005313089 -0.0030127508 0.0044122892 0.0035757062 0.0014541546 -0.0023545662 0.003826415
0.0038519122 0.01050583 0.012245175 0.00627714 -0.004908101 -0.0071965284 -0.005412194 0.001244123
0.0022113794 0.0027655791 0.0022094618 -0.004142228 0.005568896 0.007794192 0.006673459 0.002068975
-0.0024682342 0.004710361 0.0044150823 -0.0010135589 0.0040946775 0.004443798 0.003973373 -0.008240903
0.0026231536 0.0017972252 -0.0075386553 0.0030805985 0.0016068125 0.013562792 -0.0016661284 -0.009520106
0.011099308 -0.005162498 0.0045061004 -0.004564564 0.00537255 -0.00014178717 -0.0042204144 -0.0024974726
-0.0057983478 -0.009102141 0.0024722894 -0.00813052 0.000828114 -0.011864054 -0.0006413557 -0.005039702
0.007449967 -0.0041742274 0.0048370906 0.0071714194 0.0015239893 0.0033307585 -0.0012892882 0.011516627
0.0060079414 0.0077531477 0.005345655 0.004825292 0.0069901673 0.007120192 -0.0011351081 0.00085318787
-0.0032473768 -0.0034284068 0.00582342 -0.0008246584 0.0046117445 -0.0054819933 0.0076853065 0.0068540378
0.0036004696 -0.00063660135 -0.00016364211 -0.0018407503 -0.0014096415 -0.0021892395 0.002820836 0.0030124183
0.00077166123 -0.0019950434 -0.004852617 0.00533389 0.0062763696 0.009772043 -0.0004477782 0.012316303
0.0054577347 0.0057889884 0.0043191286 -0.004421458 0.004253305 -0.0021849556 0.0015628882 -0.011149104
0.0038194428 0.0014246241 -0.0064134733 -0.0043476475 -0.004696059 -0.0013030355 -0.004284258 0.00348837
0.00014020623 -0.007980024 0.008841654 0.0011298114 -0.00030317105 0.0012646838 -0.0020187718 -0.005103767
0.007926581 0.00030511673 0.0032081197 0.0033967027 0.003189878 0.004438577 0.005278838 0.0014113432
0.004577843 -0.001466578 0.004509389 0.0050400537 -0.0028449886 0.005098114 0.010942757 0.0017298679
00000000: 4bed 303c cb1d d8bb 16dd 9cbb 96b6 213b
00000010: 2e71 6f3a 6900 44bb 3e4b 1b3c af49 c9ba
00000020: 371e 653b 20fa 6bba a559 413c 9bb1 bc3b
00000030: 55f3 8f3b 473b 9738 5844 71ba 9820 5a3a
00000040: 142f db3b 3c11 2fbb 80d4 9c3b 3452 9eba
00000050: 1f51 7d3b c053 a7ba 36ee 5e3b 33f0 013c
00000060: f473 a5bb e4b6 23bb a318 f63a d566 453b
00000070: ec6e 93bb 85da eb3b 0b54 adbb 8472 f43b
00000080: 2170 20bb f7f9 8638 2d91 ec3a 8651 05ba
00000090: db6b 2a3c 166e 79bb b09d 823b 0600 7a3b
000000a0: 8743 f93a 473d bc39 184a 30bb 356b a53b
000000b0: 13b0 e93b b2e3 cb3b b287 883b 3ea4 12bb
000000c0: 17df c8bb e534 9a39 6db0 9e3b 0167 bd3a
000000d0: 63f4 6c3b 4d49 bb3b b423 d5bb a081 4bbb
000000e0: 2848 94ba af23 9a3b fb39 153c 3e18 9abb
000000f0: e8ca 703b a186 9dbb 837d e3bb 9407 e23b
00000100: e29f adbb ff76 0e3c 4538 cc3a a9da 8e3b
00000110: cadd 92bb aed8 18ba d80a 99ba a750 c23b
00000120: a951 6bbb 9812 8b3b 21c3 fdba 2a54 b53b
00000130: 821e b93b f419 183c 7f3b 623b 879e d93a
00000140: d622 2a3c ab0f c93b 3648 173c fefc d63a
00000150: 706a 7f3b 1500 a1bb c6d4 62b9 673f 243c
00000160: a4e1 79bb 6633 c2bb 47c1 993b 86a2 67ba
00000170: 879e 27bc 8045 a03b bec3 303b d187 a23b
00000180: bc06 003c f0ef 4f3b d8db 943b a6e0 813b
00000190: 6ae9 f83b b447 ec39 7a87 ea3a 683a e23b
000001a0: 862a 85bb 4f9c 2f3b 6c0f 3cbb 9413 65bb
000001b0: d62d bf3b 58eb f83b 1ce4 083c 7833 95ba
000001c0: 0f16 be3b 1d57 443b 3c5c e83b 20b8 7ebb
000001d0: 1e56 9c39 ecb5 65bb fb92 a33b e83c 193b
000001e0: fed3 a1bb 6c19 ae3b 9271 45bb f794 903b
000001f0: 6556 6a3b 5599 be3a 114f 1abb 97c4 7a3b
00000200: 5d70 7c3b a520 2c3c fd9f 483c 78b0 cd3b
00000210: 23d4 a0bb dbd0 ebbb c658 b1bb d711 a33a
00000220: caec 103b b83e 353b 9ecc 103b 87bb 87bb
00000230: 497b b63b 6c66 ff3b 08ad da3b a497 073b
00000240: 19c2 21bb 5f59 9a3b 65ac 903b 65d9 84ba
00000250: a52c 863b 489d 913b 1233 823b da04 07bc
00000260: 37e9 2b3b df90 eb3a d306 f7bb dee3 493b
00000270: ae9b d23a 7936 5e3c fe61 daba 38fa 1bbc
00000280: dfd9 353c 2c2a a9bb e9a7 933b 5792 95bb
00000290: 370c b03b b4ac 14b9 674b 8abb a3ac 23bb
000002a0: 1100 bebb 2521 15bc 2206 223b df35 05bc
000002b0: ca15 593a 7361 42bc a720 28ba 1624 a5bb
000002c0: da1e f43b f5c7 88bb 7580 9e3b 3afe ea3b
000002d0: 98c0 c73a db48 5a3b 55fd a8ba 3cb0 3c3c
000002e0: 44de c43b 1e0e fe3b 9b2a af3b 7c1d 9e3b
000002f0: c60d e53b 8050 e93b e8c7 94ba 78a8 5f3a
00000300: f1d1 54bb 1faf 60bb 63d2 be3b e32d 58ba
00000310: 1e1e 973b 4ba2 b3bb 06d5 fb3b d697 e03b
00000320: dbf5 6b3b 98e1 26ba 5897 2bb9 5545 f1ba
00000330: b8c3 b8ba 5879 0fbb c6dd 383b fe6b 453b
00000340: 4f49 4a3a 46bf 02bb b402 9fbb eac7 ae3b
00000350: 01aa cd3b eb1a 203c c6c3 eab9 52ca 493c
00000360: ccd6 b23b 8eb1 bd3b 7a87 8d3b e1e1 90bb
00000370: 4f5f 8b3b 7931 0fbb d3d9 cc3a bbaa 36bc
00000380: 9e4f 7a3b 74ba ba3a 1d28 d2bb b676 8ebb
00000390: 66e1 99bb 9eca aaba f662 8cbb 239d 643b
000003a0: 5304 1339 a6be 02bc 96dc 103c 2e16 943a
000003b0: eef2 9eb9 bfc3 a53a 5f4d 04bb 803d a7bb
000003c0: 7ede 013c 13f8 9f39 513f 523b 379b 5e3b
000003d0: 460d 513b 7c71 913b 1afa ac3b d2fc b83a
000003e0: bb01 963b 313a c0ba 7fc3 933b 0927 a53b
000003f0: fd72 3abb 140e a73b 4049 333c bcbc e23a

network_body._body_endoder.seq_layers.2.weight f4 [256, 256]
0.018851819 -0.025620148 -0.05195819 -0.07957524 -0.080316685 -0.094048075 0.08553987 0.06614756
-0.07765039 0.13711503 0.019848784 0.0052911704 0.020479009 -0.094554484 -0.070133984 -0.056054574
0.068969265 0.014910044 0.043757867 -0.11054271 0.09817841 0.09828784 0.08803123 -0.014992711
-0.034510363 -0.018351164 -0.08641831 0.034944057 -0.14118679 -0.029269027 0.0022374853 0.04453201
0.032145016 -0.088833064 0.087355815 -0.030603366 0.03328308 0.04798952 -0.13229856 -0.026578523
-0.07894315 0.11314274 -0.005412597 -0.08115028 -0.105744004 0.011143077 -0.06213222 -0.005262032
0.03216041 -0.004284062 -0.06387922 0.100533485 -0.025018027 0.03939686 -0.022505037 -0.04625889
0.028192824 0.0043067136 0.033963636 0.049015548 -0.15298109 0.042257927 0.045018762 -0.040886812
-0.013336745 -0.06484791 -0.024426073 -0.07296539 -0.047062457 -0.019922277 -0.0349753 0.10733877
0.037652623 0.03319939 0.09572301 -0.07875831 0.020220362 0.0651023 0.044284135 0.015562399
0.035141353 -0.005403105 -0.091090314 -0.09138604 -0.013399772 0.028730093 0.015171053 -0.08248679
-0.030993972 -0.06878982 0.02979478 0.11481751 0.021964064 -0.06760476 0.019626612 0.044815503
-0.046727616 -0.068049744 0.06477606 -0.079001114 0.016211381 -0.002082592 0.041695744 -0.10996668
-0.030478539 -0.015038403 -0.030950347 0.10387842 -0.04396881 -0.06549151 0.07548994 -0.051179867
-0.026789058 0.07980353 0.07728768 0.02458963 0.056408405 -0.076445036 -0.09648373 0.057153855
0.012472828 0.040149674 0.06966993 -0.057629306 -0.016734954 -0.030759148 -0.023917172 0.060318388
-0.05014392 -0.17277756 -0.054493457 -0.033306334 0.021227228 0.04690771 0.0010723922 -0.108974114
0.04068851 -0.027745858 -0.13015175 0.07755919 0.06374445 0.11539922 0.0047699874 0.0765183
-0.0038068134 -0.007712824 0.022752525 0.0046255137 -0.15125495 0.06699072 -0.020792058 -0.0035492426
0.01548469 0.008196884 0.08073418 -0.08403124 -0.07657324 -0.028485535 0.048562106 0.13333164
0.0636724 0.056984037 0.015466467 -0.05754395 -0.067877434 -0.06925695 -0.024659978 0.039848797
-0.010232612 -0.09884177 0.0052442336 -0.07249385 -0.008344103 0.026310753 -0.013324564 0.06406771
0.08780485 0.07172616 -0.047127686 0.04185242 0.036396056 0.01865701 -0.05392594 -0.05532528
0.020144569 -0.05230773 -0.009682206 -0.09414175 -0.07782735 0.00817373 -0.030900965 0.06145154
0.0035954972 0.15693945 -0.06145608 -0.04819215 0.07147792 -0.013641148 5.1543707e-06 0.03677489
-0.04185601 0.075760394 -0.05486106 0.056812815 -0.015355177 -0.00090925815 -0.075823486 0.04708014
-0.0809944 0.00651643 -0.07390954 0.0014260929 0.06832123 -0.12961723 0.003095229 0.06624387
0.035951126 -0.024186756 -0.053159628 -0.18078484 0.04494473 0.087253354 -0.02521118 -0.030083055
0.056211516 -0.0077612144 -0.04132832 0.11155823 0.038169704 0.0038078395 -0.062025968 0.034785993
0.031486444 0.015239914 -0.00809377 -0.002839826 0.13832285 0.07046365 0.050266784 0.034543738
-0.022575192 0.043748654 0.09543101 -0.1366144 -0.008317405 0.06486969 -0.0065580807 0.15515073
0.06816097 -0.0859879 -0.014909589 0.00078986597 0.06532051 0.087470755 0.00083866395 0.073963925
00000000: 216f 9a3c 58e1 d1bc 1cd2 54bd 58f8 a2bd
00000010: 137d a4bd 479c c0bd 872f af3d 5f78 873d
00000020: 2b07 9fbd e267 0c3e eb99 a23c 8e61 ad3b
00000030: 98c3 a73c c8a5 c1bd 68a2 8fbd 7b99 65bd
00000040: c23f 8d3d 4249 743c 733b 333d 3764 e2bd
00000050: c311 c93d 234b c93d b849 b43d fda3 75bc
00000060: bd5a 0dbd 2e55 96bc 15fc b0bd 8021 0f3d
00000070: 4593 10be 99c5 efbc c6a2 123b 3267 363d
00000080: 7eaa 033d 1cee b5bd 9be7 b23d e9b3 fabc
00000090: d753 083d a990 443d 4679 07be 34bb d9bc
000000a0: f2ac a1bd 62b7 e73d 285c b1bb 1e32 a6bd
000000b0: 5090 d8bd 7491 363c 5b7e 7ebd 206d acbb
000000c0: a2ba 033d 5161 8cbb 1cd3 82bd 80e4 cd3d
000000d0: 9bf2 ccbc 9a5e 213d 7c5c b8bc f679 3dbd
000000e0: a3f4 e63c 551f 8d3b 741d 0b3d 87c4 483d
000000f0: 13a7 1cbe a616 2d3d 9865 383d ee78 27bd
00000100: 5d82 5abc fbce 84bd 3019 c8bc e16e 95bd
00000110: 90c4 40bd 0b34 a3bc 4342 0fbd 6ed4 db3d
00000120: a339 1a3d 15fc 073d 6d0a c43d 094c a1bd
00000130: 2ca5 a53c 5b54 853d 4863 353d 6ff9 7e3c
00000140: 61f0 0f3d 880c b1bb 8f8d babd 9b28 bbbd
00000150: b88a 5bbc 5f5b eb3c 0290 783c d6ee a8bd
00000160: 12e7 fdbc ade1 8cbd 2f14 f43c 7125 eb3d
00000170: fbed b33c 5d74 8abd fdc7 a03c 7690 373d
00000180: 7565 3fbd aa5d 8bbd 50a9 843d 56cb a1bd
00000190: bbcd 843c 197c 08bb 28c9 2a3d 3636 e1bd
000001a0: 21ae f9bc a263 76bc 958b fdbc 36be d43d
000001b0: a418 34bd 6a20 86bd 789a 9a3d fba1 51bd
000001c0: ba74 dbbc 0870 a33d 0149 9e3d 3170 c93c
000001d0: 800c 673d 378f 9cbd 4399 c5bd 291a 6a3d
000001e0: d55a 4c3c fc73 243d 1caf 8e3d b50c 6cbd
000001f0: be17 89bc 9cfa fbbc f2ed c3bc 6a10 773d
00000200: b663 4dbd 9aec 30be 8834 5fbd 396c 08bd
00000210: b9e4 ad3c 4d22 403d 838f 8c3a d22d dfbd
00000220: ffa8 263d 484b e3bc 8046 05be 5ad7 9e3d
00000230: 738c 823d 6d56 ec3d 8e4d 9c3b a0b5 9c3d
00000240: bb7b 79bb dbbb fcbb 8163 ba3c 9f91 973b
00000250: 94e2 1abe 6e32 893d 1b54 aabc 699a 68bb
00000260: 7fb3 7d3c 394c 063c f657 a53d 9218 acbd
00000270: 6ed2 9cbd 7f5a e9bc 0fe9 463d 1788 083e
00000280: ad66 823d 1868 693d 1067 7d3c 34b3 6bbd
00000290: 5303 8bbd 96d6 8dbd b903 cabc 7e38 233d
000002a0: afa6 27bc 8e6d cabd d2d7 ab3b a877 94bd
000002b0: b4b5 08bc a689 d73c 464f 5abc ee35 833d
000002c0: 07d3 b33d 2ae5 923d f608 41bd 716d 2b3d
000002d0: 0814 153d 96d6 983c 72e1 5cbd c39c 62bd
000002e0: 3906 a53c a140 56bd 1ea2 1ebc 64cd c0bd
000002f0: f263 9fbd 1ceb 053c 0524 fdbc 9cb4 7b3d
00000300: 6fa2 6b3b bcb4 203e 5fb9 7bbd 2265 45bd
00000310: 0463 923d 1f7f 5fbc b5f3 ac36 44a1 163d
00000320: 3571 2bbd 4428 9b3d feb5 60bd 8eb4 683d
00000330: 4894 7bbc 485b 6eba 5849 9bbd 1bd7 403d
00000340: 64e0 a5bd c787 d53b e35d 97bd bdeb ba3a
00000350: 00ec 8b3d 61ba 04be 53d9 4a3b deaa 873d
00000360: 7d41 133d 4e23 c6bc e9bd 59bd a91f 39be
00000370: f717 383d e3b1 b23d ad87 cebc bd70 f6bc
00000380: 0c3e 663d c951 febb e247 29bd a478 e43d
00000390: d657 1c3d f28c 793b f10e 7ebd c27b 0e3d
000003a0: eef7 003d d5b0 793c bb9b 04bc 601c 3abb
000003b0: 81a4 0d3e 3f4f 903d 8be4 4d3d bc7d 0d3d
000003c0: 9cef b8bc ca31 333d 5571 c33d a5e4 0bbe
000003d0: ba45 08bc 66da 843d 2be5 d6bb d5df 1e3e
000003e0: fb97 8b3d 6d1a b0bd 5947 74bc 020f 4f3a
000003f0: c2c6 853d de23 b33d c9d9 5b3a 667a 973d

network_body._body_endoder.seq_layers.4.bias f4 [256]
0.0042559784 0.00055618724 0.006421828 -0.0016490279 0.00694743 0.00393291 0.0031541795 0.0032109488
-0.005172573 -6.7077824e-05 0.0066467063 0.0069341883 -0.0035145078 0.0032835165 -0.0024483604 0.00079717994
0.0035223132 0.0075226515 0.0003606679 0.0035929303 0.0042898254 -0.0011362692 -0.0046349345 -0.0039844527
-0.0056203017 0.0034942925 0.007922213 0.006388508 -0.0008730068 -0.0029434066 0.003430028 0.005927319
-0.0038173117 0.0068740933 -0.0007628783 -0.0014520362 -0.0011950845 -0.0037755405 -0.0049189464 0.005763451
0.002471986 -0.0027432824 0.00018045629 -0.0009473639 0.005128551 0.0014298239 0.0016672233 0.004991863
-0.0022550137 0.00032823917 0.0014504531 -0.0048859636 0.0068868613 0.003041709 -0.00045375593 0.0025515275
0.0038173222 -0.0017656083 -0.002120866 -0.0050281077 -0.0010672583 0.0033841054 0.00089384 0.008925421
-0.0034769818 0.0005142353 0.005770558 0.0033920037 -0.00092310336 -0.005013041 -0.0023943633 0.006846573
0.004047729 -0.0030553762 0.0007382538 0.00448711 -0.0005059815 0.0024359624 -0.0017497014 0.0017933784
0.008096331 -0.002221026 -0.0053664884 -0.0035576595 0.002811964 0.0006464088 0.0028870564 -0.00035069516
0.0030338226 0.00619255 0.004281033 -0.002811557 0.00081173115 -0.0018076353 0.0063009937 -0.0038044767
-0.0044976966 0.00082574843 -0.0035050404 0.0040111183 -0.0032243778 0.009921765 0.003976349 0.0046438356
0.0066585336 0.0045667826 0.0062889657 0.0068528266 0.0030458479 0.0067374595 0.0052883765 -0.0027775224
-0.0024840916 0.0026659877 -0.0042822864 0.001838798 -0.005083342 -0.006253981 0.0045573087 0.0058141
-0.0016744707 -0.0007737419 0.00063473533 -0.0012316329 0.006294574 -0.0013683983 -0.0030937772 -0.0053213965
0.0010307466 -0.0038748172 0.0035380116 0.007635503 0.0057699904 0.0019430757 0.004085415 -0.004481055
-0.005159672 0.005097889 0.0055069164 0.0023560855 0.007711852 -0.0030983582 -0.0005803265 -0.004190735
0.005079289 -0.006200355 -0.004612002 -0.001750097 0.0042326227 -0.0029227242 -0.0050836364 0.003337019
0.002432538 0.002200407 0.005868251 0.0070045674 -0.005182421 0.0019774276 0.00500143 0.0073009217
0.0023253027 -0.004089951 0.0017454327 0.004451552 0.0041015227 0.0034026033 0.0043989914 -0.0033161498
-0.0051735453 0.0066168704 0.006414849 0.0033374487 0.0008540621 -0.003792756 -0.0036673625 -0.0032229659
0.0025770122 0.007079986 0.00416233 -0.0033308975 -0.00026665442 0.005000207 0.0029436727 0.009263677
-0.002464869 0.004117066 0.00015384892 0.0067526824 0.0052481513 -0.0038253635 0.0023806158 0.010663606
0.004639605 0.0061924453 -0.0044538113 0.0031273847 0.009717331 0.0030961384 0.007955422 -0.002818462
0.0046902434 0.0008447446 0.003270815 -0.0011441351 0.0042734295 -0.0026737675 -0.00066632923 -0.00041671077
0.0038626904 0.0061824624 0.0036095004 -0.003758722 -0.003892944 -0.0040635066 0.0021129202 0.00039149032
0.00425415 0.007885033 0.0041504023 0.004938454 -0.0037938117 -0.0009632894 -0.0037716527 0.002851484
-0.0027530221 0.00358405 -0.0014563841 0.010566341 0.0038811413 0.0010475238 0.0032225612 -0.0020102216
0.0039020602 -0.0025625844 0.003033767 0.0030301136 -0.00087789865 0.004172965 0.0013166061 -0.0033187484
0.0069810566 -0.0013235407 -0.0029959998 -0.00054361887 -0.0044597546 -0.002426385 0.0038251092 0.00029465073
0.008251699 0.0022962494 -0.005469773 0.0034555404 0.004523189 -0.003164405 0.0041857287 0.0065493803
00000000: bc75 8b3b 18cd 113a 336e d23b 3224 d8ba
00000010: 44a7 e33b a4df 803b 5ab6 4e3b c86e 523b
00000020: b07e a9bb 22ac 8cb8 9dcc d93b 3038 e33b
00000030: a853 66bb 4430 573b ac74 20bb d7f9 503a
00000040: 9cd6 663b 9380 f63b 0718 bd39 5e77 6b3b
00000050: aa91 8c3b deee 94ba a6e0 97bb 0390 82bb
00000060: 822a b8bb 8000 653b 2bcc 013c b056 d13b
00000070: 7fda 64ba 2be6 40bb 52ca 603b f539 c23b
00000080: dd2b 7abb 1340 e13b e5fb 47ba 4052 beba
00000090: 62a4 9cba 0f6f 77bb 1d2f a1bb 55db bc3b
000000a0: 0b01 223b a4c8 33bb de38 3d39 8458 78ba
000000b0: 670d a83b ee68 bb3a bb86 da3a c892 a33b
000000c0: dac8 13bb 8417 ac39 211d be3a 6f1a a0bb
000000d0: 2eab e13b 6957 473b 17e6 edb9 8737 273b
000000e0: 0a2c 7a3b fc6b e7ba 3afe 0abb d3c2 a4bb
000000f0: 3fe3 8bba dec7 5d3b 9650 6a3a ee3b 123c
00000100: 13de 63bb bfcd 063a f316 bd3b 614c 5e3b
00000110: 6bfc 71ba 7044 a4bb c0ea 1cbb 3859 e03b
00000120: d0a2 843b b53c 48bb 6087 413a 9b08 933b
00000130: d8a3 04ba aba4 1f3b 3d56 e5ba cb0f eb3a
00000140: 79a6 043c a28e 11bb 5ed9 afbb 9f27 69bb
00000150: ed48 383b c373 293a c534 3d3b 82dd b7b9
00000160: 19d3 463b e0ea ca3b e847 8c3b 1942 38bb
00000170: 5bca 543a 2dee ecba 9178 ce3b 8754 79bb
00000180: 6a61 93bb 0a77 583a d2b4 65bb b36f 833b
00000190: 1550 53bb e68e 223c 084c 823b 512b 983b
000001a0: d42f da3b f3a4 953b ab13 ce3b ad8d e03b
000001b0: d99c 473b e8c5 dc3b 1e4a ad3b 1807 36bb
000001c0: 24cc 22bb dab7 2e3b 6c52 8cbb d303 f13a
000001d0: 2a92 a6bb 32ee ccbb 7a55 953b 3584 be3b
000001e0: ea79 dbba f1d4 4aba 5e64 263a be6e a1ba
000001f0: b742 ce3b d45b b3ba f8c0 4abb 1c5f aebb
00000200: 1e1a 873a a5f0 7dbb fcdd 673b 3e33 fa3b
00000210: 3012 bd3b cdae fe3a f2de 853b d0d5 92bb
00000220: 7712 a9bb 310c a73b 5d73 b43b 8e68 1a3b
00000230: b4b3 fc3b d30d 4bbb 0d21 18ba 6f52 89bb
00000240: 2a70 a63b 592c cbbb 4720 97bb 8363 e5ba
00000250: d0b1 8a3b 2d8b 3fbb a294 a6bb e3b1 5a3b
00000260: 376b 1f3b b434 103b 754a c03b 9286 e53b
00000270: 4cd1 a9bb bb97 013b 09e3 a33b 923c ef3b
00000280: 1b64 183b ff04 86bb 01c7 e43a 53de 913b
00000290: 1166 863b 36fe 5e3b 6a25 903b c353 59bb
000002a0: d886 a9bb 55d2 d83b a733 d23b 19b9 5a3b
000002b0: 23e3 5f3a e38f 78bb 2258 70bb 6538 53bb
000002c0: 17e3 283b 3aff e73b 2864 883b 304b 5abb
000002d0: c0cd 8bb9 c7d8 a33b a2ea 403b adc6 173c
000002e0: a489 21bb 74e8 863b 8152 2139 9b45 dd3b
000002f0: aff8 ab3b f3b2 7abb 1b04 1c3b 68b6 2e3c
00000300: d407 983b ffe9 ca3b 47f1 91bb cff4 4c3b
00000310: 7135 1f3c 95e8 4a3b 7557 023c f2b5 38bb
00000320: 9db0 993b da71 5d3a 2b5b 563b cef6 95ba
00000330: 2008 8c3b 603a 2fbb 99ac 2eba f979 dab9
00000340: 3125 7d3b 4196 ca3b 5e8d 6c3b e454 76bb
00000350: c320 7fbb 2a27 85bb eb78 0a3b f140 cd39
00000360: 6666 8b3b 3a30 013c 1900 883b c1d2 a13b
00000370: 99a1 78bb 4285 7cba d52d 77bb f7df 3a3b
00000380: 0c6c 34bb 62e2 6a3b 24e4 beba 721e 2d3c
00000390: bf5a 7e3b 114d 893a 9b31 533b ecbd 03bb
000003a0: b5b9 7f3b 08f1 27bb 2ad2 463b df94 463b
000003b0: c822 66ba 5ebd 883b f891 ac3a 5c7f 59bb
000003c0: 59c1 e43b a87a adba 8958 44bb a581 0eba
000003d0: 2223 92bb fc03 1fbb afae 7a3b 5a7b 9a39
000003e0: 2232 073c ac7c 163b c83b b3bb 5976 623b
000003f0: 4237 943b e861 4fbb 7028 893b 2f9c d63b

network_body._body_endoder.seq_layers.4.weight f4 [256, 256]
0.16697334 0.07294633 0.008373009 -0.0349259 0.033111017 -0.047849786 -0.09450866 0.064747736
0.030571898 -0.018260233 0.07150098 -0.042283665 0.014721948 0.0792787 -0.016488325 0.080798335
-0.005888555 -0.006186115 0.013293366 -0.025582928 -0.0038454984 0.044751953 -0.0032812485 -0.03587733
0.039219897 -0.023134423 -0.03300234 -0.029403301 0.02824669 -0.109430045 0.010297941 -0.0006272633
0.0039164657 0.015811559 -0.054819614 -0.026285188 -0.03323856 0.041625645 0.028787872 0.11828584
-0.024642456 -0.016468644 -0.062483855 0.0168999 0.07639975 0.006709309 -0.048690896 0.012503809
0.026588142 0.05558988 -0.070395775 -0.01507152 -0.060178168 0.016959049 -0.15623915 -0.0794906
0.0073345127 0.07119431 -0.046635848 -0.0012307118 -0.06389915 0.010651215 0.04380401 0.0421403
-0.017686376 0.047450002 0.041470278 0.10044963 -0.011243 -0.051422745 0.016596539 -0.0056708264
-0.040748812 0.032480747 -0.06258414 -0.05259723 0.07471785 -0.049065772 -0.042136863 -0.08077628
0.03296228 0.08409235 -0.06516213 -0.08250149 -0.048405852 -0.04132188 -0.05736813 -0.07592665
0.014952355 0.0463284 0.033613615 -0.063112386 0.07207785 -0.013330943 -0.0064799665 -0.01067644
-0.070768274 -0.08210555 -0.058703244 0.0028896572 0.067769155 0.029437182 -0.051195413 0.0003977117
0.038554493 0.048427295 -0.052968055 -0.11576956 0.08873236 -0.060874466 -0.037120875 -0.051226888
0.03145128 0.032034386 -0.05841488 -0.07749117 -0.033365466 -0.014894934 -0.05356097 0.04062014
-0.11292709 -0.011356302 0.0092971595 0.038162936 -0.07236458 -0.07080165 -0.0038988756 0.024995353
0.038249124 -0.06758188 -0.028051991 0.021556698 0.0072036195 -0.06653381 -0.03994048 0.04468958
0.024516372 -0.013356778 -0.06685591 0.0514499 -0.085053146 0.1011149 0.08787759 -0.04690912
-0.06347896 -0.013657523 -0.021341272 0.07698963 0.14041613 0.14202763 0.008495491 -0.088366866
-0.028090656 0.054675583 0.04816756 0.076978914 -0.0508605 -0.03063427 -0.013154685 0.07927914
-0.13044758 -0.090583414 -0.014361899 -0.0091508385 0.13763873 -0.10278088 -0.017755384 0.05445758
-0.062255967 0.04553751 0.032510146 -0.019445583 0.028404832 -0.027150411 0.049677316 0.028754862
0.041244943 0.12751158 -0.11693585 -0.059070654 0.123369865 -0.068385854 -0.036315937 -0.06816898
0.14104864 -0.071674235 0.103550605 0.01538174 0.053345058 -0.016051464 0.030324126 -0.120549165
-0.082845904 -0.13611247 -0.04836494 -0.04747589 0.059336193 -0.048149806 0.044586275 0.013263191
0.0034639202 -0.06600103 0.093099214 -0.08635868 -0.04728287 -0.10123062 0.005530684 -0.06540049
-0.023931377 0.08594292 0.11440177 0.03731613 0.052615587 -0.09718495 0.009416841 0.109841615
0.0925913 0.007532462 0.13521494 -0.011103775 0.08504255 -0.046770208 0.04970324 0.03156128
-0.08328918 -0.03661351 0.02143835 -0.023259431 0.05946367 -0.04687304 0.10877906 -0.0030766241
-0.05968099 0.10778928 -0.016818989 -0.06128145 0.021000057 0.057604328 0.00048025313 0.091208085
0.100465626 0.087225005 -0.031963058 -0.06678711 -0.03131024 -0.04871834 -0.047638394 -0.1032616
0.010123233 -0.09344767 0.05405174 0.02988818 0.062541075 -0.018855715 -0.041898828 0.009437231
00000000: 0ffb 2a3e e364 953d f22e 093c 760e 0fbd
00000010: 6b9f 073d 23fe 43bd c28d c1bd 769a 843d
00000020: eb71 fa3c 7c96 95bc 1b6f 923d a331 2dbd
00000030: 5334 713c df5c a23d 8612 87bc 9979 a53d
00000040: c8f4 c0bb e5b4 cabb 6bcc 593c 4a93 d1bc
00000050: c204 7cbb d34d 373d 370a 57bb 1bf4 12bd
00000060: 0ba5 203d 6784 bdbc 762d 07bd 31df f0bc
00000070: 9a65 e73c dc1c e0bd b2b8 283c ed6e 24ba
00000080: b255 803b 3e87 813c 888a 60bd 0954 d7bc
00000090: 2825 08bd a77f 2a3d 8bd4 eb3c d93f f23d
000000a0: fade c9bc 40e9 86bc 12ef 7fbd a971 8a3c
000000b0: 7977 9c3d c3d9 db3b 1b70 47bd c7dc 4c3c
000000c0: 60cf d93c 37b2 633d a92b 90bd 89ee 76bc
000000d0: 627d 76bd b4ed 8a3c 28fd 1fbe f8cb a2bd
000000e0: 5a56 f03b 53ce 913d 3b05 3fbd d64f a1ba
000000f0: 8fdd 82bd 6f82 2e3c d56b 333d 4f9b 2c3d
00000100: 05e3 90bc ef5a 423d bddc 293d 89b8 cd3d
00000110: 8f34 38bc a8a0 52bd 77f5 873c 57d2 b9bb
00000120: 3ae8 26bd 880a 053d 1d2c 80bd 3170 57bd
00000130: ac05 993d 31f9 48bd b497 2cbd 096e a5bd
00000140: 7503 073d 9c38 ac3d b973 85bd 8bf6 a8bd
00000150: 3745 46bd 2241 29bd d8fa 6abd 6e7f 9bbd
00000160: b9fa 743c d9c2 3d3d 6eae 093d 1141 81bd
00000170: 8d9d 933d 076a 5abc e655 d4bb 3cec 2ebc
00000180: f5ee 90bd f426 a8bd d072 70bd 6760 3d3b
00000190: 8eca 8a3d 3f26 f13c 48b2 51bd f683 d039
000001a0: 51eb 1d3d b35b 463d 08f5 58bd 9718 edbd
000001b0: 50b9 b53d 8157 79bd 0f0c 18bd 49d3 51bd
000001c0: 0fd3 003d 7d36 033d 7144 6fbd b1b3 9ebd
000001d0: 3aaa 08bd e209 74bc bf62 5bbd 4e61 263d
000001e0: 5146 e7bd c80f 3abc 1d53 183c bd50 1c3d
000001f0: e233 94bd 7500 91bd 4784 7fbb 0ec3 cc3c
00000200: 1dab 1c3d 5e68 8abd 4acd e5bc ac97 b03c
00000210: 570c ec3b e142 88bd a198 23bd 6c0c 373d
00000220: 8fd6 c83c 63d6 5abc c0eb 88bd 21bd 523d
00000230: 5830 aebd 5415 cf3d 2af9 b33d c723 40bd
00000240: 4201 82bd cec3 5fbc e4d3 aebc bdac 9d3d
00000250: 3fc9 0f3e b16f 113e ac30 0b3c b0f9 b4bd
00000260: 601e e6bc 81f3 5f3d 594b 453d 1fa7 9d3d
00000270: 1a53 50bd b8f4 fabc bf86 57bc 1a5d a23d
00000280: 0d94 05be cc83 b9bd 2c4e 6bbc 66ed 15bc
00000290: 2bf1 0c3e c87e d2bd bd73 91bc e90e 5f3d
000002a0: 1d00 7fbd 8a85 3a3d 5c29 053d 584c 9fbc
000002b0: 40b1 e83c 8a6a debc 717a 4b3d 518f eb3c
000002c0: 75f0 283d 6592 023e 107c efbd 12f4 71bd
000002d0: 57a9 fc3d e20d 8cbd 05c0 14bd 2e9c 8bbd
000002e0: 0e6f 103e f1c9 92bd 5712 d43d b203 7c3c
000002f0: 5980 5a3d 5c7e 83bc 4d6a f83c 7be2 f6bd
00000300: 1dab a9bd 1161 0bbe 511a 46bd 1476 42bd
00000310: 820a 733d bb38 45bd 19a0 363d db4d 593c
00000320: f002 633b 8c2b 87bd cdaa be3d d2dc b0bd
00000330: afab 41bd 0052 cfbd bd3a b53b b1f0 85bd
00000340: bc0b c4bc d702 b03d 7a4b ea3d ccd8 183d
00000350: 7183 573d e708 c7bd 1849 1a3c a4f4 e03d
00000360: 82a0 bd3d dfd2 f63b c975 0a3e 9cec 35bc
00000370: ca2a ae3d 1e92 3fbd a095 4b3d 6746 013d
00000380: 8593 aabd 0cf8 15bd 7b9f af3c 908a bebc
00000390: 2d90 733d f2fd 3fbd 8ec7 de3d 30a1 49bb
000003a0: 0e74 74bd a0c0 dc3d fac7 89bc 4202 7bbd
000003b0: 5008 ac3c 84f2 6b3d 7cca fb39 4ecb ba3d
000003c0: ecc0 cd3d 06a3 b23d b2eb 02bd aec7 88bd
000003d0: 2b3f 00bd e28c 47bd 7a20 43bd d17a d3bd
000003e0: ebdb 253c 7e61 bfbd 5b65 5d3d 0ed8 f43c
000003f0: 8915 803d 4d77 9abc 1b9e 2bbd 9e9e 1a3c

network_body.observation_encoder.processors.0.normalizer.running_mean f4 [68]
0.23691468 0.49074394 0.27228698 0.716608 0.3860657 0.4217837 0.19210584 0.6368538
0.3281161 0.45142972 0.22031988 0.64379936 0.39367992 0.42925766 0.1769594 0.5909885
0.38030395 0.43192714 0.18754598 0.59883934 0.3511062 0.5841746 0.06430206 0.5871822
0.28073433 0.6071134 0.11139803 0.6543906 0.26195773 0.6869235 0.04919013 0.62026876
0.24160013 0.68999326 0.06646601 0.65926987 0.25992423 0.67005956 0.06370189 0.61736554
0.2319482 0.69296616 0.06896387 0.64568675 0.2756166 0.5474028 0.046846032 0.5718647
0.2475678 0.58007145 0.06057795 0.59331703 0.29997614 0.4317993 0.0023659994 0.49447638
0.2304042 0.4537281 0.0038839984 0.5338334 0.18365167 0.42043787 0.0041460055 0.510706
0.18365167 0.42043996 0.0041460055 0.51070595
00000000: c399 723e ca42 fb3e 3369 8b3e 9f73 373f
00000010: 67aa c53e 08f4 d73e 65b7 443e da08 233f
00000020: d5fe a73e cc21 e73e 899b 613e 09d0 243f
00000030: 6a90 c93e a9c7 db3e d834 353e 064b 173f
00000040: 33b7 c23e 8e25 dd3e 0e0c 403e 894d 193f
00000050: 31c4 b33e 778c 153f ccb0 833d 9351 163f
00000060: 69bc 8f3e c96b 1b3f a624 e43d 2486 273f
00000070: 531f 863e 38da 2f3f 977b 493d efc9 1e3f
00000080: 0666 773e 66a3 303f 551f 883d e9c5 283f
00000090: ca14 853e 0689 2b3f 2376 823d ab0b 1e3f
000000a0: d483 6d3e 3b66 313f ee3c 8d3d ba4b 253f
000000b0: 9e1d 8d3e 9722 0c3f a0e1 3f3d ba65 123f
000000c0: 6a82 7d3e 907f 143f 9620 783d a0e3 173f
000000d0: 7996 993e cc14 dd3e e20e 1b3b 022c fd3e
000000e0: 14ef 6b3e 0d4f e83e ae8a 7e3b 4ea9 083f
000000f0: 2f0f 3c3e a243 d73e 37db 873b a1bd 023f
00000100: 2f0f 3c3e e843 d73e 37db 873b a0bd 023f

network_body.observation_encoder.processors.1.normalizer.running_mean f4 [6]
-6.557196 3.5650554 -10.999614 6.9997816 8.511923 168.28886
00000000: 8dd4 d1c0 de29 6440 6bfe 2fc1 36fe df40
00000010: d630 0841 f349 2843
