Assets/Training/results/b_treasure_test80_Th64_Lr1e-4Bs4096Bs65536_EndDistanceReward/TreasureSearch/TreasureSearch-5499997.onnx (onnx, 608683 bytes, 13 tensors)

65 f4 [68]
00000000: 1824 fe3e 9fd2 933e 1ce5 f33e 4500 883e
00000010: 0642 f43e c7ba ab3e 55c9 ff3e 254a 893e
00000020: e8e7 de3e 8010 e53e df87 ff3e 9c49 a33e
00000030: 43a9 fc3e ae66 b73e 025c fd3e 5b8f 963e
00000040: 52ba fe3e 6ded ff3e 2cf4 3a3e 7909 a43e
00000050: eb71 fe3e 95a3 ee3e c118 d93e 4925 a73e
00000060: 1fe8 f03e 1965 f53e 6e8a 263e 008e 9b3e
00000070: 05fb dd3e b453 e73e e7d8 3a3e a9da 8c3e
00000080: 3ee0 f23e 36e4 f63e 3f5f 1f3e 66ae a53e
00000090: 4be7 c53e 588d ca3e 4211 ca3d 2ab8 823e
000000a0: 52d5 fe3e 88cd ff3e caee 1f3e 0bf3 a53e
000000b0: 54e4 c53e 377a d53e 0f4f b83d cdfc 873e
000000c0: 7064 fd3e a609 ff3e 7daa ad3d 9bef 623e
000000d0: 43b6 d63e 975b fb3e 7a02 b13c 8ef2 383e
000000e0: e004 6e3e cc30 d33e 1849 c23c af17 2c3e
000000f0: 7503 533e 4ffd eb3e 3a04 b93c 32c7 2b3e
00000100: 7503 533e 50fd eb3e 3804 b93c 2fc7 2b3e
0.49636912 0.2887163 0.47635734 0.26562706 0.47706622 0.33540937 0.49958292 0.2681438
0.43536305 0.4473915 0.4990835 0.31892097 0.49347886 0.35820526 0.4948426 0.29406247
0.49751526 0.4998583 0.18257207 0.32038477 0.49696288 0.46609178 0.42401698 0.32645634
0.47052094 0.47928694 0.16263744 0.30381775 0.43355575 0.45181048 0.18246804 0.27510574
0.47436708 0.48220986 0.15563677 0.32359618 0.38653025 0.39560962 0.09866573 0.2553113
0.49772125 0.49961495 0.15618435 0.3241199 0.38650763 0.41694805 0.08999454 0.2656006
0.4949069 0.4981205 0.08479784 0.22161715 0.4193593 0.49093315 0.021607626 0.18061277
0.23244047 0.41248167 0.023716494 0.1680591 0.20606788 0.46091697 0.022585023 0.16775206
0.20606788 0.460917 0.02258502 0.16775201

68 f4 [6]
00000000: 0fe9 b53f c6c5 7e40 9d66 9a3b 4b98 453b
00000010: 7727 5840 93c0 b042
1.4211749 3.9808211 0.0047119395 0.0030150588 3.3774087 88.37612

action_model._continuous_distribution.log_sigma f4 [1, 2]
00000000: 5958 4abe 1275 63be
-0.19760264 -0.22212628

action_model._continuous_distribution.mu.bias f4 [2]
00000000: 7af3 d0bb 9f1a a43c
-0.006376681 0.020032225

action_model._continuous_distribution.mu.weight f4 [2, 256]
00000000: ad43 123d af8a 3fbd 8302 a53c 378a a73b
00000010: 1958 743b ef43 6e3d acf0 42bd 5b55 04bd
00000020: 11cb b03b 54ee c53c b0f5 5fbc 3b68 4e3c
00000030: 331e 56bb e373 9dbc 2c8b 8ebd 8a65 2ebc
00000040: 53ca 94bc ed55 b5bc aacf 1e3a 2690 273d
00000050: d032 c4bc 3352 103d bc68 5c3d 13c5 3d3c
00000060: 0d48 913c f5fd 8b3c 9b17 133c d938 203c
00000070: f575 4fbb 6f7a 763b 21da 6cbd 12df bd3c
00000080: 2d32 163c 28b7 82ba 8016 2bbc 184f 503d
00000090: 13c9 56bc d63b 3a3d befe 2b3c 391f f6bc
000000a0: 1333 2a3d e701 0bbd fea8 3a3c 22dd 4ebd
000000b0: afb7 463d 1722 99bb b901 7e3c 0244 d7bc
000000c0: ab0f 0a3d 5842 c73c 25f3 19bc 13e3 08bd
000000d0: b66c 283b 7b3d 993c 98fe 9fbd 4b79 12bc
000000e0: 3ff5 013d 0d4d bc3c 96cb 83bc 4b9e 9d3c
000000f0: 069d 59bc 21d7 8e3c 4d74 323d bde0 55bd
00000100: 4fe2 d7ba 3039 aa3c d9ce 133d 7dbb f2bc
00000110: f914 513c 45da 573d 4b35 423b 83f6 8d3c
00000120: 5687 f2bb 2ac0 7d3c f104 883b 72dc adbb
00000130: fe61 583d 37a5 e43c 372e 9c3d d89a 583b
00000140: 42c0 143b 894c 03bd 14be 3bbd 1a36 e33c
00000150: ee52 a73c bb0e bcb9 1c3c 0bbd f5cd 52bd
00000160: 6cfb 2b3c 6f8b 13bd 3449 35ba 952b 1dbd
00000170: 851e 0d3c 0d69 993c 71a2 7d3d 1aae be3c
00000180: a25d 16bd 4b1d 6ebc 2c0a 803d 9e75 0cbd
00000190: 6579 9e3c 8040 86bd ad8b 073d df81 a63c
000001a0: 36bd 47bd 8f23 67bc 4001 123d 6007 0bbd
000001b0: 08d5 7dbb 7f32 b1bc 1c8e c83c 2984 debc
000001c0: 7229 cf3c 6f2f 1d3d bdf9 c7bc 5b6a 50bc
000001d0: cf2d 9c3c 2398 f23c 5449 3ebc e35d ceba
000001e0: afa9 a1bb 587f 4b3b 416e febc 08d6 c7bc
000001f0: a06c 083c cb24 033c 6a0b 293b 9773 f93b
00000200: 65c8 b53c 17a2 c1bc 8e36 dc3c 1e39 00bd
00000210: 2d28 ebbc 5ac9 90bc 5e53 a33b 3aee a13b
00000220: a49d 843b 0a77 89bd 760c 86bc 398b cd3c
00000230: e58f 8f3c 9333 803c f367 8b3c eeb9 ee3b
00000240: b98e d8bb 65b5 0b3d 01ec 0ebd 98ff e3bc
00000250: 25ee 253d d31a 0fbd 2696 1c3d 69e7 02bd
00000260: fd7e febc 2e8d 373d 6ff7 a4bc 25d9 39bd
00000270: e90c 43bc c72c 883c 341b 633c 0708 d43c
00000280: 20a7 1e3d b86e b0b8 558f 42bd b8a3 c4bc
00000290: 15c6 6f3c d69e edbb 35ee bcbb 9bc3 e4bb
000002a0: 27bc f93a 5496 e8bc 841c cabb dfda c4bc
000002b0: 2700 dbba 37f0 d2bc 223b 8ebc 567c 24bd
000002c0: 0910 383d d65a 653c 548a ed3c 2c8d 803c
000002d0: 0b4a 313b fa73 c23c 3c1f cd3c 5416 31bc
000002e0: 3444 233c 1cb7 873c 5ebb fc3c 0db6 07bd
000002f0: 911e 053d 3717 98bb 3ef7 3bbd 4e2d 09bc
00000300: cbe3 82bd 6170 143c 7267 87bc 337a faba
00000310: 694c 09bd 4302 59bc 6e4f 03bc 5164 9d3b
00000320: fa65 e53c 2fdc a03c 2b9e 0abc a2e2 02bd
00000330: e88d 12bd 5bac 4cbd a23d 68bd b3b3 09bd
00000340: efdd 8ebc 7085 afbb c3df 7a3c ffe5 ec3b
00000350: cb1c 0d3d 3ee1 513d bb61 2a3d aca8 893b
00000360: b8c1 fd3c 3ec6 80bc 1d05 933b 0374 cebc
00000370: d3b3 5cbc ce33 b9bc ccab 8e3d 8390 b83c
00000380: 03d7 ed3b 7832 e73b bd6b d03c 976d 483d
00000390: 668e c3bc e401 6ebd 5900 f63b 1716 9dbb
000003a0: c1cb d5bc b392 1b3c 4cf3 963b 9c7a b8bc
000003b0: 00aa 973c 83ec 26bd 9e85 323d f12f 06bc
000003c0: 07b7 ed3b aa3b a53c 36d5 6abc 64f5 d5bc
000003d0: 2343 2e3d c246 103b d9d8 afbc 7930 12bd
000003e0: b0d2 a33c 3eac 2ebc 62a1 74bd 017c a33c
000003f0: ed43 8dbb dc79 deba f355 053d b948 743d
0.035709072 -0.04676312 0.0201428 0.005112912 0.0037283956 0.058170255 -0.047592804 -0.032307964
0.005395301 0.024161495 -0.013669416 0.012598093 -0.0032671809 -0.019220298 -0.06960139 -0.010644326
-0.018162882 -0.0221357 0.0006058166 0.040908955 -0.02395001 0.03523464 0.05381082 0.011582631
0.017734552 0.01708887 0.008977796 0.009779179 -0.0031656001 0.0037609597 -0.05782521 0.023177657
0.009167236 -0.0009972798 -0.010442376 0.05085668 -0.013109463 0.04546722 0.010497747 -0.030044185
0.041552614 -0.03393736 0.01139283 -0.050503857 0.048515018 -0.0046732533 0.01550334 -0.026277546
0.03370635 0.024323627 -0.009396349 -0.03341968 0.0025699562 0.018706074 -0.07812232 -0.008940051
0.031728026 0.02298596 -0.016088288 0.019240519 -0.013282066 0.017436566 0.043567944 -0.05221628
-0.0016470643 0.020779222 0.036085937 -0.029630417 0.012761348 0.052698392 0.0029633816 0.01732946
-0.007401387 0.01548771 0.0041509797 -0.00530582 0.052827828 0.027910812 0.07626002 0.0033051278
0.0022697602 -0.03205541 -0.04583557 0.027735759 0.020425286 -0.0003586913 -0.03399287 -0.051465947
0.010496955 -0.036021646 -0.000691551 -0.03837164 0.008613233 0.01872685 0.061922494 0.023276377
-0.03671039 -0.014533351 0.0625194 -0.034291856 0.019344995 -0.06555271 0.03309219 0.0203256
-0.04876443 -0.014107599 0.035645723 -0.03394258 -0.0038731713 -0.021630524 0.024481826 -0.027162628
0.025288317 0.038375314 -0.024411077 -0.01272067 0.019064812 0.02961356 -0.0116141625 -0.0015744533
-0.004933558 0.0031051245 -0.031058433 -0.02439405 0.0083266795 0.008004378 0.0025794157 0.0076126563
0.022190282 -0.02363686 0.026881482 -0.03130447 -0.02870568 -0.017674137 0.0049843034 0.004941729
0.0040471125 -0.06712158 -0.016363364 0.0250908 0.017524669 0.015649593 0.01701734 0.007285348
-0.0066088107 0.03410854 -0.03489304 -0.027831838 0.040510315 -0.03493769 0.03822913 -0.03195897
-0.031066412 0.044812374 -0.020137517 -0.0453731 -0.0119049335 0.016622914 0.013861466 0.025882734
0.0387336 -8.412957e-05 -0.047499973 -0.024003848 0.014634629 -0.0072516007 -0.005765701 -0.006981326
0.0019053266 -0.028391995 -0.00616795 -0.024030147 -0.001670842 -0.025749309 -0.017362181 -0.04015764
0.044937167 0.013998708 0.028996624 0.015692316 0.002705219 0.023736943 0.025039308 -0.010808546
0.009964991 0.016566806 0.030851062 -0.0331326 0.032499854 -0.0046414393 -0.045890085 -0.008372618
-0.06391104 0.009059996 -0.016528819 -0.0019109905 -0.033520136 -0.013245168 -0.008014543 0.0048032184
0.028002728 0.019636242 -0.008460562 -0.031954415 -0.035779864 -0.04996906 -0.056699403 -0.03361864
-0.01743981 -0.005356483 0.015312138 0.007229566 0.034451287 0.0512402 0.04159711 0.0042010155
0.030976161 -0.01571953 0.0044866935 -0.025201803 -0.013470608 -0.02260771 0.069663614 0.022529846
0.0072582974 0.007055577 0.025441999 0.048932638 -0.023871612 -0.05810727 0.0075073657 -0.004793893
-0.026098134 0.009495425 0.00460664 -0.022519402 0.01851368 -0.0407529 0.04358446 -0.008190141
0.0072544846 0.020170052 -0.01433306 -0.026117988 0.042544495 0.0022014831 -0.021465706 -0.03569076
0.019997925 -0.010661183 -0.05972422 0.01995659 -0.004311076 -0.0016973573 0.03255267 0.059639666

network_body._body_endoder.seq_layers.0.bias f4 [256]
00000000: 434e aabc 5782 9f3c fea4 bbbb 6a1e a03b
00000010: 106d 1a39 0583 c63b 34f5 d93c 08bd b4b9
00000020: c181 643c f648 1abc 98d8 c13c 8d6e 0b3d
00000030: f01d 7d3c 5d19 d33c 2c87 3cbc 20c2 f73c
00000040: ee96 59bc 6dae 953c 0df0 bb3c 6ffa 013d
00000050: 248f 3a3c d46b 543c 6e0b 1cbc 2d49 453c
00000060: 6e5f 273c 53d5 dd3c b43e 4c3c 54dd 48bc
00000070: 834b 393c 0c0d 613c 1874 ee3c 02d8 d83c
00000080: 565a f93c 507e c63c 637e 483c d825 a33c
00000090: 0dad 6a3c 588a 333c 5002 36bc b494 023d
000000a0: 45c2 ca3c d483 8e3c ba04 81bc 6721 b63c
000000b0: 967c a83c c7fe bc3c 1ae6 ee3b 44e6 793c
000000c0: 8a9d 7f3c 27c9 9c3c 74a6 52bb 9176 b33c
000000d0: 2d33 d93b c6f5 623c bb45 123d c218 423b
000000e0: 2a49 863c 6e4a 083d 6c58 a43c 9712 76bb
000000f0: e369 53bb 4697 a33c 2eff e33c d223 d139
00000100: 7b1d c3bc 17ef 9a3c 1419 89bc 0bbd 4c3c
00000110: 86fb 3d3d c8fe 9e3c fe3e e63a bf27 883c
00000120: 2a37 803c d7a0 023c aee6 f4bc f42e a13c
00000130: dfff e43c 3f5a f1bb afda af3c 598d b63c
00000140: b3db 563c e636 a63c 2de2 89bb a334 943c
00000150: ecb5 7fbc 259c 813c 7040 d83c b9fc d5bb
00000160: df21 f23b 6359 753c dfef 8d3c d303 b73c
00000170: bb79 303c 307d ca3c e9a3 1f3c 340e f43b
00000180: 2701 f0bb 9ecc 763c 2f10 953c b867 c43c
00000190: 879f c7bc 26fc f43b 4867 a13c 7f22 b63c
000001a0: 96e9 e43c 3ebd f13b 1264 50bc 64f5 b53c
000001b0: 24da c43b 2cb4 99bc b42e ed3c b29b 583c
000001c0: 8e70 5c3c ec1a fc3b 0809 aa3c 4c12 bc3c
000001d0: d5df b03c 0f66 553c 6873 043c 479d f93c
000001e0: 0001 b43c dee9 ed3c 6639 3dbc b065 123c
000001f0: 8aec c73c 8193 023d b0df efbb da87 593c
00000200: b18a 993b dfaa 093c 0e89 943c c316 a03c
00000210: cc5b cb3c 6bce e63c a03b 59bc fdb4 84bb
00000220: ea27 87bc 9526 6c3b 6a8d 003d 3931 2d3c
00000230: c829 ee3c 1408 49bc 1fe3 533c 67e2 6ebb
00000240: adce 263d e4ba 8e3c 4d23 a43c cbab d83c
00000250: 35a8 b03c b283 85bc edee 5abc 6f8b 91bb
00000260: 85c2 9e3c a691 8b3c f7a4 b73c 0b3f 5fbc
00000270: 344a ed3c 5859 403c debd 863c 5ae4 cd3c
00000280: 2156 253c 5f87 b33c cc9e 723c 547f f6bb
00000290: 8bfa 9a3c 655f 88bc 8cad 81bc d340 d6bc
000002a0: 58bc 023d 6ede e73c 34c7 6a3c eeb5 b83c
000002b0: 26eb 8b3c f244 033d 9b6b d23c 44fe d73c
000002c0: d3fe 02bc 36ca 23ba 69f3 a23c de00 b83c
000002d0: 1fd1 80bc e367 573c b4d4 a33b b760 b33c
000002e0: aac2 f13b c1af 243c 28b2 d93c 9a04 083c
000002f0: 4f26 ed3c f817 51bc 483f 8ebb b4a3 003d
00000300: 6c24 ae3a bb87 9bbc db3e 94bb 1fdf a53c
00000310: 0e16 233d fec6 bd3c 729a a13c 7f28 003d
00000320: 5282 49bc 5224 863b 0fc1 55bb 0022 003d
00000330: e6c3 a53b 77b8 523c 23aa 5d3b d9c4 e03c
00000340: ae91 c83c 2ae2 a73c ca1c c23c 79d8 2c3b
00000350: 503a 923a 0e21 c93b 115b 963c c70a b73c
00000360: b9b3 6d3a 642d 9c3c 5f6e fe3b e307 253c
00000370: b753 a4bb 963d 863c 4637 5e3c 2374 a23c
00000380: d96c 473c 08eb 9d3c d4c2 ce3c 046e 683c
00000390: 7bb9 d83c c845 4a3c 0d75 673c e002 413b
000003a0: 84d9 bdba 9b96 973c 13fa 673c 5e3a 0b3c
000003b0: f6eb 583c 373e 983c 98ad b0bc 63cf a63b
000003c0: a2e5 c53c 2dce 403c db3b ac3c b11a 013d
000003d0: cf55 373c e799 fc3c 6030 b23c 3fee 833c
000003e0: 67ba b33c 5984 253c fa74 10bb 47a2 e83c
000003f0: 0c77 df3c 1e6a 703c fa59 c73c 8497 db3c
-0.020789271 0.01947133 -0.0057264557 0.004886438 0.00014727213 0.006058099 0.02660618 -0.00034473115
0.013946951 -0.009416809 0.02366285 0.034040976 0.015449032 0.02576893 -0.011506837 0.030243933
-0.013280613 0.01827165 0.022941614 0.031732973 0.011386666 0.012965161 -0.009524209 0.012041372
0.010215623 0.02707926 0.012466121 -0.0122598 0.011309507 0.013736021 0.029108092 0.026470188
0.030438583 0.024230152 0.012237164 0.019915506 0.014323485 0.010958277 -0.01110895 0.031880096
0.024750838 0.017396845 -0.015749324 0.022232724 0.02056722 0.023070706 0.007290614 0.0152526535
0.015601525 0.019138886 -0.003214267 0.021907123 0.006628415 0.013852542 0.03571103 0.0029616808
0.01639231 0.033274107 0.020061694 -0.0037547702 -0.0032259158 0.019969594 0.02783164 0.00039890275
-0.023817768 0.018912835 -0.016735591 0.012496243 0.04638245 0.019408599 0.001756638 0.016620515
0.015651304 0.0079729175 -0.029895153 0.01967571 0.02795404 -0.0073654945 0.021466581 0.022284197
0.013113904 0.02028985 -0.0042078705 0.018091505 -0.015607338 0.015821526 0.026397914 -0.006530371
0.0073892917 0.014974925 0.017326294 0.02234069 0.01077121 0.024717897 0.009743669 0.007447982
-0.007324356 0.015063433 0.018196194 0.023975238 -0.02436806 0.0074763475 0.019702569 0.022233246
0.027943414 0.0073772958 -0.012719171 0.022211738 0.0060074497 -0.01876267 0.028952934 0.013220714
0.0134545695 0.007693639 0.02075626 0.022957943 0.021591106 0.013024821 0.008084156 0.030470503
0.021973133 0.02904218 -0.011549329 0.008935377 0.024404783 0.031878952 -0.007320367 0.013277018
0.0046857228 0.008402555 0.018131759 0.019542104 0.024824046 0.0281746 -0.013258845 -0.004049896
-0.016498525 0.003603374 0.031384863 0.010570818 0.029072657 -0.012269992 0.012932568 -0.0036450864
0.040724445 0.0174231 0.020036364 0.026449105 0.021564582 -0.016298149 -0.013362628 -0.0044416706
0.019379864 0.017037224 0.022417529 -0.01362587 0.028966047 0.011740051 0.016447958 0.0251333
0.0100913355 0.021915136 0.014808368 -0.007522503 0.018918296 -0.01664705 -0.015829824 -0.026153957
0.0319179 0.028304305 0.01432972 0.022547688 0.017079901 0.032048173 0.025686076 0.02636636
-0.007995325 -0.00062480883 0.019891458 0.022461351 -0.015724717 0.013147327 0.0049997214 0.021896703
0.007377942 0.010051669 0.02657421 0.008301878 0.028948931 -0.012762062 -0.00434104 0.03140612
0.0013286001 -0.01898562 -0.0045240945 0.020247994 0.039815955 0.023166176 0.019726966 0.03128862
-0.012299137 0.004093685 -0.0032616293 0.031282425 0.0050587533 0.012861363 0.0033823333 0.027437614
0.024483528 0.020493586 0.023695368 0.0026374145 0.0011156294 0.0061379736 0.01835397 0.022344006
0.0009067613 0.019064613 0.007764622 0.010072681 -0.0050148624 0.016386788 0.013562983 0.019830769
0.012171947 0.01927711 0.025239386 0.014186386 0.026455631 0.012345739 0.014127028 0.0029451177
-0.001448438 0.018504431 0.014158743 0.008497803 0.013239851 0.018584354 -0.021567151 0.0050906404
0.024157349 0.011767906 0.021024635 0.031519596 0.011189892 0.030835105 0.021751583 0.016104816
0.02193947 0.010102355 -0.002204238 0.028397692 0.027278446 0.014673738 0.024334896 0.026805647

network_body._body_endoder.seq_layers.0.weight f4 [256, 74]
00000000: 013f 60be 3013 2a3d 9e5a 3e3e db01 87be
00000010: 6d8e 31bd 2441 a73d 6332 2b3d a0f6 a1bc
00000020: a4e1 1bbe 5d6e 8f3e bd04 94bd 438a 18be
00000030: b2ba 2f3e a801 2f3e ad14 ac3d 00be 233e
00000040: efe5 a7bc f941 7e3c 273a 5f3d a8a7 9e3c
00000050: 0bf1 57be b7d5 063e b170 a1bc c1aa 503e
00000060: af2e 583b 9cad debd 5198 35bd 0fdb 93bd
00000070: e75e 4ebe f10e 49be 888b b1bc 51df 54bd
00000080: afb5 6e3c ad9a f1bd 2af6 053d 112b 243d
00000090: 8381 48bc ec77 71bd aeb1 19bd acd7 1d3d
000000a0: e5fc adbd 231d d13c b766 69bd b117 d83c
000000b0: b944 f43d 581e ecbd 6f8d 2d3e b5da 723d
000000c0: e4c4 f1bc 713e 98bd 0aae e1bd d5f7 a8bd
000000d0: 2ca6 82bc 1ab9 04be 93b2 733d 1bed 5ebd
000000e0: ef84 a13d 968d bebb 5f37 fd3d b92a 26bc
000000f0: e815 2d3e b3cf 2a3d 4eb4 8cbd 2a7b 9dbd
00000100: 451b b9bd b2e5 113e ffaa f9bd ff72 b43d
00000110: 9822 8cbd abb2 ed3c 84d1 b9bd d1f7 0b3e
00000120: 2661 bb3c c0c2 83be c2c3 0e3a 8382 2fbd
00000130: 3522 1abe 9a3d 30be bb76 f23c 2639 a5bd
00000140: a280 6bbd ab75 f4bd be48 babd 9a45 363e
00000150: 187d 16be e387 90bd 1ae1 983d c4b6 a13c
00000160: c5aa dc3c 5228 063e 5832 38bd e70b cd3e
00000170: bad3 2c3e 7138 65be 9496 643d 053c 48be
00000180: 34f1 39be f7e8 a13d d1fe 8dbd be9e 4b3d
00000190: 814f 84bd 4044 053e 88cd 443d e95e f53c
000001a0: e14e 3bbd 52e1 62be ac40 0dbd 9e7c 493e
000001b0: 50fc af3c c03f 9fbd 45e1 f3bd 34c9 843d
000001c0: 620f c93c 577b 053e 7ce9 603d 0dbf fa3d
000001d0: 71a3 b83c 739b c9bd cda5 633d b8fa 0ebe
000001e0: 609d 21be e6c0 813c 4fd1 b4bd ae6a 423d
000001f0: 13b3 b2bd bde8 e6bd 8ecd 653e d54d 853d
00000200: c6b9 39bd 5180 33bd 7c9e 033e 401a 433e
00000210: 6f7b 72bd ea33 83bd eb56 cabd be42 773c
00000220: 360a 8d3c 6789 893e 243e 20bd d630 85be
00000230: d797 013e 4eac 4d3e 051b 56bd e805 98bd
00000240: d36c 5d3d 3823 813e 6101 a23b 0099 c83d
00000250: ace4 e83c 7b87 31be b791 e23b 3e41 9e3d
00000260: 482d 71be dd77 0cbe a909 0cbe 4802 c5bd
00000270: 3cd2 1ebc 72f9 0dbc 486a 16be dc75 7abe
00000280: 820a 7bbe 73b6 0ebc 2f0e 87be d03f d7bd
00000290: fd5d f3bd fb03 3b3c 94c9 1c3e 82e7 863d
000002a0: 6f47 363e f4e5 eb3d 93f6 d93c de7a 94bd
000002b0: 1cb1 75bd d427 0dbc d603 6ebd a35f 5fbd
000002c0: d3c9 dabd 2ee2 09be a151 253d 0ed6 303e
000002d0: 9328 cfbd eaba 4bbd f63c 423e 8477 753d
000002e0: bd34 58be 0e56 6a3e 46ef 1a3e be60 aa3d
000002f0: 6f90 353c c86a e7bc 7b7d 543e 334e f73d
00000300: 1a71 cbbc 8571 323d 5ec6 25be c7f7 083e
00000310: d682 9dbd b778 a3bd 3231 28be 6b32 04be
00000320: a72e aabd 9e12 91bd ad3d b4bc dda0 e0bd
00000330: d6ab ff3d 6675 b4bc 653d 2fbd ea82 a33d
00000340: 1d7f c13b b3a8 9abd 07a6 583d f664 c23e
00000350: 2f60 a2bc 77ae 0abe fa56 11be 80a2 aa3c
00000360: c0c2 27bd 0f1e f93d a28b b8bd ed2b c93d
00000370: 4285 11be b6c0 083e bf4a 1d3d e5e3 00bd
00000380: 9839 e23c 3980 08be c5eb 403d 25f9 f4bd
00000390: fbba 12bd 26f7 3a3d be92 3e3e 976f 3cbe
000003a0: 4719 33be f444 ebbd f07f a03d cc32 303d
000003b0: df64 d2bd b7a3 3b3d 92ef 13be 300f f2bd
000003c0: 4788 f33c 72b7 f73c 2e82 4c3c 766e 373d
000003d0: 9da9 09be b43a 41be 4118 603e c0f1 483d
000003e0: e5cf d93c 488d c2bd 8a4a 23be d93f 0c3e
000003f0: 81e7 abbe 74ba 27be 7082 31bd 14ad 1b3e
-0.21899034 0.041522205 0.18589255 -0.26368603 -0.04334872 0.081667215 0.0417961 -0.01977092
-0.15222794 0.28013888 -0.07227466 -0.14896493 0.17161062 0.17090476 0.08402381 0.15990448
-0.020495383 0.015518659 0.054498818 0.019367054 -0.21088044 0.13167463 -0.019707056 0.20377637
0.003298681 -0.10872957 -0.044334713 -0.072195165 -0.2015339 -0.19634606 -0.021672979 -0.051970784
0.014569684 -0.1179708 0.032705463 0.040080134 -0.012237909 -0.058952257 -0.037522964 0.03853576
-0.084955014 0.025526589 -0.056982722 0.026378484 0.1192717 -0.11529225 0.16948484 0.059290607
-0.02951283 -0.07433785 -0.110195234 -0.08250395 -0.015948378 -0.12961236 0.059496474 -0.05442534
0.07886683 -0.005815218 0.12364077 -0.010142022 0.16902888 0.041701984 -0.06870328 -0.07689507
-0.090384044 0.14247778 -0.12190818 0.08810996 -0.06842536 0.02901586 -0.09073165 0.13668753
0.022873472 -0.2573452 0.00054460403 -0.042849075 -0.15052111 -0.17210999 0.02959763 -0.08067541
-0.05749572 -0.11936506 -0.09095906 0.17799988 -0.14696157 -0.07057168 0.0746481 0.01974047
0.026936898 0.13101318 -0.044969887 0.40048143 0.16877642 -0.22384812 0.055807665 -0.19554146
-0.18158418 0.07905763 -0.06933368 0.049711935 -0.06460477 0.13014317 0.048047572 0.029952483
-0.04572952 -0.22156265 -0.034485504 0.19676444 0.021482617 -0.07775831 -0.11908201 0.06483689
0.024543468 0.13035332 0.054910168 0.12243471 0.022538872 -0.09844103 0.05557804 -0.13962829
-0.1578269 0.015839051 -0.08828985 0.04746502 -0.08725562 -0.1127486 0.22441694 0.06508986
-0.045343183 -0.043823544 0.12853426 0.19052982 -0.059199747 -0.06406386 -0.098798595 0.015091596
0.017216783 0.26862642 -0.039121762 -0.2601382 0.12655579 0.2008526 -0.05227186 -0.074230015
0.05405886 0.25222182 0.004944012 0.097948074 0.028429352 -0.17336838 0.006914343 0.07727288
-0.2355243 -0.13717599 -0.1367556 -0.09619576 -0.0096936785 -0.008665429 -0.1468898 -0.24459022
-0.24515727 -0.0087104915 -0.2637801 -0.10510218 -0.11883161 0.011414523 0.15311271 0.06587125
0.17800687 0.115184695 0.026606834 -0.072499976 -0.059983358 -0.008615453 -0.058109127 -0.054534566
-0.10683026 -0.13465187 0.04036105 0.17269155 -0.10115161 -0.049738802 0.18968567 0.059928432
-0.21113868 0.2288439 0.15130338 0.08319233 0.011081799 -0.02824916 0.20750992 0.12075462
-0.024834204 0.043565292 -0.16188952 0.1337577 -0.076909706 -0.07982009 -0.16425017 -0.12909858
-0.083096795 -0.07083629 -0.022002066 -0.10968182 0.12483947 -0.022028636 -0.04278316 0.07983954
0.0059050457 -0.07551708 0.05289271 0.37967652 -0.019821255 -0.13543116 -0.14193335 0.02082944
-0.040957212 0.12163936 -0.09011008 0.09822831 -0.1421099 0.13354763 0.03840136 -0.031467337
0.027615353 -0.13330163 0.047099847 -0.11961583 -0.03582285 0.045645855 0.18610665 -0.18401943
-0.17490111 -0.11487761 0.07836902 0.043017194 -0.10273146 0.045810428 -0.14446858 -0.11819303
0.029728068 0.03023884 0.012482209 0.044783078 -0.13443609 -0.1887005 0.21884252 0.049058676
0.02658839 -0.094996035 -0.15946403 0.13696231 -0.3357506 -0.1637972 -0.043337286 0.15202743

network_body._body_endoder.seq_layers.2.bias f4 [256]
00000000: f738 1e3c 5fbe 143c 8b2d f0bb 4043 ba3c
00000010: 0dba af3c 6170 74bc f48c b0bc f13f 80bc
00000020: 194e e03b 93d4 d73c de55 07bd 57c1 a5bc
00000030: 8ee1 ac3c f363 e13c 03a0 20bb 6ba9 bf3b
00000040: b461 cc3c ff4b 5abc 61b7 a8bc 3277 bcba
00000050: 88fa 1b3c c92c 84bc 6a70 c13b eee9 f33c
00000060: a5be 943a f645 ad3c 61f6 b83c 9a1f 033d
00000070: ba37 743c 0d1c 87bc 5654 7a3c efeb 013d
00000080: e199 553c 185a 233c 995d f4bb ca84 803c
00000090: 60e9 f63c 74b3 2cbb 4d0a 85bc 9505 d5bc
000000a0: 0c2a be3c 60f4 a2bc 82e5 da3c 053a bbbc
000000b0: 865b ce3c d5a8 8bbc efdc 11bc 2bb6 1dbc
000000c0: 8bca 16bb 29c5 033d 345a a1bc 78cc a33b
000000d0: 0f4d a03c 9159 c83c 63f5 1e3c 128a ac3c
000000e0: 1445 d33c 2066 4cbc fe16 b23c 22da a43c
000000f0: 17a4 803c 8a03 81bc b5db a33c 5866 963c
00000100: 8d4f c33c 26af bc3c 1976 48bb a5c1 4c3c
00000110: c228 933c 6a0d db3c 5fef bc3c d469 06bc
00000120: 11de 24bc 82f2 b9bc db63 aebb da2f b33c
00000130: c03a 003c 76dc aebc 73a7 90bc 6778 803c
00000140: 915d 8f3c fd78 463c 3e58 94bc e304 c03c
00000150: 0ccc c13c 59a2 eb3a 654e bb3c d859 cf3c
00000160: 99fb a7bb ebd4 58bc 997b c5bc 60ab e03c
00000170: 2399 8dbc 7eb8 82bc 350c 9e3c ea55 2abc
00000180: dd73 3e3b d30d c43c 8d19 cb3c cc67 ce3c
00000190: e83d 8cba aca8 063c 8495 c53c 5392 1bbc
000001a0: c9d1 9f3b 143d df3c 89dc 1abb fbe9 ab3c
000001b0: a98c d83c e5ee be3c 0a8e 06bc a4c9 873c
000001c0: 6e63 233c 5272 21bc 84fa b43c f008 563c
000001d0: 658c 1b3c 7a3b c33c 4933 cd3c dca7 af3c
000001e0: 8d85 34bc d59d 823c 75fb f43c a384 16bc
000001f0: 9a0c 973b dc06 943c b152 3e3a 2661 433c
00000200: b5aa d63c 4429 3bbc 1148 97bc 7dc7 823c
00000210: 4074 d73c a019 ce3c 2999 a8bc 644a cbbb
00000220: 11e9 babc fb1a eb3b 1ceb ee3b 53fa 89bc
00000230: 6e1c e13c 9656 75bc 5df5 cd3c d6c7 c53c
00000240: dffa d13c ce0f c8bc 992e e63c 2bde 28bc
00000250: fec3 65bc 5231 dd3c e9a7 cabb 288d a63c
00000260: a350 823a 60a1 383c fc97 ad3c 6804 aebc
00000270: 3580 9c3c 55d7 903c ef30 f4bc b552 613c
00000280: 4f20 b4bc bcdb 443a f84f ab3c 3380 943c
00000290: b5ba 8e3b 08d5 92bb d87f 37bc 948c b83c
000002a0: 9b42 c63c 7064 8d3b cd4a abbc 88ae 77bc
000002b0: 4d42 8d3c 69bd 8bbc 7338 a03c 0190 ce3c
000002c0: 498c 313b b50b c93c c8a9 ad3b 0a5d ab3a
000002d0: 0fe5 a1bc 0ad7 6f3c ff85 8d3a c2cf b53c
000002e0: 7d82 c83c 7530 39bc d78a 073c 83a5 d23c
000002f0: fb93 cf3c adda b03c 613e 973c c161 5e3c
00000300: 1df7 a03b 1f23 bdbc ac44 9dbc 1600 8d3c
00000310: b78e af3c 3faa 89bb 7f67 a13b 2ed8 03bc
00000320: b64f d53b 7f9a b63c 9ff7 61bc 79ba b6bc
00000330: 5965 72bc 16e1 9b3b d1f3 a5bc 7148 88bc
00000340: 99e8 01bc 6c36 4cbc a6dc b8bb 1785 9b3c
00000350: db76 d83c 2c7e 673a 5a07 ac3c e325 02bd
00000360: 6b59 aa3c 9545 863c 3156 643c c4bf e03c
00000370: 1fd4 98bc dee9 90bc b41c ae3c 495f 303c
00000380: e64b 2dbc 3e10 233c e334 803c f4d8 5b3c
00000390: c069 baba 629d a1bc 9004 a53c a053 993c
000003a0: ad38 02bb 44fb 983c 1eb7 b3bc 5a95 b33c
000003b0: e930 b33c 8022 86ba 00f1 0fbc 33d8 22bb
000003c0: c269 bb3c 73df a83c 4be4 a53c 08a4 c93c
000003d0: 1d31 9a3b df2c d83c 7b08 283c 182e b9bc
000003e0: 6fd4 9e3c 915e b83c dcac 4e3c f2cb 183c
000003f0: e3e4 34bc 2f26 8cbc bb0a 9bbc 5224 ad3c
0.009657136 0.009078591 -0.007329648 0.022737145 0.02145102 -0.014919371 -0.021551587 -0.01565549
0.0068452475 0.02634648 -0.033040874 -0.020233793 0.021103647 0.02751348 -0.0024509437 0.0058490536
0.024948932 -0.013323783 -0.020595254 -0.0014378785 0.0095201805 -0.016134636 0.0059032934 0.029774632
0.001134832 0.021151524 0.02257842 0.03201256 0.014905864 -0.016492868 0.015278896 0.031719144
0.013037176 0.0099702105 -0.007457447 0.015688319 0.030140579 -0.002635208 -0.016240263 -0.026003638
0.023213409 -0.019891918 0.026720766 -0.022854814 0.025190126 -0.017048279 -0.008902772 -0.009625952
-0.0023008909 0.03217045 -0.019696333 0.00499874 0.019567994 0.024456771 0.009702059 0.02106193
0.025789775 -0.01247552 0.02173948 0.020123545 0.015703244 -0.015748758 0.020002225 0.018359348
0.023841644 0.023032736 -0.003058797 0.01249734 0.01796377 0.026739795 0.02306336 -0.008203942
-0.01006271 -0.022698645 -0.0053219623 0.021873403 0.007826507 -0.021345358 -0.017657971 0.015682412
0.01750067 0.012113807 -0.018108483 0.02343983 0.023656867 0.001797746 0.02286453 0.025311396
-0.0051264283 -0.013234357 -0.024106788 0.027425468 -0.017284935 -0.015957113 0.01929293 -0.01039646
0.002906076 0.023932373 0.024792457 0.025195979 -0.0010699602 0.008218925 0.024119146 -0.009495336
0.0048773033 0.027250804 -0.0023629984 0.020985594 0.02643426 0.023307273 -0.008212576 0.016575642
0.009972436 -0.009853916 0.022092111 0.013063654 0.009493922 0.023832072 0.025048869 0.021442346
-0.011018169 0.0159444 0.02990506 -0.0091868965 0.0046096565 0.018069677 0.0007260247 0.011925017
0.026204446 -0.011423413 -0.018466981 0.015964264 0.02630055 0.025158703 -0.020580845 -0.0062039364
-0.022816213 0.007174847 0.007291211 -0.016842997 0.027479377 -0.014974257 0.025141412 0.02414314
0.02563232 -0.024421599 0.028098391 -0.010306875 -0.014023779 0.027001057 -0.006184567 0.02033098
0.0009942245 0.011268944 0.021190636 -0.021242335 0.019104103 0.017680803 -0.02980849 0.013752629
-0.021988062 0.00075095496 0.020912156 0.018127536 0.0043557533 -0.0044809617 -0.011199914 0.02252797
0.024201682 0.0043149516 -0.020909691 -0.015117295 0.017243529 -0.017058091 0.019558167 0.02521515
0.0027091673 0.024541715 0.0052997805 0.0013073992 -0.019762544 0.014638672 0.001079738 0.022193793
0.024476284 -0.011303057 0.008272848 0.025713688 0.025339117 0.021588648 0.018462362 0.013573111
0.0049122707 -0.023088036 -0.019197784 0.017211955 0.021430356 -0.004201203 0.004925668 -0.008047147
0.0065097464 0.022290466 -0.013791948 -0.022305714 -0.014794671 0.004757057 -0.020257862 -0.016636105
-0.007928991 -0.012464147 -0.0056415377 0.01898436 0.026423862 0.0008830752 0.0209996 -0.031774413
0.020794591 0.016390601 0.013936565 0.027435191 -0.018655835 -0.017689642 0.021253921 0.010764905
-0.010577178 0.009952603 0.015650218 0.013418425 -0.001422219 -0.019728366 0.020143777 0.018716633
-0.0019870207 0.0186745 -0.021937903 0.021921802 0.021873908 -0.001023367 -0.008785486 -0.0024848103
0.022877578 0.020614361 0.02025046 0.024614349 0.004705562 0.026388584 0.010255928 -0.022604987
0.019388406 0.02250603 0.012614455 0.009325968 -0.011040899 -0.017108051 -0.018926015 0.021135483

network_body._body_endoder.seq_layers.2.weight f4 [256, 256]
00000000: 3a88 28bd ff68 5abc c9e2 133d eb51 bb3b
00000010: c6ac 893d cc09 d6bc 97ff 603d 97e9 c23c
00000020: 21f6 bb3d 4963 143d b795 b7bd 36b4 2e3c
00000030: 967e 9a3d 8f2c a13c 5394 943c e54b 1abe
00000040: 30d8 28bc 8530 583d 9886 bb3d 9049 c0bd
00000050: fd21 4bbd c8c3 1cbc b2a5 5e3c a74d cc3d
00000060: 2531 d33a 3c62 463b 4682 153e 69f7 cfbc
00000070: 75d7 4e3e 8b5f dabc 60b4 9c3d 87e9 fd3c
00000080: da33 c3bd 5208 01bc 0613 e93c 986e e7bb
00000090: 6b49 1e3d 0d1c b53d 9624 a93c 6fb1 b03d
000000a0: 32c2 1d3d f04f 9ebd f847 ac3b 742f 853d
000000b0: fd51 113d 9c7b f63d 0f6b 253d 6b85 10bc
000000c0: b197 c8bd 23ce 12bc b92b a6bd 3aa1 633d
000000d0: 03ff 063d 4865 8b3c 8807 003d 7637 b2bb
000000e0: dbff f23d 5425 0ebe 3bbc c9bd 1dd2 053d
000000f0: bd5e 6c3d 964d 673d b9e2 e3bd 0bc1 f23d
00000100: 7ea0 353b c9cb 963c 0e24 29bd 9101 923d
00000110: c694 b1b9 5e2e debd 59cf da3c 2776 cc3c
00000120: af1f a83c fcda c0bb b0d0 d53c 8789 dd3d
00000130: d2c9 d53c 932a 7abc 877d 95ba 04a3 22bd
00000140: 5db4 f63d de0e 193d ce41 a1bd 3b08 39bd
00000150: 9057 eb3c caab d03d e24d d33d 663b f6ba
00000160: e36f a03d b966 c93d 8884 bc3b 0b44 53bd
00000170: 6534 bdbc 362d a9bc dd9a 183d 3076 67bc
00000180: 0895 2cbd cc30 94bd ac51 a33d ffbc c03c
00000190: 0e35 a73c a6f8 27bd 6b97 323d 4e95 b2bd
000001a0: a0ef 55bd b551 f0bd f996 113b 17ec 393d
000001b0: e025 123d ffbd f43d f695 303e 78d1 dfba
000001c0: 839d 5fbd 5c4a 07bd 45b4 36bb d883 cd3d
000001d0: 0794 543d 4bde d03c 22d4 983d 9269 26be
000001e0: 0496 9fbc a4a3 e93d b12a 0c3e 9343 9e3d
000001f0: 9bd8 b23d 7ef3 a8bc c0f8 913b 599b 473a
00000200: 6398 ab3c 1b13 653c 7322 a13d 58e1 0bbd
00000210: 6773 223c 6b67 103e 182c 2cbd 7aa3 d5bb
00000220: d6fd 823d 8f16 3dbd 3f4e a43d 8b1e 6bbc
00000230: aaa9 5bbd cf1b fe3b 17fc a0bc 5419 5a3c
00000240: 6b81 f23c ffb9 12bc fd71 cb3d 0ba4 b83d
00000250: fc48 9ebd 10c1 0e3e d9f6 c23d 6961 f93d
00000260: 0212 b13d 1116 d5bb 9e0d 6abb 9c58 b63c
00000270: ebc6 713d 8e6c 19bd 0357 b1bb cf64 2a3c
00000280: fd79 393d 67e1 e03c 3871 0e3d 1aff 203d
00000290: 153a c03c 0583 903c a837 bebd 830f 7f3c
000002a0: e028 54bd a28a 4b3b f69e 833d d5fa 9a3d
000002b0: aa2f 503d c0c8 e63c c8eb 303c 1b1e 8d3d
000002c0: 47b5 21bd e8b5 0abc 06d1 153d a312 82bd
000002d0: cdd6 2c3d 4f85 2b3d 3597 cf3d 6779 58ba
000002e0: f25c 083d 83d8 f5bc 71e6 8bbc 3a3b 5dbd
000002f0: 617e 98bd ae6b d8bd 648d 223c c64f 5a3d
00000300: 10f9 4cbd 4dc6 d3bc e167 54bc 3761 013e
00000310: 970d 033e 0f4c 41be 905e 87bd 2f25 f63d
00000320: a314 5f3d 4309 953c 9ea6 373d e495 7e3c
00000330: 2018 043c f8b4 063d d766 2c3d 0d0e e6bb
00000340: f3dc aebd 14d1 b3bd 4129 04bd b333 6e3b
00000350: 6093 b43d 9e39 793d 0996 cbbc cc05 df3d
00000360: 9d5f ac3c c3ec a33d 7521 0dbc 9f2a b1ba
00000370: 63c5 803d bcd0 babb 8822 393d 2a2b d73c
00000380: 410a c93c 30ac 173d 390b b73c 0081 9fbd
00000390: d076 c8bc 37ae a73b bf1d 3bbd 4e18 72bc
000003a0: ed2c babd b4df 323d 9f6b e4bc e28a 5d3d
000003b0: f351 61bd 202e 95bd 9bf4 d43d e2cd 0dbe
000003c0: 7e68 613d c6e9 9dbc 562e 7b3b 0cd9 a63b
000003d0: 7bcf 063d 2460 9c3d 60ae 883d d50e b5bd
000003e0: 1cc2 c2bc cf2b 88bd a898 f9bc cb9f 003c
000003f0: aec8 e3bd 278f debd 2e89 83bc 32f3 d6bc
-0.04114554 -0.013330697 0.03610495 0.0057165525 0.06722407 -0.026127718 0.05493125 0.023793025
0.09177805 0.0362275 -0.08964103 0.010663083 0.075436756 0.019674568 0.018137133 -0.15068014
-0.010305449 0.052780647 0.09156531 -0.09389031 -0.04959296 -0.009568162 0.0135893095 0.099757485
0.0016112669 0.0030270955 0.14600477 -0.025386529 0.20199378 -0.026656887 0.07651591 0.030995144
-0.09531374 -0.007875519 0.028451454 -0.0070627443 0.038644236 0.08843241 0.020647328 0.08627593
0.038515277 -0.077300906 0.005257603 0.065031916 0.03547858 0.12035295 0.040385302 -0.008820872
-0.09794558 -0.00896028 -0.08113808 0.05557368 0.032958042 0.017016068 0.031257182 -0.0054387404
0.11865207 -0.13881427 -0.09850355 0.032671083 0.057707537 0.056470476 -0.11127228 0.11853226
0.002771407 0.01840772 -0.04129415 0.07129205 -0.00033870916 -0.108486876 0.0267102 0.024958683
0.02052292 -0.00588548 0.026100487 0.10817247 0.026097212 -0.01526894 -0.0011405208 -0.039706245
0.1204612 0.037367694 -0.078738794 -0.045173865 0.028728276 0.10189016 0.10317589 -0.0018786013
0.07833841 0.09834046 0.0057531036 -0.051578563 -0.023096273 -0.020651441 0.037257064 -0.014127299
-0.042134315 -0.0723587 0.07974562 0.02352762 0.02041104 -0.041008614 0.043601435 -0.08719884
-0.052230477 -0.117343344 0.002221523 0.04539117 0.03568065 0.119503014 0.17244706 -0.0017075976
-0.054593574 -0.0330299 -0.0027878445 0.10034913 0.051898982 0.025496623 0.07462336 -0.1625121
-0.019480713 0.11408165 0.1368816 0.077277325 0.087327205 -0.020623919 0.004454702 0.0007614396
0.020946687 0.013981606 0.07867899 -0.03415045 0.009915209 0.14101951 -0.04203424 -0.006519732
0.063960716 -0.04616409 0.08022737 -0.014350544 -0.0536286 0.00775478 -0.019651456 0.013311703
0.029602727 -0.008955478 0.09933851 0.09015664 -0.077287644 0.13940835 0.09519739 0.12176783
0.08646013 -0.0065028747 -0.0035713683 0.02225905 0.059027594 -0.03745704 -0.005411984 0.010400011
0.045282353 0.02745123 0.034775943 0.039305784 0.023465196 0.0176406 -0.09287959 0.015567663
-0.051796794 0.0031057973 0.06426804 0.07567374 0.050826706 0.028171897 0.010798402 0.06890508
-0.03947952 -0.008466221 0.036576293 -0.06351211 0.042197037 0.04187518 0.10136262 -0.00082578365
0.033291765 -0.030010467 -0.017077656 -0.05401156 -0.0744598 -0.10567413 0.009921405 0.053298734
-0.050042212 -0.025851393 -0.01296422 0.12634741 0.12798153 -0.1887667 -0.06609833 0.12018811
0.05446304 0.018192893 0.044836633 0.015538666 0.0080623925 0.03288743 0.042090263 -0.007020718
-0.085382365 -0.08780113 -0.032265905 0.0036346733 0.08817172 0.060845964 -0.024851816 0.108897775
0.021041686 0.08004143 -0.008613934 -0.001351673 0.062876485 -0.0057011526 0.045198947 0.0262657
0.024541022 0.037029445 0.022344219 -0.07788277 -0.024470717 0.0051172036 -0.045682665 -0.0147763025
-0.090906 0.04367037 -0.027883349 0.054087527 -0.055009793 -0.07284188 0.10398217 -0.1384807
0.055031292 -0.01927651 0.003832718 0.005091792 0.032912713 0.07635525 0.066738844 -0.088407196
-0.0237742 -0.06648981 -0.0304683 0.007850598 -0.11122261 -0.10867148 -0.016056623 -0.026239011

network_body._body_endoder.seq_layers.4.bias f4 [256]
00000000: 18ad b73c 5d5d aa3c e41f 983c c1a1 753c
00000010: e6d1 d23c 9987 9d3b b7a5 3c3b c427 81bb
00000020: 0d61 bb3c 6f82 97bb a528 84bc 5aec c93c
00000030: 9543 af3c ff03 9f3c d0ed 7c3c e45a b63c
00000040: 4afc 59bc 0e8d 913c 3251 42bc 1074 5c3c
00000050: cc9a fb3b c0b0 8e3c e8fb 913c e4e0 7ebc
00000060: 3e78 45bc f0b0 8bbc 2fc2 36bc 92b5 7abc
00000070: 85b9 8e3c f1f4 d5bb 9a42 993b 5e84 613c
00000080: 94d1 653c 93e9 b73c e2e5 cebb 2ed5 833c
00000090: 9263 eeba b606 96bb 5d0f c43c c617 c23c
000000a0: ef5e 46bc 6fa1 973c 04d6 93bc c64b 733c
000000b0: ac09 273b a684 87bc 4df1 83bc 039e dc3c
000000c0: 52ba 8c3b d9b8 22ba d0ce a33c 8a1c c53c
000000d0: 87c2 bc3c 0279 583c cddb c23c 20f8 23bc
000000e0: 5889 f8bb b474 bc3c 96ca ddbb 7db9 be3c
000000f0: 70d8 9e3c fb6d 1fbc a4ed 8b3a cb35 9a3c
00000100: c2c2 6cbc eb02 683c f326 9b3b f9af ac3c
00000110: 8fcb a23c fcc1 1dbc 31d7 453b fdee 8a3a
00000120: 843a 88bb df9b af3c 7d97 abbc 26f8 b93c
00000130: 2942 363c 3530 8abc 3b9d 463c a504 3abc
00000140: 0f15 a63c aba2 e5bb 714f 3fbb bf0c 9f3c
00000150: b93a da3b 8b1f bd3c 565c d83c 42db 8e3c
00000160: 4242 8abc 01d8 b43c 82a1 80bc 796e 493c
00000170: 8158 bc3c 5f7a 42bc 15a1 693c 0092 b23c
00000180: c272 963c d25b e43b 1402 343c af30 e4b9
00000190: ec3b 77bc 9ac2 9038 2196 9e3c bbb7 6c3c
000001a0: 9b0a d9bb ed60 c83c 88d7 a33c 89ba 953c
000001b0: 8aec b93c a042 ac3c 7232 95bc 8340 f7bb
000001c0: d1bd ea3b 1732 553a b466 b63c 02d4 c53c
000001d0: ebf2 a53c 48a4 fe3b e23d b43c dcb2 56bb
000001e0: 34c6 56bc 3e6a 6fbc 82f3 bc3c 7c05 783b
000001f0: 547f 98bc 85d8 b13c 8a08 96bc f147 9b3c
00000200: 97f1 403c 7aef d83c 4fff b43c 292f bd3c
00000210: 6047 9c3c c0a2 fc3b 6c4a 59bc 59cf a43c
00000220: 5905 073c 4623 c03c 8612 c63c 026e 703c
00000230: f4da b3bc e1d0 72bc bcd9 ca3c f8cb 55bc
00000240: 8216 bcbb 7623 fe3a cf80 143c d25c 09b8
00000250: 9978 293b 2df9 8d3c b532 fdb6 a74a 0d3b
00000260: f525 b43c 1317 e53b 177a 9e3c e23c c63c
00000270: 8440 30bc 3a8c 09bc a0bd 8cbc 7f64 c23a
00000280: 687f 693c 7e32 ebbb f929 9d3b 3de1 bc3c
00000290: 25d0 ca3c 3561 7cbc 18a4 a63c 8656 e33a
000002a0: b02a 1fbc e9c4 10bc cb16 82bc 35d6 ab3c
000002b0: d130 c63c 2b3c c13c d46c 41bb 7146 a73c
000002c0: 2c05 853c e24c ae3c 8c8a 453b 04c5 df3c
000002d0: 23aa 05bc cacd bd3c bc7d 5cbc aa93 a83c
000002e0: 11fa a2bc bbad 593c 926b 5a3c 14bf 863c
000002f0: c368 a2bb a284 41bc cfb5 183c dd81 0abb
00000300: bc4a f63b 0732 dc3c 5926 c0bb 1512 83bc
00000310: 70bd fb3a 7cb5 d6b8 9e30 a0bc 6741 2abc
00000320: dd04 843c 099c 27bc 12c3 a83c 9a77 b63a
00000330: 10f4 18bc 54af 823c cf94 9f3c 30f1 9b3c
00000340: aedb 0cbb 8267 5f3c accb 6bbc 45a8 a1bc
00000350: c595 dd3b 150a 413c ba69 eabb b051 61bc
00000360: e2b4 743c a9e4 c93c e3d3 6ebc 9911 a63c
00000370: 8d5c 57bc 2be8 36bc 4f84 943c c3a7 8abc
00000380: 6631 65bc c44a bc3c 4bda 14bc e3e5 543c
00000390: 3583 b8bb 9008 aa3a 736f bf3c f277 803c
000003a0: 3ee4 15bb 64cd 81bc 0ac8 963c ef0b a63c
000003b0: 62cf 8bbc c45e ba3c 9bcd 8a3c 5d94 42bc
000003c0: 038d 9fbc 08b8 be3c 62e1 a13c a3c6 a53c
000003d0: 5ebf 15bc a2c1 96bc 58be bb3c ac0d 3a3c
000003e0: 31c3 99bc 7660 983c b46e c23c 4273 74bc
000003f0: f98c 8abb d7db 2dbc 5aaa 013c b9aa d03b
0.022421405 0.020796472 0.018569894 0.014992178 0.025734853 0.0048074243 0.0028785297 -0.003941508
0.022873426 -0.004623703 -0.016132662 0.024648834 0.02139453 0.019411085 0.015437558 0.022260137
-0.013304779 0.017767455 -0.011860179 0.013455406 0.0076783653 0.017418265 0.017820314 -0.015556548
-0.012052594 -0.017052144 -0.011154695 -0.015302079 0.017422447 -0.0065294434 0.004677129 0.013764469
0.014027018 0.022450244 -0.0063140253 0.016092863 -0.0018187633 -0.0045784367 0.023933107 0.023692977
-0.012107595 0.018509595 -0.018046387 0.014849609 0.0025487943 -0.016542744 -0.016106272 0.026930815
0.004294672 -0.0006207354 0.019996077 0.02406146 0.023041977 0.013212444 0.02378645 -0.010007888
-0.007584732 0.023004867 -0.006768535 0.023281807 0.019390315 -0.009730811 0.0010675681 0.018824479
-0.014450731 0.014160852 0.0047348677 0.021080004 0.019872455 -0.009628769 0.0030188079 0.0010599789
-0.004157366 0.02143663 -0.020946259 0.022701334 0.011124172 -0.01686869 0.012122448 -0.011353646
0.020273713 -0.007007917 -0.0029191638 0.019415257 0.0066598323 0.02308633 0.026411217 0.017438535
-0.016877297 0.022075655 -0.015702013 0.012294405 0.02299142 -0.011869996 0.014259596 0.021798134
0.018365268 0.0069689536 0.010986824 -0.0004352382 -0.01508997 6.9027024e-05 0.019358696 0.014448102
-0.0066235787 0.02446028 0.020000234 0.018277423 0.022695798 0.021027863 -0.01821253 -0.007545532
0.007163741 0.0008132769 0.02226577 0.024148945 0.020257434 0.0077710487 0.022002164 -0.0032760417
-0.013108779 -0.014612732 0.023065332 0.0037845066 -0.018615402 0.02170969 -0.018314619 0.018955203
0.0117763495 0.026481379 0.022094397 0.023093777 0.019077003 0.007709831 -0.013262372 0.020118402
0.008241021 0.02345432 0.024178755 0.014674665 -0.02195499 -0.014820308 0.024762027 -0.013049118
-0.005739988 0.001938923 0.0090639135 -3.274979e-05 0.0025859235 0.01733073 -7.5458906e-06 0.002155939
0.021990756 0.006991276 0.019345326 0.024198953 -0.010757569 -0.008395249 -0.017180264 0.0014830976
0.014251567 -0.00717765 0.0047962633 0.02305662 0.024757454 -0.015404035 0.020341918 0.0017344512
-0.009714767 -0.00883601 -0.01588001 0.020976165 0.0241932 0.02358826 -0.002951433 0.020419331
0.016237818 0.021276895 0.0030142395 0.027315624 -0.00815824 0.023169417 -0.013457712 0.020578224
-0.019894632 0.0132860495 0.013331311 0.016448535 -0.004956336 -0.011811407 0.00932069 -0.0021134533
0.0075162333 0.026879324 -0.0058639464 -0.015999833 0.0019206237 -0.00010238119 -0.019554432 -0.01039157
0.0161156 -0.010230073 0.02060083 0.0013921142 -0.009335533 0.015952744 0.019480137 0.019035906
-0.0021493244 0.013635518 -0.014391821 -0.019733557 0.0067622387 0.011782189 -0.007153717 -0.013752386
0.014935704 0.024645166 -0.014576885 0.020272063 -0.013144624 -0.011163752 0.018129496 -0.016925698
-0.013988828 0.02298487 -0.009085248 0.012994262 -0.0056308755 0.0012972523 0.023368573 0.015682194
-0.0022871639 -0.015845008 0.018405933 0.020269362 -0.017066661 0.022750266 0.016943743 -0.011876193
-0.01947642 0.023281112 0.019760791 0.020236319 -0.009139864 -0.018402878 0.022917911 0.011355799
-0.018769832 0.018600684 0.023734428 -0.014920058 -0.004228231 -0.010611496 0.00791415 0.006368008

network_body._body_endoder.seq_layers.4.weight f4 [256, 256]
00000000: 832c 45bd 155f d43c 683a 65bc 476c b43d
00000010: 3a1e 0c3d 6c01 3d3d 8122 7b3b fd2d 82bd
00000020: aa59 11bc 83fd 233e baf6 8cbc 0710 1abd
00000030: b8d0 bc3b e92e 253c 2eaf acbb 4f08 c43d
00000040: 4eb2 f43d 9814 fabd fd9b 393d cd0a b0bd
00000050: c8af 3abd c267 c7bd 11f0 833c fd08 d23d
00000060: 2090 9c3d c396 4f3d 45b6 e5bc 4408 40bd
00000070: 6928 e23c 4e48 36be 808a 793b 2988 f93c
00000080: 818e 013d 97b4 74bd d0b8 a5bd 8c3c a0bc
00000090: 3954 703d d072 9d3d 9462 b0bd 2e53 7fbd
000000a0: cc05 d63d 8394 88bd bb46 973c 3a67 ebbc
000000b0: 16ec 813d b4b5 53bd 2cad 9d3c f1fe df3c
000000c0: abca 473d b2d5 47bd 575f a53d 5389 8d3d
000000d0: 7cdf c83d 076b a63d 00e7 c8bd 7f88 31bd
000000e0: b0d3 a73d 71c2 b83c c9db b53c 922d e53d
000000f0: dbe8 f13c 1855 a8bd bc5f 1b3d 28da af3b
00000100: 4e54 c93d 734f b53d d239 0eba 6ba7 62bc
00000110: 9c64 c1bc fd47 fd3d abfc 4a3d ccc9 81bd
00000120: e844 9f3d 7795 36bd 2ddc 0bbe 79a3 32bc
00000130: ae67 99bd fdb3 f2bd 39bf f6bc bcc1 b13d
00000140: cd87 16bd 40ab 5b3d f716 d2bd 6078 873d
00000150: 633c b2bb f7f4 9cbc 23ff 88bb 41df e43c
00000160: 3dd4 1cbe cf51 8ebc 26c6 a73d 64e2 473d
00000170: 2cd0 22be 96b4 1a3d 6ca9 32bb 6229 7bbd
00000180: e44b f03b 0949 193d 29c3 c23d 2299 073e
00000190: 7064 10bb a4e9 c43d d87a 863d fd1d 41bc
000001a0: 9d67 283d d860 1a3e bb02 85bd 120a b6bd
000001b0: 54d5 abbc ec2a b33d 3ca0 ef3a 632c 323d
000001c0: 68d9 6e3d 56aa 4b3c 8291 4dbb bcc2 8439
000001d0: bb9f dd3d 59f7 9bba 19ef 7fbd 92c9 ed3d
000001e0: 002c fcbb 3ff3 36bc 5940 f03c fa2d bdbb
000001f0: b3b8 8e3c 819d f4bb 2481 a1bd 719c ac3c
00000200: a2e0 493e 0cf4 2dbd 6dee 8dbd c107 353e
00000210: 06e5 2dbd 2dd3 e53b 5080 c6bd eb28 de3d
00000220: 6006 e7bd c80b 07bd df8b f93d bf8a 02be
00000230: 1e73 863c 687f 5cbd 7b94 03be a680 90bd
00000240: b5ed 7abc 58f5 bcbd a5ca 963d ed55 d83d
00000250: 01a2 7fbc f4f0 053e 2b5e 83ba 6719 8ebd
00000260: b0f4 303c 00b4 aa3d d650 2dbd 4a1a 013d
00000270: 8064 fc3b c376 8f3d 6661 1dbe 698f 09be
00000280: 920a 08bb 68b1 423d 6791 2cbd d58b 8c3d
00000290: 8bab a9bd 3dd6 753d ec64 4cbd 1978 db3d
000002a0: db0e a63c b75e a5bd 9e7c 393c 45a0 91bd
000002b0: 7100 fc3d 4a76 f4bd 8d13 083c aacb dc3d
000002c0: a083 b9bb ce56 43bc 35db 04bd 5468 8cbd
000002d0: c4ee ea3b 0b56 783c 9863 2f3d 940b a13d
000002e0: ac74 07bd bcee 763d 7253 fdbb a639 803d
000002f0: 8d07 88bd fd1e b1bd 13ab c4bc 5ae7 57bd
00000300: 6512 a8bd cf91 30bd b50f c2bc 5be4 d03c
00000310: 1b1c 553d 8042 323c f3c4 703d 7522 b4bd
00000320: acb0 303d 7c44 b33d 1f54 573c 947f c5bd
00000330: ba1e 6a3d 893c 523a 7d5a 213c fb22 bb3d
00000340: 06c6 ea3c 02e1 5b3d 1d11 09bd a18c 74bd
00000350: 7b57 153c c485 7abc be70 603d fb87 d83d
00000360: b2f9 1c3d 96f6 c73c 6328 893d 27be e4bc
00000370: 5ecf 4dbd 1053 91bd 274b 56bc 319a a8bd
00000380: 8c7c 96bc 82dc 6abd 92b7 e13d 1c8f 96bc
00000390: 6feb 06bb cde8 30bb 18f6 a53b f8a7 993d
000003a0: 713f 1abd 6227 fdbc 1e72 15bd 6bef 2a3e
000003b0: 43ba cc3c debb 99bc feb6 6b3c 7ef6 39bd
000003c0: 0c71 ecbd dbd8 f1bd 9899 a8bc a597 ef3d
000003d0: e891 51bd 4c80 73bd a1d1 763d 4436 8a3c
000003e0: df19 ea3d 4f3d a4bd 8bc0 9b3d 774e b23c
000003f0: f8fb cdbc c362 95bc 6bb9 a83c 7fda d93d
-0.048138153 0.025924245 -0.013990976 0.08809715 0.034208514 0.046143934 0.0038320126 -0.06356428
-0.008871475 0.16014676 -0.017207492 -0.03761294 0.005762186 0.010081985 -0.0052699065 0.09571897
0.119480714 -0.12210959 0.045314778 -0.0859581 -0.045577794 -0.09736587 0.016105684 0.10255621
0.07644677 0.050680887 -0.028041014 -0.046882883 0.02760716 -0.1780102 0.0038076937 0.030460434
0.031630043 -0.059742536 -0.08091891 -0.019560121 0.05867407 0.07687914 -0.08612552 -0.062335186
0.104503244 -0.06668951 0.018466344 -0.028735746 0.06343858 -0.051686957 0.019247614 0.027343245
0.048777264 -0.04878778 0.08074825 0.06910958 0.09808251 0.081258826 -0.09809685 -0.043343063
0.08194673 0.022553654 0.022199528 0.111903325 0.02952998 -0.08219355 0.037933096 0.0053665824
0.09830533 0.08853044 -0.0005425486 -0.013833861 -0.023607545 0.12367246 0.04955737 -0.06337318
0.07776815 -0.044576135 -0.13658209 -0.010903233 -0.074904785 -0.11850736 -0.030120479 0.0867953
-0.036750603 0.053630114 -0.102582864 0.066147566 -0.0054393276 -0.019159777 -0.0041808053 0.027938487
-0.15315337 -0.017372994 0.08192091 0.048799887 -0.15899724 0.037769876 -0.0027261628 -0.061318763
0.0073332656 0.037423167 0.0950988 0.1324201 -0.0022032522 0.09614876 0.06566399 -0.011786935
0.04111444 0.15076005 -0.064946614 -0.088886395 -0.020975746 0.08748421 0.0018282006 0.04349936
0.058312804 0.012430748 -0.0031367247 0.0002532209 0.10821482 -0.0011899277 -0.06248388 0.11610712
-0.007695675 -0.011166393 0.029327558 -0.005773303 0.017422056 -0.007465065 -0.0788596 0.02107069
0.19714597 -0.04246907 -0.06930242 0.17678739 -0.042454742 0.0070136995 -0.096924424 0.10847648
-0.11280513 -0.03297022 0.121848814 -0.1274824 0.016412314 -0.05383244 -0.1284961 -0.07055788
-0.015315463 -0.09226483 0.0736287 0.10563264 -0.01560259 0.13080198 -0.0010022571 -0.06938439
0.010800526 0.083351135 -0.04231342 0.03151921 0.00770241 0.07005074 -0.15369186 -0.13433613
-0.0020758254 0.04753247 -0.042130854 0.06862608 -0.08284672 0.060018767 -0.049900934 0.10716266
0.020270756 -0.08074706 0.011321215 -0.07110647 0.12304772 -0.11936624 0.0083054425 0.10781033
-0.005661443 -0.011922551 -0.032435615 -0.068558365 0.0071695764 0.015157233 0.04281959 0.078635365
-0.03307025 0.06028627 -0.0077308947 0.062609956 -0.06642065 -0.08648489 -0.024007356 -0.05271087
-0.082066335 -0.043107804 -0.02368913 0.025499513 0.052028757 0.010880113 0.058781575 -0.08795635
0.043137237 0.08753297 0.013142615 -0.09643474 0.05715821 0.00080198847 0.009848234 0.09137531
0.028658878 0.05368138 -0.033463586 -0.059704427 0.009115095 -0.015290681 0.05479502 0.10572811
0.038324066 0.024409574 0.06697156 -0.027922703 -0.05024659 -0.07095921 -0.013079441 -0.08232535
-0.018369935 -0.0573392 0.110213414 -0.018378787 -0.0020587107 -0.0026994229 0.005064737 0.075027406
-0.03765816 -0.030902568 -0.036485784 0.16692893 0.02499116 -0.01876634 0.01438689 -0.04540109
-0.115449995 -0.1180894 -0.020581052 0.11698846 -0.051164538 -0.059448525 0.06025851 0.016871579
0.11430716 -0.08019506 0.07605084 0.02176593 -0.025144562 -0.01823557 0.020596227 0.10637378

network_body.observation_encoder.processors.0.normalizer.running_mean f4 [68]
00000000: 8768 0f3f e8f8 bb3d aa2d b23e fbd8 313f
00000010: f761 b33e de42 043e 523b 053f c9e6 4d3f
00000020: 911f 823e d9b3 8d3e ed22 f03e 9057 443f
00000030: 0bd5 d63e 84cf 1a3e e7c0 db3e d716 3b3f
00000040: ef68 e73e af63 033f 806c 0d3d 4d03 043f
00000050: b937 e43e 045c a33e 71a6 703e e048 293f
00000060: f26a a93e a64a 243f 60b5 de3c 6398 0d3f
00000070: c289 803e b9cb 363f 5933 0d3d f1b3 333f
00000080: d30f af3e 3bf4 213f 128c cb3c fbad 103f
00000090: 8d8c 3b3e 4242 4e3f 650f 213c 339a 373f
000000a0: 8bb1 e73e 5e60 053f 9efc cc3c de74 ef3e
000000b0: 415c 3b3e 6c96 463f 5ba0 053c 3a55 2d3f
000000c0: efed da3e f1c8 0a3f 1348 ed3b eb16 bf3e
000000d0: 9d1e 693e f448 183f f115 f539 55d4 043f
000000e0: f8b9 6a3d 0054 483f b6a8 133a a306 043f
000000f0: e107 363d cca1 313f 43e2 053a bd6d 073f
00000100: e107 363d c6a1 313f 42e2 053a bd6d 073f
0.5601887 0.091783345 0.34800464 0.6947171 0.3503568 0.12916133 0.5204364 0.80430275
0.25414708 0.27676275 0.46901646 0.7669611 0.41959414 0.15118223 0.4292061 0.73081726
0.45197245 0.5132398 0.0345273 0.51567537 0.44573763 0.3190614 0.23500992 0.66126823
0.33089405 0.64176404 0.027186096 0.5531065 0.251051 0.71404606 0.034472797 0.70196444
0.3419176 0.6326329 0.024847064 0.56515473 0.18315335 0.8056985 0.0098303305 0.71719664
0.45252642 0.5210017 0.025022801 0.4676885 0.18296911 0.77573276 0.0081559075 0.6770817
0.42759654 0.5421286 0.007241258 0.37322173 0.22765584 0.5948632 0.0004674639 0.5188649
0.05730626 0.78253174 0.0005632745 0.51572627 0.044441108 0.6938751 0.0005107263 0.5290182
0.044441108 0.6938747 0.00051072624 0.5290182

network_body.observation_encoder.processors.1.normalizer.running_mean f4 [6]
00000000: 0192 03c1 20da 963f e1fe 2fc1 bdfe df40
00000010: 3dd5 dd40 d948 9c43
-8.2231455 1.1785316 -10.999726 6.999846 6.93228 312.56912
