Assets/Training/results/b_treasure_test80_Th64_Lr1e-4Bs4096Bs65536_EndDistanceReward/TreasureSearch/TreasureSearch-6999996.onnx (onnx, 608683 bytes, 13 tensors)

65 f4 [68]
000000 33 0c fa 3e a5 77 85 3e 56 b9 ee 3e c5 56 86 3e
       0.48837432 0.26067844 0.46625775 0.26238075
000010 7e e5 ef 3e d5 8d a4 3e 0a 50 fe 3e e9 91 86 3e
       0.46854776 0.3213946 0.4967044 0.26283196
000020 08 a1 e1 3e e6 7d dd 3e 5a ea ff 3e 67 55 a7 3e
       0.4406817 0.43260115 0.49983484 0.32682344
000030 51 3f fe 3e e9 52 af 3e 67 d0 fc 3e 7c 1b 95 3e
       0.49657682 0.34242943 0.49377748 0.2912253
000040 0f 40 ff 3e 64 f1 ff 3e 27 7f 26 3e 58 a3 a4 3e
       0.4985356 0.49988854 0.16259442 0.3215587
000050 ce 3b fe 3e 0d 43 ea 3e 96 12 e0 3e ab bc a8 3e
       0.49655002 0.4575428 0.4376418 0.32956442
000060 12 76 f0 3e b4 15 f4 3e 07 08 14 3e ba 40 9b 3e
       0.4696508 0.47672808 0.14456187 0.3032282
000070 7c d2 dc 3e cd a8 e5 3e 79 62 33 3e b6 34 8c 3e
       0.43129337 0.44855347 0.17518033 0.27383965
000080 da b4 f1 3e cb 09 f5 3e 2d cc 0d 3e f6 09 a5 3e
       0.4720829 0.47859034 0.13847418 0.32234162
000090 07 6e c5 3e 6b 27 c9 3e 98 d2 b3 3d 78 13 82 3e
       0.38560507 0.39287886 0.08780402 0.25405478
0000a0 6a ef fe 3e 55 cc ff 3e 21 bc 11 3e 81 5e a4 3e
       0.49792033 0.4996058 0.14231922 0.3210335
0000b0 cb e7 c6 3e b3 9b d6 3e 13 5e a5 3d 7f 99 87 3e
       0.3884872 0.41915664 0.08074584 0.26484296
0000c0 5a f7 fd 3e 0b 19 ff 3e 3d f0 99 3d 14 ed 5a 3e
       0.49602777 0.49823794 0.07516525 0.213795
0000d0 66 c4 d0 3e 8b 32 f9 3e 0b 0e 9d 3c d2 fe 36 3e
       0.4077484 0.48671374 0.019171735 0.17870644
0000e0 d4 4d 5f 3e 78 23 cd 3e 39 37 ac 3c 92 87 29 3e
       0.21807033 0.40066123 0.021022426 0.16555622
0000f0 ce 81 45 3e 1b 31 e7 3e e6 ff a3 3c 58 bf 29 3e
       0.19287798 0.45154652 0.020019483 0.16576898
000100 ce 81 45 3e 20 31 e7 3e e5 ff a3 3c 56 bf 29 3e
       0.19287798 0.45154667 0.020019481 0.16576895

68 f4 [6]
000000 c3 61 a8 3f e1 28 76 40 99 dc 88 3b 2f 26 2f 3b
       1.3154835 3.846245 0.004176688 0.002672564
000010 a7 f2 56 40 70 fb a7 42
       3.3585603 83.99109

action_model._continuous_distribution.log_sigma f4 [1, 2]
000000 41 c6 6c be 10 6d 6a be
       -0.23122503 -0.22893167

action_model._continuous_distribution.mu.bias f4 [2]
000000 51 09 c9 bb bc 61 a6 3c
       -0.006135144 0.020310275

action_model._continuous_distribution.mu.weight f4 [2, 256]
000000 24 b5 16 3d 50 cb 41 bd cd 22 a9 3c d5 a9 bc 3b
       0.036793843 -0.047313035 0.020646477 0.0057575502
000010 a9 f4 75 3b 27 c8 7f 3d dc 08 41 bd e3 4e 11 bd
       0.0037529862 0.06244674 -0.04712759 -0.035475623
000020 ee 90 b4 3b 53 c9 d0 3c 31 1b 65 bc ce a2 59 3c
       0.005510441 0.025486624 -0.013983534 0.013283445
000030 a0 4f 81 bb cb 6a a1 bc 51 d6 8f bd 9f f8 24 bc
       -0.0039462596 -0.019704243 -0.070232995 -0.0100690415
000040 56 a9 8c bc 28 f2 b4 bc 3d 54 81 39 b6 51 39 3d
       -0.01717059 -0.022088125 0.0002466756 0.04524394
000050 97 87 c5 bc 51 29 19 3d 2c 5f 66 3d 1e 5a 3a 3c
       -0.024112506 0.037392918 0.056243107 0.011374025
000060 11 dc 8f 3c de 28 89 3c 3c ba 10 3c 17 42 1c 3c
       0.01756099 0.01674312 0.008833464 0.009537241
000070 de bc 72 bb ca b7 4e 3b 38 6c 6f bd 9b 98 cb 3c
       -0.0037038843 0.0031542652 -0.058452815 0.024853041
000080 ee 79 22 3c b8 98 70 ba d5 20 2e bc 4c 9b 57 3d
       0.009916766 -0.00091780303 -0.010627945 0.052638337
000090 20 12 57 bc c9 e4 41 3d 5b 4d 39 3c c7 07 f7 bc
       -0.01312688 0.047337327 0.011309947 -0.030155076
0000a0 46 ce 28 3d ca 94 0f bd 67 2e 32 3c 99 d6 50 bd
       0.041212343 -0.035054006 0.010875321 -0.050985906
0000b0 dc 15 56 3d 09 cb a0 bb 08 56 7f 3c be e4 d1 bc
       0.05226694 -0.004907016 0.015584476 -0.025621768
0000c0 11 79 14 3d 29 52 d4 3c 4d 01 17 bc 5f 8d 09 bd
       0.03624827 0.025918083 -0.009216619 -0.033582088
0000d0 b3 f3 36 3b 14 76 ab 3c 69 a4 a2 bd 44 8d 13 bc
       0.0027916252 0.020930327 -0.07941515 -0.009005848
0000e0 66 e8 03 3d 5f c5 c5 3c 9f 5c 86 bc 15 a1 a7 3c
       0.032204054 0.024141965 -0.016401587 0.020462552
0000f0 a1 83 61 bc 52 f8 8b 3c ef cf 45 3d e1 1d 58 bd
       -0.013764293 0.017086182 0.048294004 -0.05276287
000100 6c 01 e1 ba 6d 8e ac 3c 4c c8 21 3d 88 35 f7 bc
       -0.0017166561 0.021064008 0.03949766 -0.030176893
000110 89 4e 67 3c 9a a1 6b 3d 31 8c a2 3b bc a0 9b 3c
       0.014117845 0.057527162 0.00496056 0.018997543
000120 a5 22 f8 bb 34 9d 88 3c a5 47 81 3b 71 98 a9 bb
       -0.0075724893 0.016676523 0.0039453083 -0.005175643
000130 13 8f 6f 3d 61 6c e2 3c 03 1e a2 3d 4f 7f 42 3b
       0.058486056 0.02763957 0.079158805 0.0029677933
000140 85 6b 08 3b c0 4e 01 bd f0 e2 49 bd 0a 17 ed 3c
       0.002081604 -0.031569242 -0.04928869 0.02894165
000150 b9 10 b0 3c a3 04 b9 b9 22 8f 0b bd 9e 8e 54 bd
       0.021492349 -0.00035289404 -0.03407205 -0.051893823
000160 92 6f 29 3c c0 a0 13 bd f6 b9 50 ba 66 84 1c bd
       0.010341542 -0.036041975 -0.00079622807 -0.038212202
000170 42 75 1b 3c 1c 71 98 3c c9 2d 84 3d 86 6e c5 3c
       0.009488406 0.018608622 0.06454045 0.024100553
000180 6d 44 19 bd 03 0a 63 bc e7 99 87 3d 3e ca 0c bd
       -0.03741877 -0.013857367 0.066211514 -0.03437256
000190 e8 cf 9a 3c a8 de 88 bd 05 49 0f 3d 71 8f aa 3c
       0.018897966 -0.06683093 0.034981746 0.020820351
0001a0 94 8e 46 bd 81 9a 67 bc e6 fe 17 3d 6f 26 0e bd
       -0.048475817 -0.014135958 0.037108324 -0.034704622
0001b0 ab a8 78 bb e9 17 ad bc a3 af c6 3c d9 06 d4 bc
       -0.003794233 -0.021129565 0.024253672 -0.025882171
0001c0 4f 67 d6 3c 29 c3 27 3d b2 5f c5 bc d8 71 51 bc
       0.026172308 0.040957604 -0.024093483 -0.01278349
0001d0 b2 51 a5 3c 39 39 f6 3c 44 4f 40 bc 9a 1a fa ba
       0.020180557 0.030056583 -0.011737648 -0.0019081414
0001e0 14 a3 a4 bb 4d ed 57 3b fc f2 ff bc ce cf ca bc
       -0.0050243232 0.0032947839 -0.031243794 -0.024757292
0001f0 ec 2d 05 3c 9f 89 0d 3c 03 6c 18 3b ed ff 05 3c
       0.008128624 0.008638768 0.002325774 0.008178693
000200 80 29 c1 3c b8 26 c7 bc 95 a4 e0 3c 6e ea 02 bd
       0.023579359 -0.024310455 0.027422229 -0.03196185
000210 5a b7 ee bc 2d 15 94 bc ab 86 99 3b a6 c5 a5 3b
       -0.029140163 -0.018076504 0.004685243 0.005058962
000220 0f 28 73 3b 3e 98 89 bd 0b 2a 87 bc 8c 17 d1 3c
       0.0037102734 -0.06718491 -0.01649954 0.025523923
000230 09 bd 8b 3c ce 21 87 3c 64 7b 8b 3c b5 a7 de 3b
       0.017057912 0.016495612 0.01702661 0.0067948946
000240 02 ae d1 bb a5 6e 0f 3d d4 c4 0e bd 6b ba d3 bc
       -0.006398917 0.03501763 -0.03485568 -0.025845727
000250 3e 8c 3f 3d 23 42 11 bd cc f4 26 3d 94 e6 07 bd
       0.046764605 -0.035463464 0.0407608 -0.03317888
000260 ab 75 ff bc 76 5c 4a 3d c7 85 a4 bc f7 aa 3b bd
       -0.031184038 0.049404584 -0.020083321 -0.04581734
000270 6e 85 40 bc 5d af 84 3c 0c c6 5d 3c a0 ce 0a 3d
       -0.011750562 0.016196901 0.013535988 0.03388846
000280 85 e5 20 3d db 4a 30 ba 36 92 45 bd 03 46 c3 bc
       0.039281387 -0.00067250215 -0.04823514 -0.023837095
000290 e7 52 82 3c c3 3c f2 bb 69 21 b1 bb 7e d3 f5 bb
       0.015908672 -0.0073924973 -0.005405594 -0.0075020185
0002a0 b5 14 a8 3a 46 82 f4 bc fd e6 ce bb e8 8c c4 bc
       0.0012823554 -0.029847275 -0.006314157 -0.02399297
0002b0 e7 9f d8 ba 4d 4d d3 bc 79 fa 92 bc 97 fb 23 bd
       -0.0016527147 -0.025793696 -0.0179417 -0.040034857
0002c0 76 ed 42 3d 95 ff 6c 3c e1 c4 f4 3c 2f a9 83 3c
       0.04758974 0.014465232 0.029879035 0.016071884
0002d0 ce 9e 1f 3b 86 34 c4 3c dd ec ca 3c bc 55 33 bc
       0.002435613 0.023950826 0.024771148 -0.010945734
0002e0 a4 60 20 3c 40 ba 8f 3c 76 9f 04 3d ac e9 07 bd
       0.009788666 0.017544866 0.032378636 -0.03318183
0002f0 f3 61 16 3d 2b 71 a6 bb 99 49 3e bd b2 61 0c bc
       0.036714505 -0.0050794086 -0.046456907 -0.008568214
000300 82 15 82 bd ca af 1c 3c c7 9e 89 bc 69 d7 ed ba
       -0.063517585 0.009563396 -0.016799344 -0.0018145862
000310 e4 5f 14 bd 19 40 5c bc bb bc 0b bc b0 e5 99 3b
       -0.03622426 -0.013443016 -0.008528884 0.0046965703
000320 ff fd e9 3c ad 25 a2 3c c0 d0 08 bc cc dd 07 bd
       0.028563498 0.019793356 -0.008350551 -0.033170506
000330 6f 3d 12 bd e7 3a 4d bd 98 be 6f bd f5 34 0b bd
       -0.03570312 -0.050105 -0.058531374 -0.03398605
000340 8c ef 92 bc b8 ce b9 bb 10 29 80 3c c4 7d e3 3b
       -0.01793649 -0.0056703947 0.01564458 0.0069424827
000350 bb c0 1a 3d 71 40 5a 3d ec 76 32 3d d0 93 87 3b
       0.03778146 0.053284112 0.043570444 0.0041374937
000360 e5 57 07 3d 42 c3 80 bc 67 3b 91 3b 3f c8 d2 bc
       0.033042807 -0.015718106 0.00443213 -0.02573025
000370 70 60 52 bc 8d 8b bd bc 31 56 93 3d 14 76 b7 3c
       -0.012840375 -0.023137832 0.07194174 0.022395171
000380 98 ef e5 3b 0a 9d ed 3b e9 f4 cb 3c 00 4f 51 3d
       0.007017087 0.0072513865 0.024897056 0.05110073
000390 d1 4c bd bc d5 f5 71 bd 0e 5d e4 3b 66 0b b1 bb
       -0.023107918 -0.059072334 0.006969101 -0.00540297
0003a0 da dd dc bc 2f 22 16 3c 97 7c c3 3b 39 dc b9 bc
       -0.026961256 0.009163423 0.00596578 -0.022688018
0003b0 36 41 95 3c 28 2e 28 bd 2e ee 35 3d e7 ad 0a bc
       0.018219572 -0.041059643 0.0444166 -0.008464313
0003c0 25 c2 eb 3b 8c ef bb 3c ee 9a 71 bc af d0 d8 bc
       0.0071947747 0.022941373 -0.014746411 -0.026466696
0003d0 e8 68 36 3d 1d f2 14 3b cb ae b4 bc d7 cb 14 bd
       0.04453364 0.0022727319 -0.022056004 -0.03632721
0003e0 7a 38 a1 3c e0 1c 28 bc 51 88 76 bd aa 33 a4 3c
       0.01968025 -0.010260791 -0.060188595 0.020044167
0003f0 fc e3 8b bb b2 fc e4 ba cd fa 10 3d 85 32 81 3d
       -0.004269121 -0.0017470329 0.035395432 0.06308464

network_body._body_endoder.seq_layers.0.bias f4 [256]
000000 d2 26 aa bc c7 9d a1 3c 9c b9 c2 bb 58 3c ba 3b
       -0.020770464 0.019728554 -0.0059425365 0.005683463
000010 20 89 35 39 73 2d c7 3b 2e a7 e4 3c 0e 14 4c ba
       0.00017312588 0.006078416 0.027911749 -0.0007784971
000020 3b 39 78 3c 7c 37 22 bc 43 87 c0 3c 8c f6 0f 3d
       0.015150364 -0.009900924 0.023501998 0.035147235
000030 63 b7 78 3c 7a 78 d2 3c fa 45 25 bc 26 e7 03 3d
       0.015180442 0.025692213 -0.0100874845 0.032202862
000040 57 d5 60 bc ac 0d 9a 3c 77 fd bb 3c 0b 18 08 3d
       -0.013722739 0.018805347 0.02294801 0.033226054
000050 c0 0a 33 3c a6 80 45 3c 7e 19 24 bc b6 7d 48 3c
       0.010927856 0.012054598 -0.010015843 0.012237003
000060 eb 47 25 3c 78 77 eb 3c f0 47 50 3c 66 62 4f bc
       0.010087947 0.02874349 0.012712464 -0.012657737
000070 d9 15 3a 3c 7c e4 59 3c 57 f0 fb 3c 65 4b e0 3c
       0.011357748 0.013299104 0.030754251 0.0273797
000080 8e 06 08 3d d1 dc c9 3c 1b 42 4b 3c f0 9f a4 3c
       0.033209376 0.024641426 0.0124058975 0.020095795
000090 e6 8a 5f 3c e8 68 33 3c 44 5e 31 bc 12 3c 02 3d
       0.013643956 0.010950305 -0.010825697 0.03179557
0000a0 da 53 cf 3c 9f bd 8c 3c bd 25 8a bc 30 8b b9 3c
       0.025308538 0.017180262 -0.016863698 0.022649378
0000b0 c0 17 af 3c b0 84 c1 3c ba 5b 02 3c b1 23 7c 3c
       0.02137363 0.02362284 0.00795644 0.015389369
0000c0 38 c3 8a 3c 50 c6 98 3c c7 10 6a bb 4a 79 b5 3c
       0.01693879 0.01864925 -0.0035715566 0.022152562
0000d0 06 27 d5 3b 2b 05 74 3c 46 f5 1a 3d 83 83 34 3b
       0.006504896 0.01489381 0.037831567 0.0027544207
0000e0 6d 34 83 3c 74 d4 06 3d 32 be ad 3c 54 c7 41 bb
       0.01601621 0.032917455 0.021208856 -0.0029568272
0000f0 96 ab 47 bb 5f 1c a3 3c 4c 62 e3 3c c9 b9 66 38
       -0.0030467263 0.01991099 0.027756833 5.50093e-05
000100 f1 6a ba bc d3 78 98 3c 26 78 81 bc 32 fd 4d 3c
       -0.022756072 0.018612301 -0.015804362 0.0125725735
000110 73 ac 4b 3d da ab a5 3c 2e f2 17 3b 1f f3 88 3c
       0.049725007 0.020223547 0.0023185122 0.016717492
000120 2d 35 7e 3c 66 47 21 3c 99 b9 01 bd 3a bc 9e 3c
       0.015515608 0.009843683 -0.03167114 0.019376863
000130 4b 0a fb 3c ea 8e cd bb 1e 47 be 3c 80 75 bd 3c
       0.030644557 -0.00627314 0.02322727 0.023127317
000140 59 67 5d 3c 61 01 a6 3c c4 fe 8e bb 72 40 93 3c
       0.0135134095 0.02026433 -0.0043638665 0.017975066
000150 d1 18 7b bc 0b 62 82 3c 9c b2 d5 3c ba d3 c6 bb
       -0.015325741 0.015915891 0.026086144 -0.0060677202
000160 9a 3b aa 3b 1f 0a 84 3c 32 8a a0 3c eb f5 d5 3c
       0.0051950933 0.016118107 0.019597147 0.02611824
000170 49 14 43 3c 90 db d0 3c 05 55 2b 3c a2 67 01 3c
       0.011906692 0.02549532 0.010457282 0.007898243
000180 7e 70 f6 bb 27 77 83 3c 32 28 93 3c c5 95 cb 3c
       -0.0075207343 0.016048027 0.017963503 0.02485169
000190 2b 9e cf bc 8a b1 07 3c 68 9b a6 3c e8 54 bf 3c
       -0.025343975 0.008282075 0.020337775 0.023355916
0001a0 19 33 ee 3c 28 03 e9 3b 84 53 4a bc 2a b7 b8 3c
       0.0290771 0.007110972 -0.012349013 0.022548277
0001b0 ad 37 e8 3b 21 bf 9b bc 08 d2 f3 3c 8c 75 52 3c
       0.007086715 -0.019012036 0.029763237 0.012845408
0001c0 e1 89 68 3c 12 92 01 3c 83 c6 ab 3c 29 8d c1 3c
       0.014193029 0.007908361 0.020968681 0.02362688
0001d0 3b 75 ba 3c 97 27 47 3c f3 36 fa 3b 9a cc f9 3c
       0.022760978 0.012155435 0.007635945 0.03049307
0001e0 2c 33 b7 3c 52 de e7 3c 2c d9 21 bc a8 e1 26 3c
       0.022363268 0.028304253 -0.009878438 0.010185637
0001f0 33 1c d0 3c 7d a2 04 3d 99 5e f7 bb 6d 4e 56 3c
       0.025404071 0.032381523 -0.0075491187 0.013080222
000200 4e 97 65 3b 1f f2 19 3c 79 44 98 3c ff 33 a7 3c
       0.0035032812 0.009396105 0.018587338 0.020410536
000210 3f d4 d6 3c 51 47 eb 3c 9e 0a 41 bc a7 91 a2 bb
       0.026224254 0.02872053 -0.0117823165 -0.004961211
000220 9b 01 74 bc 90 49 4b 3b 8a 5f 02 3d c0 b4 3b 3c
       -0.014892961 0.0031019188 0.031829394 0.011456668
000230 84 0e f1 3c 34 4e 44 bc e1 ff 76 3c 65 53 33 bb
       0.029425867 -0.011981536 0.015075655 -0.002736294
000240 df 58 2b 3d 3b db 8d 3c 02 35 a1 3c 4c 73 d4 3c
       0.0418328 0.017316451 0.019678596 0.025933884
000250 26 1d b6 3c 82 a5 81 bc 2e 0d 6a bc 0e 92 6c bb
       0.022230696 -0.01582599 -0.014285369 -0.0036097798
000260 3b 71 a2 3c 81 2d 8e 3c 72 57 bd 3c 31 80 6c bc
       0.019829383 0.017355682 0.023112986 -0.01443486
000270 54 ef f9 3c fd 79 3b 3c d4 42 84 3c 42 e2 db 3c
       0.030509628 0.0114426585 0.016145147 0.026841287
000280 2a d9 26 3c 89 08 af 3c a0 1e 73 3c 02 8e fc bb
       0.010183612 0.021366375 0.014838845 -0.0077073583
000290 88 9d 9b 3c c3 58 86 bc 85 ea 87 bc e3 6e de bc
       0.018996015 -0.016399747 -0.01659132 -0.027152484
0002a0 f4 0e 06 3d 98 01 ee 3c 50 af 74 3c 23 39 be 3c
       0.032729104 0.029053494 0.014934376 0.023220604
0002b0 18 ce 8b 3c 45 82 06 3d 30 46 d9 3c 80 59 df 3c
       0.017066047 0.03283908 0.026522726 0.027264357
0002c0 55 b1 ec bb 94 53 22 ba b5 04 a5 3c 5c 2f b5 3c
       -0.007223288 -0.00061922637 0.020143846 0.02211731
0002d0 a7 4d 8a bc 56 df 5b 3c 6c 93 a5 3b ab 56 b2 3c
       -0.01688273 0.013419947 0.0050529744 0.021769842
0002e0 5e 31 0c 3c 40 45 2f 3c ce 1d d7 3c 28 f9 0d 3c
       0.008556692 0.010697663 0.02625933 0.0086653605
0002f0 21 37 e4 3c 7f 99 42 bc 22 17 5c bb a7 86 03 3d
       0.027858319 -0.011877417 -0.0033583124 0.032110836
000300 ea 14 28 39 11 28 a0 bc 50 0f 8b bb 68 fd a5 3c
       0.0001602952 -0.019550355 -0.0042437688 0.020262435
000310 35 c7 29 3d 10 ae c9 3c 4e 35 c1 3c 45 f8 09 3d
       0.041449744 0.024619132 0.023584988 0.033684034
000320 ef 23 58 bc d3 dd a3 3b 73 37 48 bb 59 61 fe 3c
       -0.013192161 0.0050008087 -0.0030550628 0.031052278
000330 87 90 f6 3b 6f ac 5c 3c 58 53 8d 3b 68 17 ea 3c
       0.007524553 0.013468846 0.004312914 0.028575614
000340 0d f4 c6 3c 36 95 ae 3c ae 6a cf 3c 40 93 18 3b
       0.024286294 0.021311384 0.025319424 0.0023281127
000350 43 4e f5 3a f7 0c e3 3b 17 8b 95 3c bc 5f b3 3c
       0.001871534 0.0069290358 0.0182548 0.021896236
000360 60 82 9d 3a 4b 9f ad 3c 78 68 f9 3b ef c7 2c 3c
       0.0012017004 0.02119412 0.0076113306 0.010545715
000370 8c c6 a3 bb 73 fd 9d 3c b2 f4 4e 3c f0 b9 a2 3c
       -0.004998034 0.019285893 0.012631582 0.019864053
000380 03 0a 4d 3c 1c b1 9e 3c 5f cd d0 3c 1d 73 80 3c
       0.012514594 0.019371562 0.025488554 0.01567989
000390 b5 40 f0 3c 7b d8 4a 3c 79 58 76 3c bb 27 68 3b
       0.02932773 0.0123807145 0.015035742 0.0035424072
0003a0 51 75 01 ba 90 cc 9b 3c a8 dc 75 3c 2c 29 1c 3c
       -0.0004938441 0.019018441 0.015006222 0.0095313005
0003b0 5a 4c 5d 3c 05 e6 9e 3c a3 82 b5 bc a8 ea b5 3b
       0.013506973 0.019396791 -0.022157019 0.005551655
0003c0 61 ad c9 3c bb e2 6a 3c cc cb b0 3c 5c 82 06 3d
       0.024618806 0.014336283 0.021581553 0.032839164
0003d0 c0 d1 40 3c e6 a3 02 3d 88 ce b3 3c d9 b7 87 3c
       0.011768758 0.031894587 0.021949068 0.016567158
0003e0 5c 36 b8 3c 0a cc 39 3c b3 59 3e bb 46 3f eb 3c
       0.022486858 0.011340151 -0.0029045164 0.028716695
0003f0 73 5c e3 3c 1a 6d 7f 3c ea 7c ca 3c 44 31 dd 3c
       0.027754044 0.015589977 0.024717767 0.02700103

network_body._body_endoder.seq_layers.0.weight f4 [256, 74]
000000 ad e7 61 be 4e f8 25 3d e3 65 40 3e 8a 79 86 be
       -0.22061034 0.040520005 0.18788867 -0.26264602
000010 d7 99 30 bd 1c 07 a7 3d a8 52 2a 3d c4 f9 a8 bc
       -0.043115463 0.08155653 0.041582733 -0.02062691
000020 df 31 1c be f8 59 8f 3e e7 29 93 bd cc f4 14 be
       -0.152534 0.27998328 -0.071857266 -0.14546508
000030 fe c5 2e 3e 37 98 2e 3e 54 71 af 3d 0f ef 23 3e
       0.17067716 0.17050253 0.085665375 0.16009162
000040 75 01 a9 bc c0 ff 7f 3c 40 1e 60 3d 19 ce a5 3c
       -0.020630578 0.01562494 0.05471635 0.020239877
000050 63 b5 55 be b9 d0 06 3e 81 87 af bc b9 f9 4d 3e
       -0.20869975 0.13165559 -0.021426918 0.20114793
000060 4b 4e 36 3b f2 b4 dd bd f8 9c 35 bd ef 2d 92 bd
       0.0027817662 -0.10825528 -0.04433915 -0.071376674
000070 06 51 4f be 36 1c 48 be c3 e9 b2 bc 0c aa 55 bd
       -0.20245752 -0.19542012 -0.021839982 -0.052164122
000080 b8 7e 60 3c c0 0a f0 bd 49 cf 07 3d 5d d9 24 3d
       0.013702087 -0.117208004 0.033156667 0.040246356
000090 45 63 61 bc 5c 2d 6d bd 34 df 08 bd d1 8b 20 3d
       -0.013756578 -0.057904586 -0.033415988 0.03919584
0000a0 f8 ca b1 bd 4d 7b e2 3c bf aa 70 bd 3d 0c eb 3c
       -0.08681291 0.027646685 -0.058756586 0.02869236
0000b0 2a b4 f4 3d 8a 4a ea bd 25 18 2d 3e f6 26 74 3d
       0.11948426 -0.114399984 0.16903742 0.05960747
0000c0 62 42 f2 bc e1 a3 98 bd 11 b0 e1 bd 1a 97 a4 bd
       -0.02957267 -0.074531324 -0.1101991 -0.08036633
0000d0 93 ed 58 bc 1a d0 04 be c0 41 71 3d f9 cd 60 bd
       -0.013240236 -0.1297001 0.058900595 -0.05488393
0000e0 94 00 a7 3d fd 34 a1 bb 8f 35 fd 3d 3a 36 22 bc
       0.08154407 -0.004919647 0.12363731 -0.009900624
0000f0 78 20 2e 3e 97 cf 2a 3d 0c b7 8c bd 80 5f 9e bd
       0.17004573 0.04170188 -0.06870851 -0.07733059
000100 29 06 b7 bd b3 e5 11 3e bd ad f9 bd ae 8e b3 3d
       -0.08936722 0.1424778 -0.12191341 0.08767448
000110 41 a6 8b bd 67 21 fd 3c bc e1 b9 bd e6 ff 0b 3e
       -0.0681882 0.030899717 -0.090762585 0.13671836
000120 d3 8d b1 3c 6d 6f 83 be 94 80 8b 3a 7b 11 30 bd
       0.021674072 -0.2567095 0.0010643178 -0.04298542
000130 38 a7 1a be 91 b1 30 be c5 98 e7 3c 3d cd a4 bd
       -0.15102851 -0.17255236 0.028271088 -0.080469586
000140 bf ce 66 bd dd 04 f2 bd ae c3 ba bd e6 05 35 3e
       -0.056349512 -0.11817334 -0.09119354 0.17678031
000150 52 a4 14 be 03 8b 8f bd 47 32 97 3d 7f ce 9f 3c
       -0.14515808 -0.07008936 0.073826365 0.019507645
000160 af 07 e5 3c a2 fa 06 3e b7 17 39 bd bf 27 cd 3e
       0.027957765 0.13181546 -0.04518863 0.40069386
000170 3c a0 2c 3e b1 06 65 be 77 6d 5e 3d c3 83 48 be
       0.16858 -0.22365834 0.054303613 -0.19581513
000180 66 60 37 be 15 ba a4 3d df 41 8e bd 13 29 4c 3d
       -0.17907867 0.08043305 -0.06946158 0.04984386
000190 a5 b8 84 bd 2f 46 05 3e 91 1b 3c 3d 38 29 03 3d
       -0.06480531 0.13015054 0.045924727 0.03202173
0001a0 13 2b 3b bd 89 70 60 be 83 3a 0b bd aa 08 49 3e
       -0.045695376 -0.21917929 -0.033991348 0.19632211
0001b0 58 94 ae 3c 5a 95 a0 bd 7c c3 f3 bd 50 c5 84 3d
       0.02131097 -0.078409865 -0.1190252 0.06482947
0001c0 87 0b bc 3c 33 b3 05 3e 04 53 65 3d 11 25 fa 3d
       0.022954715 0.1305664 0.055987373 0.12214101
0001d0 dc 71 a9 3c 78 3c cc bd 8c 82 63 3d f2 b5 0e be
       0.020684175 -0.09972471 0.05554442 -0.13936594
0001e0 0e 13 23 be 8b d4 83 3c 42 69 b4 bd 43 d2 41 3d
       -0.15925238 0.01609256 -0.08809139 0.04731966
0001f0 3a 1d b3 bd 2a 8d e7 bd 1c af 66 3e 47 f1 84 3d
       -0.08745809 -0.11306222 0.22527736 0.064913325
000200 9a 3c 36 bd 2c b2 37 bd a3 2e 04 3e fd f2 44 3e
       -0.044491388 -0.044847652 0.12908415 0.19233318
000210 38 50 73 bd 20 ce 83 bd 82 42 cc bd 39 93 6f 3c
       -0.059402674 -0.064357996 -0.09973623 0.014622503
000220 93 61 8b 3c ac ae 89 3e 69 15 24 bd 89 70 85 be
       0.0170143 0.26891077 -0.04005948 -0.2606242
000230 c0 62 01 3e d2 f6 4d 3e 85 41 58 bd e6 0a 98 bd
       0.12635326 0.20113686 -0.05279686 -0.07423954
000240 9d 30 5c 3d ba 4a 81 3e 4a 98 9e 3b 52 f5 c8 3d
       0.0537573 0.25252324 0.0048399316 0.09812416
000250 36 27 d8 3c 10 71 31 be 48 d0 11 3c ba ad a1 3d
       0.026385885 -0.17328286 0.008899756 0.07894464
000260 c0 81 70 be c1 0c 0c be 8c 12 0d be b0 24 c7 bd
       -0.23486996 -0.1367674 -0.13776606 -0.097237945
000270 3c 3a 1a bc f4 2e 19 bc 38 9d 15 be 87 e3 79 be
       -0.009413298 -0.009349573 -0.14610755 -0.24403201
000280 86 0d 7c be 8f 08 07 bc 8b de 86 be a7 df d7 bd
       -0.24614534 -0.008241787 -0.26341662 -0.10540705
000290 00 dc f2 bd 39 0e 37 3c 9a f9 1c 3e cb 90 87 3d
       -0.11858368 0.011172825 0.1532959 0.06619414
0002a0 b6 71 36 3e fc 63 ec 3d 6f d0 d6 3c fc 41 95 bd
       0.17816815 0.11542508 0.026222436 -0.07287976
0002b0 15 e0 73 bd 42 07 14 bc ed 41 6d bd ec 6d 60 bd
       -0.059539873 -0.0090349335 -0.0579242 -0.05479233
0002c0 21 8b dc bd 6b ee 08 be 8b 41 24 3d 88 df 30 3e
       -0.10768724 -0.13372199 0.04010157 0.1727277
0002d0 77 c9 ce bd 67 2a 4d bd 1d 20 44 3e 85 cb 74 3d
       -0.1009702 -0.050089266 0.19152875 0.059764404
0002e0 1b 0c 58 be 78 11 6a 3e 31 11 1b 3e ea 84 a9 3d
       -0.21098368 0.22858226 0.15143277 0.082773045
0002f0 d3 84 47 3c df f5 e7 bc 19 a2 51 3e 6b ae f6 3d
       0.012177664 -0.028315483 0.20471992 0.12044986
000300 43 af c0 bc c3 14 33 3d ee ed 26 be 49 63 08 3e
       -0.023521071 0.04372097 -0.163017 0.13319124
000310 77 03 9e bd 98 ef a2 bd 72 00 28 be 40 61 02 be
       -0.077155046 -0.07955855 -0.1640642 -0.1273241
000320 c9 6e ab bd b3 93 90 bd 04 b4 ab bc ef c7 dd bd
       -0.0837074 -0.070594214 -0.020959862 -0.1082915
000330 3e 4b fe 3d d3 c8 a6 bc 87 7a 2e bd 3e ad a4 3d
       0.12416695 -0.020359432 -0.04259732 0.08040856
000340 28 e6 08 3c ba 0c 9b bd b1 68 59 3d fa e8 c1 3e
       0.008355655 -0.07570787 0.053078357 0.3787306
000350 de 4c 8e bc c7 dd 0a be 43 26 11 be 26 e4 a2 3c
       -0.017370638 -0.13561164 -0.14174752 0.01988418
000360 13 0e 24 bd 39 cd fb 3d 2b 0e b8 bd 71 ae c8 3d
       -0.040052485 0.122950025 -0.08987077 0.09798897
000370 5b 35 12 be 28 17 09 3e 94 94 27 3d 20 ed 03 bd
       -0.14278166 0.1338774 0.04091318 -0.032208562
000380 f4 89 cb 3c 5f 2c 0a be fd 4b 37 3d 5d 71 f5 bd
       0.024846055 -0.13493489 0.044750202 -0.11984513
000390 f2 f3 09 bd 27 e9 46 3d 6c 85 3f 3e 2d 94 3d be
       -0.03367991 0.048562195 0.1870324 -0.18513556
0003a0 5b a6 32 be d0 35 ed bd 8a 50 9c 3d f5 95 2d 3d
       -0.17446272 -0.115825295 0.07632549 0.04237934
0003b0 c6 51 cd bd 79 6d 48 3d 6d 90 13 be 8c b0 f2 bd
       -0.10025363 0.048932526 -0.14410563 -0.1185008
0003c0 f7 cb f0 3c 96 b4 ef 3c 21 54 41 3c be 89 34 3d
       0.029394133 0.029260915 0.011799843 0.044076674
0003d0 8b 70 07 be 20 08 41 be 12 31 60 3e f7 ce 48 3d
       -0.13226525 -0.18850756 0.21893719 0.049025502
0003e0 56 67 d4 3c 2f 3f c4 bd 5c 16 26 be c4 10 0f 3e
       0.02592818 -0.09582364 -0.16219467 0.1397124
0003f0 b5 28 ac be b5 31 24 be 7a a5 30 bd 50 8c 1b 3e
       -0.33624807 -0.16034587 -0.04312656 0.15190244

network_body._body_endoder.seq_layers.2.bias f4 [256]
000000 0a 61 18 3c 38 e4 15 3c ba 74 d2 bb 16 0f bc 3c
       0.00930048 0.00914865 -0.0064226063 0.022956412
000010 20 41 b0 3c c7 94 6f bc ac 00 ac bc 4e 07 88 bc
       0.021515429 -0.014622874 -0.020996414 -0.016605046
000020 24 89 f4 3b 62 1f e2 3c 27 c0 08 bd d2 2a a8 bc
       0.0074626375 0.027602855 -0.033386376 -0.02052823
000030 70 3f b2 3c c8 c3 e4 3c df 09 14 bb 7f 53 ca 3b
       0.021758765 0.027925387 -0.0022588891 0.0061745043
000040 73 f6 d0 3c 4f 79 56 bc 00 ff ae bc a1 37 20 ba
       0.025508141 -0.013090446 -0.021361828 -0.0006111805
000050 ac 33 2c 3c 8a 04 8b bc 5f ee a9 3b 91 f3 f5 3c
       0.010510366 -0.016969938 0.0051858868 0.030023368
000060 51 20 4b 3b eb 7d aa 3c 91 48 b8 3c 5e 25 02 3d
       0.0030994604 0.020811995 0.02249554 0.031773917
000070 95 f5 77 3c 82 df 85 bc 5e c6 81 3c ec 3f 03 3d
       0.015134235 -0.016341928 0.01584166 0.032043383
000080 ba 95 5b 3c 27 10 34 3c 07 3f ed bb 59 41 83 3c
       0.013402397 0.010990179 -0.0072401795 0.016022371
000090 c2 04 f8 3c d3 f3 44 bb da bb 81 bc 56 29 d6 bc
       0.030275706 -0.0030052557 -0.015836645 -0.026142757
0000a0 44 5b c5 3c aa a3 9a bc 6c cd de 3c b4 ab bb bc
       0.02409137 -0.01887687 0.027197562 -0.022909023
0000b0 27 c5 d2 3c f9 25 93 bc 08 fb f3 bb a3 a1 2a bc
       0.025728775 -0.017962443 -0.0074456967 -0.010414514
0000c0 dc dd df ba 30 1e 05 3d db e3 a0 bc 47 74 ba 3b
       -0.0017079669 0.032499492 -0.0196399 0.005690131
0000d0 3a 02 a7 3c 52 6e cc 3c ee 23 1a 3c 46 5f b2 3c
       0.020386804 0.024954949 0.00940798 0.021773946
0000e0 81 40 d3 3c 10 aa 3e bc ef 73 b3 3c f7 ec b4 3c
       0.025787594 -0.011637226 0.021905867 0.02208565
0000f0 22 87 81 3c 9b ab 7e bc c0 b5 a6 3c ad f1 96 3c
       0.015811507 -0.015543844 0.020350337 0.018425787
000100 27 0d c2 3c c6 13 bd 3c f6 bf 0a bb dc 91 48 3c
       0.023687912 0.023080718 -0.0021171547 0.012241807
000110 51 e6 97 3c 1d 1b e4 3c f9 28 c4 3c 3f 2c 0b bc
       0.01854244 0.02784496 0.023945319 -0.008494436
000120 d8 da f3 bb 29 20 bc bc 5d c9 a4 bb ad 5c b5 3c
       -0.0074418597 -0.022964554 -0.005028887 0.022138918
000130 bc c0 f9 3b 08 3f b1 bc 53 71 96 bc 4d 41 83 3c
       0.0076218527 -0.021636501 -0.018364584 0.016022349
000140 70 20 93 3c 32 d1 50 3c 98 80 8d bc a6 c3 c1 3c
       0.017959803 0.012745189 -0.017273232 0.023652863
000150 77 76 c5 3c cf 8d 22 3b 3a e4 bc 3c fa ed cd 3c
       0.02410434 0.0024803763 0.023058046 0.02513789
000160 49 79 91 bb e1 e1 52 bc 8a 17 cb bc 85 f1 e3 3c
       -0.004439507 -0.012871237 -0.024791498 0.027825126
000170 69 7c 88 bc b8 fb 82 bc f7 06 9f 3c 39 46 1d bc
       -0.016660886 -0.01598917 0.0194125 -0.009599262
000180 55 ee 85 3b ee e3 c5 3c 18 bd cc 3c 7a 26 d4 3c
       0.0040872493 0.024156537 0.02499251 0.025897253
000190 9b 4c 9d b9 5c 34 12 3c 1a 34 c8 3c 60 43 00 bc
       -0.0003000245 0.008923616 0.024438906 -0.007828563
0001a0 0f 83 a5 3b 4f 88 e0 3c 35 d5 60 bb 7e 47 ae 3c
       0.005051024 0.027408747 -0.0034306769 0.021274325
0001b0 4a f1 df 3c b3 78 c5 3c ac b0 b5 bb 8c 43 89 3c
       0.027336735 0.024105405 -0.0055447426 0.016755842
0001c0 de e2 23 3c c2 1e 25 bc 73 e3 b6 3c cf ec 60 3c
       0.01000282 -0.010078134 0.022325253 0.013728335
0001d0 50 9e 19 3c 0d f0 be 3c b2 4b cd 3c b3 b4 b5 3c
       0.009376124 0.023307825 0.025060508 0.02218089
0001e0 b2 43 3c bc d1 7a 88 3c 7f 45 fb 3c ee 9d 07 bc
       -0.011490749 0.016660126 0.030672787 -0.008277399
0001f0 20 41 9f 3b a8 79 96 3c 9b 53 30 3b b4 aa 41 3c
       0.0048600584 0.018368557 0.0026905301 0.011820484
000200 7a 47 dc 3c 38 78 28 bc de 07 92 bc a4 6c 84 3c
       0.026889551 -0.010282569 -0.017826017 0.016165085
000210 62 e9 dc 3c ee bf cd 3c 90 53 98 bc c4 d2 c1 bb
       0.026966754 0.025115933 -0.018594533 -0.005915018
000220 b4 69 c5 bc 8c 94 f0 3b a6 63 f4 3b 23 53 87 bc
       -0.024098255 0.007341927 0.007458168 -0.016519135
000230 af 2c e3 3c e7 59 73 bc 5a 8f cd 3c ff 71 d2 3c
       0.027731268 -0.014852977 0.02509277 0.025689123
000240 66 1c d8 3c 17 8f c6 bc 84 1b ea 3c 16 7d 3b bc
       0.026380729 -0.024238152 0.028577574 -0.011443397
000250 24 49 6a bc 26 cf dd 3c 69 0e 97 bb 32 f5 a7 3c
       -0.014299665 0.027076315 -0.004609872 0.02050266
000260 db 81 7e 3a b8 4e 42 3c cb 29 b0 3c ea 90 b5 bc
       0.0009708681 0.011859588 0.021504303 -0.022163827
000270 de 3e 9c 3c 27 78 8f 3c c4 66 01 bd 20 07 71 3c
       0.019072946 0.017513348 -0.031592146 0.014711171
000280 69 c7 ac bc 84 25 d7 3a 23 9d af 3c cc 2f 95 3c
       -0.02109118 0.0016414379 0.021437233 0.018211268
000290 62 7d a1 3b 09 7c 50 bb ed 0a 38 bc ba 40 ba 3c
       0.004928277 -0.0031812212 -0.011233074 0.022735942
0002a0 83 99 c7 3c b7 de b1 3b 77 e4 a2 bc 56 9a 64 bc
       0.024365192 0.005428161 -0.019884331 -0.013952812
0002b0 41 63 91 3c 25 b8 8f bc 31 34 9f 3c 2c 14 d8 3c
       0.017747523 -0.017543862 0.019434066 0.026376806
0002c0 45 ac 5e 3b c4 ea c8 3c 6c b4 b5 3b a5 3b d7 3a
       0.0033977192 0.024526007 0.0055451896 0.0016420974
0002d0 ae 95 ad bc 2e 47 77 3c f5 ad 5b 3b bb 0c bc 3c
       -0.021189537 0.015092654 0.0033520435 0.02295529
0002e0 60 3b ca 3c 91 13 3b bc 3a f5 12 3c d5 4c d5 3c
       0.024686515 -0.011418239 0.008969599 0.026037613
0002f0 49 e9 cd 3c e4 4c b2 3c b5 1a 99 3c d9 5e 70 3c
       0.025135653 0.02176518 0.018689493 0.014671051
000300 98 42 a4 3b 3f cc c0 bc 79 35 90 bc 33 7e 92 3c
       0.0050128214 -0.023534892 -0.017603623 0.017882442
000310 e1 7c b2 3c bb db 57 bb db d0 b8 3b 4d a1 03 bc
       0.021788063 -0.0032937366 0.005640132 -0.008034063
000320 ea 50 e6 3b a4 3c b9 3c a6 90 4e bc 1f 25 b4 bc
       0.0070286887 0.022611924 -0.012607729 -0.021990357
000330 7e f2 7b bc 04 73 a0 3b b9 6c ad bc 4b c2 87 bc
       -0.015377639 0.0048965234 -0.021170007 -0.016572138
000340 46 5f fd bb c9 e3 53 bc b6 ca b3 bb 10 92 a0 3c
       -0.0077323047 -0.012932726 -0.0054868115 0.019600898
000350 40 0c dc 3c d3 0b 36 3b c3 9d ac 3c fe 8e 06 bd
       0.02686131 0.0027778044 0.02107132 -0.03285121
000360 d4 6f b5 3c 25 77 89 3c bf ec 65 3c bc f3 df 3c
       0.02214805 0.016780445 0.014033495 0.027337901
000370 ee 06 9e bc 9a da 8f bc 60 70 ad 3c 00 91 2f 3c
       -0.019290414 -0.017560292 0.021171749 0.010715723
000380 97 6b 1e bc aa 41 30 3c 31 15 83 3c 56 a5 61 3c
       -0.009669206 0.010757843 0.016001316 0.013772329
000390 3a 95 3b ba fc 65 a0 bc 23 4d ac 3c 6a 5f 9b 3c
       -0.00071557204 -0.01957988 0.021032875 0.018966395
0003a0 22 3a f8 ba 5c 50 9a 3c f4 0c b9 bc 03 62 b4 3c
       -0.0018938223 0.018837146 -0.022589184 0.022019392
0003b0 25 e5 b4 3c c4 51 31 b9 bb 05 19 bc bc d3 18 bb
       0.02208192 -0.00016910495 -0.009339745 -0.0023319563
0003c0 c2 31 bf 3c 7e 78 a9 3c 9d fe a7 3c 02 b9 cd 3c
       0.023339156 0.020687338 0.020507151 0.025112633
0003d0 a3 df a6 3b c4 7d dc 3c b6 7c 18 3c 63 32 c6 bc
       0.0050925775 0.026915438 0.009307077 -0.024193948
0003e0 1f 24 9f 3c ba af bb 3c 09 04 56 3c 19 25 1b 3c
       0.019426404 0.022910941 0.0130624855 0.009469294
0003f0 28 4f 45 bc b9 ef 8d bc ab 98 9d bc 7b 4c ad 3c
       -0.012042798 -0.017326223 -0.019237837 0.021154633

network_body._body_endoder.seq_layers.2.weight f4 [256, 256]
000000 51 46 2b bd 58 a7 63 bc 35 66 11 3d ea 89 c1 3b
       -0.041815106 -0.013894878 0.035497863 0.005906333
000010 21 e9 89 3d 47 0c e1 bc 6d 73 67 3d 62 c2 cf 3c
       0.06733919 -0.027471675 0.056506563 0.025361244
000020 1b fa bc 3d 1c ed 17 3d 78 b7 bb bd 45 ce 43 3c
       0.09227391 0.03709136 -0.09165853 0.011951034
000030 e9 ae 98 3d 54 b6 a2 3c f0 15 94 3c 7e 32 1a be
       0.074552365 0.019862331 0.018076867 -0.15058324
000040 8c e0 3b bc 45 79 5a 3d bc f0 bd 3d 5d a0 be bd
       -0.01146711 0.053338308 0.09274432 -0.093079306
000050 b5 79 4b bd bf 12 30 bc 1e 19 68 3c 42 d2 ca 3d
       -0.049676616 -0.010746657 0.014166145 0.09903385
000060 7a 2e 3c 3a 7c 59 6f 3b 2e 63 14 3e b8 3a c1 bc
       0.00071785564 0.0036521843 0.14490959 -0.02358757
000070 80 79 4c 3e 55 97 dd bc d5 ec 9f 3d 9d df 00 3d
       0.19968224 -0.0270497 0.07808844 0.031463254
000080 03 84 c0 bd 16 91 1f bc ee 32 ee 3c 0b cb bf bb
       -0.09400179 -0.009739181 0.02907702 -0.005853062
000090 0d 56 1f 3d 6b 4b b7 3d 8c 9c ab 3c ae 30 b1 3d
       0.038900424 0.08949932 0.02094867 0.08651863
0000a0 f1 93 27 3d a0 e3 a5 bd 9c 7b 0a 3b 4e 5d 7e 3d
       0.040912572 -0.08100057 0.0021130806 0.0621007
0000b0 e8 c0 06 3d 4f 29 f3 3d f8 1a 29 3d 50 3c 40 bc
       0.032898813 0.11873113 0.041285485 -0.01173313
0000c0 74 65 c0 bd 87 fd 25 bc ae a3 a6 bd f3 e6 63 3d
       -0.09394351 -0.010131246 -0.08136688 0.055640172
0000d0 6a 5a 0b 3d 2e 05 88 3c 4e 5e 09 3d 75 49 88 bb
       0.034021772 0.016604032 0.0335372 -0.0041591474
0000e0 1e dd f6 3d c8 f9 0b be 9f e4 ce bd 4c 22 0c 3d
       0.120538935 -0.13669503 -0.101022 0.034212396
0000f0 e8 40 6c 3d 97 f8 65 3d 25 c0 e3 bd 3a a1 f1 3d
       0.057679087 0.056145277 -0.11120633 0.1179833
000100 cf 7a 74 3b 00 fb 80 3c 53 cb 26 bd ed b1 91 3d
       0.0037304645 0.015744686 -0.04072125 0.07114015
000110 26 eb a0 3b 1a b2 de bd 6e f9 d9 3c bc ae cf 3c
       0.0049108444 -0.10873814 0.026608195 0.025351875
000120 d9 f0 99 3c da 58 d5 ba 2e ca d0 3c a7 0c db 3d
       0.018791603 -0.001627709 0.025487032 0.106957726
000130 e1 41 c3 3c 2a 5d 66 bc 86 7f 93 ba 5b e9 26 bd
       0.023835124 -0.014060298 -0.0011253215 -0.04074989
000140 28 63 f7 3d c1 51 12 3d cd d6 a0 bd 0d 60 40 bd
       0.120794594 0.035722498 -0.0785347 -0.0469666
000150 16 59 e9 3c e3 ae ce 3d e8 52 d4 3d a3 c5 00 bb
       0.028484862 0.10091951 0.103673756 -0.001964905
000160 ff 7c 93 3d a6 4e c8 3d 05 9b b5 3b ea 20 52 bd
       0.072015755 0.09780626 0.0055421614 -0.05130092
000170 a3 96 ca bc e9 f9 b1 bc 3d 3e 20 3d d9 cf 6b bc
       -0.024730032 -0.021725612 0.039121855 -0.014392816
000180 3d 28 41 bd 3e 0c 94 bd b3 20 a7 3d 87 20 c2 3c
       -0.047157515 -0.072288975 0.08160534 0.02369715
000190 1f a4 a3 3c 53 73 27 bd ad f9 33 3d 9d ac b9 bd
       0.01997572 -0.040881466 0.04393928 -0.090661265
0001a0 5c 47 5c bd 57 8d f2 bd cb fd 16 3b b2 3d 3a 3d
       -0.05377899 -0.11843365 0.0023039456 0.045468993
0001b0 39 48 09 3d f7 89 f9 3d d1 31 31 3e 77 c3 fe ba
       0.033516143 0.12184518 0.1730416 -0.0019436915
0001c0 1c 79 59 bd 53 88 f2 bc 6d 8b 86 ba e1 82 cc 3d
       -0.053094015 -0.02960602 -0.0010264941 0.09985901
0001d0 a9 76 5b 3d 99 75 d2 3c 69 ce 99 3d 6f bf 25 be
       0.05357996 0.02569084 0.07510073 -0.16186307
0001e0 8d 97 a3 bc fe 18 e9 3d 58 31 0c 3e 0c 2b a2 3d
       -0.019969726 0.1138172 0.13690698 0.07918367
0001f0 fe f9 ae 3d 83 f4 9e bc 5f e4 a7 3b d6 32 61 3a
       0.08543776 -0.019403702 0.0051236595 0.0008590644
000200 96 b1 a8 3c c1 d4 2c 3c 32 ea a2 3d af 64 0f bd
       0.020592492 0.010548771 0.079548255 -0.03500813
000210 f6 fa 04 3c 95 7f 0e 3e 0a 05 24 bd cf f1 e6 bb
       0.008116474 0.13915856 -0.040043868 -0.007047869
000220 d4 34 81 3d 9f 9a 43 bd 2d 90 a5 3d d0 04 96 bc
       0.06308904 -0.04775488 0.0808414 -0.018312842
000230 33 78 4f bd 30 5e 25 3c 56 74 a3 bc 74 cd 54 3c
       -0.05065174 0.010093257 -0.019952934 0.012988437
000240 1b 72 ec 3c 93 20 04 bc 02 b3 c9 3d b3 45 b9 3d
       0.028863003 -0.008064407 0.09848596 0.09046497
000250 38 13 a0 bd e3 9f 0d 3e f7 19 c8 3d 9c 9e fb 3d
       -0.07816166 0.13830523 0.097705774 0.12286112
000260 0b 47 b8 3d 9a b3 e9 bb ee 74 7a bb 46 68 ca 3c
       0.08997925 -0.007132006 -0.0038216668 0.024707925
000270 10 cb 73 3d db fb 18 bd 39 ea b4 bb 8c 13 59 3c
       0.059519827 -0.037349563 -0.0055210856 0.013249289
000280 bf c3 37 3d 84 ca f8 3c cb 25 0a 3d c3 4d 29 3d
       0.044864412 0.030370004 0.03372745 0.041333925
000290 73 c7 cd 3c 7c f1 8c 3c 65 51 bf bd 0f 99 7a 3c
       0.025119519 0.017204992 -0.09341697 0.015295281
0002a0 5a 36 58 bd 92 76 52 3b 18 53 86 3d 35 4c 9b 3d
       -0.05278621 0.003211413 0.065588176 0.07582895
0002b0 d4 88 57 3d 85 0e f2 3c 5f 13 0c 3c 20 8e 8d 3d
       0.052620724 0.02954794 0.00854954 0.06911874
0002c0 e0 62 26 bd 5b bd 29 bc df d7 13 3d 1d 61 79 bd
       -0.04062164 -0.010360087 0.036094543 -0.06088363
0002d0 70 38 2f 3d a9 ac 22 3d 9e 7b ce 3d b8 10 c8 ba
       0.042778432 0.039715443 0.10082172 -0.0015263772
0002e0 52 28 12 3d 75 4a ff bc df 44 74 bc bf 39 5c bd
       0.035682984 -0.031163434 -0.014908998 -0.05376601
0002f0 b6 0c 9f bd 82 10 dd bd 10 2e 1d 3c 15 18 5d 3d
       -0.07766096 -0.10794164 0.009593502 0.053978045
000300 8b 91 44 bd 49 37 c1 bc 0e bf 57 bc 0e 03 ff 3d
       -0.047990363 -0.023585932 -0.01316811 0.124517545
000310 a6 01 04 3e 1e 88 41 be 5e 8b 88 bd 67 14 f5 3d
       0.12891254 -0.18899581 -0.06667207 0.11966782
000320 f2 cc 56 3d 46 26 9a 3c 4c 4c 37 3d 4e 02 7a 3c
       0.052441545 0.018817078 0.044750497 0.015259339
000330 f1 5b 5d 3c 43 2d 0a 3d 8c 71 25 3d e9 2b 16 bc
       0.01351069 0.03373457 0.04039149 -0.009165742
000340 62 d6 aa bd 89 10 b5 bd c6 09 0a bd 07 45 64 3b
       -0.083416715 -0.088410445 -0.033700727 0.0034831183
000350 a3 48 b6 3d 2a ef 7f 3d 50 55 b5 bc 5b 33 dc 3d
       0.08900573 0.062483944 -0.022135407 0.10751983
000360 fb 13 a4 3c 17 da a8 3d 4d 95 18 bc 63 cc 9b 3a
       0.020029059 0.08244722 -0.00931294 0.0011886474
000370 d5 44 82 3d 73 bc f1 bb b5 99 36 3d 84 85 da 3c
       0.06360785 -0.007377201 0.04458018 0.026674993
000380 79 7f d3 3c 44 9b 17 3d ac e4 b2 3c c3 08 9f bd
       0.02581762 0.037013307 0.021837555 -0.07765343
000390 75 1c fb bc 6e de b0 3b 89 c0 38 bd 72 38 62 bc
       -0.030653218 0.0053976094 -0.04510549 -0.013807403
0003a0 07 6c ba bd e4 ae 2d 3d 5f 13 ff bc ae c7 67 3d
       -0.09102636 0.042403117 -0.031137167 0.056586914
0003b0 9f 18 65 bd 79 a0 94 bd ca af cf 3d 66 d5 0c be
       -0.055931684 -0.0725717 0.10140951 -0.1375328
0003c0 d3 4d 61 3d 7c a1 ab bc 6f af 69 3b 60 13 80 3b
       0.05500586 -0.020951025 0.0035657545 0.0039085597
0003d0 e5 3f 05 3d 4b d0 99 3d 5c 53 86 3d a0 fd b4 bd
       0.032531638 0.07510432 0.06558868 -0.08837438
0003e0 16 44 ad bc 8d 89 8a bd 76 e4 04 bd fe a3 c3 3b
       -0.02115063 -0.06764517 -0.03244444 0.005970477
0003f0 4c 0d e5 bd 7c 61 db bd de 9c 88 bc b9 a7 f8 bc
       -0.11184177 -0.10711953 -0.016676363 -0.030353414

network_body._body_endoder.seq_layers.4.bias f4 [256]
000000 66 7a ba 3c 43 c5 ae 3c b8 c8 9a 3c 77 63 7e 3c
       0.022763442 0.021334296 0.018894538 0.015526644
000010 26 30 d5 3c 75 1a b8 3b 9e 06 51 3b 09 38 35 bb
       0.026023936 0.0056183883 0.0031894813 -0.0027651808
000020 76 23 be 3c 26 53 0c bb 39 9e 89 bc 7d ad cc 3c
       0.023210268 -0.0021411865 -0.01679908 0.02498507
000030 12 7c b3 3c 41 8f 9f 3c 3f 0b 82 3c 41 02 b7 3c
       0.021909747 0.019477488 0.015874503 0.022339942
000040 72 92 64 bc a7 8a 92 3c fd 73 45 bc 21 45 6c 3c
       -0.013950931 0.01788838 -0.01205158 0.0144207785
000050 b5 b0 00 3c 40 0a 93 3c cb b7 94 3c 99 c5 7d bc
       0.00785463 0.017949224 0.018154046 -0.0154890055
000060 3b f3 46 bc 20 1d 8d bc c1 33 3a bc 52 4d 7f bc
       -0.012142952 -0.017225802 -0.011364878 -0.015582399
000070 aa d0 90 3c e4 2a cc bb e8 70 a3 3b 12 c5 6b 3c
       0.017677624 -0.006230699 0.0049878247 0.014390247
000080 ad 07 6b 3c ae bc b9 3c 0b a9 c6 bb fd 41 85 3c
       0.014345092 0.022672977 -0.006062632 0.016266817
000090 e6 88 11 bb 7f ad 39 bb 4d 59 c6 3c 75 54 c2 3c
       -0.0022206842 -0.0028332171 0.024212504 0.023721913
0000a0 f2 49 3f bc 02 f9 99 3c 43 d1 94 bc ef 81 79 3c
       -0.011675345 0.018795494 -0.01816619 0.0152287325
0000b0 2e 8a 60 3b 15 fb 89 bc bb 03 83 bc 02 03 db 3c
       0.003426205 -0.016843358 -0.01599299 0.026734833
0000c0 be 70 a4 3b fc 8f 8c b9 1f bb a2 3c 2c ac c5 3c
       0.0050183227 -0.00026810158 0.019864617 0.02412995
0000d0 43 24 bf 3c fa 59 63 3c 9d c7 c7 3c 18 65 20 bc
       0.02333272 0.013876433 0.024387175 -0.009789728
0000e0 e2 99 d9 bb 18 59 c0 3c 89 1a d3 bb ed 6f c1 3c
       -0.0066406587 0.023479983 -0.006442372 0.02361294
0000f0 30 60 a1 3c 2a d7 1c bc 66 83 f9 3a 4b 58 9b 3c
       0.019699186 -0.0095727835 0.0019036352 0.018963
000100 f9 e2 68 bc b3 a1 6d 3c 5f 98 b8 3b 22 48 ad 3c
       -0.014214271 0.014503884 0.0056333984 0.02115256
000110 48 29 a6 3c 35 6b 0b bc 9d 7a 6e 3b 33 e3 ec 3a
       0.020283356 -0.008509447 0.0036389001 0.0018073082
000120 85 23 8a bb e5 e7 b2 3c 5c ab ad bc 3b e3 bb 3c
       -0.00421566 0.021839092 -0.021199875 0.0229355
000130 61 3e 48 3c a4 d2 8b bc 16 a2 4b 3c 66 1a 3d bc
       0.012221904 -0.017068215 0.012428781 -0.011541938
000140 c4 45 a8 3c ad 0a e4 bb 53 d1 c7 ba 4f 64 a2 3c
       0.02054108 -0.0069592805 -0.0015244879 0.019823221
000150 ee 45 e4 3b 8f 90 be 3c df 2c d9 3c 94 9c 8f 3c
       0.006966344 0.02326229 0.026510654 0.017530717
000160 4c 82 88 bc 59 cc b4 3c e1 cf 7d bc 6c 3d 4c 3c
       -0.016663693 0.022070097 -0.015491457 0.012465816
000170 ed f4 be 3c 9b 02 47 bc 56 e1 6c 3c 4a 00 b5 3c
       0.02331015 -0.012146617 0.014458021 0.022094864
000180 42 3f 97 3c e5 fe d8 3b c9 28 3f 3c 72 e2 7c b9
       0.01846278 0.0066221827 0.011667439 -0.0002411695
000190 39 a0 6c bc 90 19 93 3a c1 d3 a1 3c a4 5c 71 3c
       -0.014442497 0.0011222828 0.019754292 0.01473156
0001a0 0a 45 cd bb d9 93 c9 3c 5c fd a5 3c 85 9f 96 3c
       -0.0062643336 0.024606632 0.020262413 0.018386612
0001b0 15 5b bc 3c cb 88 aa 3c 6a 71 97 bc b4 d3 f6 bb
       0.02299265 0.020817181 -0.018486697 -0.007532561
0001c0 dc 09 fc 3b db 4e 97 3a e2 88 b7 3c 42 55 c6 3c
       0.007691605 0.0011543887 0.022404138 0.024210576
0001d0 2f 65 a9 3c fa 04 03 3c 32 71 b4 3c b1 2a 58 bb
       0.02067813 0.007996792 0.022026632 -0.003298443
0001e0 22 38 50 bc 94 66 6d bc b8 fc bd 3c b4 a2 86 3b
       -0.012708696 -0.014489789 0.023191795 0.004108751
0001f0 b2 f2 9b bc c6 db b5 3c 94 f5 98 bc 9e 24 9e 3c
       -0.019036625 0.022199523 -0.018671788 0.01930457
000200 00 40 56 3c 7c ed d9 3c 87 c0 b7 3c 0c 51 be 3c
       0.013076782 0.0266025 0.022430671 0.023232006
000210 68 98 9d 3c 5f 51 02 3c 30 79 5a bc 7d 44 a7 3c
       0.019237712 0.007953971 -0.013334557 0.0204184
000220 38 21 0c 3c c2 d6 bf 3c 0f 42 c6 3c 51 bd 76 3c
       0.008552842 0.023417834 0.024201421 0.015059785
000230 87 b7 b7 bc 53 ff 56 bc 85 e5 cd 3c 20 04 58 bc
       -0.02242638 -0.0131223975 0.025133858 -0.013184577
000240 00 ac c9 bb b5 c4 08 3b c8 8d 18 3c c0 5d b9 39
       -0.006154537 0.00208692 0.009311147 0.000353558
000250 75 96 97 3b 89 5f 8d 3c c9 03 a2 39 04 5e 4a 3b
       0.00462609 0.017257469 0.00030901868 0.0030878792
000260 4a b0 b3 3c 12 45 03 3c 83 de 9d 3c 79 ac c6 3c
       0.021934647 0.008012073 0.01927114 0.024252163
000270 13 17 2c bc 68 74 09 bc f2 66 8b bc 58 3a 73 3b
       -0.010503548 -0.00838957 -0.017016862 0.0037113633
000280 02 7b 6c 3c 7c ee d5 bb 97 4e ae 3b 00 ec bd 3c
       0.014433624 -0.0065286737 0.0053194272 0.023183823
000290 a0 d4 cd 3c bc 19 79 bc c3 69 a6 3c 8b 26 ed 3a
       0.025125802 -0.015203889 0.020314103 0.0018093152
0002a0 4b 68 1f bc 3f 5b e6 bb 65 22 86 bc 02 6d aa 3c
       -0.009729455 -0.0070299204 -0.016373822 0.020803932
0002b0 b4 2b c8 3c 84 30 c2 3c c3 aa 67 bb db 2f a7 3c
       0.024434902 0.023704775 -0.0035349585 0.020408561
0002c0 8b be 87 3c 4e 27 b0 3c b2 50 52 3b 79 96 e2 3c
       0.01657035 0.021503117 0.0032091555 0.027659642
0002d0 b3 79 04 bc fa 6b c0 3c b6 b1 5b bc a0 05 aa 3c
       -0.008085656 0.023488987 -0.013409069 0.020754635
0002e0 99 0e a1 bc 33 83 5f 3c 52 a5 5f 3c e6 04 86 3c
       -0.019660281 0.01364212 0.013650255 0.016359758
0002f0 ed 14 31 bb 05 38 38 bc f5 67 1e 3c a0 17 dd ba
       -0.002702053 -0.011243825 0.00966834 -0.0016868003
000300 b0 46 04 3c 0f ba de 3c 60 49 d2 bb d3 37 88 bc
       0.008073494 0.027188329 -0.0064174384 -0.016628182
000310 c1 4c 42 3b 9c 78 86 b9 6e 3f a2 bc 5f 92 2b bc
       0.00296478 -0.00025648333 -0.019805636 -0.010471909
000320 e9 17 86 3c 3a a0 27 bc a9 76 a9 3c ec 8b cb 3a
       0.016368823 -0.010231072 0.020686464 0.0015529371
000330 a0 60 10 bc 91 b8 86 3c 83 ad a4 3c 97 b7 9b 3c
       -0.0088121 0.01644543 0.020102268 0.01900844
000340 27 b0 0f bb be 7b 62 3c 9a 05 6e bc a9 26 a2 bc
       -0.0021925063 0.013823448 -0.014527703 -0.019793825
000350 4b d9 fb 3b cf 88 4f 3c 22 8a b9 bb 2b 92 61 bc
       0.0076858154 0.012666895 -0.0056622187 -0.013767759
000360 8d 33 7d 3c 1f 2a cb 3c f2 05 6d bc 0c f3 a5 3c
       0.015454185 0.024800358 -0.0144667495 0.020257495
000370 84 f7 5d bc f5 24 33 bc 62 d7 95 3c b5 78 8a bc
       -0.013547782 -0.010934104 0.01829118 -0.01690326
000380 40 4c 6c bc f0 93 be 3c c8 9b fe bb eb 91 5e 3c
       -0.014422476 0.023263901 -0.0077700354 0.013584594
000390 33 0f cd bb 14 d4 11 3b 90 f4 c1 3c ac 23 82 3c
       -0.0062579154 0.0022251653 0.023676187 0.01588615
0003a0 43 0b ec ba f2 89 7e bc 49 cf 99 3c 5c 5f a6 3c
       -0.0018008727 -0.015535818 0.0187756 0.020309143
0003b0 35 ff 8d bc f5 25 bb 3c 2a 85 8d 3c 6c be 37 bc
       -0.017333606 0.022845248 0.017275412 -0.011214834
0003c0 39 a6 a5 bc ce 6e c8 3c 49 7c a2 3c b9 75 a5 3c
       -0.020220863 0.024466898 0.019834654 0.020197736
0003d0 73 22 0c bc 6d c7 98 bc 7a dc bd 3c 49 31 3a 3c
       -0.008553135 -0.018649781 0.02317642 0.01136429
0003e0 70 a4 9c bc 92 4c 99 3c b0 10 c3 3c 72 ac 6d bc
       -0.019121379 0.01871327 0.023811668 -0.014506446
0003f0 08 45 92 bb 9d 1e 2b bc 6e df 0e 3c c9 fe ea 3b
       -0.0044637956 -0.0104443105 0.008720262 0.007171486
