Assets/Training/results/b_treasure_test80_Th64_Lr1e-4Bs4096Bs262144_Curiosity_EndDistanceReward/TreasureSearch.onnx (onnx, 608683 bytes, 13 tensors)

65 f4 [68]
0.44535643 0.49958745 0.4050625 0.27262896 0.4485564 0.49989069 0.40753895 0.28106266
0.4779157 0.49897337 0.38322455 0.30186373 0.49250114 0.48748866 0.39787415 0.32467422
0.47707173 0.49996656 0.3506082 0.31572148 0.4958917 0.4928902 0.35418922 0.3264352
0.45331547 0.48838553 0.3038065 0.30892625 0.45506337 0.49537554 0.34189263 0.30322605
0.44515973 0.480708 0.28244126 0.30315202 0.4304119 0.48389724 0.31898335 0.28263384
0.45374832 0.4863897 0.28170398 0.30003262 0.43117395 0.49616018 0.2189742 0.27817148
0.42291647 0.4854362 0.2218423 0.28608862 0.41657603 0.48589438 0.051642314 0.2183256
0.39497373 0.4984598 0.06301127 0.22203961 0.39909965 0.48622683 0.058029052 0.19922583
0.39909893 0.4862266 0.05802905 0.19922589
00000000: c205 e43e edc9 ff3e 5a64 cf3e 0696 8b3e
00000010: 2fa9 e53e acf1 ff3e f2a8 d03e 72e7 8f3e
00000020: 5eb1 f43e 7079 ff3e 0236 c43e e28d 9a3e
00000030: 1c29 fc3e 1d98 f93e 29b6 cb3e b33b a63e
00000040: bf42 f43e 9efb ff3e eb82 b33e 3fa6 a13e
00000050: 84e5 fd3e 1b5c fc3e 4a58 b53e 8422 a73e
00000060: f718 e83e ab0d fa3e 878c 9b3e 952b 9e3e
00000070: 11fe e83e dda1 fd3e 8d0c af3e 7240 9b3e
00000080: faeb e33e 5c1f f63e 249c 903e be36 9b3e
00000090: f35e dc3e 61c1 f73e c951 a33e 62b5 903e
000000a0: b351 e83e 1208 f93e 813b 903e e09d 993e
000000b0: d5c2 dc3e b508 fe3e c63a 603e 7e6c 8e3e
000000c0: 8288 d83e 188b f83e a12a 633e 357a 923e
000000d0: 7449 d53e 26c7 f83e e486 533d bf90 5f3e
000000e0: ff39 ca3e 1f36 ff3e 0d0c 813d 5a5e 633e
000000f0: ca56 cc3e b9f2 f83e dfaf 6d3d db01 4c3e
00000100: b256 cc3e b1f2 f83e deaf 6d3d df01 4c3e

68 f4 [6]
2.2245784 5.2237186 0.010783889 0.0069002807 3.8079567 132.71774
00000000: 7e5f 0e40 b428 a740 e9ae 303c c01b e23b
00000010: 90b5 7340 beb7 0443

action_model._continuous_distribution.log_sigma f4 [1, 2]
0.042584125 0.0019835546
00000000: b16c 2e3d 86fe 013b

action_model._continuous_distribution.mu.bias f4 [2]
-0.00018782116 0.0051374924
00000000: dcf1 44b9 6958 a83b

action_model._continuous_distribution.mu.weight f4 [2, 256]
0.007973896 0.006964542 0.020553831 0.0013702406 -0.01572954 -0.015481497 0.0248868 0.0069972672
0.033924684 -0.013068169 -0.013448524 0.034904566 -0.0078040627 -0.009768237 0.0061192587 0.033074036
-0.01645155 -0.011492203 -0.020735191 -0.0064587 -0.009590342 0.03010454 -0.010311514 0.029168988
0.0010026646 0.04634239 0.019229854 0.034679845 -0.014526686 0.01439251 -0.0016171902 -0.01333767
-0.0023053468 -0.042345192 0.0032922777 0.012413913 -0.012637852 -0.035640597 -0.013897737 -0.01579672
-0.00052761106 0.013277229 -0.01347786 0.0024182089 -0.0056608077 -0.0045950133 -0.00085518253 0.014148568
0.0006836934 0.024891175 -0.02037868 -0.013470788 0.009272898 0.0065517933 -0.0036795367 0.0039339704
-0.010286217 0.005703864 0.02384847 0.005472708 -0.0011709448 -0.02499208 -0.0037982971 0.053168975
-0.021620778 -0.01998332 -0.018274317 0.032676417 -0.011479572 -0.03690204 -0.011062115 0.010558208
-0.0021948502 0.006301705 0.009211509 0.0069642146 0.008660311 0.00014496253 -0.013705319 -0.020215835
0.013975762 0.012214047 0.005006417 0.016333371 0.006216861 -0.017376423 -0.0062204464 0.009269888
0.017277917 0.02663145 -0.004668148 0.013979671 0.0045347908 -0.018877298 0.015484795 0.011783759
0.023400277 -0.0031593686 -0.002574541 -0.00039825466 -0.03372146 0.01647633 0.007998731 -0.010948981
-0.01603337 0.01817972 0.0054644593 -0.017247688 -0.018228952 -0.0032974225 -0.0012163448 0.006420857
0.040993087 -0.0036206082 -0.0056708623 0.0049501937 -0.001219191 0.006762445 -0.004485478 0.002249665
-0.015459014 -0.0030640906 0.009282323 -0.012652503 -0.00038649002 -0.002303777 0.025564915 -0.0070058745
0.015325007 0.025994083 -0.0069152745 0.00437749 0.019562025 0.011178798 0.0091155395 0.008710698
0.012061348 -0.007298681 0.0066233505 -0.011674527 -0.03171353 -0.008634778 0.020506177 0.02441577
-0.010842207 -0.0038540866 0.023733955 -0.021404162 -0.01542586 -0.0016896728 0.019476252 0.0057100602
0.013695563 -0.0019369293 -0.021965083 -0.006232273 -0.021705065 -0.0063206824 0.011722641 0.01497903
0.026917346 0.0029845063 -0.0033403023 -0.010917393 0.0057029305 -0.014332556 0.018518472 0.012979897
-0.016180176 -0.007806159 -0.02267044 -0.015531384 -0.0039874967 -0.034670856 0.021858068 0.007327799
-0.019771133 0.0061841547 0.020962337 -0.028764503 -0.009098528 0.0009170389 -0.016194895 0.012310515
-0.0010926707 0.019474242 0.0055350857 -0.02666923 0.014977465 0.010117881 0.017953865 0.008068341
0.011476038 -0.015552194 0.011550881 -0.0036559582 -0.010904488 0.018834265 -0.0069059464 0.01588775
-0.029173015 0.021386357 0.010612443 -0.010216862 -0.0015886752 -0.011272122 0.024446273 0.019558776
0.030175984 -0.0019135535 -0.004077367 0.022084123 -0.0121068675 0.02379017 0.0036259785 0.01740004
0.0074465983 -0.0042728055 -0.016861875 -0.019830853 0.0019260398 0.0023183518 0.026315201 0.006324894
0.03173102 -0.021170683 0.0034678585 -0.019454893 0.0114176795 -0.011666459 0.0017370877 0.014102816
0.0073234867 0.011637525 0.026947135 0.0016907018 -0.022894789 0.008278465 0.018453347 0.01918856
-0.016928043 -0.010269888 -0.005334983 0.020506669 -0.0045939526 0.016558813 -0.020784311 0.007935746
0.015404469 -0.008537586 -0.028422492 0.017761001 0.040197432 -0.032716617 0.0067982664 -0.012591623
00000000: f2a4 023c d036 e43b 8260 a83c a599 b33a
00000010: 3cdb 80bc 1ba6 7dbc 67df cb3c 5549 e53b
00000020: 9cf4 0a3d e01b 56bc 3357 5cbc 17f8 0e3d
00000030: 39b9 ffbb f50a 20bc 1084 c83b a478 073d
00000040: 67c5 86bc cb49 3cbc d9dc a9bc 81a3 d3bb
00000050: cf20 1dbc cc9d f63c a0f1 28bc cdf3 ee3c
00000060: d76b 833a 85d1 3d3d ed87 9d3c 740c 0e3d
00000070: 5601 6ebc 90ce 6b3c e6f7 d3ba 3e86 5abc
00000080: 4d15 17bb 2772 2dbd 41c3 573b ba63 4b3c
00000090: fe0e 4fbc e0fb 11bd 55b3 63bc 1f68 81bc
000000a0: 614f 0aba bc88 593c 3ed2 5cbc d07a 1e3b
000000b0: 4c7e b9bb c491 96bb 542e 60ba 65cf 673c
000000c0: e339 333a 94e8 cb3c 31f1 a6bc 94b4 5cbc
000000d0: 5aed 173c 6db0 d63b 6224 71bb 89e8 803b
000000e0: 8587 28bc 7be7 ba3b de5d c33c 6754 b33b
000000f0: 637a 99ba 31bc ccbc daec 78bb b6c7 593d
00000100: 0f1e b1bc 0fb4 a3bc 05b4 95bc b5d7 053d
00000110: d114 3cbc 9826 17bd e03d 35bc 56fc 2c3c
00000120: 7ad7 0fbb 887e ce3b deeb 163c 1134 e43b
00000130: fae3 0d3c 1501 1839 468c 60bc ae9b a5bc
00000140: 98fa 643c 6d1d 483c df0c a43b 90cd 853c
00000150: cfb6 cb3b 0059 8ebc e3d4 cbbb bae0 173c
00000160: 6b8a 8d3c 332a da3c 43f7 98bb fd0a 653c
00000170: 9598 943b 90a4 9abc f0b3 7d3c ab10 413c
00000180: f0b1 bf3c 690d 4fbb a1b9 28bb d6cc d0b9
00000190: 831f 0abd 5ef9 863c 1c0d 033c 5b63 33bc
000001a0: 6a58 83bc a3ed 943c 350f b33b 064b 8dbc
000001b0: e254 95bc 9219 58bb c26d 9fba 0d66 d23b
000001c0: 5ee8 273d ba47 6dbb a4d2 b9bb 3c35 a23b
000001d0: 43cd 9fba 8097 dd3b ebfa 92bb 1e6f 133b
000001e0: ce47 7dbc e9ce 48bb e214 183c 724c 4fbc
000001f0: d0a1 cab9 f7fa 16bb 836d d13c 8991 e5bb
00000200: bd15 7b3c 8bf1 d43c 8799 e2bb 0c71 8f3b
00000210: 8a40 a03c 4727 373c 5859 153c 51b7 0e3c
00000220: f69c 453c c629 efbb b108 d93b 8446 3fbc
00000230: 0ce6 01bd e278 0dbc 92fc a73c 9503 c83c
00000240: 83a3 31bc d894 7cbb b66d c23c c857 afbc
00000250: bfbc 7cbc 0378 ddba a98c 9f3c 751b bb3b
00000260: 5b63 603c 90e0 fdba 1ef0 b3bc 1838 ccbb
00000270: d2ce b1bc ba1d cfbb 5210 403c 9b6a 753c
00000280: c481 dc3c b597 433b f9e8 5abb ddde 32bc
00000290: a6df ba3b 19d3 6abc 0db4 973c a2a9 543c
000002a0: 4a8c 84bc cfca ffbb 5cb7 b9bc 5977 7ebc
000002b0: 8ca9 82bb 0703 0ebd b10f b33c 091e f03b
000002c0: 12f7 a1bc 73a4 ca3b 35b9 ab3c 89a3 ebbc
000002d0: fe11 15bc 7065 703a 28ab 84bc 0bb2 493c
000002e0: f237 8fba 7288 9f3c aa5f b53b 6e79 dabc
000002f0: 0b64 753c 78c5 253c fc13 933c 1331 043c
00000300: fe05 3c3c a1ce 7ebc e83f 3d3c cd98 6fbb
00000310: bda8 32bc 514a 9a3c 474b e2bb 0727 823c
00000320: 3ffc eebc 7132 af3c d0df 2d3c a064 27bc
00000330: 183b d0ba b5ae 38bc 8d43 c83c ba39 a03c
00000340: a033 f73c 33d0 faba 6f9b 85bb c3e9 b43c
00000350: e25b 46bc 9ae3 c23c d3a1 6d3b 878a 8e3c
00000360: 9802 f43b e402 8cbb ea21 8abc 5074 a2bc
00000370: 2c73 fc3a 7def 173b fa92 d73c 0e41 cf3b
00000380: 63f8 013d 246e adbc 0345 633b de5f 9fbc
00000390: 3811 3b3c ad24 3fbc feae e33a 7f0f 673c
000003a0: dcf9 ef3b 51ab 3e3c 3dc0 dc3c 8a9a dd3a
000003b0: da8d bbbc 66a2 073c 792b 973c 5431 9d3c
000003c0: aeac 8abc 0843 28bc 15d1 aebb 9afd a73c
000003d0: de88 96bb 59a6 873c dc43 aabc ee04 023c
000003e0: 0763 7c3c 3be1 0bbc 49d6 e8bc 857f 913c
000003f0: 10a6 243d dc01 06bd fec3 de3b 184d 4ebc

network_body._body_endoder.seq_layers.0.bias f4 [256]
0.002023001 0.0023111906 0.0019645104 0.0028198517 0.006509149 0.0086821485 0.010593507 -0.0039114202
-0.008145407 0.004633635 1.656299e-06 0.0005094392 0.009028717 -0.0018184725 0.0044053155 0.00079867145
0.003928796 0.002806665 -0.0003055716 -0.0028640376 0.004912724 0.00039705585 0.0016032861 0.001809421
0.0040460797 -0.008766754 -0.0012299564 -0.008385485 -0.0017371078 0.010343892 0.0015159603 0.009520856
0.0043008234 0.0009692372 -0.0003208709 0.0063153207 0.0008713425 0.0072658793 0.002272331 0.0070682676
-0.0027812293 -0.0031624536 0.006777417 0.003630762 -0.011457966 0.0024891528 -0.0040315157 -0.008120376
0.010979782 0.0005580813 0.00038621033 0.0006286995 0.0021542707 0.0050870418 0.003959875 -0.0029892651
-0.008861173 0.0017863627 0.008273194 0.004378949 0.0071263714 -0.010079139 0.0024119092 0.002885257
0.0051280633 0.003059454 0.0035227984 0.00271003 -0.006076147 0.0017077882 0.0008789327 0.013042999
0.0027461257 0.004871833 0.003370919 -0.001747672 0.00043706465 -0.0052406373 0.0014159376 -0.007522679
0.0004515293 0.0081305085 0.0041897525 0.0020270396 0.0017714283 0.0087740645 0.006368348 -0.0044065784
0.0071167476 0.005912191 0.0030076022 -0.0059857727 0.0039135194 0.008018878 0.0028989692 0.00509815
0.007611715 0.0110947965 0.0028761886 -0.0014621867 -0.0031183239 -0.0045852386 0.012695189 0.0134473145
-0.002755863 0.0071913437 0.0036163821 0.00107069 0.009728347 0.0035275698 0.0021253708 0.0011609256
0.005526652 -0.009046243 -0.0022007045 0.012419772 -0.0063450113 0.0025124478 0.0023658979 0.0050342223
-0.0016218857 0.0063124974 0.0009664552 0.0021144922 -0.0019535075 0.004065968 0.005200977 0.0034727105
0.00046165852 0.006439653 -0.008193909 0.012239301 -0.0010917902 0.002437576 0.004602621 0.0068203667
-0.0026323863 0.0064133564 0.001985704 0.0086518265 0.008712663 0.0058799232 -0.0029008607 -0.0019442337
0.00362549 -0.010737035 0.00028206047 0.008114803 0.0020769015 0.007326951 -0.00032944523 0.0038789588
-0.0010468052 -0.002734042 0.008392845 0.012329573 -0.0019817343 0.009706294 -0.0023507953 -0.0047615464
0.0025886202 0.0022832134 -0.0017171109 0.0058015655 0.006680069 -0.000679216 0.0013258368 0.0029928954
-0.008563626 0.001963951 0.0054448815 0.00067266845 0.0026554312 0.004953141 0.012880741 0.0004902846
-2.8932282e-06 0.0010832498 0.004410443 0.004886932 0.0030978178 0.0083024595 0.0032293787 0.0026910834
0.0062622223 0.01051432 0.008035135 -0.0005537276 0.00031606166 0.00834247 0.006784857 -0.004935787
0.007031803 0.005802562 0.016144292 0.003790411 0.008785908 0.0044960584 0.010845123 0.010058976
-0.0058427146 0.0023168433 0.002082546 -0.00069280335 -0.0028899445 0.010996937 0.0014878792 -0.0012282974
0.011305502 0.011120385 0.0035367676 0.002064697 0.0024987273 0.015915608 -0.0049308003 -0.0025004281
0.0049910564 -0.0014941861 0.0012574234 0.008256471 0.0027425063 -0.00064220175 -0.003559049 0.0014954724
0.006198555 0.009785256 0.004718725 0.0041622766 -0.0007331244 0.007891445 -0.0014736002 -0.002469197
-0.0072919154 0.0083319945 -0.00445606 0.0062640174 0.004522384 -0.0014491549 0.006609468 -6.215888e-05
0.0020598085 0.0071800384 0.0070702652 0.0037177908 0.005299569 0.007989747 -0.0032640444 -0.0052601662
0.0052999826 0.010832123 -0.002136182 0.004316607 0.0035556804 0.0065297047 -0.0023146127 0.015869714
00000000: 5394 043b 5877 173b 04bf 003b 43cd 383b
00000010: b34a d53b 923f 0e3c 6490 2d3c 5f2b 80bb
00000020: 5074 05bc bfd5 973b 004e de35 e38b 053a
00000030: 2fed 133c d059 eeba 775a 903b ef5d 513a
00000040: 21bd 803b 06f0 373b 2035 a0b9 94b2 3bbb
00000050: eafa a03b ef2b d039 5b25 d23a 182a ed3a
00000060: fa94 843b 6ea2 0fbc 7d36 a1ba 4663 09bc
00000070: aaaf e3ba 6d79 293c 30b3 c63a 5dfd 1b3c
00000080: eced 8c3b 6814 7e3a 903a a8b9 c0f0 ce3b
00000090: ce6a 643a 9d16 ee3b 63eb 143b ed9c e73b
000000a0: 4945 36bb 2b41 4fbb 1815 de3b 14f2 6d3b
000000b0: 31ba 3bbc 0e21 233b ce1a 84bb 530b 05bc
000000c0: 8be4 333c 344c 123a 467c ca39 4fcf 243a
000000d0: aa2e 0d3b 33b1 a63b d7c1 813b 8ce7 43bb
000000e0: 742e 11bc 6324 ea3a 4a8c 073c 497d 8f3b
000000f0: 5684 e93b f922 25bc 1f11 1e3b 9416 3d3b
00000100: 5009 a83b 1f81 483b c0de 663b c29a 313b
00000110: 6a1a c7bb ddd7 df3a 2d68 663a 4eb2 553c
00000120: 58f8 333b e6a3 9f3b a3ea 5c3b 2412 e5ba
00000130: d325 e539 a7b9 abbb fb96 b93a ce80 f6bb
00000140: 3dbb ec39 d335 053c 314a 893b 15d8 043b
00000150: 452f e83a 18c1 0f3c 93ad d03b 0f65 90bb
00000160: 9b33 e93b 0dbb c13b 311b 453b 4d24 c4bb
00000170: fb3c 803b 9d61 033c a2fc 3d3b 620e a73b
00000180: b16b f93b f3c6 353c 707e 3c3b d8a6 bfba
00000190: cb5c 4cbb c53f 96bb 7bff 4f3c 2052 5c3c
000001a0: b59b 34bb 5da5 eb3b d300 6d3b 6556 8c3a
000001b0: a563 1f3c cd2e 673b ce49 0b3b 332a 983a
000001c0: eb18 b53b b136 14bc b239 10bb 4d7c 4b3c
000001d0: d0e9 cfbb e1a7 243b 2e0d 1b3b 1ef6 a43b
000001e0: 7495 d4ba 11d9 ce3b b659 7d3a 4b93 0a3b
000001f0: 6b06 00bb d03b 853b f56c aa3b 6a96 633b
00000200: c20a f239 ba03 d33b bf3f 06bc 5987 483c
00000210: 661a 8fba bdbf 1f3b 95d1 963b 627d df3b
00000220: 1d84 2cbb 2227 d23b 9622 023b 64c0 0d3c
00000230: 8fbf 0e3c 5fac c03b 5e1c 3ebb a8d5 feba
00000240: a199 6d3b 64ea 2fbc 84e1 9339 f3f3 043c
00000250: a01c 083b eb16 f03b 64b9 acb9 2136 7e3b
00000260: f434 89ba 9d2d 33bb 2582 093c fa01 4a3c
00000270: fcdf 01bb 2607 1f3c cd0f 1abb bf06 9cbb
00000280: d7a5 293b f7a1 153b ae10 e1ba 0f1b be3b
00000290: 7be4 da3b 6a0d 32ba b3c7 ad3a 7424 443b
000002a0: 734e 0cbc a1b5 003b fa6a b23b 0456 303a
000002b0: be06 2e3b f54d a23b be09 533c 7186 003a
000002c0: 4829 42b6 d5fb 8d3a 7a85 903b 8f22 a03b
000002d0: c204 4b3b 0a07 083c fca3 533b e35c 303b
000002e0: 5433 cd3b 4144 2c3c cda5 033c 0828 11ba
000002f0: 14b5 a539 dbae 083c 8153 de3b 62bc a1bb
00000300: 0a6b e63b 6b23 be3b 0941 843c 8b68 783b
00000310: c5f2 0f3c ac53 933b beaf 313c 67ce 243c
00000320: 3e74 bfbb 2ed6 173b 537b 083b 3f9d 35ba
00000330: 3965 3dbb 7f2c 343c f104 c33a d2fe a0ba
00000340: b63a 393c 4632 363c 1dc9 673b de4f 073b
00000350: b0c1 233b 7361 823c 8d92 a1bb 39de 23bb
00000360: 048c a33b 91d8 c3ba 21d0 a43a 2646 073c
00000370: 9fbb 333b 6e59 28ba ef3e 69bb ba03 c43a
00000380: 401d cb3b 5752 203c 899f 9a3b b563 883b
00000390: 252f 40ba 1f4b 013c d125 c1ba 40d2 21bb
000003a0: 05f1 eebb eb82 083c 2404 92bb 6342 cd3b
000003b0: 8230 943b 92f1 bdba 3c94 d83b 4b5b 82b8
000003c0: dafd 063b 8746 eb3b afad e73b 2ea6 733b
000003d0: 02a8 ad3b 6ee7 023c 94e9 55bb 795d acbb
000003e0: 7aab ad3b 3879 313c 30ff 0bbb 5372 8d3b
000003f0: 6b06 693b 22f7 d53b c2b0 17bb 3401 823c

network_body._body_endoder.seq_layers.0.weight f4 [256, 74]
0.05413832 -0.16910736 -0.05832797 -0.08823151 0.017834378 -0.10202454 0.040773172 0.10665322
-0.23355274 -0.19351625 -0.14841163 -0.19555087 0.12104346 -0.035736326 -0.11234326 0.0413711
0.20224544 0.048642527 0.025514033 0.07182662 -0.12304999 0.1484161 0.15500255 0.023266705
0.048911083 0.010535092 0.2907588 -0.21020187 -0.1758767 0.13674568 0.024463285 -0.37816662
0.056809463 0.16065314 -0.16846244 0.0055967607 0.06978779 0.032438405 0.013134685 0.091294184
0.19353949 0.06417428 0.03164687 0.07766795 0.11738349 -0.08051239 0.028070584 -0.12473492
0.090311624 -0.14601631 0.007995884 -0.17636397 0.04250904 0.07275924 -0.025416175 0.028656408
0.02700613 0.19854058 0.1975912 -0.15037633 -0.12034846 -0.06228547 -0.1462817 0.03455741
0.04508372 0.054908328 -0.20042123 -0.1421266 0.028762564 0.12104352 0.15165305 -0.15424788
-0.059626166 0.073255174 -0.14798456 0.08474709 -0.09748572 -0.13210748 0.1445992 0.18619168
0.06202402 -0.1780266 -0.1822361 0.081791766 0.08190992 0.064141504 0.17573954 -0.09664152
-0.0007263772 -0.15232255 -0.028852966 0.23760204 -0.0751125 -0.0058973483 -0.13533571 -0.078249484
-0.043207526 0.11995619 -0.049643505 0.14431205 0.022370433 0.001630583 -0.27091363 0.09440327
-0.14633717 0.036103584 0.05172329 0.12157618 0.25397512 -0.08311871 0.060689047 -0.027211195
-0.16859992 -0.0034162598 0.037363242 0.11961939 -0.12364749 -0.04600258 -0.011171862 0.082928404
-0.08995319 0.09631691 -0.11878182 -0.063089065 0.012098545 0.21552293 0.12007218 0.045378
-0.04005009 -0.15134089 0.25615323 -0.20863898 -0.10653691 -0.17565675 -0.20188275 -0.0809089
0.3114353 -0.13101493 -0.124364056 -0.10924427 -0.019224461 -0.043578528 0.11944483 -0.049491234
-0.11521329 -0.114677124 -0.0885277 -0.035824098 -0.17920475 0.10170087 0.037043836 0.10422606
0.18788616 -0.029664138 -0.024412628 0.047563598 -0.07369416 0.026363004 -0.037370056 0.07184547
-0.15893981 -0.08171568 0.06666469 -0.01717497 -0.07717818 -0.07719859 0.0027784219 0.0019173897
-0.053192858 -0.016902227 0.09152962 -0.06508596 0.06350295 -0.058205947 -0.05089112 0.090664215
0.1066216 0.1746923 -0.107788436 0.22955714 0.17801854 -0.103700496 0.120158404 0.032123145
0.043449555 0.018681714 0.074788034 0.0011759031 -0.11721156 -0.01158649 -0.1086945 0.34436795
0.17688471 -0.024122462 -0.03119706 0.13273577 -0.01627424 -0.13178103 0.0022594484 -0.03956131
-0.13149458 0.14736536 0.07845547 0.16910711 -0.088436745 -0.19575126 0.1341232 0.006845026
-0.04693049 -0.14706326 0.016749958 -0.05236306 0.12816632 -0.1154787 0.06975538 -0.02057476
-0.0011354268 0.15471998 -0.048407365 0.038502734 0.047378853 0.11115874 -0.20187731 0.010494818
0.0005444633 -0.04758609 0.0656718 -0.061077066 -0.047950942 0.13685815 -0.062411584 0.1420805
-0.031242067 0.03537234 0.104074135 0.018338867 0.054637488 0.08083958 0.05275253 -0.009527017
0.14576887 -0.10874911 0.102272205 0.00224479 0.04848338 0.039993785 -0.17433602 0.019591682
-0.065887265 -0.022256091 0.012323452 -0.054803398 -0.061131496 0.10162423 -0.23088357 -0.13032144
00000000: 25c0 5d3d 7b2a 2dbe 4fe9 6ebd b9b2 b4bd
00000010: 6719 923c 3ef2 d0bd c501 273d 016d da3d
00000020: 7328 6fbe 2029 46be 38f9 17be 7d3e 48be
00000030: a2e5 f73d 4160 12bd 3914 e6bd be74 293d
00000040: 6e19 4f3e 633d 473d ce02 d13c d619 933d
00000050: a201 fcbd 64fa 173e fdb8 1e3e d199 be3c
00000060: fd56 483d 619b 2c3c 56de 943e 293f 57be
00000070: 0619 34be 0f07 0c3e 3a67 c83c 0e9f c1be
00000080: 0ab1 683d 4282 243e 6b81 2cbe 0865 b73b
00000090: e7ec 8e3d 22de 043d dd32 573c 72f8 ba3d
000000a0: 372f 463e ce6d 833d 26a0 013d 6010 9f3d
000000b0: c166 f03d aee3 a4bd 48f4 e53c 0675 ffbd
000000c0: 4df5 b83d 4d85 15be 2b01 033c c298 34be
000000d0: f61d 2e3d cc02 953d 9535 d0bc d8c0 ea3c
000000e0: f63b dd3c 394e 4b3e 5955 4a3e 41fc 19be
000000f0: 4179 f6bd 0d1f 7fbd dfca 15be 128c 0d3d
00000100: b5a9 383d 8ee7 603d 393b 4dbe a389 11be
00000110: 789f eb3c aae5 f73d f04a 1b3e 28f3 1dbe
00000120: 913a 74bd cf06 963d 4489 17be e28f ad3d
00000130: 98a6 c7bd 2f47 07be d011 143e 08a9 3e3e
00000140: e60c 7e3d 9b4c 36be 1a9c 3abe 7182 a73d
00000150: 63c0 a73d 9f5c 833d 11f5 333e fdeb c5bd
00000160: 596a 3eba 71fa 1bbe 0e5d ecbc f34d 733e
00000170: 95d4 99bd 8b3e c1bb 7295 0abe 4441 a0bd
00000180: 60fa 30bd 97ab f53d fd56 4bbd 8ac6 133e
00000190: 3342 b73c 49b9 d53a 31b5 8abe 8056 c13d
000001a0: 69d9 15be 5ae1 133d cddb 533d effc f83d
000001b0: 0709 823e 243a aabd 1495 783d 03ea debc
000001c0: 75a5 2cbe 54e3 5fbb 330a 193d 03fb f43d
000001d0: e53a fdbd 346d 3cbd 2f0a 37bc 5ed6 a93d
000001e0: 6139 b8bd cd41 c53d e243 f3bd d734 81bd
000001f0: fa38 463c 0bb2 5c3e 67e8 f53d 48de 393d
00000200: 900b 24bd 1bf9 1abe 8426 833e 75a5 55be
00000210: 0630 dabd 5ddf 33be 5aba 4ebe 91b3 a5bd
00000220: 7374 9f3e c728 06be 95b2 febd 76bb dfbd
00000230: 9e7c 9dbc 667f 32bd 7e9f f43d 52b7 4abd
00000240: f2f4 ebbd d7db eabd 034e b5bd 4abc 12bd
00000250: 7381 37be 8c48 d03d 47bb 173d 7974 d53d
00000260: 3b65 403e 3502 f3bc fefc c7bc 0cd2 423d
00000270: f7ec 96bd 3af7 d73c 5811 19bd b823 933d
00000280: 1ec1 22be 8d5a a7bd 7f87 883d 86b2 8cbc
00000290: 980f 9ebd 4b1a 9ebd 2f16 363b ec50 fb3a
000002a0: c1e0 59bd 8a76 8abc e273 bb3d ca4b 85bd
000002b0: d60d 823d 5c69 6ebd 3573 50bd 29ae b93d
000002c0: 6d5c da3d 8ae2 323e 2fc0 dcbd 0711 6b3e
000002d0: 7e4a 363e ed60 d4bd 9c15 f63d 8f93 033d
000002e0: 29f8 313d 650a 993c 782a 993d c320 9a3a
000002f0: 9d0c f0bd 43d5 3dbc 399b debd ff50 b03e
00000300: 4421 353e 789c c5bc fa90 ffbc e3eb 073e
00000310: 8e51 85bc 9bf1 06be 4113 143b 0a0b 22bd
00000320: 84a6 06be f2e6 163e 43ad a03d 6a2a 2d3e
00000330: 531e b5bd 0573 48be 9857 093e 3d4c e03b
00000340: 2f3a 40bd c097 16be 3537 893c a67a 56bd
00000350: 083e 033e 1980 ecbd e9db 8e3d 668c a8bc
00000360: 9ad2 94ba ea6e 1e3e cd46 46bd 0bb5 1d3d
00000370: 5410 423d 32a7 e33d edb8 4ebe 75f2 2b3c
00000380: 50ba 0e3a a2e9 42bd f07e 863d f22b 7abd
00000390: 3568 44bd 8b24 0c3e 4aa3 7fbd 8d7d 113e
000003a0: 5def ffbc 96e2 103d d224 d53d 643b 963c
000003b0: 8fcb 5f3d 398f a53d 0913 583d 3517 1cbc
000003c0: 6f44 153e dab7 debd 1774 d13d 541d 133b
000003d0: 8296 463d 86d0 233d 2485 32be bc7e a03c
000003e0: e7ef 86bd 6852 b6bc 4ee8 493c 8779 60bd
000003f0: 0565 7abd 5d20 d03d be6c 6cbe fc72 05be

network_body._body_endoder.seq_layers.2.bias f4 [256]
-0.011513189 0.004542912 -0.007137339 -0.0024364635 -0.0024869717 -0.0036557394 0.0043963464 -0.0014653057
0.008045665 0.010148837 0.0011808606 0.004677643 0.0048165736 -0.0038622587 -0.0012918158 0.0018955135
-0.0007475424 0.0059004924 -0.006645905 -0.0005377698 -0.0012148905 -0.0032244723 0.0035949997 -0.0025496508
0.002329409 -0.00078559766 0.002694711 -0.0054318053 0.0028338863 0.00638651 0.009233801 0.0011916967
0.0013446156 0.010382789 0.005633296 0.0027524685 0.0045826915 0.009969115 -0.00014996328 -0.0038533923
0.0026988226 -0.0072144866 -0.0053925617 -0.0018684044 0.004262519 -0.0047589806 -0.0031060555 0.00033324293
0.0075444453 -0.0033121337 0.0061678346 0.0003592172 -0.0038577633 0.006353092 0.0037720047 0.0038647687
-0.0016597931 -0.004330086 0.010232104 -0.0041179135 0.003317404 0.0081887925 -0.006617124 0.005257164
0.0054856786 -0.00015847225 -0.0017320508 -0.0023313696 0.0049395426 -0.00072627724 0.005173885 -0.0036236253
0.0026663921 0.0061053694 -0.002485871 0.0076868166 -0.0055162283 -0.008962329 0.0061275787 -0.0019828219
-0.0007215006 -0.007071897 0.0041154237 0.0026087863 0.0065106805 0.009778498 0.0035110584 -0.0014520066
-0.0051379967 0.010114122 0.00768831 -0.0014854408 -0.00060074613 0.0022759035 -0.0034578154 -0.0016268633
0.0021766787 0.009344625 0.007966019 0.002542828 0.0023685198 0.0051983837 0.010846992 -0.002144007
0.005214042 -0.00081057445 0.004603657 0.006038261 0.0021305352 -0.0012811179 0.0069539654 0.0022712452
0.0044836444 0.007942564 0.0057049533 0.0036417237 0.013984772 -0.005388112 -0.007380082 0.0051116403
0.0050409543 0.00070476497 0.0068619438 0.0061621647 0.0043926327 -0.0039091776 -0.004343022 -0.0016051538
-0.0056470307 -0.011162993 0.005819014 0.004055266 0.007420665 0.0042989235 0.007392338 -0.0028613887
0.0005694857 0.0039060141 0.005798232 -0.006215754 -0.0051458133 0.004185405 -0.0007996579 0.0013313533
-0.0067655453 0.008684711 0.003782758 -0.0015266336 0.0030347637 0.0073024845 -0.008537872 -0.0035429595
0.0050751218 0.001744392 0.0072426246 -0.00042163546 -0.0073367353 0.0008452034 0.0017262097 0.004129599
-0.00064534426 0.0008491184 -0.0005343613 -0.005788016 -0.007933864 0.0078108944 0.007250035 0.008167642
0.009331623 0.004259708 0.00037734106 0.005095745 0.0064370334 0.0070602526 0.0038997543 -0.003074536
-0.0023497469 0.0031600008 -0.0007554961 -0.008059554 0.0051632705 0.0060615246 0.0020131085 -0.006867999
-0.0039687585 0.0018561108 -0.0010856078 0.0051898696 -0.0067380164 -0.001616936 -0.00020183889 0.007537444
-0.0036403046 0.01006641 -0.0012371379 0.0022282458 -0.0024750333 -0.006076083 0.0038775853 -0.003452456
-0.003985963 0.008439007 -0.0009582693 0.0012191156 -0.00061743153 0.008055834 0.007460674 0.0045964657
0.009832357 0.00489099 0.008421367 0.0022300768 -0.002840534 0.0013641883 -0.0071415426 0.0036660717
-0.002716485 -0.004105259 0.0017360492 0.0065052942 0.008205566 0.0074638375 0.005033265 0.0058353906
0.0054978766 0.00079253357 0.0067332713 0.006638221 0.007604394 -0.007535162 -0.0040129097 0.0040342296
0.007186732 0.0058944947 0.0015824473 0.00509588 9.07138e-05 0.0040600616 0.0059184846 -0.0068597985
0.0072414796 0.0007443722 0.00062154053 -0.0074771442 0.0038281835 0.0033401141 0.003579619 0.00022319825
-0.0027266818 -0.003925541 -0.0011462342 0.005617913 0.0053221374 -0.0040552937 -0.0039783404 0.0061235926
00000000: d1a1 3cbc b5dc 943b 57e0 e9bb 13ad 1fbb
00000010: 76fc 22bb 2195 6fbb 3a0f 903b 800f c0ba
00000020: f7d1 033c 4f47 263c 1bc7 9a3a ea46 993b
00000030: 59d4 9d3b f31d 7dbb 2552 a9ba e172 f83a
00000040: b9f6 43ba eb58 c13b e4c5 d9bb 1ff9 0cba
00000050: f63c 9fba ab51 53bb 169a 6b3b 0b18 27bb
00000060: ffa8 183b 91f0 4dba c099 303b 49fd b1bb
00000070: b9b8 393b ee45 d13b 5e49 173c b532 9c3a
00000080: d03d b03a 931c 2a3c 8397 b83b c262 343b
00000090: 672a 963b 8055 233c 763f 1db9 3289 7cbb
000000a0: bbde 303b 8067 ecbb 16b4 b0bb 40e5 f4ba
000000b0: 9aac 8b3b 39f1 9bbb f78e 4bbb 1cb7 ae39
000000c0: 6537 f73b 6210 59bb 8c1b ca3b 5155 bc39
000000d0: 87d2 7cbb 992d d03b bd33 773b 0f48 7d3b
000000e0: 6a8d d9ba 65e3 8dbb 8ea4 273c 90ef 86bb
000000f0: ce68 593b 492a 063c 76d4 d8bb 4a44 ac3b
00000100: 35c1 b33b 922b 26b9 fb05 e3ba e4c9 18bb
00000110: e3db a13b a463 3eba b189 a93b 587a 6dbb
00000120: a3be 2e3b 8d0f c83b ffe9 22bb b1e1 fb3b
00000130: 7ac1 b4bb bbd6 12bc dbc9 c83b 3bf2 01bb
00000140: 1623 3dba 5fbb e7bb adda 863b 2cf8 2a3b
00000150: 8c57 d53b fe35 203c c919 663b 4251 beba
00000160: a45c a8bb b4b5 253c 38ee fb3b 1fb3 c2ba
00000170: 647b 1dba 5327 153b 849c 62bb 793c d5ba
00000180: 9ca6 0e3b 331a 193c e883 023c 93a5 263b
00000190: 2b39 1b3b 3457 aa3b 95b7 313c 7882 0cbb
000001a0: 8eda aa3b bb7c 54ba 46da 963b 9bdc c53b
000001b0: 73a0 0b3b 2feb a7ba 17de e33b 2cd9 143b
000001c0: 89eb 923b 8721 023c 9ef0 ba3b fca9 6e3b
000001d0: 6320 653c c28e b0bb 9dd4 f1bb 8c7f a73b
000001e0: 972e a53b fabf 383a 28da e03b fceb c93b
000001f0: 13f0 8f3b 8f18 80bb e94f 8ebb 0664 d2ba
00000200: ba0a b9bb fce4 36bc 6dad be3b 09e2 843b
00000210: 0d29 f33b fcdd 8c3b 6d3b f23b 2386 3bbb
00000220: 8a49 153a 0bfc 7f3b 18ff bd3b 86ad cbbb
00000230: 369e a8bb b925 893b 22a0 51ba ce80 ae3a
00000240: 82b1 ddbb 514a 0e3c 26e8 773b 5319 c8ba
00000250: e3e2 463b ae49 ef3b 6ee2 0bbc ff30 68bb
00000260: 354d a63b 15a4 e43a 8a53 ed3b f40e ddb9
00000270: ff68 f0bb a490 5d3a fc41 e23a 9651 873b
00000280: 522c 29ba 5f97 5e3a 6114 0cba 66a9 bdbb
00000290: 0afd 01bc 88f2 ff3b b491 ed3b 93d1 053c
000002a0: aae3 183c 0595 8b3b dcd5 c539 35fa a63b
000002b0: c0ed d23b b159 e73b 0593 7f3b 287e 49bb
000002c0: 36fe 19bb 0418 4f3b 7c0c 46ba 380c 04bc
000002d0: a730 a93b c19f c63b 5bee 033b f40c e1bb
000002e0: 5c0c 82bb be48 f33a f44a 8eba c80f aa3b
000002f0: 94ca dcbb 5eef d3ba b7a4 53b9 aafc f63b
00000300: 2d92 6ebb 95ed 243c 7627 a2ba c307 123b
00000310: 2b34 22bb e119 c7bb 161f 7e3b 9a42 62bb
00000320: ae9c 82bb c343 0a3c 5d34 7bba bbca 9f3a
00000330: 21db 21ba 9efc 033c ab78 f43b f39d 963b
00000340: e517 213c 9944 a03b c6f9 093c 7b26 123b
00000350: 4128 3abb 90ce b23a 9a03 eabb 7a42 703b
00000360: 0e07 32bb 6985 86bb 258c e33a 5d2a d53b
00000370: a370 063c 3593 f43b 16ee a43b ce36 bf3b
00000380: 8827 b43b 07c2 4f3a c6a2 dc3b 6f85 d93b
00000390: 482e f93b 85e9 f6bb ba7e 83bb 9231 843b
000003a0: ad7e eb3b 9b26 c13b 1f6a cf3a 57fb a63b
000003b0: 9a3d be38 440a 853b d9ef c13b 29c8 e0bb
000003c0: ef49 ed3b f921 433a e1ee 223a d502 f5bb
000003d0: 43e2 7a3b d1e5 5a3b 0b98 6a3b 530a 6a39
000003e0: 21b2 32bb d3a1 80bb 3d3d 96ba 7816 b83b
000003f0: 5365 ae3b 45e2 84bb bd5c 82bb 6ba8 c83b

network_body._body_endoder.seq_layers.2.weight f4 [256, 256]
0.076333776 -0.07653862 -0.018128565 -0.04385438 0.0105316965 0.08210288 -0.014206424 -0.0352707
-0.05508602 0.031626467 -0.029164223 0.10119497 0.04279951 -0.014753445 -0.007742009 0.061577268
-0.0077618244 -0.048564516 0.12722708 0.012070559 0.0048747025 -0.143755 0.09546887 -0.027975213
0.0036481933 0.070784934 -0.04814479 -0.012353101 0.037395272 0.028772742 0.006784929 -0.04533376
-0.034029502 -0.028611638 0.031442747 -0.022264248 -0.07767698 0.040549383 0.06740872 -0.0034641908
0.013043247 -0.029512458 -0.004193119 0.015575895 -0.07681173 0.09155631 -0.06721173 -0.059893083
0.1312149 -0.088023216 -0.046130583 -0.007761119 -0.020817023 -0.021285748 -0.09880861 -0.090070434
-0.12570614 0.0031277298 -0.08203216 0.023566855 0.09614739 0.09798258 -0.014176549 0.07299386
-0.037263293 0.06284291 -0.08461803 -0.0026470476 0.021858986 0.087437615 0.026245942 0.008722741
0.05763966 -0.07260584 -0.10276012 0.036350716 -0.08252265 -0.04563634 -0.018944101 -0.0063246144
0.039701957 0.035376113 0.086784735 -0.039960682 0.0327824 0.03374509 0.007192231 -0.010763402
0.020181721 -0.021417791 0.0601546 -0.089430936 0.0026278987 -0.08108941 0.07881883 -0.03443351
0.030489335 -0.05515279 0.056240942 0.011792669 -0.027182553 0.003074088 -0.06990304 0.07804959
0.055487163 -0.08745018 -0.027567696 0.026727656 -0.11149323 -0.01275459 -0.019607347 0.012006464
0.067595415 -0.12044341 0.07676 -0.0036882937 -0.013798077 0.01700882 -0.008818574 -0.0053328574
-0.12062562 -0.05043182 0.058525123 -0.09552776 -0.04173417 0.030760296 -0.05737385 -0.068017684
-0.026756749 0.0071983025 -0.10532432 0.025595233 -0.0031661324 -0.011061392 0.104581125 -0.028975038
-0.105666295 -0.12295444 -0.10554367 -0.15515298 0.054561276 0.0061607347 0.09082188 0.047204465
0.06972092 -0.019476814 0.06834019 0.06394233 -0.018261189 0.02983322 0.041325808 -0.039294697
-0.027141294 -0.106537625 0.036698557 -0.111941114 -0.010375422 0.035760712 0.11856898 -0.1103819
-0.10492545 -0.00010530418 -0.03672383 -0.09794079 -0.027312128 -0.040164925 -0.00412427 -0.009607025
-0.114209734 0.07549901 -0.009046734 0.09901206 -0.05383804 0.0131450165 -0.036539026 -0.028336998
-0.040653534 -0.099293195 -0.015688319 0.09544734 0.08691968 -0.060248792 0.08824364 0.023511834
0.025270905 0.06615582 -0.0062900065 0.009917756 0.016213913 0.013303923 0.0045668236 -0.010604174
-0.057764396 -0.13464485 0.010194287 0.042732365 -0.051004425 -0.048799466 -0.023217032 0.05852735
-0.029962633 0.07110699 0.07100827 0.13629353 -0.028414275 0.021700924 0.09828297 0.005093003
-0.011381437 0.016587814 0.0071022683 0.07173979 -0.038845934 0.032772783 -0.08623845 -0.004842214
0.08624629 -0.042117257 0.05543449 0.06581896 -0.02744134 -0.06710622 -0.013901844 -0.059605114
0.019276144 0.035405483 0.03687478 -0.0628058 -0.044691462 0.00071792735 0.043108087 0.070500985
-0.056045935 -0.039097857 -1.3436591e-05 -0.059855323 0.027500914 -0.11037062 -0.010102691 -0.051244292
-0.08952978 0.0007955426 -0.05509805 0.030942036 -0.008261384 0.028371463 -0.043195415 -0.031685982
-0.059204526 0.014939686 0.15981123 -0.06322207 -0.060229424 -0.011670126 -0.026614828 0.07422611
00000000: e254 9c3d 48c0 9cbd 5b82 94bc a6a0 33bd
00000010: 238d 2c3c 8e25 a83d 10c2 68bc 0278 10bd
00000020: e1a1 61bd c18a 013d cfe9 eebc 4f3f cf3d
00000030: 8a4e 2f3d 6fb8 71bc aeb0 fdbb 7238 7c3d
00000040: e756 febb 96eb 46bd d147 023e 98c3 453c
00000050: f8bb 9f3b 8334 13be 2f85 c33d 462c e5bc
00000060: 8716 6f3b b1f7 903d 7933 45bd a964 4abc
00000070: c92b 193d d0b4 eb3c 1c54 de3b e5af 39bd
00000080: 8562 0bbd f462 eabc 1cca 003d 8363 b6bc
00000090: 1c15 9fbd 1c17 263d 950d 8a3d 7a07 63bb
000000a0: 58b3 553c 1cc4 f1bc 6e66 89bb 0a32 7f3c
000000b0: 784f 9dbd e081 bb3d 4ea6 89bd 7352 75bd
000000c0: 335d 063e 8445 b4bd 6cf3 3cbd fc50 febb
000000d0: 7688 aabc 735f aebc 2b5c cabd d976 b8bd
000000e0: 1cb9 00be 99fa 4c3b 7a00 a8bd 470f c13c
000000f0: ece8 c43d 17ab c83d c244 68bc ce7d 953d
00000100: 65a1 18bd c9b3 803d 384c adbd 177a 2dbb
00000110: 9e11 b33c 7e12 b33d bb01 d73c d4e9 0e3c
00000120: 9017 6c3d 5fb2 94bd e673 d2bd 7de4 143d
00000130: a301 a9bd 2ced 3abd a930 9bbc b63e cfbb
00000140: 859e 223d 8be6 103d 32bc b13d d0ad 23bd
00000150: d646 063d 4b38 0a3d ceac eb3b fb58 30bc
00000160: 2354 a53c 5d74 afbc ab64 763d 9127 b7bd
00000170: d338 2c3b 3412 a6bd c46b a13d 270a 0dbd
00000180: c5c4 f93c e4e7 61bd e75c 663d 0a36 413c
00000190: f2ad debc a376 493b 5329 8fbd 77d8 9f3d
000001a0: 8246 633d 1419 b3bd a6d5 e1bc f5f3 da3c
000001b0: 9056 e4bd a1f8 50bc 969f a0bc c3b6 443c
000001c0: 776f 8a3d 09ab f6bd 5934 9d3d 4db7 71bb
000001d0: 5411 62bc 1556 8b3c c87b 10bc 40bf aebb
000001e0: 910a f7bd 9991 4ebd 0ab8 6f3d 0fa4 c3bd
000001f0: 73f1 2abd 04fd fb3c d800 6bbd db4c 8bbd
00000200: f830 dbbc bddf eb3b 47b4 d7bd 18ad d13c
00000210: e37e 4fbb d73a 35bc a12e d63d 0f5d edbc
00000220: 9267 d8bd 8acf fbbd 4827 d8bd 6ce0 1ebe
00000230: a57b 5f3d fddf c93b d200 ba3d 7859 413d
00000240: d7c9 8e3d d78d 9fbc f1f5 8b3d 32f4 823d
00000250: 7d98 95bc cc64 f43c 4045 293d 7af3 20bd
00000260: 6b57 debc 6630 dabd 3a51 163d 6241 e5bd
00000270: adfd 29bc d379 123d 4bd4 f23d e80f e2bd
00000280: 28e3 d6bd c0d6 dcb8 ba6b 16bd 2e95 c8bd
00000290: afbd dfbc fa83 24bd e224 87bb c966 1dbc
000002a0: cbe6 e9bd 3a9f 9a3d c138 14bc d6c6 ca3d
000002b0: 4785 5cbd 325e 573c f2a9 15bd fe22 e8bc
000002c0: 5284 26bd 3b5a cbbd ca84 80bc e579 c33d
000002d0: f202 b23d 70c7 76bd 15b9 b43d e49b c03c
000002e0: ee04 cf3c b47c 873d 661c cebb 157e 223c
000002f0: 0ad3 843c b3f8 593c 4ba5 953b 21bd 2dbc
00000300: 5c9a 6cbd 57e0 09be f005 273c 2208 2f3d
00000310: 04ea 50bd f3e1 47bd a531 bebc 60ba 6f3d
00000320: 3274 f5bc 8ba0 913d c96c 913d 8890 0b3e
00000330: 0ec5 e8bc 23c6 b13c 9548 c93d 35e3 a63b
00000340: 3579 3abc 2be3 873c 25ba e83b 50ec 923d
00000350: ea1c 1fbd c13c 063d c99d b0bd 6fab 9ebb
00000360: e5a1 b03d 2583 2cbd 470f 633d 17cc 863d
00000370: a9cc e0bc fc6e 89bd 8fc4 63bc 7e24 74bd
00000380: 01e9 9d3c 5705 113d 020a 173d 54a0 80bd
00000390: 650e 37bd 4a33 3c3a 1b92 303d d262 903d
000003a0: 6c90 65bd 1325 20bd b86d 61b7 db2a 75bd
000003b0: 9949 e13c fe09 e2bd c285 25bc 89e5 51bd
000003c0: 645b b7bd f68b 503a 7eae 61bd 277a fd3c
000003d0: c25a 07bc 456b e83c aded 30bd 29c9 01bd
000003e0: 7280 72bd 96c5 743c 8ea5 233e 937a 81bd
000003f0: 21b3 76bd 0e34 3fbc 5707 dabc dc03 983d

network_body._body_endoder.seq_layers.4.bias f4 [256]
0.003587911 0.0060586566 0.0071204505 0.004058995 -0.00040072747 0.006281464 -0.0019098388 -0.0007951947
-0.0014371325 0.0046116374 0.0005307587 0.0024771595 0.0058210827 0.006062036 0.00017777298 0.0051330333
0.0012236714 0.0021603715 0.006435181 -0.0052941386 -0.003826721 0.0028907526 0.005647435 0.010485962
0.0025833815 0.00481209 -0.0044624023 0.0033036724 -4.8063025e-06 -0.0012530914 0.0029632216 0.0055859387
-0.0045693717 0.006176663 0.00479404 0.004603509 -0.0012131915 0.0044206833 0.001587185 -0.0010091527
-0.0050848997 0.004879555 -0.0020233754 -0.0032156974 0.00944578 -0.005186226 -0.004822276 -0.0033187089
-0.0048609693 0.0043733437 0.006042506 0.0062079667 0.003947364 -0.0052084825 -0.0044822036 -0.005668275
-0.0017688825 0.00512379 -0.001810049 -0.0048551904 0.00652396 0.003608795 0.0028869838 0.007504168
0.0040062265 -0.0037221971 -0.0009166607 -0.0009739429 -0.0041024964 -0.0015649179 0.0075582466 0.0055938987
0.005620759 -0.0034553742 -0.0027753918 -0.004295262 -0.0048395824 0.004781265 -0.0024712526 0.0034155354
-0.001230966 0.0032140973 -0.005043983 0.0028478773 0.004549492 -0.0005388638 -0.003695855 -0.0047334163
0.0044824756 5.566435e-06 0.0053916597 0.0039711976 0.002150975 -0.00032663046 -0.00418635 -0.003767937
-0.0018194246 0.0057293037 0.006231578 -0.0056078504 0.0051506525 -0.0030838167 -0.004818528 -0.0011591975
-0.0006457376 0.0056296675 -0.0014423787 0.0022314836 0.0038021698 0.003288812 -0.0051198006 -0.005294621
0.005861357 -0.003143119 -0.0032529898 -0.005192524 -0.00011958473 -0.0046932977 0.0053596003 -0.005425699
0.0013415363 0.0037278247 -0.002191704 0.0055536344 -0.0013909023 -0.0046630604 0.00919357 0.0057729934
-0.0008407761 0.0006469171 -0.0004470977 -0.004183622 -0.0029389737 0.0048086504 -0.0024639168 0.0009522209
-0.0029080932 -0.0027304108 -0.0015238329 -0.0027407464 0.0052181194 0.0054794876 0.005323916 0.004358842
0.0038288648 -0.0033974429 0.00086506305 0.003438434 0.0058668177 -0.005328367 0.0023329044 -0.0068293177
-0.004544289 -0.004681008 0.0064475434 0.0053817844 -0.0017332025 0.0047393986 -0.0037994406 -0.00054995157
0.0019216037 0.0066598714 -0.003655397 0.004966288 -0.0041990927 0.0057246266 -0.0036926633 0.005683059
0.0012019626 -0.0035964758 0.0024318348 0.0049386085 0.0041911257 0.005393584 0.0030351244 -0.004633156
0.006299867 0.00069194613 0.002217913 0.0073475055 0.0038422544 0.005989932 0.003697622 0.0020482014
-0.0039196815 0.0038810745 -0.003397137 0.0033000375 -0.00048666564 0.001460816 0.005207617 -0.0016890726
-0.0043495777 0.005717386 0.0033251753 0.0054638265 0.0051325765 -0.0011162161 2.4887699e-05 0.0012814464
0.0057564857 -0.0028306483 0.005177549 -0.0013394684 -0.0043308823 0.005638457 0.0058792685 0.0015403681
-0.002921845 -0.0032278695 -0.0058730906 -0.0011549855 0.0067579495 -0.0027012168 -0.0057130875 0.007438378
-0.004840694 -0.005420981 -0.00019423044 0.0057872226 0.0055102995 0.0046216757 0.0029366747 0.0069153905
0.0049864384 0.0012990513 -0.005689179 -0.0028650835 0.007280725 -0.0024424377 -0.0055991844 0.0045618163
0.0057815993 -0.004438282 0.006908804 -0.0046074283 -0.0010178487 0.0012009328 0.0032294558 0.0065810974
-0.00036559402 -0.0019102631 -0.003383471 0.00032289117 0.0041340236 -0.0045084814 -0.002361097 -0.0069052703
0.003486171 0.006474219 0.0010973855 -0.0018619237 -0.0008312038 0.007984984 0.00589653 -0.0042594033
00000000: 2823 6b3b b287 c63b ab52 e93b 5101 853b
00000010: bb18 d2b9 bdd4 cd3b 8e53 faba 9d74 50ba
00000020: 2a5e bcba 381d 973b 9d22 0b3a d757 223b
00000030: c8be be3b 0ba4 c63b 9268 3a39 0133 a83b
00000040: 9963 a03a 0595 0d3b 36de d23b 747a adbb
00000050: bac9 7abb c872 3d3b 1e0e b93b 50cd 2b3c
00000060: f34d 293b bdae 9d3b 5839 92bb 6d82 583b
00000070: d345 a1b6 c53e a4ba 9c32 423b 400a b73b
00000080: abba 95bb 9b65 ca3b 5317 9d3b 08d9 963b
00000090: f403 9fba 61db 903b 1709 d03a 8c45 84ba
000000a0: 3b9f a6bb ade4 9f3b 9b9a 04bb 73be 52bb
000000b0: 79c2 1a3c 38f1 a9bb 2f04 9ebb b27e 59bb
000000c0: c448 9fbb 444e 8f3b 3700 c63b 336c cb3b
000000d0: e458 813b ebab aabb 73df 92bb f0bc b9bb
000000e0: d9d9 e7ba 77e5 a73b 2b3f edba 4a18 9fbb
000000f0: f1c6 d53b 8981 6c3b 8d33 3d3b 86e5 f53b
00000100: aa46 833b 1bf0 73bb 0f4c 70ba 3450 7fba
00000110: 3c6e 86bb ee1d cdba 2bab f73b 064d b73b
00000120: 582e b83b 8f73 62bb 59e3 35bb 45bf 8cbb
00000130: 5c95 9ebb 28ac 9c3b bdf4 21bb 2dd7 5f3b
00000140: 5d58 a1ba 9ba3 523b ff47 a5bb 74a3 3a3b
00000150: e813 953b 8a42 0dba 2836 72bb c61a 9bbb
00000160: bbe1 923b 50c7 ba36 85ac b03b d220 823b
00000170: 5ff7 0c3b 993f abb9 a62d 89bb 7eef 76bb
00000180: c279 eeba e2bc bb3b 4432 cc3b 0fc2 b7bb
00000190: cec6 a83b dc19 4abb bee4 9dbb 37f0 97ba
000001a0: b746 29ba 1379 b83b 330e bdba 153e 123b
000001b0: d32d 793b 1c89 573b 00c4 a7bb 807e adbb
000001c0: a010 c03b c9fc 4dbb 1d30 55bb 0c26 aabb
000001d0: 90c9 fab8 3cca 99bb 969f af3b 10ca b1bb
000001e0: 7dd6 af3a 854e 743b b1a2 0fbb 43fb b53b
000001f0: f04e b6ba 96cc 98bb a1a0 163c 612b bd3b
00000200: 8767 5cba df95 293a 7068 eab9 c416 89bb
00000210: cc9b 40bb e291 9d3b aa79 21bb 769e 793a
00000220: b595 3ebb b1f0 32bb 59bb c7ba 189e 33bb
00000230: c2fc aa3b 468d b33b 3f74 ae3b 9ed4 8e3b
00000240: b1ed 7a3b a2a7 5ebb 66c5 623a 5a57 613b
00000250: 6f3e c03b 9599 aebb a4e3 183b 78c8 dfbb
00000260: 42e8 94bb 2463 99bb ea45 d33b ae59 b03b
00000270: a02c e3ba f54c 9b3b 0900 79bb a02a 10ba
00000280: 52de fb3a 0d3b da3b 638f 6fbb 3ebc a23b
00000290: 8b98 89bb a695 bb3b 9c00 72bb f438 ba3b
000002a0: 2c8b 9d3a dab2 6bbb 6b5f 1f3b 0dd4 a13b
000002b0: b655 893b a9bc b03b f0e8 463b bbd1 97bb
000002c0: 1d6f ce3b b863 353a 685a 113b 58c3 f03b
000002d0: 55ce 7b3b 3147 c43b ce53 723b 1e3b 063b
000002e0: ac70 80bb a059 7e3b 80a2 5ebb 7145 583b
000002f0: 2827 ffb9 da78 bf3a a8a4 aa3b df63 ddba
00000300: e786 8ebb e958 bb3b 2feb 593b e609 b33b
00000310: 2c2f a83b ff4d 92ba edc5 d037 35f6 a73a
00000320: e7a0 bc3b 6682 39bb 6ea8 a93b 1a91 afba
00000330: 13ea 8dbb cec2 b83b e1a6 c03b 2de6 c93a
00000340: 6d7c 3fbb aa8a 53bb 0e73 c0bb e262 97ba
00000350: ca71 dd3b e606 31bb da34 bbbb a3bd f33b
00000360: af9e 9ebb 7ca2 b1bb 56aa 4bb9 bea2 bd3b
00000370: be8f b43b 6d71 973b 3a75 403b 809a e23b
00000380: 4765 a33b ee44 aa3a 4b6c babb 20c4 3bbb
00000390: 2693 ee3b 4e11 20bb 5d79 b7bb 4a7b 953b
000003a0: 9273 bd3b 026f 91bb 4063 e23b e9f9 96bb
000003b0: 5669 85ba 9e68 9d3a 47a5 533b 3fa6 d73b
000003c0: 33ad bfb9 cb61 faba 39bd 5dbb b849 a939
000003d0: b476 873b e2bb 93bb a2bc 1abb 9b45 e2bb
000003e0: 3e78 643b af25 d43b 26d6 8f3a cb0b f4ba
000003f0: 25e5 59ba 73d3 023c ae37 c13b 7792 8bbb

network_body._body_endoder.seq_layers.4.weight f4 [256, 256]
-0.03785768 -0.050798483 0.06651652 -0.042834718 0.009113131 -0.06423208 -0.027479017 0.07917984
-0.06278038 0.0382989 -0.019062433 0.100350276 -0.0028252595 -0.004960106 -0.007032078 -0.106985904
-0.07128448 0.036750253 -0.08852439 -0.019829022 0.022876935 -0.049023446 0.009611316 0.0824374
-0.044604037 0.07758831 0.06853762 -0.02818757 -0.05636674 0.025274748 0.03202534 0.029377094
-0.027866963 -0.05363816 -0.017126234 0.07347296 0.016725508 -0.0016651364 0.022432504 0.10245966
0.10529273 0.032690715 0.006158285 0.07971629 -0.0187087 0.021985853 0.04391427 0.057299145
0.054948714 0.091661386 -0.06297048 0.038301572 -0.017084831 0.002288354 0.062092617 0.107274346
0.012796452 0.09891687 0.01542156 -0.10789351 0.037361953 0.023780929 -0.12655844 -0.07915806
0.08959276 0.041416567 0.08406376 -0.10546617 -0.18940009 0.09497738 -0.011666451 0.024374565
-0.06972616 -0.0064628003 -0.0625603 0.01942941 -0.07166128 0.035708867 -0.007292422 -0.0050979243
-0.0038904573 -0.001209843 -0.027958835 -0.082280524 -0.14270146 0.05819578 -0.052328013 -0.06973378
-0.061112773 -0.06366079 -0.06623253 -0.027123367 0.024905961 -0.016370367 -0.12702063 0.004460531
0.0027859167 0.022102477 -0.023006106 -0.015833978 0.046985336 -0.00669035 0.0055980827 -0.09666812
-0.10701394 0.001018483 0.013313642 0.13978583 0.120300606 -0.0022303215 -0.08717049 0.055349637
-0.025440853 -0.07166201 0.040094428 -0.04631816 0.034780256 0.08669162 0.0014719239 0.083297886
-0.008813634 -0.034976415 -0.05722415 -0.0060325433 0.022581926 -0.064025916 0.032562885 -0.009744369
0.07424389 -0.08783433 -0.064477615 0.031789772 -0.10577374 -0.001379848 -0.052044697 0.036507126
-0.0130102895 -0.108049884 -0.08707379 -0.046846706 0.038496137 0.052530784 0.09112657 -0.018240338
0.03223477 -0.058252577 0.03149905 -9.230796e-06 0.025418691 0.13328089 0.041980296 0.055165935
0.010997131 0.0044877776 -0.074832246 0.0817066 0.013734164 -0.1294914 -0.13009863 -0.03378778
0.01744959 0.0142021105 0.018172707 -0.023088252 -0.044601426 -0.033744313 -0.028199032 0.0014243862
0.03830077 0.041350763 -0.03961523 0.07317098 0.06327826 0.03638321 0.105613105 0.054006286
-0.08755488 0.027631015 -0.08734572 0.0436602 0.01796337 0.013905698 0.07371381 0.021196617
0.074119985 -0.086510226 -0.033483904 0.06764923 0.030987384 -0.0734907 -0.0349482 -0.07323324
-0.00039566978 0.052714143 -0.10170068 -0.0011087481 0.069225624 0.04393221 0.027411152 0.03106074
0.05894734 0.047879636 -0.09146477 0.056991857 0.0071554817 0.06198271 0.022781592 0.08788932
0.023468187 0.006962489 0.08411034 0.08706555 -0.04059381 0.040225852 -0.09592671 -0.0010567567
-0.077808514 0.03979476 0.029397469 -0.0343083 -0.014507119 0.008879975 -0.06211787 0.0008801215
0.038403872 0.0128315445 -0.05272127 -0.024786834 0.015088935 -0.028776284 -0.05031641 -0.0662336
-0.02928519 -0.014974842 0.009652773 0.038533237 0.02037994 -0.04286142 -0.05490188 -0.046468843
0.047366478 -0.06196357 -0.0055574905 0.07309314 0.022392066 0.0024414663 -0.029015759 -0.041121226
0.0668467 0.08784202 0.058131367 0.085203566 0.13518026 -0.10683385 -0.011979276 -0.02083775
00000000: a810 1bbd 1212 50bd d039 883d 7573 2fbd
00000010: 3e4f 153c 1c8c 83bd ad1b e1bc 0a29 a23d
00000020: 0093 80bd 4fdf 1c3d d228 9cbc 7284 cd3d
00000030: fd27 39bb 6388 a2bb 596d e6bb 6d1b dbbd
00000040: 99fd 91bd 6f87 163d 464c b5bd 7970 a2bc
00000050: 6968 bb3c cfcc 48bd c878 1d3c f1d4 a83d
00000060: b9b2 36bd 9fe6 9e3d 745d 8c3d 9ee9 e6bc
00000070: d0e0 66bd fd0c cf3c 012d 033d 3ba8 f03c
00000080: 4249 e4bc b0b3 5bbd 514c 8cbc fe78 963d
00000090: ef03 893c b540 daba 5fc4 b73c 5fd6 d13d
000000a0: b7a3 d73d b3e6 053d 70cb c93b 4b42 a33d
000000b0: fd42 99bc ad1b b43c 73df 333d 82b2 6a3d
000000c0: e711 613d f7b8 bb3d abf6 80bd 1ce2 1c3d
000000d0: 7df5 8bbc 36f8 153b d454 7e3d a7b2 db3d
000000e0: 36a8 513c ee94 ca3d b6aa 7c3c 46f7 dcbd
000000f0: d908 193d 39d0 c23c 8998 01be 9f1d a2bd
00000100: 697c b73d 6ba4 293d 9f29 ac3d a6fe d7bd
00000110: 19f2 41be 8083 c23d a424 3fbc 2bad c73c
00000120: 97cc 8ebd e6c5 d3bb 9d1f 80bd 6d2a 9f3c
00000130: 26c3 92bd 7643 123d 45f5 eebb 7d0c a7bb
00000140: 0bf7 7ebb 9893 9eba ed09 e5bc b182 a8bd
00000150: 5520 12be b35e 6e3d e655 56bd 96d0 8ebd
00000160: 6351 7abd 9760 82bd eca4 87bd d331 debc
00000170: 9607 cc3c 261b 86bc b211 02be a529 923b
00000180: ed93 363b 4110 b53c 4d77 bcbc 42b6 81bc
00000190: b273 403d b93a dbbb 1f70 b73b eff9 c5bd
000001a0: 202a dbbd 9e7e 853a 7621 5a3c 0424 0f3e
000001b0: 2a60 f63d 962a 12bb 7186 b2bd 4db6 623d
000001c0: 5669 d0bc 88c3 92bd 0e3a 243d 1cb8 3dbd
000001d0: be75 0e3d 608b b13d 92ed c03a 1598 aa3d
000001e0: 0f67 10bc 6e43 0fbd df63 6abd a4ac c5bb
000001f0: bbfd b83c 0520 83bd a960 053d d9a6 1fbc
00000200: 2e0d 983d 7ce2 b3bd d70c 84bd fe35 023d
00000210: e79f d8bd 04dc b4ba d22c 55bd 7f88 153d
00000220: 1c29 55bc 4249 ddbd be53 b2bd 55e2 3fbd
00000230: 20ae 1d3d 852a 573d 91a0 ba3d c36c 95bc
00000240: 9b08 043d 419a 6ebd 2605 013d f8dd 1ab7
00000250: dc3a d03c c97a 083e 88f3 2b3d adf5 613d
00000260: 4f2d 343c 350e 933b a641 99bd ca55 a73d
00000270: 4205 613c 6599 04be 9338 05be 0e65 0abd
00000280: 71f2 8e3c f8af 683c eede 943c 9323 bdbc
00000290: fcaf 36bd 7a37 0abd a801 e7bc 78b2 ba3a
000002a0: 45e1 1c3d 6b5f 293d 9443 22bd abda 953d
000002b0: 0898 813d 9006 153d af4b d83d b235 5d3d
000002c0: f94f b3bd 705a e23c 50e2 b2bd 0ad5 323d
000002d0: eb27 933c bad4 633c 44f7 963d 87a4 ad3c
000002e0: 38cc 973d 462c b1bd 6b26 09bd ae8b 8a3d
000002f0: 41d9 fd3c 4b82 96bd d825 0fbd 4ffb 95bd
00000300: e671 cfb9 c9ea 573d 7248 d0bd 6a53 91ba
00000310: 2ac6 8d3d 43f2 333d 5a8d e03c 1873 fe3c
00000320: c472 713d 701d 443d e251 bbbd 4b70 693d
00000330: 8878 ea3b 95e1 7d3d 76a0 ba3c 51ff b33d
00000340: 5b40 c03c 9725 e43b 0b42 ac3d 6c4f b23d
00000350: b245 26bd ddc3 243d 3975 c4bd df82 8aba
00000360: 125a 9fbd d5ff 223d f6d2 f03c dc86 0cbd
00000370: 44af 6dbc 517d 113c 4f6f 7ebd f4b7 663a
00000380: 614d 1d3d 663b 523c 42f2 57bd c20d cbbc
00000390: 9537 773c 3ebc ebbc 9418 4ebd 7ba5 87bd
000003a0: 7fe7 efbc 0a59 75bc aa26 1e3c 07d5 1d3d
000003b0: d5f3 a63c 758f 2fbd cbe0 60bd 1d56 3ebd
000003c0: 5a03 423d 83cd 7dbd 9c1b b6bb dbb1 953d
000003d0: 916f b73c 0201 203b 75b2 edbc bb6e 28bd
000003e0: ece6 883d 84e6 b33d 281b 6e3d 357f ae3d
000003f0: b26c 0a3e b5cb dabd ba44 44bc eeb3 aabc

network_body.observation_encoder.processors.0.normalizer.running_mean f4 [68]
0.27271292 0.5203302 0.20687169 0.69988334 0.27909812 0.51045454 0.21032266 0.7066982
0.35303864 0.46796355 0.178845 0.6315308 0.4137273 0.38884526 0.1971846 0.6151266
0.3503214 0.505865 0.14352529 0.6026512 0.43602931 0.41597447 0.14708284 0.5724955
0.2890323 0.6071469 0.10288277 0.60690117 0.29283127 0.56785077 0.13515763 0.63794374
0.27233243 0.63755316 0.087412745 0.5916863 0.24554646 0.6258693 0.11496688 0.6433857
0.28996888 0.6158676 0.086909965 0.56503046 0.24683937 0.5618563 0.050499223 0.6067811
0.23327373 0.6197991 0.051907707 0.57766277 0.22347625 0.38206974 0.0026731435 0.5398846
0.19341175 0.46077666 0.003985413 0.540518 0.19880256 0.38344717 0.0033778558 0.51546615
0.19880159 0.38344622 0.0033778558 0.51546615
00000000: 07a1 8b3e 5c34 053f 2cd6 533e 8e2b 333f
00000010: f3e5 8e3e 26ad 023f d35e 573e 2cea 343f
00000020: 7bc1 b43e eb98 ef3e 2523 373e 01ac 213f
00000030: 11d4 d33e ba16 c73e c3ea 493e f078 1d3f
00000040: 545d b33e 5e80 013f 4bf8 123e 5947 1a3f
00000050: 3c3f df3e 9bfa d43e e29c 163e 118f 123f
00000060: 0bfc 933e fb6d 1b3f 34b4 d23d e05d 1b3f
00000070: fbed 953e ab5e 113f c366 0a3e 4850 233f
00000080: 286f 8b3e af36 233f 7405 b33d c178 173f
00000090: 8870 7b3e f838 203f c173 eb3d edb4 243f
000000a0: cd76 943e 80a9 1d3f dafd b13d d6a5 103f
000000b0: 76c3 7c3e d1d5 0f3f 46d8 4e3d 0256 1b3f
000000c0: 4fdf 6e3e 27ab 1e3f 2d9d 543d b5e1 133f
000000d0: f5d6 643e a59e c33e e82f 2f3b e135 0a3f
000000e0: bb0d 463e ebea eb3e 1198 823b 635f 0a3f
000000f0: e692 4b3e 3053 c43e 045f 5d3b 97f5 033f
00000100: a592 4b3e 1053 c43e 045f 5d3b 97f5 033f

network_body.observation_encoder.processors.1.normalizer.running_mean f4 [6]
-6.9602113 1.2407455 -10.999726 6.999846 8.199024 194.94989
00000000: 0dba dec0 c0d0 9e3f e1fe 2fc1 bdfe df40
00000010: 342f 0341 2cf3 4243
