Assets/Training/results/b_treasure_test30/TreasureSearch/TreasureSearch-4499991.onnx (onnx, 574627 bytes, 13 tensors)

65 f4 [36]
000000 6f 30 37 3e 50 68 14 3e 91 a7 68 3e 7d 1c a0 3d
       0.1788957 0.14492917 0.22720172 0.07817934
000010 de f3 f8 3e 60 58 1c 3e 07 b2 f5 3e 9f 59 88 3e
       0.48623556 0.15268087 0.47987387 0.26630875
000020 a3 e1 fc 3e 1d 17 00 3e 95 76 fb 3e df ca a1 3e
       0.49390897 0.12508817 0.49113908 0.3160009
000030 43 0b f7 3e 71 d9 21 3e 32 3e fa 3e 3b 39 ac 3e
       0.4825078 0.15805604 0.48875576 0.33637413
000040 63 bf f8 3e 31 62 fc 3d 3c 98 fa 3e c8 c3 b7 3e
       0.48583516 0.12323416 0.4894427 0.35891557
000050 0c 5d fe 3e bf 36 87 3e 09 c1 ff 3e 1c cb 8f 3e
       0.49680364 0.26408955 0.49951962 0.28084648
000060 95 08 fe 3e db e9 90 3e 4a 9f ff 3e a5 5a 9d 3e
       0.49615923 0.28303418 0.49926215 0.3073322
000070 df 87 00 3e 23 0a d9 3e 9b bb df 3e af 28 d5 3d
       0.1255183 0.42390546 0.4369782 0.104081504
000080 df 87 00 3e 23 0a d9 3e 9c bb df 3e b1 28 d5 3d
       0.1255183 0.42390546 0.43697822 0.10408152

68 f4 [5]
000000 9e 00 44 40 76 85 9b 40 0b c1 fe 3a 1d 73 5a 3b
       3.0625377 4.8600416 0.0019436193 0.0033332773
000010 d0 d9 64 40
       3.5757942

action_model._continuous_distribution.log_sigma f4 [1, 2]
000000 62 be 2a be a6 54 b2 be
       -0.16674188 -0.34830207

action_model._continuous_distribution.mu.bias f4 [2]
000000 25 46 ad ba 00 5b e9 3c
       -0.0013219757 0.028485775

action_model._continuous_distribution.mu.weight f4 [2, 256]
000000 0c 62 5c bd 25 56 e6 3b 23 3d 94 bc 01 b6 f6 bc
       -0.053804442 0.007029312 -0.018095559 -0.030116083
000010 2f 88 3e 3d a8 16 c2 3b 5b 6a 19 bd 31 f0 eb bc
       0.046516594 0.005923111 -0.037454944 -0.028801056
000020 e9 22 8a bc f4 f2 d3 bc 50 9d ed 3b 13 03 12 3d
       -0.01686235 -0.025872685 0.007251419 0.035647463
000030 81 02 47 3d 16 d2 2a bc 10 51 b7 bb 3d 8e d3 3c
       0.048586372 -0.010426065 -0.00559438 0.02582466
000040 77 4a 02 bb 31 bc 8e 3c dd 5e 2a bb 68 2b 27 3d
       -0.001988081 0.017423721 -0.0025996484 0.04081288
000050 d4 e1 22 bd b0 e7 94 3b e7 1f 63 3c 83 8c ca 3b
       -0.039766148 0.004544221 0.013862587 0.006181301
000060 e3 c5 87 3c 25 ea 76 bd a8 8a 45 bc 52 f4 b8 bc
       0.016573852 -0.06028189 -0.012056984 -0.022577439
000070 c2 c0 32 3c 01 54 8b bc e8 34 d7 bc c8 bc 15 bd
       0.010910215 -0.01700783 -0.026270345 -0.03655699
000080 ba 40 3a bb dd 5e 4a bd fe 28 9d bc fa 7c 65 3c
       -0.0028419928 -0.049406875 -0.019184586 0.0140068475
000090 f4 cf 5d 3c 12 6c 9b bc ed 1a 1f bc 6e 75 7c bc
       0.013538349 -0.01897243 -0.009711009 -0.015408857
0000a0 66 3e 23 bd f3 2b b2 3b 61 eb d7 bb e1 d1 58 bc
       -0.03985443 0.005437368 -0.0065893386 -0.013233633
0000b0 8b be 20 bc d3 fa b4 bc cb e2 c1 bc 0d f3 8a 3b
       -0.009811054 -0.022092259 -0.023667714 0.0042403997
0000c0 f6 70 56 bd d8 23 20 bd 5a 05 d3 3a d6 6c 01 3d
       -0.05235382 -0.039096683 0.0016099617 0.031597935
0000d0 65 ba 4b bc 19 57 70 3c 91 91 db 3c b7 86 15 3c
       -0.012434577 0.014669203 0.02680281 0.009126357
0000e0 0f 6b 52 3b 84 6b fd bb 3e dc de bb 2d b3 d3 bc
       0.003210727 -0.007733764 -0.0068011573 -0.025842274
0000f0 fc 13 05 bc 5b 33 62 3d 5e d9 69 3d bf 4a 16 3c
       -0.00812244 0.055224758 0.057092063 0.009173094
000100 8d 22 f2 3c 6f dc 2b 3c c8 3a f8 3c ee 3e 85 3c
       0.02955749 0.010489567 0.030301467 0.016265359
000110 48 3f 92 bc 27 a2 09 3d 3f cd 88 3c 7a 67 44 bd
       -0.01785244 0.033601906 0.016699431 -0.047950245
000120 66 44 09 3d e9 2d 93 bc 59 6d d9 3c d3 23 40 3d
       0.033512495 -0.017966228 0.026541399 0.046909165
000130 08 19 e2 3a 98 55 4f bb ee 74 e4 3c b5 47 1a 3d
       0.0017249892 -0.0031636711 0.027887788 0.03766604
000140 5d 95 99 39 af 69 a0 bc 0e e6 2e 3c 1c 94 53 3a
       0.00029293718 -0.019581644 0.0106749665 0.0008071081
000150 6f e6 7c 3c a5 57 ef bc 0e 17 0f bd e2 cc ff 3c
       0.015435799 -0.029216597 -0.034934096 0.031225625
000160 41 a9 b2 3b 1a 29 05 bd 45 55 5b bb 5a e9 90 bc
       0.0054523055 -0.0325099 -0.0033467573 -0.017689396
000170 78 71 86 3b 75 a4 7b bd 88 b7 68 3d 7a f4 1f bd
       0.004102882 -0.061436135 0.056815654 -0.03905151
000180 6a 27 00 bd cb f9 47 3a bb a4 e3 bc 3a 59 2d bd
       -0.03128759 0.00076284696 -0.02778851 -0.04232142
000190 7e 41 97 bc a3 7c 8a 3b 70 09 3b 3c 46 73 89 bc
       -0.018463846 0.0042262836 0.011415824 -0.0167786
0001a0 18 f8 49 bd e5 18 0c 3b b4 80 08 bc 16 fd 55 3c
       -0.049308866 0.0021377143 -0.0083314665 0.013060829
0001b0 3d b6 52 3c b5 fa 11 bd a2 85 0f 3d d8 35 5b 3c
       0.012860832 -0.035639483 0.03503955 0.013379537
0001c0 39 3a 7f bd af ff d7 3b 38 8c 92 3c 1c 9f 96 3c
       -0.062311385 0.006591759 0.017889127 0.018386416
0001d0 36 a2 30 bc fb c4 fd 3c 78 5d 06 3b b1 b6 87 bc
       -0.010780862 0.030977717 0.002050249 -0.016566606
0001e0 2b 76 54 bc 63 c6 0f 3c e2 0c 81 bc 84 45 24 3c
       -0.012967627 0.008775326 -0.015753213 0.010026339
0001f0 d4 a6 12 3c c3 e3 f1 3c 62 d5 37 bc b7 38 14 3c
       0.008950908 0.02952755 -0.011220308 0.009046725
000200 ad 77 72 3a 8d 06 4b bc 40 4b 30 3c 2b a4 d4 3b
       0.00092494005 -0.012391699 0.0107601285 0.006489297
000210 20 6f 32 3d 71 a0 23 bc 9f fd 42 bc 0c 79 b7 bb
       0.04356301 -0.009986983 -0.011901288 -0.0055991467
000220 b2 2e cb 3b 14 c3 01 bb 1f df 4f bd 49 b9 6e 3b
       0.006200635 -0.0019800114 -0.050749894 0.0036426357
000230 25 e4 2b 3c c9 b0 31 3d d6 4d b6 bc b6 63 2e bc
       0.010491406 0.043381486 -0.022253912 -0.01064389
000240 be 2c 43 bc 12 36 9f 3c 35 27 89 bc 45 c0 73 bc
       -0.011912523 0.019434962 -0.016742328 -0.014877384
000250 90 cc d1 3c 4b 08 4d bd 89 d0 a0 3c 0e 86 9b 3b
       0.025610238 -0.050056737 0.019630687 0.004746205
000260 9b 3b 49 3c 7c 4e 0e bb f2 e1 27 3c 22 e8 1c bd
       0.012282277 -0.002171426 0.010246741 -0.038307317
000270 6f e9 6f bc 79 79 d1 3b cb e9 f6 3c 49 30 cb 3b
       -0.014643057 0.0063926545 0.030140778 0.0062008244
000280 b3 da 63 3d 2b 54 f1 3c 09 0e e0 bc 9d 46 18 bd
       0.05562849 0.02945908 -0.027350442 -0.037176717
000290 b9 c7 b2 bb 73 24 b7 3b 19 bc 8b 3b 53 b6 07 3c
       -0.0054559377 0.005589062 0.0042643663 0.008283216
0002a0 db bc 94 3c 91 b1 7b bc e4 6b f9 bc df 62 96 3c
       0.01815646 -0.015362159 -0.030446954 0.018357692
0002b0 83 ef 3d 3c c2 cb 32 bb 7e fb e8 3c 99 53 cd 3c
       0.011592749 -0.0027282094 0.028440233 0.025064277
0002c0 e3 ce b6 3b 1b 86 2f bd dd a5 2a 3d 39 35 d1 bc
       0.005578862 -0.042852502 0.041662086 -0.025538074
0002d0 cb b6 5e 3c 9d b1 36 bc d6 5b 0d 3d 00 7d 23 3c
       0.013593386 -0.011150745 0.03451141 0.009978533
0002e0 6c 34 1a 3d 9d 05 8e bc cc 38 90 ba e8 6e 09 bd
       0.03764765 -0.017336661 -0.0011003255 -0.033553034
0002f0 bb 36 67 bc 8a ee ac 3c 5d d7 07 3d 9b f5 9b ba
       -0.01411217 0.021109838 0.03316437 -0.0011898758
000300 0a 43 6e bc 6b ee e4 3b 94 7d 5a bc f7 2e da 39
       -0.014542351 0.0069864294 -0.013335604 0.00041615192
000310 dc c9 64 3c 4b d3 ba bb 80 a0 c9 3c 48 2d a6 bc
       0.013964143 -0.0057014576 0.024612665 -0.020285264
000320 e4 1e cb bc 6e 5c be 3c dc 6a 42 3d 6b 0b 74 3b
       -0.024795003 0.023237433 0.04746519 0.003723825
000330 c2 84 87 bb 83 2f 0d 3d b7 1b 53 bd d4 f8 de 3b
       -0.004135699 0.03446914 -0.051540103 0.006804565
000340 27 03 b8 bc b1 c2 4d 3c af 01 f6 3c 97 f4 92 bc
       -0.02246244 0.012558625 0.0300301 -0.017938895
000350 a3 28 2d 3c a0 82 23 bd 13 46 3d bb 4b f9 af bc
       0.010568771 -0.039919496 -0.0028880879 -0.021481177
000360 10 c1 8c 3c 43 49 a8 bc da 40 fe 3a 25 a1 63 bc
       0.017181903 -0.020542746 0.0019397989 -0.0138934
000370 a0 b0 34 bd 1f 16 39 3c ad 7b 15 3d 32 c3 d6 bc
       -0.044113755 0.011296778 0.0364949 -0.026216123
000380 68 ff 23 3d 8f 41 50 3d d4 d2 46 bd 12 76 cc bc
       0.040038496 0.05084377 -0.048540905 -0.024958644
000390 83 6f f5 3c 28 32 a6 bc cd c5 2d bd cf 96 db bc
       0.0299604 -0.020287588 -0.042424966 -0.02680531
0003a0 84 15 27 3d f0 ab 19 bd c7 b7 01 3d 4a db da ba
       0.040792003 -0.037517488 0.031669404 -0.0016697433
0003b0 3e 25 fa bc 9d b0 dd bc 8b 83 21 bc bb 8b 09 bc
       -0.030535337 -0.027061755 -0.009858022 -0.008395131
0003c0 7b 5c d8 3b 78 2e 11 3d 8f f6 16 bd b6 5f e8 bc
       0.0066028214 0.035444707 -0.03685623 -0.028365951
0003d0 60 cb 80 bc 5e 14 30 bc 19 1e 17 3d 1a 0a 97 bc
       -0.015721977 -0.010747043 0.036893938 -0.018437434
0003e0 92 8d 81 bd 93 57 37 3d 25 cf 85 3b 39 31 1b bd
       -0.063258305 0.04476125 0.0040835314 -0.03788874
0003f0 6f d9 b1 bb 82 cf 24 bc fa 8d b7 3b 5a e4 6f bb
       -0.0054275314 -0.010059239 0.0056016417 -0.0036604614

network_body._body_endoder.seq_layers.0.bias f4 [256]
000000 6b 8b 52 3c e0 77 b4 3c c3 43 c8 3c 0d 4e ca 3c
       0.012850623 0.022029817 0.024446374 0.02469542
000010 32 e0 31 3c 2e 75 cd 3b 14 41 e8 3c 7b 14 10 3d
       0.010856675 0.0062700724 0.028351344 0.03517578
000020 74 37 86 3c 2a f9 c7 bc 2d b8 44 3d 99 75 bf 3c
       0.016383864 -0.024410803 0.048027206 0.023371505
000030 5e 6c c7 3c 62 48 1e bd 76 d8 98 3c 20 f7 05 3d
       0.024343666 -0.03864325 0.018657904 0.03270638
000040 eb bb be ba ef a3 e4 bc 22 58 25 3a 5c d6 35 bb
       -0.0014551854 -0.0279102 0.00063073833 -0.0027746176
000050 8f 28 58 39 db 27 bc 3c 70 70 fc bb f6 ae 9d 3b
       0.00020614474 0.022968223 -0.0077038333 0.0048121167
000060 3f 16 0e 3d 33 45 2f 3d 8e 68 33 3d 8b e6 f6 3c
       0.034689184 0.042790603 0.043800883 0.030139228
000070 8a 77 6d bc fb 04 90 3c 25 ea 74 3c ce 06 a2 3c
       -0.014493832 0.0175805 0.0149484025 0.019778635
000080 1c e9 e8 3c 63 29 c4 ba 11 ff 9b 3c 56 61 94 3c
       0.028431468 -0.0014965947 0.019042524 0.01811282
000090 0f b0 7f bc 09 d8 e9 bb dd f3 b3 3c 35 e0 04 3d
       -0.0156059405 -0.007136349 0.021966869 0.032440383
0000a0 2a f0 8a bc 7f 27 71 3c 65 a2 13 3c 4b 62 00 3d
       -0.016960222 0.014718889 0.009010886 0.03134374
0000b0 4c df b0 bc 41 6a 6d 3c c7 7c 09 3d 10 ef a2 3c
       -0.021590851 0.014490665 0.033566263 0.019889385
0000c0 75 be 25 3d 59 cd 83 bc c3 d1 f2 3b ab 0c 78 ba
       0.040464837 -0.016089128 0.0074102595 -0.0009462337
0000d0 d2 81 39 3c cf a7 89 bc 3b 22 34 3c d2 65 c3 bc
       0.0113224555 -0.01680365 0.010994489 -0.023852263
0000e0 0b 3a 99 3c 43 80 11 3c d5 cb bc 3c 3b 71 f1 3b
       0.018704435 0.008880678 0.023046413 0.0073682345
0000f0 cf 99 69 bc fb 9a f4 3c 10 45 74 bc 3f 01 77 3c
       -0.014257862 0.029859057 -0.014909044 0.015075981
000100 b5 12 d9 3c 29 94 72 3c 67 1e 0c 3d b9 0e d9 3c
       0.026498178 0.014805832 0.03420868 0.026496278
000110 57 62 bf 3c 65 ec 81 3c 99 dd 98 3c 2a 1a d8 3a
       0.023362322 0.015859792 0.018660353 0.001648729
000120 49 38 4a 3c 3a b4 9b 3c e3 17 aa 3c ba 1a 15 bc
       0.012342521 0.019006837 0.020763343 -0.00910061
000130 e6 01 86 bc 4a 0d 0b 3d 2e 2b c7 3c 52 af b4 bc
       -0.016358327 0.03394822 0.024312582 -0.022056255
000140 ff 8c 96 3c 56 77 05 bb 5c e0 c1 3c 5e 84 22 bb
       0.018377779 -0.002036532 0.023666553 -0.0024798135
000150 5b db 99 3c 39 42 ac 3c 61 1f dd 3c 92 07 a3 3c
       0.018781355 0.021027671 0.026992502 0.01990107
000160 10 e0 f9 bc 39 53 32 bc 8c 28 df bb 8d dd 9f 3c
       -0.03050235 -0.0108841 -0.0068102535 0.019514823
000170 96 19 f8 3c 5f cc 80 3c 1d d5 b3 3c 98 51 56 3b
       0.030285638 0.015722452 0.021952206 0.0032702442
000180 3e b7 ff 3c fb 6b 32 ba bd 9f c4 3c a2 ad e3 3c
       0.031215306 -0.00068062515 0.02400195 0.027792756
000190 a9 26 44 bc f6 d8 5e 3d 80 e8 d0 3c 7c bb eb 3c
       -0.011972108 0.05440613 0.02550149 0.028775923
0001a0 f7 40 e5 3c 65 03 63 3c 31 c2 cf 3c 7b bd 04 3d
       0.02798508 0.01385579 0.025361152 0.032407265
0001b0 32 6c d6 3b 18 1a 10 3d 53 d6 a2 3c 24 5d 9d bc
       0.0065436596 0.035181135 0.019877588 -0.019209452
0001c0 ce b6 b7 3b d9 2e 05 3d 70 7a b7 3b 9c 63 3c 3c
       0.005606509 0.03251538 0.0055993125 0.011498358
0001d0 cb 0d 7f 3c c5 3b a3 bb 04 73 ca 3c aa 0c 24 bb
       0.015567253 -0.0049814903 0.024713047 -0.0025031962
0001e0 52 63 1c 3d ab 1b ef bb 45 96 6c 3b d8 40 a6 3c
       0.038180657 -0.0072969995 0.003610031 0.020294592
0001f0 90 a2 7f 3c 04 42 29 3c bf 97 e4 3c de cd d2 3c
       0.015602723 0.010330681 0.02790439 0.02573293
000200 ba 56 63 bc 31 8e 3a 3c ce a8 b2 3c d9 95 82 3c
       -0.013875658 0.01138644 0.021809008 0.015940594
000210 26 bc 90 3c a4 03 85 bb 48 01 cd 3c 26 d4 96 3c
       0.017667841 -0.004059272 0.025025025 0.018411707
000220 dc 0c 1e bc ce 8d c7 ba e7 22 82 3a c7 47 df 3c
       -0.009646621 -0.0015224756 0.0009928615 0.027255906
000230 ac 10 7f bc 1d 50 9b bc 03 10 51 bb e3 88 1b 3d
       -0.01556794 -0.0189591 -0.0031900413 0.037972342
000240 8f de 0f 3d ee fc 77 3a 14 59 bd bc b1 b7 87 bc
       0.035124358 0.00094599917 -0.023113765 -0.016567083
000250 56 81 02 ba ff 49 6d 3c 56 fe 65 bc db 2e 8c bc
       -0.0004978379 0.014482974 -0.014037689 -0.017112186
000260 cd d6 86 3c 0c 5e c7 3c 08 0f ec 3c 2b 52 08 3d
       0.016459847 0.024336837 0.028815761 0.033281486
000270 87 18 2d 3d 7f f9 5b 3c f9 e3 8e bc 85 94 1d 3d
       0.04225972 0.013426184 -0.01744269 0.038471717
000280 5a 9a 1e 3d 45 82 08 3d 39 46 4b 3c 36 aa 94 3c
       0.03872142 0.03332736 0.012406879 0.01814757
000290 6e 07 cc 3c 86 92 75 3c 1f 17 bb 3c bd 78 3f 3d
       0.024905887 0.014988547 0.022838173 0.046746004
0002a0 c7 55 cd 3c 39 52 97 3c a0 24 6e bc 8c 52 27 3c
       0.025065316 0.018471824 -0.014535099 0.010212552
0002b0 e5 40 fa 3c 30 e0 92 bc d9 6d 0d 3d d9 8f 7c bc
       0.030548522 -0.017929167 0.034528587 -0.015415155
0002c0 ee bf f9 bb ae 0d 13 3b 7e 89 67 3c 6f 67 20 bc
       -0.0076217568 0.0022438574 0.014131902 -0.0097902855
0002d0 40 04 01 3d 2e 52 94 3c e4 51 1a 3b 22 b3 af 3c
       0.031498194 0.018105593 0.0023547346 0.021447722
0002e0 00 78 05 3d e8 1d b4 3c 75 eb eb 3c ff 26 94 ba
       0.032585144 0.021986917 0.028798798 -0.0011303126
0002f0 fe 90 a7 3c c1 30 ba 3c 9f d3 cc 3c 62 38 20 3d
       0.02045488 0.022728326 0.025003253 0.03911627
000300 bd 94 c1 bc 37 70 1f bc c1 c5 12 3d 1e 51 c2 3c
       -0.023630494 -0.009731344 0.035833124 0.02372032
000310 2a 24 77 bc dc 5f f5 3c f2 95 ab 3a 2e 01 d9 3c
       -0.015084306 0.029952936 0.0013090952 0.02648982
000320 27 fe f3 3c 11 d1 ee 3c 0f 41 bc 3c f3 3e 84 3d
       0.029784275 0.029152425 0.022980241 0.06457319
000330 04 30 ac bc 53 dd 27 3d 57 dd 05 3d a3 22 b1 3c
       -0.02101899 0.040982556 0.03268179 0.021622961
000340 bc d7 d5 bc b8 d5 fb 3c e9 7e 4d 3d 51 08 ba 3b
       -0.026103847 0.030741557 0.05016986 0.005677261
000350 23 40 da 3c fc f6 95 3c 7f 0e 00 3d 6b f1 48 3b
       0.02664191 0.018306248 0.031263825 0.0030661474
000360 79 eb a0 bc 6c a0 5d bc 11 bc cf 3b d0 f2 ce 3c
       -0.019643532 -0.013527017 0.006339558 0.025262266
000370 30 f6 86 3c f3 71 31 3d 4f 50 55 3c 2a 63 f4 bc
       0.016474813 0.04332156 0.013019635 -0.029832441
000380 b5 65 9e 3c c9 cb 7c bc f8 cc bc 3c ef a9 fb 3c
       0.019335607 -0.015429446 0.023046955 0.03072068
000390 49 bf 9f 3c 5a 6a 51 bb 5d 14 fe 3c ba 13 d9 bc
       0.019500392 -0.003195426 0.03101557 -0.026498664
0003a0 f3 5e e0 3c 34 fc db bb be 2c 62 3c 5e b5 87 bc
       0.027389025 -0.0067134146 0.013804613 -0.016565975
0003b0 50 79 7c bc be f8 15 3d 24 69 a5 3c 8f 61 d3 bc
       -0.0154097825 0.036614172 0.020191737 -0.025803356
0003c0 8a a3 e8 3c 9e 66 d0 bc aa b0 c9 3c 39 2a 9f 3b
       0.028398294 -0.025439557 0.024620373 0.0048573283
0003d0 e0 01 c8 38 44 f4 9d 3c eb f4 c9 3c 6b 97 e3 3c
       9.5370924e-05 0.019281514 0.024652919 0.027782163
0003e0 43 41 d4 3c 47 b2 e7 3b 63 b0 04 3d b5 d6 c8 3c
       0.025910025 0.007070813 0.032394778 0.024516443
0003f0 20 2a 2d bc f1 87 ec 3c 32 03 92 bc 60 3d bc 3c
       -0.010569125 0.028873416 -0.01782379 0.022978485

network_body._body_endoder.seq_layers.0.weight f4 [256, 41]
000000 e0 8a 29 3e 1c 9d a1 bd 03 43 9f bd 0e 7b 08 bd
       0.16556883 -0.07891294 -0.07776453 -0.03332048
000010 39 f8 64 3e 49 7d 3e 3e 4b ee 0b 3c 7f a6 71 3e
       0.22360314 0.1860248 0.0085407 0.2359867
000020 0d 13 26 3d 9c 5d d9 3d 0e 23 40 3c b1 70 67 3e
       0.040545512 0.10613558 0.011727108 0.22601582
000030 11 1f 8f 3d 76 bd 52 3d 16 02 4e 3e 4e 50 da bd
       0.06988347 0.051450215 0.20117983 -0.10659848
000040 02 cc 75 bd 8c 5b c3 bd d7 e9 fb 3d b5 36 39 3e
       -0.06000901 -0.095389456 0.12300461 0.18087275
000050 f8 cd 81 bb a5 55 d7 bd 0a 18 ef 3d ad ec f2 3d
       -0.003961321 -0.10514382 0.11674507 0.118615486
000060 e4 82 0c bd c2 ee 15 3e 47 bb 34 3e f1 bf 66 3e
       -0.034304515 0.1464186 0.17649566 0.22534157
000070 78 2c 0b be 65 b3 89 3e f5 24 d0 bd 51 a9 5f 3e
       -0.13591182 0.2689468 -0.10163299 0.21841933
000080 51 53 ae 3d 98 af 74 3e 6f bf 85 bd 9a 93 29 bc
       0.08511985 0.23895109 -0.06530654 -0.010350132
000090 ee 1b 33 3e a0 18 a0 bd 8f af 82 bd 0c 5f af bd
       0.17491123 -0.07817197 -0.063811414 -0.08563051
0000a0 8b f3 d6 3d 89 6d 4a 3d 42 5e 41 bd fe 34 64 bd
       0.10495671 0.049420867 -0.047209032 -0.0557146
0000b0 24 5f a6 3d 37 0c 01 be 42 b4 5e be 8d 4b ed 3d
       0.081236154 -0.12602316 -0.2174845 0.11586676
0000c0 e2 66 71 be ab 0e e6 bd 4f 9f 3c be f3 62 2f be
       -0.23574403 -0.112332664 -0.18420146 -0.1712759
0000d0 87 ef 67 be d7 01 27 bd a8 27 05 be f8 20 21 3e
       -0.22649966 -0.04077324 -0.13003409 0.15735233
0000e0 ca b8 1a bc aa 54 55 be 3d d1 1c be 6c d6 02 3e
       -0.009443471 -0.20833078 -0.15314193 0.12777108
0000f0 75 4c 7f be 0f 4b 22 be 6b 41 3b 3e 7a cb 75 be
       -0.2493151 -0.15848945 0.18286674 -0.24003401
000100 cb 10 14 bd a2 4a c4 3d d6 cb a2 be 51 86 5d 3e
       -0.036148828 0.095845476 -0.3179614 0.21633269
000110 96 40 0f 3d 97 2d 16 be d3 09 fa 3d 66 a1 bf bd
       0.034973703 -0.14665829 0.12208905 -0.09356956
000120 62 09 2c bd bc ed 9d bd 0f f9 25 be b4 2f 98 be
       -0.042001136 -0.0771136 -0.1620829 -0.29723895
000130 23 f4 36 bb 5a 62 09 be 57 d0 67 be a5 73 8d 3d
       -0.0027916513 -0.13416424 -0.22638069 0.06906823
000140 b4 7a f9 bd cc 65 94 be a3 75 55 be 6a 0e 20 be
       -0.12181607 -0.28983915 -0.20845656 -0.15630499
000150 2c ed 5e 3e a1 d2 49 3d c1 28 dd 3d 65 85 79 3e
       0.21770161 0.049273137 0.10798789 0.24367292
000160 87 a7 b0 3d bd 53 4c 3d 54 0c 46 bb 09 c8 a2 3d
       0.08625703 0.049884547 -0.003021975 0.0794831
000170 1a fa 3f 3b 18 9d 02 3e b1 25 65 3e ab 74 c9 bc
       0.002929336 0.12755239 0.2237766 -0.024591764
000180 88 4b 55 3e f8 b7 94 be 7e 9d 71 3d 74 c8 07 3d
       0.20829594 -0.29046607 0.058988087 0.03315015
000190 ae db 0d be 19 56 b3 3d ad 0c d3 3d 10 1b 14 3e
       -0.13853332 0.08756656 0.10305152 0.14463449
0001a0 e6 1b 8c 3d 48 ec 1d 3e 4f 9e ec 3c 90 04 93 3e
       0.06841259 0.15422165 0.028884081 0.28714418
0001b0 94 de 89 3e 73 a6 dc bd 6b c4 6d 3e 42 80 56 be
       0.26927626 -0.10773935 0.23219459 -0.20947364
0001c0 e3 77 a1 3c 8d 4c 7a bd 57 ae 23 3e 5a 0b f9 bd
       0.019710487 -0.06110816 0.15984474 -0.12160368
0001d0 f6 75 01 3d d4 93 54 3e 34 b5 af bd ca 8b de bd
       0.031606637 0.20759517 -0.08579484 -0.108665064
0001e0 ac e3 cf bd 05 a5 cf bd 26 c3 04 3e c7 64 3c 3e
       -0.10150847 -0.10138897 0.12965068 0.18397819
0001f0 64 fc 24 be c0 18 06 ba d7 68 1e 3e 21 ce ea 3c
       -0.16111904 -0.00051153824 0.1546968 0.028662743
000200 82 a1 6f bd 4d d9 99 be 42 b9 44 3e dd 55 68 be
       -0.058503635 -0.300486 0.19211295 -0.22689004
000210 19 f5 2b 3e e0 58 81 3e d8 a1 14 be e9 94 8d bd
       0.16792716 0.2526312 -0.14514863 -0.06913168
000220 bb a6 a7 bd 1c 64 9c be 4a 30 a7 3b e0 ec 7b 3d
       -0.08186098 -0.30545127 0.005102192 0.0615052
000230 ba a1 55 3e 8f c7 81 bc 8d a1 17 bd 8f e3 ba be
       0.20862475 -0.015842227 -0.0370193 -0.36501738
000240 b4 94 0b 3e 46 bf 1c 3e 72 4b 42 be e1 bd 3c 3e
       0.13630944 0.1530734 -0.18974093 0.18431808
000250 76 0d 95 be ed 38 85 3d 70 01 60 bd 8a 67 27 3d
       -0.29111832 0.06504998 -0.05468887 0.040870227
000260 19 51 05 3e 70 26 82 bc d6 c8 b7 bd 02 ce a2 bc
       0.13019218 -0.015887469 -0.08973853 -0.019873623
000270 67 6c 48 3e 62 37 e7 3c 9d 0e 5b 3e bb e4 9c 3d
       0.19572602 0.02822465 0.21392293 0.076608144
000280 e4 d4 09 be 28 af 80 3e 57 06 2b 3e 66 7d 1f be
       -0.13460118 0.25133634 0.16701637 -0.1557518
000290 a9 33 8c 3d dd 85 25 be 9e 57 9a be 1c 05 71 be
       0.06845791 -0.16164346 -0.30144972 -0.23537105
0002a0 a8 4b ed bd ec 55 c0 bd d4 1d 4d bd c6 a4 05 bd
       -0.11586696 -0.09391388 -0.050077274 -0.032627843
0002b0 03 3f f2 bd da e3 bc 3d 3a 44 1a 3d fa a6 12 3c
       -0.11828425 0.09223147 0.037662722 0.008950943
0002c0 94 4d 99 3d 8b 4f c8 3b bd 67 38 be b1 f4 e9 3d
       0.074855 0.006112998 -0.18008323 0.11423624
0002d0 c7 e7 85 3e 73 23 67 bd 6c 42 80 3e ec ef 6c 3e
       0.26153395 -0.05643029 0.25050676 0.23138398
0002e0 7a a9 b9 be 39 e9 4e bd d5 da 18 bd fe 82 ac bd
       -0.36262113 -0.050515387 -0.03731807 -0.08423422
0002f0 b1 04 d9 3d ad 91 24 3d d0 3d 01 3e 7a 81 8e 3e
       0.10596598 0.04017799 0.12621236 0.27833158
000300 0f 1e 20 be 32 f9 1d 3d 1d 24 a2 bd 0d c5 ca bc
       -0.15636466 0.03856773 -0.07917044 -0.024752164
000310 77 22 25 3a 86 45 75 3e f9 60 8c 3e d0 78 69 3e
       0.0006299386 0.23952302 0.27417734 0.22799993
000320 f1 44 0f 3d d9 78 ba 3d 9b 96 3e bd 3e 22 a7 be
       0.034977857 0.09105081 -0.046530347 -0.32643312
000330 d3 05 ad bd 55 77 55 be c0 c2 d0 bc e8 18 71 be
       -0.084483765 -0.20846303 -0.025483489 -0.23544657
000340 cb 1c 06 be 40 9b 03 be 23 fc 89 be 43 f2 c8 3d
       -0.13096921 -0.12852192 -0.26950178 0.09811833
000350 3a 3a 85 3e c7 88 10 be 58 54 79 be 4e 40 4d bc
       0.26020986 -0.14114676 -0.24348581 -0.012527538
000360 91 eb 0e be d5 c7 d0 bd 35 2c bd bd b5 26 5f 3e
       -0.13957049 -0.10194365 -0.092369474 0.2179211
000370 0a a9 28 be 24 d3 21 3e 7e 52 6d bd b4 97 6f 3d
       -0.16470733 0.158032 -0.05794 0.058494285
000380 e5 52 7f 3e 90 8e 4c bd 35 ea 17 3e 01 28 85 3e
       0.24933966 -0.049940646 0.14835437 0.26007083
000390 8e 32 18 3e bc 2f 00 be be c5 0c 3c 96 ac 93 3e
       0.14863035 -0.12518209 0.008592067 0.2884261
0003a0 0a fd 98 3d 01 bf 30 be 9e 6c 72 be f0 4d 1b 3e
       0.07470138 -0.17260362 -0.23674247 0.1516645
0003b0 10 ce a4 3e aa 9a 68 bd 32 81 b5 3e bf 1c 4b 3e
       0.32188463 -0.056788124 0.3545013 0.19835185
0003c0 b8 78 dd 3d 80 28 d7 bd 14 08 0a be 01 cb 3d 3e
       0.10814041 -0.10505772 -0.13479644 0.18534471
0003d0 f8 2b de 3d a3 49 10 be 29 24 b7 3e da 91 93 bc
       0.1084823 -0.1409059 0.35769776 -0.018013883
0003e0 c9 c4 30 bd 02 5c 4b be 3c 95 15 bd 52 e0 a1 3d
       -0.04315642 -0.19859317 -0.036519274 0.07904114
0003f0 1c 14 eb bb db 06 bd 3d 35 50 71 3e 24 e9 e3 bd
       -0.007174028 0.09229823 0.23565753 -0.111284524

network_body._body_endoder.seq_layers.2.bias f4 [256]
000000 9d cb 17 bd 35 c2 e7 3c d3 ae 5b 3c 6e 60 cc 3c
       -0.037059415 0.028290847 0.013408381 0.024948325
000010 02 d6 6a 3c d9 b4 bd 3c f0 7d 2e 3c 7b 19 cc 3c
       0.01433325 0.023157524 0.010650143 0.024914494
000020 1d 09 18 bd a9 b0 c0 3c 85 25 b3 3c 39 5e 7a 3c
       -0.037118066 0.023521738 0.021868477 0.0152812535
000030 fc 21 d3 3c 01 7a a5 3c 8b 4d 81 bc cd c2 f3 3c
       0.025773041 0.020199778 -0.015784046 0.029755974
000040 49 b7 af 3c 13 30 8f bc 8b dd 04 3d e2 a1 f7 bc
       0.021449702 -0.017478978 0.032437842 -0.030228559
000050 42 f8 d7 3c 6f 1c e5 3c 1f 93 9c bc 43 9d 29 bd
       0.026363496 0.02796766 -0.019113122 -0.041409742
000060 48 7a c2 3c 7a 28 57 bc f3 db 18 3c 68 ed 88 3c
       0.023739949 -0.013132209 0.009329784 0.016714767
000070 03 93 92 bc 94 9d a1 3c ba 15 ba 3c eb f9 70 3c
       -0.017892366 0.01972846 0.022715438 0.014708023
000080 6d 15 e7 bc c4 8a a6 bc 09 26 1c bd a0 c5 41 3b
       -0.028208459 -0.02032984 -0.03812221 0.0029567257
000090 ce a6 94 3c 92 d8 8d 3c d2 bc 66 bc b2 a1 9c bc
       0.018145945 0.017315183 -0.014083104 -0.019120071
0000a0 6e 96 f0 bc f4 d8 bb bc fc cb a0 bc 1d 61 ce bc
       -0.029368605 -0.0229306 -0.019628517 -0.025192792
0000b0 26 80 99 3c 5d 95 e0 3c 99 a8 c4 3c 29 2d 1b 3c
       0.018737864 0.027414972 0.024006175 0.009471216
0000c0 74 16 a4 bc 40 5a fb 3c bb 16 83 bc 94 39 b4 3c
       -0.020030238 0.030682683 -0.01600205 0.022000112
0000d0 90 d5 f9 3c 07 69 a7 bc 0e 18 8c bb 7b 80 d6 3c
       0.030497342 -0.020435823 -0.0042753285 0.026184311
0000e0 de 9e d9 3b a8 10 09 bd 55 ec 02 bc 5a 99 f7 bb
       0.006641253 -0.03346315 -0.007990916 -0.0075561227
0000f0 a3 4f c0 3c 78 76 e8 3c 2e dd 9a bc ce 20 93 ba
       0.023475474 0.028376803 -0.018904295 -0.0011224987
000100 2e 46 b6 bc 66 f2 b8 3b a1 20 64 bc 6c b0 8d 3c
       -0.022250261 0.0056441305 -0.013923795 0.017296039
000110 db f5 d9 bc 37 7e d2 3a 20 e1 bd 3c b3 e6 ee bc
       -0.02660649 0.0016059343 0.023178637 -0.02916274
000120 59 c0 0c 3d 40 77 61 3c 6a 1b f8 3c b6 37 1c 3b
       0.034363125 0.013761342 0.03028651 0.0023836917
000130 f7 37 e5 bb fa 49 c5 3c 87 41 aa bc ed 87 bd 3c
       -0.006995197 0.024083126 -0.020783199 0.023136104
000140 16 8f a2 3c be a6 33 3c 4b 14 05 bb 51 c7 e0 bc
       0.01984362 0.010965047 -0.0020306285 -0.027438791
000150 4d f9 76 3c 9a 93 ca bc d5 df ba bc 27 91 6f 3c
       0.015074086 -0.024728585 -0.02281181 0.014622009
000160 f0 1c 16 3d 84 ff 0f bd ec 5a da bc d2 f3 ab 3c
       0.03664869 -0.035155788 -0.026654683 0.020990286
000170 ec 13 9f 3c f7 ff dc 3c 09 03 90 bc 56 da a0 3c
       0.01941868 0.026977522 -0.017579572 0.01963536
000180 8e 9d 8a 3c 8c c4 b4 3c 64 a0 f6 3c 86 09 b8 3c
       0.016920831 0.022066377 0.030105777 0.022465479
000190 4d 54 e3 bc bf fb e5 3c f1 9e 1c bd 41 3b c5 3c
       -0.027750159 0.028074143 -0.038237516 0.024076106
0001a0 e3 f0 67 bc 6c 38 4e 3c df 07 45 bc 08 19 a2 3c
       -0.014156553 0.012586694 -0.012025802 0.019787326
0001b0 3c 41 8b 3c 95 a1 df bc 8b 0f c2 3c a7 5f da 3c
       0.01699888 -0.027298728 0.023689052 0.026656939
0001c0 e1 0e fb bc 2b 5c 36 bd c9 c9 7f bc 69 5d 1b bd
       -0.030646743 -0.044521492 -0.015612074 -0.03793088
0001d0 7e a5 ae bc 6b ef 06 bc 7b e1 92 3b 55 7a fa 3c
       -0.021319147 -0.008235793 0.004482446 0.03057591
0001e0 a1 af e1 3c 79 1a 07 3d 85 8d 8a 3c 72 9d 7b 3c
       0.027549567 0.03298423 0.016913185 0.015357362
0001f0 a0 dc 3d 3c c0 52 83 bb 57 3b cb 3c 66 9a 36 3c
       0.011588246 -0.0040076673 0.024808569 0.01114521
000200 9d e5 ed ba 35 67 71 3c 31 76 db 3c 10 de f0 3c
       -0.0018150095 0.014734079 0.026789756 0.029402763
000210 ac ff f4 3c a8 ce c5 3c 97 db 37 bc 85 b0 00 3d
       0.02990707 0.024146393 -0.011221788 0.031418342
000220 4a 1a 1a 3c 18 59 b4 3b 22 8a 67 3b ed ef b2 3c
       0.009405682 0.005503785 0.0035330136 0.021842921
000230 7c b0 03 3c 2a 51 90 3c 4b dd 87 bc eb eb 99 bc
       0.008037683 0.017616827 -0.016585013 -0.018789252
000240 43 ba 94 bc c7 da c4 ba 92 4a 80 3c e7 c3 05 bd
       -0.018155223 -0.0015018814 0.015660558 -0.03265753
000250 23 0f b0 3c 35 31 89 3c a7 07 b7 3c fd 94 13 bd
       0.021491593 0.016747097 0.022342516 -0.03603076
000260 23 3c 1e bb d8 ff ab bc d6 03 ef bc d3 41 8f 3c
       -0.002414473 -0.02099602 -0.029176634 0.017487442
000270 fc ab df 3c 38 34 bd 3c 06 23 22 bd 6f 45 cd bc
       0.027303688 0.023096189 -0.039584182 -0.025057523
000280 70 64 8c 3c 4a 8b 01 3d 28 c9 4e 3c 27 ec d9 3c
       0.017137736 0.031626977 0.012621202 0.026601864
000290 4c 31 a8 3c 16 c8 b8 bb eb 62 02 bd 0e e6 aa 3c
       0.02053132 -0.0056390865 -0.031832617 0.020861652
0002a0 04 28 41 bb c4 72 7d bc 03 51 07 3d 82 87 80 3c
       -0.0029473314 -0.015469257 0.033036243 0.015689615
0002b0 20 9b d0 3c 26 5f e1 bc e1 88 e5 3c 80 2e 7b 3c
       0.025464594 -0.02751119 0.02801937 0.015330911
0002c0 eb 60 cf bc ba 92 a6 bc 59 f7 02 3d 34 12 f3 bc
       -0.025314769 -0.020333637 0.03197417 -0.029671766
0002d0 a9 fd 52 bc 88 ba 83 3c b0 1b f4 3c 53 da 17 bd
       -0.01287786 0.016080156 0.029798359 -0.037073445
0002e0 fc ba 26 3b 60 ed c7 3c 6a b3 df 3c 0c 9b c3 3c
       0.0025441041 0.024405181 0.027307231 0.023877643
0002f0 56 25 74 3c e6 10 ba bc 8b f8 03 3d 21 17 93 bc
       0.01490148 -0.022713136 0.03221945 -0.017955365
000300 d4 e2 c8 3c a0 cc 8a bc c2 27 fb bc d6 1f 7f 3c
       0.024522223 -0.016943276 -0.030658606 0.015571555
000310 a1 92 e5 3c 1b ea 02 bd ff 6e 11 bc 21 a5 c8 bc
       0.02802402 -0.03196154 -0.008876561 -0.024492802
000320 03 03 dc 3c b4 26 82 bc 7c 28 0f bd 7c fc 37 3c
       0.026856905 -0.015887596 -0.03495072 0.011229631
000330 03 55 c2 3c 15 4b cf 3c 3d 62 ca bc fd a6 1b bc
       0.023722177 0.025304357 -0.024705047 -0.009500262
000340 5f fe c3 bc 6d 57 04 3d be 31 08 3a d3 73 2a 3c
       -0.023925005 0.03230994 0.00051954004 0.010403591
000350 85 92 b4 3c da f3 96 3c 0c 4a 48 3c 5a 06 cc bc
       0.022042522 0.018426824 0.012224685 -0.024905372
000360 5a 44 e0 3c f2 9a 93 bc c8 5b 58 bc 95 9b 35 3b
       0.027376343 -0.01801822 -0.013205476 0.0027711142
000370 e1 dd bf 3c 5b 42 b3 3c 7e 2b f0 3c 29 e8 f5 bc
       0.02342123 0.021882227 0.029317614 -0.03001793
000380 f8 65 e3 3c c8 9b 8d 3c e7 e9 c6 3c 49 bb 99 bc
       0.027758583 0.017286196 0.024281455 -0.018766062
000390 4b 33 92 3c e3 f6 fc bc c5 d6 ea 3c 64 8b 0c 3d
       0.017846724 -0.030879444 0.028666863 0.03431262
0003a0 4c 57 b2 3c 6d 2a 88 3c ac 48 d7 bc 16 87 dc 3c
       0.021770142 0.016621793 -0.02627977 0.026919883
0003b0 b8 86 e6 3c 47 1e bd 3c e1 65 91 bc 14 c6 88 3c
       0.02814041 0.023085726 -0.017748775 0.016696014
0003c0 77 c8 82 bc 23 7e 9e bc e9 c7 f9 3c 7a 9f 7a 3c
       -0.01596473 -0.019347256 0.030490832 0.015296811
0003d0 7d d7 eb 3c 4b ce 23 3c 3e a9 ea bc 71 9e 9b 3c
       0.028789276 0.009997915 -0.028645154 0.01899645
0003e0 c9 d8 b5 3c d7 68 5a 3c c1 dd ae 3c d9 9b e3 bc
       0.022198098 0.01333066 0.021345975 -0.027784275
0003f0 13 60 c7 3c 9f 75 0b 3d b5 8d 44 bb f0 f7 59 3c
       0.024337804 0.03404772 -0.002999169 0.013303742

network_body._body_endoder.seq_layers.2.weight f4 [256, 256]
000000 df f9 c1 bc c9 6d fb bd 73 94 93 3d f5 44 b0 bd
       -0.023678718 -0.12276799 0.07206049 -0.086069025
000010 41 37 da 3a 12 28 ce 3d ab 50 65 bd a9 ce 6f bd
       0.0016648547 0.100662366 -0.055985134 -0.058546696
000020 4f 17 f2 bb e0 2b 7c 3c 84 fa e1 bd ee 48 bf bd
       -0.0073880325 0.01539132 -0.1103411 -0.09340082
000030 e5 be 21 3a cd d0 3b bd 99 55 0e bd 11 a7 4d 3c
       0.0006170108 -0.045853425 -0.0347496 0.012552039
000040 b0 2c a5 3d c9 b7 01 3c 29 09 03 3e 36 45 0e 3c
       0.08065164 0.007917353 0.12796463 0.008683493
000050 66 bc 70 3d 8b 2a 6f 3d d4 48 e2 3d b2 f9 02 bd
       0.05877342 0.05839018 0.11049047 -0.03197641
000060 00 37 2d 3c b5 df 8b bc 1c b8 de bc 5d 29 6a 3d
       0.010572195 -0.017074445 -0.0271874 0.057168353
000070 ca ee b2 3c 6f c3 8b bd 3f 0a 13 3d 64 39 24 3d
       0.02184238 -0.068243854 0.035898443 0.040093794
000080 8c c9 d9 bd 3d 76 cc 3d 31 f9 8b bc 38 41 fe 3b
       -0.10634145 0.0998349 -0.017086597 0.0077592395
000090 fe 36 75 3d 19 79 12 bb 13 ed e2 bd 4e 90 80 3b
       0.059866898 -0.0022350012 -0.110803746 0.0039234525
0000a0 4f 82 48 3d fb f4 ee 3c 08 5d a0 bd 0b 01 37 3d
       0.048952397 0.02916955 -0.07830244 0.04467873
0000b0 4b 89 c1 bd f0 0f 0d be a8 83 b7 3b 08 ad 13 3d
       -0.09450015 -0.13775611 0.0056004114 0.036053687
0000c0 90 3f 29 bd fe f5 a6 3c c1 91 4d bd e7 86 88 3b
       -0.041320384 0.02038097 -0.05018783 0.0041664722
0000d0 91 41 b4 3c 88 bb 59 bc 49 94 08 3d 70 06 c8 3c
       0.02200392 -0.01328934 0.03334454 0.024417132
0000e0 08 04 79 bd d4 4f a9 3a df 55 11 bd fb fa 5d 3c
       -0.06079486 0.0012917467 -0.035482284 0.013548608
0000f0 a0 18 01 3d 5e 46 c6 bd 34 4a 0e 3d 49 75 07 bd
       0.031517625 -0.0968139 0.034738734 -0.033070836
000100 55 1b d5 bd 5d a6 1a 3d d0 18 ac bd 8e 8a 36 bd
       -0.10405604 0.037756313 -0.0840317 -0.04456573
000110 49 43 30 be bb 42 5d 3d af 5b 58 bd c8 6b 23 3d
       -0.17213167 0.054018717 -0.05282181 0.03989771
000120 9a 4d f9 39 7c 19 91 bd bf 33 cb 3c 74 59 55 3b
       0.000475508 -0.07084939 0.024804948 0.003255454
000130 3f 18 19 bc 8a c7 bb bc f6 27 d0 bd 90 60 ed 3c
       -0.00934416 -0.022922296 -0.10163872 0.028976709
000140 82 d9 34 3b 27 2b e6 bc 20 96 f1 3b e5 75 38 bd
       0.0027595465 -0.028096749 0.0073726326 -0.045034308
000150 fe ec d9 bd 9a af 1c 3d 6f 17 ea 3b a7 3e c5 bc
       -0.10640906 0.038253404 0.007143907 -0.024077727
000160 dd ad 31 3c 27 b9 da 3c 60 21 0d 3c f3 d8 6d bd
       0.010844675 0.026699616 0.008613914 -0.058068227
000170 c7 49 13 be 14 a1 44 bd 21 de db bc 3e 20 e7 bd
       -0.14383613 -0.04800518 -0.026839318 -0.112854466
000180 0b 01 a2 bd 43 62 56 bd 58 93 4f 3d fb dc 9a bd
       -0.07910355 -0.052339803 0.050677627 -0.0756168
000190 f0 5f 91 3d 0f dd 7d bc dd 1a d8 3d b9 46 af 3b
       0.07098377 -0.015494599 0.10551999 0.005349007
0001a0 b0 68 b6 bd 43 c8 ef bc f9 de e4 bc ca 52 06 3d
       -0.08906686 -0.029270297 -0.027938353 0.032793798
0001b0 1c f3 4e 3d b0 b0 96 3b 21 57 0b bd 55 39 d4 ba
       0.050524816 0.0045986995 -0.03401864 -0.0016191403
0001c0 63 af c9 bd 8d 78 d4 bc ab a8 dd bd b6 6c 4c 3d
       -0.098479055 -0.02593639 -0.108231865 0.049908362
0001d0 7b 34 db 3c b6 f5 95 3d 26 b6 39 3c 6c bf 96 bc
       0.026758423 0.07322256 0.0113349315 -0.018401824
0001e0 70 fb 51 3c c9 8d e9 bd 86 de 50 bd f9 a4 4d 3d
       0.012816295 -0.114039965 -0.050993465 0.05020616
0001f0 1b 97 12 be 15 2d 1d bd 32 34 da bd 80 12 fb 3b
       -0.14315455 -0.03837307 -0.10654487 0.0076621175
000200 1b 37 00 bd 73 59 8e bd f6 5a 61 bd 68 11 f7 3c
       -0.031302553 -0.06950655 -0.055018388 0.030159667
000210 c1 e2 09 bd 18 94 40 3e 7b fa 4e bd 63 07 7c bd
       -0.033663515 0.18806493 -0.050531846 -0.061530482
000220 a5 bd c7 bc d3 e6 24 3c 5c d2 6e bd e6 fa f5 3d
       -0.024382422 0.010064798 -0.058306083 0.12010746
000230 a1 09 67 bd 2d 75 33 bc c7 ab 13 bd aa c8 5a 3d
       -0.056405667 -0.01095323 -0.03605249 0.053414024
000240 3d 7f b9 3c 9b 85 ba bc bb 84 c1 3d e8 4c 02 be
       0.02264368 -0.022768786 0.094491445 -0.1272465
000250 e2 eb a2 bd 25 f5 a5 3d 8a 3c ea 3c 1d 71 29 3d
       -0.07955147 0.08103398 0.02859332 0.04136764
000260 ed e9 99 bd a9 c6 12 3c f2 4a e4 bc e1 18 c1 bd
       -0.07515321 0.008958497 -0.027867768 -0.094285734
000270 8a f2 02 be a9 84 7d bd 39 30 71 bd 0f 78 f3 3b
       -0.12787834 -0.061894093 -0.05888388 0.0074300836
000280 6e 4c 4f bd 9e 29 4a bd 70 c5 5a bd 59 ed 3c bc
       -0.05061 -0.049356095 -0.053410947 -0.0115311975
000290 0b 13 55 bd 5f f1 e6 bd 3b d1 37 be 61 de 13 bc
       -0.052020114 -0.11276507 -0.17950909 -0.009025187
0002a0 1e a5 8c 3c da 89 10 be 0a ae 7b bd 26 4d 55 3b
       0.017168578 -0.14115086 -0.061445273 0.0032547205
0002b0 0e 2f 7b bd 36 3a 5e ba 33 e1 3b bd 4e f9 16 3d
       -0.06132417 -0.0008477302 -0.045869064 0.03685885
0002c0 9e f9 b3 3d ee 00 cc bc 5c ad e7 bd 90 2d 21 bc
       0.08787845 -0.024902787 -0.113123626 -0.009837523
0002d0 71 98 a0 3d 13 09 bb bc 47 d9 13 bd 80 08 8f bb
       0.07841576 -0.022831475 -0.036095884 -0.004365027
0002e0 72 d0 66 bd 0f 18 22 bd e1 e8 99 bc fe 40 bb 3c
       -0.056351133 -0.039573725 -0.018787803 0.02285814
0002f0 8f 7e 07 3d 9a 1b 36 bd 6b 81 cc bc db b1 7d 3c
       0.03307968 -0.044459917 -0.024964055 0.015484299
000300 58 65 22 3d 69 53 58 3d ed 8b 50 bd 4f 71 a7 bd
       0.03964743 0.05281392 -0.050914694 -0.08175909
000310 7c 3a 14 bd 99 2f fa 3c 0b 99 16 bd f1 1c 18 bd
       -0.036188588 0.030540274 -0.036767047 -0.037136976
000320 06 59 f8 bd ae 5a c9 bd a3 89 c5 bd 64 f3 20 be
       -0.12126355 -0.09831749 -0.09645393 -0.15717846
000330 0d 39 92 bd f0 b4 4f bd 72 4c 0d bd 8c e1 26 3d
       -0.07139788 -0.050709665 -0.034496732 0.040742442
000340 91 d9 85 3d 1b c3 ef bc 3e b3 95 bd 4f 26 94 bd
       0.06535638 -0.029267838 -0.07309578 -0.07233869
000350 18 09 a4 bd 4c ff 0a bd 45 57 dd bc cf fe c9 bd
       -0.08009547 -0.033934876 -0.027019152 -0.09863054
000360 d0 d8 e0 bc e7 be 13 3d 51 68 80 bd f8 2d 2f 3d
       -0.027447134 0.03607073 -0.06269897 0.04276845
000370 7f ba bf bd 4b 6c a7 bb 6c 5b d3 bc 25 17 9d 3d
       -0.09361743 -0.005109345 -0.02580043 0.0767043
000380 80 56 78 bd b9 c2 cc 3c c4 f4 bd bc ef bf e5 bc
       -0.060629368 0.024995195 -0.023188002 -0.028045623
000390 d4 83 b3 bd 37 d2 ad 3d 48 dd 0b 3d 1f 2c 58 3d
       -0.087653786 0.08487361 0.034146577 0.052776452
0003a0 01 74 c9 bc be f1 39 3c b2 c2 bb bd 63 22 87 bd
       -0.024591448 0.01134914 -0.091679946 -0.065983556
0003b0 b1 dd d7 3d aa ec ba bd b7 44 1e 3d e7 7c 0a be
       0.10540331 -0.09127171 0.03863975 -0.13524209
0003c0 d1 f9 41 be d1 de e4 3d 25 81 3c 3c 37 d5 f0 bb
       -0.18942954 0.11175311 0.0115054 -0.007349636
0003d0 ab 87 2f 3c 99 6d 6a bd 41 3e a3 bc a5 4e 97 bd
       0.010713498 -0.057233427 -0.019927146 -0.07388047
0003e0 a6 d2 77 3b cf 3e 49 3c 90 f9 67 3d 04 b3 93 3c
       0.0037814765 0.012283041 0.056634486 0.018029697
0003f0 82 3f 83 3d 71 d9 40 bd 00 76 9e 3d f3 89 e2 bc
       0.064085975 -0.04708237 0.077373505 -0.02765367

network_body._body_endoder.seq_layers.4.bias f4 [256]
000000 a8 1a 39 3c 72 75 aa 3c 4f 71 bc 3c 84 9c 93 3c
       0.011297859 0.020807955 0.023003248 0.018018968
000010 2e 96 c0 bb 06 87 01 3d 0c 2c 06 3d 6a c4 07 ba
       -0.005877278 0.03162291 0.03275685 -0.0005179109
000020 c0 2c b6 bc ca c5 a0 bc 37 f5 e5 bb 33 f2 c2 3c
       -0.022238135 -0.019625563 -0.0070177573 0.02379713
000030 a7 dd de 3b c4 a6 f2 3c 3d 28 f8 bb b2 3c 84 3c
       0.0068013254 0.029620536 -0.007573156 0.016142223
000040 55 25 d7 3c 0c 5d c2 bc 69 21 d4 bc 3f d7 ac bc
       0.026262918 -0.023726009 -0.025894837 -0.021098731
000050 1e 49 2d 3c 1c 1a f4 bc 61 f5 dd 3c e9 9b 80 bc
       0.0105765145 -0.029797606 0.027094545 -0.015699344
000060 78 34 fd 3c 98 4e 7a 3c 3a b7 bc bc a2 46 4c bc
       0.030908808 0.015277527 -0.023036588 -0.012468012
000070 7e dc db bc dd 0f 02 bc cd f4 db 3c 7a 6c 78 3c
       -0.026838537 -0.007938352 0.026850129 0.015162582
000080 67 66 e2 bc 9e e5 ad 3b 5f 8e a3 bc 52 0e bf 3c
       -0.02763672 0.0053069135 -0.019965349 0.023322258
000090 f1 9e c3 3c d4 86 ab 3c 93 3d d9 bc 06 3c b8 bc
       0.0238795 0.020938314 -0.026518619 -0.022489559
0000a0 e9 81 2f 3b dd 0a f1 3c c6 e3 d0 bc 72 98 8f bc
       0.0026780313 0.029424125 -0.025499236 -0.017528746
0000b0 a7 1c 8d bc 5b a5 bf 3c 6e 15 e9 3c 26 8a ce 3c
       -0.017225577 0.023394277 0.028452601 0.025212359
0000c0 42 b2 7a 3c 68 0f e6 ba e0 4e f7 3c 36 43 44 3c
       0.015301289 -0.0017552199 0.030188978 0.011978915
0000d0 7e 2f 92 bc 79 36 f3 bc 9a 0e 97 bc 85 ce 8b bc
       -0.017844912 -0.02968906 -0.01843958 -0.01706625
0000e0 57 9a c7 bc ad a1 ea bc be 9d fe 39 0e eb 97 3c
       -0.024365587 -0.028641546 0.00048564182 0.0185447
0000f0 20 0f d2 3c f9 84 d6 3b 27 fa 0f 3b 79 d6 e5 3c
       0.025641978 0.0065466133 0.002196917 0.02805637
000100 02 f6 ca bc 02 5a d5 3c 90 b2 a4 bb c2 c9 d7 bc
       -0.024775509 0.026043896 -0.005026169 -0.026341323
000110 a1 ed 96 bc b7 4d 50 bc a0 e8 c2 bc ae bf 6d 3c
       -0.018423857 -0.012713841 -0.023792565 0.014511032
000120 a0 01 dd bb 60 c6 92 bc 82 50 f6 3b 15 94 7c 3c
       -0.0067445785 -0.017916858 0.0075169215 0.015416165
000130 18 0a ca bc fd 18 e7 bc 47 46 9c 3c 65 33 96 3c
       -0.024663016 -0.028210158 0.01907648 0.018335054
000140 79 78 d5 bc 08 5e b1 bc f0 08 f7 3c 06 98 f4 3c
       -0.026058422 -0.021651283 0.030155629 0.029857647
000150 85 d9 f2 3c 52 db 01 bc 83 67 a8 bb df 9c c8 3c
       0.029644737 -0.007925825 -0.0051392927 0.024488864
000160 11 38 e4 3c fe 2b 88 3c 39 13 e8 3c 42 6e cb 3c
       0.027858766 0.01662254 0.028329479 0.024832848
000170 02 6b b7 bc b6 f5 ea 3b aa 97 b2 3c 7a ae f8 3b
       -0.022389892 0.0071704043 0.021800835 0.0075891586
000180 23 96 d5 3c 3b a1 e3 bc 4a 0c b1 3c 8b 59 c4 3c
       0.026072567 -0.027786842 0.021612305 0.023968479
000190 09 17 7f bc ac 93 95 bc 8a c2 c4 bc 12 d3 3c bc
       -0.015569457 -0.018258892 -0.024018545 -0.011524932
0001a0 ec bc cb 3a 3a d8 f2 3c 71 1e c0 3c 1f f5 03 3d
       0.0015543974 0.02964412 0.023452016 0.032216188
0001b0 d9 a5 7d bc c5 28 01 3d 54 e5 ce 3b 2e f2 f2 3c
       -0.015481436 0.03153302 0.006313959 0.029656496
0001c0 ae f3 ca 3b 4a 9b b1 3c 3c e1 b0 bc b9 bc ec 3c
       0.0061935997 0.021680493 -0.021591775 0.028898584
0001d0 9c b6 ee 3c ca 4a 58 bc ff ae e2 3c 3c 69 b0 bc
       0.02913981 -0.013201425 0.027671335 -0.021534555
0001e0 e0 fb e1 bc 4e 43 0d 3d 71 ee c9 3c 39 a7 80 bc
       -0.027585924 0.034488015 0.02464983 -0.015704738
0001f0 07 43 ea 3c 1a 5b 45 bc 3e 07 df bc 89 cd 0c 3d
       0.028596414 -0.012045646 -0.027225133 0.0343757
000200 d7 36 c8 bc 0d 4f 98 3c bc 0b d1 bc eb 43 00 3d
       -0.024440212 0.018592382 -0.02551829 0.03131477
000210 c2 87 51 3c 1e 7b 78 bc 67 22 bb bc 7f bb 8b bc
       0.012788715 -0.015166072 -0.022843553 -0.017057179
000220 3c 53 0a bd 8a ce dc 3c 6f 98 84 bb 0c 76 ed 3c
       -0.033770785 0.026953954 -0.004046492 0.028986953
000230 8d 04 e2 3c 63 be 86 3c 1f 6c 9b bc 0c 6b 56 bc
       0.02759006 0.016448205 -0.018972455 -0.013087045
000240 3b 1d cf 3c fc f4 00 3d ed 79 aa bc b7 1d 41 3b
       0.025282493 0.031483635 -0.020810092 0.0029467174
000250 7d 7e 3b bb 59 38 81 3c 30 ce de 3c 9d c4 e9 3c
       -0.0028609328 0.015773939 0.027197927 0.028536135
000260 b4 a4 62 bc 0d b7 cb 3c 7a 52 f8 3c 9d eb 97 bc
       -0.013833214 0.024867559 0.030312765 -0.018544966
000270 b6 f7 c8 bc ba b5 f2 3c 43 d2 33 bc 94 93 c8 bc
       -0.02453218 0.02962767 -0.010975423 -0.024484433
000280 9a 8f e9 39 14 71 dc 3c ee 67 91 bc 50 ec b4 bb
       0.00044548215 0.026909389 -0.017749753 -0.0055213347
000290 53 d4 d2 bc 1c 6f cb 3c 01 ac de bc 32 f7 ce bc
       -0.02573601 0.024833255 -0.027181627 -0.025264356
0002a0 82 76 ad bc d9 83 d0 3c 15 99 35 3c 58 88 7c bc
       -0.021174673 0.025453495 0.011083861 -0.015413366
0002b0 c1 08 a7 3c 63 19 a9 bc 33 fb c4 bc e3 33 07 3d
       0.020389916 -0.020641988 -0.024045562 0.033008467
0002c0 6b 25 8c bc 85 cd 25 bb f4 6e 61 3c 4e 6b 89 3c
       -0.017107686 -0.00252995 0.013759363 0.0167748
0002d0 97 38 c6 bc 0f 2b e2 3c 56 0f 78 3c d2 0a 3d 3c
       -0.024196906 0.027608423 0.015140375 0.011538224
0002e0 e4 89 e2 3c 5e 94 08 3c 2e 7f e7 bc 38 6b be bc
       0.027653642 0.008336155 -0.028258886 -0.023244485
0002f0 68 ec 10 3d b1 c7 67 bc 8d 5c cd 3c 11 1d e4 bc
       0.035381705 -0.014146731 0.025068546 -0.027845891
000300 9c 2d c1 3c 5d 05 b3 bc 58 31 e1 3c c4 c4 da 3c
       0.023581319 -0.021853143 0.02748935 0.026705153
000310 36 f4 32 bc 7a ba d0 bc 92 84 f0 3c 35 e6 bd 3c
       -0.010922482 -0.025479544 0.02936009 0.02318106
000320 b8 16 dc 3c 73 d7 8f bc f9 27 20 bc f6 4f 7a 3b
       0.026866302 -0.017558789 -0.009775155 0.0038194633
000330 62 ef e9 3c a9 6b 40 3a 30 b0 44 3c 22 e7 a1 bc
       0.02855653 0.00073402614 0.012004897 -0.019763533
000340 d4 6f e1 3c e1 9f be 3c 0b 8e a4 bc e0 77 c4 bc
       0.027519144 0.023269596 -0.020087263 -0.023982942
000350 cc ba a2 bc c0 c9 ba ba 24 19 9c bc 3c 8e c2 3b
       -0.019864462 -0.00142508 -0.019054957 0.005937366
000360 ab 18 de 3c c9 cd b5 3c 64 a1 d5 bc 14 7e e5 3c
       0.027111372 0.022192853 -0.026077934 0.02801422
000370 4d bd 96 3b e6 ba 8b bc 43 32 86 3c 86 4f d2 3c
       0.004600203 -0.017056894 0.016381389 0.025672685
000380 51 5a c8 3c 82 82 bf 3c 6c b9 e6 3c b2 fa 88 3c
       0.024457129 0.02337766 0.028164588 0.016721103
000390 2d 0c 57 bc 37 b1 e1 3c 1a 3f f2 bb 5e 00 9e bc
       -0.0131254615 0.027550323 -0.007392776 -0.019287284
0003a0 7f d1 25 bc c1 55 81 3c d3 ff 1a bc 28 f7 5c bc
       -0.010120749 0.015787961 -0.009460407 -0.013486661
0003b0 0a 0f 96 3c e8 80 60 bc 42 55 e7 bc d1 df f9 3b
       0.018317718 -0.013702609 -0.028238896 0.007625558
0003c0 4e e3 cd bc 10 22 66 3c 7b f4 0a bc 02 9e b7 3c
       -0.025132801 0.014046207 -0.00848114 0.022414211
0003d0 29 69 de 3c 9f e9 bb 3c 5e be bd 3c ee 8e e6 3c
       0.027149754 0.022938548 0.023162063 0.028144326
0003e0 11 b4 c6 3c 79 f9 d0 bb a6 53 d8 3c 24 c5 2f bc
       0.024255784 -0.0063773957 0.026407074 -0.010728154
0003f0 b2 e0 d3 3c 96 10 ea 3c 25 c3 a3 3c 00 ed d0 3c
       0.025863979 0.028572362 0.019990513 0.025503635
