Assets/Training/results/b_treasure_test30/TreasureSearch/TreasureSearch-4999984.onnx (onnx, 574627 bytes, 13 tensors)

65 f4 [36]
0.17229432 0.1376518 0.21789142 0.074473925 0.48408613 0.14499629 0.4780872 0.26466742
0.49259147 0.11879758 0.4898906 0.3168963 0.48408312 0.15009563 0.48961768 0.33698177
0.48597288 0.11698618 0.48929295 0.36099228 0.4974376 0.2607245 0.4993284 0.28065896
0.49680448 0.2850595 0.49896803 0.30916688 0.11995127 0.424713 0.43657488 0.103232406
0.11995128 0.424713 0.4365749 0.10323241
00000000: ec6d 303e 98f4 0c3e ee1e 5f3e c985 983d
00000010: 23da f73e e879 143e d8c7 f43e 7d82 873e
00000020: f334 fc3e 254c f33d f1d2 fa3e 3b40 a23e
00000030: bed9 f73e abb2 193e 2baf fa3e e088 ac3e
00000040: 70d1 f83e 7396 ef3d 9b84 fa3e fbd3 b83e
00000050: 24b0 fe3e af7d 853e f9a7 ff3e 88b2 8f3e
00000060: 285d fe3e 52f3 913e bd78 ff3e 1f4b 9e3e
00000070: 03a9 f53d fb73 d93e be86 df3e 836b d33d
00000080: 04a9 f53d fb73 d93e bf86 df3e 846b d33d

68 f4 [5]
2.9183533 4.7909803 0.0018438804 0.0031622264 3.56281
00000000: 4dc6 3a40 b64f 9940 5cae f13a 5b3d 4f3b
00000010: 1405 6440

action_model._continuous_distribution.log_sigma f4 [1, 2]
-0.17799583 -0.3583432
00000000: 8a44 36be c378 b7be

action_model._continuous_distribution.mu.bias f4 [2]
-0.0012384607 0.02890263
00000000: d853 a2ba 35c5 ec3c

action_model._continuous_distribution.mu.weight f4 [2, 256]
-0.053652484 0.0068912013 -0.018312873 -0.030965557 0.045303926 0.0060980767 -0.037545606 -0.029585732
-0.016822316 -0.026131472 0.008407347 0.03595483 0.04900059 -0.010488123 -0.005668641 0.026213191
-0.0027129508 0.017295482 -0.0028151197 0.041047417 -0.039901715 0.0046773134 0.013923581 0.006096845
0.016766148 -0.060392197 -0.01216308 -0.022503441 0.010710048 -0.016560808 -0.026291715 -0.036779776
-0.002866476 -0.04892802 -0.01923377 0.014319706 0.013773519 -0.019387301 -0.009676725 -0.015322034
-0.039436784 0.005271061 -0.0067225266 -0.0132837035 -0.009792843 -0.022565173 -0.023262737 0.004634323
-0.05228219 -0.041179083 0.0017814805 0.032148954 -0.012204333 0.014717558 0.027107947 0.009039793
0.0032999713 -0.00758301 -0.00589451 -0.025813408 -0.0073319026 0.05557857 0.05739346 0.009965968
0.029222302 0.010461606 0.029997302 0.01562139 -0.017617876 0.033664342 0.016483845 -0.048144966
0.032428443 -0.017963385 0.026887272 0.048243 0.0014788887 -0.0032736342 0.028457018 0.03824867
0.0002189927 -0.019749422 0.010729497 0.000739224 0.015682377 -0.029681206 -0.035593707 0.031584542
0.0054977657 -0.032038692 -0.0031095573 -0.017724223 0.0041238153 -0.061304163 0.05732945 -0.039304122
-0.031106984 0.0005479518 -0.028607527 -0.042301845 -0.017414797 0.0041519157 0.011238206 -0.017003255
-0.049141333 0.0019201768 -0.00838841 0.013168648 0.012360937 -0.036310982 0.035657283 0.0138986
-0.06239557 0.00674155 0.017845111 0.01875343 -0.010783869 0.03123561 0.0019719256 -0.016786499
-0.012987543 0.008677104 -0.01632675 0.010115275 0.009024492 0.030691698 -0.011171774 0.009338014
0.00095312874 -0.013056495 0.010679172 0.0068161907 0.044492684 -0.010239891 -0.0118502695 -0.0057228324
0.0060459985 -0.0022193796 -0.051981654 0.003874356 0.010859563 0.043584432 -0.022403566 -0.01041765
-0.01168707 0.019727208 -0.016575286 -0.015550654 0.026041387 -0.05075429 0.019797778 0.0049582743
0.01230367 -0.00229513 0.010334977 -0.03815335 -0.014746472 0.0063498686 0.030818893 0.006297009
0.057063267 0.03004299 -0.027219178 -0.03643396 -0.005398771 0.005604349 0.004172705 0.0082844
0.018333059 -0.015165354 -0.030774219 0.018621521 0.01130795 -0.002708954 0.028498637 0.0257839
0.005492132 -0.043726645 0.04232921 -0.025239768 0.0134559255 -0.011049151 0.03457997 0.010361546
0.038050245 -0.017442135 -0.0010982626 -0.033959333 -0.014451487 0.02091214 0.033752058 -0.0013545441
-0.013754901 0.0070385253 -0.013580653 0.0005184033 0.01401123 -0.0057478514 0.024931893 -0.020048445
-0.025029765 0.023925904 0.048076607 0.0030202765 -0.004087112 0.035561625 -0.051890682 0.006763153
-0.022562739 0.0131351715 0.029116627 -0.01793551 0.010396241 -0.040174466 -0.0030637083 -0.0216289
0.017530603 -0.020405045 0.0017136021 -0.013761423 -0.04366872 0.011075659 0.03669209 -0.026763842
0.040268306 0.05128381 -0.048809238 -0.025284318 0.030430548 -0.02037481 -0.043025054 -0.02738506
0.041607164 -0.03764655 0.031698383 -0.001807205 -0.030473743 -0.02696923 -0.009967065 -0.0093799075
0.0067446707 0.03520339 -0.036411025 -0.029808572 -0.01563558 -0.010831875 0.037308883 -0.019059457
-0.06390445 0.045865063 0.0039232885 -0.038065247 -0.005461855 -0.010258044 0.005550459 -0.0043784636
00000000: b5c2 5bbd 96cf e13b e104 96bc 7bab fdbc
00000010: 9c90 393d 60d2 c73b 6cc9 19bd c75d f2bc
00000020: f4ce 89bc ab11 d6bc f8be 093c 5f45 133d
00000030: d8b4 483d 60d6 2bbc 02c0 b9bb 0cbd d63c
00000040: c3cb 31bb 41af 8d3c df7d 38bb 5621 283d
00000050: fb6f 23bd 2644 993b bb1f 643c 0bc8 c73b
00000060: 2959 893c cf5d 77bd a847 47bc 2359 b8bc
00000070: 3279 2f3c 88aa 87bc b961 d7bc 64a6 16bd
00000080: 7ddb 3bbb bf68 48bd 2490 9dbc 339d 6a3c
00000090: 53aa 613c 1ed2 9ebc 208b 1ebc 4509 7bbc
000000a0: 7788 21bd ddb8 ac3b a448 dcbb e4a3 59bc
000000b0: 2972 20bc 99da b8bc 7f91 bebc 85db 973b
000000c0: da25 56bd 66ab 28bd 9180 e93a 9fae 033d
000000d0: aff4 47bc ea21 713c 7c11 de3c a41b 143c
000000e0: 5544 583b e67a f8bb bc26 c1bb a476 d3bc
000000f0: 7540 f0bb 5ba6 633d 6815 6b3d 4d48 233c
00000100: 9c63 ef3c 2867 2b3c e7bc f53c dcf0 7f3c
00000110: 5d53 90bc 9fe3 093d 2109 873c a833 45bd
00000120: b0d3 043d f327 93bc b242 dc3c 749a 453d
00000130: 45d7 c13a 788a 56bb b11e e93c a3aa 1c3d
00000140: 68a1 6539 8ac9 a1bc c6ca 2f3c 7cc8 413a
00000150: 5478 803c 0026 f3bc b5ca 11bd cb5e 013d
00000160: 9a26 b43b 013b 03bd b7c9 4bbb 6432 91bc
00000170: 1221 873b 131a 7bbd 49d2 6a3d 5cfd 20bd
00000180: 13d4 febc 6ca4 0f3a 555a eabc b344 2dbd
00000190: 7aa9 8ebc cb0c 883b 7420 383c 694a 8bbc
000001a0: 6c48 49bd 71ae fb3a 8b6f 09bc 50c1 573c
000001b0: 8785 4a3c d3ba 14bd 5f0d 123d f4b6 633c
000001c0: 7f92 7fbd 38e8 dc3b e92f 923c cba0 993c
000001d0: d3ae 30bc d2e1 ff3c 6c3b 013b d783 89bc
000001e0: b4c9 54bc 692a 0e3c adbf 85bc 8aba 253c
000001f0: 77db 133c 286d fb3c d109 37bc 78fe 183c
00000200: 63db 793a e9ea 55bc b2f7 2e3c 5a5a df3b
00000210: f63d 363d 37c5 27bc a227 42bc 9986 bbbb
00000220: 831d c63b 0373 11bb b7ea 54bd e8e8 7d3b
00000230: 4fec 313c 9785 323d af87 b7bc cbae 2abc
00000240: 207b 3fbc f49a a13c e5c8 87bc 2cc8 7ebc
00000250: bf54 d53c bbe3 4fbd f32e a23c 0579 a23b
00000260: 5595 493c e469 16bb 0954 293c b046 1cbd
00000270: 309b 71bc 8f12 d03b e777 fc3c 2457 ce3b
00000280: 2cbb 693d b71c f63c c1fa debc c73b 15bd
00000290: 2ce8 b0bb b0a4 b73b 30bb 883b 4bbb 073c
000002a0: 362f 963c 1b78 78bc 371a fcbc 298c 983c
000002b0: fb44 393c b588 31bb f975 e93c c238 d33c
000002c0: 58f7 b33b b61a 33bd 6561 2d3d a1c3 cebc
000002d0: 3e76 5c3c 8007 35bc baa3 0d3d 79c3 293c
000002e0: 93da 1b3d cfe2 8ebc 94f3 8fba f118 0bbd
000002f0: eec5 6cbc f04f ab3c 993f 0a3d f58a b1ba
00000300: 3c5c 61bc 6ea3 e63b 6381 5ebc 75e5 073a
00000310: 5c8f 653c 7958 bcbb f83d cc3c a33c a4bc
00000320: 390b cdbc 4200 c43c faeb 443d d5ef 453b
00000330: 2eed 85bb 11a9 113d 538b 54bd 709d dd3b
00000340: 7ed5 b8bc e734 573c fe85 ee3c 7eed 92bc
00000350: ff54 2a3c fb8d 24bd 7fc8 48bb 172f b1bc
00000360: 579c 8f3c 7b28 a7bc f29a e03a 9777 61bc
00000370: f9dd 32bd ae76 353c 724a 163d d83f dbbc
00000380: 61f0 243d f90e 523d 32ec 47bd 0f21 cfbc
00000390: 7c49 f93c 13e9 a6bc 0a3b 30bd a256 e0bc
000003a0: 466c 2a3d 4533 1abd 2ad6 013d bddf ecba
000003b0: 12a4 f9bc 93ee dcbc e74c 23bc 2fae 19bc
000003c0: 6602 dd3b 6e31 103d ba23 15bd 1b31 f4bc
000003d0: 3016 80bc 2d78 31bc 33d1 183d 9422 9cbc
000003e0: 56e0 82bd 01dd 3b3d ee8e 803b 4eea 1bbd
000003f0: 5cf9 b2bb 5b11 28bc a0e0 b53b 3779 8fbb

network_body._body_endoder.seq_layers.0.bias f4 [256]
0.013201369 0.022802388 0.024755822 0.024809835 0.010743262 0.006071738 0.028615164 0.035999607
0.016235443 -0.02397193 0.048266534 0.023745712 0.024658438 -0.038938176 0.018959522 0.032960277
-0.0020344188 -0.028779496 0.00056956674 -0.0027086895 0.002135235 0.022265859 -0.007630006 0.004878982
0.03500338 0.04344552 0.044131108 0.030552976 -0.0150225945 0.017513953 0.015138314 0.020084953
0.02885454 -0.0016633897 0.018848822 0.018242978 -0.015923098 -0.006853994 0.022433275 0.032433048
-0.017223222 0.015044924 0.009626623 0.031888276 -0.021798708 0.01447157 0.033820085 0.020759586
0.04073945 -0.0159741 0.00765849 -0.0006966589 0.0113196215 -0.01687733 0.010568519 -0.02354886
0.018043827 0.009070211 0.023746844 0.007408681 -0.013920743 0.030204212 -0.015755044 0.014697149
0.026136236 0.016061638 0.034295756 0.0268527 0.02347826 0.015209052 0.01910138 0.0015299831
0.012324781 0.018978426 0.020937847 -0.009708237 -0.016368246 0.03377626 0.024370564 -0.022444932
0.017442446 -0.0017240316 0.023147678 -0.0021989518 0.018691417 0.021043142 0.02725568 0.020407084
-0.030534215 -0.01082741 -0.006148657 0.0196195 0.030147392 0.015524064 0.022112751 0.0035514394
0.031648967 -0.00037376885 0.024652265 0.028159281 -0.0119819455 0.05465985 0.026236374 0.029365277
0.028161597 0.0147259 0.025603242 0.032548476 0.005826732 0.036138102 0.02014318 -0.019769605
0.006326245 0.032694943 0.0052562226 0.011168926 0.015909392 -0.005335258 0.02498119 -0.0033853399
0.038865425 -0.0077771563 0.004274882 0.019643843 0.015890524 0.010467859 0.028143322 0.025831426
-0.01342415 0.011397676 0.021531945 0.01656989 0.017322594 -0.0032777346 0.025607683 0.018948706
-0.009871735 -0.0014707162 0.0007059692 0.027278984 -0.015268693 -0.019863399 -0.0034827106 0.038116716
0.03551955 0.0012895088 -0.02205967 -0.016719658 -0.00018552039 0.015174421 -0.0137462765 -0.018634364
0.017209338 0.024642047 0.02901276 0.034378875 0.04275336 0.012817988 -0.017599544 0.038181484
0.038614012 0.03434312 0.011956336 0.018374294 0.025083981 0.015387445 0.023252668 0.047061812
0.025496209 0.018588156 -0.015726542 0.009945801 0.031581696 -0.017490273 0.035105176 -0.015617475
-0.007081936 0.0024761122 0.01455141 -0.010175251 0.031539112 0.018200057 0.0026645702 0.021431655
0.03295705 0.022002155 0.029091638 -0.0013484589 0.020827074 0.022793937 0.025684984 0.039728526
-0.023376638 -0.009524818 0.036300004 0.024226306 -0.014782175 0.030271808 0.0011731462 0.026923038
0.029072283 0.029336704 0.023486016 0.06489971 -0.021575233 0.041193724 0.03286586 0.021379407
-0.026801119 0.031075114 0.05055654 0.0053687287 0.026679706 0.01869338 0.03163024 0.00368148
-0.01942492 -0.0140897455 0.0068462263 0.025717195 0.015686473 0.043352373 0.013065082 -0.029596915
0.019393852 -0.015849877 0.023546034 0.030980665 0.019907055 -0.0036807007 0.031321883 -0.027523778
0.027014859 -0.0065706735 0.014100311 -0.01722149 -0.014382806 0.036606263 0.020108443 -0.025765223
0.029285952 -0.02526155 0.02450469 0.005131319 0.0003693964 0.019307638 0.025075331 0.028023425
0.026269926 0.006088104 0.032759435 0.025102785 -0.010648469 0.02906241 -0.018019553 0.023322787
00000000: 8e4a 583c 13cc ba3c b9cc ca3c ff3d cb3c
00000010: 8204 303c 6ef5 c63b 596a ea3c 5374 133d
00000020: 3100 853c c860 c4bc 21b3 453d 5e86 c23c
00000030: 7e00 ca3c a37d 1fbd 0051 9b3c 5b01 073d
00000040: e253 05bb fac2 ebbc fa4e 153a 4584 31bb
00000050: 4cef 0b3b e466 b63c 2105 fabb dedf 9f3b
00000060: b45f 0f3d eef3 313d d2c2 343d 3c4a fa3c
00000070: 5421 76bc 6c79 8f3c b106 783c 3389 a43c
00000080: 5b60 ec3c 1906 daba d868 9a3c 4c72 953c
00000090: 2871 82bc 7897 e0bb fdc5 b73c 84d8 043d
000000a0: b717 8dbc fc7e 763c fcb8 1d3c 489d 023d
000000b0: 3493 b2bc 2a1a 6d3c ee86 0a3d 0210 aa3c
000000c0: 69de 263d 1edc 82bc 12f4 fa3b fd9f 36ba
000000d0: ef75 393c 5442 8abc 9527 2d3c 8ae9 c0bc
000000e0: a6d0 933c 399b 143c be88 c23c 85c4 f23b
000000f0: d413 64bc d36e f73c b910 81bc 50cc 703c
00000100: a91b d63c b293 833c b579 0c3d 32fa db3c
00000110: 7b55 c03c 632f 793c 7f7a 9c3c b789 c83a
00000120: e1ed 493c a578 9b3c d985 ab3c 4c0f 1fbc
00000130: b316 86bc fa58 0a3d c7a4 c73c 6fde b7bc
00000140: 76e3 8e3c e7f8 e1ba 33a0 bd3c 4a1c 10bb
00000150: be1e 993c ab62 ac3c 4e47 df3c c22c a73c
00000160: e422 fabc 7365 31bc ac7a c9bb 13b9 a03c
00000170: aaf7 f63c a558 7e3c cd25 b53c 44bf 683b
00000180: 59a2 013d 68f6 c3b9 8cf3 c93c 4bae e63c
00000190: ec4f 44bc 02e3 5f3d aaed d63c 738f f03c
000001a0: 26b3 e63c e744 713c e4bd d13c 8d51 053d
000001b0: 2cee be3b 8c05 143d 4f03 a53c def3 a1bc
000001c0: 644c cf3b 22eb 053d 643c ac3b dffd 363c
000001d0: 6a54 823c 63d3 aebb 5aa5 cc3c 94dc 5dbb
000001e0: 5a31 1f3d 84d7 febb 4f14 8c3b 20ec a03c
000001f0: d82c 823c 6281 2b3c d38c e63c 6d9c d33c
00000200: f7f0 5bbc 51bd 3a3c c363 b03c 94bd 873c
00000210: 1de8 8d3c 43cf 56bb 34c7 d13c 513a 9b3c
00000220: 0fbd 21bc 0cc5 c0ba cb10 393a 2d78 df3c
00000230: 8a29 7abc 91b8 a2bc 303e 64bb 4620 1c3d
00000240: f37c 113d bc04 a93a 7bb6 b4bc aaf7 88bc
00000250: 4088 42b9 229e 783c 1038 61bc 18a7 98bc
00000260: 99fa 8c3c 1ede c93c 2bac ed3c ddd0 0c3d
00000270: 261e 2f3d 8a02 523c eb2c 90bc 3064 1c3d
00000280: ba29 1e3d 5fab 0c3d 82e4 433c b085 963c
00000290: ec7c cd3c 9f1b 7c3c 617c be3c e3c3 403d
000002a0: 6ddd d03c 3046 983c f3d4 80bc b7f3 223c
000002b0: cf5b 013d c347 8fbc 72ca 0f3d 70e0 7fbc
000002c0: 960f e8bb 4546 223b 0a69 6e3c 19b6 26bc
000002d0: 282f 013d 4918 953c 12a0 2e3b 7091 af3c
000002e0: f9fd 063d dd3d b43c 9651 ee3c c6be b0ba
000002f0: 8a9d aa3c 5aba ba3c 5169 d23c 61ba 223d
00000300: 5d80 bfbc fb0d 1cbc 50af 143d 3f76 c63c
00000310: f030 72bc 95fc f73c 41c4 993a b48d dc3c
00000320: ff28 ee3c 8753 f03c bf65 c03c 24ea 843d
00000330: 8bbe b0bc c0ba 283d 5a9e 063d de23 af3c
00000340: 058e dbbc 3d91 fe3c 6014 4f3d 29ec af3b
00000350: 668f da3c dc22 993c b68e 013d fc44 713b
00000360: 0321 9fbc add8 66bc 4f56 e03b deac d23c
00000370: eb80 803c 4292 313d ed0e 563c 3b75 f2bc
00000380: dbdf 9e3c 9ad7 81bc 9de3 c03c 2acb fd3c
00000390: 1f14 a33c e937 71bb 604b 003d 8c79 e1bc
000003a0: 444e dd3c ce4e d7bb fe04 673c 1514 8dbc
000003b0: dca5 6bbc 73f0 153d 76ba a43c 9711 d3bc
000003c0: 18e9 ef3c 4ff1 cebc 0fbe c83c a024 a83b
000003d0: 8cab c139 0d2b 9e3c c86a cd3c 6291 e53c
000003e0: 0734 d73c b87e c73b c22e 063d 5ba4 cd3c
000003f0: eb76 2ebc 4b14 ee3c be9d 93bc 6e0f bf3c

network_body._body_endoder.seq_layers.0.weight f4 [256, 41]
0.16596696 -0.07840732 -0.07831189 -0.03297167 0.22581796 0.18735997 0.0062017716 0.23409
0.040963374 0.10584441 0.011326435 0.22590828 0.06626746 0.051141385 0.20483768 -0.101858884
-0.060721386 -0.09570007 0.12370523 0.18164228 -0.0045231096 -0.10459623 0.117129445 0.11865718
-0.034031868 0.14872067 0.17514217 0.2264065 -0.1333269 0.2703653 -0.10415062 0.21736804
0.08770474 0.24036963 -0.06782417 -0.011401464 0.17404526 -0.07738652 -0.064192645 -0.085249305
0.10467244 0.049793523 -0.048322216 -0.055929493 0.08066745 -0.12583628 -0.21815145 0.115718804
-0.23599248 -0.11286371 -0.18488042 -0.17072052 -0.22666124 -0.04005353 -0.13071282 0.1566942
-0.009544978 -0.20758289 -0.15382199 0.12705445 -0.250326 -0.15754469 0.18319337 -0.24115017
-0.03612824 0.09570631 -0.3179559 0.21647656 0.035017814 -0.14738558 0.12211226 -0.09329926
-0.040679812 -0.0778407 -0.16205952 -0.29696867 -0.0014703253 -0.13569735 -0.22591081 0.06822222
-0.12097006 -0.29036716 -0.2099186 -0.15703985 0.21907386 0.05032751 0.10883864 0.24204442
0.08553902 0.049414523 -0.003432943 0.07921028 0.00334454 0.12790559 0.22236574 -0.024875809
0.20976263 -0.28947118 0.05847591 0.032879636 -0.13800971 0.08712611 0.103496864 0.14482671
0.06789764 0.1541107 0.029713519 0.28722942 0.26840845 -0.109417796 0.23052815 -0.20963088
0.02104012 -0.059993595 0.1581783 -0.121761054 0.032936294 0.20870978 -0.08560518 -0.10874246
-0.10183797 -0.10105942 0.12971005 0.18391182 -0.16122049 -0.00042843123 0.1550373 0.02864013
-0.05796118 -0.3005118 0.19190529 -0.22635716 0.16782908 0.2521142 -0.14602569 -0.06931517
-0.08195838 -0.30525607 0.00652852 0.061463635 0.20852894 -0.01579484 -0.03709806 -0.3652827
0.1367044 0.15326913 -0.1881904 0.18443987 -0.2906475 0.06481874 -0.05437531 0.040736984
0.13003248 -0.015681563 -0.08844289 -0.020006934 0.19556633 0.028430555 0.2152185 0.07404217
-0.13379794 0.25120872 0.16714431 -0.15646943 0.06903541 -0.16054808 -0.3022685 -0.23496617
-0.116091505 -0.094911374 -0.049758293 -0.032139998 -0.11817232 0.092357196 0.037551373 0.008912771
0.07824919 0.0062369606 -0.18349488 0.11032421 0.26191524 -0.056308217 0.2501282 0.23103939
-0.36339414 -0.050486203 -0.036538508 -0.08409892 0.10509309 0.04000392 0.12709267 0.2785639
-0.15577042 0.038221054 -0.07921835 -0.024520965 0.0012241495 0.23917641 0.27412876 0.22823098
0.034273155 0.08841141 -0.04641735 -0.3265461 -0.08230462 -0.2097831 -0.026470944 -0.23374784
-0.13085483 -0.12729932 -0.26910698 0.09692169 0.25924808 -0.14090635 -0.24330153 -0.012770686
-0.140398 -0.103545114 -0.092185974 0.21949184 -0.1626407 0.15871246 -0.05775972 0.05781626
0.24836561 -0.048913546 0.14876695 0.25896308 0.14857537 -0.12366161 0.009005752 0.28685668
0.07331401 -0.17163008 -0.23600124 0.15079516 0.3218666 -0.055814408 0.35524222 0.19748253
0.10812227 -0.10595903 -0.13383865 0.18555436 0.108272485 -0.1415331 0.35737813 -0.019427178
-0.042618904 -0.19812687 -0.034644235 0.07956798 -0.009037723 0.09089092 0.235817 -0.11152233
00000000: 3ef3 293e 0494 a0bd fc61 a0bd 4d0d 07bd
00000010: d33c 673e 4bdb 3f3e 3b38 cb3b 4ab5 6f3e
00000020: 36c9 273d f4c4 d83d 8392 393c 8054 673e
00000030: 3cb7 873d a179 513d f8c0 513e 649b d0bd
00000040: fdb6 78bd 66fe c3bd 2b59 fd3d 6f00 3a3e
00000050: 9836 94bb 8c36 d6bd 90e1 ef3d 8902 f33d
00000060: 0065 0bbd 3b4a 183e 7858 333e 1bd7 673e
00000070: d986 08be 526d 8a3e ec4c d5bd ba95 5e3e
00000080: 8b9e b33d 7523 763e 66e7 8abd 35cd 3abc
00000090: ec38 323e d37c 9ebd 6f77 83bd 3097 aebd
000000a0: 815e d63d 4bf4 4b3d 84ed 45bd 5316 65bd
000000b0: fa34 a53d 3adb 00be 1863 5fbe fbfd ec3d
000000c0: 03a8 71be 1725 e7bd 4b51 3dbe 5cd1 2ebe
000000d0: e219 68be 2c0f 24bd 95d9 05be 7274 203e
000000e0: 8a62 1cbc 9c90 54be 8383 1dbe 901a 023e
000000f0: bb2a 80be 6553 21be 0b97 3b3e 12f0 76be
00000100: 35fb 13bd ab01 c43d 1ecb a2be 08ac 5d3e
00000110: d76e 0f3d 3fec 16be fe15 fa3d af13 bfbd
00000120: e09f 26bd f26a 9fbd eef2 25be 470c 98be
00000130: eeb7 c0ba 3ff4 0abe 2a55 67be 17b8 8b3d
00000140: 27bf f7bd 01ab 94be e7f4 56be 0ecf 20be
00000150: e654 603e 3824 4e3d cbe6 de3d 7eda 773e
00000160: 152f af3d e266 4a3d 3afb 60bb 0039 a23d
00000170: 1230 5b3b aff9 023e d8b3 633e 5ac8 cbbc
00000180: 04cc 563e 9135 94be 7084 6f3d ccac 063d
00000190: 6b52 0dbe 2d6f b23d 2af6 d33d 744d 143e
000001a0: eb0d 8b3d 32cf 1d3e c469 f33c bc0f 933e
000001b0: d56c 893e 7016 e0bd 920f 6c3e 7aa9 56be
000001c0: 545c ac3c d8bb 75bd 7ef9 213e dc5d f9bd
000001d0: 35e8 063d 04b8 553e c551 afbd 5eb4 debd
000001e0: 6d90 d0bd 3ef8 cebd b6d2 043e 6153 3c3e
000001f0: fc16 25be 119f e0b9 19c2 1e3e b59e ea3c
00000200: b468 6dbd afdc 99be d282 443e 2cca 67be
00000210: 63db 2b3e 1d15 813e c287 15be 1df5 8dbd
00000220: ccd9 a7bd 864a 9cbe 32ed d53b 4bc1 7b3d
00000230: 9c88 553e 2e64 81bc 23f4 17bd 5606 bbbe
00000240: 3dfc 0b3e 95f2 1c3e fcb4 40be cedd 3c3e
00000250: c0cf 94be b0bf 843d a5b8 5ebd d3db 263d
00000260: 3c27 053e 9f76 80bc 8c21 b5bd 95e5 a3bc
00000270: 8a42 483e 32e7 e83c 3d62 5c3e 6ca3 973d
00000280: 5402 09be 6e9e 803e e127 2b3e 8639 20be
00000290: 7062 8d3d b766 24be f0c2 9abe f99a 70be
000002a0: 62c1 edbd e560 c2bd 5acf 4bbd 3ba5 03bd
000002b0: 5404 f2bd c525 bd3d 78cf 193d df06 123c
000002c0: 1c41 a03d 6b5f cc3b 15e6 3bbe a9f1 e13d
000002d0: c119 863e 72a3 66bd ce10 803e 9795 6c3e
000002e0: cc0e babe 9fca 4ebd 67a9 15bd 0e3c acbd
000002f0: 0c3b d73d 27db 233d 9524 023e ed9f 8e3e
00000300: 4882 1fbe ae8d 1c3d 3b3d a2bd 31e0 c8bc
00000310: a473 a03a a9ea 743e 9b5a 8c3e 62b5 693e
00000320: 0262 0c3d 0b11 b53d 1f20 3ebd 0d31 a7be
00000330: 538f a8bd 62d1 56be 98d9 d8bc 985b 6fbe
00000340: cffe 05be c15a 02be 64c8 89be e17e c63d
00000350: 2abc 843e c149 10be 0924 79be 243c 51bc
00000360: 7ec4 0fbe 760f d4bd 00cc bcbd 78c2 603e
00000370: 498b 26be 8585 223e 7595 6cbd bed0 6c3d
00000380: 8e53 7e3e 9259 48bd 5d56 183e cf96 843e
00000390: 2424 183e 4c42 fdbd dd8c 133c e1de 923e
000003a0: a825 963d ccbf 2fbe 4faa 71be 0c6a 1a3e
000003b0: b3cb a43e a69d 64bd 4fe2 b53e dc38 4a3e
000003c0: 356f dd3d 0c01 d9bd 000d 09be f601 3e3e
000003d0: f7bd dd3d 0eee 10be 44fa b63e bf25 9fbc
000003e0: 2991 2ebd c5e1 4abe 1de7 0dbd 89f4 a23d
000003f0: f512 14bc 0525 ba3d 037a 713e d265 e4bd

network_body._body_endoder.seq_layers.2.bias f4 [256]
-0.03643049 0.028643785 0.013045535 0.025386488 0.01450734 0.023419058 0.010846498 0.025205597
-0.03762884 0.023787627 0.021920905 0.015444511 0.026044793 0.020414822 -0.0161449 0.030095415
0.021780968 -0.017703287 0.032922797 -0.030568292 0.026607929 0.028239852 -0.01939879 -0.03983213
0.024098702 -0.013089307 0.009136049 0.016649427 -0.018045565 0.020000124 0.022973318 0.01477201
-0.02866631 -0.020474287 -0.039045162 0.0031057186 0.018192943 0.01770721 -0.013565236 -0.019113075
-0.029828751 -0.023145925 -0.020410711 -0.025249181 0.01912875 0.028219637 0.024406232 0.009862683
-0.0202755 0.03083181 -0.016962498 0.021844441 0.031054877 -0.020963559 -0.0044262884 0.026566032
0.006823742 -0.033890672 -0.008344098 -0.0074115884 0.023828084 0.02872431 -0.01861888 -0.0007216337
-0.022683367 0.006126162 -0.013627399 0.017571904 -0.026468066 0.0015417153 0.023255724 -0.029709527
0.034655668 0.0142686125 0.03070722 0.0024715343 -0.0067270533 0.02459875 -0.02107289 0.023475733
0.019950675 0.010833504 -0.0002749002 -0.027568547 0.0152289495 -0.024357215 -0.022883309 0.014952608
0.03724692 -0.03542041 -0.027011042 0.021645473 0.019471172 0.027108548 -0.017366879 0.019622598
0.01732169 0.022363992 0.03033143 0.022511194 -0.028121535 0.028307017 -0.038221113 0.024399463
-0.0142988255 0.0123586655 -0.011742981 0.019763755 0.017003473 -0.02797408 0.023849478 0.026955126
-0.030267678 -0.04362644 -0.015922084 -0.038834874 -0.020709302 -0.0091763865 0.0051266947 0.030776225
0.027814167 0.03318503 0.017435959 0.014768732 0.012112708 -0.004273644 0.025100116 0.011432477
-0.002405393 0.015115011 0.02690284 0.029923068 0.030115878 0.024400659 -0.011067688 0.03178144
0.009727439 0.0050825253 0.0039816457 0.021839615 0.008089875 0.017624412 -0.017030362 -0.019684076
-0.018970666 -0.0016459406 0.015970856 -0.032504257 0.021815695 0.017040798 0.02258304 -0.036953226
-0.0021415756 -0.021123024 -0.030398767 0.017529856 0.027703175 0.023192521 -0.03870263 -0.02454844
0.01734261 0.031909425 0.012793392 0.026824795 0.020724539 -0.0055840733 -0.031424772 0.021261463
-0.002893646 -0.016282633 0.032776825 0.015988119 0.025558975 -0.02908779 0.02837115 0.015395424
-0.026017297 -0.020403244 0.03244746 -0.030305117 -0.011935262 0.016323019 0.030271111 -0.037807256
0.0025939974 0.02457665 0.027445272 0.02409748 0.01524235 -0.02324754 0.03247686 -0.019043557
0.024661005 -0.017194629 -0.031082148 0.016163908 0.028116606 -0.03243362 -0.0095937 -0.02463503
0.027268564 -0.016274618 -0.03536148 0.011380935 0.024197409 0.025463805 -0.025495183 -0.009689236
-0.024279933 0.03282336 0.00041592645 0.010342206 0.022279916 0.018719664 0.012373736 -0.025004152
0.027434727 -0.017965423 -0.0134332795 0.0028247316 0.023773847 0.022404281 0.029855132 -0.030677453
0.028061185 0.017619446 0.024398979 -0.018446645 0.018245026 -0.030964505 0.028933313 0.034718227
0.02247611 0.016874438 -0.026558906 0.027377259 0.028144825 0.023752915 -0.018014478 0.016854832
-0.01669598 -0.019742634 0.031005532 0.015658755 0.029014768 0.010665269 -0.02995334 0.019405952
0.022298194 0.0132692 0.021237163 -0.02880192 0.024590438 0.03403563 -0.0029642337 0.01415441
00000000: 2338 15bd 5fa6 ea3c f1bc 553c 53f7 cf3c
00000010: 32b0 6d3c 53d9 bf3c 83b5 313c f87b ce3c
00000020: b320 1abd 45de c23c 7893 b33c f90a 7d3c
00000030: e45b d53c fc3c a73c 4f42 84bc a98a f63c
00000040: 006e b23c 7c06 91bc 0eda 063d 5b6a fabc
00000050: dff8 d93c 4357 e73c 36ea 9ebc 0427 23bd
00000060: a46a c53c 8874 56bc 5eaf 153c 6164 883c
00000070: 4bd4 93bc 4dd7 a33c 8a32 bc3c 4d06 723c
00000080: 9cd5 eabc b1b9 a7bc d2ed 1fbd 5089 4b3b
00000090: 5e09 953c b60e 913c b940 5ebc 0693 9cbc
000000a0: 6d5b f4bc 869c bdbc 5d34 a7bc 5fd7 cebc
000000b0: e5b3 9c3c de2c e73c 94ef c73c 1797 213c
000000c0: ce18 a6bc fe92 fc3c f0f4 8abc 1df3 b23c
000000d0: cc66 fe3c c5bb abbc 660a 91bb 02a1 d93c
000000e0: b299 df3b f2d0 0abd afb5 08bc e9dc f2bb
000000f0: 1d33 c33c 3f4f eb3c 9f86 98bc 052c 3dba
00000100: 78d2 b9bc f9bd c83b 7445 5fbc f4f2 8f3c
00000110: 8fd3 d8bc 6213 ca3a ca82 be3c 6561 f3bc
00000120: 1af3 0d3d e6c6 693c b58d fb3c 77f9 213b
00000130: 9d6e dcbb 5183 c93c 0ea1 acbc 2e50 c03c
00000140: 996f a33c 027f 313c 7b20 90b9 6fd7 e1bc
00000150: d882 793c c888 c7bc c775 bbbc c9fb 743c
00000160: 3a90 183d fe14 11bd 4346 ddbc d951 b13c
00000170: 0282 9f3c bf12 de3c fc44 8ebc 92bf a03c
00000180: 38e6 8d3c b134 b73c 9e79 f83c 6569 b83c
00000190: 225f e6bc 1ee4 e73c be8d 1cbd 62e1 c73c
000001a0: 9f45 6abc 007c 4a3c a265 40bc 99e7 a13c
000001b0: de4a 8b3c e629 e5bc fb5f c33c ffd0 dc3c
000001c0: ecf3 f7bc a3b1 32bd 086f 82bc 5111 1fbd
000001d0: 8ea6 a9bc 8e58 16bc d5fd a73b 6c1e fc3c
000001e0: 89da e33c 07ed 073d dbd5 8e3c 8df8 713c
000001f0: 6174 463c ed09 8cbb c29e cd3c 494f 3b3c
00000200: cca3 1dbb f3a4 773c 5863 dc3c 3921 f53c
00000210: 93b5 f63c e4e3 c73c 4055 35bc 412d 023d
00000220: d65f 1f3c 508b a63b 7778 823b fee8 b23c
00000230: 658b 043c 1261 903c 4283 8bbc 8040 a1bc
00000240: 5f68 9bbc 9abc d7ba 50d5 823c 2f23 05bd
00000250: d4b6 b23c 2599 8b3c 1100 b93c 445c 17bd
00000260: ad59 0cbb 310a adbc d606 f9bc c69a 8f3c
00000270: c5f1 e23c 3efe bd3c a686 1ebd cf19 c9bc
00000280: 1712 8e3c 75b3 023d 609b 513c acbf db3c
00000290: 82c6 a93c 9afa b6bb 43b7 00bd 852c ae3c
000002a0: 53a3 3dbb 2863 85bc fe40 063d 84f9 823c
000002b0: 0e61 d13c 8449 eebc 9d6a e83c 173d 7c3c
000002c0: 3a22 d5bc b424 a7bc a1e7 043d 7042 f8bc
000002d0: 1e8c 43bc dab7 853c 1ffb f73c c8db 1abd
000002e0: 0e00 2a3b f854 c93c e8d4 e03c 1468 c53c
000002f0: 0dbb 793c a071 bebc 7506 053d 3c01 9cbc
00000300: e005 ca3c c0db 8cbc fd9f febc 2c6a 843c
00000310: cc54 e63c 1ed9 04bd e52e 1dbc 67cf c9bc
00000320: 5362 df3c 5952 85bc 33d7 10bd 1a77 3a3c
00000330: a539 c63c 7899 d03c 46db d0bc 9abf 1ebc
00000340: b6e6 c6bc ca71 063d b410 da39 5b72 293c
00000350: 5f84 b63c fb59 993c 36bb 4a3c 82d5 ccbc
00000360: cbbe e03c 392c 93bc 4217 5cbc 221f 393b
00000370: 5fc1 c23c 2f89 b73c c092 f43c 484f fbbc
00000380: 92e0 e53c a856 903c 5ee0 c73c 6b1d 97bc
00000390: 9876 953c 46a9 fdbc 8e05 ed3c b334 0e3d
000003a0: d21f b83c 433c 8a3c 1092 d9bc 4646 e03c
000003b0: fa8f e63c 7995 c23c 1993 93bc 2513 8a3c
000003c0: 02c6 88bc 4ebb a1bc 50ff fd3c ca46 803c
000003d0: 61b0 ed3c 61bd 2e3c b560 f5bc 3bf9 9e3c
000003e0: b4aa b63c 0f67 593c 8ff9 ad3c 01f2 ebbc
000003f0: e371 c93c f268 0b3d 9743 42bb e6e7 673c

network_body._body_endoder.seq_layers.2.weight f4 [256, 256]
-0.023843314 -0.12276715 0.07267188 -0.086448714 0.00011638005 0.099284664 -0.056209568 -0.058908463
-0.006871607 0.015917381 -0.10942852 -0.09194365 0.00026717642 -0.045005433 -0.034319155 0.012800724
0.082162715 0.006627719 0.12870987 0.010061804 0.060644712 0.05944079 0.11079722 -0.030707246
0.010863402 -0.017941475 -0.027400747 0.057957046 0.022975205 -0.06764904 0.03633835 0.039543696
-0.10486018 0.09911587 -0.0149328085 0.007969027 0.060468078 -0.003056139 -0.11123918 0.004833317
0.048770405 0.030127967 -0.07971407 0.043981954 -0.09408492 -0.13959868 0.0053653643 0.035823986
-0.04213458 0.020655278 -0.049059253 0.0043457705 0.021012848 -0.0120915845 0.03547977 0.024373114
-0.06057097 0.0013835117 -0.035191685 0.013905182 0.033068623 -0.09620537 0.03613597 -0.03341042
-0.10373824 0.039474092 -0.084322274 -0.04314767 -0.17140591 0.054702546 -0.052941654 0.03999998
0.00037730578 -0.06913364 0.02647842 0.005094782 -0.0077011897 -0.023915835 -0.10123747 0.029811706
0.0036832534 -0.0271607 0.0064671724 -0.04593838 -0.10813802 0.03911393 0.0075986586 -0.023349224
0.010912534 0.026200965 0.009898036 -0.05805829 -0.14390978 -0.04693333 -0.026906231 -0.11275596
-0.07674905 -0.0531042 0.050381616 -0.07446629 0.07177132 -0.01613321 0.105542056 0.005855364
-0.090792 -0.028383251 -0.027145969 0.034464415 0.050349224 0.0041196216 -0.034267206 -0.00040746276
-0.09718014 -0.026512831 -0.1077191 0.0520954 0.027486604 0.07363795 0.012567502 -0.017354544
0.012224467 -0.11510752 -0.050042164 0.050948452 -0.14200903 -0.039975774 -0.10854227 0.0062200334
-0.029967776 -0.06958356 -0.05520112 0.031511456 -0.031901218 0.18684557 -0.04886025 -0.060471497
-0.02390679 0.012211684 -0.058624964 0.1199424 -0.05677531 -0.010889462 -0.034559567 0.054700777
0.022913154 -0.022180976 0.09531251 -0.12683108 -0.07879424 0.08294908 0.029845262 0.041496165
-0.07473963 0.009046625 -0.026842576 -0.094265096 -0.12835312 -0.06255258 -0.05828409 0.0065760408
-0.049885403 -0.04927523 -0.053345602 -0.012725718 -0.050938793 -0.11094165 -0.1793241 -0.008925761
0.018653115 -0.1393046 -0.06078269 0.0043318635 -0.06185316 -0.0030295053 -0.043816403 0.0371587
0.08833552 -0.023180567 -0.11207757 -0.008151472 0.07799482 -0.024529887 -0.03396667 -0.005299938
-0.055414837 -0.03843588 -0.01745166 0.02317539 0.034923803 -0.043323684 -0.023930896 0.015784014
0.03871344 0.054333974 -0.0530423 -0.081199184 -0.034735344 0.030248037 -0.038040657 -0.035716213
-0.12143628 -0.09761186 -0.097641304 -0.15663682 -0.07182983 -0.048961207 -0.034003805 0.040970456
0.06525576 -0.027677258 -0.07264523 -0.07244666 -0.08165242 -0.032855496 -0.026537022 -0.09832066
-0.02834049 0.037001774 -0.06201797 0.04252499 -0.092018805 -0.0057988823 -0.025662884 0.07461618
-0.059319574 0.02661784 -0.023668887 -0.028127605 -0.08591611 0.085033745 0.034476925 0.05281742
-0.02410023 0.011651521 -0.089151785 -0.06467631 0.10534298 -0.092348 0.038942467 -0.13446723
-0.18894596 0.11090329 0.0116276825 -0.008170486 0.012034876 -0.055736266 -0.019457564 -0.072388165
0.0038798593 0.012303679 0.05843445 0.01834231 0.06271022 -0.04706512 0.075993285 -0.029691853
00000000: 0e53 c3bc 586d fbbd ffd4 943d 060c b1bd
00000010: 1011 f438 c255 cb3d 013c 66bd 004a 71bd
00000020: 382b e1bb 2b65 823c 0f1c e0bd f44c bcbd
00000030: d013 8c39 9e57 38bd 3e92 0cbd 21ba 513c
00000040: ed44 a83d 562d d93b 85cc 033e 44da 243c
00000050: 9766 783d 3078 733d a7e9 e23d c38d fbbc
00000060: 69fc 313c 00fa 92bc 8877 e0bc 5e64 6d3d
00000070: 7f36 bc3c 948b 8abd 86d7 143d 92f8 213d
00000080: efc0 d6bd 43fd ca3d bda8 74bc 8690 023c
00000090: 60ad 773d 8149 48bb 5ed1 e3bd cd60 9e3b
000000a0: 7ac3 473d edce f63c 2141 a3bd 6c26 343d
000000b0: 98af c0bd f5f2 0ebe f0cf af3b 2cbc 123d
000000c0: 4f95 2cbd 4235 a93c 5bf2 48bd f766 8e3b
000000d0: 2323 ac3c c81b 46bc 3c53 113d 20aa c73c
000000e0: 4419 78bd f356 b53a 2825 10bd 8fd2 633c
000000f0: f772 073d 5207 c5bd 5003 143d 5dd9 08bd
00000100: b774 d4bd 96af 213d 28b1 acbd 9cbb 30bd
00000110: 0885 2fbe c70f 603d 59d9 58bd 05d7 233d
00000120: 20d1 c539 f095 8dbd 45e9 d83c 21f2 a63b
00000130: 435a fcbb 24eb c3bc 9755 cfbd ae37 f43c
00000140: bd62 713b 1e80 debc 93ea d33b e229 3cbd
00000150: 7777 ddbd ee35 203d 2bfe f83b df46 bfbc
00000160: 7cca 323c 68a3 d63c 5f2b 223c 88ce 6dbd
00000170: 165d 13be 2a3d 40bd 756a dcbc 99ec e6bd
00000180: 9b2e 9dbd ca83 59bd f45c 4e3d c881 98bd
00000190: d8fc 923d cb29 84bc 6f26 d83d 5ade bf3b
000001a0: 28f1 b9bd fe83 e8bc 3961 debc 8f2a 0d3d
000001b0: fd3a 4e3d e4fd 863b c55b 0cbd baa0 d5b9
000001c0: 6206 c7bd 7031 d9bc d59b dcbd fc61 553d
000001d0: 962b e13c 7ecf 963d ede7 4d3c 1e2b 8ebc
000001e0: 2149 483c 7ebd ebbd 03f9 4cbd 53af 503d
000001f0: d16a 11be a3bd 23bd 694b debd 6cd1 cb3b
00000200: fb7e f5bc d381 8ebd 921a 62bd 2812 013d
00000210: daaa 02bd 7254 3f3e af21 48bd f6b0 77bd
00000220: 2cd8 c3bc 8413 483c bb20 70bd 5ca4 f53d
00000230: 3a8d 68bd b769 32bc 558e 0dbd ec0d 603d
00000240: 5eb4 bb3c e1b4 b5bc 3533 c33d 02e0 01be
00000250: e05e a1bd 35e1 a93d 0d7e f43c e2f7 293d
00000260: 1711 99bd 4c38 143c f6e4 dbbc 0f0e c1bd
00000270: 006f 03be 911b 80bd 4cbb 6ebd d47b d73b
00000280: a354 4cbd d3d4 49bd eb80 5abd 887f 50bc
00000290: 32a5 50bd 6035 e3bd bda0 37be 5b3d 12bc
000002a0: 6bce 983c dda5 0ebe 45f7 78bd 4ef2 8d3b
000002b0: bd59 7dbd aa8a 46bb d478 33bd b933 183d
000002c0: 41e9 b43d 2ce5 bdbc ed88 e5bd c08d 05bc
000002d0: c0bb 9f3d e7f2 c8bc a320 0bbd 1aab adbb
000002e0: abfa 62bd f16e 1dbd c9f6 8ebc 51da bd3c
000002f0: 430c 0f3d 2d74 31bd ba0a c4bc 7a4d 813c
00000300: fc91 1e3d 4d8d 5e3d e242 59bd c24b a6bd
00000310: a646 0ebd bbca f73c 85d0 1bbd 2a4b 12bd
00000320: 96b3 f8bd bae8 c7bd 2af8 c7bd 6765 20be
00000330: 851b 93bd 8c8b 48bd 9347 0bbd a3d0 273d
00000340: d0a4 853d 6bbb e2bc 06c7 94bd ea5e 94bd
00000350: 6239 a7bd 7c93 06bd 2b64 d9bc 585c c9bd
00000360: 512a e8bc 2c8f 173d 8e06 7ebd af2e 2e3d
00000370: 5b74 bcbd 8d04 bebb f83a d2bc 5ed0 983d
00000380: 15f9 72bd a80d da3c 41e5 c1bc dd6b e6bc
00000390: c9f4 afbd 2c26 ae3d ad37 0d3d 1457 583d
000003a0: d86d c5bc 05e6 3e3c 3695 b6bd 0375 84bd
000003b0: 0fbe d73d f320 bdbd 2382 1f3d c7b1 09be
000003c0: 0d7b 41be 4421 e33d 0982 3e3c 81dd 05bc
000003d0: ee2d 453c b64b 64bd 7865 9fbc 3f40 94bd
000003e0: 3d45 7e3b 5f95 493c f658 6f3d 9d42 963c
000003f0: 376e 803d 5bc7 40bd 5ea2 9b3d 543c f3bc

network_body._body_endoder.seq_layers.4.bias f4 [256]
0.011311159 0.02120754 0.02325696 0.018323792 -0.0068058507 0.031963497 0.033028312 -0.00024610397
-0.022412455 -0.020038905 -0.0068320646 0.02407664 0.006848138 0.02986809 -0.008179338 0.01635951
0.026512718 -0.023602303 -0.02702795 -0.021592015 0.010662199 -0.030777238 0.027518298 -0.016003162
0.03128104 0.015373353 -0.023144618 -0.012746201 -0.026650472 -0.008584753 0.027025219 0.015361025
-0.02809665 0.0051843217 -0.020246172 0.023675997 0.024282271 0.021153208 -0.02686884 -0.022813756
0.0023629956 0.029678222 -0.0248163 -0.017229727 -0.017483924 0.023679264 0.028619776 0.025514007
0.015365178 -0.0011400227 0.03047105 0.01228119 -0.017548567 -0.030410724 -0.01858245 -0.01726672
-0.024166774 -0.028836919 -0.000102828155 0.01862551 0.02577829 0.006741281 0.0022208109 0.028409451
-0.026096804 0.026392605 -0.0052507753 -0.027328605 -0.01730406 -0.012613876 -0.023957869 0.014708177
-0.0068826517 -0.018018126 0.007853733 0.015848354 -0.02518561 -0.028677154 0.019439068 0.018633874
-0.027648162 -0.022292072 0.03050302 0.030241977 0.030048963 -0.007936062 -0.0051042405 0.024777226
0.028146442 0.01675221 0.02860333 0.02511917 -0.023385141 0.0072639426 0.022197558 0.0077041658
0.026513526 -0.027955623 0.021892365 0.024148382 -0.015872587 -0.01875148 -0.024082573 -0.011760529
0.001393533 0.02997402 0.023775727 0.032621536 -0.015233291 0.0317966 0.006552407 0.030050626
0.0064308546 0.022050034 -0.021687947 0.029271143 0.029385906 -0.01275678 0.02806917 -0.021194777
-0.028593501 0.034863394 0.024866853 -0.015912516 0.028935272 -0.01157561 -0.028552283 0.034713328
-0.025038885 0.018532436 -0.025846025 0.031664457 0.012944944 -0.01606169 -0.021536818 -0.016360013
-0.03472202 0.027207961 -0.004012824 0.029341368 0.027914217 0.016626617 -0.019647649 -0.013645239
0.025527019 0.03172712 -0.02018819 0.003138319 -0.002548531 0.01601204 0.027490456 0.028938033
-0.014193518 0.025048016 0.030686883 -0.019386401 -0.024790434 0.03001388 -0.010904565 -0.02393878
0.0009544225 0.027248986 -0.018764643 -0.0059474297 -0.0269857 0.025077006 -0.027102094 -0.025437076
-0.022294804 0.02582525 0.011246858 -0.01567954 0.020585708 -0.020939894 -0.024379006 0.033335526
-0.016855294 -0.0021353744 0.014103492 0.016795363 -0.02423215 0.027904758 0.015233976 0.0118790865
0.027970573 0.008113455 -0.029054657 -0.022543484 0.035763446 -0.013907668 0.025480516 -0.027781632
0.023814635 -0.021832649 0.027707636 0.026865926 -0.0109653175 -0.026026383 0.029707564 0.023222683
0.02711284 -0.018285956 -0.00958421 0.0038186808 0.028909523 0.0011303745 0.012154933 -0.019835845
0.02780189 0.023874696 -0.020559594 -0.024447866 -0.020465136 -0.0015308697 -0.019475972 0.00592795
0.027512066 0.02238771 -0.026767958 0.02829898 0.0045208177 -0.017861491 0.016416164 0.025875226
0.024694415 0.023736892 0.028381962 0.016995525 -0.013226164 0.027730476 -0.0067723035 -0.019294795
-0.009966965 0.015857128 -0.009580287 -0.013401299 0.018237406 -0.013177803 -0.028909856 0.007809819
-0.025182175 0.014209714 -0.008526359 0.022931278 0.0273665 0.023095913 0.023435798 0.028501416
0.024560943 -0.006060349 0.026733633 -0.009440471 0.025909785 0.02890671 0.020225853 0.025854385
00000000: 7052 393c 6fbb ad3c 6185 be3c c71b 963c
00000010: 9d03 dfbb 28ec 023d b248 073d 8407 81b9
00000020: 539a b7bc a128 a4bc 83df dfbb 603c c53c
00000030: 5866 e03b edad f43c a102 06bc 6104 863c
00000040: 3331 d93c 9e59 c1bc b869 ddbc bde1 b0bc
00000050: 81b0 2e3c 8c20 fcbc 0e6e e13c 1019 83bc
00000060: 8c20 003d 84e0 7b3c c899 bdbc 71d5 50bc
00000070: 1752 dabc 10a7 0cbc fe63 dd3c cfac 7b3c
00000080: f22a e6bc 3ee1 a93b 4ddb a5bc 2af4 c13c
00000090: 9deb c63c 7e49 ad3c 0b1c dcbc eae3 babc
000000a0: 7ddc 1a3b be1f f33c 8e4b cbbc 5b25 8dbc
000000b0: 723a 8fbc 04fb c13c 0574 ea3c c002 d13c
000000c0: 3abe 7b3c d06c 95ba 6c9e f93c 0b37 493c
000000d0: 03c2 8fbc e91f f9bc 393a 98bc f072 8dbc
000000e0: 66f9 c5bc 673b ecbc 72a5 d7b8 8794 983c
000000f0: fe2c d33c f7e5 dc3b 068b 113b f0ba e83c
00000100: f7c8 d5bc 4e35 d83c b20e acbb 3de0 dfbc
00000110: 3ec1 8dbc 6eaa 4ebc 4b43 c4bc 91fa 703c
00000120: de87 e1bb c09a 93bc f2ac 003c 68d4 813c
00000130: 0d52 cebc 5aec eabc ae3e 9f3c 11a6 983c
00000140: 667e e2bc dd9d b6bc 78e1 f93c 06be f73c
00000150: 3e29 f63c 4206 02bc 7941 a7bb 9cf9 ca3c
00000160: 5e93 e63c ee3b 893c 8851 ea3c b8c6 cd3c
00000170: 3292 bfbc 5e06 ee3b a7d7 b53c 3a73 fc3b
00000180: e532 d93c 3103 e5bc 9e57 b33c d4d2 c53c
00000190: 3a07 82bc b49c 99bc d148 c5bc 3caf 40bc
000001a0: 35a7 b63a 138c f53c 50c5 c23c 299e 053d
000001b0: 0e95 79bc 273d 023d 93b5 d63b bb2c f63c
000001c0: ebb9 d23b 46a2 b43c ecaa b1bc 09ca ef3c
000001d0: b6ba f03c d001 51bc 51f1 e53c aba0 adbc
000001e0: eb3c eabc ebcc 0e3d 92b5 cb3c f75a 82bc
000001f0: aa09 ed3c a1a7 3dbc 7ae6 e9bc 902f 0e3d
00000200: 591e cdbc 56d1 973c 0bbb d3bc 97b2 013d
00000210: 0817 543c ce93 83bc fb6d b0bc 6f05 86bc
00000220: ad38 0ebd 3be3 de3c 027e 83bb 4f5d f03c
00000230: 5bac e43c 8b34 883c 1bf4 a0bc 4890 5fbc
00000240: 0a1e d13c 4cf4 013d b461 a5bc 41ac 4d3b
00000250: 4105 27bb af2b 833c aa33 e13c 740f ed3c
00000260: ee8b 68bc 7f31 cd3c 0f63 fb3c 3bd0 9ebc
00000270: 4f15 cbbc abdf f53c 10a9 32bc 431b c4bc
00000280: 3632 7a3a 4439 df3c 4fb8 99bc a8e2 c2bb
00000290: 1d11 ddbc 4b6e cd3c 3605 debc 6a61 d0bc
000002a0: 98a3 b6bc 7a8f d33c be44 383c 6172 80bc
000002b0: 5ca3 a83c 248a abbc 7bb6 c7bc d58a 083d
000002c0: 1d14 8abc a3f1 0bbb 5512 673c 6e96 893c
000002d0: 8082 c6bc 8598 e43c ed97 793c 80a0 423c
000002e0: 8b22 e53c 4cee 043c 0804 eebc 1dad b8bc
000002f0: b17c 123d fddc 63bc 84bc d03c 4e96 e3bc
00000300: e916 c33c 62da b2bc 20fb e23c ee15 dc3c
00000310: e0a7 33bc 4835 d5bc 475d f33c 7f3d be3c
00000320: bf1b de3c 6ecc 95bc 1707 1dbc d542 7a3b
00000330: aad3 ec3c 1329 943a 7c25 473c c87e a2bc
00000340: cac0 e33c de94 c33c 986c a8bc e446 c8bc
00000350: 80a6 a7bc 77a7 c8ba 138c 9fbc 403f c23b
00000360: fc60 e13c 6e66 b73c 7a48 dbbc 43d3 e73c
00000370: 5e23 943b 4352 92bc 317b 863c 48f8 d33c
00000380: f14b ca3c df73 c23c 4a81 e83c 333a 8b3c
00000390: 8db2 58bc 062b e33c 33ea ddbb 1e10 9ebc
000003a0: 7b4c 23bc cfe6 813c a3f6 1cbc 1f91 5bbc
000003b0: 9d66 953c b6e7 57bc 5dd4 ecbc 83e9 ff3b
000003c0: d94a cebc dccf 683c 24b2 0bbc 60da bb3c
000003d0: b62f e03c a433 bd3c 6efc bf3c cd7b e93c
000003e0: 0834 c93c e495 c6bb 7e00 db3c 35ac 1abc
000003f0: c240 d43c c4cd ec3c b0b0 a53c 93cc d33c

network_body._body_endoder.seq_layers.4.weight f4 [256, 256]
0.02066301 0.06123499 0.025901364 0.14277488 0.07577588 0.062070657 0.07680661 -0.00689745
-0.021466441 0.09292958 0.03237719 0.027718935 0.14226283 -0.06878684 0.11161664 0.03357751
-0.0034182407 0.013206933 -0.056913264 -4.624335e-05 0.036039587 -0.012627983 -0.041185748 -0.012107875
0.1169773 -0.017828122 -0.008388692 0.07559503 0.10223082 -0.08496593 -0.08121972 -0.010993521
0.09959786 -0.0042789504 -0.1011056 -0.101636074 0.045297593 -0.031175978 -0.10290671 0.025425214
-0.13202189 -0.10000662 -0.086669445 -0.08454058 0.015079027 0.03364094 0.021549845 -0.14931913
0.009628396 0.039202966 -0.05942423 0.0247834 -0.07174511 -0.043514144 0.02581238 -0.07109248
0.039389405 0.019219056 -0.051167507 -0.084574245 -0.13412686 0.049536962 0.053415257 -0.0070802527
-0.0044606426 -0.0575338 0.025809819 0.023639979 -0.1055012 0.071602724 0.13629346 0.025348598
-0.029078595 -0.005543075 0.017316705 0.030356226 -0.07050601 -0.044068415 0.13853145 -0.006776284
0.07698026 -0.04277037 0.020236526 0.05790046 -0.051961225 0.045457672 0.052838538 0.031085903
-0.109774865 -0.098277345 -0.11777139 -0.03563713 0.0076290756 -0.07612296 -0.057850134 0.06520568
-0.08037823 -0.024845611 0.07946679 0.015802866 0.14620382 -0.048390172 0.044607226 -0.09023582
0.0966554 -0.02780781 0.017033253 0.11341473 -0.09921468 -0.030456793 -0.08051887 0.038548302
-0.029071912 0.017448116 -0.023355985 -0.11323238 -0.018477453 -0.018227577 0.046694282 -0.037745833
0.049421277 0.15286006 0.12296013 -0.073953256 0.012472148 -0.025576197 -0.0022908673 -0.05801814
-0.043482333 -0.025104739 -0.03087179 0.10440652 0.011657334 0.03142147 0.032580953 0.054345172
-0.07196168 0.059203032 -0.037110936 -0.038022533 -0.0075173457 0.08996796 0.022636209 -0.014128819
-0.14966503 -0.031027574 0.0033515964 -0.03310129 -0.0441318 0.005995993 0.048778754 -0.040757835
-0.025518524 0.019706117 0.02114337 0.08594826 -0.014436097 -0.051401973 0.07461206 0.102978274
-0.0009427548 -0.02283878 0.021391422 0.05578094 -0.16254172 -0.117579006 -0.053043097 -0.0478407
-0.0067401207 -0.056702666 0.022233387 0.044680927 0.08687687 -0.065998964 0.025934482 0.07142336
-0.11252284 -0.008692493 -0.004104049 -0.15814635 0.08644493 -0.018593235 0.056924406 -0.10818051
0.044566642 0.008172957 0.046655618 -0.06616119 -0.01931474 0.048787244 0.048672765 -0.028376807
0.11478733 0.09127418 0.00874471 0.006049595 -0.07519959 0.033428814 0.104299925 0.12223533
0.010829859 0.018430699 -0.050133385 0.0061528953 0.023812402 -0.08951352 -0.028073095 -0.058132008
-0.011858735 0.030611014 0.02390402 -0.012789982 -0.08429453 -0.00021098492 0.021657724 -0.045045167
-0.009024119 -0.023131587 -0.066620186 -0.011496701 -0.009477535 -0.107004985 0.18080965 0.061625067
0.06648528 0.021046322 0.014185729 -0.033094835 -0.052009687 -0.042432047 0.0041314564 -0.06342491
-0.035715196 -0.12180657 -0.055502806 0.022688767 0.05187628 0.06322137 0.015500738 0.10575007
0.0660553 -0.1318077 -0.05348063 0.11484949 0.0075351773 0.06473174 -0.070299484 0.04559116
-0.030073075 0.01862171 0.024177566 0.09003732 0.08698807 0.035733044 -0.008928847 -0.060947563
00000000: 7945 a93c 8ad1 7a3d 192f d43c 9433 123e
00000010: 6230 9b3d cd3d 7e3d c94c 9d3d 0104 e2bb
00000020: 64da afbc dd51 be3d f29d 043d d212 e33c
00000030: 59ad 113e 1de0 8cbd 4497 e43d 9288 093d
00000040: 9004 60bb e461 583c e21d 69bd 6bf5 41b8
00000050: 3f9e 133d 99e5 4ebc 63b2 28bd 1c60 46bc
00000060: cb91 ef3d 480c 92bc b970 09bc 91d1 9a3d
00000070: 645e d13d 9e02 aebd 8656 a6bd 2b1e 34bc
00000080: f6f9 cb3d 7036 8cbb 7410 cfbd 9326 d0bd
00000090: f889 393d c464 ffbc c1c0 d2bd 8a48 d03c
000000a0: bf30 07be 45d0 ccbd c07f b1bd 9d23 adbd
000000b0: 060e 773c 15cb 093d 4d89 b03c 1de7 18be
000000c0: 6bc0 1d3c 4a93 203d d266 73bd 8f06 cb3c
000000d0: 1aef 92bd e33b 32bd 7c74 d33c ef98 91bd
000000e0: c956 213d 4871 9d3c 0595 51bd 4335 adbd
000000f0: 8d58 09be 45e7 4a3d f5c9 5a3d 7701 e8bb
00000100: 952a 92bb 90a8 6bbd 1d6f d33c a1a8 c13c
00000110: 0311 d8bd 73a4 923d 8390 0b3e dda7 cf3c
00000120: 3c36 eebc afa2 b5bb c3db 8d3c 9fad f83c
00000130: 7465 90bd 1581 34bd 30db 0d3e 970b debb
00000140: d4a7 9d3d fc2f 2fbd 12c7 a53c 0829 6d3d
00000150: 4bd5 54bd d331 3a3d 396d 583d dda7 fe3c
00000160: a5d1 e0bd a245 c9bd 2032 f1bd 3df8 11bd
00000170: 53fd f93b 5be6 9bbd 43f4 6cbd 8e8a 853d
00000180: 579d a4bd 0689 cbbc 7cbf a23d 0375 813c
00000190: 74b6 153e c634 46bd 11b6 363d 8fcd b8bd
000001a0: 44f3 c53d 34cd e3bc 5289 8b3c fb45 e83d
000001b0: 1131 cbbd 8680 f9bc 14e7 a4bd d3e4 1d3d
000001c0: 3828 eebc 5aef 8e3c 0d55 bfbc 61e6 e7bd
000001d0: 075e 97bc 0052 95bc 8142 3f3d 609b 1abd
000001e0: f76d 4a3d 5987 1c3e 85d2 fb3d ce74 97bd
000001f0: fb57 4c3c 2c85 d1bc 6022 16bb 6ea4 6dbd
00000200: 881a 32bd 74a8 cdbc d6e6 fcbc 16d3 d53d
00000210: 67fe 3e3c cdb3 003d 9b73 053d 0b99 5e3d
00000220: a560 93bd e17e 723d a301 18bd 84bd 1bbd
00000230: 1154 f6bb 1f41 b83d 926f b93c 907c 67bc
00000240: ca41 19be 8a2d febc 75a6 5b3b 3895 07bd
00000250: 8cc3 34bd 097a c43b 3bcc 473d b0f1 26bd
00000260: 390c d1bc b96e a13c dc34 ad3c a405 b03d
00000270: 6185 6cbc e08a 52bd 35ce 983d 46e6 d23d
00000280: 3423 77ba 6518 bbbc 103d af3c 8e7a 643d
00000290: 5671 26be 43cd f0bd b843 59bd 9cf4 43bd
000002a0: 3bdc dcbb 0e41 68bd cb22 b63c 5903 373d
000002b0: 80ec b13d 772a 87bd 8d74 d43c 6946 923d
000002c0: 6072 e6bd f56a 0ebc 427b 86bb 1ef1 21be
000002d0: 0a0a b13d d750 98bc 9129 693d be8d ddbd
000002e0: 838b 363d dee7 053c f619 3f3d 857f 87bd
000002f0: f239 9ebc 22d5 473d 185d 473d 7a76 e8bc
00000300: 9f15 eb3d f5ed ba3d f945 0f3c ae3b c63b
00000310: 3e02 9abd a7ec 083d 339b d53d 8456 fa3d
00000320: b96f 313c fafb 963c aa58 4dbd 3a9e c93b
00000330: 3a12 c33c dd52 b7bd 8cf9 e5bc d41b 6ebd
00000340: 244b 42bc f3c3 fa3c 5dd2 c33c 138d 51bc
00000350: 9ca2 acbd d53b 5db9 8a6b b13c 4881 38bd
00000360: e6d9 13bc 747e bdbc 2a70 88bd a95c 3cbc
00000370: aa47 1bbc 6e25 dbbd 2a26 393e 916a 7c3d
00000380: 6f29 883d 5669 ac3c 436b 683c 738e 07bd
00000390: 1c08 55bd 3acd 2dbd 2b61 873b ebe4 81bd
000003a0: 194a 12bd b975 f9bd e956 63bd cbdd b93c
000003b0: 397c 543d 357a 813d cff6 7d3c 7e93 d83d
000003c0: 0048 873d 99f8 06be 810e 5bbd 3636 eb3d
000003d0: a6e9 f63b 1392 843d 2df9 8fbd ccbd 3a3d
000003e0: cf5b f6bc 8e8c 983c 0810 c63c 7d65 b83d
000003f0: cd26 b23d d05c 123d 4c4a 12bc 27a4 79bd

network_body.observation_encoder.processors.0.normalizer.running_mean f4 [36]
0.030636251 0.01932672 0.94986504 0.9867888 0.62476957 0.021494156 0.35363856 0.68829983
0.58564746 0.014293211 0.4000223 0.6447086 0.3753203 0.023065094 0.60134375 0.7353225
0.38275558 0.013860543 0.6032891 0.7191412 0.44969088 0.073440835 0.47522923 0.74795234
0.4422316 0.089302056 0.4665363 0.7285513 0.014570648 0.23642232 0.74398255 0.9499178
0.014570648 0.23642232 0.74398255 0.9499178
00000000: e0f8 fa3c 1253 9e3c 5b2a 733f 319e 7c3f
00000010: e6f0 1f3f 8314 b03c 1d10 b53e 6b34 303f
00000020: feec 153f 122e 6a3c b9cf cc3e 9f0b 253f
00000030: fb29 c03e 02f3 bc3c aaf1 193f 183e 3c3f
00000040: 8af8 c33e 5517 633c 2871 1a3f a319 383f
00000050: e23d e63e 2668 963d 3f51 f33e ce79 3f3f
00000060: 2e6c e23e ffe3 b63d d9dd ee3e 5782 3a3f
00000070: bab9 6e3c b118 723e a475 3e3f d02d 733f
00000080: bab9 6e3c b118 723e a475 3e3f d02d 733f

network_body.observation_encoder.processors.1.normalizer.running_mean f4 [5]
-2.0391757 -3.02724 -3.9998834 6.9997816 12.787253
00000000: db81 02c0 4dbe 41c0 17fe 7fc0 36fe df40
00000010: 9798 4c41
