Assets/Training/results/b_treasure_test30/TreasureSearch/TreasureSearch-3999991.onnx (onnx, 574627 bytes, 13 tensors)

65 f4 [36]
000000 07 ab 3e 3e a8 3a 1d 3e 38 66 73 3e 88 0f a9 3d
       0.18619929 0.15354407 0.23769462 0.082549155
000010 89 3b fa 3e af 95 25 3e c9 d9 f6 3e 6d 6d 89 3e
       0.48873547 0.16170381 0.48213032 0.26841298
000020 7f a2 fd 3e 99 a6 07 3e 6f 37 fc 3e 61 13 a1 3e
       0.49538037 0.13247146 0.49261042 0.31460097
000030 f3 f8 f5 3e e6 55 2b 3e 09 c6 f9 3e 3d e1 ab 3e
       0.48041496 0.16731986 0.487839 0.3357028
000040 1b a8 f8 3e 4b a2 05 3e 8e b9 fa 3e c1 63 b6 3e
       0.48565754 0.13050191 0.48969692 0.3562298
000050 21 f1 fd 3e a1 4e 89 3e 65 dc ff 3e 5f f1 8f 3e
       0.4959803 0.26817802 0.49972835 0.2811384
000060 65 95 fd 3e c5 6f 8f 3e 6d cf ff 3e a1 1a 9c 3e
       0.4952804 0.2801496 0.4996294 0.30489066
000070 3a 5d 07 3e 48 9f d8 3e d3 17 e0 3e 46 54 d7 3d
       0.13219157 0.42309022 0.43768176 0.10514121
000080 3b 5d 07 3e 48 9f d8 3e d3 17 e0 3e 47 54 d7 3d
       0.13219158 0.42309022 0.43768176 0.105141215

68 f4 [5]
000000 10 c8 4e 40 3e 3c 9e 40 90 1a 07 3b 6d b3 67 3b
       3.2309608 4.944854 0.0020615198 0.0035354749
000010 4d d1 65 40
       3.5908997

action_model._continuous_distribution.log_sigma f4 [1, 2]
000000 b1 89 1e be 8e 93 aa be
       -0.15482213 -0.333157

action_model._continuous_distribution.mu.bias f4 [2]
000000 09 f8 b6 ba 3b bd e3 3c
       -0.0013959418 0.027800193

action_model._continuous_distribution.mu.weight f4 [2, 256]
000000 23 0f 5e bd a3 55 d4 3b 7d 39 96 bc 49 c9 fe bc
       -0.054213654 0.0064799353 -0.01833796 -0.03110184
000010 77 d5 3d 3d d7 e8 c7 3b e0 b9 1b bd 83 19 01 bd
       0.046346154 0.0061007547 -0.03801906 -0.03151847
000020 4b 4e 8a bc d2 73 d2 bc 4f b8 f5 3b a7 29 12 3d
       -0.016883036 -0.025689993 0.007498778 0.035684254
000030 77 d3 4b 3d a3 d1 2e bc 94 41 bd bb 45 f1 d8 3c
       0.049762215 -0.0106700985 -0.00577564 0.026482234
000040 82 9a 2f bb 7b 4a 8f 3c 3e 5b 1f bb 22 f6 27 3d
       -0.0026794975 0.01749157 -0.002431586 0.041006215
000050 20 0b 25 bd 44 1e 9c 3b 06 96 65 3c 19 24 ce 3b
       -0.040293813 0.00476435 0.014012819 0.0062909243
000060 3d c8 87 3c 3b 14 7c bd 2a 2f 4f bc f6 be b7 bc
       0.016574973 -0.06154273 -0.012645522 -0.022429924
000070 f6 5d 31 3c 4b ff 89 bc e7 fe dc bc ad 18 14 bd
       0.010825625 -0.016845366 -0.026977016 -0.036156345
000080 3f 5d 2c bb 50 0c 4e bd 13 b3 9a bc 84 f7 5c 3c
       -0.0026300696 -0.05030471 -0.018884217 0.013486747
000090 7d da 58 3c 97 43 a0 bc b9 7e 1c bc 89 6a 7a bc
       0.013235685 -0.01956348 -0.009551697 -0.015284189
0000a0 1a e9 24 bd 43 af c1 3b 8a c6 cf bb 53 20 55 bc
       -0.040261365 0.0059107854 -0.0063408064 -0.013008195
0000b0 04 60 20 bc 08 ec b9 bc 46 e0 c2 bc 8e 54 6b 3b
       -0.009788517 -0.022695556 -0.023788583 0.0035908553
0000c0 08 12 59 bd f3 b3 26 bd 77 cb 86 3a 11 3a 03 3d
       -0.05299571 -0.040698957 0.0010284026 0.0320378
0000d0 05 bb 49 bc 59 a1 6f 3c 15 81 dd 3c a3 c0 15 3c
       -0.012312655 0.014625871 0.02703909 0.009140166
0000e0 39 4b 50 3b 77 0f ff bb 9b 79 bb bb 94 2c d8 bc
       0.0031783117 -0.007783826 -0.0057212836 -0.026388444
0000f0 a4 7a fc bb 76 5b 66 3d c4 b0 6b 3d c4 e0 15 3c
       -0.0077050496 0.056239568 0.057541624 0.009147827
000100 04 32 f3 3c a0 8a 28 3c a5 9c 00 3d fe 53 88 3c
       0.029686935 0.010286957 0.031399388 0.016641613
000110 9f 19 90 bc 97 a9 0a 3d 4f 71 89 3c e4 e7 46 bd
       -0.017590342 0.03385314 0.016777663 -0.048560992
000120 3a d2 0c 3d c6 d0 91 bc 98 b9 e2 3c 96 46 41 3d
       0.034380175 -0.017799746 0.027676389 0.047186457
000130 88 1c f6 3a 40 f8 54 bb bb 65 e3 3c de 40 1f 3d
       0.0018776814 -0.0032496601 0.02775847 0.03888022
000140 76 33 23 3a cf ca a0 bc 06 35 31 3c 4a c6 0c 3a
       0.0006225625 -0.019627957 0.010815864 0.00053701235
000150 7a 27 7e 3c 11 b5 f1 bc 99 a2 10 bd bd 44 00 3d
       0.015512342 -0.029505285 -0.035311315 0.031315554
000160 5c 9a b5 3b 33 f9 0a bd e8 d4 6c bb 0b 02 93 bc
       0.0055420827 -0.03392906 -0.0036137644 -0.01794531
000170 f8 7f 8b 3b de be 7f bd d4 97 6b 3d 24 e6 22 bd
       0.0042571984 -0.062437885 0.05751784 -0.03977026
000180 db 0c ff bc 2f 66 47 3a f4 f5 e7 bc 54 4d 2e bd
       -0.03113406 0.0007606474 -0.028315522 -0.042554215
000190 67 61 a4 bc 5f c9 94 3b 91 e4 3b 3c 6f 0b 8f bc
       -0.020065976 0.004540607 0.011468069 -0.017461507
0001a0 05 21 4d bd 1a b0 09 3b a4 7f 07 bc 1a d1 54 3c
       -0.050080318 0.0021009506 -0.008270178 0.012989307
0001b0 15 35 55 3c 04 64 14 bd 2d 82 10 3d fc 7a 5e 3c
       0.013013144 -0.036228195 0.035280395 0.013579126
0001c0 cc 70 82 bd 8a 09 d4 3b d1 fb 92 3c 91 7e 99 3c
       -0.063691705 0.0064708637 0.017942341 0.01873711
0001d0 20 a0 3a bc 4a 20 fc 3c d9 26 ef 3a 87 73 85 bc
       -0.011390716 0.030777115 0.001824583 -0.01629044
0001e0 f4 2f 4f bc a1 74 0d 3c 14 13 87 bc 13 44 24 3c
       -0.01264571 0.0086337635 -0.01648859 0.010025996
0001f0 90 02 11 3c 81 f8 f0 3c 63 5b 35 bc 9d f5 16 3c
       0.008850709 0.02941537 -0.011069152 0.009213832
000200 4c 60 76 3a fb 6a 49 bc ab 7c 31 3c 7f c6 e1 3b
       0.00093985046 -0.012293573 0.010832946 0.0068901177
000210 c8 5c 33 3d a5 86 1e bc 41 f6 3f bc 56 f5 b1 bb
       0.043789655 -0.009675656 -0.011716426 -0.0054308577
000220 79 0d c8 3b eb e7 0b bb 60 b0 53 bd 9d 38 63 3b
       0.0061051217 -0.002134795 -0.051681876 0.0034671195
000230 b0 24 32 3c 32 02 32 3d 8b 2f b2 bc 4c ea 2b bc
       0.010873005 0.043459125 -0.021751186 -0.010492872
000240 ca 74 49 bc cf e4 9d 3c 8a a8 88 bc b2 7c 7f bc
       -0.012295911 0.019274144 -0.016681928 -0.0155936945
000250 34 07 d6 3c 7e d2 4d bd 56 8d a1 3c 50 ae 8e 3b
       0.026126482 -0.05024957 0.019720715 0.0043542758
000260 31 94 49 3c 28 b5 1e bb 1e d0 25 3c 58 26 1e bd
       0.012303398 -0.0024216864 0.01012042 -0.038610786
000270 ea a0 6e bc 08 63 ce 3b 0a 03 04 3d 9d 00 ce 3b
       -0.014564732 0.0062984265 0.03222946 0.006286694
000280 48 6d 6f 3d a1 fb f1 3c 46 dc e0 bc 8e 97 18 bd
       0.058453828 0.029538931 -0.027448785 -0.03725391
000290 14 97 ae bb 46 09 ba 3b 71 de 88 3b 94 6b 0a 3c
       -0.0053280685 0.005677375 0.0041769077 0.0084485
0002a0 18 8c 95 3c 5f f1 7f bc 75 c9 fb bc 37 20 8e 3c
       0.018255278 -0.015621512 -0.03073571 0.017349346
0002b0 13 b0 3d 3c ec 57 29 bb 69 bc e8 3c f3 b8 d1 3c
       0.011577624 -0.002583976 0.028410153 0.025600886
0002c0 94 a8 bb 3b d9 3d 33 bd 02 07 2c 3d 7e 9f d6 bc
       0.005726883 -0.043760154 0.04199887 -0.026199099
0002d0 60 77 5f 3c db 54 32 bc 0c 04 10 3d a5 7d 2a 3c
       0.013639301 -0.010884489 0.03516011 0.010405933
0002e0 d7 c7 1b 3d 03 cd 96 bc 77 e4 6e ba 29 e3 0a bd
       0.03803238 -0.018408304 -0.00091130234 -0.033908043
0002f0 f6 0c 63 bc fd 39 ab 3c 83 ff 09 3d c5 87 59 ba
       -0.013858071 0.020901674 0.03369094 -0.00082981243
000300 9d 82 64 bc f4 50 ec 3b cd b6 68 bc 32 19 b8 b9
       -0.013947156 0.007211799 -0.014203739 -0.00035113987
000310 8d b7 66 3c fc 93 b8 bb 3a e1 cd 3c 28 88 aa bc
       0.014081848 -0.0056328755 0.02513181 -0.020816877
000320 9f 63 cf bc 0d 0e bb 3c 18 8d 44 3d a4 cb ac 3b
       -0.025316058 0.022833848 0.04798612 0.0052732993
000330 2f 63 91 bb ec 96 0c 3d 7f ec 56 bd bc 44 e4 3b
       -0.0044368724 0.034323618 -0.052471634 0.0069662016
000340 3a dd bb bc 54 91 4e 3c 3a 79 f4 3c 60 a4 91 bc
       -0.022932637 0.012607891 0.029842962 -0.017778575
000350 84 00 2d 3c 13 81 2a bd 80 c8 3a bb 3d 9b bb bc
       0.010559205 -0.041627 -0.0028500855 -0.022901172
000360 7e d8 8d 3c b6 5c aa bc 71 0b f4 3a bb 58 6b bc
       0.017315146 -0.020796161 0.0018619132 -0.014364417
000370 a5 4e 36 bd c2 26 3a 3c b0 3b 16 3d 7a 30 e3 bc
       -0.044508595 0.01136178 0.036678016 -0.027733076
000380 03 49 26 3d 33 2d 54 3d 87 bf 4c bd b0 bd cf bc
       0.040596973 0.051800918 -0.049987342 -0.025359005
000390 c0 7a 00 3d 75 d0 ac bc bf 7b 30 bd dc 92 da bc
       0.031367064 -0.021095494 -0.043086763 -0.026681356
0003a0 78 81 26 3d 36 09 1e bd 45 d8 f8 3c 33 03 cc ba
       0.040650815 -0.038583003 0.030376563 -0.0015564918
0003b0 8a cb fc bc 48 80 dc bc d7 c6 1d bc 31 23 0f bc
       -0.030858774 -0.026916638 -0.009629927 -0.008736418
0003c0 3f 36 dc 3b 04 90 12 3d 0e 59 1b bd 37 e6 f7 bc
       0.006720334 0.035781875 -0.037926726 -0.030261142
0003d0 a7 d5 88 bc ed 6b 3d bc f3 71 18 3d 7c ae a3 bc
       -0.01670344 -0.011561376 0.037218045 -0.019980662
0003e0 54 6f 82 bd 14 55 3c 3d b4 43 97 3b dd 5e 1a bd
       -0.063688904 0.045979574 0.004616225 -0.037688125
0003f0 6f ae b5 bb 32 4b 31 bc 9d 9d af 3b 3c 29 74 bb
       -0.0055444757 -0.010821151 0.005359365 -0.0037256023

network_body._body_endoder.seq_layers.0.bias f4 [256]
000000 ac 57 42 3c fd 33 b1 3c 24 0b c9 3c 5e 30 cc 3c
       0.011861723 0.021631235 0.024541445 0.024925407
000010 1b d3 3b 3c e9 19 b8 3b 88 17 e0 3c 52 ac 0d 3d
       0.011463906 0.005618323 0.02735497 0.034588166
000020 8f 3e 87 3c 40 8e c3 bc 59 f1 40 3d 67 38 bb 3c
       0.016509322 -0.023871541 0.047105167 0.022854043
000030 92 7c c2 3c 2d 35 1b bd 2a b4 99 3c cb 4a 05 3d
       0.02374104 -0.03789251 0.018762667 0.03254203
000040 b6 91 e1 ba 13 be e2 bc 10 e1 83 3a 97 42 3f bb
       -0.0017209563 -0.027678525 0.0010061581 -0.0029183978
000050 fd 12 a5 ba bc d1 b6 3c 4f 55 ea bb 60 58 8f 3b
       -0.001259416 0.022316806 -0.007151283 0.004374549
000060 49 3b 0c 3d 40 98 2b 3d 4c a1 31 3d fa d0 f7 3c
       0.034236226 0.041893244 0.043366715 0.030251015
000070 a6 95 6b bc 9e db 8e 3c 2c f4 77 3c e7 83 9f 3c
       -0.014378941 0.017438706 0.015133899 0.019472076
000080 3f a0 e4 3c 34 a2 f5 ba 24 30 9c 3c 9b f5 91 3c
       0.027908443 -0.0018740357 0.019065924 0.01781731
000090 1a b0 7c bc e8 42 e9 bb 21 61 b3 3c ec 55 04 3d
       -0.015422845 -0.0071185715 0.0218969 0.032308504
0000a0 d2 c6 81 bc b8 fc 7d 3c 7f 48 07 3c f6 da 00 3d
       -0.015841875 0.015502147 0.0082570305 0.031458817
0000b0 69 cf ad bc 05 ac 68 3c 62 33 07 3d 52 93 a2 3c
       -0.021217065 0.014201169 0.033007987 0.019845638
0000c0 83 a9 22 3d 3d b5 7c bc b2 a8 f0 3b a1 fa 10 ba
       0.03971244 -0.01542407 0.007344329 -0.00055305107
0000d0 70 87 3a 3c b4 c6 89 bc f1 40 34 3c 93 22 c2 bc
       0.01138483 -0.016818382 0.011001811 -0.023698127
0000e0 3a 64 97 3c 71 fc 02 3c ab 0c b9 3c 04 0b f5 3b
       0.018480409 0.007994757 0.022589048 0.00747812
0000f0 a6 18 65 bc 45 c3 f0 3c dc 64 70 bc a7 3c 70 3c
       -0.013982927 0.029389987 -0.014672484 0.014662898
000100 90 f0 da 3c fc 10 6d 3c 9a 08 0a 3d 49 d7 d3 3c
       0.026726037 0.014469381 0.03369961 0.025859492
000110 90 7b be 3c 59 04 85 3c fc 26 96 3c 06 c2 e1 3a
       0.023252279 0.016237425 0.018329136 0.0017223961
000120 1e 29 47 3c 6e 00 9c 3c 98 05 ac 3c a6 c2 10 bc
       0.012155799 0.019043174 0.020998761 -0.00883547
000130 ae 7d 89 bc f2 05 08 3d d0 69 c5 3c d8 82 aa bc
       -0.016783562 0.033208795 0.024098307 -0.020814344
000140 e4 52 95 3c 30 3d 0d bb ca fe c4 3c 48 25 34 bb
       0.018228002 -0.0021551363 0.024047274 -0.0027488042
000150 36 31 97 3c 29 55 ab 3c 21 6d d9 3c 27 a3 a0 3c
       0.018456083 0.020914631 0.026541295 0.019609047
000160 4f f7 f6 bc 0b 24 37 bc 99 bf fa bb 13 9f 9c 3c
       -0.030147223 -0.011178027 -0.0076522348 0.019118821
000170 95 14 f5 3c b1 a1 7e 3c e6 d9 af 3c b2 f6 08 3b
       0.02991704 0.01554148 0.021466207 0.0020898995
000180 2e 1b fc 3c 44 bb 3b b9 22 4f c2 3c 87 99 dd 3c
       0.030774679 -0.00017903472 0.023719374 0.027050747
000190 2f 3c 3c bc 4c ba 5d 3d bf c3 cd 3c 7a f5 e7 3c
       -0.011488958 0.054132745 0.025117753 0.028315295
0001a0 29 f3 e1 3c a0 61 4c 3c f6 f4 ca 3c 96 81 02 3d
       0.027581768 0.0124744475 0.02477501 0.031861864
0001b0 1b 80 db 3b 3c ce 0c 3d 6d e0 9e 3c f7 40 9a bc
       0.006698621 0.034376368 0.019394124 -0.018829806
0001c0 7b f0 ad 3b 5d 20 03 3d 4e 3d d5 3b 69 a0 36 3c
       0.0053082085 0.032013286 0.006507552 0.011146643
0001d0 2f cb 7e 3c 2d 25 89 bb 59 51 ca 3c 7f 22 00 bb
       0.015551372 -0.00418534 0.024696993 -0.0019551811
0001e0 11 a5 1b 3d 81 29 f4 bb 6c 82 7b 3b e3 08 a0 3c
       0.037999216 -0.0074512367 0.0038377298 0.019535488
0001f0 03 27 7e 3c 03 28 31 3c ad bb e4 3c 91 40 d5 3c
       0.015512231 0.010812762 0.027921522 0.026031764
000200 e2 f3 51 bc c3 7b 35 3c dd 18 b2 3c 82 42 79 3c
       -0.012814494 0.01107687 0.021740371 0.015213611
000210 06 6a 90 3c c6 84 82 bb e5 93 cc 3c 47 2e 93 3c
       0.01762868 -0.003983113 0.024972865 0.017966403
000220 f6 09 18 bc f4 00 79 ba 5d 18 da 3a 51 16 e3 3c
       -0.009279719 -0.0009498738 0.0016639341 0.027720602
000230 7d 9f 7b bc 96 61 97 bc 3f ff 09 bb db 83 19 3d
       -0.015357849 -0.01847915 -0.002105668 0.037479263
000240 2d 53 0e 3d fb 38 25 3a 1a d5 b6 bc 21 5b 81 bc
       0.03474729 0.0006302741 -0.022318412 -0.015790524
000250 87 61 e8 b9 e5 f7 6d 3c e7 67 68 bc 01 e3 81 bc
       -0.00044323152 0.014524435 -0.0141849285 -0.015855314
000260 44 91 7e 3c 97 4e c3 3c 6d 4c ea 3c d7 7f 05 3d
       0.015537564 0.023841185 0.028600896 0.03259262
000270 d7 72 2a 3d c5 81 57 3c 9d ee 8c bc 16 c5 19 3d
       0.041613426 0.013153498 -0.017203623 0.03754147
000280 ca 3f 1d 3d 09 8a 07 3d 75 28 47 3c f9 5d 99 3c
       0.038390912 0.033090625 0.012155642 0.018721567
000290 e9 4c c9 3c 58 6c 67 3c 9a c6 b9 3c 19 00 3c 3d
       0.024572806 0.014124952 0.022677708 0.04589853
0002a0 12 90 ca 3c a9 71 97 3c 71 90 6b bc ec 83 1f 3c
       0.024726901 0.018486815 -0.014377699 0.0097360425
0002b0 c0 7d f8 3c e9 e5 8b bc c2 e1 0c 3d 2c 30 73 bc
       0.0303334 -0.017077403 0.034394987 -0.014843028
0002c0 b7 2c 00 bc 8f c9 2d 3b 2f f2 5f 3c f4 8e 20 bc
       -0.007823161 0.0026517843 0.013668581 -0.009799708
0002d0 e6 62 00 3d bb f8 92 3c 03 3e 26 3b 7b ae ab 3c
       0.031344317 0.01794087 0.0025366552 0.020957222
0002e0 d0 4c 03 3d 74 76 b2 3c 1f 88 e7 3c a1 5d 23 ba
       0.032055676 0.021784998 0.02826315 -0.00062319083
0002f0 ce 80 a8 3c 6e b8 b7 3c 5a 10 cb 3c 69 4f 1f 3d
       0.020569231 0.02242681 0.02478807 0.03889409
000300 5b 5d be bc b0 25 2e bc a8 07 0e 3d 26 79 c3 3c
       -0.023237875 -0.010629103 0.03467527 0.023861479
000310 2a 01 72 bc a8 c8 f5 3c d9 98 a2 3a 7a 74 d3 3c
       -0.014770785 0.030002907 0.0012405171 0.025812376
000320 58 dc f7 3c 6f a0 ee 3c 8f 5f b9 3c ab be 84 3d
       0.030256435 0.029129235 0.022628574 0.064816795
000330 f2 90 a3 bc 2e e3 26 3d a8 32 04 3d f6 3a aa 3c
       -0.019966576 0.040744 0.032274872 0.020780068
000340 83 db d5 bc 47 af fa 3c 19 5f 4b 3d 59 12 bf 3b
       -0.026105648 0.030601157 0.04965124 0.0058310446
000350 4b f8 d9 3c 69 13 91 3c a6 79 fa 3c a0 f9 39 3b
       0.026607653 0.01770945 0.030575585 0.0028377548
000360 5b 23 a1 bc 9a 63 4c bc 63 4a c4 3b 38 0d c9 3c
       -0.01967018 -0.012474919 0.005990313 0.024542436
000370 b5 86 87 3c ff ad 2c 3d 3f 5e 4d 3c 10 c7 ec bc
       0.016543726 0.042158123 0.012534677 -0.028903514
000380 9c 18 9a 3c a9 17 75 bc 07 ba b8 3c 7e fd f6 3c
       0.018810563 -0.014959254 0.022549642 0.030150171
000390 97 03 9b 3c f1 86 32 bb bc 0a fa 3c ce 50 d0 bc
       0.01892261 -0.0027241076 0.030522697 -0.025429156
0003a0 f2 c9 df 3c 5a 51 dd bb e5 df 5f 3c 71 a5 83 bc
       0.027317975 -0.0067540826 0.01366422 -0.0160701
0003b0 2c 9e 82 bc a8 1f 14 3d bc b5 a2 3c 80 8d cf bc
       -0.015944563 0.036163002 0.019862048 -0.025336027
0003c0 85 1f e4 3c ec 8b cd bc 77 33 c4 3c 4e 9b a5 3b
       0.027847061 -0.025091134 0.023950322 0.005053914
0003d0 32 1c 7c b9 95 82 a2 3c c8 89 c6 3c b8 e2 e2 3c
       -0.00024043096 0.019837657 0.024235621 0.027695999
0003e0 03 4b cf 3c dc 08 05 3c 8c 02 02 3d 82 62 c5 3c
       0.025304323 0.008119788 0.03174071 0.024094824
0003f0 ab 95 22 bc b4 ab e9 3c 35 f6 8d bc 2e ec b9 3c
       -0.009923379 0.028524257 -0.017329315 0.022695627

network_body._body_endoder.seq_layers.0.weight f4 [256, 41]
000000 62 17 2a 3e 1c 4d a0 bd f9 86 a0 bd 92 17 0c bd
       0.16610482 -0.078272074 -0.07838244 -0.034202166
000010 73 11 68 3e 74 2b 3f 3e ed 12 b3 3b b1 d3 70 3e
       0.22662906 0.1866892 0.0054649026 0.23518254
000020 90 79 2a 3d 8f e3 da 3d 7c 32 2e 3c 8c 0b 64 3e
       0.041619837 0.106879346 0.010632154 0.2227003
000030 f3 9c 89 3d 91 2c 56 3d 53 be 50 3e 5a cf d6 bd
       0.06719389 0.052288596 0.20385103 -0.10488768
000040 ff 54 77 bd 1c 9f c1 bd 35 92 fc 3d 91 ad 39 3e
       -0.060383793 -0.09454176 0.12332574 0.18132617
000050 84 49 99 bb 4b e6 d0 bd 32 b5 ee 3d d4 0a f2 3d
       -0.004677953 -0.10200175 0.11655654 0.118184716
000060 93 30 05 bd fa 17 17 3e b9 92 32 3e 31 e4 64 3e
       -0.032517027 0.1475524 0.17438783 0.22352673
000070 d0 69 0c be de 76 89 3e 00 ff cd bd 37 8c 61 3e
       -0.1371224 0.268485 -0.10058403 0.22026144
000080 95 d8 ab 3d 86 36 74 3e 7a 99 83 bd b5 64 0b bc
       0.08390919 0.23848924 -0.06425758 -0.008507897
000090 e2 d2 34 3e fa 98 a1 bd 51 79 80 bd 4e 95 b1 bd
       0.1765857 -0.07890506 -0.06273139 -0.08671056
0000a0 a0 5d d8 3d f8 4a 4d 3d 67 05 40 bd 21 53 67 bd
       0.105647326 0.050120324 -0.046880152 -0.056475762
0000b0 03 06 a4 3d d0 e4 ff bd ba 59 5e be 0b 1b eb 3d
       0.08008959 -0.124948144 -0.21713915 0.114797674
0000c0 48 16 72 be 76 5e e6 bd 3e 45 3c be a9 3e 2f be
       -0.23641312 -0.11248486 -0.18385789 -0.17113747
0000d0 84 d9 67 be 7d 62 2a bd b2 cd 04 be d3 ec 21 3e
       -0.2264157 -0.041597832 -0.12969092 0.15812998
0000e0 0e 65 17 bc f6 4a 55 be 08 77 1c be 70 c8 02 3e
       -0.009240402 -0.20829377 -0.15279782 0.12771773
0000f0 7d 2f 7f be 6e dc 22 be 63 63 3b 3e e8 2f 75 be
       -0.24920459 -0.159044 0.18299632 -0.23944056
000100 ec 1b 15 bd 52 83 c2 3d 6f 01 a3 be 1e 88 5e 3e
       -0.03640358 0.094977036 -0.3183703 0.21731612
000110 5b e4 10 3d 87 4b 17 be 29 02 fa 3d 32 aa be bd
       0.035374027 -0.14774905 0.12207443 -0.09309806
000120 6e c9 26 bd 8a 29 a0 bd e6 fc 25 be df f1 97 be
       -0.040719442 -0.07820423 -0.16209754 -0.2967672
000130 de e7 c5 ba dd 37 09 be de a3 67 be cb 5a 8e 3d
       -0.0015099009 -0.13400216 -0.22621104 0.06950911
000140 da 61 fa bd 56 67 94 be d5 83 55 be 2a 26 20 be
       -0.12225695 -0.2898509 -0.20851071 -0.15639558
000150 86 fe 5e 3e e0 d5 48 3d fc e3 d9 3d 96 6d 79 3e
       0.2177678 0.049032092 0.10639188 0.2435821
000160 8a d4 b3 3d ff 64 51 3d 42 af 74 bb 59 98 a2 3d
       0.08780773 0.051121708 -0.0037335907 0.07939214
000170 6c 3c 6e 3b 68 95 03 3e c0 ca 65 3e ee 31 ca bc
       0.0036351932 0.12849963 0.22440624 -0.024682011
000180 96 a3 54 3e 08 3d 95 be c6 ef 71 3d 29 69 07 3d
       0.20765528 -0.29148126 0.059066556 0.033059273
000190 8f ef 0d be d0 23 b3 3d 13 58 d4 3d 16 d2 13 3e
       -0.13860916 0.08747065 0.10368361 0.1443561
0001a0 a3 cc 8a 3d e9 9e 1e 3e 17 95 eb 3c ee 02 93 3e
       0.067773126 0.15490307 0.028757615 0.28713173
0001b0 cb f0 89 3e da f8 dd bd ac e2 6d 3e 7c 97 56 be
       0.26941523 -0.1083848 0.23231 -0.20956224
0001c0 2f 24 a1 3c 1d 44 79 bd 98 cc 23 3e dc 39 f9 bd
       0.019670574 -0.060855974 0.15996015 -0.12169239
0001d0 12 4c 01 3d fd d5 54 3e fc 45 b3 bd 63 dc d9 bd
       0.031566687 0.20784755 -0.08753583 -0.106377386
0001e0 b6 17 d0 bd f9 70 cf bd d7 e6 02 3e 99 fa 3c 3e
       -0.101607725 -0.1012897 0.12783371 0.1845497
0001f0 58 32 25 be a5 f7 8d ba a8 f2 1c 3e 9f 03 ec 3c
       -0.16132486 -0.001083125 0.15326941 0.02881032
000200 e9 74 70 bd a1 ea 99 be 70 19 46 3e c1 a1 68 be
       -0.058705244 -0.3006182 0.19345641 -0.22717954
000210 70 bf 2b 3e c2 7e 81 3e ed ee 14 be d3 95 8d bd
       0.16772246 0.2529202 -0.14544268 -0.06913342
000220 80 11 a8 bd 0a 62 9c be 27 69 8f 3b 27 17 7f 3d
       -0.08206463 -0.30543548 0.004376549 0.06227794
000230 0c 6d 55 3e 66 18 88 bc cf be 1a bd bd c4 ba be
       0.2084238 -0.016613197 -0.037779626 -0.36478224
000240 f4 78 0b 3e ee 85 1c 3e a8 96 43 be 5f 44 3e 3e
       0.13620359 0.15285465 -0.1910044 0.18580769
000250 c6 85 94 be b8 70 81 3d a0 78 68 bd f8 01 27 3d
       -0.2900831 0.063203275 -0.056755662 0.040773362
000260 b3 72 05 3e 5d 97 82 bc ef b4 b5 bd 34 99 a3 bc
       0.13032036 -0.015941316 -0.08872401 -0.019970514
000270 01 8e 48 3e 77 c6 e6 3c 85 18 5c 3e f4 95 9e 3d
       0.1958542 0.028170807 0.21493728 0.07743445
000280 2d 18 09 be 82 8e 80 3e 87 47 2b 3e 9e 15 20 be
       -0.13388129 0.25108725 0.16726504 -0.15633246
000290 d1 ae 8c 3d 6e cf 25 be 17 75 9a be 18 a0 70 be
       0.06869281 -0.1619241 -0.30167457 -0.23498571
0002a0 7b b0 ed bd 75 11 c1 bd 0a 33 4c bd 61 d2 01 bd
       -0.116059266 -0.09427158 -0.049853362 -0.031694774
0002b0 a5 63 f3 bd 91 09 bc 3d cc 9b 1c 3d 8e 0b 2e 3c
       -0.1188424 0.09181512 0.038234517 0.010622872
0002c0 d7 f2 9d 3d a8 bb b9 3b 86 b6 3a be dd bb e4 3d
       0.07712334 0.0056681223 -0.1823369 0.111686446
0002d0 0d c1 84 3e aa 0b 69 bd b2 67 81 3e 86 0f 6f 3e
       0.25928536 -0.05689589 0.25274426 0.23345765
0002e0 bc fd ba be 88 b8 51 bd 4d 62 0d bd 6c 3e a6 bd
       -0.3652171 -0.051201373 -0.034517575 -0.08117375
0002f0 9f 41 d5 3d c7 c6 21 3d 17 39 03 3e 60 69 8f 3e
       0.10412907 0.03949621 0.12814747 0.28010082
000300 92 a8 20 be 0b 0e 1e 3d f3 50 a1 bd a1 24 cf bc
       -0.15689304 0.03858761 -0.07876768 -0.02528602
000310 ce 94 d4 38 bc 4a 75 3e ba 95 8c 3e e7 ec 68 3e
       0.00010136665 0.2395429 0.27457982 0.22746621
000320 6d 4a 12 3d 22 ab bb 3d 6e 49 41 bd e6 cb a6 be
       0.03571551 0.091635 -0.04718917 -0.32577437
000330 65 d8 ad bd 3d 88 54 be 18 6a cc bc cb 23 72 be
       -0.084885396 -0.20755096 -0.024952933 -0.23646466
000340 29 f7 07 be 43 35 02 be 1d b1 89 be 49 34 c6 3d
       -0.13277878 -0.1271563 -0.2689294 0.09677941
000350 7c b0 84 3e e1 fe 0f be 16 b9 78 be c7 1f 56 bc
       0.25915897 -0.14062072 -0.24289355 -0.0130691
000360 b9 84 0f be bf 54 d4 bd 62 f7 bb bd 33 dd 60 3e
       -0.14015473 -0.103677265 -0.09178044 0.21959381
000370 b2 75 27 be 89 3d 23 3e 41 fa 6a bd cc e6 69 3d
       -0.16353491 0.15941443 -0.057367567 0.05710487
000380 5d 20 7e 3e 02 e0 4c bd 7e 85 18 3e 7d 23 85 3e
       0.24817033 -0.050018318 0.14894673 0.26003638
000390 20 f9 17 3e 79 74 ff bd 0b f3 11 3c 9f 6b 93 3e
       0.14841127 -0.12473387 0.008908044 0.28793046
0003a0 75 b5 96 3d 1c 09 31 be a0 bc 71 be c4 c2 1a 3e
       0.07358829 -0.17288631 -0.23607111 0.1511336
0003b0 a0 91 a4 3e fc c2 69 bd 38 d9 b5 3e 93 91 4a 3e
       0.32142353 -0.057070717 0.35517287 0.19782095
0003c0 ff 86 dc 3d 5f 4e d7 bd 1d 02 0a be 59 83 3e 3e
       0.10767936 -0.10512995 -0.13477369 0.18604793
0003d0 3e bb dc 3d bb 27 10 be d5 47 b7 3e 34 96 8c bc
       0.10777901 -0.14077656 0.3579699 -0.017161466
0003e0 bb 2c 32 bd ee 5f 4c be 77 05 12 bd 84 af a3 3d
       -0.04349969 -0.1995847 -0.035649743 0.07992461
0003f0 9d 37 04 bc 4a e4 bb 3d 8c 09 73 3e fa 0e e2 bd
       -0.0080699 0.09174402 0.2373411 -0.11038013

network_body._body_endoder.seq_layers.2.bias f4 [256]
000000 90 d7 17 bd 46 14 e3 3c 72 f3 7b 3c 6a 2a c8 3c
       -0.03707081 0.027719628 0.015377866 0.024434287
000010 32 ae 6c 3c e2 1c bc 3c 5c fb 2e 3c 5f ad ca 3c
       0.014445828 0.022962991 0.010680046 0.024740873
000020 d3 77 16 bd 22 7b bf 3c a0 14 af 3c 35 a9 7a 3c
       -0.036735367 0.023374144 0.02137214 0.015299131
000030 3b ae d0 3c 51 65 a2 3c 7b 2d 7e bc c3 8f ef 3c
       0.025473705 0.019823702 -0.015513773 0.029243356
000040 18 47 ae 3c 42 3e 8c bc 23 25 03 3d 3e f8 f0 bc
       0.021274135 -0.01711953 0.03201784 -0.029415246
000050 0c 50 d4 3c cb 52 de 3c db e7 99 bc e5 1e 22 bd
       0.025917076 0.027139088 -0.018787315 -0.039580245
000060 42 f0 c2 3c 75 33 4f bc 22 b2 1e 3c 62 a4 83 3c
       0.023796204 -0.012646546 0.009686025 0.016069595
000070 c5 cc 89 bc 46 00 9e 3c 7e ab b6 3c 2d ca 77 3c
       -0.016821275 0.01928724 0.02229857 0.015123886
000080 78 9d e3 bc 8b 9b a4 bc dc 1f 1b bd be af 3e 3b
       -0.027785048 -0.0200937 -0.03787218 0.002909645
000090 ad b9 93 3c f5 0f 82 3c c1 7a 5d bc dc b8 96 bc
       0.018032873 0.01587675 -0.013518036 -0.018398695
0000a0 29 9b e8 bc de 6d b6 bc a1 52 99 bc 4b a8 c8 bc
       -0.028394299 -0.022269186 -0.018716158 -0.02449431
0000b0 9f 74 99 3c 4a 8c de 3c 17 11 c2 3c 5e 0d 1c 3c
       0.018732367 0.027166504 0.02368979 0.009524671
0000c0 9c 21 a1 bc 44 32 f3 3c 44 59 7b bc f0 ce b1 3c
       -0.019669347 0.029687054 -0.015341107 0.02170512
0000d0 9b 49 f8 3c 01 e5 a4 bc 8b 86 99 bb 4a 2a d1 3c
       0.030308535 -0.020128729 -0.004685228 0.02553286
0000e0 59 11 d9 3b 91 ba 04 bd 01 3d 04 bc 98 d0 ef bb
       0.0066243825 -0.032404486 -0.008071185 -0.0073185675
0000f0 1c 06 be 3c 3c 38 ec 3c c5 5e 98 bc e8 d6 cb ba
       0.023196273 0.028835408 -0.018599877 -0.0015551718
000100 51 c4 b3 bc 1b 48 c5 3b ed 5d 56 bc 45 5f 8c 3c
       -0.021944197 0.0060205585 -0.013083917 0.017135272
000110 26 32 d8 bc dc dc cf 3a d7 bf bb 3c b2 82 e8 bc
       -0.0263911 0.0015858668 0.022918625 -0.028382633
000120 d6 6f 0a 3d 48 dc 68 3c 9d 7c f6 3c 73 43 0f 3b
       0.03379806 0.014212675 0.030088717 0.0021860271
000130 c1 2e e6 bb 3f d1 c2 3c b1 65 a2 bc 60 1d bc 3c
       -0.0070246165 0.023781417 -0.01982388 0.022963226
000140 2e a8 9d 3c 47 8a 32 3c 98 5a 12 bb ae 6e cf bc
       0.019245233 0.010897226 -0.002233183 -0.02532133
000150 ae 33 71 3c 40 d1 bc bc 8d 5f bc bc 2d af 6b 3c
       0.014721794 -0.023048997 -0.02299478 0.014385027
000160 94 04 12 3d dd 31 0d bd 45 00 d6 bc 11 d6 ac 3c
       0.035648897 -0.03447138 -0.026123175 0.021098169
000170 f3 3a 9a 3c f0 ee d9 3c 35 f4 8e bc 79 96 9f 3c
       0.018826937 0.026603192 -0.017450431 0.01948093
000180 2b 07 8a 3c 82 95 b0 3c af 96 f4 3c 68 6e b6 3c
       0.016849121 0.021555666 0.029857008 0.022269443
000190 06 18 df bc d9 65 e2 3c c3 0c 16 bd d3 2c c0 3c
       -0.027233135 0.027636455 -0.036633264 0.023458874
0001a0 0c 71 60 bc ff 39 53 3c 3c 49 3a bc 78 1b a6 3c
       -0.0136988275 0.012892245 -0.0113699995 0.02027677
0001b0 49 fe 8d 3c 00 2b da bc c8 bf bf 3c 6a 94 da 3c
       0.017333167 -0.026631832 0.023406878 0.026682097
0001c0 e7 bd f5 bc 8a 60 36 bd 5d 3c 79 bc cc 8c 14 bd
       -0.029997779 -0.04452566 -0.015212146 -0.036267087
0001d0 35 6d aa bc 9f 3d fc bb 56 c9 91 3b bb 5d f7 3c
       -0.020804027 -0.0076977755 0.00444905 0.030196061
0001e0 18 ff e1 3c f7 8d 05 3d 46 a8 88 3c 6b 1a 76 3c
       0.027587458 0.03260609 0.016681802 0.015020947
0001f0 f9 4e 33 3c a6 d8 5c bb 5b 7c c6 3c 48 bf 37 3c
       0.0109441215 -0.0033698468 0.02422922 0.011215039
000200 94 8f f4 b9 8a 5f 69 3c 02 16 d9 3c 55 5c ef 3c
       -0.0004664628 0.01424397 0.026499752 0.029218832
000210 c9 fe ef 3c 7f 85 c3 3c 27 eb 32 bc dc 49 fe 3c
       0.029296296 0.023867367 -0.0109203225 0.031041078
000220 3c 24 17 3c 8f c7 ae 3b a2 70 7d 3b 0b 12 ab 3c
       0.009224948 0.005333848 0.003867187 0.020882627
000230 cf 2f fd 3b b3 75 8d 3c 8f 4e 82 bc 1c f9 93 bc
       0.0077266465 0.017268037 -0.0159066 -0.01806312
000240 6a c8 8a bc 85 40 ea b9 b6 ff 7b 3c 0b 50 03 bd
       -0.016941268 -0.0004468003 0.01538079 -0.032058757
000250 53 08 b0 3c ab 3c 82 3c ce da b4 3c db 37 0f bd
       0.021488344 0.01589807 0.02207699 -0.034965377
000260 73 e8 dd ba d2 03 a8 bc 10 17 eb bc 33 be 8f 3c
       -0.0016930237 -0.020509634 -0.02869752 0.017546749
000270 ce 27 db 3c eb 4b b7 3c 71 d0 21 bd 0e 12 c6 bc
       0.026752379 0.022375068 -0.039505426 -0.024178531
000280 e4 34 87 3c b5 da fe 3c 22 aa 4b 3c 16 de d4 3c
       0.016504712 0.031110147 0.0124307 0.025984805
000290 c4 bc a7 3c 99 ae b4 bb 3c bf f7 bc 62 3c a7 3c
       0.020475753 -0.0055139777 -0.030242555 0.020414535
0002a0 ad 5a 3f bb d3 25 7e bc cc a5 06 3d d1 83 82 3c
       -0.0029198334 -0.015511948 0.03287296 0.015931996
0002b0 f4 c7 cd 3c 7a ce d6 bc 04 53 e0 3c de 40 7c 3c
       0.02511976 -0.026221503 0.027383335 0.015396325
0002c0 c9 fa cc bc de 72 a1 bc 3a 18 00 3d 7c 7c ed bc
       -0.025021927 -0.019708093 0.031273104 -0.028990023
0002d0 62 b9 48 bc c2 51 80 3c 2f 4d f2 3c fc db 17 bd
       -0.01225123 0.015663985 0.02957782 -0.037075028
0002e0 8f 36 5d 3b d9 19 c5 3c 53 a2 d9 3c 9d 5d be 3c
       0.0033754443 0.024060177 0.02656666 0.023237998
0002f0 c4 02 71 3c f1 c2 b7 bc 1f aa 02 3d 69 7a 95 bc
       0.014710132 -0.022431822 0.03190052 -0.018246846
000300 60 4a c5 3c 06 91 8b bc 5b c6 f5 bc b7 75 7a 3c
       0.024083316 -0.017036926 -0.03000181 0.0152868545
000310 aa 21 de 3c 19 f7 fa bc cf 26 13 bc a1 b4 c2 bc
       0.027115662 -0.030635403 -0.008981421 -0.023767771
000320 c6 61 d5 3c ce cb 7c bc be 90 08 bd 8e 43 34 3c
       0.026047599 -0.01542945 -0.033341162 0.011002434
000330 5e 15 bf 3c 68 cd c9 3c e7 c3 c4 bc 9c 61 06 bc
       0.023325618 0.024634078 -0.024019195 -0.008201983
000340 0b 88 b9 bc cd 68 00 3d 31 ef 92 3a 68 71 2e 3c
       -0.022647878 0.031349946 0.0011210201 0.010647155
000350 4a 34 b3 3c 33 ab 92 3c 3f 79 54 3c 96 c1 c2 bc
       0.02187552 0.0179039 0.01296836 -0.02377395
000360 50 86 dd 3c b9 6c 8d bc a2 cf 55 bc 81 33 64 3b
       0.027041584 -0.017263757 -0.013049992 0.0034820738
000370 b3 3f be 3c 24 9d ad 3c 91 93 f3 3c 02 bb ef bc
       0.023223734 0.021193095 0.029733451 -0.029263977
000380 e1 c9 de 3c 9f 86 8c 3c 03 2e c1 3c 7a f9 93 bc
       0.027195873 0.017154036 0.02358151 -0.018063296
000390 ce a7 91 3c ec b4 f4 bc 2c b4 e6 3c c2 7e 0b 3d
       0.01778021 -0.029871427 0.028162085 0.034056433
0003a0 61 1d b0 3c d3 f7 88 3c 1b 9b d7 bc 1b 89 d9 3c
       0.021498384 0.016719734 -0.026319077 0.026554635
0003b0 7e 2f e8 3c fc a3 bd 3c 9f ab 8d bc 15 c3 87 3c
       0.028342959 0.023149483 -0.01729375 0.016572515
0003c0 73 86 82 bc c9 c3 9a bc 0a d8 f5 3c f2 2f 71 3c
       -0.015933251 -0.018892186 0.030010242 0.014720904
0003d0 fa e0 e8 3c 7e 3f 27 3c a2 7f e8 bc 3a cc 98 3c
       0.02842759 0.010208009 -0.028381173 0.01865207
0003e0 89 e0 b0 3c 3a ed 55 3c 9f 95 af 3c 2c 69 df bc
       0.021591442 0.0130570475 0.02143365 -0.02727183
0003f0 9d 31 c4 3c 26 1f 09 3d ed fa 21 bb 39 b7 59 3c
       0.023949439 0.03347697 -0.0024716214 0.013288313

network_body._body_endoder.seq_layers.2.weight f4 [256, 256]
000000 d7 16 d0 bc 84 60 fa bd 72 bf 94 3d 12 64 ac bd
       -0.025401516 -0.1222544 0.07263078 -0.084175244
000010 ba f3 17 3b 2d 43 cf 3d 86 dd 61 bd 76 e8 6c bd
       0.0023186044 0.10120235 -0.0551429 -0.05783888
000020 c5 1e db bb f7 64 71 3c a6 ef df bd 88 40 c0 bd
       -0.0066870176 0.014733545 -0.10934381 -0.09387308
000030 f2 8c f5 3a 6a a6 39 bd 4f 7c 10 bd c0 b2 4d 3c
       0.0018734022 -0.04532472 -0.0352748 0.012554824
000040 1f e7 a9 3d d0 90 ac 3b b8 62 05 3e b2 79 10 3c
       0.08296036 0.0052662864 0.1302594 0.008818077
000050 e4 bc 70 3d 18 e8 73 3d f1 d6 e4 3d 54 f1 f9 bc
       0.05877389 0.059547514 0.11173809 -0.030510582
000060 24 24 27 3c b7 86 99 bc 5d 05 d4 bc af c3 68 3d
       0.010201488 -0.018740995 -0.025881464 0.056827243
000070 43 8d cb 3c 12 08 87 bd d5 f8 12 3d ea dd 2a 3d
       0.024847632 -0.06593336 0.035881836 0.04171554
000080 bc b3 d8 bd 7e cd ca 3d 0b 24 8d bc 0a ed e7 3b
       -0.105811566 0.09902476 -0.0172291 0.007077818
000090 35 42 72 3d 1a 58 34 bb 40 de e0 bd 08 bf a2 3b
       0.05914517 -0.0027518333 -0.10979891 0.0049666204
0000a0 d6 9f 4a 3d 2a f7 d5 3c b3 ff 9f bd 11 eb 31 3d
       0.049468838 0.026118834 -0.07812443 0.043437067
0000b0 3f b4 c2 bd b8 5b 0d be 69 7a af 3b 76 ae 0b 3d
       -0.095070355 -0.13804519 0.0053551686 0.034101926
0000c0 50 7c 28 bd ed 4a a8 3c 54 8b 4c bd 61 43 d4 3b
       -0.04113418 0.02054354 -0.04993756 0.0064777588
0000d0 44 df b9 3c 0f cf 40 bc 2e 39 07 3d 8d 5a d8 3c
       0.02268947 -0.011768117 0.033013515 0.026410365
0000e0 ba ac 71 bd f0 12 80 3b 0d ab 0f bd 56 9b 79 3c
       -0.059002616 0.0039085075 -0.035075236 0.015234789
0000f0 69 68 f7 3c 38 9f c9 bd f7 85 0e 3d 74 c4 07 bd
       0.030201154 -0.09844822 0.034795728 -0.033146337
000100 2c e0 d6 bd 95 d2 17 3d 06 3a ac bd e5 c6 38 bd
       -0.10491976 0.03706606 -0.084095046 -0.045111556
000110 61 b9 2e be 42 5d 5a 3d 96 7c 4c bd 2b f2 1c 3d
       -0.17062904 0.053311594 -0.049923502 0.038316887
000120 73 f9 9a 3a 43 7c 90 bd 49 ce d2 3c c7 2d 33 3b
       0.0011823609 -0.07054951 0.02573313 0.0027340518
000130 9b c8 0e bc ca 3b b2 bc f7 34 d0 bd 8d 95 ee 3c
       -0.00871482 -0.021757025 -0.10166352 0.029124046
000140 af aa 13 3b d3 9f e5 bc 8b 49 03 3c 27 ab 35 bd
       0.0022532155 -0.028030312 0.0080131395 -0.044352677
000150 41 24 d4 bd f8 02 19 3d 7f 7b ea 3b cd 44 c5 bc
       -0.103584774 0.037356347 0.007155835 -0.024080658
000160 00 3d 2e 3c e3 6c d8 3c ca f2 f2 3b ea 8d 74 bd
       0.010634661 0.026419109 0.0074141966 -0.059705652
000170 f0 af 14 be 05 d6 40 bd 51 7d d6 bc 1a 70 e6 bd
       -0.1452024 -0.047079105 -0.026182802 -0.112518504
000180 77 61 a0 bd 0c ff 4e bd db 2b 4a 3d 90 03 9b bd
       -0.0783109 -0.0505362 0.04935823 -0.07569039
000190 d7 b5 93 3d 18 cb 85 bc fb b0 d4 3d 57 68 37 3b
       0.072124176 -0.016332194 0.10385319 0.0027985775
0001a0 4d ab b5 bd bb 9c ec bc 1a cf e0 bc 61 b5 09 3d
       -0.08870564 -0.028883329 -0.027442504 0.033620242
0001b0 6b 4e 4f 3d 05 f4 2a 3b e0 d0 05 bd 19 69 0e b9
       0.050611895 0.0026085388 -0.0326699 -0.00013581327
0001c0 76 a1 ca bd d8 31 c8 bc 52 2a de bd 21 e8 47 3d
       -0.098940775 -0.02443783 -0.10847916 0.04880536
0001d0 2f b8 dc 3c 23 7b 97 3d 03 c0 49 3c 63 5b a0 bc
       0.026943294 0.07396533 0.012313846 -0.019574827
0001e0 39 f3 43 3c 61 ad e0 bd 5f 72 4e bd 8b 32 4d 3d
       0.011959844 -0.109705694 -0.05040204 0.05009703
0001f0 a9 14 11 be 2d 0e 1a bd 19 d3 d6 bd 78 4b 18 3c
       -0.14168037 -0.037611175 -0.104894824 0.009295337
000200 9f 26 02 bd 6a 97 88 bd 2a 13 59 bd a7 55 e1 3c
       -0.031775113 -0.06669505 -0.052996792 0.027506663
000210 73 02 0c bd 59 cd 40 3e 4f 64 57 bd 62 2a 80 bd
       -0.034182023 0.18828334 -0.052585896 -0.06258084
000220 9c 10 be bc 7f bf 3a 3c 6e 50 6d bd 09 64 f8 3d
       -0.02320128 0.011398195 -0.05793803 0.12128455
000230 45 e4 5d bd c1 39 4b bc 29 73 18 bd 71 e9 55 3d
       -0.054172773 -0.012403906 -0.0372192 0.05222458
000240 f3 36 ad 3c ab c8 c0 bc ef f4 bf 3d 56 d6 01 be
       0.021144366 -0.023533186 0.09372889 -0.12679419
000250 fd 67 a2 bd 5f 68 a2 3d 22 e2 fd 3c 06 5f 2d 3d
       -0.079299904 0.079300635 0.030991618 0.04232695
000260 55 5b 9d bd 1a 6b 0c 3c d3 39 e0 bc a1 50 bf bd
       -0.07683436 0.008570457 -0.027371323 -0.093415506
000270 b6 00 07 be 4e 71 7b bd e3 4d 68 bd 45 7e 15 3c
       -0.13183865 -0.061387353 -0.056714904 0.009124343
000280 e5 38 4a bd c8 7e 49 bd ab bf 4e bd 6e 15 27 bc
       -0.049370665 -0.049193174 -0.050475758 -0.01019798
000290 00 71 52 bd 8e bf e4 bd 7e 3f 37 be 27 23 1f bc
       -0.051377296 -0.11169349 -0.17895314 -0.009712971
0002a0 43 6f 86 3c 3c 10 14 be 77 32 80 bd 3c 3c b6 3b
       0.016410476 -0.14459318 -0.062596254 0.0055613797
0002b0 d1 c7 73 bd 4c 01 c5 ba 58 86 40 bd 4a 6f 17 3d
       -0.05951673 -0.0015030294 -0.04700312 0.036971368
0002c0 c1 98 b8 3d 65 f4 c1 bc 36 e1 e9 bd 2e a4 10 bc
       0.090135105 -0.023676107 -0.11419909 -0.008828206
0002d0 f7 2f a1 3d 41 ad aa bc 30 65 18 bd 76 a7 09 bb
       0.07870477 -0.020834567 -0.037205875 -0.0021004356
0002e0 5a fb 62 bd a8 b4 20 bd cd 2c 8e bc c8 3e c6 3c
       -0.05541549 -0.039234787 -0.017355347 0.024199858
0002f0 d1 ec 07 3d ef 2d 32 bd b2 06 c6 bc 84 e5 82 3c
       0.03318483 -0.043500837 -0.024173114 0.015978582
000300 02 98 1b 3d 25 79 4c 3d 7f 1f 52 bd be ef a8 bd
       0.037986763 0.04992022 -0.05129957 -0.08248852
000310 ea cc 08 bd 2e 95 ee 3c d0 e2 0c bd 49 47 21 bd
       -0.033398546 0.029123869 -0.034395993 -0.039374623
000320 ea ca fb bd f1 22 ca bd e7 4a c6 bd 0c 0b 21 be
       -0.12294562 -0.09869946 -0.09682255 -0.1572687
000330 55 cc 95 bd 81 43 54 bd 16 fb 13 bd fc b6 28 3d
       -0.07314364 -0.05182219 -0.036128126 0.041190132
000340 69 62 87 3d 12 25 ee bc a3 f7 95 bd e6 b6 8d bd
       0.06610567 -0.02907041 -0.073226236 -0.06919651
000350 89 a8 a3 bd 44 4c 0e bd e1 52 df bc d8 76 c3 bd
       -0.0799113 -0.0347407 -0.0272612 -0.09544152
000360 c1 79 eb bc b4 29 13 3d ca 37 7b bd d7 e4 32 3d
       -0.02874458 0.035928443 -0.0613325 0.04367527
000370 a8 e7 be bd 32 c3 99 bb b6 e3 c6 bc 2d d8 9c 3d
       -0.09321529 -0.0046924585 -0.024278503 0.0765842
000380 4f ad 73 bd ac 39 c7 3c 79 44 b4 bc 64 6d eb bc
       -0.05949145 0.024319492 -0.022005307 -0.028738685
000390 63 de b4 bd 27 8e ae 3d ea 99 0b 3d bd e0 4e 3d
       -0.088314794 0.08523207 0.03408233 0.050507296
0003a0 26 d2 cb bc 37 48 24 3c ba 9d ba bd 25 76 8a bd
       -0.02488048 0.010026983 -0.09112115 -0.067608155
0003b0 08 8c dc 3d 90 bc b3 bd 0a 0c 1b 3d 2f 86 09 be
       0.10768896 -0.087762 0.03785328 -0.13430093
0003c0 97 3a 41 be 32 17 e6 3d a5 8f 34 3c 9a ce 9d bb
       -0.18870007 0.11234893 0.011020576 -0.0048158886
0003d0 f0 31 3c 3c a5 6c 66 bd 31 f7 9a bc 4f 9b 97 bd
       0.011486515 -0.056255955 -0.018916698 -0.0740267
0003e0 f6 c0 98 3b a1 83 4e 3c 0c ee 6a 3d 30 00 85 3c
       0.0046616746 0.012604625 0.057355925 0.016235441
0003f0 c3 7a 84 3d 3e 5d 46 bd 4d 03 a1 3d c7 e4 dc bc
       0.064687274 -0.048428766 0.07861958 -0.026964558

network_body._body_endoder.seq_layers.4.bias f4 [256]
000000 64 a3 3d 3c 9c 26 a5 3c 42 33 b8 3c 7a 1c 92 3c
       0.0115746 0.020160012 0.02248538 0.017835844
000010 ee 9b a3 bb 27 8c fd 3c 74 58 04 3d 75 2a 81 3a
       -0.0049929535 0.030950619 0.032310918 0.0009854572
000020 04 c7 b0 bc 0f ca 96 bc cf 89 e1 bb ae 67 c1 3c
       -0.021579273 -0.018406896 -0.006882883 0.023609009
000030 7f 5f ed 3b 20 90 ed 3c 17 12 e8 bb 46 30 81 3c
       0.00724405 0.028999388 -0.0070822346 0.015770089
000040 de ac d2 3c 4e e5 c5 bc 3a ca d3 bc ef f7 a7 bc
       0.025717195 -0.024157193 -0.025853265 -0.020503966
000050 5b 93 2f 3c bb 7a ef bc 47 a5 d8 3c 19 57 84 bc
       0.010716285 -0.029233327 0.026445998 -0.016154813
000060 1a 2b f8 3c f1 eb 7d 3c c8 d8 b4 bc 6b f5 49 bc
       0.03029399 0.015498147 -0.022076026 -0.012326579
000070 d1 be db bc 20 43 f3 bb 4a a8 da 3c 7e 86 73 3c
       -0.026824387 -0.0074237734 0.026691575 0.014863608
000080 70 ca e6 bc 5d b0 c1 3b 95 5c 9d bc d2 8c ba 3c
       -0.028172702 0.0059109167 -0.019209186 0.022772226
000090 5b 3b bf 3c 55 10 a8 3c fa 9f ca bc 85 6d b6 bc
       0.023343733 0.0205156 -0.024734486 -0.02226902
0000a0 b3 ac 53 3b eb e3 eb 3c 4f 97 cf bc 8a fb 8a bc
       0.0032298982 0.028795203 -0.025340704 -0.016965646
0000b0 81 fb 8c bc 04 5e bc 3c cb 12 e6 3c 3e 24 cb 3c
       -0.01720977 0.022994049 0.028085133 0.024797555
0000c0 2c fa 7e 3c 03 a5 2d ba 6d d1 f2 3c e3 65 3f 3c
       0.015562575 -0.0006624015 0.029640878 0.0116820065
0000d0 6d a5 8d bc f9 83 ee bc 74 ce 91 bc 1b 59 8c bc
       -0.017290795 -0.029115664 -0.01779864 -0.017132333
0000e0 7a ff c5 bc 93 57 dd bc 16 98 31 3a da 2e 97 3c
       -0.024169672 -0.027019298 0.0006774677 0.018454958
0000f0 9e c0 cc 3c 0a 08 d9 3b ae 6d 44 3b a2 d1 e1 3c
       0.02499419 0.006623273 0.00299726 0.027565781
000100 c1 d2 bf bc 27 75 d0 3c 65 bd 90 bb a8 12 d0 bc
       -0.023415925 0.025446488 -0.004417109 -0.025399521
000110 19 3f 8d bc 22 37 43 bc e0 a5 bd bc 8c e8 76 3c
       -0.017242001 -0.011915 -0.023150384 0.015070092
000120 63 af c1 bb c8 d7 8c bc 26 7c 02 3c 4e 62 7d 3c
       -0.0059108003 -0.017192736 0.00796417 0.015465332
000130 ae 18 cd bc ac 71 e4 bc c9 fd 98 3c b4 d7 96 3c
       -0.025036182 -0.027886234 0.018675702 0.018413402
000140 e4 36 d0 bc c7 66 aa bc 57 00 f2 3c 5a 1f ef 3c
       -0.025416799 -0.020800961 0.029541178 0.029189754
000150 95 80 ed 3c 67 de ea bb 75 1c a5 bb 7b 3a c5 3c
       0.028991977 -0.0071676257 -0.0050387927 0.024075737
000160 32 5c df 3c 69 6a 89 3c 41 53 e3 3c 7b 2d c8 3c
       0.027265642 0.016774373 0.02774966 0.02443575
000170 ed a0 b3 bc a9 b7 f6 3b 40 a3 af 3c d2 a4 01 3c
       -0.021927321 0.007529218 0.021440148 0.007912831
000180 f4 ab d2 3c 59 08 de bc 72 e5 ae 3c 2a 3a c1 3c
       0.02571676 -0.02710359 0.021349642 0.023587305
000190 35 16 6e bc 0c 9c 98 bc f0 a1 c1 bc a9 34 29 bc
       -0.014531662 -0.018629096 -0.023636788 -0.010327497
0001a0 5b c1 f9 3a 59 af ee 3c 2b af ba 3c 16 e1 01 3d
       0.0019054817 0.029136347 0.022788605 0.0317088
0001b0 f6 ec 84 bc e8 92 fd 3c a6 5e d2 3b 7a af ed 3c
       -0.016226273 0.03095384 0.0064199744 0.029014338
0001c0 1c e9 e4 3b 73 e2 ad 3c 7d c2 b0 bc 11 76 e8 3c
       0.0069857966 0.021226143 -0.021577114 0.028376611
0001d0 67 a8 e9 3c 1f 97 58 bc 2a 6d dd 3c 60 58 ad bc
       0.028522683 -0.013219624 0.027029593 -0.021160305
0001e0 0c f0 d1 bc 4c b2 0a 3d 4a 10 c7 3c 67 21 80 bc
       -0.025627159 0.033861443 0.02429976 -0.015640927
0001f0 6b 2c e5 3c ca ee 3f bc 26 3b d9 bc b0 60 0a 3d
       0.027975282 -0.011714647 -0.026517462 0.033783615
000200 f8 cc c9 bc c2 e8 94 3c 64 df ce bc 61 a5 fb 3c
       -0.02463387 0.018177394 -0.025253005 0.030718507
000210 ea 65 50 3c f8 35 7d bc 5c 8c b5 bc a8 03 90 bc
       0.012719611 -0.015454762 -0.022161655 -0.017579868
000220 db bf 03 bd 80 4c d8 3c 88 8b 60 bb 4c 2b e8 3c
       -0.03216539 0.026403666 -0.0034262855 0.028340958
000230 53 4e dd 3c 15 b7 84 3c b5 3c 8e bc c6 63 53 bc
       0.027014887 0.016200582 -0.017362932 -0.012902206
000240 f2 c1 ca 3c 39 5c fd 3c 05 a4 a1 bc c8 2f 34 3b
       0.024750683 0.030927764 -0.01973153 0.00274943
000250 a2 0b 35 bb 49 04 80 3c 55 6f db 3c 30 76 e4 3c
       -0.0027625342 0.015627043 0.026786486 0.027888387
000260 4f 49 6d bc 33 23 c7 3c 99 2d f3 3c 85 af 8b bc
       -0.01448281 0.024308776 0.029684829 -0.017051468
000270 25 ad ca bc 25 1e ed 3c 07 e7 29 bc aa 4d c7 bc
       -0.024740765 0.028945038 -0.010370023 -0.024329025
000280 89 0e bc 3a 9c 1b da 3c e0 f9 85 bc 70 70 9a bb
       0.0014347594 0.026624493 -0.016354501 -0.0047131106
000290 99 91 cc bc bc 17 c5 3c 09 f1 d8 bc f0 fc c4 bc
       -0.02497177 0.024059169 -0.026482122 -0.024046391
0002a0 ef a2 a3 bc f6 a3 cb 3c 3e d8 34 3c 35 86 80 bc
       -0.019975154 0.024858456 0.011037884 -0.015688995
0002b0 56 5c a2 3c 00 9a a9 bc 0e dc c3 bc 3b 25 05 3d
       0.01981942 -0.020703316 -0.023908641 0.03250621
0002c0 4d ac 8b bc 23 f0 a1 ba de 65 5d 3c 32 e9 88 3c
       -0.017049933 -0.0012354892 0.013513057 0.016712759
0002d0 b4 d1 c1 bc 01 6c dd 3c f1 22 7b 3c 45 4b 3b 3c
       -0.023659565 0.02702904 0.015328155 0.01143152
0002e0 bb ab de 3c 78 15 16 3c 08 d2 e2 bc ee f4 b0 bc
       0.027181497 0.009160392 -0.027688041 -0.021601167
0002f0 48 03 0e 3d 98 77 78 bc 10 3e cb 3c af e5 e3 bc
       0.034671098 -0.015165232 0.024809867 -0.027819483
000300 36 63 bc 3c da 1b b2 bc 0e b7 dc 3c b4 e0 d5 3c
       0.022996526 -0.021741796 0.026942756 0.026108123
000310 3d 41 3a bc 3c ad d6 bc cc fb eb 3c 44 1d bd 3c
       -0.011368093 -0.026205651 0.02880659 0.023085244
000320 4f ef d7 3c 20 c2 8d bc 38 af 0d bc 2e 08 63 3b
       0.026359228 -0.01730448 -0.008647732 0.0034642327
000330 86 aa e4 3c 97 7a 87 3a 4f 91 48 3c f7 46 a4 bc
       0.027913343 0.0010336217 0.0122416755 -0.02005337
000340 3b 09 dd 3c 2b d7 ba 3c f6 9d 9b bc 2f 10 bd bc
       0.02698194 0.022807678 -0.01899622 -0.023079006
000350 92 ae 9f bc c9 9d 25 ba d4 03 9d bc cd ba c7 3b
       -0.019492421 -0.00063177623 -0.019166864 0.0060952664
000360 69 64 d9 3c b1 ab b2 3c a2 81 ce bc b4 0f e1 3c
       0.026537137 0.021810384 -0.025208298 0.027473308
000370 91 fd ae 3b b4 cc 8f bc bd 92 85 3c 51 76 d0 3c
       0.005340286 -0.017553665 0.016305322 0.025447043
000380 23 4a c6 3c 86 f7 bc 3c 67 62 e7 3c c9 8d 86 3c
       0.024205273 0.023067247 0.028245164 0.01642503
000390 9d a1 46 bc f4 cd de 3c fc 3b bf bb 22 dc 9b bc
       -0.012123493 0.027197815 -0.005836008 -0.019025866
0003a0 1d 9a 1b bc 73 bf 81 3c d8 1a 1a bc 14 39 65 bc
       -0.009497193 0.01583836 -0.009405814 -0.013990659
0003b0 c1 87 94 3c e9 fc 4f bc 58 e7 e0 bc a6 a8 f4 3b
       0.018131139 -0.012694576 -0.027454063 0.0074663935
0003c0 ea 51 d0 bc ce ef 61 3c c9 ef fe bb b5 25 b9 3c
       -0.025429685 0.013790084 -0.0077800495 0.022600988
0003d0 19 9f da 3c fa 36 b9 3c a0 6b ba 3c 6f a8 e5 3c
       0.026687192 0.022609223 0.022756398 0.028034417
0003e0 e3 2b c6 3c d1 60 bb bb ee c9 d3 3c 26 1d 02 bc
       0.024190849 -0.0057183285 0.025853124 -0.00794152
0003f0 2e e6 cf 3c 26 b9 e4 3c 55 7f 9f 3c eb a1 c9 3c
       0.025378313 0.027920317 0.019469896 0.024613341
