Assets/Training/results/parkolas2/parking.onnx (onnx, 608683 bytes, 13 tensors)

65 f4 [68]
0.48597643 0.4878387 0.4190518 0.22903283 0.43332952 0.4905052 0.47582293 0.23458228
0.34200522 0.49981892 0.48446134 0.25195962 0.4966774 0.458522 0.436856 0.3256118
0.45341903 0.46110204 0.13065825 0.30009243 0.49886763 0.45918038 0.37032557 0.3832756
0.40459675 0.47626376 0.34844884 0.30215946 0.4989601 0.49993995 0.1988203 0.3501953
0.49838662 0.49952617 0.13337377 0.30337635 0.44433615 0.47141674 0.24103393 0.30301338
0.49123144 0.49794582 0.2100719 0.34252816 0.4557706 0.4991529 0.2842674 0.28571656
0.49995345 0.47559658 0.14200817 0.25054824 0.40734762 0.4988302 0.052324295 0.20896123
0.21432666 0.49948174 0.017927611 0.16621514 0.32117906 0.4994605 0.016571194 0.17048901
0.32117903 0.4994605 0.016571198 0.17048901
00000000: e7d1 f83e fec5 f93e f58d d63e 9587 6a3e
00000010: 5edd dd3e 7f23 fb3e 109f f33e 5636 703e
00000020: 4f1b af3e 44e8 ff3e 510b f83e da00 813e
00000030: 804c fe3e 65c3 ea3e 97ab df3e 97b6 a63e
00000040: 8a26 e83e 9115 ec3e 47cb 053e b7a5 993e
00000050: 946b ff3e b119 eb3e 509b bd3e b33c c43e
00000060: 4e27 cf3e d8d8 f33e e367 b23e a5b4 9a3e
00000070: b377 ff3e 21f8 ff3e 8c97 4b3e cc4c b33e
00000080: 882c ff3e e5c1 ff3e 2293 083e 2554 9b3e
00000090: 0780 e33e 895d f13e 99d1 763e 9224 9b3e
000000a0: b082 fb3e c1f2 fe3e 171d 573e da5f af3e
000000b0: c45a e93e f890 ff3e 7f8b 913e 7149 923e
000000c0: e6f9 ff3e 6581 f33e 976a 113e dc47 803e
000000d0: de8f d03e ac66 ff3e 0052 563d eff9 553e
000000e0: 7378 5b3e 12bc ff3e eddc 923c 4d34 2a3e
000000f0: 9571 a43e 49b9 ff3e 50c0 873c ac94 2e3e
00000100: 9471 a43e 49b9 ff3e 52c0 873c ac94 2e3e

68 f4 [6]
1.5179937 4.373321 0.0037807045 0.0024170536 3.9181895 67.82242
00000000: 9e4d c23f 3ff2 8b40 b2c5 773b 6e67 1e3b
00000010: 9ec3 7a40 14a5 8742

action_model._continuous_distribution.log_sigma f4 [1, 2]
-0.31338763 -0.3555217
00000000: 5874 a0be f106 b6be

action_model._continuous_distribution.mu.bias f4 [2]
-0.004829864 0.015193931
00000000: d643 9ebb f7ef 783c

action_model._continuous_distribution.mu.weight f4 [2, 256]
0.030624576 0.024314506 -0.011556379 -0.01724912 -0.04154003 -0.019291848 0.010031506 0.031684555
0.037194926 -0.04309589 -0.006843829 -0.056099594 -0.03942461 -0.03395768 -0.024273252 0.0020808699
0.02904143 -0.028069394 0.044280645 0.009944519 0.0014096787 0.0097640995 0.018299155 -0.04348675
0.005274179 -0.014740895 0.03374141 0.0013084682 0.045525167 -0.03332193 0.005947409 0.0367209
0.03901908 -0.037281286 0.06823595 -0.030596988 -0.04368594 0.0054296376 0.012676372 -0.03653988
0.044272345 0.0034618818 0.062984236 0.008613895 -0.006552079 -0.03330117 -0.037754375 -0.029764833
0.03950934 0.0644985 0.058698613 -0.0419026 0.0066442126 -0.029140593 -0.028524198 -0.023252586
-0.03362584 0.03473259 -0.0024641145 -0.016740862 -0.036583107 -0.033780057 0.028257543 0.022145147
-0.04265097 -0.02928567 -0.040956512 0.061739046 -0.022956347 -0.04312097 -0.018004159 -0.023997117
0.027899934 0.0374231 0.021557128 -0.013625607 0.060213555 -0.011496382 0.06220908 -0.030164212
-0.012755092 -0.009848674 0.02569404 0.038609173 -0.015932307 0.07305369 -0.0292022 -0.045499384
-0.04758259 0.049405724 0.035333134 -0.040915214 0.038649287 0.04946284 -0.0019089797 -0.038460627
0.059372056 0.03294117 0.045934487 0.025424913 0.030623479 0.0007928524 -0.037094034 -0.034896474
0.033707354 -0.05026066 -0.024046557 0.01252373 -0.039197095 -0.025487514 -0.008774991 -0.016782088
0.047548685 -0.048958752 0.058610424 0.078545935 0.037071284 0.046413586 -0.02719077 0.05425012
0.0053321845 -0.031385664 -0.029452704 0.029796757 -0.025705958 -0.022363838 0.032815587 -0.04534716
-0.029217478 0.02847731 -0.03930125 -0.032809094 0.002126117 -0.052624714 0.022889022 -0.022001643
0.047103282 -0.013245797 0.025457151 -0.03241712 -0.05159927 -0.022506768 -0.025260538 0.026538417
0.04617743 0.012865188 0.018858796 0.047628473 -0.03412576 0.0414687 0.028587338 0.028815504
0.021535588 0.04332556 0.020685654 0.02045893 -0.030241739 -0.03277322 0.002115473 -0.017020525
0.024506263 0.05069845 0.03718196 -0.012395975 -0.043237656 -0.02972603 0.040019926 0.056619924
0.023104241 -0.033575773 -0.029468104 0.046186656 0.028974073 0.0032270092 0.037084397 0.03930612
0.013801409 -0.03675045 -0.020065278 -0.032798156 0.013366605 0.08034465 0.05939134 -0.04651672
0.05017296 -0.030730655 -0.042843927 0.0054266867 0.011096347 -0.029349774 -0.03816361 0.04537175
-0.015192919 0.02003356 0.0093167275 -0.017641213 -0.027285878 -0.025485078 -0.0022260456 -0.011431216
-0.036064576 0.04839562 -0.01643661 -0.02464732 -0.015864821 0.061341166 0.04245357 -0.019074097
0.0016877431 -0.036841094 -0.041314583 0.04551098 -0.0007328447 -0.0041283956 -0.015205256 0.05941417
0.013058783 0.00035323953 0.048728157 -0.007840429 0.042008862 0.0106138885 -0.05267719 0.03676314
-0.038634025 -0.04628281 0.05179919 -0.028622884 -0.02249761 -0.025033563 0.015688563 0.022216193
0.05108925 -0.020689698 -0.0127818 0.0323907 0.005422411 -0.015908752 -0.03523352 0.019086903
-0.03075702 0.07496165 5.4877724e-05 0.0055813706 -0.0155043425 -0.033316728 -0.029133921 0.058108956
0.08745778 0.058216225 -0.01222573 -0.036658447 0.04868956 -0.053249482 0.05529305 -0.030419411
00000000: 64e0 fa3c 372f c73c f756 3dbc 074e 8dbc
00000010: e125 2abd f009 9ebc 305b 243c aac7 013d
00000020: b559 183d 5185 30bd 3342 e0bb b0c8 65bd
00000030: b37b 21bd 3517 0bbd b3d8 c6bc 345f 083b
00000040: 4be8 ed3c c9f1 e5bc 9f5f 353d 56ee 223c
00000050: f8c4 b83a 9af9 1f3c 1ce8 953c 2a1f 32bd
00000060: 05d3 ac3b cb83 71bc 6f34 0a3d e880 ab3a
00000070: 9978 3a3d 937c 08bd 7ce2 c23b a868 163d
00000080: 79d2 1f3d 43b4 18bd 4abf 8b3d 89a6 fabc
00000090: 07f0 32bd 1aeb b13b 8fb0 4f3c d7aa 15bd
000000a0: eb56 353d bde0 623b e1fd 803d 4b21 0d3c
000000b0: d3b2 d6bb cf66 08bd 55a4 1abd 61d5 f3bc
000000c0: 8cd4 213d ca17 843d f56d 703d 10a2 2bbd
000000d0: b2b7 d93b 41b8 eebc 94ab e9bc 357c bebc
000000e0: 40bb 09bd c343 0e3d fb7c 21bb 2224 89bc
000000f0: 2bd8 15bd f55c 0abd 5d7c e73c bd69 b53c
00000100: c9b2 2ebd 80e8 efbc 04c2 27bd 15e2 7c3d
00000110: f30e bcbc 9d9f 30bd 757d 93bc 9a95 c4bc
00000120: 678e e43c f748 193d 9398 b03c f03d 5fbc
00000130: 7da2 763d 525b 3cbc f3ce 7e3d f01a f7bc
00000140: bcfa 50bc 555c 21bc 4f7c d23c a724 1e3d
00000150: 7884 82bc 2c9d 953d 7439 efbc 905d 3abd
00000160: f6e5 42bd a85d 4a3d 7ab9 103d b696 27bd
00000170: b74e 1e3d 8c99 4a3d bb36 faba e488 1dbd
00000180: 1d30 733d 52ed 063d cd25 3c3d e847 d03c
00000190: 17de fa3c 6dd7 4f3a eaef 17bd 9bef 0ebd
000001a0: b910 0a3d 1fde 4dbd 49fd c4bc 5530 4d3c
000001b0: 228d 20bd 31cb d0bc fbc4 0fbc 977a 89bc
000001c0: 69c2 423d f988 48bd 7c11 703d b1dc a03d
000001d0: 0fd8 173d 2c1c 3e3d 2dbf debc 6035 5e3d
000001e0: 9bb9 ae3b 418e 00bd cc46 f1bc 5418 f43c
000001f0: 4d95 d2bc 5e34 b7bc a369 063d f2bd 39bd
00000200: 7e59 efbc 3f49 e93c 59fa 20bd d462 06bd
00000210: 5356 0b3b 038d 57bd c281 bb3c ca3c b4bc
00000220: 5fef 403d e604 59bc 848b d03c d0c7 04bd
00000230: c259 53bd 1d60 b8bc 30ef cebc 1867 d93c
00000240: 8b24 3d3d 82c8 523c c37d 9a3c 1316 433d
00000250: 74c7 0bbd 15db 293d fe2f ea3c 7e0e ec3c
00000260: 676b b03c 2476 313d f674 a93c 7c99 a73c
00000270: 86bd f7bc 363d 06bd bfa3 0a3b a16e 8bbc
00000280: 5cc1 c83c 2ea9 4f3d 1c4c 183d 7d18 4bbc
00000290: f819 31bd 0184 f3bc efeb 233d 4bea 673d
000002a0: 1b45 bd3c c086 09bd 1867 f1bc 382e 3d3d
000002b0: 095b ed3c 3b7c 533b cfe5 173d 74ff 203d
000002c0: 4e1f 623c a487 16bd f05f a4bc 5c57 06bd
000002d0: 9bff 5a3c bc8b a43d 5544 733d 5188 3ebd
000002e0: 2982 4d3d dbbe fbbc 1d7d 2fbd 59d2 b13b
000002f0: 74cd 353c f06e f0bc 7251 1cbd bad7 393d
00000300: b9eb 78bc 6c1d a43c 30a5 183c 4e84 90bc
00000310: a286 dfbc 15c6 d0bc d9e2 11bb ff49 3bbc
00000320: 73b8 13bd 7c3a 463d 12a6 86bc 2de9 c9bc
00000330: f1f6 81bc e040 7b3d cbe3 2d3d 4841 9cbc
00000340: 4337 dd3a b0e6 16bd 7b39 29bd b969 3a3d
00000350: 601c 40ba 7e47 87bb 771f 79bc 465c 733d
00000360: 81f4 553c 0233 b939 2d97 473d 2575 00bc
00000370: 7c11 2c3d e0e5 2d3c 0ac4 57bd f294 163d
00000380: b63e 1ebd 0b93 3dbd 632b 543d 8a7a eabc
00000390: e84c b8bc 3013 cdbc 4d85 803c bcfe b53c
000003a0: f642 513d 717d a9bc c16a 51bc 1cac 043d
000003b0: 7bae b13b 1253 82bc 0651 10bd 235c 9c3c
000003c0: 25f6 fbbc 7e85 993d 822c 6638 eee3 b63b
000003d0: ed05 7ebc 1f77 08bd 43aa eebc a803 6e3d
000003e0: 111d b33d 2374 6e3d 6e4e 48bc 2b27 16bd
000003f0: b46e 473d 211c 5abd f77a 623d 2132 f9bc

network_body._body_endoder.seq_layers.0.bias f4 [256]
0.0077753356 -0.0010009868 0.017629137 0.00031048435 0.0150744 0.018895457 -0.0059179403 0.01825288
-0.003960027 0.026033632 0.0029367907 -0.00044815242 0.0131491255 -0.0007324889 0.006896573 0.011556058
0.02541188 0.008965729 0.006473849 0.024232022 0.01770045 0.008773608 0.012507102 0.02121864
0.013810289 0.0016370153 -0.0034769806 0.0071202796 0.0018476475 0.018858314 0.017043278 0.020623755
0.029842136 0.026273074 -0.0026556933 0.025849003 0.012687943 0.011894966 0.023343695 0.01449451
-0.0029783123 0.0150575 -0.0064501287 0.02013717 0.02356044 0.02012291 0.0012889212 -0.0013161635
0.024206486 0.016442878 0.01326771 0.025190767 0.017915282 0.00054923375 0.012499527 0.0064129825
0.007560007 0.0060178274 0.0099334195 0.01819341 0.0016099748 0.03185632 0.019557703 0.011440325
0.0028336276 0.024150683 0.010462148 -0.0033893266 0.03245361 -0.0025227657 0.018094493 0.022436885
0.028276296 0.033780612 0.018751416 0.020175803 0.024545673 0.023998197 -0.019206397 0.013687278
0.0049188375 0.0044437326 0.020701384 0.019874752 0.0055812676 0.023076966 0.0043230536 0.023244882
0.0008852574 0.0009330829 0.0017037343 0.017589288 0.01667302 -0.015101525 0.029110534 0.0016045971
0.02582846 0.019054517 0.0028083057 0.024273323 0.017201476 0.012049894 0.0022498085 0.022477161
0.01811231 -0.007791878 0.018833367 0.011396343 0.016310975 9.0706984e-05 0.023253253 0.035796285
0.011025018 0.0021675974 0.018900663 0.011255756 0.028673362 0.0046604164 -0.017190907 0.0016841916
0.024506133 -0.0062626596 -0.006334869 0.016328672 0.009807341 0.024123497 0.0053908024 -0.0037814984
-0.007919988 0.029035099 0.0071894582 0.00019627214 0.018822424 0.015778685 0.013011429 0.025111252
-0.003921074 0.01180108 0.029567031 0.025656728 -0.00932121 0.0012736617 -0.006919953 -0.015807185
0.020756366 0.014967899 0.01400936 0.011898242 0.0044283285 0.02615265 0.0015406688 0.008380278
0.025095645 0.0139182145 0.025089415 0.005627639 -0.0047521973 0.002631788 0.0009122221 0.010634383
0.016850788 0.02212321 0.017301237 0.024515172 0.032272976 0.019752279 0.012451463 0.008408407
0.01813949 -0.0042431992 0.015137102 0.009960647 0.010874521 0.01756531 0.018332228 0.033087242
0.009862636 0.033436168 0.008360638 0.017646763 -0.0025339357 -0.002529954 0.015054984 0.015687265
0.0069468105 0.0046445676 0.005099359 0.026934117 0.008911389 -0.0029935779 0.006205224 0.015782323
0.021592077 0.0045139184 0.012984536 0.018056253 0.01525966 0.0038150433 -0.001966503 -0.0043505537
0.00483483 -0.011155999 0.020202175 -0.0050155967 -0.009623368 -0.00702992 0.0002459639 0.012360294
0.01461981 0.021976203 0.022008907 0.009197685 0.0144710485 0.015919305 -0.01969753 -0.003606462
0.0063712876 0.005297222 0.010816652 0.0056929695 0.03683823 0.0059263967 0.017744074 -0.0007991224
0.012341334 0.007652748 0.0062059094 0.008826703 0.010491735 0.0012640982 0.01598695 0.017386146
-0.0038164426 0.032443784 0.0029729658 0.031724814 0.013167385 -0.015216493 0.0063277017 0.021515908
0.010450055 0.022382082 -0.014073091 0.021426624 0.013674474 -0.01673985 0.021434614 -0.0012531766
0.016045341 -0.013142101 0.007910242 0.011171577 0.015745 0.00071361527 0.024124058 0.010879613
00000000: 3ec8 fe3b 8b33 83ba fb6a 903c 81c8 a239
00000010: 9efa 763c a5ca 9a3c 48eb c1bb 1087 953c
00000020: 1dc3 81bb 7c44 d53c 2c77 403b 00f6 eab9
00000030: 6e6f 573c 7f04 40ba a6fc e13b 9f55 3d3c
00000040: 932c d03c fee4 123c 9522 d43b 3c82 c63c
00000050: 8900 913c 2ebf 0f3c 97ea 4c3c b7d2 ad3c
00000060: 8d44 623c 1e91 d63a 0ede 63bb 3c51 e93b
00000070: c32c f23a c07c 9a3c 589e 8b3c 26f3 a83c
00000080: 7f77 f43c a13a d73c 240b 2ebb 4ac1 d33c
00000090: 17e1 4f3c 1ae3 423c 473b bf3c 627a 6d3c
000000a0: ca2f 43bb bcb3 763c 9a5b d3bb b5f6 a43c
000000b0: d301 c13c cdd8 a43c 05f1 a83a 1e83 acba
000000c0: ae4c c63c 37b3 863c cf60 593c de5c ce3c
000000d0: 12c3 923c 74fa 0f3a d1ca 4c3c ff23 d23b
000000e0: efb9 f73b 3231 c53b c8bf 223c 590a 953c
000000f0: ca05 d33a c67b 023d 7a37 a03c 3370 3b3c
00000100: 62b4 393b a7d7 c53c 6e69 2b3c 771f 5ebb
00000110: 14ee 043d fc54 25bb e73a 943c 8fcd b73c
00000120: b1a3 e73c 8a5d 0a3d 929c 993c ba47 a53c
00000130: 0214 c93c de97 c43c bc56 9dbc 9b40 603c
00000140: 332e a13b bb9c 913b f395 a93c 60d0 a23c
00000150: 11e3 b63b e80b bd3c 67a8 8d3b 0d6c be3c
00000160: 9e10 683a 229a 743a d64f df3a 6917 903c
00000170: db95 883c 636c 77bc 3779 ee3c 5851 d23a
00000180: 3596 d33c 3818 9c3c 8d0b 383b d9d8 c63c
00000190: 1cea 8c3c eb6c 453c 8671 133b 0622 b83c
000001a0: 4460 943c 0353 ffbb 6f48 9a3c bab7 3a3c
000001b0: 989e 853c f139 be38 9b7d be3c 209f 123d
000001c0: 47a2 343c 400e 0e3b 90d5 9a3c 106a 383c
000001d0: 66e4 ea3c 68b6 983b f2d3 8cbc 18c0 dc3a
000001e0: 16c1 c83c ff36 cdbb bc94 cfbb b5c3 853c
000001f0: f8ae 203c a49e c53c 54a5 b03b 04d3 77bb
00000200: d6c2 01bc 04db ed3c 8c95 eb3b 67ce 4d39
00000210: 7c31 9a3c 4d42 813c e42d 553c 1db6 cd3c
00000220: 5a7c 80bb 5159 413c 8f36 f23c 0f2e d23c
00000230: fdb7 18bc fff0 a63a c6c0 e2bb 127e 81bc
00000240: 4109 aa3c eb3b 753c 8487 653c d8f0 423c
00000250: 831b 913b 153e d63c 44f0 c93a 6f4d 093c
00000260: 6295 cd3c 3909 643c 5188 cd3c 0f68 b83b
00000270: 52b8 9bbb 137a 2c3b 3022 6f3a d63b 2e3c
00000280: aa0a 8a3c bc3b b53c 53bb 8d3c 0bd4 c83c
00000290: ab30 043d 88cf a13c 3901 4c3c 6ac3 093c
000002a0: 4599 943c 890a 8bbb 9c01 783c fb31 233c
000002b0: 0c2b 323c 20e5 8f3c 782d 963c 7d86 073d
000002c0: e596 213c 5df4 083d 0ffb 083c f28f 903c
000002d0: 6310 26bb 96cd 25bb 2ea9 763c 9482 803c
000002e0: 12a2 e33b 7531 983b 8618 a73b f0a4 dc3c
000002f0: 1301 123c e72f 44bb 3155 cb3b ee49 813c
00000300: dee1 b03c 7ee9 933b 17bd 543c b5ea 933c
00000310: a703 7a3c ce05 7a3b 72e0 00bb 178f 8ebb
00000320: 7e6d 9e3b a7c7 36bc 087f a53c e059 a4bb
00000330: 55ab 1dbc 3e5b e6bb b7f4 8039 d582 4a3c
00000340: ed87 6f3c 7007 b43c 064c b43c e3b1 163c
00000350: fa17 6d3c 3469 823c b75c a1bc 645a 6cbb
00000360: 3cc6 d03b 5294 ad3b 5438 313c 178c ba3b
00000370: afe3 163d 3832 c23b 055c 913c 327c 51ba
00000380: 4e33 4a3c e7c3 fa3b f15a cb3b e09d 103c
00000390: 87e5 2b3c 19b0 a53a 10f7 823c 646d 8e3c
000003a0: 481d 7abb c6e3 043d 17d6 423b e1f1 013d
000003b0: 04bc 573c 994e 79bc 9c58 cf3b 2142 b03c
000003c0: b536 2b3c a15a b73c d292 66bc e386 af3c
000003d0: e70a 603c 0322 89bc a597 af3c a141 a4ba
000003e0: 8571 833c f751 57bc f699 013c fd08 373c
000003f0: a9fb 803c e911 3b3a d19f c53c 6840 323c

network_body._body_endoder.seq_layers.0.weight f4 [256, 74]
-0.21741335 -0.08469159 -0.14573227 -0.09282035 -0.2752495 0.12035439 0.09730204 0.012313168
0.23733264 -0.07450766 0.013133812 -0.14069209 -0.016578738 0.2174744 0.06276544 -0.2288602
0.008563863 -0.07750271 0.08659609 0.23814915 -0.03661999 -0.115350984 0.11897344 0.033489913
0.19160788 0.28669965 -0.043570694 0.26485607 0.031466816 -0.023847194 0.04391961 -0.14596711
0.109257355 -0.07402877 0.1064168 -0.031169482 -0.03270023 -0.18947572 -0.112043455 0.15392137
0.013417848 -0.024642505 0.13221948 0.068766475 0.07272746 -0.017978365 -0.10979195 -0.115433976
0.024226047 -0.07634171 -0.1147997 0.08199462 0.12106092 -0.12706763 -0.027582489 -0.17794394
0.080502555 0.22727963 0.065186776 -0.01856168 -0.1215305 0.05623211 0.13838187 -0.090808235
0.122088745 -0.046689183 0.0801586 -0.04451137 -0.046309255 0.043069743 -0.29407945 -0.067141846
0.07547073 0.15042518 0.00081443414 -0.19696881 -0.027266009 -0.02004699 -0.053489342 0.11947765
-0.045767687 -0.049987163 0.05429949 -0.10901975 -0.08504959 -0.0628152 0.28644213 -0.18884164
0.03746798 0.10090881 0.075927995 -0.09864719 -0.31115413 -0.12833424 0.07469633 0.057905626
-0.041896712 0.040117923 -0.1622643 -0.09625712 0.07638958 -0.063526854 0.016869994 -0.017763756
0.18978354 -0.27847978 0.0036066875 -0.032676898 0.118779175 0.11951815 -0.12862726 0.040567532
0.11853878 0.27212933 -0.11653525 -0.030439438 -0.031637345 -0.05291878 0.010221361 0.08374899
0.0954359 -0.11832479 -0.12499091 -0.21162581 -0.030845588 -0.06258301 0.11956398 -0.031693008
0.0372583 -0.15932523 -0.12097493 0.11438536 0.17700255 0.021900782 0.0124152135 -0.043394145
0.071712255 0.29533124 0.19917914 -0.0016989065 0.017951127 -0.08107352 0.0098128235 -0.19942865
0.16610757 -0.022154465 0.08959804 -0.059493244 -0.04923114 0.04168635 0.031018864 0.00881612
-0.12955181 -0.2726506 -0.040417884 -0.09245157 -0.046948206 0.14272621 -0.09411379 0.1434454
0.11989444 0.2773454 0.0027439746 0.2804952 -0.058156826 0.073645875 0.122457944 -0.05756516
0.021999605 -0.09228586 0.014079888 0.050662532 -0.1385234 -0.086316735 0.031047367 -0.14778745
0.09025037 -0.3061894 0.07730184 0.051086646 -0.10332876 0.13300334 -0.1340883 -0.06953875
0.003253659 -0.13987184 0.0033244328 -0.22671841 0.10290636 -0.10366282 0.016958535 -0.115663975
0.10983124 0.14487512 0.13266261 0.007451475 -0.054580227 -0.0076644686 -0.14226319 0.053268366
-0.13544069 -0.14047334 -0.06378588 -0.06559499 0.1217039 -0.13531502 0.19479726 0.0317375
-0.047143407 0.032512754 -0.12504217 -0.0060422686 -0.022676969 0.1585629 0.050277706 0.003580799
0.12855023 -0.11008774 -0.049290396 0.037223443 0.021134987 0.38459596 0.08246912 -0.17852917
0.16906242 0.027267892 0.0796506 0.008094492 0.09357345 -0.055951744 -0.136897 -0.065681994
-0.029438104 -0.19525966 -0.11389742 0.16332397 0.120926924 -0.17277235 -0.1815298 -0.06611745
0.0018912712 -0.19758056 -0.09853255 0.023559937 0.024167432 -0.044795007 -0.08393512 -0.051613126
-0.13555609 -0.09912929 -0.08990337 0.1724489 0.08203107 -0.02363636 0.110437155 -0.007966075
00000000: 9ba1 5ebe c972 adbd d73a 15be 9818 bebd
00000010: 81ed 8cbe 5d7c f63d 4b46 c73d 2bbd 493c
00000020: 5407 733e 7997 98bd 332f 573c 9611 10be
00000030: 22d0 87bc 9cb1 5e3e 2b8b 803d 545a 6abe
00000040: 724f 0c3c beb9 9ebd 4a59 b13d 5fdd 733e
00000050: d8fe 15bd 233d ecbd 59a8 f33d b82c 093d
00000060: db34 443e 4cca 923e 2f77 32bd 379b 873e
00000070: 59e3 003d 315b c3bc 0de5 333d 6778 15be
00000080: 52c2 df3d 659c 97bd 0df1 d93d 2457 ffbc
00000090: adf0 05bd ec05 42be 0a77 e5bd 909d 1d3e
000000a0: 89d6 5b3c 14df c9bc 8b64 073e 70d5 8c3d
000000b0: 22f2 943d 5d47 93bc 9ada e0bd a668 ecbd
000000c0: b475 c63c 0b59 9cbd 1b1c ebbd ccec a73d
000000d0: caee f73d 041e 02be acf4 e1bc f036 36be
000000e0: 86de a43d febb 683e a580 853d aa0e 98bc
000000f0: fce4 f8bd a453 663d fab3 0d3e abf9 b9bd
00000100: aa09 fa3d 283d 3fbd 312a a43d 8e51 36bd
00000110: c6ae 3dbd e669 303d 9591 96be aa81 89bd
00000120: 6690 9a3d 0f09 1a3e c07f 553a 31b2 49be
00000130: f75c dfbc 9639 a4bc a417 5bbd b3b0 f43d
00000140: e676 3bbd 57bf 4cbd 2469 5e3d bf45 dfbd
00000150: 7b2e aebd 41a5 80bd 8ba8 923e b45f 41be
00000160: 0678 193d 47a9 ce3d 2380 9b3d 8a07 cabd
00000170: 984f 9fbe 0d6a 03be 64fa 983d 732e 6d3d
00000180: e39b 2bbd b152 243d 9d28 26be 7422 c5bd
00000190: 2472 9c3d 5e1a 82bd f132 8a3c 4c85 91bc
000001a0: 9e56 423e e794 8ebe 2d5e 6c3b 36d8 05bd
000001b0: 7f42 f33d efc5 f43d ddb6 03be 242a 263d
000001c0: 76c4 f23d 8954 8b3e 08aa eebd 215c f9bc
000001d0: 2996 01bd 5dc1 58bd 7f77 273c 9784 ab3d
000001e0: e673 c33d 4454 f2bd 3cfb ffbd 70b4 58be
000001f0: e3af fcbc 852b 80bd f6dd f43d 87d0 01bd
00000200: 299c 183d 2726 23be b4c1 f7bd df42 ea3d
00000210: 2840 353e 4569 b33c 2e69 4b3c 0fbe 31bd
00000220: e0dd 923d a835 973e 9ef5 4b3e d8ad deba
00000230: 3e0e 933c e009 a6bd f7c5 203c 0637 4cbe
00000240: 1a18 2a3e 487d b5bc 2d7f b73d 30af 73bd
00000250: 98a6 49bd 4ebf 2a3d 461b fe3c 7d71 103c
00000260: 3ba9 04be dc98 8bbe 398d 25bd 4057 bdbd
00000270: c34c 40bd d226 123e bbbe c0bd 5ae3 123e
00000280: 378b f53d 3700 8e3e 41d4 333b 119d 8f3e
00000290: da35 6ebd a6d3 963d 3bcb fa3d 72c9 6bbd
000002a0: 8438 b43c 5e00 bdbd 55af 663c 8483 4f3d
000002b0: 14d9 0dbe d4c6 b0bd 0c57 fe3c 9855 17be
000002c0: 30d5 b83d dbc4 9cbe 6d50 9e3d 3b40 513d
000002d0: 079e d3bd 0732 083e 714e 09be 556a 8ebd
000002e0: 573b 553b 903a 0fbe bade 593b df28 68be
000002f0: 92c0 d23d 2c4d d4bd a0ec 8a3c 3ce1 ecbd
00000300: 33ef e03d 255a 143e b5d8 073e 812b f43b
00000310: 848f 5fbd 3926 fbbb 71ad 11be ee2f 5a3d
00000320: f7b0 0abe 3ed8 0fbe 2ca2 82bd ab56 86bd
00000330: e53f f93d 0590 0abe ef78 473e 2eff 013d
00000340: 7219 41bd 182c 053d 0e0b 00be 39fe c5bb
00000350: 0dc5 b9bc 505e 223e ffef 4d3d d7ab 6a3b
00000360: aca2 033e ae75 e1bd bae4 49bd 9c77 183d
00000370: 4823 ad3c c3e9 c43e 92e5 a83d 5ad0 36be
00000380: b31e 2d3e ea60 df3c db1f a33d c39e 043c
00000390: 70a3 bf3d a82d 65bd ba2e 0cbe 4884 86bd
000003a0: 2e28 f1bc 26f2 47be 0d43 e9bd 663e 273e
000003b0: 89a8 f73d 3ceb 30be f3e2 39be 9668 87bd
000003c0: 88e4 f73a 8f52 4abe 6fcb c9bd c500 c13c
000003d0: c7fa c53c f87a 37bd 2de6 abbd 4968 53bd
000003e0: 37cf 0abe 4c04 cbbd 421f b8bd 7296 303e
000003f0: e8ff a73d 0aa1 c1bc e02c e23d 2484 02bc

network_body._body_endoder.seq_layers.2.bias f4 [256]
0.03451891 0.018305602 0.024874695 -8.8395034e-05 0.017921755 0.011804642 0.0021706538 0.017503383
0.009084364 0.024710549 0.0118591795 0.004422966 0.036784854 0.0063866875 0.018008452 0.0029310551
-0.0035773874 -0.008474822 0.011144327 -0.003684591 0.001165973 0.011222979 0.026690947 -0.0075898897
0.0022569855 0.025314813 -0.009251546 0.020614589 0.008828166 0.015875138 0.01962563 0.018311758
0.01425662 -0.015705423 -0.00070683693 -0.00419784 -0.013196329 0.015141702 0.02011066 0.005221709
0.024398964 0.018833349 -0.018501962 -0.0031672015 0.025758252 0.016362542 -0.0044248113 0.012395423
-0.014257221 0.010518463 -0.0049668374 0.004231059 0.012501812 0.018332765 0.006405291 0.016751703
-0.0065024197 0.017881557 0.007178368 -0.006268927 0.011945881 0.00071536214 0.012343975 0.001375604
0.025008077 -0.0025518364 0.0024081958 0.008423678 0.020284206 0.008467467 0.008482916 -0.0012086421
0.0108968 0.018610965 0.018068453 0.00092138525 0.0068580303 0.014099122 -0.0048425193 -0.00852811
0.011950857 0.005427934 0.021395495 -0.0119854575 0.017928852 0.013841549 -0.012099788 0.0059489473
-0.005154897 0.026403334 -0.002120631 -0.0026531902 0.0027944304 0.005190871 0.01689029 0.029188184
-0.0056642476 0.0037324526 -0.0019658362 -0.00810399 -0.011832363 0.007554227 0.011387237 0.007817799
0.018376317 0.021963803 0.005954077 0.019847207 -0.00018482814 0.02262483 -0.0024724526 0.014356374
0.019800665 0.013871882 0.013832919 0.0066409837 -0.0036907005 0.014185404 0.017697364 0.014890813
-0.0052306186 0.01948088 0.00953553 0.010244149 0.0073935864 0.008192472 0.0010480852 -0.020999704
0.013198525 0.0048197038 0.014201772 -0.0018771322 0.018352563 -0.010722944 0.010669323 0.020123703
-0.008354141 0.013067561 0.016132973 0.020863328 0.006167417 -0.00634103 -0.016766934 -0.010928701
0.007294054 -0.007308568 -0.008481166 0.02464036 -0.010173437 0.00025951382 0.0017275366 0.0029008826
0.019384744 0.010647803 0.021943007 0.030640278 0.017096043 -0.0024929997 0.018617995 -0.0054271393
0.0028947038 -0.00058500847 0.017620293 0.009429188 -0.0030226465 -0.0082516 0.018563356 -0.0033521794
-0.028456103 0.014634497 0.015402968 0.008749367 0.01169953 0.015936343 0.020278636 0.018489324
0.023589615 0.008565531 0.0025584302 0.007236529 0.023485685 0.0072306106 0.0066803987 0.017048445
0.022788165 0.020067144 0.006593424 0.012292509 0.0052313684 -0.003030309 0.0056547173 0.0021355664
-0.0014617649 0.015737742 0.00031604644 -0.00592492 -0.004031357 0.016804755 0.009651298 0.016390463
0.0051082433 -0.002626016 0.018065657 -0.0067843776 -0.0005489461 0.016671227 0.008366211 0.023350999
0.006222517 -0.0058845147 0.008764349 5.8037553e-05 0.006290294 0.01840374 0.009932227 0.0022558991
0.006157416 -0.0025644216 0.023714306 -0.0025974314 0.019689457 0.017681055 0.012987671 0.016062707
-0.005059747 0.023945143 0.019924486 0.020659953 0.028812725 0.025983004 0.0058592698 0.023726806
0.0055745635 0.023528837 0.021660421 0.01984622 -0.00070733513 -0.002494794 0.018594055 0.009120444
0.017877823 -0.004116286 0.009776353 0.007984786 -0.0009991844 -0.0024480298 0.012382937 -0.007266153
-0.006933744 0.004701505 0.014824378 0.014191253 0.009578906 0.012334029 0.02448737 -0.016560543
00000000: b363 0d3d a1f5 953c 04c6 cb3c b960 b9b8
00000010: a5d0 923c 4268 413c 8741 0e3b 4163 8f3c
00000020: 96d6 143c c76d ca3c 014d 423c 87ee 903b
00000030: b7ab 163d 6b47 d13b 7686 933c f216 403b
00000040: 9a72 6abb fbd9 0abc b296 363c 2e79 71bb
00000050: 90d3 983a 96e0 373c f9a6 da3c 9cb4 f8bb
00000060: efe9 133b 0361 cf3c cc93 17bc eddf a83c
00000070: 03a4 103c 940c 823c eec5 a03c 8a02 963c
00000080: 9994 693c a9a8 80bc 064b 39ba 098e 89bb
00000090: 6a35 58bc e714 783c 1cbf a43c df1a ab3b
000000a0: 56e0 c73c 6548 9a3c 6d91 97bc d390 4fbb
000000b0: f802 d33c bd0a 863c 02fe 90bb 2c16 4b3c
000000c0: 1e97 69bc a255 2c3c dac0 a2bb b2a4 8a3b
000000d0: 66d4 4c3c 982e 963c 7ae3 d13b de3a 893c
000000e0: 4012 d5bb 587c 923c 8438 eb3b 926b cdbb
000000f0: a8b8 433c 2487 3b3a 623e 4a3c 9c4d b43a
00000100: bddd cc3c b63c 27bb d2d2 1d3b 7703 0a3c
00000110: 102b a63c 21bb 0a3c eefb 0a3c 4d6b 9eba
00000120: 7e88 323c 0676 983c 4b04 943c 1e89 713a
00000130: 54b9 e03b 0100 673c ffad 9ebb 7cb9 0bbc
00000140: 87cd 433c d0dc b13b 9b45 af3c a75e 44bc
00000150: 87df 923c aac7 623c 303e 46bc 63ef c23b
00000160: 69ea a8bb ce4b d83c 49fa 0abb 25e1 2dbb
00000170: c322 373b 2f18 aa3b 815d 8a3c 0f1c ef3c
00000180: 279b b9bb 2a9c 743b 42d5 00bb 99c6 04bc
00000190: 87dc 41bc 7389 f73b 8991 3a3c 3a16 003c
000001a0: ee89 963c 6fed b33c 6b1a c33b 9c96 a23c
000001b0: 6dce 41b9 b557 b93c df08 22bb ff36 6b3c
000001c0: 0135 a23c e446 633c 78a3 623c 9c9c d93b
000001d0: aedf 71bb e669 683c 10fa 903c 99f8 733c
000001e0: 9c65 abbb 5e96 9f3c e93a 1c3c 13d7 273c
000001f0: e645 f23b b839 063c e75f 893a 9207 acbc
00000200: a03e 583c 9bee 9d3b 8dae 683c 1b0a f6ba
00000210: 1d58 963c 49af 2fbc 62ce 2e3c 77da a43c
00000220: cfdf 08bc 5319 563c 4c29 843c 92e9 aa3c
00000230: 0b18 ca3b 6ac8 cfbb cf5a 89bc 4b0e 33bc
00000240: f602 ef3b b67c efbb 97f4 0abc 95da c93c
00000250: 7dae 26bc 5b0f 8839 826e e23a bc1c 3e3b
00000260: c1cc 9e3c 1f74 2e3c d2c1 b33c 5201 fb3c
00000270: 000d 8c3c 9861 23bb c484 983c 25d6 b1bb
00000280: 12b5 3d3b 415b 19ba 6f58 903c e27c 1a3c
00000290: 9817 46bb b831 07bc 2e12 983c 3db0 5bbb
000002a0: c61c e9bc 88c5 6f3c bb5c 7c3c 8159 0f3c
000002b0: 63af 3f3c ef8c 823c 621f a63c ec76 973c
000002c0: 023f c13c 7156 0c3c 56ab 273b 6820 ed3b
000002d0: 0d65 c03c c2ee ec3b 3fe7 da3b 2ea9 8b3c
000002e0: 3fae ba3c da63 a43c a60d d83b 8566 493c
000002f0: e66b ab3b 2698 46bb 354b b93b dcf4 0b3b
00000300: b198 bfba 70ec 803c 09b3 a539 d525 c2bb
00000310: 7919 84bb 20aa 893c 7a20 1e3c 4b45 863c
00000320: 0d63 a73b 3d19 2cbb 6efe 933c 7c4f debb
00000330: 26e7 0fba 1992 883c 6f12 093c 984a bf3c
00000340: 42e6 cb3b e3d2 c0bb 5898 0f3c 596d 7338
00000350: d01e ce3b 71c3 963c c8ba 223c b5d7 133b
00000360: 26c4 c93b db0f 28bb 8144 c23c ab39 2abb
00000370: c94b a13c dcd7 903c 3eca 543c f095 833c
00000380: 3ccc a5bb 9b28 c43c ad38 a33c 103f a93c
00000390: aa08 ec3c 4fda d43c 1eff bf3b b85e c23c
000003a0: d4aa b63b 8cbf c03c 3271 b13c 8a94 a23c
000003b0: 756c 39ba b37f 23bb 8f52 983c ea6d 153c
000003c0: 8374 923c e9e1 86bb ff2c 203c 9fd2 023c
000003d0: 11f7 82ba 206f 20bb cde1 4a3c e918 eebb
000003e0: 7634 e3bb 150f 9a3b f3e1 723c 6e82 683c
000003f0: d8f0 1c3c ab14 4a3c bd99 c83c faa9 87bc

network_body._body_endoder.seq_layers.2.weight f4 [256, 256]
0.022798931 0.057807803 0.00017093381 0.10385787 -0.13259813 -0.0119735105 -0.022748837 -0.1241336
0.04542104 0.0058441213 0.087187015 -0.03080212 -0.039296642 0.0018908862 0.096346535 -0.003040949
0.028509343 0.091709614 -0.076862454 0.07280188 0.0012680085 -0.030306654 0.09492982 0.06221666
-0.062004924 0.069879435 0.047856998 -0.07255852 -0.04008936 -0.004594178 0.09566154 -0.034477923
0.05846337 -0.051870268 0.080896236 -0.009908082 -0.05632839 0.07558411 0.05675743 -0.055200838
-0.0020061792 0.12988622 0.004221558 0.027453894 -0.049879625 0.06903158 0.010780718 0.0015460317
-0.09055862 -0.015446897 -0.010952961 0.10039346 0.07589208 -0.015994387 0.01357986 0.07255352
0.009239384 0.057969574 0.11415409 0.124246925 0.20599735 -0.06696903 0.016471742 0.05670091
-0.119009614 -0.006434756 0.052263785 0.04823103 0.033017725 0.0067957183 -0.04765696 -0.049353603
0.12535518 0.096132 0.021223854 0.12275703 -0.0688668 -0.0114985015 -0.019797739 -0.04986574
0.046830088 0.011360126 0.12615728 -0.09573483 0.0851339 0.1440146 -0.07186815 0.109830126
-0.019549863 0.079757236 0.034305375 -0.02117566 0.13302487 0.037879486 -0.040631734 -0.079293504
0.03388108 -0.10339685 0.052861616 0.10302443 -0.12598974 0.07395483 0.05271134 0.09981398
-0.034766387 0.055352416 -0.005420332 0.0036800797 0.06398656 -0.049615297 -0.01022289 0.12623982
-0.051319107 0.009035952 -0.06926742 -0.09946098 -0.0001597921 0.021357978 -0.054219965 0.02044278
0.056581933 -0.09866503 -0.0012696714 -0.0101933805 -0.055830736 0.068782516 0.13792735 0.0430949
-0.02019014 0.018525908 0.07297378 -0.05752366 0.019431435 0.054034922 0.015483456 -0.048040338
-0.005120723 0.12741102 -0.028974937 0.026281439 -0.0901863 -0.008356765 -0.02088201 -0.025754033
-0.04481877 -0.0090902615 -0.00931002 0.018453594 -0.006283077 0.12668826 -0.0030434341 0.07457849
-0.15512018 0.13261181 0.0791711 -0.024777843 0.07394084 0.09602093 0.019364465 -0.051291548
0.0050506406 -0.14596878 0.18399666 -0.050966166 -0.06353771 0.088570245 0.006760218 0.046908516
0.06654878 0.02328266 0.06159004 -0.08763284 -0.03346712 -0.1279521 0.006819572 -0.0069718175
0.026367163 -0.11307323 -0.041603822 0.14936094 0.034136266 -0.11247157 -0.11822092 0.068901055
0.08109922 0.02983334 0.15808396 -0.074317425 -0.1436995 0.018774929 0.07092535 -0.07009336
0.0023864117 0.04453379 -0.060177054 0.08492152 -0.017951647 0.0036256297 0.057950497 -0.024609117
-0.017620644 -0.03843892 0.011982678 -0.011608418 -0.020767987 0.07540809 -0.04930256 -0.049583904
-0.1675488 0.070809945 -0.027663147 -0.07943213 0.019468833 -0.009553659 0.057038914 0.01034121
0.059506275 0.040361147 -0.07321656 0.028611101 0.10642568 -0.021357756 0.112047754 -0.10818575
0.088506795 -0.08320708 0.0076908385 0.0009254992 -0.019050747 0.027185619 0.031774733 0.009358555
0.0030866845 0.052842002 0.110161565 0.0229259 -0.020543309 0.050396714 -0.010667889 -0.062380087
-0.06931255 0.054331176 -0.100366995 -0.011855047 0.013573365 -0.057520337 0.0074560097 -0.0989895
-0.035772577 0.0068227905 -0.011646227 -0.0049437657 0.022702059 0.024258627 0.1260946 0.097482845
00000000: d3c4 ba3c e0c7 6c3d b23c 3339 6fb3 d43d
00000010: cec7 07be 8b2c 44bc c55b babc c239 febd
00000020: 6a0b 3a3d 0b80 bf3b 1b8f b23d ba54 fcbc
00000030: 84f5 20bd 9dd7 f73a 5551 c53d a94a 47bb
00000040: 6d8c e93c 40d2 bb3d 106a 9dbd 2719 953d
00000050: 4e33 a63a a945 f8bc 916a c23d e5d6 7e3d
00000060: e0f8 7dbd f31c 8f3d b305 443d 9099 94bd
00000070: be34 24bd c28a 96bb 33ea c33d b938 0dbd
00000080: 4977 6f3d eb75 54bd edac a53d 8255 22bc
00000090: 99b8 66bd d8cb 9a3d 7b7a 683d 461a 62bd
000000a0: 1a7a 03bb e500 053e ff54 8a3b fde6 e03c
000000b0: 944e 4cbd 6e60 8d3d 9ca1 303c 37a4 ca3a
000000c0: cc76 b9bd fb14 7dbc 0c74 33bc 169b cd3d
000000d0: 4f6d 9b3d a906 83bc 107e 5e3c f196 943d
000000e0: c960 173c 8171 6d3d 9fc9 e93d 2c75 fe3d
000000f0: f8f0 523e 0f27 89bd bfef 863c 373f 683d
00000100: 50bb f3bd a5da d2bb 8d12 563d e78d 453d
00000110: 983d 073d 9eae de3b f233 43bd 0127 4abd
00000120: 1c5d 003e dbe0 c43d a6dd ad3c 0a68 fb3d
00000130: 090a 8dbd 3664 3cbc de2e a2bc 0540 4cbd
00000140: e8d0 3f3d d21f 3a3c 602f 013e 9f10 c4bd
00000150: af5a ae3d 9078 133e 9c2f 93bd 9eee e03d
00000160: 0927 a0bc c357 a33d cb83 0c3d 9478 adbc
00000170: ac37 083e 8527 1b3d 766d 26bd a264 a2bd
00000180: e3c6 0a3d bac1 d3bd 6c85 583d 79fe d23d
00000190: 7403 01be a175 973d d9e7 573d 466b cc3d
000001a0: 3367 0ebd 37b9 623d 0a9d b1bb 7e2d 713b
000001b0: 630b 833d 6939 4bbd e97d 27bc 0345 013e
000001c0: fc33 52bd 880b 143c 14dc 8dbd 33b2 cbbd
000001d0: dd8d 27b9 edf6 ae3c c115 5ebd 9e77 a73c
000001e0: 75c2 673d e410 cabd 1a6b a6ba 2302 27bc
000001f0: c5ae 64bd d9dd 8c3d d43c 0d3e 4784 303d
00000200: cb65 a5bc a5c3 973c 4773 953d ee9d 6bbd
00000210: ac2e 9f3c b953 5d3d 52ae 7d3c f2c5 44bd
00000220: bdcb a7bb 0978 023e d95c edbc 2c4c d73c
00000230: 98b3 b8bd d0ea 08bc c010 abbc 1ffa d2bc
00000240: e393 37bd 52ef 14bc 0e89 18bc fe2b 973c
00000250: 45e2 cdbb 91ba 013e 5a74 47bb 9bbc 983d
00000260: d3d7 1ebe 64cb 073e 7524 a23d e7fa cabc
00000270: 4c6e 973d 9fa6 c43d 3aa2 9e3c 1617 52bd
00000280: d87f a53b d778 15be 9f69 3c3e e6c1 50bd
00000290: 0f20 82bd 5164 b53d d284 dd3b 2523 403d
000002a0: ba4a 883d 47bb be3c d645 7c3d d978 b3bd
000002b0: d214 09bd e005 03be b776 df3b d873 e4bb
000002c0: f3ff d73c f092 e7bd c568 2abd 13f2 183e
000002d0: 78d2 0b3d 7f57 e6bd cf1d f2bd ff1b 8d3d
000002e0: 5917 a63d 0c65 f43c c3e0 213e bc33 98bd
000002f0: f625 13be e1cd 993c 4f41 913d 1c8d 8fbd
00000300: 5865 1c3b 1069 363d 377c 76bd 55eb ad3d
00000310: 550f 93bc f99b 6d3b 805d 6d3d 0f99 c9bc
00000320: 2b59 90bc 2172 1dbd ff52 443c 3c31 3ebc
00000330: a021 aabc 8f6f 9a3d 7bf1 49bd 7e18 4bbd
00000340: ea91 2bbe ce04 913d d39d e2bc 50ad a2bd
00000350: 1a7d 9f3c f386 1cbc a3a1 693d 2e6e 293c
00000360: dabc 733d bb51 253d 90f2 95bd d461 ea3c
00000370: b5f5 d93d 76f6 aebc 4b79 e53d 7e90 ddbd
00000380: 0d43 b53d 7968 aabd 6e03 fc3b 339d 723a
00000390: 5010 9cbc 60b4 de3c 3926 023d a054 193c
000003a0: f949 4a3b db70 583d 639c e13d 19cf bb3c
000003b0: 714a a8bc c96c 4e3d 5fc8 2ebc 4382 7fbd
000003c0: bdf3 8dbd 5e8a 5e3d 368d cdbd ac3b 42bc
000003d0: d262 5e3c 729a 6bbd 8b51 f43b 02bb cabd
000003e0: 4486 12bd b791 df3b d1cf 3ebc 50ff a1bb
000003f0: abf9 b93c 07ba c63c f11e 013e 16a5 c73d

network_body._body_endoder.seq_layers.4.bias f4 [256]
0.00016564276 0.023327773 0.0022341572 0.020631751 0.007997112 0.020286033 0.0074693854 -0.0036803952
0.020623798 0.019954031 0.013819452 0.021445092 0.0044658273 0.016787319 0.023314524 0.018473392
0.0258212 0.027172241 0.003281455 0.01909014 0.00051207165 -0.009247279 0.0052380674 0.016742835
0.0051030354 0.022043569 -0.007907694 0.005774264 0.0042891456 0.0044697626 -0.0076569985 0.004469613
0.0028508494 0.003717818 0.022282481 0.0071483785 0.007949642 0.0014487503 0.01168781 0.018441599
0.018561142 0.00077224366 0.014436041 -0.0056730676 0.026402699 0.021823185 0.01038221 0.021910613
0.012053377 0.018703347 0.0037129475 0.0058381804 0.016414389 0.021372728 -0.00079781655 0.0010993215
0.026285183 0.017106729 0.01313709 0.0067255446 0.011692805 0.01338403 -0.0017522709 0.010058518
0.020208186 0.025280708 0.02254839 0.006212938 0.021146957 0.012624412 0.0052403496 0.004288382
0.021532936 0.013255568 0.017580247 0.00085839233 0.025353556 0.022978248 0.0155453645 0.019776966
0.014881491 -0.0040263063 0.020632472 0.00203785 -0.005572563 0.018691603 0.027810683 0.019972486
0.019972967 0.009183078 0.0008784841 0.0146868965 0.0005991922 0.017473366 0.021026717 0.014674648
0.019238045 0.008185987 0.006537389 0.0009519687 0.011443596 -0.004106917 0.011359516 0.0019807317
0.016209178 0.014192509 0.021391047 0.0271699 0.010434586 0.0048369616 0.0059263934 0.025789814
0.009957973 0.007687013 0.012192456 0.008132128 0.0019268508 0.005140267 0.0043684207 0.0012501496
0.004988953 0.008164687 0.015618735 0.0010331027 0.00503957 0.0031024339 0.0033950328 0.0074642817
0.02470687 0.021202635 0.004215591 0.010624817 0.0010211029 0.020204367 -0.00861368 0.013324477
0.007965219 0.02016887 -0.0034391675 0.023484869 0.020218845 0.021625306 0.014754582 -0.0019956175
0.007893182 -0.008195363 0.016341502 0.019551419 0.023361716 -0.0071009398 0.0061029564 0.02030196
0.016097113 0.00114052 0.021463234 0.014970483 0.009789173 0.014556599 0.021820616 0.023418613
-0.0016100237 0.0050611803 0.02581133 0.027869118 0.012251079 0.013043199 0.012884122 0.016909836
-0.0063048727 0.0011384694 0.00666524 0.0002475174 0.00201217 0.005855047 -0.0011508445 0.008376748
-0.0032104435 0.020565014 0.0078934515 0.011169499 0.0066659125 0.0050754864 0.020848868 0.007626731
0.0031472568 0.017342106 0.0069583408 -0.015462645 0.021227086 0.009355883 0.023416065 0.008601636
0.024202917 -0.012488096 0.025250604 0.0063334405 0.028330727 0.00618955 -0.0041808453 0.008547961
0.019027343 0.0023157732 0.0065800655 0.011590229 0.018826624 0.009859557 0.007087005 0.001344938
-0.012986983 0.023272958 0.01886137 0.00493871 -0.006630848 0.020515084 0.022528302 0.023787707
-0.004123149 0.019855194 0.017684057 -0.00019651737 0.018083164 0.006723447 0.0032480792 0.0058838767
0.013296219 0.012575832 0.016464133 0.027694164 0.009875848 0.02561149 -0.0051716208 0.015991397
0.010071735 0.007735394 -0.00054279366 0.00027557046 0.0025958372 0.0051560043 0.008368544 0.017987143
0.01360703 0.0058580413 0.022987967 0.023242032 0.011923654 0.018137239 0.010365986 0.006299226
0.020793483 0.024172014 0.022151785 0.0039648227 0.016494773 0.028047426 0.016509555 0.014643634
00000000: 64b0 2d39 e319 bf3c f06a 123b eb03 a93c
00000010: 5206 033c e52e a63c bfc1 f43b c932 71bb
00000020: 3df3 a83c a376 a33c fc6a 623c 9ead af3c
00000030: 1356 923b 8f85 893c 1afe be3c 8355 973c
00000040: fb86 d33c 5298 de3c ae0d 573b ed62 9c3c
00000050: 8c3c 063a e681 17bc 18a4 ab3b 4528 893c
00000060: 5d37 a73b b794 b43c 468f 01bc 0a36 bd3b
00000070: f68b 8c3b 1677 923b 8fe7 fabb d575 923b
00000080: 51d5 3a3b a3a6 733b c089 b63c f23c ea3b
00000090: 373f 023c fee3 bd3a 3a7e 3f3c d612 973c
000000a0: 890d 983c 6570 4a3a 2585 6c3c 24e5 b9bb
000000b0: 794a d83c 89c6 b23c 251a 2a3c e37d b33c
000000c0: 877b 453c c337 993c ec54 733b 354e bf3b
000000d0: 7877 863c dc15 af3c 9024 51ba 1c17 903a
000000e0: 0654 d73c 6923 8c3c f33c 573c f561 dc3b
000000f0: 2e93 3f3c b148 5b3c 74ac e5ba 7bcc 243c
00000100: a38b a53c 7d19 cf3c 67b7 b83c e795 cb3b
00000110: 623c ad3c 9fd6 4e3c 3db7 ab3b 8e85 8c3b
00000120: d765 b03c e22d 593c 7304 903c bc05 613a
00000130: 43b2 cf3c e13c bc3c fcb1 7e3c 4e03 a23c
00000140: 7fd1 733c 1bef 83bb 6e05 a93c 738d 053b
00000150: 0c9a b6bb 221f 993c 3bd3 e33c 579d a33c
00000160: 599e a33c 9f74 163c 124a 663a 4fa1 703c
00000170: 1c13 1d3a 4e24 8f3c 3940 ac3c ef6d 703c
00000180: 1b99 9d3c 851e 063c 9837 d63b 8a8d 793a
00000190: ec7d 3b3c 5193 86bb 431d 3a3c 2acf 013b
000001a0: 1cc9 843c b387 683c 473c af3c 6993 de3c
000001b0: d3f5 2a3c 607f 9e3b 3132 c23b 2945 d33c
000001c0: c426 233c 57e3 fb3b dec2 473c 9e3c 053c
000001d0: 628e fc3a af6f a83b f824 8f3b 0fdc a33a
000001e0: 5f7a a33b 2ec5 053c b9e5 7f3c 2d69 873a
000001f0: fa22 a53b 3452 4b3b 337f 5e3b ef96 f43b
00000200: 1066 ca3c 26b1 ad3c f122 8a3b b613 2e3c
00000210: 87d6 853a a183 a53c 6420 0dbc e84e 5a3c
00000220: 8d80 023c 3039 a53c a863 61bb 5763 c03c
00000230: fea1 a53c 8e27 b13c 34bd 713c e8c8 02bb
00000240: 6852 013c d845 06bc 9dde 853c 4c2a a03c
00000250: 1261 bf3c 00af e8bb 4ffb c73b 4c50 a63c
00000260: 18de 833c 807d 953a aad3 af3c c246 753c
00000270: c462 203c cd7e 6e3c 26c1 b23c 64d8 bf3c
00000280: 6e07 d3ba 42d8 a53b 4872 d33c c74d e43c
00000290: c0b8 483c 24b3 553c ed17 533c 7f86 8a3c
000002a0: 1b99 cebb b238 953a 1668 da3b 39c5 8139
000002b0: 9cde 033b b2db bf3b efd7 96ba a13e 093c
000002c0: 4e66 52bb f677 a83c 8953 013c 4600 373c
000002d0: ba6d da3b 4450 a63b 3fcb aa3c a8e9 f93b
000002e0: 3542 4e3b 0811 8e3c cb02 e43b 0957 7dbc
000002f0: 6de4 ad3c 6b49 193c 0cd3 bf3c e0ed 0c3c
00000300: 3245 c63c df9a 4cbc 5bda ce3c c088 cf3b
00000310: d715 e83c b5d1 ca3b 79ff 88bb bf0c 0c3c
00000320: 3bdf 9b3c 3ac4 173b 979d d73b f2e4 3d3c
00000330: 4b3a 9a3c fb89 213c 1b3a e83b a148 b03a
00000340: 5bc7 54bc eea6 be3c 2983 9a3c e7d4 a13b
00000350: 9647 d9bb 400f a83c 468d b83c 70de c23c
00000360: 7b1b 87bb 5ca7 a23c 28de 903c 3b10 4eb9
00000370: 2523 943c 5c50 dc3b badd 543b 89cd c03b
00000380: 62d8 593c dd0a 4e3c cadf 863c dfde e23c
00000390: 4fce 213c 30cf d13c b376 a9bb 6400 833c
000003a0: eb03 253c 3079 fd3b 444a 0eba 717a 9039
000003b0: ec1e 2a3b b3f3 a83b 381c 093c c659 933c
000003c0: 05f0 5e3c d0f4 bf3b 4351 bc3c 1366 be3c
000003d0: 6e5b 433c 8c94 943c 19d6 293c bd69 ce3b
000003e0: 1857 aa3c 6304 c63c a977 b53c 58eb 813b
000003f0: 0c20 873c b7c3 e53c 0c3f 873c daeb 6f3c

network_body._body_endoder.seq_layers.4.weight f4 [256, 256]
0.058372017 0.049540523 0.11725893 0.0825258 -0.018405374 -0.049246144 0.12769933 -0.07082243
0.03898868 0.04059658 -0.04286414 0.049804263 0.0011347029 0.030997666 0.020260189 -0.044362266
0.14538525 0.12910189 0.033992615 0.075813934 -0.03483051 -0.080611974 0.0003868737 -0.06381136
-0.03576106 -0.008510019 0.0015214451 -0.0008424392 -0.06388812 0.1014501 0.027042476 -0.076022595
-0.040631715 0.03254059 0.17482725 0.1453589 -0.1107049 -0.06643654 0.030581422 0.013972032
0.041059922 -0.03955193 0.06250762 -0.00082452805 0.029603887 0.0020957012 0.00092834904 -0.07303395
-0.08014942 -0.042297497 -0.09001785 -0.02744851 0.029786566 -0.037373383 0.00080266007 0.07080588
0.09826491 -0.01717398 -0.05935509 -0.011169116 0.09327922 0.035228334 -0.007646387 0.0035907885
0.017968217 -0.08905735 0.032845095 0.041436486 -0.13563506 -0.01315295 0.006695398 0.057878602
-0.03747682 -0.010361263 -0.0048356745 0.06921084 -0.03241931 -0.08075704 0.0016095325 -0.08980785
0.055938415 0.010023351 -0.06906736 0.046725415 0.019603703 -0.15298033 -0.010219776 0.011189902
0.07100663 0.0096228365 0.07938217 -0.008613126 -0.073851146 -0.1568115 -0.033056717 -0.01778184
0.026857004 -0.04954831 0.066012524 -0.009397426 0.020954685 -0.1136413 0.12500884 0.039241824
-0.036039986 -0.08976491 0.12490588 -0.05965417 -0.04648926 -0.051565938 0.06123561 -0.0352427
0.08394971 -0.011594821 -0.19197156 -0.070100285 0.03827632 0.03314895 0.02733042 -0.020556435
-0.053030197 0.052122407 0.0014924383 0.09012977 0.0043062 0.008682395 0.10714905 -0.035507128
0.032404184 0.009293001 -0.043353062 -0.013683535 0.10383734 0.07307949 0.053902633 0.012540084
-0.010525887 -0.009810495 -0.06702453 -0.0036846776 0.027965574 0.108191505 -0.029235449 -0.042762514
0.07237395 -0.002923867 0.05043774 0.027516318 -0.11009667 0.031242196 -0.032594547 -0.021661986
-0.087488495 -0.052900925 0.08919824 0.040818874 0.04726827 0.031884365 -0.0105226245 -0.06631009
-0.0022007336 0.093725346 -0.007552136 -0.0066956524 0.03596205 0.005122399 -0.048972648 -0.10193962
0.002704022 -0.005565579 -0.019578591 -0.043694153 -0.13891874 0.03535361 -0.1774964 -0.10587761
-0.073414065 0.0042279065 -0.043691337 0.035894305 -0.00836758 0.09817795 -0.07477287 -0.084091365
-0.01578308 0.02948421 0.123110116 0.033217985 0.104899466 0.07881348 -0.04013782 0.0027363938
0.06915167 0.16126011 -0.07912167 0.086631574 -0.018020196 0.03197656 -0.09721809 -0.08204803
-0.10533503 -0.023393989 0.02983376 0.11408977 -0.009391735 -0.023261216 0.027812857 0.07046864
0.07631158 -0.039561395 0.058898818 0.034022737 0.014983012 -0.06091554 -0.031516206 -0.03429349
0.09609479 -0.11185578 -0.100550085 -0.023828324 -0.13643067 0.034210123 -0.06505017 -0.039274137
0.11086539 0.13138664 0.06525429 -0.028910942 -0.042092346 -0.20549816 0.021372136 0.16696626
-0.018621426 0.053488437 -0.16996954 -0.023126818 -0.017611358 0.15001838 -0.08151446 -0.049032312
-0.085213795 0.03960701 0.054629173 0.00405143 -0.011096811 0.07407245 -0.036600046 -0.03981329
0.07038424 -0.0360589 -0.049671955 0.03785255 0.03176544 -0.056937225 -0.03882743 0.017568452
00000000: 7f17 6f3d 01eb 4a3d 7325 f03d 4903 a93d
00000010: dec6 96bc 53b6 49bd 9dc3 023e 5a0b 91bd
00000020: 98b2 1f3d 9948 263d 4f92 2fbd 8eff 4b3d
00000030: 50ba 943a d1ee fd3c b2f8 a53c 35b5 35bd
00000040: dfdf 143e 4933 043e d73b 0b3d 5644 9b3d
00000050: 70aa 0ebd e417 a5bd 4fd5 ca39 88af 82bd
00000060: 307a 12bd 9b6d 0bbc 3a6b c73a 23d7 5cba
00000070: c6d7 82bd 12c5 cf3d 2f88 dd3c bcb1 9bbd
00000080: 716d 26bd 4849 053d ea05 333e f7d8 143e
00000090: 40b9 e2bd e10f 88bd e485 fa3c f3ea 643c
000000a0: 732e 283d 3401 22bd ff03 803d 2425 58ba
000000b0: da83 f23c 0858 093b 735c 733a d392 95bd
000000c0: 6125 a4bd 2440 2dbd 475b b8bd b3db e0bc
000000d0: f502 f43c d514 19bd 9b69 523a ac02 913d
000000e0: 1d3f c93d 72b0 8cbc 531e 73bd abfe 36bc
000000f0: 2d09 bf3d 964b 103d 8b8e fabb 6f53 6b3b
00000100: 1532 933c b363 b6bd 9488 063d 4eb9 293d
00000110: ebe3 0abe 797f 57bc 1265 db3b 1d12 6d3d
00000120: 4b81 19bd 49c2 29bc 9474 9ebb 6abe 8d3d
00000130: 1cca 04bd f263 a5bd f3f6 d23a 2eed b7bd
00000140: ae1f 653d fb38 243c 3073 8dbd 2663 3f3d
00000150: f297 a03c e0a6 1cbe d970 27bc da55 373c
00000160: ed6b 913d 1aa9 1d3c 1f93 a23d 121e 0dbc
00000170: 453f 97bd 3293 20be 7b66 07bd 39ab 91bc
00000180: 3803 dc3c 2bf3 4abd 9331 873d a9f7 19bc
00000190: 29a9 ab3c c5bc e8bd 5102 003e 09bc 203d
000001a0: aa9e 13bd aad6 b7bd a7ce ff3d ee57 74bd
000001b0: 866b 3ebd ce36 53bd 31d2 7a3d a65a 10bd
000001c0: d3ed ab3d 34f8 3dbc 3194 44be bd90 8fbd
000001d0: a1c7 1c3d 32c7 073d 0ce4 df3c f865 a8bc
000001e0: 3136 59bd 4e7e 553d eb9d c33a f595 b83d
000001f0: 061b 8d3b 9b40 0e3c f670 db3d ec6f 11bd
00000200: 40ba 043d ac41 183c fb92 31bd e830 60bc
00000210: aca8 d43d b3aa 953d 02c9 5c3d ed74 4d3c
00000220: c574 2cbc 33bc 20bc 2844 89bd a27a 71bb
00000230: 0f18 e53c 8293 dd3d 2e7f efbc bf27 2fbd
00000240: cb38 943d 599e 3fbb ce97 4e3d e769 e13c
00000250: 5d7a e1bd a2ef ff3c dc81 05bd 7a74 b1bc
00000260: 2b2d b3bd a4ae 58bd 91ad b63d b131 273d
00000270: 609c 413d 2e99 023d 1667 2cbc 96cd 87bd
00000280: 2f3a 10bb 13f3 bf3d e977 f7bb 3467 dbbb
00000290: f14c 133d ccd9 a73b 8b97 48bd b8c5 d0bd
000002a0: f635 313b 765f b6bb 4863 a0bc a4f8 32bd
000002b0: b740 0ebe f2ce 103d 9ec1 35be 5cd6 d8bd
000002c0: 1d5a 96bd 408a 8a3b b0f5 32bd e805 133d
000002d0: 2d18 09bc 8511 c93d 8522 99bd 1838 acbd
000002e0: 854b 81bc df88 f13c 2821 fc3d 950f 083d
000002f0: 88d5 d63d f668 a13d 8e67 24bd 1255 333b
00000300: 649f 8d3d 5f21 253e 8b0a a2bd e56b b13d
00000310: 179f 93bc daf9 023d 471a c7bd cc08 a8bd
00000320: e4b9 d7bd c0a4 bfbc ee65 f43c e6a7 e93d
00000330: cbdf 19bc 4e8e bebc cad7 e33c dd51 903d
00000340: 3f49 9c3d 210b 22bd e33f 713d 6d5b 0b3d
00000350: 4f7b 753c 9382 79bd 2317 01bd 5577 0cbd
00000360: 58cd c43d a514 e5bd 34ed cdbd 9e33 c3bc
00000370: 7bb4 0bbe ea1f 0c3d 0639 85bd ebdd 20bd
00000380: 650d e33d 388a 063e 0ba4 853d a4d6 ecbc
00000390: 0669 2cbd 1c6e 52be 9e14 af3c 34f9 2a3e
000003a0: f68b 98bc b116 5b3d 7f0c 2ebe 7474 bdbc
000003b0: b245 90bc 6b9e 193e 0ef1 a6bd 1bd6 48bd
000003c0: 9284 aebd f63a 223d d7c2 5f3d dcc1 843b
000003d0: 66cf 35bc 4cb3 973d eee9 15bd 4313 23bd
000003e0: 9d25 903d 7fb2 13bd d274 4bbd 470b 1b3d
000003f0: 7a1c 023d 0237 69bd 8309 1fbd b7eb 8f3c

network_body.observation_encoder.processors.0.normalizer.running_mean f4 [68]
0.38239783 0.39035004 0.22725353 0.65966386 0.25059822 0.40301543 0.34640688 0.7728993
0.13527147 0.48833364 0.37634236 0.753649 0.442634 0.300596 0.2567551 0.6706645
0.28930262 0.69336176 0.017366074 0.6195347 0.53370476 0.3021758 0.16410433 0.5551111
0.20634826 0.65226465 0.14141755 0.6933918 0.4678773 0.49069998 0.041243356 0.54143506
0.45987657 0.5218873 0.018107036 0.5451272 0.2705846 0.66693974 0.062002152 0.6843268
0.4067477 0.5452011 0.04627073 0.56402665 0.29449645 0.5288869 0.08865414 0.67750883
0.5020544 0.34570298 0.020596487 0.46547243 0.21005921 0.46571514 0.0027509942 0.5929586
0.048301585 0.5231106 0.00032168577 0.5979407 0.116818085 0.4775048 0.00027481592 0.5636795
0.11681809 0.47750467 0.00027481595 0.5636796
00000000: a6c9 c33e f6db c73e 26b5 683e bbdf 283f
00000010: 694e 803e 0a58 ce3e 3e5c b13e bbdc 453f
00000020: 9b84 0a3e de06 fa3e f2af c03e 24ef 403f
00000030: eca0 e23e b8e7 993e 6875 833e abb0 2b3f
00000040: 791f 943e 2880 313f 4c43 8e3c d399 1e3f
00000050: e0a0 083f c9b6 9a3e f70a 283e c31b 0e3f
00000060: f54c 533e d1fa 263f c3cf 103e 2082 313f
00000070: 9d8d ef3e 073d fb3e cbee 283d 7d9b 0a3f
00000080: f174 eb3e 689a 053f 3555 943c 758d 0b3f
00000090: 118a 8a3e 90bc 2a3f f8f5 7d3d 0b30 2f3f
000000a0: 3c41 d03e 4d92 0b3f 6186 3d3d 0d64 103f
000000b0: 3dc8 963e 2265 073f 4d90 b53d 3871 2d3f
000000c0: a386 003f fbff b03e f7b9 a83c 6752 ee3e
000000d0: c319 573e 3772 ee3e 064a 343b 23cc 173f
000000e0: e2d7 453d 94ea 053f efa7 a839 a412 193f
000000f0: 523e ef3d 827b f43e 2b15 9039 4d4d 103f
00000100: 533e ef3d 7e7b f43e 2c15 9039 4e4d 103f

network_body.observation_encoder.processors.1.normalizer.running_mean f4 [6]
-9.0482855 3.270865 -10.999727 6.999846 4.878182 305.82434
00000000: c7c5 10c1 da55 5140 e2fe 2fc1 bdfe df40
00000010: 111a 9c40 84e9 9843
