Assets/Training/results/b_treasure_test80_Th64_Lr1e-4Bs4096Bs65536_EndDistanceReward_0.1deltaXZ_5deltaY_TP0.001/TreasureSearch/TreasureSearch-2999937.onnx (onnx, 608683 bytes, 13 tensors)

65 f4 [68]
000000 71 4d df 3e f2 a3 ff 3e d9 95 e3 3e 75 75 8b 3e
       0.4361377 0.49929768 0.44450262 0.2723805
000010 68 36 ae 3e 71 7a dc 3e de 75 f8 3e bf 1c 50 3e
       0.34025884 0.43062165 0.48527426 0.20323466
000020 f3 f8 ff 3e 00 98 ba 3e a0 26 f4 3e dd 9a a4 3e
       0.4999462 0.36444092 0.4768572 0.321494
000030 e8 92 ff 3e 81 5d ce 3e e4 c0 ef 3e 13 a5 7e 3e
       0.49916768 0.40305713 0.4682685 0.24867658
000040 19 77 ff 3e 55 37 b9 3e 4d 31 f8 3e 0a d0 b9 3e
       0.49895552 0.36175027 0.48475114 0.36291534
000050 99 53 e1 3e 99 0f fd 3e c5 7b bc 3e fb e6 88 3e
       0.44009092 0.49425963 0.3681318 0.26738724
000060 7e fc ff 3e 13 0f f9 3e e3 5e a0 3e cf b5 c6 3e
       0.49997324 0.48644313 0.31322393 0.38810584
000070 58 5e f6 3e a4 66 ef 3e b5 8e 4a 3e 2a 87 9b 3e
       0.48118854 0.46757996 0.19781001 0.3037656
000080 24 dc e7 3e 18 f6 d4 3e fb d7 7c 3e 88 17 a7 3e
       0.4528514 0.41594005 0.24691765 0.3263514
000090 f4 b2 d2 3e cc 5e f5 3e 19 00 b1 3e 2b bc 92 3e
       0.41152155 0.47923887 0.34570387 0.28659186
0000a0 b6 0d f6 3e 1b fb ff 3e c2 6c b3 3e 7c 6e c0 3e
       0.48057336 0.49996266 0.35043913 0.37584293
0000b0 3e e8 8d 3e 5c 9c e3 3e 6d 69 79 3e 2c b1 4d 3e
       0.2771625 0.4445523 0.24356623 0.20087117
0000c0 92 f9 b2 3e bb f6 c8 3e 2c 1a 2b 3e d1 2c 83 3e
       0.34956032 0.3925074 0.16709203 0.2562013
0000d0 03 5f 8f 3e ab b0 d7 3e b5 47 42 3c 6b c4 14 3e
       0.28002176 0.42126974 0.011857917 0.14528053
0000e0 43 cf a7 3e cc 2b d7 3e 71 79 1a 3d 1a 15 33 3e
       0.32775316 0.42025602 0.03771347 0.17488518
0000f0 23 8c a5 3e 29 fa da 3e b1 11 6f 3c a9 93 18 3e
       0.32333478 0.42768982 0.01459162 0.14900078
000100 23 8c a5 3e 2f fa da 3e b1 11 6f 3c a8 93 18 3e
       0.32333478 0.42769 0.01459162 0.14900076

68 f4 [6]
000000 83 3d e5 3f 9e 9a 51 40 f1 40 d1 3b 14 c6 85 3b
       1.7909397 3.275062 0.0063859154 0.0040824506
000010 cb 7b 36 40 e0 9d b3 42
       2.8513057 89.80835

action_model._continuous_distribution.log_sigma f4 [1, 2]
000000 0d 78 da bb 77 74 05 bd
       -0.006667143 -0.032581773

action_model._continuous_distribution.mu.bias f4 [2]
000000 30 01 66 3b 6a 5c 90 3a
       0.0035095923 0.001101387

action_model._continuous_distribution.mu.weight f4 [2, 256]
000000 32 96 3c bc 61 6b a6 bc 11 16 93 3c 3a e0 df 3b
       -0.011510419 -0.020314874 0.017954858 0.00683215
000010 8e 06 a2 3c 56 26 9e 3c 82 8c 9f 3c b9 1a b2 bc
       0.019778516 0.01930539 0.019476179 -0.021741258
000020 6d fa ba bc 50 4c f1 bb 13 b9 2b bd 64 35 50 3d
       -0.02282449 -0.0073638335 -0.041924547 0.050832167
000030 e5 a0 85 bc e4 b6 22 3c 4e 5f 6d bc b6 e6 96 bc
       -0.016312072 0.0099313 -0.014488054 -0.018420558
000040 0e 54 ae 3c 88 fd 3b 39 ed 0a 4e bc 05 f5 e4 bc
       0.021280315 0.00017928157 -0.012575847 -0.027948866
000050 a2 3b 8d 3b cd 6b 93 3c d1 d0 10 bd 4c 3d 77 bc
       0.0043100873 0.01799574 -0.035355393 -0.015090298
000060 71 0c 9d 3c 02 6e 11 bd 16 8f 2a 3d a0 a9 8b 3b
       0.019170972 -0.035505302 0.041640364 0.0042621642
000070 ca 1a 15 3d 53 a5 8f 3c e2 52 53 bd a1 aa a1 3c
       0.0364025 0.017534887 -0.051592715 0.019734683
000080 a1 58 f3 3c 39 47 18 3d 58 a1 5f 3b 1a 88 78 bd
       0.029705347 0.0371773 0.0034123268 -0.06067667
000090 5a 8a c9 3c 99 02 ad bc 59 ee 25 3d 21 6e 4d 3c
       0.024602104 -0.021119403 0.04051051 0.012538464
0000a0 65 00 ec 3c 37 d2 8b 3b d5 f7 6d 3c 77 4b e5 bb
       0.028808782 0.004267003 0.01452442 -0.0069975215
0000b0 c2 bb cd 3c e4 8d 0c 3d 0f 1f 95 3c 4e 41 d7 3b
       0.025113944 0.034315005 0.018203286 0.006569064
0000c0 b0 1c 94 3c 0a 78 e7 bb 45 cb 05 bc 14 03 12 3c
       0.018080086 -0.0070638703 -0.008166139 0.008911867
0000d0 2f 3e 26 3c 7d c9 19 3d e7 1e 97 bc d7 69 40 bd
       0.010146662 0.03754567 -0.018447353 -0.046975937
0000e0 03 41 d8 bc b9 2d a8 bc d1 ae 89 bc fd 23 df 3c
       -0.026398188 -0.020529615 -0.016806992 0.02723884
0000f0 8b 51 c6 3c 96 44 52 bc 13 0c 94 bc 17 2e f5 3c
       0.024208805 -0.012833735 -0.018072164 0.029929204
000100 70 1d d2 3c 0a 85 d3 3c a9 4c e9 3c 87 f6 c8 bb
       0.025648803 0.025820274 0.028478937 -0.006132904
000110 96 50 14 3c b3 df 03 bd 01 f5 81 3c b1 63 d4 bc
       0.009052416 -0.032195758 0.015863897 -0.025926443
000120 6b cc fe 3c f3 be c3 3a 50 fe e5 bc f3 17 e7 bb
       0.031103333 0.0014934227 -0.028075367 -0.0070524155
000130 1e b1 ee 3c dd bf bf bc fd 50 ef 3b 69 5e df 3c
       0.02913719 -0.023406917 0.0073033557 0.027266698
000140 fc 47 80 3b 1f 4d ab 3c 99 09 d4 3c 93 b6 2d bc
       0.003914831 0.020910798 0.025883483 -0.010602611
000150 42 27 8a bb 6e d7 53 bc 51 16 8d 3c b5 5d 08 3d
       -0.0042161057 -0.01292978 0.017222555 0.03329249
000160 45 84 a4 bc f5 7d c4 3b 32 74 f5 bb 42 c3 89 3d
       -0.020082602 0.0059964606 -0.007490658 0.067266956
000170 40 6c 86 3b 18 89 23 bd 0b 4b ea bc ea 25 99 bb
       0.00410226 -0.039925665 -0.028600236 -0.004673709
000180 4a 38 31 bc ff 4f 50 3d 7e 78 58 bc 65 1a ed 3b
       -0.010816643 0.05085754 -0.013212321 0.0072358125
000190 04 78 a2 3c 00 31 74 3d 92 45 00 3d f5 6c a6 3c
       0.019832619 0.059617043 0.031316347 0.020315627
0001a0 d3 0b fe b9 c8 b4 d7 3b 3a 68 49 bd c2 f0 ab 3b
       -0.00048455465 0.00658283 -0.049171664 0.0052472064
0001b0 6e f0 41 3c c2 a1 9f 3c 64 8b c7 bb 4d ad 30 bd
       0.011837108 0.019486312 -0.0060896147 -0.043134023
0001c0 47 85 42 3c 0b 0f df 3b 3a 55 21 bd 17 57 18 3d
       0.011872596 0.006807213 -0.03938792 0.03719243
0001d0 62 66 af 3c 9d 76 78 3c a7 d5 7f bb 8d 63 46 bc
       0.021411125 0.015164998 -0.0039037259 -0.012108696
0001e0 73 71 cc 3c 11 2f 15 bc d5 bd d3 bc 49 d9 14 ba
       0.02495644 -0.00910546 -0.025847355 -0.000567813
0001f0 ae e8 37 bd b5 ca 88 3b 82 73 7d 3b 4a 8c e3 ba
       -0.044899635 0.004174555 0.0038673584 -0.0017360535
000200 fe eb fb bb 0a 13 8f 3b 1f ad 09 3c 73 87 0a bb
       -0.0076880446 0.0043662833 0.008403092 -0.0021137863
000210 e4 fd 18 bd 9f bc a4 bb 00 75 20 3b 83 e0 1e bd
       -0.037351504 -0.005027368 0.00244838 -0.03878833
000220 c9 f7 80 bc 2e d9 e4 bc 90 21 f9 3c 82 00 88 bb
       -0.015743153 -0.02793559 0.030411512 -0.004150451
000230 7a 42 56 3d e0 24 a7 3c 77 fe 00 3d df 86 6f 3d
       0.05230949 0.020403326 0.031492677 0.058478232
000240 01 ec 33 bd 4b 2e 0d bd 91 6f cc 3b 12 bf 12 bb
       -0.043926243 -0.034467977 0.0062388857 -0.0022391719
000250 cc 67 09 bd 03 00 e6 3c 4e 1a 0b 3d 6a 6e f6 bc
       -0.033546254 0.028076177 0.033960633 -0.030081946
000260 07 86 88 3c ff 24 66 bc c6 fd 11 bc e2 84 00 3d
       0.016665472 -0.0140469065 -0.008910602 0.031376727
000270 b1 c1 8f bc 23 ec 30 3c 88 67 4c 3c bb 47 10 bd
       -0.017548414 0.010798487 0.012475856 -0.035224658
000280 aa ff 17 bc 33 bf 02 3c 5c 2b b5 bc 55 06 46 3a
       -0.009277264 0.007980156 -0.022115402 0.0007554044
000290 2b f1 57 bb 6c 2a 7d 3c b9 10 d5 3c 90 6f ad bc
       -0.0032950144 0.015452009 0.02600895 -0.021171361
0002a0 b2 f6 b2 bb cf 2e f5 3b 1f 82 93 bc c2 4f 83 3c
       -0.0054615373 0.0074823867 -0.018006383 0.016029242
0002b0 b4 28 9b 3c 35 39 b8 3c 99 49 a4 bc 97 81 2f 3d
       0.018940307 0.022488216 -0.020054625 0.042848196
0002c0 c2 da c0 bc b0 a6 f6 3c 85 f4 28 bc 0e 7f 19 3d
       -0.023541812 0.03010878 -0.010312204 0.037474684
0002d0 43 38 41 3c 99 29 b6 3c aa 8e e2 bc 4b 76 57 3c
       0.011793199 0.022236632 -0.027655918 0.013150762
0002e0 18 fe 5f 3b 98 65 19 bd 06 cf 14 bb bd 01 4c bc
       0.0034178551 -0.037450403 -0.0022706403 -0.012451586
0002f0 a8 12 2c bc 9b 6a 0e 3d 02 b7 09 3d a6 d2 36 bd
       -0.010502495 0.034769636 0.033621795 -0.044634484
000300 a0 19 e0 3c ca 51 dc 3c 6a f2 0d bd cf fc 0d bd
       0.027355969 0.026894469 -0.034655012 -0.034664925
000310 c1 b1 ea 3c 5c dc 05 3b 07 a6 c2 3b 19 b5 a8 bb
       0.028649213 0.0020425534 0.005940202 -0.0051485416
000320 2d 2e ea ba 5d ac f8 bb 93 42 f3 3b 03 d1 34 bd
       -0.0017866545 -0.0075889067 0.0074237077 -0.04414464
000330 2f da 48 3a f9 4b 24 3c c7 74 9f bc 10 22 c0 b9
       0.00076619064 0.010027879 -0.019464863 -0.00036646472
000340 be 03 ac 3c 72 09 03 3d a5 e3 1f bd c0 6f 57 bd
       0.020997878 0.03199143 -0.039035458 -0.052596807
000350 29 b9 af bd dd d3 5b 3b dd 95 46 bd 26 b4 97 3c
       -0.08580238 0.0033543028 -0.048482765 0.018518519
000360 01 6c 0e 3d da c0 83 bb 16 77 a7 bc 20 41 2d 3d
       0.03477097 -0.0040207924 -0.020442527 0.042298436
000370 fe cb 0f bd 0b 5a 4b 3b fb 7c 44 3d 8c b6 0f bd
       -0.03510665 0.0031029012 0.047970753 -0.0350862
000380 73 a1 33 3d b1 bd 94 3c ab 4e 13 3d 6d c7 b7 3c
       0.04385514 0.018156858 0.035963695 0.02243396
000390 89 a2 e3 3c d3 bd fa bc fa 9d c6 bc 33 d3 8e bc
       0.027787464 -0.030608093 -0.024245251 -0.017434692
0003a0 2a 3d 0b bd ed 12 ef 3c f2 bf 51 bb bf dc 1e 3d
       -0.033993877 0.02918383 -0.0032005277 0.03878474
0003b0 bd a0 5f bc cc be 05 bb ac 1f bb bc 7d 94 75 bc
       -0.013649163 -0.0020407913 -0.02284225 -0.014989016
0003c0 1f a7 70 3c 26 57 b6 bc 3e dc b2 3c c4 17 0f bd
       0.014688282 -0.022258352 0.021833535 -0.034934774
0003d0 f9 d6 68 3b bb e0 75 bc b0 36 0f bb d1 95 21 3c
       0.0035528524 -0.015007193 -0.0021852665 0.009862379
0003e0 c5 32 1e 3d eb 99 99 3a 75 62 37 bc d3 86 f0 3b
       0.038622636 0.0011718845 -0.011192908 0.007340291
0003f0 a7 91 28 bd 65 c5 8f 3c 21 52 ae 3c be da 4e bd
       -0.04115453 0.01755018 0.021279396 -0.050501578

network_body._body_endoder.seq_layers.0.bias f4 [256]
000000 a2 83 e2 b9 c6 36 24 3c 9e 41 b7 3b a6 15 ec 3a
       -0.00043204153 0.010022825 0.005592539 0.0018011823
000010 48 60 ab bb 27 ab b7 3b 1e 9f 91 bc 0a da 60 3b
       -0.0052299835 0.0056051197 -0.017776068 0.003430965
000020 df df 98 3c 28 81 9c bc e6 13 19 3c de d1 70 3c
       0.018661438 -0.019104555 0.009343123 0.014698474
000030 7c b6 5b 3b 60 ce ff 3b 2c 10 93 3c d5 ee ef 3b
       0.0033525517 0.0078065842 0.017952047 0.007322172
000040 53 2b 9d bc 26 60 75 3c 7b c9 89 3c 16 b2 d8 3c
       -0.019185698 0.014976537 0.016819706 0.026452105
000050 4c 84 43 3b b2 93 1b 3c be aa 62 3c 6c f9 b9 3b
       0.0029833494 0.0094956625 0.013834653 0.0056754854
000060 88 47 8d bc 43 d9 14 bb b8 26 d4 3b 83 0d 67 3b
       -0.017246023 -0.0022712506 0.006474342 0.0035255856
000070 ca d1 0e 3c 35 ab 1c 3c 66 c1 33 3c 34 1d 6b 3b
       0.00871701 0.009562303 0.010971403 0.003587556
000080 33 bb fb 3b 6c ea 54 3c cd 23 1e 3a 56 66 2e b9
       0.007682228 0.012995344 0.00060325564 -0.00016632056
000090 84 a9 0d bc 46 80 70 3c d9 f2 e1 3b d2 b8 dc 3b
       -0.008646373 0.01467902 0.006895405 0.0067358995
0000a0 b8 48 2b 3c 98 e0 86 3c c1 39 d3 3c 8d 1e 04 3c
       0.010454349 0.016464517 0.025784375 0.0080639245
0000b0 bf e8 32 3c e8 50 02 3c e8 3e ed 3b 17 13 92 ba
       0.010919749 0.00795386 0.007240165 -0.0011144605
0000c0 f2 f5 99 3a 9a c3 1d 3b 79 19 2e 3c 05 ea b2 bb
       0.0011746271 0.0024072886 0.01062619 -0.005460026
0000d0 95 cd f2 3b 76 76 3f 3c 4d 04 98 ba 48 28 22 3c
       0.007409761 0.011685958 -0.0011597961 0.009897299
0000e0 8e 61 cf 3b a3 ac ce 3a 47 ee 8d 3c 3d cb 7c bc
       0.006328768 0.0015768002 0.017325534 -0.015429315
0000f0 74 83 4a 3c 58 ba 9d 3c 0e 24 18 3c cc a9 9d 3b
       0.012360442 0.019253895 0.00928594 0.004811501
000100 3a 8c 87 3a 19 da 40 3c 87 7f cc 3b 61 4f 22 ba
       0.0010341473 0.0117707485 0.0062407884 -0.0006191638
000110 3a 75 a6 3c 78 70 7a 3b ac f7 df 3b 09 7f 42 bc
       0.02031957 0.003821401 0.0068349447 -0.011871108
000120 3b 61 2a 3b ab 33 48 3c 4c fd 14 3c eb 78 54 39
       0.0025997895 0.01221935 0.009093594 0.00020262941
000130 5d 7f 3d 3c 0f c7 69 bb 07 f5 8a 3c e8 84 c5 bb
       0.01156601 -0.0035671627 0.016962541 -0.0060278066
000140 db dc 18 3c 22 ae 88 3c 3e d3 0f 3c c8 66 14 3c
       0.00933 0.016684595 0.008778391 0.009057708
000150 9d 3f 41 3b ef ce 39 3c e3 25 96 3b 9b 23 ca 3c
       0.002948738 0.011340841 0.004582153 0.024675181
000160 46 5f f5 3b 7c b9 0a 3d 56 04 47 3c 2b 0e 45 3c
       0.007488164 0.033868298 0.01214703 0.012027304
000170 f9 50 5b 3c 11 5b 00 bc 9c ab 4c 3c 3c d8 92 3b
       0.013386005 -0.007834212 0.012492087 0.0044813436
000180 35 aa 5b 3c 3d 27 62 3a 70 6f 87 3c 0a 62 a0 3b
       0.01340728 0.0008627063 0.01653263 0.0048944997
000190 aa 12 8b 3c 92 2b 1a 3c be 60 90 3b 4c fc 96 bb
       0.016976673 0.009409802 0.004406064 -0.004607713
0001a0 e4 aa 91 3a 9e 7c 83 3c 14 7c f2 3b 15 c8 19 3c
       0.0011113551 0.016050633 0.007400045 0.009386082
0001b0 37 86 02 3c 57 e1 dc 3b c3 89 37 3c 54 44 ae bc
       0.00796657 0.00674073 0.011202279 -0.021272816
0001c0 81 b2 36 bc ca 43 ea 3b f1 d6 e5 3b e9 fa 59 3c
       -0.011150957 0.0071491944 0.0070141484 0.013304451
0001d0 c0 f1 96 3c 62 b1 75 3b 04 24 e2 bb f6 8a 23 3c
       0.018425822 0.0037489762 -0.006901266 0.009981861
0001e0 cc 6b 40 ba 82 cd a4 3b ba c6 14 3c 1f 5a 78 3c
       -0.0007340282 0.0050293813 0.009080583 0.015158205
0001f0 4e 78 c7 3b f3 bd 2b 3c b0 bd 2f 3c aa 37 71 3b
       0.0060873395 0.010482299 0.010726377 0.003680686
000200 fe b9 8f ba 23 a9 db bb 6f da 74 3a 77 11 56 3c
       -0.0010965464 -0.0067035123 0.00093404105 0.013065687
000210 27 f0 26 bb 59 bc 3f 3c df 00 f6 3a d6 96 fd 3a
       -0.0025472732 0.01170262 0.001876857 0.0019347321
000220 93 bd e8 3b 58 04 3c bc 11 00 19 3c 3f aa 3e 3c
       0.007102677 -0.011475645 0.009338395 0.0116372695
000230 34 dc f6 ba 2b 66 02 3a a2 12 1a 3c 8f 51 35 3b
       -0.0018833936 0.00049743307 0.0094038565 0.002766702
000240 31 5b 6e 3b b9 72 94 3c 8f 76 89 3c 3b 41 7e 3c
       0.0036370272 0.01812111 0.016780166 0.015518482
000250 ad e9 1c 3c a8 de 4a 3c 7b 3c 44 3b be ab ad 3c
       0.009577197 0.012382187 0.0029943276 0.021200057
000260 57 d6 33 3c be cc 18 3c 39 12 8c 3c ac 2b 2d 3c
       0.010976396 0.009326158 0.017098533 0.010569494
000270 ed c6 b0 39 58 47 4e 3c f3 db 3d 3c 6a 8b ba bb
       0.00033717547 0.012590252 0.0115880845 -0.005692889
000280 d0 9e 44 3c 40 d8 6c bb 4d a9 50 3c 24 fa 3f 3c
       0.0120007545 -0.0036139637 0.012735677 0.011717353
000290 96 40 73 3b 86 27 a2 3c 05 86 d7 3a e3 90 75 3c
       0.0037117354 0.019794237 0.0016443139 0.014988157
0002a0 36 9a 83 3c 1b 75 04 3c 18 b7 36 3a bf c8 a7 3c
       0.016064744 0.008084561 0.0006970032 0.020481465
0002b0 e2 a0 4b 3c 7f 2f 39 3c b3 78 2a 3c 3c d0 9e 3c
       0.012428494 0.011302828 0.0104047535 0.019386403
0002c0 ba dc e9 3b b2 a4 33 bb d0 d9 b1 3c c3 22 55 bb
       0.0071369084 -0.0027411398 0.021710306 -0.003252194
0002d0 ca d5 08 3c 67 b6 91 3b a1 a8 64 3c 16 77 02 3c
       0.008351753 0.004446793 0.01395622 0.007962963
0002e0 31 8c 58 3b 41 94 3d 3c 80 93 3b 3c 3e 3d 80 3c
       0.0033042545 0.011570991 0.011448741 0.015654203
0002f0 1b 1f 83 3a 6e da 91 3c 20 da ef bb 84 da 54 3b
       0.0010003777 0.01780435 -0.0073197037 0.0032478878
000300 b1 00 0b 3c 39 37 99 3b 87 ad f0 3b 3b 5a ba 3b
       0.008484052 0.0046757725 0.007344905 0.005687026
000310 34 5a 56 3c 08 0a 90 3c ef 9b 48 3c 8d c6 63 3c
       0.01308303 0.017582908 0.012244209 0.013902319
000320 de 42 38 bb 35 7f 24 3c a7 cf 40 3c 3a 61 49 3c
       -0.0028116028 0.010040094 0.011768258 0.012291247
000330 23 5d b5 bb 46 c9 52 3b 26 d4 a9 3c 0c a3 18 3b
       -0.0055347844 0.0032163425 0.020731043 0.0023290543
000340 c8 92 1e 3c 00 89 05 3c 53 0c a0 3c bd 5c 44 bb
       0.00967855 0.008150339 0.019537127 -0.0029962503
000350 ba 65 f7 3a d0 40 22 3c 7a a9 21 3c 07 47 be 3c
       0.0018874921 0.009903148 0.0098670665 0.023227228
000360 dd 13 69 3c f4 71 a8 ba d4 f8 62 3c fc e9 59 3c
       0.014225927 -0.0012851343 0.013853271 0.013300415
000370 83 4c 18 3c c8 5d 53 3c eb 3b 70 3c 26 4e 37 3c
       0.009295586 0.012900777 0.014662723 0.011188066
000380 bd 68 5c 3b d7 e8 0d 3c fa f4 51 3c 51 17 1e 3c
       0.0033631765 0.00866147 0.012814755 0.009649114
000390 cc 81 9d bb d1 96 a3 3c 87 52 c2 3b ee 4f 73 3c
       -0.0048067328 0.019969376 0.005930248 0.0148506
0003a0 ae 53 52 3a 51 0d 29 bb 27 7a 71 bb 5c 02 54 3b
       0.00080233335 -0.002579529 -0.003684649 0.003235004
0003b0 e8 d3 9d bb 9f 51 11 3c 0a 9c 61 bb 76 fc 4f 3c
       -0.004816521 0.008869558 -0.0034425282 0.012694469
0003c0 be 02 80 bb e0 3a 25 3c 7f 72 15 3c bf 0a 3b 3c
       -0.003906577 0.010084838 0.009121536 0.011416136
0003d0 e3 a2 b6 bb 9f 90 d2 3b 92 dc 8e 3c d5 69 03 3c
       -0.005573617 0.0064259316 0.01743916 0.008020838
0003e0 69 82 fb 3b a0 83 c9 3b a6 67 90 3c 06 54 82 3a
       0.007675458 0.006149724 0.017627548 0.0009943254
0003f0 ea 83 46 3c 3f 8a d8 3b 8f 45 a8 3b 24 bc fb 3b
       0.012116412 0.006608277 0.005135245 0.00768234

network_body._body_endoder.seq_layers.0.weight f4 [256, 74]
000000 8a 28 81 bb 3a ec 3c 3c 01 e3 dc 3a 85 fe 1a 3e
       -0.0039416 0.01153093 0.001685232 0.15136154
000010 5f 05 1f be 0a 4c 34 be 0b f2 e2 3d a9 c6 1c 3d
       -0.15529393 -0.17607132 0.11081322 0.038275395
000020 e9 77 fd bd ec 53 d4 3d 48 43 ca 3d 9b 46 9d bc
       -0.12376387 0.10367569 0.09876114 -0.019198706
000030 c4 93 e8 3a 2a 36 c4 3d e1 05 40 3d bf e4 1e 3e
       0.0017744233 0.095806435 0.046880607 0.15516947
000040 9c 68 4b be 9b 6e 5f 3d 90 43 b1 bc 6c 3b fa 3d
       -0.19864124 0.05454884 -0.021638662 0.12218365
000050 35 4e 0c bd cc 5b 48 3d 2c d0 a6 3c cd bf 5c be
       -0.03425427 0.04891567 0.020362936 -0.21557541
000060 28 12 17 bc 53 5d 15 be 66 c2 5a bd 65 41 d5 3d
       -0.009220637 -0.14586382 -0.05340805 0.10412864
000070 4d ed 5d 3e ae 59 83 3d 1f f8 53 3d 82 98 20 3d
       0.21672554 0.064135894 0.0517503 0.039207943
000080 74 db 85 3e 25 27 2b be 69 47 2d be df d5 93 3d
       0.26143992 -0.16714151 -0.16921772 0.07218527
000090 76 78 a9 bc 10 8b 97 3d fd 81 b0 bd 0b 6a 7a 3d
       -0.020687323 0.07399571 -0.08618543 0.061136287
0000a0 cd 2b 3f be c0 ae 30 3d b7 ae 4f bd 14 75 55 3b
       -0.18669052 0.043135405 -0.05070373 0.0032571005
0000b0 07 75 48 be 57 a3 3a be 31 95 f4 3d 84 28 4f 3e
       -0.19575892 -0.18226372 0.119425185 0.20230299
0000c0 5d 64 42 bc 9e d6 3b 3d 15 bf 8f bd 7b 7a 0b be
       -0.011864749 0.04585897 -0.07018868 -0.13620941
0000d0 f7 a3 1f 3d 34 02 66 3e c3 ad 59 3d 34 33 ef bc
       0.03897473 0.22461778 0.053144228 -0.02919922
0000e0 c8 40 96 bd 94 e1 f5 3d b2 6e 24 3e 76 c1 8e bd
       -0.07336575 0.12005916 0.16057852 -0.069704935
0000f0 fc 69 f6 3d 98 ee 40 bd cc 8f d8 3d 01 67 37 3e
       0.12031934 -0.04710254 0.10574302 0.17910387
000100 33 07 5a be de fb e8 bd 73 49 06 be 00 f4 bf 3d
       -0.21291809 -0.11376165 -0.13113956 0.09372711
000110 c0 bf 9e bd cf 85 67 be b9 9b 3b 3d c2 07 e6 bd
       -0.07751417 -0.22609638 0.045802806 -0.112319484
000120 1c af 1b be 81 4d c9 3c 6c 0a 2c 3d e7 15 bc bc
       -0.15203518 0.02457309 0.042002127 -0.022959663
000130 cb 2c a0 bd 6c fb 22 3d 49 6a 7b 3e cc b5 c2 bd
       -0.078210436 0.039790556 0.24552263 -0.09507331
000140 e5 0d dc bd 0e eb e8 3d 7f 96 2d be c8 62 34 3d
       -0.10744838 0.11372958 -0.16951941 0.044039518
000150 68 19 28 bd 9e 85 55 3d 6a 11 e6 bd 90 0e d7 3d
       -0.041039854 0.05212938 -0.1123379 0.105008245
000160 44 ea c2 3d e8 9c e5 3d c9 8e a6 3c d4 2d 3d 3d
       0.09517339 0.11211568 0.020331757 0.046186283
000170 a4 7a 6d 3c 5d 28 50 be ef e3 87 3d 49 fc 5d 3e
       0.014494572 -0.20327897 0.06635272 0.2167827
000180 d1 2e 31 be 16 af b0 3d 24 5f 1f bd d9 a4 37 3e
       -0.17303015 0.08627145 -0.038909093 0.17933978
000190 76 a2 2c bd b0 b3 5a bd 01 50 58 bc 18 61 22 3e
       -0.042147122 -0.05339402 -0.013202668 0.15857351
0001a0 3c 2d 19 be 15 92 dc ba b4 77 bd bd fe 1d 23 3d
       -0.14958662 -0.0016828204 -0.09251347 0.039823525
0001b0 24 99 06 3e 5e 7e ab bd ef 3f 0a be 33 33 8c bd
       0.13144356 -0.08373712 -0.13500951 -0.06845703
0001c0 7e 13 90 3d bb 19 a6 3d 0a ea c7 bd 4e a3 12 3e
       0.07034968 0.081103764 -0.09761436 0.14320108
0001d0 cb e1 1d be e1 ef 0d bd ba fd 8d 3c 4e b0 28 3c
       -0.15418164 -0.034652594 0.0173329 0.010295941
0001e0 08 1c 0a 3d 68 2f 31 3e 32 59 d0 3c de 83 3d be
       0.03371814 0.1730324 0.025433157 -0.18507335
0001f0 36 24 8c bc a9 65 1b 3e 19 af f9 bd 2d 2e 3d bd
       -0.01710711 0.15175499 -0.121916 -0.046186615
000200 a9 b3 23 3d d5 70 d2 3c 73 c0 43 3d b8 8f b5 bd
       0.03996626 0.025688568 0.047790956 -0.08865303
000210 93 ce 96 3d e6 24 ae bd 55 e7 d9 bd 60 cb 80 3d
       0.0736362 -0.085031316 -0.10639826 0.06288791
000220 a0 8a f1 3d bf b1 0b 3e 9d 09 0c be 4e 80 aa 3d
       0.11794019 0.13642024 -0.13675542 0.083252534
000230 c5 51 6e be f7 ee 2d 3e 17 5c 9d bd ee c6 27 3d
       -0.2327338 0.16985689 -0.0768358 0.0409612
000240 b4 9a 36 3b 22 1f a4 3d c8 18 e8 bd a7 da a8 bd
       0.0027863206 0.080137506 -0.11332852 -0.082448296
000250 87 45 11 be e4 f0 82 bd 97 50 4a 3e f6 57 95 bd
       -0.14186679 -0.063936025 0.19757305 -0.07292168
000260 28 2f 8d bd 72 b8 48 bc 9b 22 a4 bb f8 1a bf 3d
       -0.0689376 -0.012251006 -0.005009008 0.09331316
000270 e4 2a 71 bb 04 54 e4 3d d3 dd de bd f0 b1 f1 3d
       -0.0036799246 0.11148837 -0.10882153 0.11801517
000280 d2 63 ad bd d9 4d f9 bb 5e 7a 23 bb 2c 7a cb 3c
       -0.08466305 -0.007608157 -0.0024944763 0.02483853
000290 de b8 4e 3e 5d 00 88 bb 8d bc 09 bd ac 58 83 bb
       0.20187709 -0.004150434 -0.03362708 -0.0040083732
0002a0 7b 33 f1 bb b7 5c 8a bd 59 3e e8 3b 37 05 a1 3d
       -0.0073608733 -0.06755965 0.0070875105 0.07862323
0002b0 ef 37 a4 bd 97 44 ad be 62 9c 05 3e 18 2c 83 3d
       -0.08018481 -0.33841392 0.13047937 0.064048946
0002c0 dd 96 e0 3d d0 ce 6b 3e 40 e3 b1 bc 72 c8 34 3e
       0.10966275 0.23028111 -0.021714807 0.17654589
0002d0 09 93 41 ba 78 99 7c 3e a1 cf 95 bd 3e 17 16 be
       -0.00073842757 0.24667919 -0.07314993 -0.14657304
0002e0 db 65 33 3e 08 20 37 bd 13 ea e1 bb 47 d6 28 bc
       0.17519324 -0.04470828 -0.006894359 -0.010304994
0002f0 d0 cf 9b 3d 22 a3 80 3e 4f 06 b9 3d 77 24 16 bd
       0.076079965 0.2512446 0.090344064 -0.03665587
000300 33 76 8d 3e 82 ff 85 be 82 28 24 bd 3c 4e 9a 3d
       0.2762924 -0.261715 -0.040077694 0.07534453
000310 6b 73 70 bc 33 c2 b4 bd 74 bc 02 3e 1a 5b 80 3d
       -0.014675955 -0.08826103 0.12767202 0.06267376
000320 6e 4b 06 3c 31 88 29 bc 09 fe db bd b7 10 88 3d
       0.008196695 -0.010347412 -0.10741813 0.06643813
000330 ff 50 45 be 08 74 d6 3d 7b 61 42 bd 50 25 55 3e
       -0.19269179 0.1047135 -0.047456246 0.20815015
000340 38 4a 8d bc ec 57 a3 bd 37 37 f2 bd b6 e4 94 3e
       -0.017247304 -0.07975754 -0.11826938 0.29080743
000350 9d 93 78 be c8 20 af 3d a7 b4 10 3e f6 2a 8c 3c
       -0.2427506 0.085511744 0.14131413 0.01711033
000360 ef 76 64 3e 26 6b 97 3e 22 a9 72 3d c8 99 c5 3d
       0.22310995 0.29573935 0.05924333 0.09648472
000370 1e 25 67 bd d5 1c 4d 3d 0f f5 cd 3d 78 f6 7b bd
       -0.056431882 0.050076324 0.10056507 -0.061514348
000380 71 28 fa 3d 11 d4 8e 3c d5 64 44 3e 6d 68 1c bd
       0.12214745 0.017435106 0.1917909 -0.038185526
000390 bb f1 01 3e 2a 2a c9 bc 30 02 15 3c 8c 4d 9c bd
       0.12689869 -0.024556238 0.00909476 -0.076319784
0003a0 16 21 26 be a4 23 03 3e 55 68 7f bd 83 95 7d 3d
       -0.16223559 0.12806565 -0.06235536 0.061910164
0003b0 be 1f bf 3d ac 44 8c bd 15 e7 d7 3d 99 9a 48 3e
       0.09332226 -0.068490356 0.10542122 0.19590224
0003c0 2d db ff bd dc 5a 73 bd 0e 91 ae bd 03 b6 d7 3d
       -0.12492976 -0.059412822 -0.08523761 0.10532763
0003d0 95 1f b7 ba 3b d3 35 bc e2 fb 13 be 38 e4 cc 3d
       -0.0013971204 -0.011097725 -0.14451554 0.10004467
0003e0 64 36 de bb 93 e7 b8 3e 0e 86 7b bc 08 91 5b be
       -0.006781386 0.36114177 -0.015351785 -0.21442044
0003f0 cd 9c d8 3d dc 3c 6c 3e db 9c 77 3e 63 fe 99 3d
       0.105767824 0.23070091 0.2418093 0.075192235

network_body._body_endoder.seq_layers.2.bias f4 [256]
000000 d5 b5 ae 3c 88 c2 1e 3a 66 1b 88 3b 56 70 84 3c
       0.021326939 0.0006056209 0.004153657 0.016166847
000010 99 8f 2e 3c b5 c7 d9 3b ac a9 4a 3c 2a 83 87 39
       0.010654354 0.0066461214 0.0123695545 0.0002584693
000020 2c 5d 44 3c c7 bb 3c 3c 24 cb 32 3c d7 d1 66 3c
       0.0119851045 0.011519379 0.01091269 0.014088116
000030 12 ce 22 3b bd 47 12 3c f6 b3 83 3b 0a 09 0a 3c
       0.0024842066 0.008928237 0.0040192557 0.008425007
000040 ab 7c 5a 3b 51 65 8c 3b 55 2f 7f 3c c3 c6 be bb
       0.0033338468 0.004284539 0.01557525 -0.005822034
000050 f0 67 be b9 b7 75 86 3c 73 a0 1a 3c 3a ed 17 3b
       -0.00036317063 0.016413553 0.009437668 0.002318217
000060 87 24 52 ba c4 b6 9f 3c 5f 03 13 3c be 96 57 bb
       -0.0008016307 0.01949633 0.008972972 -0.0032896246
000070 2f 89 04 bc 50 44 8e 3b dd 09 0f 3c be 21 b1 b7
       -0.008089348 0.0043416396 0.008730379 -2.1115757e-05
000080 d3 2e cf 3b 4c c2 30 3c eb af 2c 3c 98 2f 92 ba
       0.0063227206 0.0107885115 0.010539989 -0.00111531
000090 9a f9 29 3c 44 91 90 3c cb 9e 07 3c 81 f1 a3 3c
       0.010374451 0.017647393 0.008277605 0.020012619
0000a0 75 7f 01 3c 58 1c dd 3b f0 7a e1 3a f9 d9 a4 3b
       0.007903923 0.0067477636 0.0017202776 0.005030867
0000b0 89 d2 ae 3b 02 d5 e3 3b 45 87 a2 3b 88 a5 e5 3a
       0.0053351563 0.0069528827 0.004959973 0.0017520646
0000c0 39 1a d4 3b 74 f1 0a bb 89 af 76 3b ff d2 7f 3a
       0.0064728525 -0.0021201046 0.0037641248 0.0009758919
0000d0 10 9a 42 3b 9d d7 54 bb 91 9c 9a 3a 77 d9 5a 3c
       0.002969388 -0.0032477148 0.0011795928 0.013357512
0000e0 0d 82 09 3b d0 39 02 3c 5d 61 43 3b 18 ef 12 3c
       0.0020982057 0.007948354 0.0029812672 0.008968137
0000f0 26 47 10 3b 8b 42 0d 3c 06 06 1a 3c 88 6b bb 3b
       0.0022015064 0.008621822 0.00940085 0.005719606
000100 ac 5b 05 bb 28 d9 cb 3b 8d 2a 58 3c 35 3f 86 3c
       -0.002034883 0.0062209554 0.013193739 0.016387561
000110 e4 74 f5 3b 65 61 ac 3c 9b d3 49 3c fd 30 3d 3b
       0.007490741 0.021042535 0.012318517 0.002886831
000120 7f 96 40 b7 98 68 3a bc 6e 72 d4 38 de c2 f5 3b
       -1.1479132e-05 -0.011377476 0.00010130262 0.0075000366
000130 d7 4f 9b 3b 76 33 13 3c 80 13 bb 3b ed de 8d 3c
       0.0047397423 0.008984437 0.0057091117 0.017318213
000140 e0 9c f4 3a 4a 91 82 3b cf 02 36 3c 94 f6 cf 3b
       0.0018662475 0.003984605 0.011109068 0.006346533
000150 23 74 e9 3b 56 f1 d7 3b 18 cb 97 3b 7e 3a 4c bb
       0.0071244403 0.006590049 0.004632365 -0.0031162794
000160 d7 34 7f bb 95 2d ec 3b e6 c5 2d 3c d3 6e b3 3b
       -0.0038941407 0.0072075822 0.010606265 0.0054758578
000170 73 b9 73 3c 2c bf b5 3b a8 24 4a 3c 8d 98 ac 3b
       0.0148757575 0.005546471 0.012337841 0.005267209
000180 1a 66 2e 3c de 93 69 3b fd 23 00 3c c1 92 55 3c
       0.01064446 0.0035641114 0.00782108 0.013035477
000190 1e be 83 3c b1 c0 10 3b 5d 34 73 bb 31 28 3b 3b
       0.016081866 0.002208751 -0.0037110068 0.0028557891
0001a0 d9 76 29 3c 9d 2a 0e ba 85 e9 5a bc 74 85 54 3c
       0.010343277 -0.000542322 -0.013361339 0.012971271
0001b0 a8 d3 60 3c 3b 26 8f 3c c7 97 1b bc e7 ac c6 3b
       0.013722338 0.017474284 -0.009496636 0.006063092
0001c0 3b 72 1e 3c 1c 51 1e 3c 29 b3 36 3c 6c f0 40 3b
       0.009670789 0.009662893 0.011151114 0.0029440178
0001d0 ef 6d 18 3c ad 0a ae 3c cf 83 51 bb 73 25 38 bb
       0.009303554 0.021245325 -0.0031969433 -0.0028098493
0001e0 64 37 d8 ba bd 07 60 3c 1f 1a 79 ba af dc 98 3c
       -0.0016496 0.01367372 -0.00095024885 0.018659918
0001f0 86 2e 71 bc a7 42 fa 3a be 6d 5a 3a 9b b9 18 3b
       -0.014720565 0.001909335 0.0008332393 0.002330399
000200 93 ca 11 3c 5e fa 8d bb ed cf 32 3b 8d cf ec ba
       0.008898395 -0.0043328246 0.0027284578 -0.0018067226
000210 1c 4a 35 3c 13 49 23 3b 23 83 96 3b 45 fc f9 3b
       0.011065032 0.0024915382 0.0045932694 0.00762895
000220 a0 00 94 bb a7 81 21 bc 30 bc 8b 3a ec d2 20 3c
       -0.004516676 -0.009857572 0.0010660943 0.009815913
000230 87 59 03 3c ae 49 04 3c b7 10 85 3b 1c 55 a0 3b
       0.00801695 0.008074207 0.0040608305 0.0048929583
000240 54 a2 a5 3b c3 c5 2b 3b 15 19 3f 3c 3e 5d 84 3b
       0.0050547514 0.0026210404 0.011663695 0.0040394356
000250 bc d4 24 3a aa 1c 76 3c 7e d7 93 3b a2 7a 5f bb
       0.00062878034 0.0150214825 0.0045117727 -0.0034100194
000260 28 00 66 3c 25 f3 cf 3b 83 c3 2c 3b a2 25 b8 39
       0.014038123 0.0063461238 0.0026361651 0.00035123253
000270 16 72 60 3c ad c3 28 3c ec 93 17 b9 62 2e 1f 3c
       0.013699075 0.010300559 -0.00014455587 0.009715648
000280 fd 0d 0b 3c a8 26 55 3c 55 fc b9 3b 95 47 17 3b
       0.008487222 0.013009705 0.0056758323 0.0023083438
000290 92 3e 36 bc 44 7c d1 3b 49 2c a8 b9 5b 32 15 3b
       -0.011123316 0.0063929874 -0.00032076452 0.002276561
0002a0 c3 b1 07 3b a6 a2 38 bb 45 56 81 3b 0b a2 27 3b
       0.002070532 -0.0028173118 0.0039470517 0.0025578763
0002b0 be c5 b6 3b 3f 63 58 3b 8c d6 fa 3b 3e f1 c2 3a
       0.005577772 0.003301814 0.0076549705 0.0014872921
0002c0 03 c1 17 3c 09 4e 81 3b 48 97 0a 3c a7 51 ca 3b
       0.009262326 0.00394607 0.00845892 0.0061742845
0002d0 cc 10 6b 3c 20 6e 9c 3b 68 8e 48 3c 86 09 5a 3c
       0.014347266 0.00477387 0.012240984 0.013307935
0002e0 e8 f2 75 3c 05 09 8e 3c f5 e1 bb ba ae 15 a2 3b
       0.015011527 0.017338285 -0.0014334308 0.004946432
0002f0 94 27 e1 3b a7 04 12 3c 0d 52 a8 b9 f0 07 8e 3b
       0.006871173 0.008912242 -0.0003210459 0.0043344423
000300 d2 d9 22 bc d2 bd 6f 3b 59 7e 85 3b 95 07 71 bb
       -0.009939628 0.0036581648 0.0040738997 -0.00367782
000310 b6 84 91 3b 66 18 0f bc b9 e0 fc 3b 2d ed 2d 3c
       0.004440869 -0.008733844 0.0077172187 0.010615629
000320 f2 01 17 bb f8 e8 2c 3c 02 9a 52 3c 9a c5 97 3b
       -0.002304193 0.010553591 0.012854101 0.0046317102
000330 06 9c 02 3c f5 54 91 3c c8 ec f2 3b 33 ff 4e 3c
       0.007971769 0.017740706 0.0074134804 0.012634086
000340 c3 80 2f 3b b1 03 ee 3b b7 66 37 3c aa c5 a8 3b
       0.0026779629 0.0072636236 0.011193923 0.0051505165
000350 a4 52 6d 3b cb 30 35 3b a6 58 81 3c d7 1e 2b bb
       0.0036212588 0.002764749 0.015789341 -0.0026110911
000360 a0 64 04 3c 2e 42 e0 3b 2a f3 1e 3b 97 6c fd 3b
       0.0080806315 0.0068438267 0.0024253824 0.007733892
000370 16 a7 46 3b 61 21 dd 3c eb 3f 82 3b f3 82 5d 3b
       0.0030311993 0.026993455 0.003974905 0.0033799976
000380 7d 4a 84 3c cc ac 01 3c cb 3b 92 3c 38 6f 51 3c
       0.0161488 0.007914733 0.017850777 0.012782864
000390 3a a7 26 3c 7f 5f b8 3b cd 1d a8 3b fc 63 a9 3b
       0.010171706 0.0056266184 0.0051305057 0.00516939
0003a0 26 39 80 3c 49 b9 0f bb 29 5a e9 3b 35 c8 24 3c
       0.01565225 -0.0021930507 0.0071213436 0.010057499
0003b0 3f 6a ef ba 64 cd 92 3b 02 6b 20 3b ec 3e ca 3c
       -0.0018265917 0.004480051 0.0024477844 0.024688207
0003c0 50 d8 34 3c 18 1b 07 3c ba cb 88 3c a3 42 26 3b
       0.011037901 0.008246206 0.016698707 0.0025369308
0003d0 9c 5a db 3b 7a 2d 52 ba 65 7e fc 3b a5 2c d6 3b
       0.006694151 -0.0008017641 0.007705497 0.0065360838
0003e0 36 b9 12 3c ce 33 97 bb fe 3a b3 bb d4 ea 0a 3c
       0.008955291 -0.00461433 -0.005469679 0.008478839
0003f0 07 70 83 3c bc d9 42 3c bc 21 00 3b 3e 72 dd 3b
       0.01604463 0.011892732 0.0019551357 0.0067580035

network_body._body_endoder.seq_layers.2.weight f4 [256, 256]
000000 8b 66 5e 3d 98 b0 09 3e ee 50 ae 3a 02 a8 e8 3c
       0.05429701 0.13446271 0.0013299265 0.028400425
000010 c0 c9 ff 3d 46 20 94 bd 18 55 83 3d c7 e7 6e 3d
       0.12489653 -0.07232718 0.06412715 0.05832651
000020 7a fc 68 bd ce 1f 9c 3d ed df dc bd 49 c5 da 3d
       -0.056881405 0.07623254 -0.10784898 0.106821604
000030 67 35 6e bd d1 dc 76 bd ea 2c b7 bc fa db 6b bd
       -0.058156397 -0.06026918 -0.022360284 -0.057582833
000040 8f ad c6 bc 2a 4c 99 3c 27 dc a6 3c 4e 3d ff 3c
       -0.024252681 0.018713076 0.020368649 0.031157162
000050 80 28 10 3c d2 39 f0 3c 39 c3 3f bd 33 66 08 3d
       0.008798718 0.029324446 -0.04681704 0.03330059
000060 27 eb 02 bd de 84 31 bd 4e 30 e3 3b 54 e4 4d bd
       -0.03196254 -0.043339603 0.0069332486 -0.05026658
000070 cd 6f 4f 3c d9 4b f7 3c 5b f8 3d bd cb d7 85 ba
       0.012660933 0.030187534 -0.04637943 -0.0010211406
000080 3a 6a b9 3d 9b fa 03 bd f9 5c 6c bd 5f 83 e3 bc
       0.09053464 -0.032221418 -0.057705853 -0.027772604
000090 09 c9 83 bc 17 d3 93 3d 47 b6 8a bd 17 5e 81 bd
       -0.016087072 0.072179966 -0.06773048 -0.06316774
0000a0 84 9e cd 3c 9f b6 97 bd 24 70 1f bd bb 1d 61 bc
       0.0251 -0.07407879 -0.038925305 -0.013739998
0000b0 10 b3 5c 3d 94 eb aa 3c 73 dd 1c 3d 97 12 a8 3d
       0.053881705 0.020864286 0.038297128 0.08206671
0000c0 e7 09 5d 3d 59 b1 13 3c 72 47 59 3d 31 ba bd bd
       0.05396452 0.009014451 0.05304665 -0.09264029
0000d0 bd c5 32 3d 0c c6 4a 3d 06 ab 9b 3d 3b fb 27 3b
       0.04364561 0.04950528 0.076009795 0.0025631923
0000e0 73 97 dd bd 82 14 41 3c 31 b8 a9 3d d0 8a d9 bd
       -0.10819902 0.011784675 0.08287085 -0.106221795
0000f0 aa 53 2a 3d fd 91 0a 3b a7 c5 d4 3d 8f 55 cb bb
       0.041583695 0.0021144145 0.10389262 -0.0062052677
000100 9f a8 50 bd 43 d8 ab bd 8c 00 0d 3c f2 eb e2 b8
       -0.05094206 -0.08390858 0.008606087 -0.00010820468
000110 ae b1 ef 3a f4 3e 9a bd 2f 5f 8b 3d e2 e1 5b 3c
       0.0018287206 -0.075315386 0.06805264 0.013420554
000120 c3 3d 20 3d 67 f6 46 3a 73 60 fd bb 2e 8f b4 bd
       0.0391214 0.00075898174 -0.007732445 -0.08816372
000130 de af e7 bb d7 91 80 3d bd 34 8b 3d eb 09 a7 bb
       -0.0070705255 0.06277817 0.067971684 -0.005097618
000140 67 bd 0b 3d ea b7 0f bd 42 92 14 3e aa 5b 0d bd
       0.034116175 -0.035087503 0.14508918 -0.034511246
000150 6f 32 94 bd bb d5 77 bd df 38 3b bd c4 db 2b 3d
       -0.07236182 -0.060506564 -0.045708533 0.04195763
000160 fc b9 b5 bd bb 9c d4 3a 8c a5 a0 3d 8a b8 17 bc
       -0.08873364 0.0016221026 0.078440756 -0.009260306
000170 b1 56 0a be 36 1c fd bc 43 46 5b 3d 7c 72 17 bc
       -0.13509633 -0.030897241 0.053533804 -0.009243604
000180 c5 40 22 3d 2b b4 82 bc 8f b8 36 3d c5 14 93 3c
       0.03961255 -0.015955051 0.044609603 0.01795424
000190 a9 8f 63 bc bc 36 51 bc 4a 1e a6 bc e6 0a 5d bd
       -0.013889232 -0.012769397 -0.020278115 -0.05396547
0001a0 93 3a b4 3c 1a 88 65 bc ae 4b 17 3e 88 25 a2 3d
       0.022000587 -0.0140095 0.14774963 0.07917315
0001b0 68 f8 92 3c 32 85 5c 3d db 53 8c 3d 0d 51 ec 3a
       0.017940715 0.053837962 0.06851932 0.0018029526
0001c0 02 f8 3c be a7 da 06 bc e4 b7 10 3d 23 a4 da 3d
       -0.18453982 -0.008230842 0.03533162 0.10675838
0001d0 cb 51 66 bc 11 ca f8 b9 3b 14 83 bb ff 2f 19 bc
       -0.014057587 -0.00047452797 -0.0040002144 -0.009349822
0001e0 e0 15 01 be fb 08 a4 3c f7 fe 79 bd f8 24 49 bd
       -0.12606001 0.020023813 -0.06103417 -0.04910752
0001f0 ae 2a 5e 3e d6 d4 c4 3d c7 f6 43 3c 54 41 c5 3c
       0.21695969 0.09610908 0.011960692 0.024079002
000200 e5 9c 03 3d 96 54 a1 bd e8 21 19 bc c4 2f 82 3d
       0.03213205 -0.078774616 -0.009346463 0.06356767
000210 89 c7 89 bd ac 11 01 bd f5 58 9d 3d 87 ff ad 3b
       -0.067275114 -0.031510994 0.07682983 0.0053100022
000220 2c ce ac bd e0 65 7b 3d 5e 53 63 bd 4f a9 15 3d
       -0.08437762 0.061376452 -0.055499427 0.03653842
000230 e0 29 10 3a ae 17 73 bd 97 e5 b5 3b 34 2b 91 bc
       0.0005499404 -0.059348755 0.005551051 -0.017720796
000240 d8 91 69 bd e3 87 18 bc a5 be 53 3d 07 d5 2b bd
       -0.057023853 -0.009309742 0.051695485 -0.041951206
000250 22 fc 66 bd ba a1 89 3d ec 50 9f 3d 5f 83 54 bc
       -0.056392796 0.067203 0.077791065 -0.012970774
000260 28 b7 5a 3d 85 a2 d8 bc 52 32 af 3c a5 b6 70 3c
       0.053397328 -0.026444683 0.0213863 0.014691983
000270 02 1b fc 3d 0f a8 9e 39 e5 3c 07 3d 51 11 1b 3d
       0.12309839 0.00030261322 0.033017058 0.03785831
000280 eb ec a7 3d 0e 0a 78 3d dd b6 b9 3c c3 2b 04 be
       0.081994854 0.060556464 0.022670204 -0.12907319
000290 52 0a 9d bc a7 2d 34 bd 0f 75 23 3d 5b d2 63 3d
       -0.01916996 -0.04398885 0.039906558 0.055620532
0002a0 1b c9 9f b8 94 da 1d bd 88 ae d7 bc d7 5e 87 3d
       -7.6191696e-05 -0.03853853 -0.02632834 0.06609886
0002b0 a1 18 65 bd 85 b7 c2 bc 3d 8f d2 bd 46 75 25 3d
       -0.05593169 -0.02376915 -0.10281227 0.040395044
0002c0 08 a7 fc 3c 88 92 56 3c 62 0e 29 3d 32 2d c2 3c
       0.030841365 0.013096459 0.041273482 0.023703191
0002d0 b7 d9 06 3d f7 b1 02 bb d4 ca bd 3d 7e 76 f3 3c
       0.032922473 -0.00199425 0.09267202 0.029719587
0002e0 1c 7b ae bd 44 64 21 be 1e 4f 0f 3e e7 8e f3 3d
       -0.08519575 -0.15760905 0.13995025 0.11892491
0002f0 80 cf f0 bc 46 a1 b2 bc 10 60 3f bc 4d a7 5d 3d
       -0.029395819 -0.021805417 -0.011680618 0.05411463
000300 b3 7b 98 bd eb 04 e0 bd 15 11 84 3d b1 83 ae bd
       -0.07445469 -0.10938438 0.06448571 -0.08521212
000310 66 7b 47 bd 91 ce 24 bd f9 d5 b3 bc 0d d0 d2 3d
       -0.048701666 -0.04023606 -0.021952616 0.10293589
000320 ad 33 ad 3d 98 a5 87 bd 4b 55 9a ba cd e8 cf bd
       0.08457122 -0.066233814 -0.0011774687 -0.10151825
000330 66 24 a5 3c 21 df a2 3d e6 4e 90 3d 38 bf f5 bd
       0.020158958 0.07952715 0.07046299 -0.11999363
000340 ae 2c 02 be e0 53 8b bd 58 75 ed 3c 91 ff 10 3d
       -0.12712356 -0.06803107 0.028986618 0.035399977
000350 b0 77 54 3c e5 b4 0c 3c 59 0b ee bc 09 1f 44 bd
       0.012967989 0.0085880505 -0.029058145 -0.04788116
000360 9b 78 63 3d c2 70 10 bd c7 1d 79 3d 80 de cb 3c
       0.05553494 -0.035263784 0.060819414 0.02488637
000370 90 b5 a0 3d 9e 7c ec 3c 0e 22 71 3c a7 dc cb 3d
       0.0784713 0.028868016 0.014717592 0.099541955
000380 1c 41 54 3d 37 83 b8 3d a5 38 96 bc e2 80 13 bd
       0.051819906 0.09009402 -0.018337557 -0.036011584
000390 26 d6 43 3d e4 16 1e bb 02 8a 70 3c 57 7d 54 bd
       0.04781165 -0.002412253 0.014681341 -0.051877346
0003a0 cf fa 75 bd 35 ab 4f bd a1 c8 ba bc 9b d6 1e 3c
       -0.060053643 -0.050700385 -0.022800745 0.009694721
0003b0 5e a7 7e 3c 12 41 f0 3b 72 e5 86 3d 23 2d c8 3d
       0.015542833 0.0073319757 0.06586732 0.09774234
0003c0 d8 37 bd bd ca 09 8c 3d 10 07 02 3e 0b 8f 4e 3e
       -0.09239167 0.068378046 0.12698007 0.20171754
0003d0 9d 69 2c 3d 83 d9 ce bc 2c 7a 3d 3c 16 74 63 3d
       0.04209291 -0.025250202 0.011564773 0.05553063
0003e0 bc 42 37 3d 16 cd 11 3e bc 7b ec 3d da 5b 06 bd
       0.044741377 0.1423839 0.11547038 -0.03280244
0003f0 1f cb 5f bc 0a c8 90 3d 3a c6 90 bd 71 04 66 bd
       -0.013659268 0.070694044 -0.07069059 -0.05615658

network_body._body_endoder.seq_layers.4.bias f4 [256]
000000 8f ce d3 3b d8 1c b4 3b 61 69 bd 3b 52 c4 5a 3a
       0.0064638327 0.0054966025 0.0057803844 0.0008345294
000010 e8 9d 8a 3b 6f 8e a9 3b fd 34 f0 3a 19 67 9d 3a
       0.0042302497 0.00517445 0.0018326339 0.0012008875
000020 cc 75 ff 3a 19 48 d2 3b 92 c4 c8 3b 4f 2d 62 3c
       0.0019490062 0.006417286 0.0061269486 0.013804748
000030 0d cf bc 3b 07 88 f8 3b 93 be 02 3b d7 26 31 bb
       0.005761987 0.007584575 0.0019950017 -0.0027031207
000040 ac 60 c3 3b e5 93 cf 3b 04 47 63 bb 21 c6 70 3a
       0.005962452 0.006334769 -0.003467978 0.0009184797
000050 16 82 f1 3b 0d e0 5f 3b 25 94 e6 3b c2 f3 55 3b
       0.007370244 0.0034160644 0.007036703 0.0032646512
000060 ff 7a dd 3b 6a cc 6e 3b 6e 6c 7e 3b 2a 6b f4 3b
       0.006759047 0.0036437758 0.0038821953 0.007459064
000070 14 5d e3 3b 96 39 cf 3b 57 e2 03 3c e6 f4 36 3c
       0.006938586 0.0063240035 0.008049569 0.011166787
000080 b1 1b 23 3c d3 b4 fd 3b 6b 16 43 3b 48 14 5c 3c
       0.009955333 0.007742503 0.0029768 0.01343257
000090 38 6d be 3b b0 b2 af 3b f6 f5 f1 3b cd 2d 74 3b
       0.0058113597 0.0053618774 0.007384057 0.0037258745
0000a0 f9 2b f0 3b de a9 98 3b 1a 56 2a 3c ab 3d 09 3c
       0.0073294607 0.0046589216 0.010396505 0.008376519
0000b0 88 82 8e 3b f0 57 90 3b 55 c3 07 3c 1f bd ae 3b
       0.0043490566 0.004405014 0.008286317 0.0053326036
0000c0 15 9d b1 3b 6d e4 5e 3a 4c fa 8e 3b cb 0c 61 bb
       0.005420337 0.0008502666 0.004363334 -0.00343399
0000d0 66 97 4b 3b 68 61 c9 3b 0c 34 bd 3b 43 ae 18 bb
       0.0031065582 0.006145645 0.0057740267 -0.0023297227
0000e0 a2 94 58 3c 6d 4c b6 3b 27 b5 b6 3b 86 3f fc 3b
       0.013219031 0.00556331 0.0055757943 0.0076980023
0000f0 f0 d6 ae 3b a2 4d 09 3c fd f6 00 3c bd 38 4d 3c
       0.005335681 0.0083803255 0.007871387 0.0125257345
000100 94 73 ad 3b a5 df 60 3b 6b 8d d7 3b e0 7e 03 3b
       0.005293319 0.003431299 0.0065781376 0.0020064637
000110 8a 98 33 3b e1 dd d9 3b 1a 9b 11 3c 02 c5 26 3c
       0.0027404153 0.0066487645 0.008887077 0.010178806
000120 6d e1 53 3b 95 9c 3e 3b 5a e5 2f 3c 03 ef 14 3c
       0.003233041 0.002908503 0.010735834 0.009090188
000130 30 d3 19 3c 34 47 73 bb 98 d6 83 3a 03 54 e6 3b
       0.00938873 -0.0037121298 0.0010058461 0.007029058
000140 e5 d9 4d 3b 85 7d 0b ba df 7a 52 3c 1b 3f df 3b
       0.0031410393 -0.0005321133 0.012846678 0.0068129427
000150 54 41 18 3c ef 63 d8 3b d9 b6 ee 3b b6 09 30 3c
       0.009292919 0.00660371 0.0072849807 0.010744503
000160 06 49 a8 ba 84 43 77 3b 64 80 b0 38 ef a6 5d 3c
       -0.0012839145 0.0037729451 8.4162486e-05 0.01352857
000170 ea f3 0a 3b 53 92 64 3b 73 f4 c4 3b 85 10 51 3b
       0.0021202513 0.0034877255 0.006010586 0.0031900716
000180 71 ea ab bb de 09 00 3c 38 54 b6 ba 22 ee 8b 3b
       -0.0052464535 0.0078148525 -0.0013910597 0.004270331
000190 09 90 db 3b df 57 59 3c 96 dc eb 3b 6f 3a da 3b
       0.00670052 0.013265579 0.0071979268 0.006659798
0001a0 c7 86 13 3c 5a f2 a0 3b 0d 03 eb 3b 55 18 52 3b
       0.009004301 0.004911703 0.0071719945 0.003205796
0001b0 0b 7a 62 3c b8 7a 3b bb 2e c9 40 3c cc 42 20 3c
       0.013823043 -0.0028607082 0.011766715 0.009781551
0001c0 d1 09 6d 3b 01 a6 31 3b c4 aa be ba c7 31 5a 3c
       0.003616918 0.0027107003 -0.0014546742 0.013317532
0001d0 d7 66 8a 3b 1b 51 2e 3c a5 33 92 3b fe b5 43 bb
       0.0042236852 0.010639454 0.004461723 -0.0029863114
0001e0 e6 5e 22 3c 44 17 0f 3c 08 e8 48 bb e3 a4 dc 3b
       0.009910321 0.008733574 -0.003065588 0.006733523
0001f0 b8 43 8a 3b c4 57 d0 3b 38 67 eb 3b 76 65 dd 3b
       0.0042194985 0.0063581187 0.0071839355 0.00675648
000200 e4 9f 38 3c f0 58 7d 3b 2c 11 84 3b a9 68 8e 3b
       0.01126859 0.0038657747 0.0040303674 0.0043459726
000210 f0 c4 02 3c 10 c1 8b bb 50 c4 dd 3b 80 10 1f 3c
       0.007981524 -0.004264958 0.006767787 0.009708524
000220 1c 91 03 3b fb b9 01 3c 6b 07 08 3c a5 fa ca 3b
       0.0020075506 0.007917876 0.00830255 0.00619443
000230 fb 34 33 3c 66 37 27 b9 c8 f6 2d 3c 41 55 8c 3c
       0.0109379245 -0.00015946999 0.010617919 0.017130496
000240 31 d0 28 3c f4 33 0b 3c 56 1d ec 3b 2e e7 a9 3b
       0.010303543 0.008496273 0.0072056456 0.0051850295
000250 95 23 36 3b bd c9 b8 3a f5 a2 06 3c bc 38 e0 3b
       0.0027792205 0.0014098209 0.008217563 0.0068427008
000260 03 fe bb 3b 69 11 c3 ba 53 86 a9 3b ef d9 87 3b
       0.0057370677 -0.0014882508 0.0051734834 0.0041458528
000270 d9 a7 63 3c 0d 92 b2 3b 3a cf be 3b fc 1d ba 3a
       0.0138949985 0.0054495395 0.005823043 0.001419961
000280 18 2c 1a 3b 9b 9c 92 3b c2 ee 0b 3c 00 e1 1d 3b
       0.0023524817 0.0044742352 0.008540811 0.002409041
000290 c5 5a 22 3b 26 35 eb 3b 55 85 16 3c ad df 23 3c
       0.002477334 0.0071779666 0.009187062 0.010002059
0002a0 8f a6 97 3b 53 4d a2 3b 36 e4 1f 3c 8d 79 e3 3b
       0.0046280096 0.0049530654 0.009759 0.00694198
0002b0 b0 01 02 3c 9c b4 7e 3b ca a9 95 3b 64 2a 5d 3c
       0.007934973 0.0038864976 0.0045673596 0.013498876
0002c0 7c 10 f5 3b ca 22 46 3c 25 41 17 3b a1 8e 8c 3b
       0.0074787717 0.012093255 0.00230796 0.0042894636
0002d0 52 5e 0a 3b 64 47 0a 3c e3 e5 32 3c 2b d3 12 3b
       0.0021113348 0.008439872 0.010919067 0.0022403698
0002e0 db e0 18 3c cb 09 2d 3c 23 fe 04 3b bf ed 1b 3b
       0.0093309535 0.010561417 0.002029308 0.002379283
0002f0 90 0d c2 3b 4a da 33 3c fa ab 1e 3c 92 bd e0 3b
       0.005922027 0.010977337 0.009684557 0.006858536
000300 e0 2d 02 3c f9 c2 11 3c 6e ce 56 3c 2d 3d 77 3b
       0.007945508 0.008896583 0.01311074 0.0037725673
000310 a3 2c 14 3c 47 8f 9b 3b 55 b3 c0 3b 6b cd 79 3b
       0.009043845 0.0047473046 0.005880753 0.0038116823
000320 a7 d0 13 3c ad 62 29 3b 4f 03 ee 3a ec 5b fc 3b
       0.009021915 0.002584617 0.0018158945 0.0077013876
000330 2d 8c 1c 3b a8 0b 81 3b 4b c7 b9 3a d0 b4 e6 3a
       0.0023887262 0.003938157 0.0014173774 0.0017601494
000340 3c 9f 40 3b 70 8c 04 3c 6b 08 0c 3c 0b 62 98 3b
       0.0029391786 0.0080901235 0.008546929 0.0046503595
000350 91 8b 21 3c a6 50 c9 3b 4b f6 2a 3c cc c2 7c 3a
       0.009859935 0.0061436472 0.010434697 0.0009642064
000360 c2 ec 36 3c 2a b6 6a 3b 51 c9 a0 3b 1c 24 80 3b
       0.011164846 0.0035814145 0.0049068113 0.0039105546
000370 a1 20 cd 3b 4a 3b c8 3b 2f aa d0 3b 99 d8 e0 3b
       0.006259993 0.0061105834 0.0063679437 0.006861758
000380 c1 65 3b 3c 79 91 0b 3c 50 70 78 3b 9f cc cc 3b
       0.011437834 0.00851857 0.003790874 0.0062499787
000390 be b0 93 3b ef 68 b6 3b bd 00 04 3c 01 50 2c 3c
       0.0045071533 0.0055667083 0.008056817 0.010517121
0003a0 db 49 03 3b 72 7f 43 3b ae c3 c6 bb cc e5 fe 3b
       0.0020033035 0.0029830602 -0.0060658073 0.0077788588
0003b0 cd cc 84 3b af e1 64 3c c2 5b 60 3b 06 89 87 3b
       0.0040527345 0.013969823 0.003423438 0.0041362075
0003c0 49 3d 9f 3b a0 e4 a5 3b 18 60 4c 3c 0c a1 03 3c
       0.0048596007 0.0050626546 0.012474082 0.008034002
0003d0 97 cf 5f 3b 50 c9 33 3c ab bd a6 3b 77 4d 64 3b
       0.0034150833 0.01097329 0.005088528 0.0034836212
0003e0 6a 2a 90 3b 8e 49 00 3c fe c4 93 3b 32 3b 84 3b
       0.0043995874 0.007830037 0.0045095673 0.004035377
0003f0 78 ff 65 3b cb 87 1f 3b fd 4e 5f ba f7 b8 43 3c
       0.0035094898 0.0024342414 -0.0008518545 0.0119459545
