Assets/Training/results/b_treasure_test80_Th128_Lr1e-4Bs4096Bs65536_Curiosity_EndDistanceReward/TreasureSearch/TreasureSearch-499953.onnx (onnx, 608683 bytes, 13 tensors)

65 f4 [68]
00000000: b8db da3e 0ba6 ff3e 8f3c e73e e37e 923e
00000010: 614d f93e 4e14 fb3e 4fef d03e 7457 973e
00000020: c08a f83e d6f4 f93e 17a2 d63e b45e 9c3e
00000030: cff1 f73e b3ca fe3e 1b8e c13e 4dcc a33e
00000040: a5db f73e 929e f73e 5c24 de3e ae48 aa3e
00000050: 0395 d83e 9e39 f03e 6d8c 943e 171a 9b3e
00000060: 0578 e83e ac18 fd3e 15e7 ad3e c7ce a23e
00000070: 7185 cc3e 111a e43e f560 833e df2f 923e
00000080: 52e8 e53e 3bec fa3e 5bb9 a43e 72e4 9c3e
00000090: 84cf d43e 332b eb3e 2b22 833e 394a 943e
000000a0: 3f7a ee3e ab88 fe3e 294c a53e 0825 a03e
000000b0: 269d d23e e818 f53e f999 3e3e a65f 8a3e
000000c0: 907e f13e 77d8 ff3e 3cfa 733e dd8d 983e
000000d0: 95ad c03e 53ba fe3e 1647 933d 12e1 593e
000000e0: c387 da3e 8fc0 ff3e 5594 b33d 99d8 6b3e
000000f0: c83a b73e 7cfc ff3e 5f61 9d3d 6e69 4b3e
00000100: c93a b73e 7cfc ff3e 5f61 9d3d 6f69 4b3e
0.42745757 0.49931368 0.4516339 0.28612432 0.48691848 0.4903893 0.40807578 0.2955891
0.48543358 0.48819607 0.4192054 0.30541003 0.48426673 0.49764022 0.3780373 0.31991807
0.48409763 0.48363167 0.43387115 0.33258575 0.42301187 0.46918958 0.29013386 0.30293342
0.45404068 0.49432886 0.33965364 0.31798384 0.39945558 0.44551137 0.2565991 0.28552148
0.4490381 0.49008355 0.32172665 0.3064304 0.41564572 0.45931396 0.25612006 0.28962877
0.4657764 0.49713644 0.32284668 0.31278253 0.4113552 0.47870564 0.18613423 0.270261
0.47166872 0.49969837 0.23825926 0.29795733 0.37632433 0.4975153 0.07191293 0.21277264
0.42681703 0.49951598 0.087685265 0.23031844 0.35787034 0.49997318 0.07684588 0.19864437
0.35787037 0.49997318 0.07684588 0.19864438

68 f4 [6]
00000000: 598a 4840 d273 9740 96f6 7f3c bfd7 233c
00000010: b014 8440 74e1 0543
3.133444 4.732888 0.0156227555 0.010000168 4.1275253 133.88068

action_model._continuous_distribution.log_sigma f4 [1, 2]
00000000: 46fe 9f3c 093e b63b
0.019530427 0.0055615944

action_model._continuous_distribution.mu.bias f4 [2]
00000000: bdae 983b 05fb 17bb
0.0046595023 -0.002319039

action_model._continuous_distribution.mu.weight f4 [2, 256]
00000000: d8cd 8a3b 6219 823c b628 4a3c 631e eabb
00000010: 6736 b03a 7808 183d b7d5 3cbc f561 e93c
00000020: e0fa bb3b 60b6 1abc 80d4 e13c 71c1 ce3c
00000030: dcce 4c3c f2bf 03bc 5513 65bc c49e 99bc
00000040: 8e5b adbc dbbf 003c 564f ab3c 1e54 adbc
00000050: 984e 14bb a204 033c e432 f0b9 c198 71bc
00000060: 1641 cb3c b30c 303c c2c4 253d cf52 943b
00000070: 38e2 12bb 4f87 dc3b 20bf 0b3c c292 8c3c
00000080: cb9e 653c c2b7 353c 8cf7 893b aff6 adbb
00000090: eabb 183d 8982 cfbb b039 0b3a 953b bcba
000000a0: daf5 61bc 1a69 293c b0b3 1a3c 082b eabb
000000b0: 413a a0bb 03f2 063d 5476 73bb 5181 0fbc
000000c0: e911 fc3b a503 c7bb f7fd 513b 0c2a 82bc
000000d0: 72f0 35bc a223 8739 b999 e2bb 8d3f 913b
000000e0: e510 6fbc 2d0a d6bc d90f 3bbb 92c3 a7ba
000000f0: 52fe 5a3c 7def 26bb c7a1 5c3c efcd 953c
00000100: ccfa 04bb 4bf2 043a 8e40 b2bc 7de1 2b3c
00000110: 1423 0dbd 7e67 f83a 9655 063c ba96 bb3b
00000120: 127f 3e3c 0a35 0d39 444e 87bc 3877 f0ba
00000130: 1888 82bc 351f aa3c 5935 c83b dae3 673c
00000140: 3849 1cbc c9b4 4cbc 670f 21bc eaf1 a7bc
00000150: d737 753c 19e1 a0bc a9fe f3ba 98a0 63bb
00000160: 04e1 0abd fa77 e7bc 8f31 dcbb 56b1 07bb
00000170: 7084 b0bc 62bc 96bc 9def 2c3c 4d06 e3ba
00000180: 4da1 2dbc e8f9 3b3b 7f93 06bb a3dd 093c
00000190: 1bf8 e6bc 6e82 9d3c 4f5c 973b 61a4 5abc
000001a0: a7dd 563a e6a8 61bc 8348 5dbc f457 283c
000001b0: 2401 d4bb 87ba a3bc 15ea ab3b 1afd 60bb
000001c0: 69dc e0bb 88ba 063b 50db d7bc 4003 203c
000001d0: 4ead 253c 0412 38bb cc79 cc3c 91aa b13c
000001e0: 7ee7 9d3c f040 a9ba 61ab c3ba 2b56 9f3b
000001f0: b076 943c e578 09bd b3b2 a0bc 94c8 86bc
00000200: 8e04 7cbc 7c53 7abc 4507 4f3b 28fe 983c
00000210: fc34 393b db0e 81bc 8af2 c6bb c9e9 d5bc
00000220: ff96 b93c fcdc 833c a95f 0c3c 96bf 503c
00000230: 10ea e53b 2e84 983b 3056 313c 5a62 c53c
00000240: 98c4 0fb8 c715 0d3b 7d8b 963c d0de 8ebb
00000250: e3fa 193c 2e7b a93a faf2 27bd 1ff5 c23c
00000260: d6c0 a0bc fc1d 9abb 0a87 58ba a96e 723b
00000270: bfba 823c f59d dabc bbe5 913c 639c 063c
00000280: aaed 093c e4a3 a4bc 18cf fabb 2a49 a3bc
00000290: e597 c9bc 4720 ab3c b806 e5b8 49fc ddbc
000002a0: a847 dabb b2ca 84bc a385 1a3b 1ad1 0a3c
000002b0: 9a08 623b f490 2c3b 88f4 e6bb 16c3 963b
000002c0: 2af2 7d3c 48ba 88bb f129 e1bb db63 adbb
000002d0: ef05 243c 9e01 c4bc b98e 3e3c c9f4 913c
000002e0: d729 87bb 9bd3 febb c6ce 0fbc 0bb0 e83b
000002f0: cb92 8abc dfcb 59bb 9fd2 a13c 4af3 173c
00000300: d502 663c 75dd 1c3c 653f f0bb 1b92 773b
00000310: 2476 b3bc b694 8f3c 2b8b 1fbc 5a7b 03bc
00000320: fc8b dfbc 1575 773b 76af a43c db7d bc3b
00000330: 8502 f53a 2555 09bc 6f80 863a 51df 973c
00000340: 38c7 0dbd 0951 b3bc 4bdc c63c 6f13 51bc
00000350: de8f d43b 71ce 10bc 1e53 f2bc 5658 e33c
00000360: e770 a93b f920 ef39 996f 22bb c55d 90bc
00000370: 4c29 c8bc f38c 19bd a6db 933c 0d46 083c
00000380: b4e3 b23b cdc5 ed3a 5479 09bd ae79 81bc
00000390: bbc9 ef3a d09a 48bb 7727 033d cf93 66bb
000003a0: 6c64 243c a457 6a3c 52a4 613c 73ce 2c3c
000003b0: fc07 073d 92f0 52bc 8eb9 04bc f93e 183b
000003c0: f13d 3d3c d536 ef3b c8ce d43c 3122 2c3c
000003d0: 5e10 e43a c0a0 573a 61f5 123d 0b53 853b
000003e0: 87d0 03bd f26d 193c 8159 25bc 4014 54bc
000003f0: 943b bdbc 635f ddbc ef1a a3bc d003 cdba
0.0042359643 0.015881244 0.012338808 -0.0071447357 0.0013443948 0.03711745 -0.011525563 0.028489092
0.0057366937 -0.009442896 0.027567148 0.025238724 0.012500491 -0.008041369 -0.01398166 -0.018752463
-0.02116182 0.007858242 0.020911854 -0.021158274 -0.0022629853 0.00799671 -0.00045814284 -0.014745892
0.024811309 0.010745215 0.040470846 0.004526473 -0.002241267 0.006729997 0.0085294545 0.017159823
0.01401491 0.011091175 0.004210418 -0.005308948 0.037288584 -0.0063326997 0.00053110253 -0.0014361019
-0.013791526 0.01034 0.009442255 -0.007146243 -0.004889757 0.032945644 -0.0037149386 -0.008758859
0.0076925647 -0.0060734325 0.0032042244 -0.01588919 -0.01110469 0.00025775755 -0.006915298 0.0044326247
-0.01459143 -0.026127899 -0.0028543381 -0.0012799373 0.013366299 -0.0025472336 0.013466305 0.018286673
-0.0020291088 0.0005071505 -0.021759298 0.010490772 -0.03445728 0.0018951742 0.008199116 0.005724755
0.011626976 0.00013466566 -0.016516812 -0.0018346077 -0.015934035 0.020766834 0.006109875 0.014153445
-0.009538941 -0.012494274 -0.009830332 -0.020501096 0.014966927 -0.019638585 -0.0018615323 -0.0034733173
-0.033905998 -0.028255451 -0.006719775 -0.0020705066 -0.021547526 -0.018400375 0.010555175 -0.0017320603
-0.010597539 0.0028682891 -0.0020534692 0.008414659 -0.028194478 0.019227233 0.0046191583 -0.013344855
0.0008196481 -0.013773179 -0.013506058 0.010274876 -0.0064698625 -0.019986404 0.0052464106 -0.0034330548
-0.0068622124 0.0020557959 -0.026349694 0.0097664 0.01011212 -0.002808691 0.024960421 0.021687778
0.019275423 -0.001291303 -0.0014928394 0.004862567 0.018123 -0.03356256 -0.01961646 -0.016453065
-0.015381945 -0.015278693 0.0031590026 0.018675879 0.002826034 -0.015754154 -0.0060713934 -0.026112454
0.022655008 0.016096584 0.008567729 0.01274099 0.007016428 0.004654429 0.010823771 0.02409475
-3.427695e-05 0.0021527873 0.01837706 -0.0043600574 0.009398195 0.0012930387 -0.041003205 0.023798523
-0.019623201 -0.0047032814 -0.00082598685 0.0036992228 0.015958188 -0.026686648 0.01780974 0.008215996
0.00841848 -0.02009768 -0.007654082 -0.019932348 -0.024608562 0.020889414 -0.000109208224 -0.027097838
-0.006661374 -0.016209934 0.002357819 0.008472705 0.003448999 0.0026331516 -0.0070481934 0.004600893
0.015499631 -0.004172597 -0.006871455 -0.0052914447 0.01001118 -0.023926552 0.011630707 0.017816918
-0.0041248607 -0.00777669 -0.008777326 0.007101064 -0.0169157 -0.003323309 0.019753752 0.009274313
0.014038761 0.009574284 -0.007331776 0.0037776295 -0.02190692 0.017526966 -0.00973777 -0.008025015
-0.02728843 0.0037758995 0.020103198 0.005752308 0.0018692767 -0.008382116 0.0010261665 0.018539103
-0.034613818 -0.021889227 0.024274966 -0.012760981 0.006486877 -0.008838282 -0.029580649 0.027752083
0.0051709297 0.000456102 -0.0024785756 -0.017622838 -0.024433754 -0.037487935 0.018049072 0.008317483
0.0054592732 0.0018140614 -0.033562973 -0.015805092 0.0018294373 -0.0030609854 0.03202006 -0.0035183316
0.010033708 0.014303122 0.013772087 0.010547268 0.0329666 -0.012874739 -0.00810088 0.0023230894
0.0115504125 0.0073002377 0.025977507 0.010506199 0.0017399897 0.0008225553 0.035878543 0.0040687374
-0.03218129 0.009364592 -0.01009214 -0.012944281 -0.023099698 -0.027023023 -0.019910304 -0.0015641395

network_body._body_endoder.seq_layers.0.bias f4 [256]
00000000: 9006 053a 35c7 c2bb 8374 c23b 67ad 7bbb
00000010: 030b d23a ee69 a939 013a 413c 4786 29bb
00000020: 5ce9 0f3b 1313 a9bb 677f 4fbb d176 f43b
00000030: 71a0 d43b cfd4 a43b dd51 333b c553 e5bb
00000040: 1749 d5ba 57e1 8d3b c49d 893b 08d0 92bb
00000050: ec1f c73b 30f4 f0ba 4062 943b 7e29 503a
00000060: dc83 0e3c 0bb9 be3b 7b4f 53b9 652e 43ba
00000070: f2eb 5fba 98e5 443a 2066 8e39 d784 2b3b
00000080: 1c76 0c3c 1f7c 253a 52bb c8ba 3370 b03a
00000090: ed7c 3bbb 551d 963b 8515 57bb f0bf 663b
000000a0: 01c0 e83b 3059 133b 4bf3 1cbb b5b8 aa3b
000000b0: baad 2cba 3325 bdbb 3224 543b f1e1 2a3b
000000c0: cbc3 a73a eb65 b63b 450b 9a3b 3da1 33bb
000000d0: 4548 943b 9e1e e63b fe4d ecba 4f3c aebb
000000e0: e264 76bb 030a 153c fa68 113b e27f 913a
000000f0: 724d 343b 84db f73b 2e93 843b f90d 973b
00000100: 7cf8 103b 5d72 623b 618a d63a d826 94bb
00000110: f33f 18bc 5b69 363b 9374 f43b ea65 fa3b
00000120: dc01 9ebb af35 37bb e208 273a 5815 03bc
00000130: e54e a03b 75c8 2dbb 585d 753b da52 3539
00000140: f9c7 bcba 93eb 33bb 6fa2 91bb 18e5 833b
00000150: c8cc 963b 8b06 8abb 56c2 c8bb 0db4 353b
00000160: aead c1b7 26cf 4d3b 14ab 1ebb 4663 bf3b
00000170: 5234 c83b 3a5d 99bb 02b5 af3b 6c66 353b
00000180: 3416 20ba 294c 6abb 26ff 7f3b 8dc7 243b
00000190: efec 273c c47a f73a 6410 16bb 26e9 b4b9
000001a0: e7b9 553b 74e8 2dbb 7f75 17bb a72e 283b
000001b0: 8db9 013c 6933 73bb f9b6 deba 867d 363b
000001c0: 737d 453b cdfe a7bb 526e 823b 1d5d 383a
000001d0: e73e d93b dc9b 4e3b 4739 b0bb 6662 18bb
000001e0: 0c75 97bb 9394 503b 08e2 023c f0b3 0b3c
000001f0: 147c cf3a ea0d 72bb f3eb 01bc b3d8 443b
00000200: 3f3a 5a3b 1c38 003c 648d a53a 506b c23b
00000210: fb6e df3b 7aad 553b e9f0 8f3b 07c7 e83b
00000220: 1de0 8d39 cc63 1d3a b630 a4bb fc16 483b
00000230: 5d5e 32ba 08ac 163a 8682 5fb9 435b c1bb
00000240: 3019 d03b 45fe f43b 75da 55ba d6b4 883b
00000250: f1c4 e93b 046f cdbb 0982 a5ba 4bac efba
00000260: 46eb 693b 2495 593b df4c 223b b3e9 a63b
00000270: a302 d0ba dcb0 7b3b 1a97 ad3b f04a 053c
00000280: 3a9e d13b 1e7d d539 a44e edb8 6628 183b
00000290: 5bca 003b 80e9 523a 7bdf ad3b 64d4 c83b
000002a0: 2e5e c13b 8876 b9ba a213 ff39 3310 c9bb
000002b0: 15b2 4c3b f306 a33a 841c edb9 23ee 1bbb
000002c0: 1326 8cba 6715 8b3b 8e4f c9bb b352 993a
000002d0: 4c9d 373b 6760 743b 0d9a a339 a0a8 dbb8
000002e0: c6cb 213b a8e1 f0ba be0c ab3b 9265 83bb
000002f0: 1038 a3ba 5ede 4e3b 55c4 f43a 8bda 513b
00000300: c098 c8ba 483f eb3a 4787 2abb 9338 a83b
00000310: adb1 d93b 3b42 bfbb a319 8c3b 3ea3 8e3b
00000320: 7c3d 53bb e7a3 14bc ea20 c33a 3d36 273c
00000330: d317 78bb 9eca 513b 84f3 003c 4c49 a73a
00000340: 77db 663b 1c99 49bb 1ed8 32bb 0b74 6a3a
00000350: 3f29 ff3b e8cf ffbb f25d 793b d32f 9f3b
00000360: 522d 613a aa8e 0c3b ac42 013b f7bd 20ba
00000370: 9d52 0dba cf1e 053c e806 213c bd49 8e3b
00000380: b337 393b f709 e839 ed4f a73b d06e d83a
00000390: 7777 fb3b 63da 51bb 76b7 c1b9 2a37 233c
000003a0: df4c e83b 0cc3 85bb 40b9 e93a bfda a33b
000003b0: 795f b33b 592a 443b c52d 05b8 15a8 bb3b
000003c0: ff63 8638 dd56 e43b 8acd 8a3b 60cf a03a
000003d0: c31f ca3b 0f6c 6fba 1d58 6a3b 9b8d 433a
000003e0: 3afb de3b 8d72 953b cbe2 3e3b fb59 bc3b
000003f0: 5905 333b 7ba4 0d3a 7317 3dbb 8a7e 213b
0.0005074525 -0.0059441575 0.0059342994 -0.0038402916 0.001602501 0.00032313116 0.011793614 -0.002586739
0.0021959161 -0.0051597445 -0.003166163 0.007460453 0.0064888527 0.0050302516 0.0027362027 -0.0069985115
-0.0016272393 0.004329841 0.0041997153 -0.0044803657 0.0060768034 -0.001838332 0.004528314 0.0007940753
0.00869843 0.0058203987 -0.00020152137 -0.0007445573 -0.00085419335 0.0007511019 0.0002716044 0.0026171708
0.008573081 0.0006312746 -0.0015314615 0.0013461172 -0.0028608397 0.0045811334 -0.0032819223 0.0035209619
0.007102967 0.002248358 -0.0023948725 0.005210007 -0.00065871666 -0.0057722568 0.0032370207 0.0026074613
0.001279944 0.005566349 0.0047010505 -0.0027409338 0.0045252168 0.007022693 -0.0018028615 -0.005317248
-0.0037596752 0.009096625 0.0022187815 0.0011100734 0.0027511981 0.00756401 0.0040458655 0.00460982
0.0022120764 0.003455303 0.0016368144 -0.004521232 -0.00929259 0.0027833793 0.007460186 0.0076415436
-0.004821999 -0.0027955582 0.0006371868 -0.008000694 0.0048922175 -0.0026517187 0.003743967 0.0001729237
-0.0014402858 -0.0027453646 -0.0044444124 0.004025113 0.0046020485 -0.0042122058 -0.0061266823 0.0027725727
-2.3088269e-05 0.0031403988 -0.0024210857 0.0058406917 0.0061097527 -0.004680303 0.005362154 0.0027679456
-0.0006106824 -0.0035750961 0.0039061992 0.0025143356 0.01024936 0.0018881191 -0.0022897953 -0.00034505985
0.0032612027 -0.0026536258 -0.0023110805 0.0025662573 0.007917774 -0.00371095 -0.0016991786 0.0027845814
0.0030134588 -0.00512681 0.0039804364 0.0007032918 0.006629813 0.0031526005 -0.0053779217 -0.002325201
-0.0046221074 0.0031826838 0.00798846 0.008526787 0.0015829825 -0.0036934563 -0.00792979 0.003003639
0.0033298878 0.0078258775 0.0012630639 0.005933203 0.00681865 0.003260462 0.0043927324 0.007103804
0.00027060593 0.00060039456 -0.0050106896 0.0030531278 -0.00068042224 0.00057476806 -0.00021315561 -0.005900772
0.006350659 0.0074766004 -0.0008157858 0.004171948 0.007134073 -0.0062693376 -0.0012627254 -0.00182856
0.0035693212 0.0033200467 0.0024765057 0.005093777 -0.0015869926 0.0038404977 0.0052975537 0.008135542
0.006397036 0.00040719745 -0.000113156886 0.0023217439 0.0019651863 0.00080456585 0.005306182 0.0061288346
0.0059011197 -0.0014149705 0.00048652018 -0.0061359643 0.0031234075 0.0012437984 -0.00045225408 -0.0023793064
-0.0010692499 0.0042444947 -0.006143517 0.001169762 0.002801734 0.0037288906 0.0003120456 -0.000104741426
0.0024688109 -0.0018377798 0.005220025 -0.004009911 -0.0012452621 0.0031565647 0.0018674234 0.003202113
-0.0015304312 0.0017947936 -0.0026020573 0.0051336973 0.006643495 -0.0058367527 0.004275517 0.004352956
-0.0032232692 -0.0090722805 0.0014887128 0.0102058025 -0.0037855997 0.0032011638 0.007870559 0.0012762933
0.0035226026 -0.0030761426 -0.002728946 0.00089436834 0.0077868993 -0.007806767 0.003805038 0.004857996
0.0008589822 0.002144734 0.0019723577 -0.00061318226 -0.00053910335 0.008125021 0.009828307 0.0043422864
0.002826196 0.00044257913 0.0051059634 0.0016512517 0.0076741534 -0.0032021038 -0.00036948518 0.009961883
0.007089242 -0.0040820893 0.0017831698 0.005000442 0.0054740277 0.0029932468 -3.1752297e-05 0.005726824
6.408244e-05 0.0069683627 0.004235928 0.0012268834 0.006168337 -0.00091332285 0.0035758086 0.00074597605
0.006804851 0.0045607747 0.0029126878 0.005748031 0.002731642 0.00054032326 -0.0028853088 0.0024642074

network_body._body_endoder.seq_layers.0.weight f4 [256, 74]
00000000: d63c 623c 1ba6 763d 13f4 203e c53e cb3d
00000010: 5565 2abe 5a16 933d f6ca c5bc 808e b83d
00000020: b12d c83d 07b0 6fbe bc7e 32bd 5375 0f3e
00000030: 33a1 ecbb 9aef 653e 0a5a b6bd 7061 27bd
00000040: c5c3 643e 4f19 273e e875 e23d cd59 9cbc
00000050: 4478 273e d17d b73d 004a d43d 581b 003e
00000060: c44c 653c c4a4 f23d 52f1 ef3c 310d 17bd
00000070: 8b3a 9b3d d62c 0c3e e54e e63b 34cc 883b
00000080: 180d 88bd 7a37 cabc 0a9f 6bbc 76de 3ebe
00000090: 6ca4 f3bd dd11 8e39 f7b3 253d 1e83 cf3b
000000a0: c8ff 823e 356d 8d3d d402 413c d85f 363e
000000b0: b234 2fbe 2206 2f3e 4ec4 6dbd b253 8e3c
000000c0: 0493 f23d 554a 8b3d 2958 dc3d a316 1a3e
000000d0: 29a2 4f3e d481 a13e 1c77 a6bc c071 92be
000000e0: b98d 9dbc b091 17bd be28 9ebd 6569 a7be
000000f0: 6914 0b3c 2968 9fbd 7afc 7ebd d53c 5cbd
00000100: be73 0a3e 6af8 ee3d b650 2cbe 9a09 b2bd
00000110: e473 2c3e 93c8 01be 2765 99bd a7f1 86bd
00000120: 473d 73be 76a6 0fbe 469b b1bd 2c0d fdbd
00000130: 228f 32bd 7d30 9b3d 52e6 93bd 7f5f e8bc
00000140: d456 00bc c45e 8b3d 6b2f 38bc 688b 5f3a
00000150: 5ef0 9f3c 1f7f 113e 4c65 023e 9602 4abd
00000160: a553 ab3c ea9f 043e 71f1 693d 6fbe dbbb
00000170: 7f0c f93c e506 983d 3a1c c13d 277b 94bd
00000180: 4a82 3a3d 8313 0d3e 3df0 ffbc b100 e8bc
00000190: 0bcd dcbd b6c4 e1bc 0c70 013e 86e3 db3d
000001a0: 406a fcbc 1533 8ebd 7b92 2438 3736 603e
000001b0: c013 88be ffad 3ebe 58f6 4cbd 87a0 1b3b
000001c0: 6081 be3c a539 303e b065 a8bc b590 bbbd
000001d0: c1c7 1d3d a011 bbbd ee50 8a3d 7941 563c
000001e0: fcc8 05bd 1bbd 9c3d 978b c7bd f57d 553e
000001f0: 0023 82bd ab16 e9bd de4a fcbd f87f 95bc
00000200: 9076 7e3d 4c95 753c f5b9 423e 989c 1dbe
00000210: 4622 00be 650b 3fbd d9f4 a5bd 9993 d23c
00000220: e22b 493e 53d7 083d 32cf 00be ed56 263e
00000230: 5f35 75bd 5ff2 0b3e 5471 fd3d 73ad a6be
00000240: 5754 ffbd a8c4 a1bd ab11 28bd e1cc 6abe
00000250: adf4 353e fbcd 8b3d e9cd 22be f55a 18bc
00000260: 345c 33be e22f 983d 1549 23be ee0d b03d
00000270: 7dd9 f2bd aea7 54bd b93b 04be 96ea e23d
00000280: 29ac 93bb b79d 87be 26ee 323d 4550 19be
00000290: 7df8 e6bd 077f b5bd a1d2 a03d 9580 c83d
000002a0: 56e7 3bbd 40d5 63be a118 72bd 862d d63d
000002b0: fbac c3bc 901f 9e3d a503 e23d 60ac 903d
000002c0: 0ffb 403e 2cd5 0ebe c093 783d 9691 4dbd
000002d0: 2531 fdbd 67c8 bb3d 6dbb 32bd 1a12 af3c
000002e0: 30a4 4d3d 2a2d 4b3c 79ea ab3d 7eaa e1bd
000002f0: f3c6 093e 3cc1 05be d15e 11be 722b 96bd
00000300: 55bd 53bd d5b0 17bb 5397 7dbe 98e7 38be
00000310: 6caa b6bd 1357 f2bd 0d7b fdbd 406a 0b3d
00000320: 0a8d 15bc 0615 1a3e 5d6e 2ebd 87c2 cf3d
00000330: c267 a23d bc47 1fbe 7ea4 23be 186f 92be
00000340: 4d79 983d 6c1f 8c3e 9ff2 ae3d ff07 11bd
00000350: 431c 5cbe da8a 5bbd 1c04 7abe 02cd 8cbd
00000360: f928 6abd 3df3 e63d e540 dcbd 2ee9 99bd
00000370: fa8e a23b da0f c33c 024b a2bd 5852 d43d
00000380: 64f9 01be 9e1e 5f3d 9afa 903c 3b04 97ba
00000390: e47f 2e3e 9720 fe3d a31c 23be fa41 acbd
000003a0: 6953 7a3c 3288 6d3e 785c a7bd e250 833d
000003b0: b704 30bd c71e 0a3e 0697 073e b6a7 693d
000003c0: 0db4 91bd 44ea a63d 8869 653e 98bd 37bd
000003d0: e5b9 3abd 580e 29bc 9ba8 a4bc 005b 743e
000003e0: 9d93 823d f831 163e cb5e 823d cbfd 6e3d
000003f0: 9aec 173d e559 1a3e e3c6 c5bd 54ca bdbb
0.01380845 0.060217004 0.15718107 0.09924082 -0.16640218 0.071819976 -0.02414463 0.09011555
0.0977434 -0.23406993 -0.043577895 0.140096 -0.007221365 0.22454682 -0.08903892 -0.040864408
0.22340305 0.16318248 0.11057645 -0.01908579 0.16354471 0.089595445 0.10365677 0.12510431
0.013995353 0.11847833 0.029289875 -0.036877815 0.075795256 0.13688979 0.007028448 0.0041747335
-0.066431224 -0.024684656 -0.01438118 -0.1863955 -0.11896595 0.0002709766 0.04045483 0.006332769
0.2558577 0.06905595 0.011780459 0.17809999 -0.17109945 0.17092183 -0.05804854 0.017373893
0.11844447 0.06801287 0.10759003 0.15047698 0.20276703 0.31544363 -0.020320468 -0.2860241
-0.019232618 -0.037004173 -0.07722615 -0.32697597 0.008488753 -0.07783539 -0.0622525 -0.05376895
0.13520715 0.11668475 -0.16827664 -0.086932376 0.16841084 -0.12674169 -0.074899964 -0.0658906
-0.23753844 -0.14028344 -0.08672194 -0.12356028 -0.043593533 0.07577608 -0.072216645 -0.028365849
-0.007833201 0.068051845 -0.011241774 0.0008527548 0.019523796 0.14208649 0.12733954 -0.049318872
0.020913908 0.12951627 0.057115022 -0.006706051 0.030401466 0.0742319 0.09429212 -0.07250052
0.04553441 0.13776974 -0.031242484 -0.028320642 -0.10781296 -0.02755962 0.12640399 0.10736756
-0.030812383 -0.06943337 3.9237068e-05 0.21895681 -0.26577568 -0.18621062 -0.05003962 0.0023746805
0.02325505 0.1720949 -0.0205563 -0.0915846 0.03852058 -0.09134221 0.06753717 0.013077133
-0.032662377 0.076532565 -0.097434215 0.2084883 -0.06354332 -0.11381277 -0.12318967 -0.018249497
0.06212479 0.014989208 0.1901625 -0.15391767 -0.12513074 -0.046641726 -0.081033416 0.025705146
0.19645646 0.033408474 -0.12579039 0.16244097 -0.05986535 0.13666676 0.12375131 -0.32554206
-0.124672584 -0.07898837 -0.041032474 -0.22929718 0.17769118 0.06826397 -0.15898861 -0.00929903
-0.17515641 0.07431008 -0.15945847 0.08596407 -0.11857889 -0.051917724 -0.12913407 0.110799
-0.004506607 -0.26487514 0.043684147 -0.14972027 -0.11277864 -0.08862119 0.07852674 0.0979015
-0.045874916 -0.22249317 -0.05910552 0.10457902 -0.023886194 0.07720864 0.110358514 0.07064128
0.18845771 -0.13948506 0.06068778 -0.05018767 -0.12362889 0.09169083 -0.043635774 0.021370936
0.05020541 0.012400905 0.083943315 -0.11018847 0.134548 -0.13061994 -0.14196326 -0.07332505
-0.051694233 -0.0023146172 -0.24764757 -0.18057096 -0.08919224 -0.11833014 -0.12376986 0.034036875
-0.009127865 0.15047082 -0.04258572 0.10144525 0.079299465 -0.15554708 -0.15980718 -0.28600383
0.07445011 0.27367723 0.0854237 -0.035408016 -0.21495156 -0.053599216 -0.2441563 -0.0687504
-0.05716798 0.11276863 -0.10754565 -0.075151786 0.004960892 0.02381127 -0.07924463 0.10367268
-0.12692791 0.05447256 0.017697621 -0.0011521647 0.17040974 0.1240856 -0.15928893 -0.084110215
0.015278676 0.23196486 -0.08171934 0.064119115 -0.042973246 0.13488303 0.13241205 0.057044707
-0.0711442 0.08150151 0.22403538 -0.044858545 -0.04558744 -0.010318361 -0.020099929 0.23862839
0.06375811 0.14667499 0.063657366 0.058347505 0.037090875 0.15073355 -0.09657075 -0.0057919417

network_body._body_endoder.seq_layers.2.bias f4 [256]
00000000: 1a71 a63b 202b 9a39 08d8 4d3a 8e6b 063a
00000010: 50a4 cc38 cd40 e13b 98bd 563a 9e1a fcba
00000020: 2116 803b 2cec a23b 0c5a 55bb 698a c23b
00000030: dc52 db39 c6f1 3f3a 667c adb9 1365 043b
00000040: d2d1 24bb 24c7 0c3b 5955 793a 3fdf cfba
00000050: 15ad 1b3a a592 213b 2148 d63b 284f df3a
00000060: 17e8 e53a c1da a7bb fea2 053b 0a0d ed3b
00000070: 7041 07bb ca2b 72bb 28e8 05bb f71a d3bb
00000080: 01e5 b13b 90d3 c83b 0eca 7e3b 08e6 aa3b
00000090: 21fb 003b ac7a bd3b d34e 9cbb 0bef 0d3a
000000a0: 4294 e4bb fc93 0b3c 5c16 0f3b 0767 b93a
000000b0: ba9a e33b 0543 b33b dcf7 b63b bc59 6cbb
000000c0: 073a 59bb 1395 8eba fca2 a13a 034c 85bb
000000d0: 0547 f33b 5517 99bb 630a 4f3b 9b88 123b
000000e0: e977 853a 5fbf 8d3b eb22 b9ba 4484 dc3b
000000f0: 6d7c 473b a12a 05bb 3780 bc3b 2464 0bb9
00000100: 0835 e93b 0a11 773b 3809 9fbb 129a 86bb
00000110: 1cd3 fcb9 0d0f 973b 9eee 9dba 149b c63b
00000120: 12be ed3b d035 533b ec55 b93b 70ea 81bb
00000130: 741f 913b 96d8 be3b 2049 4dbb 0f0d c1bb
00000140: c1aa 2cbb ef02 7c3b 9189 643b 03f0 42bb
00000150: a85a 5abb 2ed4 4fba 0d68 1b3a 687d 0c3c
00000160: b326 98ba f616 103b f81e a939 ae72 76bb
00000170: a926 873a 234a 963b 03b9 6d3b f9c7 62bb
00000180: da04 06bb 8244 b3ba 635d 693b 7e2a db3b
00000190: e618 bb3b 0719 f73a b415 963a 871b ce38
000001a0: 1102 9b3b bc9b 553b 395c 9b39 ac50 86bb
000001b0: d219 3c3b b3d7 d03b bd37 25bb 8cfd 603b
000001c0: 0ae3 da3b 6d43 3b3b aabe d73b de02 fcbb
000001d0: 3667 853b 94ac a8ba 3073 2ebb dc13 903b
000001e0: 7fca 9b3a 2868 013a 6bcc 093c 4ecb 0a3c
000001f0: 2fc9 933b 1580 033c 3784 7d3b d686 6e3b
00000200: b90b a93b 1492 033b bcea 6ebb 562d 2e3a
00000210: 2e3b cf37 ed8d e43a 40f9 8dbb bdcc f8ba
00000220: 5571 463b b4b5 293b 330a dd3b 2837 71ba
00000230: 8823 7abb 9837 f639 c9b1 7dba a03a bbbb
00000240: 2353 d93a ff73 c53b f128 72ba 49b8 863b
00000250: ccf4 22bc d831 9d3b 199b 603b fb5c c63a
00000260: c2b7 01bc 250c 0aba 76a4 5a3a fc66 78bb
00000270: 7c26 233b dc0a 263a 8e1d 5b3b b97b 563b
00000280: 66ba 8bbb c5e3 a03a 046c bcbb 10e1 2fbb
00000290: f7c4 733b d248 af3b d93a ea3b 4437 213b
000002a0: a0f1 903b 0642 9cbb c692 04bb f42e 9c3b
000002b0: 1dc7 3a3b f355 023b 3f4e 48bb e272 66bb
000002c0: 9902 7ab8 e584 95bb 992f 02bb a270 b33b
000002d0: 843c b8ba de08 f3ba 0211 473b a15e d03a
000002e0: 89af 353b f62f b03b 2f6c c2bb 545c 1d3b
000002f0: 91f8 173a 88b7 b1ba 833d 21ba 284a 1e3b
00000300: fe35 053c 22a5 96bb 37ca 05bb 0e7f 75bb
00000310: 62d3 4c3b 21fa 233a 157c dd3b 8992 183b
00000320: 60e0 f7ba a8a6 5fbb 66f9 d23b f714 7a3b
00000330: 8659 a439 644d 573b ac92 663b ac7f 74bb
00000340: 1299 a43b 31a1 22bb b4e8 623b a522 8d3a
00000350: b8bd 3b3b 713c 923b f4ab faba f7d8 293c
00000360: 7b1a 533a 78fe 7a3b d001 09ba 4d3b d63a
00000370: a77f 94ba e225 133c 9ca2 aa3b ad07 bfba
00000380: b520 5fba d7ef 6d3b 839f 20bb c5dd ef3b
00000390: 9dc2 cf3b 0969 fd3b 36c0 1e3b 8d16 80bb
000003a0: 0628 6a3b fd51 f8bb 8714 8d3b 302d 8e3b
000003b0: 7991 56ba 8ce8 c8ba 13ea 83bb 78fa 883a
000003c0: e448 d83a 8bb2 f037 82ae 913a ff0c 2dbc
000003d0: 53e4 3abb 0eb1 ba3b 23a2 acba d883 47bb
000003e0: ed90 90bb 5157 dfba 1f35 afbb 9c6a 203c
000003f0: 5d55 443b 144f ac3b f3c6 4c3b 38d2 04ba
0.0050794007 0.000294053 0.00078523206 0.0005127721 9.7580836e-05 0.00687418 0.0008191704 -0.0019234007
0.003908888 0.0049720015 -0.0032554893 0.00593691 0.0004183267 0.0007322099 -0.00033089815 0.0020201846
-0.0025149477 0.0021481002 0.0009511314 -0.0015859379 0.0005938572 0.0024654057 0.00653936 0.001703714
0.0017540482 -0.005122513 0.002039134 0.0072342204 -0.002063837 -0.003695237 -0.0020432565 -0.0064424234
0.0054289107 0.006128736 0.0038877758 0.00521541 0.0019680934 0.005782446 -0.0047701388 0.00054143433
-0.0069756815 0.008519169 0.0021833396 0.0014145084 0.006945935 0.005470636 0.0055837464 -0.0036064228
-0.003314616 -0.0010878168 0.0012331898 -0.004067899 0.0074242377 -0.004671971 0.0031591884 0.0022359255
0.0010182831 0.0043257917 -0.0014124786 0.0067296345 0.0030439154 -0.0020319598 0.005752589 -0.00013293378
0.0071169175 0.0037699365 -0.004853394 -0.004107722 -0.00048222474 0.0046099485 -0.0012049263 0.006060967
0.007255324 0.003222812 0.0056559946 -0.0039647147 0.0044287983 0.005824159 -0.0031324103 -0.0058914493
-0.0026346894 0.0038453897 0.0034872035 -0.002974511 -0.0033318195 -0.00079280406 0.00059282855 0.008574821
-0.0011608213 0.0021986342 0.00032257265 -0.0037604976 0.0010311204 0.0045864745 0.0036273606 -0.0034604056
-0.002044967 -0.0013677033 0.0035608641 0.006688415 0.0057097552 0.0018852063 0.001145056 9.827973e-05
0.004730471 0.0032594046 0.00029632615 -0.0040989723 0.0028701914 0.0063733696 -0.0025210225 0.0034330813
0.006679897 0.0028574124 0.006584008 -0.0076907715 0.0040711416 -0.0012868815 -0.002661895 0.0043968987
0.001188591 0.000493648 0.008410553 0.008471323 0.004510067 0.008026143 0.0038683543 0.0036396286
0.005158868 0.0020076083 -0.003645583 0.0006644329 2.470388e-05 0.0017437317 -0.0043326914 -0.0018981915
0.0030279953 0.0025895657 0.0067456006 -0.00092016393 -0.003816815 0.00046962197 -0.0009677676 -0.0057137758
0.0016580563 0.0060257907 -0.0009237668 0.004111324 -0.009946059 0.0047972016 0.0034272133 0.0015133912
-0.007917346 -0.0005266092 0.00083405466 -0.003790318 0.0024894765 0.00063340156 0.0033434364 0.0032727553
-0.004264164 0.0012274912 -0.005750181 -0.0026837029 0.0037196258 0.005349257 0.0071481285 0.0024599591
0.004423335 -0.004768613 -0.0020229085 0.0047663394 0.0028500028 0.0019887656 -0.0030564216 -0.003516369
-5.9607064e-05 -0.0045629614 -0.0019864796 0.0054760734 -0.0014056121 -0.0018542071 0.0030375128 0.0015897342
0.0027723035 0.005376811 -0.0059333066 0.002401133 0.0005797232 -0.0013558725 -0.00061508286 0.0024153087
0.0081305485 -0.004597322 -0.002041472 -0.0037459764 0.0031253924 0.00062552287 0.0067591765 0.00232807
-0.0018911473 -0.0034126434 0.006438422 0.0038159469 0.00031347218 0.0032852525 0.0035182638 -0.0037307544
0.00502313 -0.0024815316 0.0034623565 0.0010767771 0.0028647017 0.0044627716 -0.0019124732 0.01036667
0.0008052957 0.0038298648 -0.00052264053 0.0016344577 -0.0011329547 0.0089812 0.005207373 -0.0014574431
-0.00085116486 0.0036306286 -0.002450914 0.007320138 0.0063403384 0.0077334684 0.0024223453 -0.0039089383
0.0035729422 -0.007578133 0.0043054256 0.004338883 -0.0008185129 -0.0015328093 -0.0040257066 0.0010450622
0.0016501215 2.869337e-05 0.001111463 -0.010562181 -0.002851744 0.005697376 -0.0013170879 -0.0030443575
-0.0044118077 -0.0017039572 -0.0053469087 0.009791043 0.0029958107 0.0052584503 0.0031246513 -0.00050667254

network_body._body_endoder.seq_layers.2.weight f4 [256, 256]
00000000: 0be1 af3d 8325 c63d 8e72 853d 0613 c03c
00000010: 8dd9 58bd 6427 c83d e208 b73d 7b77 c23c
00000020: c1c2 a03d c77f 5a3d 0024 b7bd 8983 2ebd
00000030: d9ee c03c 7929 12be e571 cb3b 9388 53bc
00000040: 8086 23bd 4752 56bd 8fac 09be b6f7 0bbd
00000050: c129 d33d 1aed 223d 6a50 953c c3c0 fdbc
00000060: a215 803c 06fd 2fbb 3a7f c53c 598b a8bc
00000070: 22cc a03b 279d 163c 3b69 a83c aef8 a43c
00000080: a8b3 543c ebed 61bc 6816 73bc cc78 f53c
00000090: 1d22 c6bc 07f3 943b a6ab 9ebc 7329 1d3d
000000a0: cfe1 ec3c 2610 db3b 5bfd c03b 7c37 89bb
000000b0: 9758 bc3b 2e6f d63c 08c9 f5bc 25fa 243d
000000c0: d0cf 68bd cdf3 043d 6f80 0b3e ba50 443d
000000d0: 56da e6bd 569f 19bd 1eb8 f33c dcab b6bd
000000e0: 8808 6e3d d8a0 503d 0fe8 213c bc94 143d
000000f0: 125b 0bbd d50b 4d3d 13a4 7c3d fce4 613d
00000100: a852 84bd 2cc2 6c3c d671 1bbd cf85 143d
00000110: 8522 24be ef39 0b3e e446 b03c a7ce 55bd
00000120: c59c 603c 81ba aabc 44e5 5abd dd05 753d
00000130: dba3 eb3d 5d3c 34bd bb1a 913d f484 6b3d
00000140: 2734 773d 6e3d 083d 7f6d 26bc 0ffe 103d
00000150: 00ec ba3c 2b56 5abd 77ea 203d 1884 7cb8
00000160: 48eb 58bd 1c79 313d 80f0 343c be21 183d
00000170: b6e8 c8bc 56a6 4c3d 2ec4 b23b 6282 01be
00000180: 0020 753c 98b2 09be fca7 923c 8501 243c
00000190: e14b 863c 85a2 1b3d e8ab ca3d 3538 27bd
000001a0: 6c7f 163e b080 103d 4bfd b83d 3a18 713d
000001b0: 1db5 e8bd b0d5 693d 497b cebd 1e84 803c
000001c0: c096 99bd 843f c7bc cea0 293d 11b2 fb3b
000001d0: a62e 1cbc c1cf 113d 3d76 df3c 3187 0b3d
000001e0: f9ac 8cbd 4559 aabd f5b3 753d ebe4 03bd
000001f0: 8719 353c 371d dc3c d41d 843d 5ffe bfbc
00000200: c4ce 1abc 49bd f8ba ad3c ad3c 1aac c03d
00000210: 78dc cabb 7767 7c3a b5ae 51bc 7d96 c73d
00000220: 4812 c83c 1ad1 7a3d 9f4f 663b 58b5 85bc
00000230: 9618 d6bc b3af a9bc f762 52bd 279f ae3b
00000240: 0a40 c53c cdb1 1e3e 8e15 83bd 46e6 98bc
00000250: 513d 863c 08ac 9b3c ba20 f4bc 71e1 85bd
00000260: e7f4 053e e97b 3cbd 90cc 54bc 42ba 783d
00000270: c6f8 a1bd 2e56 d9bd 9e17 873d 5d69 7f3d
00000280: e86c c13c 29a3 2abd 0dd0 debd 6051 f43c
00000290: 9fec 073d 1700 02bd 5d1b a63d bcce 303a
000002a0: 959a 0bbe 06cd 093d 17ba aebc b365 09be
000002b0: dea6 123d 4931 3bbb 265b a93c 16f5 44bc
000002c0: 2c9b 2fbe 5024 cbbc 3283 abbc e7b7 c83d
000002d0: 7331 aabd 1a5a fe3b 0d94 563d 2a29 83bd
000002e0: f930 c73c 6a0e 253e fc80 cc3d 6ef8 50bd
000002f0: 512a abbd 7a16 ffbb 0a1f 123d 6f53 58bc
00000300: 2fc4 413d 16cf b0bd 7d00 c4bc f448 99bc
00000310: bbf3 893b 19af cabd 14ac 833d d500 1c3d
00000320: d41c 023e b400 4f3d a44d 033d e6f7 7a3c
00000330: 8bf2 fcbd baef 96bc d27d dd3c 1d03 5d3c
00000340: f7ee 9f3b 25a5 223d 7ac1 5bbd 537d c4bd
00000350: 165b ce3c e4c0 aa3d ff78 d4bd f4ef 69bd
00000360: c483 8bbd 7ebb 343c 1f1d eebc b295 9bbc
00000370: c8b8 33bd 5c1e af3d 3422 013e 3bdf 8f3d
00000380: 00f4 77bd a369 dc3d f538 0abe fcde 543b
00000390: 9122 e13c 3b23 24bd 8398 2c3d 8413 2cbd
000003a0: b942 e0bb 8d2d e3bb f767 84bd c8e7 24bd
000003b0: 5a74 7bbd ea94 603c fdab c33d 6ded 3c3d
000003c0: f15e 1bbe dedf 6abd a181 893d 0262 393c
000003d0: 55ab 7a3c 082c 723d 89e6 3e3c 2ef7 27bd
000003e0: 8b1e 24bd 1f07 143c 0954 0c3b d91f b8b8
000003f0: 433d a33c 3f46 653d c298 223d d0c8 a3bc
0.085878454 0.096751235 0.0651599 0.023446571 -0.052941848 0.09773138 0.08937241 0.023738613
0.07849646 0.053344514 -0.08942413 -0.04260591 0.023551391 -0.14273633 0.0062086456 -0.01291098
-0.03992319 -0.05232456 -0.13444732 -0.034171782 0.10310698 0.0397769 0.018226821 -0.030975705
0.015635315 -0.0026853695 0.024108518 -0.020574259 0.004907147 0.0091927415 0.02055799 0.020138111
0.0129822865 -0.013789634 -0.014836885 0.029964827 -0.024186188 0.0045455727 -0.019368958 0.038369607
0.028916268 0.0066852747 0.0058895773 -0.0041875225 0.0057478654 0.026176061 -0.030003086 0.04027762
-0.05683881 0.03245907 0.13623212 0.04792855 -0.11272113 -0.03750547 0.02975088 -0.08919498
0.058113605 0.050934643 0.009881987 0.036274657 -0.0340224 0.050060112 0.06167991 0.055150017
-0.06461078 0.014450591 -0.03795036 0.036260422 -0.16028793 0.13596319 0.021518178 -0.052199032
0.013709252 -0.020840885 -0.0534413 0.059820045 0.11505862 -0.04400288 0.070851766 0.05749984
0.06035247 0.03326171 -0.010157942 0.03539854 0.022817612 -0.053304832 0.039286103 -6.0204504e-05
-0.052958757 0.04332839 0.011043668 0.037141554 -0.024525028 0.049963318 0.0054555153 -0.12647393
0.014961243 -0.13447034 0.017902367 0.010010128 0.016393604 0.037996788 0.0989607 -0.040825088
0.14697045 0.035278976 0.09032687 0.058860995 -0.113626696 0.057088554 -0.100821085 0.015687998
-0.074994564 -0.024322279 0.04141312 0.0076811393 -0.009532606 0.03559852 0.02727806 0.034064475
-0.068689294 -0.08317808 0.059986074 -0.032200735 0.0110534495 0.0268694 0.06451002 -0.023436723
-0.009448711 -0.001897731 0.021147097 0.09407826 -0.0061908327 0.00096284546 -0.012798001 0.097455
0.02442278 0.06123457 0.0035142673 -0.016321823 -0.02613477 -0.020713663 -0.05136391 0.005329031
0.024078388 0.15497513 -0.064005956 -0.01866449 0.01638666 0.01900293 -0.029800761 -0.0653714
0.13081704 -0.046016607 -0.012988225 0.060724504 -0.07908778 -0.106121406 0.065963015 0.06235634
0.0236115 -0.041659508 -0.10879526 0.029823959 0.033184644 -0.031738367 0.08110688 0.0006744673
-0.13633187 0.03364279 -0.021328969 -0.13417701 0.03580367 -0.0028563312 0.020673346 -0.012021324
-0.17149037 -0.024797589 -0.020936582 0.098007016 -0.08310213 0.007762206 0.052387286 -0.06404336
0.024315344 0.1611878 0.09985539 -0.05101817 -0.083576806 -0.007784662 0.035674132 -0.013203486
0.047306236 -0.086332485 -0.023926014 -0.018711545 0.004209963 -0.098966785 0.06429306 0.03808673
0.1270631 0.05053778 0.032056466 0.015317893 -0.12350949 -0.018424857 0.027037535 0.013489512
0.0048807818 0.039708275 -0.05365131 -0.09594216 0.025189918 0.08337572 -0.10374641 -0.057113603
-0.06812242 0.01103103 -0.02906662 -0.018992279 -0.043877393 0.085507125 0.12610704 0.07025
-0.06053543 0.10762336 -0.1349829 0.0032481542 0.027482303 -0.04007266 0.042137634 -0.0420108
-0.0068438915 -0.0069329203 -0.06465142 -0.040260106 -0.06139026 0.013707379 0.095542885 0.046124864
-0.15172936 -0.057342403 0.06714178 0.011314871 0.015299638 0.059124023 0.011651644 -0.041007213
-0.04006819 0.009034901 0.0021412394 -8.779736e-05 0.019926673 0.055975195 0.039696462 -0.019993216

network_body._body_endoder.seq_layers.4.bias f4 [256]
00000000: 5c8b 6e3b dc10 033b 592a 513b 78ab 42bb
00000010: 0c38 893b 945c bf3b d51c c1bb fed9 8b3b
00000020: a6b2 d4b9 8ce1 f3bb 3d51 c93b 0d0f ce3b
00000030: de77 8a3b ad99 95bb fdb6 61bb 5c56 47bb
00000040: d32b e4ba 07c9 7e3b 623f b83b 4889 3ebb
00000050: 830f 82bb 8ab9 983a 570c 4dbb 1901 58bb
00000060: c635 c93b 660e bf3b ebf3 e43b ca0b 353b
00000070: 1ddf 563b 685e 0d3b c8d2 3438 4a85 183b
00000080: a94c 7e3b 60b9 7f3b fa39 a3ba 472b 98bb
00000090: b689 d53b ea5c 5fbb 6afa c53b 1685 133b
000000a0: f1fa 883b 8c29 ac3b 667b 003b 31a5 05bb
000000b0: 98fb d138 33de 003c 7030 11bb 7912 73bb
000000c0: 51af b9b9 e131 933a 8dc3 a63a 993a 87bb
000000d0: f339 c23a 0f26 ab3a 20b0 e1ba 7a76 463b
000000e0: d0fb a2bb 50e1 86bb 3e16 13bb 091f 73bb
000000f0: 70b4 d43a a113 8bbb e49d dd3b db9c c43b
00000100: 075d bcba c06c 8f3b f066 87b9 8887 bb3b
00000110: 86ca 2dbb 3206 5ebb 7c9f 153b 8b1d 113b
00000120: b442 a83b f104 88bb 4609 8fbb baf2 70bb
00000130: deba 3fbb 564a c33b c1b9 d5b9 71ba 8f3b
00000140: b283 69bb 6019 5cbb c98f 69bb 4f5d bab9
00000150: 74ec c73b db14 9dbb bbd3 cfba 9448 7ebb
00000160: 91af d5ba f748 47bb c9d0 883b d461 96bb
00000170: d36b 173b 0792 313a c644 d7b8 064d 163a
00000180: 3e87 09bb 095a 9fba 56c2 54bb acf6 573a
00000190: 79da 55bb a391 0a3c 0c5d 76ba b950 a4bb
000001a0: ee15 c83b 4172 26bb 82d3 103b 3ff6 983b
000001b0: 7c05 7cbb 547b 87bb c946 373b 3aae 7bbb
000001c0: 57b1 25bb 3b16 dfba fca4 69bb 4a13 e93b
000001d0: 6ae4 a73a ee27 41bb 3a16 9e3b 0ad7 da3b
000001e0: 8862 853b 6fbc 62bb 5f8e 973b 4963 663b
000001f0: 1f35 a43b 2f8c 26bb 576f 9cbb 849e 9cbb
00000200: 77f9 85bb ad37 12bb 9268 a43b 36e4 063c
00000210: 77dc 13bb f7dd c6b9 ff7d a0bb 95c2 a8b9
00000220: 8022 8f3b b81a 9a3b c6e4 923b c724 663b
00000230: 4ee2 973b 5ac9 7f3b 00e9 893b 2f43 a03b
00000240: 9e2e af3b cdac b0b9 6caf 693b 8d07 2b3b
00000250: 8be6 ac3b 961f 6ebb 4616 43bb 3e9a a03b
00000260: 3639 1abb a6cb 943a 3d05 a03b c350 e8b9
00000270: cb9f 823b d662 13bb 83e8 d73b 25b2 2139
00000280: e2ba 503b 2def 183a 4290 b33a d6fd c6bb
00000290: 37f8 c2ba 979b 803b 6b50 79ba 4305 a6ba
000002a0: e9ff 2cbb 6374 57bb 259f 053b cce5 a03b
000002b0: b25d cbb9 53a1 813b f44f 29bb e9e7 b139
000002c0: d85c 8e3b 43bf cfba 6979 90bb c7d4 933a
000002d0: d624 6d3b db7d 2cbb bf99 623b 8d22 c83b
000002e0: dffc a03a ed55 78bb f588 d7bb ac24 09bb
000002f0: aa29 a3bb 6bf0 05bb f543 6a3b 883c a03b
00000300: a964 9c3b ca46 d03a c40a 68bb c660 ef3b
00000310: 50fe 84bb 225a 9e3b d81c 763b df3b 8ebb
00000320: 19bf d5ba 9cc8 37bb a383 e43b 2a30 a33b
00000330: 5ca1 193b 0f38 9d3b bf56 403b 4d2e c13b
00000340: 5bcb 3ebb 767d acba d5bc 113c e745 f5ba
00000350: 8f91 463b e194 bf3a 3064 b8ba 38fd b83b
00000360: 1b27 063b 0625 08bc b6bf 77ba 4ad5 a0bb
00000370: 943a 21bb bdce b9ba e6e4 093c 9f02 783b
00000380: 4f97 a2ba 1ed3 9bba be6f e33a c130 21bb
00000390: eb94 65ba 3a03 e93a 2bee 683b 0b66 1d3b
000003a0: 0285 b63a 72e3 873b a977 cc3b d097 eb3a
000003b0: 8cbb ae3b 15cf bfba b2b3 3ebb 6a0a 943a
000003c0: 3088 573b 5b5e 703b b863 b03b 0715 aa3b
000003d0: e34a 02bb b507 763b 7cda bc3b b889 9a3b
000003e0: 7e50 9f39 7874 473b 317a 71bb a6b0 81bb
000003f0: 3c7d 56bb 283b f7ba bc8f f5bb ce74 30bb
0.0036398983 0.0019999063 0.003191611 -0.0029704254 0.0041875895 0.0058398936 -0.0058933296 0.00426793
-0.00040568894 -0.0074426588 0.0061437176 0.0062884153 0.004225715 -0.0045654387 -0.0034441345 -0.0030416464
-0.001740808 0.0038877146 0.00562279 -0.0029073525 -0.0039691343 0.0011651975 -0.0031287873 -0.0032959639
0.0061404435 0.005830574 0.006987085 0.0027625435 0.0032786794 0.0021571163 4.311165e-05 0.0023272806
0.0038803017 0.0039020404 -0.0012453191 -0.004643831 0.0065166606 -0.003408248 0.0060418146 0.0022509745
0.004180305 0.005253976 0.0019604801 -0.0020392651 0.000100127596 0.007865476 -0.0022154115 -0.0037089868
-0.0003541657 0.0011230075 0.0012723074 -0.0041268584 0.0014818296 0.0013057607 -0.0017218627 0.003028302
-0.004973866 -0.004116215 -0.0022443677 -0.0037097356 0.0016228091 -0.0042442833 0.006763207 0.006000144
-0.0014370986 0.0043769777 -0.000258259 0.0057229437 -0.0026518418 -0.0033878204 0.0022830656 0.0022142853
0.0051349048 -0.0041509797 -0.004365119 -0.003676577 -0.0029255669 0.0059597893 -0.00040764923 0.004386239
-0.0035631475 -0.003358446 -0.003563868 -0.00035546205 0.0061011855 -0.004793746 -0.0015855947 -0.0038800584
-0.0016302933 -0.003040848 0.0041752798 -0.0045892987 0.002310504 0.0006773774 -0.00010264809 0.0005733523
-0.0020985152 -0.001215757 -0.0032464466 0.0008238356 -0.003263144 0.008457574 -0.00093980203 -0.0050145057
0.00610613 -0.002539769 0.0022098725 0.0046680267 -0.0038455417 -0.004134575 0.0027965775 -0.0038403408
-0.0025282705 -0.0017020175 -0.0035651317 0.007112895 0.0012809162 -0.0029473263 0.004824427 0.0066784667
0.0040705837 -0.0034597178 0.0046251263 0.0035154393 0.0050112153 -0.0025413146 -0.004774015 -0.0047796387
-0.0040885764 -0.0022311017 0.0050173486 0.008233121 -0.0022561827 -0.0003793088 -0.0048978324 -0.00032188432
0.0043681264 0.004702892 0.0044828383 0.0035117136 0.004635132 0.0039029927 0.004208684 0.0048908214
0.0053461334 -0.00033698083 0.0035657538 0.002609703 0.0052765063 -0.0036334745 -0.0029767915 0.0049011996
-0.0023532636 0.0011352196 0.004883437 -0.0004431066 0.003986334 -0.002248933 0.006588997 0.0001542052
0.0031849672 0.000583398 0.0013699608 -0.00607274 -0.0014874999 0.0039247978 -0.00095105794 -0.0012666363
-0.0026397652 -0.0032875768 0.0020389047 0.0049102064 -0.00038788986 0.003955999 -0.002583501 0.00033932857
0.004344564 -0.0015849847 -0.0044090045 0.0011278623 0.0036185286 -0.0026320133 0.0034576503 0.0061076344
0.0012282393 -0.0037893013 -0.006577606 -0.00209264 -0.004979332 -0.002043749 0.0035746072 0.0048900284
0.004772742 0.0015890237 -0.0035406807 0.0073052375 -0.0040586367 0.004832522 0.0037553813 -0.0043406333
-0.0016307562 -0.0028043156 0.0069737 0.004980107 0.0023442125 0.0047979425 0.002934858 0.005895412
-0.0029112909 -0.0013159949 0.008895119 -0.0018712849 0.0030299162 0.0014616513 -0.0014067944 0.0056454204
0.0020470086 -0.008309608 -0.00094508694 -0.0049082385 -0.0024601566 -0.0014175993 0.00841639 0.003784336
-0.0012404713 -0.0011888479 0.0017352027 -0.002459571 -0.0008757847 0.0017777451 0.003554235 0.0024017121
0.0013925137 0.0041469866 0.0062398505 0.0017974321 0.005332416 -0.0014633859 -0.0029098806 0.0011294608
0.003288757 0.0036677334 0.005382981 0.005190495 -0.0019881062 0.0037541215 0.00576335 0.0047161244
0.00030386815 0.003043441 -0.0036846513 -0.0039578257 -0.0032728454 -0.0018862234 -0.007493941 -0.002692509

network_body._body_endoder.seq_layers.4.weight f4 [256, 256]
00000000: 1534 81bd 4072 973b 30ea 66bc fa3d 343d
00000010: 0176 60bd 5d5b a8bb 3496 333d 6f40 9ebc
00000020: 8bbe 423c f56c ed3d f53d 123d 4374 b1bd
00000030: 74d0 24bd bf39 1b3c 5d61 0fbd ee0c 8bbd
00000040: cc1e ad3d 8b76 5dbd 08fe a7bc 7d73 8abd
00000050: dca1 6abd ac9b 93bd 9e56 3d3d ff73 bc3d
00000060: 7d88 b6bc 832d d03b ac34 60bc 8945 e13d
00000070: 0436 823b 7e3b 91bd 201f 13bc 76fe 03bd
00000080: 49a7 abbd f1c3 a43c 7cca 973d fcfa a2bb
00000090: da43 15bd 0c9c 5b3c a2eb 393e 1091 1e3b
000000a0: e2c1 83bd ee88 febc 1b2b ff3c c34b 82bc
000000b0: 8ff6 053c eac4 013d b69b 643d e074 803d
000000c0: 186f 213c 32ba 4cbd ec9d b8bc e633 053d
000000d0: 8940 083d 6781 05be 88a6 42bd f1c4 96bd
000000e0: f239 133d dce3 033d fb3d 2ebc d785 8d3d
000000f0: 6dac 31bd 405f 92bd 4eef cebc 4562 dfbd
00000100: d03e 99bb e0eb 28bd 9740 2dbd b0c9 6c3d
00000110: b7bf a3bd 707b bf3d 2207 a43b e3d7 05ba
00000120: f2d4 ecbc bcfe 60bd 725d d93c c32e 823d
00000130: 148a d2bd 06fc 883d 9c1a f9bc 2bf8 0cbd
00000140: ca08 a8bd abff a03c 1c91 033d 4f31 9abd
00000150: c4f5 133d 72fc e1bc 7965 b93d d7a7 72bc
00000160: 346a 11be de61 c2bc 7a26 d2bc ad2e 0dbd
00000170: db2e 643c a3ea 083e 248a 823d 77f1 843d
00000180: 247a f438 1a04 90bd 4dac 2abd e1d9 243d
00000190: 7683 e53c e4e7 21bd 0084 62bd d8eb febc
000001a0: 47b4 2b3c 048d 68bd 1cae a2bb 3f3c 293c
000001b0: aaa6 d6bb ef77 f13c 7234 5fbd e769 223d
000001c0: 6d23 803c b449 d83c 703f cb3d ffd4 2bbb
000001d0: 08d2 abbc 2764 b5bc 9b1e ffbb 8e65 60bd
000001e0: b4f8 553b 0d20 37bd b251 10bd f123 ecbd
000001f0: f228 813d 4073 b93d 83ef 00bd 4c48 493d
00000200: eed6 92bb 3d75 14bd d59d c93c 7b9f aabc
00000210: b61d a93d 8d5b 933d 3423 bcbd 9881 a3bd
00000220: 6604 80bd 68df 5cbd 2ad3 d6bc 1bac f4bc
00000230: 4c8a 65bd 70cf b7ba 7803 873d 614d 66bd
00000240: e94b 71bb 8adc c5bc 69e8 7e3b 090b eb3c
00000250: d285 b53c c205 01bd c1e7 b6bd ea26 b53c
00000260: 0056 24bb 24a7 d93d 78ec 8f3c a08b 39bd
00000270: aa04 7c3d ac9d 5dbd 4ebf 7a3c 2e43 553d
00000280: 9edf 7abd 56ab be3d 5d64 963c 6d14 c5bc
00000290: c416 4fbb 5272 053d 6e10 acbd 7416 70bd
000002a0: b958 ec3d d90f e93c 0a84 19bc a327 30bd
000002b0: 92db 863d 40e1 39bd 8159 25bc 2e99 b4bd
000002c0: a617 17bd cd5e 68bd 1003 c9bb 1f69 963a
000002d0: 73db 803d df6f 0f3e 5a7a 8cbc 3a99 d9b8
000002e0: 05cf 99bd d2d5 113d 906e d93a 1bae bfbd
000002f0: 3c0a ba3c 8c25 143d 405a 163d 80c2 813d
00000300: f6d8 a9bd c4a4 56bd 2930 9fbc 5b7a 8bbc
00000310: 5eea 10bd c889 7dbc 4577 77bd 5613 143c
00000320: 1329 a23d 74f5 e73d ceb6 a5bc 1266 2f3d
00000330: e3ba 913d 034b b33d 8e92 393d cedf 933d
00000340: b01b 85bd 08e4 fbbb c0e5 cd3d 07dd ad3d
00000350: ad74 4f38 ef7e 403d d53d a63d 69ed dfbd
00000360: 1193 703c f8e6 47bd 1d24 e13d 6d79 4d3d
00000370: a11c 683d 7e79 033e 637b 42bc 9dd1 6cbd
00000380: 812d ba3c d28d 53bd 856c dbbd 042e 9bbd
00000390: 2e91 013c 890b 97bd e47f 3bbd 81a6 0dbd
000003a0: 74a2 b33d cd01 9c3c f0ae da3d 0eaf 273e
000003b0: 23ef dd3c 3bd3 d3bc cd05 01bd c0fc 133d
000003c0: 8a5f b1bc 6f5f 11bd 1c3b 8cbd 00e0 883d
000003d0: 6a89 a4bc bf29 0d3c d744 043c 34be 463a
000003e0: bbca 92bd c6bf 843d fb7e 2fbd 550b e8bd
000003f0: 2bc5 d63d 305a bebc fd84 223d 477b da3c
-0.06308762 0.004621774 -0.014093921 0.044004418 -0.054800037 -0.0051378445 0.043844417 -0.019317834
0.011886249 0.115930475 0.035703618 -0.08664753 -0.04023786 0.009474217 -0.035004962 -0.067895755
0.0845314 -0.05406813 -0.020506874 -0.06760309 -0.057283267 -0.072074264 0.046225183 0.09201812
-0.02228188 0.0063530817 -0.013684433 0.10999591 0.0039737243 -0.07091425 -0.008979589 -0.032225095
-0.083815165 0.020112963 0.07411668 -0.0049737673 -0.03644166 0.013403904 0.18156293 0.002419535
-0.064334646 -0.031071153 0.031148484 -0.015905267 0.00817646 0.031681933 0.05581256 0.06272292
0.009853147 -0.049982257 -0.02253624 0.032520197 0.03326467 -0.13037644 -0.047522098 -0.07361782
0.035943933 0.032199726 -0.0106348945 0.069102935 -0.04337733 -0.07147074 -0.025260594 -0.10907415
-0.0046766773 -0.041240573 -0.042297926 0.05780953 -0.07995551 0.09349716 0.005005733 -0.0005105717
-0.028910134 -0.054930434 0.026533816 0.06356575 -0.102802426 0.06688695 -0.030408196 -0.03441636
-0.082048014 0.019653162 0.03212081 -0.07528936 0.036123052 -0.027586196 0.090525575 -0.014810524
-0.1420067 -0.023728307 -0.025653113 -0.03446834 0.013927187 0.13370757 0.063740045 0.06491368
0.00011657577 -0.07032032 -0.041668225 0.040246848 0.028016787 -0.03952779 -0.055301666 -0.031118318
0.010479993 -0.056775108 -0.004964603 0.010329305 -0.0065506296 0.029476134 -0.054493375 0.039651778
0.015641892 0.026402332 0.09924209 -0.0026219485 -0.020974174 -0.022142483 -0.007785631 -0.05478435
0.003264946 -0.0447083 -0.03523416 -0.11530293 0.06306638 0.09055185 -0.031478416 0.049141213
-0.004481188 -0.03624462 0.024611393 -0.020828 0.0825762 0.07195196 -0.09186402 -0.079837024
-0.06250839 -0.053923994 -0.026223738 -0.029867223 -0.056040093 -0.0014023613 0.065924585 -0.056226138
-0.0036818928 -0.024153013 0.0038895851 0.028691785 0.022158537 -0.03149963 -0.08930922 0.022113282
-0.0025075674 0.10627583 0.017568812 -0.045299172 0.061527885 -0.054105446 0.0153044 0.05206602
-0.061248414 0.093100235 0.018358404 -0.024057591 -0.0031599263 0.032579727 -0.08401571 -0.058615163
0.1154036 0.02844994 -0.0093698595 -0.04300655 0.065848485 -0.04538083 -0.01009214 -0.08818279
-0.036887787 -0.056731034 -0.0061343983 0.001147542 0.062918566 0.14007519 -0.017148186 -0.00010375907
-0.07510189 0.035604306 0.0016588736 -0.0935938 0.022709958 0.03616862 0.036707163 0.06335926
-0.08293335 -0.052403226 -0.019432144 -0.017026117 -0.03537976 -0.015474744 -0.06041648 0.009037813
0.079179905 0.11326113 -0.02022877 0.04282195 0.07115724 0.08754542 0.04530578 0.07220422
-0.064994216 -0.0076870956 0.10053587 0.08489423 4.946131e-05 0.046996053 0.08117262 -0.10933954
0.014683501 -0.048804253 0.10993216 0.05016463 0.056667928 0.12839314 -0.011870238 -0.05781709
0.022726776 -0.051648922 -0.10714058 -0.07577136 0.007908149 -0.07375247 -0.045776263 -0.03458262
0.0877122 0.019043827 0.10677898 0.16375372 0.027091568 -0.025857558 -0.031499673 0.036129713
-0.021652002 -0.035491403 -0.06847212 0.066833496 -0.020085055 0.00861591 0.008073053 0.0007581443
-0.07167574 0.064818904 -0.042845707 -0.113302864 0.104868256 -0.023236364 0.03967761 0.026670111

network_body.observation_encoder.processors.0.normalizer.running_mean f4 [68]
00000000: ec62 763e 8293 f23e 5127 923e c834 383f
00000010: 0cd2 c53e f80a ce3e 9724 583e c6eb 1d3f
00000020: 59a7 c23e acb2 c83e b9ef 683e 33ab 213f
00000030: 3b48 c03e ba25 e73e 71e6 303e f3a1 133f
00000040: 2bf2 bf3e 8407 bf3e 34c3 803e 5113 1c3f
00000050: 8f06 6f3e 493d 2c3f cc05 be3d 1e3b 1f3f
00000060: 57c9 943e 323a 133f 8543 083e e762 223f
00000070: 040e 4c3e 971b 3a3f 6420 913d 4547 1e3f
00000080: 1d66 8f3e 6b5e 193f 2f23 f03d dbcd 1d3f
00000090: 7d68 633e af93 323f 6c8a 903d a482 183f
000000a0: e6e9 a23e 2eaf 0d3f 6f12 f23d f182 133f
000000b0: c3f1 5c3e 88f5 243f e130 133d f43c 113f
000000c0: 110c ab3e 9875 043f 5376 773d 0179 073f
000000d0: 6fe2 2e3e 23c0 0c3f 3c47 aa3b 46e0 053f
000000e0: 394f 753e 24b6 f43e 01d8 fd3b 6091 013f
000000f0: ef6e 1a3e 1d41 fd3e 0998 c23b 6fa7 023f
00000100: ef6e 1a3e 1e41 fd3e 0998 c23b 6da7 023f
0.24061173 0.47378165 0.2854562 0.7195554 0.38636816 0.40242743 0.21107708 0.61687887
0.380183 0.39198816 0.22747697 0.63151854 0.37555107 0.4514597 0.17275406 0.5766899
0.37489447 0.3731042 0.25148928 0.60966974 0.23342346 0.67281014 0.092784494 0.6219958
0.2905986 0.57510674 0.13307007 0.63432163 0.19927222 0.7269835 0.07086256 0.618275
0.28007594 0.59909695 0.11725461 0.61642236 0.22207828 0.697566 0.07057652 0.5957434
0.31819075 0.5534543 0.11819922 0.57621676 0.215766 0.6443715 0.035935286 0.5673363
0.33407643 0.51741934 0.060415577 0.5291901 0.17078565 0.5498068 0.00519648 0.5229534
0.23956002 0.47795212 0.007746697 0.5061245 0.1508138 0.4946374 0.005938534 0.51036733
0.1508138 0.49463743 0.005938534 0.5103672

network_body.observation_encoder.processors.1.normalizer.running_mean f4 [6]
00000000: c67b d1c0 a6f7 d5bb 36ff 2fc1 1aff df40
00000010: b0bc 1241 e4b9 1643
-6.546359 -0.006529766 -10.999807 6.9998903 9.171066 150.72614
