Assets/Training/results/b_treasure_test80_Th64_Lr1e-4Bs4096Bs262144_Curiosity_EndDistanceReward/TreasureSearch/TreasureSearch-999938.onnx (onnx, 608683 bytes, 13 tensors)

65 f4 [68]
0.44760317 0.4998323 0.40713146 0.27416214 0.44799003 0.4999653 0.411521 0.28154287
0.47816423 0.49879938 0.3847178 0.30264118 0.49173826 0.4873021 0.4016702 0.32428572
0.4768339 0.4999585 0.35071123 0.3154038 0.49580067 0.49237236 0.35779434 0.32628283
0.4539581 0.48911753 0.30636534 0.30890396 0.4545787 0.49562377 0.34478143 0.30373082
0.4468561 0.4823243 0.2857933 0.30389884 0.42948285 0.4833522 0.3176619 0.28229588
0.45374733 0.48641416 0.2813775 0.29915255 0.42898113 0.49478722 0.21387112 0.27698392
0.4197869 0.48338845 0.21989718 0.28501457 0.4123693 0.48821855 0.052436054 0.21872103
0.3908731 0.49921545 0.06439644 0.22244029 0.39643773 0.48856658 0.05926042 0.19986923
0.39643696 0.48856658 0.05926042 0.1998693
00000000: 3e2c e53e 05ea ff3e 8973 d03e fb5e 8c3e
00000010: f35e e53e 74fb ff3e e1b2 d23e 6326 903e
00000020: f1d1 f43e a262 ff3e bbf9 c43e c9f3 9a3e
00000030: 1ec5 fb3e a97f f93e b7a7 cd3e c708 a63e
00000040: 9323 f43e 8ffa ff3e 6c90 b33e 9b7c a13e
00000050: 96d9 fd3e 3b18 fc3e d230 b73e 8b0e a73e
00000060: 326d e83e 9d6d fa3e ebdb 9c3e a928 9e3e
00000070: 8abe e83e 66c2 fd3e 3187 b03e 9b82 9b3e
00000080: 53ca e43e 36f3 f63e 8053 923e a198 9b3e
00000090: 2de5 db3e f179 f73e 95a4 a23e 1689 903e
000000a0: 9251 e83e 470b f93e b610 903e 862a 993e
000000b0: 6aa3 db3e c054 fd3e 0801 5b3e d6d0 8d3e
000000c0: 4fee d63e b17e f73e ba2c 613e 6eed 913e
000000d0: 1222 d33e c8f7 f93e 30c7 563d 68f8 5f3e
000000e0: 8520 c83e 2b99 ff3e 48e2 833d 63c7 633e
000000f0: e3f9 ca3e 6625 fa3e 0ebb 723d 85aa 4c3e
00000100: c9f9 ca3e 6625 fa3e 0ebb 723d 8aaa 4c3e

68 f4 [6]
2.2636366 5.09931 0.011050668 0.0070711556 3.8288198 131.45926
00000000: 6cdf 1040 8c2d a340 dc0d 353c 27b5 e73b
00000010: 620b 7540 9275 0343

action_model._continuous_distribution.log_sigma f4 [1, 2]
0.022924582 0.00045072517
00000000: 55cc bb3c 4f4f ec39

action_model._continuous_distribution.mu.bias f4 [2]
0.00036584394 0.0043191905
00000000: bece bf39 ff87 8d3b

action_model._continuous_distribution.mu.weight f4 [2, 256]
0.009785737 0.005564103 0.016886128 0.002403274 -0.016132196 -0.011343487 0.021619005 0.004611589
0.032449074 -0.0098262895 -0.012233499 0.030625962 -0.007179227 -0.008848347 0.006757326 0.03221149
-0.016173601 -0.012621034 -0.017688047 -0.0030567888 -0.007922363 0.026907757 -0.010048432 0.025128992
0.0012250447 0.04461611 0.018650707 0.032239437 -0.011289842 0.01253272 -0.0016695573 -0.011882204
-0.0010573758 -0.042846147 0.0031877682 0.008393612 -0.013799368 -0.029518325 -0.011643239 -0.014467455
0.001349249 0.011705198 -0.010938549 0.0036923084 -0.0047605485 -0.0029605618 0.0010794998 0.011610468
-5.1386087e-05 0.017046256 -0.01704724 -0.010061339 0.011174412 0.0046683666 -0.0013991882 0.0028800033
-0.0066719353 0.005854325 0.023262352 0.00488091 -0.0038449918 -0.022293294 -0.0019613018 0.048141517
-0.018975897 -0.01903635 -0.0149637805 0.027578533 -0.013098631 -0.033721946 -0.009696699 0.0076387506
-0.0040444313 0.0050067324 0.010976191 0.008812716 0.00698108 0.0008245674 -0.016497929 -0.019870454
0.012728313 0.011036506 0.004732151 0.0161825 0.0045901584 -0.01690874 -0.0067163007 0.008078041
0.01571569 0.024778012 -0.0069772666 0.013223937 0.0060563837 -0.014676356 0.013561403 0.007069444
0.019316858 -0.0030488241 -0.0022010326 -0.00015909721 -0.029330563 0.014695541 0.00947926 -0.010704441
-0.015275087 0.0126292305 0.0043402314 -0.01653949 -0.01728661 -0.00339961 -0.00076642475 0.006636511
0.03662422 -0.0049905865 -0.0052104634 0.005617322 -0.001552095 0.0059699155 -0.001982978 0.0034433668
-0.015011571 -0.0050096777 0.008005417 -0.017605731 0.0004288964 -4.2570162e-05 0.01892881 -0.0056812167
0.014064141 0.020769263 -0.00621429 0.005243332 0.018663503 0.01096068 0.0049626897 0.009290237
0.01174352 -0.003839867 0.0075009167 -0.006895578 -0.030581875 -0.0055217324 0.022239728 0.024109723
-0.011206662 -0.0028221705 0.024959793 -0.020748619 -0.008742631 -0.0014280751 0.018110441 0.006252217
0.013288625 -0.0061237654 -0.019082436 -0.00535147 -0.01869724 -0.006854691 0.014445026 0.007922795
0.02770679 0.00052945694 -0.0023941768 -0.009754639 0.0037687412 -0.013851296 0.018079238 0.016394736
-0.015684595 -0.007371958 -0.017820816 -0.013201558 -0.001830241 -0.03348368 0.019244565 0.011224676
-0.01777956 0.0027800219 0.016207889 -0.023838188 -0.0071308496 0.0035154733 -0.015893526 0.013477506
-0.0016552417 0.019041479 0.0034247155 -0.024427034 0.009910112 0.010882021 0.0148881385 0.0059603974
0.012206263 -0.012749078 0.009349377 -0.0025213547 -0.007620709 0.016007958 -0.006504771 0.015721673
-0.026150132 0.017610462 0.009671815 -0.00790687 -0.00076158176 -0.008514572 0.019082172 0.018988397
0.029637158 0.0018771249 0.00013970556 0.02173463 -0.0118150255 0.025325399 0.004624897 0.01451049
0.005913776 -0.00366843 -0.013846364 -0.020072164 0.0040253797 0.0039370074 0.02522886 0.0064008893
0.027857713 -0.015992027 0.003369084 -0.018207505 0.010380149 -0.011516199 -0.0025568223 0.009276366
0.005622171 0.010653557 0.023942197 0.001971383 -0.02294458 0.00854349 0.015713306 0.016983092
-0.012508387 -0.010397662 -0.002284922 0.017932188 -0.0038303873 0.016429668 -0.01920711 0.006281999
0.01528595 -0.0070964387 -0.025936265 0.015121102 0.034939453 -0.029862858 0.007513861 -0.014388794
00000000: 5b54 203c 1453 b63b c754 8a3c 3f80 1d3b
00000010: ab27 84bc 08da 39bc 571a b13c d01c 973b
00000020: 52e9 043d 72fe 20bc 046f 48bc 4ce3 fa3c
00000030: b93f ebbb a8f8 10bc 8f6c dd3b 32f0 033d
00000040: 807e 84bc 74c8 4ebc 86e6 90bc 6854 48bb
00000050: cccc 01bc a86d dc3c 2ea2 24bc 51db cd3c
00000060: ae91 a03a 62bf 363d 5ec9 983c 800d 043d
00000070: 08f9 38bc 0a56 4d3c 0cd5 daba 93ad 42bc
00000080: a597 8aba 717f 2fbd e0e9 503b 5c85 093c
00000090: bf16 62bc 6ad0 f1bc 49c3 3ebc e808 6dbc
000000a0: 49d9 b03a 29c7 3f3c 9a37 33bc a8fa 713b
000000b0: 60fe 9bbb fc05 42bb 017e 8d3a d539 3e3c
000000c0: 6487 57b8 97a4 8b3c a7a6 8bbc 50d8 24bc
000000d0: e214 373c 19f9 983b f764 b7ba 70be 3c3b
000000e0: 40a0 dabb a3d5 bf3b b090 be3c 0af0 9f3b
000000f0: 42fc 7bbb 6da0 b6bc 2f89 00bb 0a30 453d
00000100: 5773 9bbc 1ff2 9bbc a52a 75bc 60ec e13c
00000110: a49b 56bc 0620 0abd e7de 1ebc 7c4e fa3b
00000120: 2687 84bb 840f a43b 7bd5 333c 3663 103c
00000130: 8bc1 e43b c827 583a aa26 87bc 5dc7 a2bc
00000140: 6a8a 503c 76d2 343c 2910 9b3b 2a91 843c
00000150: 0a69 963b 3384 8abc 6a14 dcbb c259 043c
00000160: 31be 803c 42fb ca3c 8ea1 e4bb 36a9 583c
00000170: a174 c63b 1975 70bc a630 5e3c cba6 e73b
00000180: 633e 9e3c c8ce 47bb 333f 10bb 55d3 26b9
00000190: a646 f0bc 91c5 703c e64e 1b3c ae61 2fbc
000001a0: 5c44 7abc d5ea 4e3c 8038 8e3b d37d 87bc
000001b0: a69c 8dbc fecb 5ebb e5e9 48ba 1777 d93b
000001c0: 4703 163d 1388 a3bb 89bc aabb 8311 b83b
000001d0: ab6f cbba 489f c33b daf4 01bb 1caa 613b
000001e0: 18f3 75bc 3928 a4bb 2729 033c e539 90bc
000001f0: 80dd e039 5d8d 32b8 9710 9b3c 8029 babb
00000200: 486d 663c 4d24 aa3c 3ea1 cbbb 42d0 ab3b
00000210: 34e4 983c 6d94 333c 0f9e a23b 1436 183c
00000220: e567 403c 47a6 7bbb 40ca f53b 4df4 e1bb
00000230: d786 fabc a6ef b4bb 1730 b63c c181 c53c
00000240: 269c 37bc 2af4 38bb 7b78 cc3c 02f9 a9bc
00000250: 413d 0fbc 402e bbba 595c 943c 66df cc3b
00000260: 88b8 593c dea9 c8bb c552 9cbc 625b afbb
00000270: f42a 99bc 519d e0bb d5aa 6c3c 9cce 013c
00000280: 5af9 e23c 41cb 0a3a 9fe7 1cbb ecd1 1fbc
00000290: fcfc 763b 8cf0 62bc e91a 943c 414e 863c
000002a0: fb7c 80bc 7790 f1bb f6fc 91bc 594b 58bc
000002b0: b2e4 efba 2f26 09bd c7a6 9d3c b4e7 373c
000002c0: 71a6 91bc 0731 363b 68c6 843c 4e48 c3bc
000002d0: e7a9 e9bb db63 663b 2433 82bc c2d0 5c3c
000002e0: b2f4 d8ba e0fc 9b3c 3171 603b 341b c8bc
000002f0: 065e 223c 814a 323c 61ed 733c 704f c33b
00000300: c7fc 473c 82e1 50bc 212e 193c 503d 25bb
00000310: 24b7 f9bb 1f23 833c f925 d5bb bdca 803c
00000320: cd38 d6bc d143 903c 8876 1e3c d18b 01bc
00000330: e3a4 47ba b480 0bbc 3752 9c3c 8e8d 9b3c
00000340: a0c9 f23c dc09 f63a ed7d 1239 d30c b23c
00000350: cf93 41bc 3677 cf3c 738c 973b 68bd 6d3c
00000360: 59c8 c13b 0b6a 70bb dcdb 62bc 616e a4bc
00000370: 55e7 833b 0302 813b c1ac ce3c 8dbe d13b
00000380: dc35 e43c b601 83bc dacb 5c3b e827 95bc
00000390: 8011 2a3c 71ae 3cbc 5c90 27bb e6fb 173c
000003a0: 303a b83b 428c 2e3c 6d22 c43c 5232 013b
000003b0: 46f6 bbbc fff9 0b3c 31b9 803c 2020 8b3c
000003c0: faef 4cbc f55a 2abc a1be 15bb 86e6 923c
000003d0: 3c07 7bbb 8397 863c 3b58 9dbc 3ad9 cd3b
000003e0: ec71 7a3c 3e89 e8bb 4a78 d4bc 80be 773c
000003f0: ac1c 0f3d f4a2 f4bc d636 f63b fabe 6bbc

network_body._body_endoder.seq_layers.0.bias f4 [256]
0.0004548477 0.004827166 1.08566865e-05 0.003397668 0.0057149087 0.0062890514 0.008531482 -0.0023702127
-0.004652359 0.002116777 0.0020225937 0.00031936757 0.0073560504 -0.001970309 0.0036104165 0.00344089
6.0322956e-05 0.0034173233 -0.0014182557 -9.825827e-05 0.0037588263 0.0010551581 -6.509874e-05 0.00015183601
0.0040799105 -0.010343368 -0.004696037 -0.0037266219 0.00029834622 0.010351785 0.002893372 0.0074454555
0.0035278378 -0.0023179057 0.0015369904 0.005692977 0.0002954586 0.0026384087 -0.00025660373 0.004860927
-0.0015292352 -0.00013191692 0.0042413706 0.0020494135 -0.0090087885 0.001621889 -0.007285033 -0.0071642078
0.011782106 -0.0003125384 0.001559283 0.0037632308 0.00016573595 0.006700908 0.004872313 -0.0030325644
-0.0068962774 -0.0011811333 0.006480844 0.003976233 0.0049331337 -0.009676643 0.004717044 0.0015281684
0.004952501 0.0007221941 0.0018870098 -0.00058029906 -0.004478337 -0.002690008 -5.477244e-05 0.009069439
-0.0014392142 0.00419256 -0.0002598654 -0.0036973816 0.0013388736 -0.006822839 0.0034018923 -0.006268752
0.00059426064 0.004445332 0.002591446 0.002763376 -0.0035907459 0.008228664 0.0036376843 -0.0014426851
0.006862363 0.0059077363 0.0032323713 -0.005417553 0.0048219273 0.005238855 0.00433565 0.004744438
0.0037854018 0.006163608 0.0023016424 -0.0009785963 -0.0010548267 0.00036857635 0.009681444 0.007451755
-0.0022902482 0.007628338 0.004746278 0.0037107465 0.0057786643 0.00074296957 0.0032458836 -0.0005042623
0.004622228 -0.0075219967 -0.0009756041 0.009514973 -0.006839217 0.0014942706 0.002408775 0.0067137284
0.00028448654 0.004486262 0.00014951595 0.0034668273 -0.00036192284 0.004651151 0.003058669 -0.002385757
0.0013400819 0.007144966 -0.0061580483 0.0051148315 -0.00016301822 0.00036239406 0.0041309777 0.006630248
-0.0029950177 0.0030243758 -0.0013224559 0.008417188 0.00499538 0.0027249753 -0.00028593623 -0.0033063677
0.00092121604 -0.006987252 -0.00011177849 0.0054755183 0.0010085595 0.0040125316 -0.00043790392 0.0020273058
-0.0011421649 -0.003999494 0.006950317 0.010448513 -0.0036383101 0.008749094 -0.0010384787 -0.001192808
0.0029285399 0.0029837592 -0.0020462954 0.007049595 0.006415739 -0.0021347941 -0.00043249864 0.005249493
-0.006733909 0.0013673668 0.0040252428 0.0019077483 0.003073118 0.0053607267 0.0129457135 -0.0031227549
-0.00018537186 0.001698808 0.004666321 0.002304371 0.0048218076 0.006981766 0.0032407194 0.0012178336
0.004203027 0.009271775 0.006855343 2.8050303e-05 -0.0004877409 0.005424054 0.006125221 -0.0039084265
0.006346242 0.001849113 0.010007121 0.0035164142 0.0044372273 0.0035861009 0.008471051 0.007290421
-0.0054237475 0.0006947331 0.0010854604 -0.0007134105 -0.006958637 0.0073337387 -5.0953677e-06 -0.00044860505
0.010958901 0.008165523 -0.0018939999 0.0019318004 0.0024412775 0.012311983 -0.004470422 -0.0006094421
0.0037726478 -0.0018788328 0.0013816323 0.0041136728 0.0018058171 0.0007680605 -0.0017421985 -0.0011205167
0.006014495 0.0074352063 0.006900192 0.0043896614 -0.00084212254 0.005513328 0.0005378889 -0.00287939
-0.0032329827 0.008205078 -0.005117755 0.004667722 0.0029577455 -0.0048608445 0.002142414 0.0014801355
0.0009578033 0.002884885 0.0064683435 0.0042326287 0.0017672259 0.0071928427 -0.0008831516 -0.0040046717
0.0023537988 0.007001083 -0.0010511293 0.0020968053 0.0040007154 0.0039690603 -0.00079997873 0.008583517
00000000: a078 ee39 342d 9e3b 1d25 3637 69ab 5e3b
00000010: 2144 bb3b 6314 ce3b a1c7 0b3c 9255 1bbb
00000020: d172 98bb a0b9 0a3b 7e8d 043b ca70 a739
00000030: 060b f13b 4d20 01bb bd9c 6c3b 8e80 613b
00000040: 4803 7d38 2cf5 5f3b c4e4 b9ba 0210 ceb8
00000050: a456 763b 3b4d 8a3a 9f85 88b8 2b36 1f39
00000060: c5b0 853b 3b77 29bc 37e1 99bb 573a 74bb
00000070: 5a6b 9c39 899a 293c ba9e 3d3b 02f9 f33b
00000080: 4c33 673b 01e8 17bb d774 c93a 278c ba3b
00000090: c8e7 9a39 27e9 2c3b c588 86b9 6948 9f3b
000000a0: 9e70 c8ba 2e53 0ab9 32fb 8a3b 744f 063b
000000b0: 9999 13bc 9095 d43a 49b7 eebb bbc1 eabb
000000c0: bc09 413c 32dc a3b9 db60 cc3a 89a0 763b
000000d0: 68c9 2d39 4a93 db3b eca7 9f3b fdbd 46bb
000000e0: 2bfa e1bb 42d0 9aba 435d d43b 0f4b 823b
000000f0: 20a6 a13b c88a 1ebc 6f91 9a3b d34c c83a
00000100: 9748 a23b a051 3d3a 8b55 f73a 361f 18ba
00000110: 03bf 92bb d84a 30bb 76bb 65b8 fc97 143c
00000120: 04a4 bcba be61 893b 8b3e 88b9 c54f 72bb
00000130: 257d af3a 1f92 dfbb 48f2 5e3b 1a6a cdbb
00000140: 28c8 1b3a 26aa 913b 40d5 293b c219 353b
00000150: b852 6bbb 85d1 063c 3766 6e3b 7b18 bdba
00000160: acdd e03b af95 c13b 31d6 533b ba85 b1bb
00000170: 4201 9e3b b3aa ab3b 1112 8e3b 3b77 9b3b
00000180: 8114 783b 17f8 c93b 27d7 163b 3e44 80ba
00000190: 1c42 8aba 7b3d c139 eb9e 1e3c da2d f43b
000001a0: fd17 16bb 23f7 f93b aa86 9b3b ff2f 733b
000001b0: f35a bd3b d8c3 423a e4b8 543b 7830 04ba
000001c0: 0f76 973b 157b f6bb afbf 7fba b0e4 1b3c
000001d0: 831b e0bb 67db c33a 8adc 1d3b d6fe db3b
000001e0: 2327 9539 7e01 933b 62c7 1c39 b633 633b
000001f0: 76c0 bdb9 af68 983b f373 483b 5c5a 1cbb
00000200: b0a5 af3a 5220 ea3b 74c9 c9bb 519a a73b
00000210: dfef 2ab9 b5ff bd39 275d 873b 8d42 d93b
00000220: 0f48 44bb 9b34 463b 4256 adba 3fe8 093c
00000230: 49b0 a33b 8095 323b b6e9 95b9 a5af 58bb
00000240: c37d 713a 51f5 e4bb 9f6a eab8 fa6b b33b
00000250: a431 843a 8e7b 833b 7896 e5b9 8cdc 043b
00000260: b2b4 95ba 300e 83bb 7cbf e33b 3d30 2b3c
00000270: b770 6ebb 5c58 0f3c 901d 88ba ff57 9cba
00000280: bfec 3f3b 2c8b 433b 241b 06bb 4a00 e73b
00000290: 1f3b d23b e7e7 0bbb fcc0 e2b9 f003 ac3b
000002a0: 1fa8 dcbb 3739 b33a 2fe6 833b 690d fa3a
000002b0: 5d66 493b 09a9 af3b 421a 543c 22a7 4cbb
000002c0: 6160 42b9 8aaa de3a f0e7 983b ee04 173b
000002d0: 4100 9e3b 4cc7 e43b 4062 543b b79f 9f3a
000002e0: 8cb9 893b a5e8 173c c9a2 e03b 914d eb37
000002f0: 7ab7 ffb9 43bc b13b 14b6 c83b 4212 80bb
00000300: 23f4 cf3b f05d f23a e8f4 233c a473 663b
00000310: 2966 913b ca04 6b3b 2aca 0a3c 7ce4 ee3b
00000320: b1b9 b1bb c01e 363a 0246 8e3a 2b04 3bba
00000330: 4705 e4bb dc4f f03b e0f8 aab6 c032 ebb9
00000340: f68c 333c b0c8 053c 1740 f8ba 7734 fd3a
00000350: d7fd 1f3b 33b8 493c 9e7c 92bb f8c2 1fba
00000360: 873e 773b 2b43 f6ba e317 b53a fdcb 863b
00000370: 2bb1 ec3a ab57 493a 7b5a e4ba 4dde 92ba
00000380: 3e15 c53b 08a3 f33b 011b e23b 26d7 8f3b
00000390: e3c1 5cba 26a9 b43b 1d01 0d3a 26b4 3cbb
000003a0: 73e0 53bb 976e 063c d7b2 a7bb b1f3 983b
000003b0: bcd6 413b b847 9fbb be67 0c3b 1b01 c23a
000003c0: 1715 7b3a 5710 3d3b 66f4 d33b ddb1 8a3b
000003d0: 43a2 e73a f0b1 eb3b 4d83 67ba 9f39 83bb
000003e0: 3142 1a3b 5769 e53b 0cc6 89ba 8e6a 093b
000003f0: 6f18 833b e40e 823b aab5 51ba e1a1 0c3c

network_body._body_endoder.seq_layers.0.weight f4 [256, 74]
0.056470715 -0.17382292 -0.055374343 -0.09204081 0.020476492 -0.10553146 0.04207216 0.10121518
-0.23401031 -0.19313 -0.1481312 -0.19449821 0.11606368 -0.030062819 -0.11336206 0.046387274
0.20630787 0.050159503 0.01851711 0.067755334 -0.12450553 0.14718059 0.15871155 0.023344
0.052626282 0.007838597 0.2896478 -0.21262264 -0.17154646 0.13044524 0.028394975 -0.3816503
0.053587034 0.1628353 -0.16604832 0.008198154 0.06585129 0.034268554 0.016480142 0.097194746
0.19237278 0.06453865 0.032545958 0.077475205 0.11976011 -0.075954765 0.022100179 -0.13041736
0.088060334 -0.14399895 0.005842169 -0.17613088 0.0403604 0.072315596 -0.02090684 0.027687162
0.026361896 0.19866505 0.19665918 -0.1538242 -0.117228806 -0.06092595 -0.1445635 0.02926982
0.048202567 0.05627171 -0.19870302 -0.14741418 0.024968483 0.11921717 0.15344632 -0.15603933
-0.05652195 0.059637967 -0.149694 0.086451806 -0.09819359 -0.12761766 0.14369312 0.18818384
0.059954915 -0.17621331 -0.18370244 0.08293103 0.081845395 0.06505866 0.17968228 -0.09959804
-0.0022615152 -0.15518111 -0.025830977 0.23411812 -0.07377165 -0.011083342 -0.13398509 -0.080193974
-0.04089974 0.119262636 -0.04981345 0.143303 0.02496518 -0.0005080272 -0.2697635 0.09433438
-0.14629264 0.035785977 0.050046656 0.123569116 0.25338688 -0.08180551 0.06309904 -0.030448433
-0.16791344 -0.0038635929 0.03599678 0.1224662 -0.12547846 -0.04330599 -0.007555179 0.08009293
-0.08836192 0.09546018 -0.12013891 -0.06259971 0.014836944 0.21739322 0.11988423 0.043947317
-0.041322816 -0.15186088 0.25546142 -0.20819804 -0.10729034 -0.17304313 -0.20177722 -0.08115503
0.3101976 -0.13167937 -0.124256015 -0.10948977 -0.02046215 -0.04424347 0.12150997 -0.04646752
-0.11844258 -0.11145524 -0.08940457 -0.029637683 -0.17769682 0.10038309 0.037498932 0.100701556
0.18809001 -0.030402945 -0.023364415 0.048255373 -0.07534042 0.026896277 -0.035176553 0.07523771
-0.16036697 -0.08082707 0.06742553 -0.015080454 -0.07258084 -0.07744978 -0.0021522327 -0.0014789178
-0.05040165 -0.019029902 0.09088272 -0.06846465 0.06838946 -0.06273336 -0.051082343 0.0877567
0.10434776 0.17786734 -0.110051155 0.2323201 0.17985296 -0.10564836 0.12043582 0.029157985
0.043325208 0.021446155 0.07193277 0.0029986047 -0.1188041 -0.010565507 -0.10930736 0.3432507
0.17325796 -0.022011623 -0.031965222 0.13313906 -0.021783104 -0.1286914 0.0019390754 -0.035819788
-0.13653947 0.14740272 0.08118484 0.17201667 -0.08619047 -0.195506 0.13447453 0.00050876755
-0.045356374 -0.14725387 0.015052538 -0.05513018 0.12973492 -0.11566862 0.068057954 -0.0233409
-0.0053752055 0.1525108 -0.046277255 0.036374945 0.047731936 0.09360676 -0.2035566 0.010776982
0.0019036077 -0.045513216 0.06504803 -0.06081127 -0.04757073 0.13859034 -0.06173013 0.14242883
-0.032641366 0.035438985 0.103602394 0.017417865 0.056524582 0.08224638 0.05488137 -0.011990056
0.14643672 -0.11070304 0.10149116 0.0032628807 0.047954448 0.04189469 -0.17439193 0.019707656
-0.06585044 -0.02292128 0.012614283 -0.053417828 -0.06368489 0.10256235 -0.23223689 -0.12786289
00000000: d64d 673d a3fe 31be 35d0 62bd e47f bcbd
00000010: 51be a73c e120 d8bd db53 2c3d e749 cf3d
00000020: 66a0 6fbe dfc3 45be b5af 17be 8a2a 47be
00000030: cbb2 ed3d 4d46 f6bc 5e2a e8bd 9500 3e3d
00000040: 5f42 533e 0d74 4d3d 32b1 973c 4fc3 8a3d
00000050: c1fc febd 82b6 163e 4885 223e eb3b bf3c
00000060: a88e 573d 756d 003c b74c 943e c0b9 59be
00000070: e0a9 2fbe 7093 053e 949c e83c ab67 c3be
00000080: 147e 5b3d 4cbe 263e 9208 2abe 8d51 063c
00000090: 0bdd 863d 2f5d 0c3d 5d01 873c 0a0e c73d
000000a0: 5ffd 443e d72c 843d e94e 053d 52ab 9e3d
000000b0: ca44 f53d 2c8e 9bbd 6f0b b53c 218c 05be
000000c0: fa58 b43d 7674 13be aa6f bf3b a75b 34be
000000d0: f250 253d 331a 943d d244 abbc 30d0 e23c
000000e0: e7f4 d73c da6e 4b3e 0661 493e 1784 1dbe
000000f0: a815 f0bd 7d8d 79bd 7408 14be 43c7 ef3c
00000100: 0e70 453d 2a7d 663d ce78 4bbe bef3 16be
00000110: b48a cc3c 2228 f43d 0821 1d3e c6c8 1fbe
00000120: 8f83 67bd f146 743d 6249 19be a50d b13d
00000130: b919 c9bd 34ae 02be 4a24 133e 44b3 403e
00000140: 4993 753d 4371 34be 7e1c 3cbe bed7 a93d
00000150: 8f9e a73d 7a3d 853d a2fe 373e 0ffa cbbd
00000160: ee35 14bb cce7 1ebe 7c9b d3bc a9bc 6f3e
00000170: 9715 97bd e896 35bc 6333 09be bd3c a4bd
00000180: 7c86 27bd f83f f43d 3009 4cbd 06be 123e
00000190: c783 cc3c 212d 05ba 711e 8abe 6232 c13d
000001a0: bdcd 15be 5194 123d b9fd 4c3d ce11 fd3d
000001b0: edbb 813e a689 a7bd 123a 813d fe6e f9bc
000001c0: 80f1 2bbe 5534 7dbb 5c71 133d 8fcf fa3d
000001d0: 6d7d 00be 9f61 31bd 6f91 f7bb c307 a43d
000001e0: 18f7 b4bd a080 c33d 640b f6bd 4734 80bd
000001f0: a716 733c 549c 5e3e dd85 f53d 1a02 343d
00000200: 1d42 29bd 6b81 1bbe d7cb 823e de31 55be
00000210: 0abb dbbd 3832 31be b09e 4ebe 9c34 a6bd
00000220: 38d2 9e3e f5d6 06be f079 febd 2c3c e0bd
00000230: 3da0 a7bc a438 35bd 38da f83d ba54 3ebd
00000240: 0692 f2bd a542 e4bd be19 b7bd baca f2bc
00000250: 28f6 35be a695 cd3d 7b98 193d 9e3c ce3d
00000260: ab9a 403e 990f f9bc bb66 bfbc 6da7 453d
00000270: 144c 9abd 9555 dc3c 4a15 10bd 3a16 9a3d
00000280: 3d37 24be aa88 a5bd 6516 8a3d 0214 77bc
00000290: 43a5 94bd fe9d 9ebd 790c 0dbb 3fd8 c1ba
000002a0: f671 4ebd 99e4 9bbc b820 ba3d 3237 8cbd
000002b0: c60f 8c3d 597a 80bd b83b 51bd c9b9 b33d
000002c0: 47b4 d53d db22 363e 8062 e1bd 52e5 6d3e
000002d0: 602b 383e 2b5e d8bd 0ea7 f63d badc ee3c
000002e0: c675 313d d9af af3c 7d51 933d 3d84 443b
000002f0: 904f f3bd f31a 2dbc 8adc dfbd 8ebe af3e
00000300: 896a 313e b851 b4bc f7ed 02bd 9b55 083e
00000310: 7b72 b2bc aec7 03be 9328 fe3a c5b7 12bd
00000320: 01d1 0bbe bdf0 163e 3d44 a63d 2325 303e
00000330: a184 b0bd ba32 48be b1b3 093e d05e 053a
00000340: 9bc7 39bd b8c9 16be ec9e 763c 2fd0 61bd
00000350: 3bd9 043e abe3 ecbd f861 8b3d 6a35 bfbc
00000360: 7e22 b0bb cb2b 1c3e 388d 3dbd e5fd 143d
00000370: 9082 433d e7b4 bf3d 2471 50be f091 303c
00000380: 7a82 f93a 116c 3abd e737 853d 3d15 79bd
00000390: 87d9 42bd a0ea 0d3e bcd8 7cbd ddd8 113e
000003a0: f4b2 05bd 7828 113d 7e2d d43d e9af 8e3c
000003b0: 5286 673d ca70 a83d 4acb 603d f171 44bc
000003c0: 82f3 153e 47b8 e2bd 99da cf3d 0ed6 553b
000003d0: e26b 443d c499 2b3d cc93 32be f371 a13c
000003e0: 98dc 86bd 68c5 bbbc 23ac 4e3c a7cc 5abd
000003f0: 396d 82bd 360c d23d 82cf 6dbe 7dee 02be

network_body._body_endoder.seq_layers.2.bias f4 [256]
-0.008723212 0.002071023 -0.0031994968 -0.0011692188 -0.002261019 -0.002562361 0.0010854194 -0.0008861117
0.0056937025 0.005498999 9.496618e-05 0.0034142684 0.0034362974 -0.0038418695 -0.001463107 0.0021892833
-0.0006923968 0.0050061145 -0.007165785 -0.00033236982 -0.0021613545 -0.0021845594 0.002824621 -0.0019030637
0.0031388928 0.00022730646 0.0029059113 -0.0042470787 0.0007594882 0.0048637292 0.008195742 0.0014181004
0.0033082233 0.009005602 0.004493234 0.0032621345 0.0024428363 0.0069485153 -0.0013296589 -0.0033887941
-0.0015147778 -0.0047567342 -0.0037073942 -0.0022191752 0.0026105237 -0.0036268265 -0.002545665 0.0016358023
0.005597499 -0.0037039001 0.0055819214 0.00029911005 -0.0031865542 0.0059395493 0.0033291385 0.0009937345
-0.0044145347 -0.004636222 0.0075347796 -0.0019048265 0.0044759307 0.007753426 -0.005229317 0.0037059707
0.005135108 -0.00093630276 -0.0015721312 -0.002094188 0.0042719333 -0.00102935 0.0043883165 -0.0044370806
0.0014937886 0.0063444423 -0.0041718283 0.0075197984 -0.0045670983 -0.0073874365 0.006309474 -0.0011016899
0.00017676047 -0.004336016 0.0007223187 0.0019149352 0.00496779 0.007901016 0.005539334 -0.0004119858
-0.0037632931 0.0091665955 0.009305562 0.00070201146 0.0002860224 0.0015244556 -0.0027644252 -0.002166055
0.0024809237 0.006979909 0.006545726 0.0010010701 0.0015437618 0.0041369214 0.0075203665 -0.0014472243
0.0036105479 0.0013245686 0.0036923045 0.0034099007 0.0017713745 -0.0006862016 0.0060258587 0.0017149608
0.003898815 0.005888689 0.0063689537 0.0011583518 0.009790847 -0.0045724157 -0.0062365686 0.0031627933
0.0038863358 0.00072257814 0.006446732 0.0033361472 0.004465945 -0.0024474 -0.0021854274 -0.0018440459
-0.0042726314 -0.0085510835 0.0051723616 0.0007830568 0.006523677 0.0030696644 0.0055041164 -0.0023859653
0.0016195705 0.0019651086 0.0037874791 -0.005531926 -0.004687407 0.0043917554 -0.0011405802 1.2795157e-05
-0.0062433397 0.008223917 0.0019360044 3.859638e-05 0.00199678 0.0058484147 -0.005554311 -0.004159956
0.0036659597 -0.0011728035 0.0065873787 -0.0019301384 -0.00568929 -0.00064652134 0.00019130982 0.003973519
-0.0009985062 0.0017087322 -0.00088389247 -0.0054664062 -0.006005672 0.0077965795 0.005094711 0.007699384
0.0040423367 0.0020716689 -0.0024352672 0.0027095147 0.0051973937 0.0058754263 0.0023409603 -0.0020042907
-0.0019617414 0.0019042094 -0.00034807393 -0.006481842 0.0034905637 0.005747716 0.0016231049 -0.0050328653
-0.0028820625 0.001256689 -0.0013302786 0.004461846 -0.0069629475 -0.00033662532 -0.0005532035 0.004876002
-0.0028767628 0.007872802 -0.0014444591 -0.000529826 -0.0011090119 -0.0042195725 0.0029345725 -0.0010250494
-0.0030744127 0.0067803743 -0.0026998555 -0.0020707748 -0.0021970943 0.0064515728 0.0065266886 0.003420312
0.0089052105 0.0046652346 0.0042848554 0.0022061467 -0.0022285995 0.00051101146 -0.0056003737 8.139442e-05
-0.0021596751 -0.003981455 0.0015879491 0.004471699 0.0064614513 0.005561601 0.0029000537 0.004680745
0.003983284 0.0012854539 0.006542623 0.0063414867 0.006308548 -0.0050873826 -0.0024860736 0.0037331507
0.0041536833 0.00517527 0.0012504257 0.00481001 0.0006439335 0.0008805152 0.0045241513 -0.0059496774
0.0057519376 0.00060595735 0.0012019629 -0.005940004 0.0038857085 0.0020374898 0.0010687504 0.0007909876
-0.0033093523 -0.0048205303 0.0006996706 0.005818536 0.004015183 -0.0040687406 -0.002825452 0.004547554
00000000: ceeb 0ebc 00ba 073b a6ae 51bb 7940 99ba
00000010: 9b2d 14bb 49ed 27bb a244 8e3a f349 68ba
00000020: 3d92 ba3b f230 b43b 9428 c738 ebc1 5f3b
00000030: 8133 613b e0c7 7bbb b9c5 bfba 147a 0f3b
00000040: f681 35ba 550a a43b f6ce eabb ec41 aeb9
00000050: 83a5 0dbb d32a 0fbb 471d 393b 3970 f9ba
00000060: e2b5 4d3b 1d59 6e39 1a71 3e3b 142b 8bbb
00000070: 6418 473a eb5f 9f3b 6f47 063c 8edf b93a
00000080: c7ce 583b 3c8c 133c fb3b 933b 89c9 553b
00000090: fe17 203b 5fb0 e33b f347 aeba 8816 5ebb
000000a0: 828b c6ba 61de 9bbb c1f7 72bb 956f 11bb
000000b0: 5215 2b3b 0db0 6dbb 2cd5 26bb 6b68 d63a
000000c0: 3a6b b73b 22bd 72bb 8de8 b63b dfd1 9c39
000000d0: 82d5 50bb 8da0 c23b ad2d 5a3b 3240 823a
000000e0: cda7 90bb 73eb 97bb 50e6 f63b 5fab f9ba
000000f0: d4aa 923b 7410 fe3b b15a abbb dfdf 723b
00000100: 6844 a83b 3772 75ba f80f ceba a53e 09bb
00000110: 93fb 8b3b 41eb 86ba decb 8f3b ee64 91bb
00000120: 3acb c33a 0ae5 cf3b d5b3 88bb a468 f63b
00000130: 99a7 95bb 4f12 f2bb b4bf ce3b 9466 90ba
00000140: c758 3939 2315 8ebb fd59 3d3a 90fe fa3a
00000150: d8c8 a23b 4373 013c 4d83 b53b ccff d7b9
00000160: 95a1 76bb 7d2f 163c 5b76 183c 3107 383a
00000170: 47f5 9539 3ed0 c73a 5c2b 35bb 5ff4 0dbb
00000180: fe96 223b b8b7 e43b 887d d63b 5736 833a
00000190: 0d58 ca3a 038f 873b 686d f63b cab0 bdba
000001a0: f19e 6c3b 269d ad3a 97fa 713b a478 5f3b
000001b0: 772d e83a 36e2 33ba 9174 c53b 89c8 e03a
000001c0: 4383 7f3b e7f5 c03b a8b2 d03b d6d3 973a
000001d0: ca69 203c 34d4 95bb 215c ccbb de46 4f3b
000001e0: e5b1 7e3b 666b 3d3a 1c3f d33b 43a3 5a3b
000001f0: 1057 923b 8f64 20bb 6339 0fbb eab3 f1ba
00000200: 6e01 8cbb d819 0cbc ea7c a93b 0d46 4d3a
00000210: 92c4 d53b 6c2c 493b e05b b43b db5d 1cbb
00000220: c547 d43a 0dc9 003b 5b37 783b 2945 b5bb
00000230: d298 99bb b7e8 8f3b 857f 95ba c8aa 5637
00000240: ee94 ccbb 9cbd 063c 87c1 fd3a 8ce2 2138
00000250: 69dc 023b 0fa4 bf3b f000 b6bb 3d50 88bb
00000260: 9940 703b c1b8 99ba f0da d73b b3fc fcba
00000270: 396d babb 507b 29ba 579a 4839 4b34 823b
00000280: 4fe0 82ba 8af7 df3a 05b5 67ba 8a1f b3bb
00000290: 3acb c4bb 737a ff3b 89f1 a63b 1d4b fc3b
000002a0: 9475 843b d6c4 073b 0199 1fbb 1d92 313b
000002b0: e64e aa3b a686 c03b cc6a 193b 6b5a 03bb
000002c0: 8f90 00bb aa96 f93a b17d b6b9 a265 d4bb
000002d0: f1c1 643b 5657 bc3b 5dbe d43a bcea a4bb
000002e0: fce0 3cbb 7cb7 a43a be5c aeba ad34 923b
000002f0: 7029 e4bb 167d b0b9 dc04 11ba dfc6 9f3b
00000300: 1288 3cbb edfc 003c 0154 bdba 05e4 0aba
00000310: 445c 91ba 5744 8abb f551 403b f35a 86ba
00000320: 167c 49bb e72d de3b 0ff0 30bb d6b5 07bb
00000330: 20fd 0fbb b767 d33b d5dd d53b 5027 603b
00000340: 29e7 113c d3de 983b f967 8c3b 0095 103b
00000350: b20d 12bb 66f5 053a 5783 b7bb 4cb2 aa38
00000360: 5689 0dbb de76 82bb bb22 d03a 5487 923b
00000370: 95ba d33b 173e b63b d40e 3e3b ef60 993b
00000380: 3586 823b ad7c a83a 8063 d63b 3fcc cf3b
00000390: f0b7 ce3b 0fb4 a6bb 65ed 22bb e0a7 743b
000003a0: 9f1b 883b 5095 a93b 53e5 a33a 4a9d 9d3b
000003b0: a5cd 283a 60d2 663a 553f 943b 83f5 c2bb
000003c0: c07a bc3b 1cd9 1e3a 2f8b 9d3a 5da4 c2bb
000003d0: 5fa7 7e3b 6887 053b 5015 8c3a 475a 4f3a
000003e0: b8e1 58bb 8af5 9dbb 196a 373a 6ba9 be3b
000003f0: cc91 833b 1253 85bb 382b 39bb a603 953b

network_body._body_endoder.seq_layers.2.weight f4 [256, 256]
0.076438405 -0.07330922 -0.013751074 -0.046070904 0.012414379 0.07679763 -0.0127866 -0.033051867
-0.0507193 0.031786658 -0.028830558 0.10453568 0.043644946 -0.015385307 -0.008168183 0.062558815
-0.0042892736 -0.045329653 0.13247992 0.013890899 0.0060119377 -0.14365184 0.098900646 -0.027902085
0.0047746697 0.07408099 -0.049199928 -0.015065828 0.038697407 0.029044995 0.00899404 -0.04736314
-0.03468352 -0.033444554 0.032724556 -0.019278903 -0.07901746 0.04173741 0.070797615 -0.009121012
0.013135944 -0.028738836 -0.001683747 0.013675064 -0.07628427 0.09074627 -0.068577126 -0.059557535
0.13191724 -0.086294346 -0.04726813 -0.0067181163 -0.021511888 -0.020787632 -0.09771688 -0.08557891
-0.12305069 -0.0010965111 -0.08010943 0.022702025 0.095314756 0.10383555 -0.014169755 0.07644625
-0.037333734 0.063403115 -0.08602974 -0.00037141776 0.020321643 0.087279126 0.02737914 0.014278474
0.057034485 -0.076375626 -0.1013673 0.034572296 -0.081985354 -0.047932625 -0.021763952 -0.0070720064
0.040178053 0.03477644 0.086537026 -0.039482042 0.030687172 0.03263933 0.009229356 -0.010750639
0.023200154 -0.020397348 0.062445458 -0.087012626 0.0017819741 -0.08450721 0.07830294 -0.035180483
0.029823745 -0.05239695 0.053601023 0.0069875885 -0.025043411 -0.0002032357 -0.07257341 0.07819485
0.05474597 -0.09125078 -0.025689159 0.027917715 -0.10667661 -0.010823373 -0.016752131 0.010347118
0.065916955 -0.1210361 0.08386175 0.0007820202 -0.01564989 0.014068904 -0.01047901 -0.005962915
-0.12265845 -0.053263098 0.05983849 -0.096409276 -0.04034329 0.032409098 -0.056763478 -0.061205
-0.024850817 0.0061658476 -0.104158506 0.025343036 -0.002878756 -0.00933266 0.0985854 -0.025427131
-0.10488373 -0.11618136 -0.10355346 -0.15836175 0.052559517 0.0038490195 0.09432286 0.05114094
0.07209504 -0.02014464 0.06997452 0.064701416 -0.018911934 0.034722578 0.045251526 -0.03634051
-0.02666886 -0.105406344 0.03737172 -0.11292815 -0.008487336 0.039737582 0.12100409 -0.11253285
-0.10009348 -6.595675e-05 -0.031269692 -0.09643233 -0.0296117 -0.040453196 0.0041856593 -0.011433037
-0.10832653 0.07527893 -0.008758561 0.09980384 -0.056393445 0.012184593 -0.03386012 -0.02765956
-0.04074732 -0.09625735 -0.01719333 0.10034666 0.0912517 -0.0596846 0.08738428 0.023892207
0.023732431 0.06755452 -0.0047328677 0.008475591 0.018949896 0.017961372 0.004122808 -0.011769661
-0.057807308 -0.1303817 0.011141748 0.043113645 -0.055642717 -0.048921596 -0.023484541 0.05742818
-0.028234245 0.07321706 0.072568476 0.1363151 -0.027749708 0.022072028 0.09786579 0.0036746792
-0.014284665 0.019971171 0.006659243 0.06914074 -0.038504206 0.030725257 -0.08227381 -0.0033348955
0.08790763 -0.0431233 0.057509378 0.06364112 -0.030978475 -0.06513761 -0.015929593 -0.053211633
0.019508243 0.030670803 0.036278274 -0.06622148 -0.043495554 0.0028811293 0.043577425 0.071864866
-0.055595785 -0.044562187 0.00044902676 -0.058963712 0.029071486 -0.11370477 -0.011231648 -0.052360587
-0.09179772 0.0018918386 -0.05440169 0.035391048 -0.004047778 0.024974724 -0.043884832 -0.029424991
-0.058452338 0.0133577185 0.15967053 -0.062743716 -0.056036092 -0.015602169 -0.020996021 0.0724778
00000000: bd8b 9c3d 2523 96bd 2f4c 61bc d8b4 3cbd
00000010: ae65 4b3c 1348 9d3d e37e 51bc 6561 07bd
00000020: 0abf 4fbd ba32 023d 102e ecbc cd16 d63d
00000030: 0bc5 323d a812 7cbc d8d3 05bc d61e 803d
00000040: 098d 8cbb 96ab 39bd d1a8 073e a796 633c
00000050: caff c43b 7819 13be 6c8c ca3d ea92 e4bc
00000060: d574 9c3b c6b7 973d dd85 49bd aad6 76bc
00000070: 2c81 1e3d c5ef ed3c bd5b 133c daff 41bd
00000080: 4f10 0ebd 28fd 08bd 2f0a 063d caee 9dbc
00000090: e8d3 a1bd d9f4 2a3d 57fe 903d 4c70 15bc
000000a0: 2438 573c b56d ebbc 2db1 dcba 600d 603c
000000b0: ed3a 9cbd 2ed9 b93d 2a72 8cbd 9af2 73bd
000000c0: 5015 073e 17bb b0bd 3a9c 41bd a523 dcbb
000000d0: b339 b0bc d34a aabc ca1f c8bd ff43 afbd
000000e0: 0002 fcbd cfb8 8fba 6a10 a4bd 99f9 b93c
000000f0: 6234 c33d bca7 d43d 4328 68bc da8f 9c3d
00000100: 42eb 18bd 7ed9 813d 5c30 b0bd d9ba c2b9
00000110: 9379 a63c 66bf b23d 384a e03c 43f0 693c
00000120: fe9c 693d d36a 9cbd a999 cfbd ae9b 0d3d
00000130: f0e7 a7bd 0055 44bd 514a b2bc 4abc e7bb
00000140: be91 243d be71 0e3d 533a b13d ecb7 21bd
00000150: aa63 fb3c d1b0 053d ba36 173c 7323 30bc
00000160: 400e be3c 5718 a7bc cfc6 7f3d ad33 b2bd
00000170: 2191 e93a 1e12 adbd 4b5d a03d 6919 10bd
00000180: ed50 f43c 2f9e 56bd bf8c 5b3d 24f8 e43b
00000190: d727 cdbc ab1b 55b9 5ea1 94bd 9f24 a03d
000001a0: 4f3d 603d b0e1 babd 1272 d2bc b1b3 e43c
000001b0: 4479 dabd 8454 31bc c43b 89bc f586 293c
000001c0: 78ff 863d c6e1 f7bd b6bf ab3d 7d00 4d3a
000001d0: 3334 80bc 4381 663c 27b0 2bbc 8e64 c3bb
000001e0: 5a34 fbbd 682a 5abd 3419 753d 3a72 c5bd
000001f0: 013f 25bd 67bf 043d d280 68bd 18b2 7abd
00000200: f193 cbbc e10a ca3b 0e51 d5bd 339c cf3c
00000210: 83a9 3cbb 03e8 18bc 24e7 c93d 8f4c d0bc
00000220: 48cd d6bd 7ef0 edbd d613 d4bd 9529 22be
00000230: a648 573d d53f 7c3b 582c c13d 2a79 513d
00000240: 90a6 933d 5f06 a5bc cd4e 8f3d 2d82 843d
00000250: 33ed 9abc 4339 0e3d aa59 393d c9d9 14bd
00000260: a778 dabc 48df d7bd 1713 193d e046 e7bd
00000270: 780e 0bbc e0c3 223d fed0 f73d 9f77 e6bd
00000280: cffd ccbd 4352 8ab8 a614 00bd 507e c5bd
00000290: 3c94 f2bc 40b2 25bd db27 893b a251 3bbc
000002a0: 4dda ddbd d72b 9a3d 1180 0fbc f565 cc3d
000002b0: d0fc 66bd e3a1 473c e9b0 0abd 4d96 e2bc
000002c0: a9e6 26bd 9322 c5bd 07d9 8cbc 8d82 cd3d
000002d0: 2ce2 ba3d d777 74bd 88f6 b23d 97b9 c33c
000002e0: 846a c23c 065a 8a3d 2c16 9bbb 35dd 0a3c
000002f0: d03c 9b3c ba23 933c 9f18 873b 89d5 40bc
00000300: 5bc7 6cbd c882 05be e18b 363c ef97 303d
00000310: 9ee9 63bd 0362 48bd a762 c0bc d039 6b3d
00000320: 814b e7bc d3f2 953d c89e 943d 3096 0b3e
00000330: 5b53 e3bc 66d0 b43c dc6d c83d e3d2 703b
00000340: 3a0a 6abc 959a a33c c735 da3b a999 8d3d
00000350: 96b6 1dbd 89b3 fb3c 2c7f a8bd 438e 5abb
00000360: ea08 b43d 0fa2 30bd f48e 6b3d 4756 823d
00000370: 92c6 fdbc de66 85bd c77e 82bc 71f4 59bd
00000380: c0cf 9f3c 5641 fb3c 8798 143d 219f 87bd
00000390: 6528 32bd 54d1 3c3b 3e7e 323d e32d 933d
000003a0: 68b8 63bd d786 36bd 5a6b eb39 ef83 71bd
000003b0: 5327 ee3c 0cde e8bd f204 38bc 0e78 56bd
000003c0: 7100 bcbd 92f7 f73a 4ed4 5ebd 34f6 103d
000003d0: 39a3 84bb cb97 cc3c 95c0 33bd ae0c f1bc
000003e0: b86b 6fbd 55da 5a3c ac80 233e c77f 80bd
000003f0: 1a86 65bd 3da0 7fbc d9ff abbc 3e6f 943d

network_body._body_endoder.seq_layers.4.bias f4 [256]
0.0037277185 0.005263189 0.0067294654 0.0039317417 -0.00080319046 0.003471161 -0.0020938711 -0.0011059208
-0.0011599492 0.0029065255 -0.00024885367 0.0020389012 0.0047875135 0.005545204 0.00093280955 0.0052331625
7.001403e-05 0.0018499366 0.0047387513 -0.0050881156 -0.003916609 0.0021512948 0.004599809 0.008764587
0.0023901947 0.0045973896 -0.0039602225 0.0031326932 -0.0015826713 -0.001077637 0.0025473032 0.0041006557
-0.0038274152 0.0052211536 0.004293583 0.0037302787 -0.00080012775 0.0019702418 0.00042512923 -0.0019317977
-0.0038354003 0.0044432245 -0.0024928865 -0.0022791815 0.007551432 -0.0044183917 -0.003809157 -0.0029128406
-0.0044068894 0.002466483 0.0049219974 0.0043833433 0.0035586888 -0.0046909223 -0.004242976 -0.0050078104
-0.0012791973 0.0042246045 -0.0015103688 -0.0040319124 0.0055261045 0.0023341787 0.0016799005 0.0062475842
0.002610607 -0.003593452 -0.001644217 -0.001584422 -0.0033453263 -0.0022386063 0.0056370883 0.0045306426
0.004784563 -0.003625198 -0.002126731 -0.0025507945 -0.0041066883 0.003841782 -0.002552354 0.0024382013
-0.0010055873 0.0026237362 -0.0044629145 0.003397133 0.003752238 -0.0009279135 -0.0027624203 -0.0041948776
0.003947253 2.4358855e-05 0.004638906 0.0038578901 0.0026077316 -0.0018806817 -0.003443808 -0.00408138
-0.0024759548 0.0046957205 0.00510695 -0.0047858655 0.002745878 -0.0020770624 -0.0032605461 -0.0013055415
-0.001482242 0.004295796 -0.0012508269 0.0015168806 0.0027912268 0.0026127296 -0.004417762 -0.0039712205
0.0049134945 -0.002435678 -0.0034220684 -0.0038490205 -0.00041474955 -0.0038125322 0.0036574833 -0.0042219195
0.0011523687 0.0033205606 -0.0017477018 0.0050228527 -0.00029290398 -0.0037949535 0.007201875 0.004374348
-0.00087794097 -0.00032009743 -0.0005863557 -0.0032065678 -0.0026340664 0.0053691915 -0.0031621032 0.0014094658
-0.0020874343 -0.0024434244 -0.00054769905 -0.0038100407 0.0039919405 0.0033436883 0.0054029706 0.0038179376
0.0030589148 -0.0028204522 0.002265122 0.0027473944 0.0022022943 -0.004617992 0.00255485 -0.0053991163
-0.0036632118 -0.0041986005 0.00439224 0.0045084935 -0.0026662597 0.004140869 -0.0024622707 -0.002748224
0.0024654593 0.006200736 -0.0031649184 0.0041141734 -0.003643179 0.004227138 -0.0032819062 0.005372257
0.0006425905 -0.003339432 -0.00052474544 0.0034618252 0.0028643815 0.003986273 0.0029004007 -0.0031438388
0.0046524596 -0.00055538624 0.000573064 0.0050084027 0.002922653 0.00524269 0.0027668169 0.0021099444
-0.00349036 0.0041678464 -0.002417501 0.0021794434 -0.002032161 0.0018379856 0.004362992 -0.0015807367
-0.0028988738 0.0040927404 0.002513687 0.0043911366 0.003690591 -0.0009427347 -0.00027877322 0.0015198122
0.0039236075 -0.002742707 0.004821247 -0.0016135976 -0.0037917574 0.0043055136 0.0049781776 0.0018991041
-0.0023762342 -0.0024189753 -0.004805689 -0.00050293613 0.005421553 -0.0009015219 -0.004056392 0.0066473945
-0.0038623258 -0.004549682 -0.0011525955 0.004577505 0.0041783764 0.00406571 0.002781887 0.0056520035
0.0043611 -0.0009883665 -0.00506866 -0.0030115105 0.0068619214 -0.0025682072 -0.0049780468 0.0034003542
0.004960368 -0.003673644 0.00573872 -0.004181655 -0.0014797997 0.0012533078 0.0028686821 0.0056627467
-0.0020442116 -0.0020742158 -0.004298431 -0.00013475961 0.0036003734 -0.003244469 -0.0029616768 -0.006055522
0.0039022826 0.005019378 -0.00019827826 -0.0017904891 -0.0013909922 0.0062387963 0.005245105 -0.0034640443
00000000: bd4c 743b d476 ac3b d982 dc3b d7d5 803b
00000010: 338d 52ba 6b7c 633b 5439 09bb 8bf4 90ba
00000020: 7009 98ba 687b 3e3b 9378 82b9 169f 053b
00000030: 93e0 9c3b 8bb4 b53b ca87 743a f37a ab3b
00000040: 7fd4 9238 9279 f23a 8747 9b3b 35ba a6bb
00000050: e656 80bb bdfc 0c3b ffb9 963b 5899 0f3c
00000060: d0a4 1c3b b3a5 963b c1c4 81bb df4d 4d3b
00000070: a371 cfba 7f3f 8dba a8f0 263b cb5e 863b
00000080: 5fd5 7abb 3616 ab3b 2fb1 8c3b b177 743b
00000090: aabf 51ba 2c1f 013b e1e3 de39 6034 fdba
000000a0: 575b 7bbb 7898 913b b25f 23bb 525e 15bb
000000b0: 0172 f73b 28c8 90bb 0da3 79bb 5be5 3ebb
000000c0: ab67 90bb b8a4 213b b548 a13b 26a2 8f3b
000000d0: e438 693b 4fb6 99bb aa08 8bbb 8f18 a4bb
000000e0: bdaa a7ba 8d6e 8a3b 91f7 c5ba 221e 84bb
000000f0: 5314 b53b 05f9 183b 1b30 dc3a 89b8 cc3b
00000100: b816 2b3b 1f80 6bbb c482 d7ba 61ac cfba
00000110: 433d 5bbb 95b5 12bb 53b7 b83b c975 943b
00000120: d3c7 9c3b bb94 6dbb a060 0bbb 3b2b 27bb
00000130: 6691 86bb 68c6 7b3b 6545 27bb 3bca 1f3b
00000140: e9cd 83ba fdf2 2b3b a43d 92bb 6fa2 5e3b
00000150: 1be8 753b 393f 73ba b909 35bb 2f75 89bb
00000160: f557 813b 3e56 cc37 f701 983b a8d4 7c3b
00000170: 7ae6 2a3b 3581 f6ba 83b1 61bb 19bd 85bb
00000180: a143 22bb 8fde 993b 3458 a73b c0d2 9cbb
00000190: 30f4 333b 531f 08bb e3ae 55bb b41e abba
000001a0: ca47 c2ba c0c3 8c3b c9f2 a3ba 11d2 c63a
000001b0: 04ed 363b 543a 2b3b e0c2 90bb 0321 82bb
000001c0: 6101 a13b e59f 1fbb c844 60bb d93f 7cbb
000001d0: be72 d9b9 addb 79bb 63b2 6f3b 0758 8abb
000001e0: 140b 973a c39d 593b 2413 e5ba be96 a43b
000001f0: e890 99b9 c1b4 78bb b5fd eb3b b156 8f3b
00000200: 9f25 66ba c0d2 a7b9 aab5 19ba 4825 52bb
00000210: 4da0 2cbb 0bf0 af3b 4a3b 4fbb d3bd b83a
00000220: 56cd 08bb dc21 20bb 7693 0fba e0b1 79bb
00000230: d3ce 823b c821 5b3b 670b b13b 5d36 7a3b
00000240: 1378 483b 56d7 38bb 7172 143b a10d 343b
00000250: 5e54 103b 8652 97bb 456f 273b 12eb b0bb
00000260: 7f12 70bb 6a94 89bb c8ec 8f3b fcbb 933b
00000270: 6abc 2ebb 20b0 873b 0c5e 21bb 8c1b 34bb
00000280: 8b93 213b 8b2f cb3b 856a 4fbb 30d0 863b
00000290: 67c2 6ebb ce83 8a3b 4015 57bb c209 b03b
000002a0: 8573 283a 5fda 5abb 128f 09ba cadf 623b
000002b0: 59b8 3b3b 489f 823b a614 3e3b dd08 4ebb
000002c0: a973 983b 5797 11ba ad39 163a 871d a43b
000002d0: fb89 3f3b dfca ab3b 7c53 353b fe46 0a3b
000002e0: 86be 64bb 6e92 883b f06e 1ebb fed4 0e3b
000002f0: 012e 05bb 90e8 f03a 6ef7 8e3b b930 cfba
00000300: 08fb 3dbb 651c 863b abbc 243b 86e3 8f3b
00000310: d8dd 713b db21 77ba 4f28 92b9 6f34 c73a
00000320: 9b91 803b fdbe 33bb 8dfb 9d3b 5a7f d3ba
00000330: 227f 78bb 4415 8d3b fb1f a33b 5ceb f83a
00000340: 98ba 1bbb ac87 1ebb 0b79 9dbb 79d7 03ba
00000350: 48a7 b13b 1c54 6cba 7beb 84bb 63d2 d93b
00000360: 131f 7dbb 8015 95bb b012 97ba e5fe 953b
00000370: c3ea 883b a639 853b 5250 363b 7134 b93b
00000380: 8fe7 8e3b 148c 81ba 0017 a6bb c35c 45bb
00000390: f8d9 e03b 5e4f 28bb e21e a3bb 7ad8 5e3b
000003a0: 958a a23b 85c1 70bb df0b bc3b 4406 89bb
000003b0: d7f5 c1ba 0846 a43a 8000 3c3b 908e b93b
000003c0: 2ef8 05bb 91ef 07bb dad9 8cbb 424e 0db9
000003d0: 3ef4 6b3b 28a1 54bb b118 42bb 666d c6bb
000003e0: 70bd 7f3b 9879 a43b eae8 4fb9 d8ae eaba
000003f0: f451 b6ba d16e cc3b 21df ab3b 0505 63bb

network_body._body_endoder.seq_layers.4.weight f4 [256, 256]
-0.039009996 -0.050534807 0.06897345 -0.041289594 0.008915422 -0.06138712 -0.0301624 0.07924905
-0.063596494 0.041863576 -0.020032464 0.100345455 -0.004262854 -0.005742619 -0.008033297 -0.10858404
-0.07252511 0.037656587 -0.08812025 -0.019661129 0.023428025 -0.047166433 0.00892644 0.083841294
-0.040958293 0.07907724 0.06957062 -0.028535802 -0.05678394 0.025415199 0.031661086 0.03126322
-0.026107147 -0.054120444 -0.017413436 0.07520109 0.018479092 -0.0037447873 0.024148654 0.10188887
0.110283874 0.03185969 0.006212038 0.07946415 -0.019253023 0.023905842 0.045344677 0.05857352
0.054554824 0.08860674 -0.06694774 0.03760767 -0.014310955 0.004192448 0.061637573 0.109541446
0.016757706 0.09911155 0.014416782 -0.10682866 0.036999233 0.02322237 -0.12606163 -0.08190419
0.08829995 0.043218136 0.08238708 -0.104849294 -0.18859455 0.096298724 -0.014232214 0.023600347
-0.0682376 -0.0048544193 -0.060557943 0.019367006 -0.07398144 0.037758477 -0.00915071 -0.005731913
-0.0038659158 -0.0010810321 -0.02639215 -0.08166444 -0.1442867 0.058761083 -0.05062086 -0.06934004
-0.058327347 -0.06426061 -0.06604977 -0.028030995 0.02319823 -0.01631026 -0.12813257 0.0013162898
0.0027156298 0.023557376 -0.021766232 -0.014983007 0.045379326 -0.0073908055 0.0028416405 -0.09524986
-0.106774725 0.004974819 0.011984551 0.13999258 0.12188335 -0.005097303 -0.08749118 0.054232545
-0.02841285 -0.073732994 0.042077012 -0.043129496 0.03631786 0.08713076 0.0025470154 0.08178076
-0.01049393 -0.035002757 -0.055341937 -0.004981271 0.021958688 -0.064581506 0.031898685 -0.011386591
0.0749994 -0.087376654 -0.06420921 0.028162211 -0.105166905 -0.0010350046 -0.0528305 0.035365902
-0.011434438 -0.10417204 -0.08360414 -0.047525357 0.039162207 0.054833476 0.09293229 -0.018820092
0.03205058 -0.057363205 0.03271062 -0.001958425 0.026869709 0.13140143 0.041384075 0.054852083
0.01124443 0.0069053317 -0.07563997 0.08427692 0.014156699 -0.12910847 -0.1282698 -0.031505615
0.017881213 0.013767913 0.019386185 -0.023092572 -0.04626695 -0.030970288 -0.028023446 0.0015599158
0.04117891 0.041041072 -0.036554303 0.07085298 0.062295504 0.035667785 0.10537808 0.055217966
-0.08732716 0.028972914 -0.08793036 0.041769426 0.02141899 0.015122315 0.073975064 0.023017611
0.07562561 -0.08816293 -0.033153303 0.067798756 0.03152663 -0.07243781 -0.036348794 -0.07232686
-0.00075438526 0.054214433 -0.10065015 -0.0019819913 0.06996855 0.04590106 0.027687343 0.03244974
0.059208017 0.04984855 -0.0896667 0.05516417 0.007522629 0.0628443 0.023477923 0.08686488
0.024147993 0.006250752 0.08634871 0.087719806 -0.0402867 0.042500805 -0.096439324 0.0040101875
-0.07810639 0.039338943 0.029867377 -0.033757318 -0.014210695 0.008979805 -0.064443946 0.0018005192
0.03536621 0.012591284 -0.055097092 -0.023798577 0.011469869 -0.029671043 -0.050004095 -0.06602824
-0.025693264 -0.015884595 0.00858652 0.03883685 0.019181008 -0.042038623 -0.05478065 -0.046794068
0.045820083 -0.06243032 -0.0058794697 0.07348427 0.023030577 0.0018816063 -0.030487064 -0.04437673
0.06851769 0.08916028 0.059167236 0.08714168 0.13589394 -0.1059282 -0.012346352 -0.016839504
00000000: f2c8 1fbd 96fd 4ebd f441 8d3d 471f 29bd
00000010: fd11 123c 1071 7bbd 2317 f7bc 534d a23d
00000020: e13e 82bd 2479 2b3d 1f1b a4bc eb81 cd3d
00000030: 69af 8bbb 942c bcbb 179e 03bc 4f61 debd
00000040: 0b88 94bd cb3d 1a3d 6478 b4bd 6010 a1bc
00000050: 21ec bf3c 9731 41bd 3440 123c fcb4 ab3d
00000060: e2c3 27bd 3ff3 a13d 0b7b 8e3d eac3 e9bc
00000070: 4796 68bd 8933 d03c 0eaf 013d dd0d 003d
00000080: a8de d5bc 66ad 5dbd 9fa6 8ebc 0703 9a3d
00000090: 7761 973c 1b6b 75bb 66d3 c53c 1dab d03d
000000a0: 83dc e13d 4e7f 023d 5a8e cb3b 1abe a23d
000000b0: 84b8 9dbc 2fd6 c33c 57bb 393d caea 6f3d
000000c0: e174 5f3d 7377 b53d e61b 89bd 800a 1a3d
000000d0: 7f78 6abc ce60 893b ae77 7c3d 4457 e03d
000000e0: 7547 893c fffa ca3d 5e34 6c3c fcc8 dabd
000000f0: 828c 173d d73c be3c 4d16 01be 62bd a7bd
00000100: 9bd6 b43d 8005 313d 8fba a83d 3abb d6bd
00000110: ee1e 41be 4438 c53d 3b2e 69bc 8455 c13c
00000120: 28c0 8bbd d211 9fbb 9b0b 78bd 8ea7 9e3c
00000130: 9583 97bd a2a8 1a3d dcec 15bc c5d2 bbbb
00000140: 4e5b 7dbb 6bb1 8dba 5a34 d8bc b03f a7bd
00000150: e5bf 13be 76af 703d d257 4fbd 2702 8ebd
00000160: a8e8 6ebd 119b 83bd 1a45 87bd 42a1 e5bc
00000170: 370a be3c 189d 85bc 2f35 03be 5b87 ac3a
00000180: b5f8 313b 66fb c03c 194f b2bc 497b 75bc
00000190: acdf 393d 922e f2bb d13a 3a3b 5c12 c3bd
000001a0: b5ac dabd ce03 a33b da5a 443c 375a 0f3e
000001b0: fa9d f93d 4707 a7bb 932e b3bd f222 5e3d
000001c0: 11c2 e8bc 5301 97bd f258 2c3d 8ea8 30bd
000001d0: 09c2 143d 9d71 b23d d4eb 263b ac7c a73d
000001e0: bcee 2bbc 0d5f 0fbd 3aae 62bd ee39 a3bb
000001f0: b5e2 b33c 4f43 84bd 32a8 023d d38e 3abc
00000200: 4999 993d 88f2 b2bd 1e80 83bd 70b4 e63c
00000210: bf61 d7bd fea8 87ba cb64 58bd d6db 103d
00000220: 8257 3bbc 2758 d5bd a638 abbd f3a9 42bd
00000230: 8d68 203d 1199 603d 4953 be3d 982c 9abc
00000240: 7847 033d aef5 6abd 92fb 053d eb58 00bb
00000250: dd1d dc3c 198e 063e 5982 293d 94ac 603d
00000260: 8f3a 383c 1f46 e23b 21e9 9abd 6199 ac3d
00000270: 80f1 673c 0335 04be 2959 03be 080c 01bd
00000280: 9f7b 923c d092 613c c7cf 9e3c a22c bdbc
00000290: 6a82 3dbd 67b5 fdbc 6d91 e5bc 1776 cc3a
000002a0: 37ab 283d af1a 283d f7b9 15bd 5e1b 913d
000002b0: 9229 7f3d 6218 123d 76d0 d73d 3c2c 623d
000002c0: 95d8 b2bd 9b58 ed3c d514 b4bd 6b16 2b3d
000002d0: e176 af3c 96c3 773c 3d80 973d 6e8f bc3c
000002e0: 9ae1 9a3d c48e b4bd c2cb 07bd 13da 8a3d
000002f0: 1122 013d 465a 94bd 79e2 14bd 1b20 94bd
00000300: f0c1 45ba f40f 5e3d aa21 cebd 4ce4 01bb
00000310: ac4b 8f3d c002 3c3d 91d0 e23c 05ea 043d
00000320: 1b84 723d fe2d 4c3d 2da3 b7bd d3f3 613d
00000330: 6380 f63b 83b4 803d c654 c03c 37e6 b13d
00000340: 03d2 c53c 1cd3 cc3b 98d7 b03d 71a6 b33d
00000350: ab03 25bd 5315 2e3d fb81 c5bd e467 833b
00000360: 3ef6 9fbd df21 213d 6eac f43c 1d45 0abd
00000370: fad3 68bc 0820 133c 30fb 83bd 66ff eb3a
00000380: 29dc 103d ac4b 4e3c 7dad 61bd 3cf5 c2bc
00000390: 1eec 3b3c b010 f3bc 18d1 4cbd d039 87bd
000003a0: ae7a d2bc 6920 82bc 7aae 0c3c 6413 1f3d
000003b0: 7d21 9d3c b130 2cbd ad61 60bd 23ab 3fbd
000003c0: d7ad 3b3d efb6 7fbd 91a8 c0bb ec7e 963d
000003d0: 9faa bc3c 3ba0 f63a 02c0 f9bc 60c4 35bd
000003e0: 0153 8c3d aa99 b63d 5859 723d 5677 b23d
000003f0: c827 0b3e e2f0 d8bd 5b48 4abc 00f3 89bc

network_body.observation_encoder.processors.0.normalizer.running_mean f4 [68]
0.27717033 0.5129902 0.2097517 0.6977561 0.27795184 0.5059121 0.21600807 0.70792687
0.3538486 0.46535927 0.18063492 0.6303118 0.4094801 0.38802847 0.20223826 0.61775327
0.34956637 0.5065094 0.1436263 0.60164356 0.4353271 0.41298956 0.15073846 0.5726749
0.29041776 0.603754 0.10485321 0.60427755 0.29177052 0.5660145 0.13788621 0.63755405
0.27567956 0.63177377 0.08972755 0.5871679 0.24398154 0.62794596 0.11387593 0.6408003
0.28996667 0.6157656 0.0866873 0.5600014 0.24314095 0.5720184 0.048048936 0.6025999
0.22837515 0.62781304 0.05095014 0.57364386 0.21724126 0.3920952 0.0027561728 0.5373305
0.18820077 0.4719882 0.004163242 0.5374318 0.19530672 0.39368048 0.0035232205 0.51210475
0.19530573 0.39368048 0.0035232205 0.5121048
00000000: 45e9 8d3e 5353 033f 26c9 563e 25a0 323f
00000010: b44f 8e3e 7583 013f 3831 5d3e b23a 353f
00000020: a52b b53e 9243 ee3e 5cf8 383e 1d5c 213f
00000030: 60a7 d13e abab c63e 8c17 4f3e 1425 1e3f
00000040: 5dfa b23e 9aaa 013f c612 133e 5005 1a3f
00000050: 32e3 de3e 5e73 d33e 2f5b 1a3e d29a 123f
00000060: a3b1 943e 9f8f 1a3f 48bd d63d efb1 1a3f
00000070: f262 953e 54e6 103f 0b32 0d3e be36 233f
00000080: df25 8d3e edbb 213f 14c3 b73d a350 163f
00000090: 4cd6 793e 11c1 203f c937 e93d 7d0b 243f
000000a0: 8376 943e d0a2 1d3f 1c89 b13d 405c 0f3f
000000b0: f1f9 783e cc6f 123f f6ce 443d fd43 1a3f
000000c0: 2ddb 693e 5bb8 203f 18b1 503d 53da 123f
000000d0: 7e74 5e3e b4c0 c83e e8a0 343b 7e8e 093f
000000e0: b4b7 403e 70a8 f13e ce6b 883b 2195 093f
000000f0: 7cfe 473e 7d90 c93e d5e5 663b 4c19 033f
00000100: 3afe 473e 7d90 c93e d5e5 663b 4d19 033f

network_body.observation_encoder.processors.1.normalizer.running_mean f4 [6]
-6.963228 0.9531069 -10.999726 6.999846 8.32631 197.1254
00000000: c4d2 dec0 d0fe 733f e1fe 2fc1 bdfe df40
00000010: 9138 0541 1a20 4543
