Assets/Training/results/b_treasure_test80_Th64_Lr1e-4Bs4096Bs65536_EndDistanceReward_0.1deltaXZ_5deltaY_TP0.001/TreasureSearch.onnx (onnx, 608683 bytes, 13 tensors)

65 f4 [68]
00000000: 5dfd ea3e bacb fb3e 92ff e73e bcd6 923e
00000010: 0e0a a83e 5cf6 d53e daed f33e 7a3e 493e
00000020: 91ff ff3e 4b41 ad3e 6e31 f73e d699 a23e
00000030: a48e fc3e c49c bf3e 451f fc3e 9299 7e3e
00000040: ea56 ff3e fa30 b83e 3feb f83e 61e9 c03e
00000050: 3493 e53e 81e0 ff3e 26f0 ce3e 3285 843e
00000060: 70d2 fc3e 3cf9 f03e 66a4 923e 5650 c63e
00000070: 23c5 f63e 4cbd f03e 8159 403e 6eea 9b3e
00000080: a419 e13e 14ef cf3e 94fb 653e 6524 a33e
00000090: 3588 d53e fbe4 f23e 2b99 a33e 69c0 903e
000000a0: c386 f53e 87b9 ff3e 2a0e a53e 57c1 bf3e
000000b0: fba2 853e e11e ed3e 2ec5 8f3e 4e59 493e
000000c0: d0f4 a63e 15ce bb3e d9f3 1b3e 27c2 733e
000000d0: 5a80 853e f11a d23e 7b58 2f3c 4eef 0c3e
000000e0: 0fd4 9a3e b1b2 c83e 491e 0c3d f8e7 243e
000000f0: 8374 983e 595f cd3e d773 5b3c 2014 0d3e
00000100: 8374 983e 5e5f cd3e d773 5b3c 1e14 0d3e
0.45896426 0.4917887 0.45312172 0.28679454 0.3282017 0.4178952 0.47642404 0.19652739
0.4999967 0.33838877 0.482799 0.31757993 0.49327576 0.3742429 0.49242607 0.2486327
0.49870998 0.35974866 0.4861698 0.37678054 0.4483887 0.4997597 0.40417594 0.2588287
0.493793 0.4706515 0.2864105 0.38733166 0.48197278 0.47019422 0.18784143 0.30452293
0.43964875 0.4061209 0.2245925 0.31863704 0.4170548 0.47440323 0.31952795 0.28271797
0.47954378 0.49946234 0.3223737 0.37452194 0.26100907 0.4631262 0.28080124 0.19662973
0.32608652 0.36680666 0.15229739 0.23804532 0.26074487 0.4103618 0.010702248 0.13763162
0.30239913 0.3919883 0.03420857 0.16104114 0.2977639 0.40111807 0.013394318 0.13777208
0.2977639 0.40111822 0.013394318 0.13777205

68 f4 [6]
00000000: ad51 db3f 37b8 4940 9eeb bc3b ef78 713b
00000010: 1f46 2d40 f7ba ac42
1.71343 3.1518686 0.0057653924 0.0036845764 2.7074049 86.365166

action_model._continuous_distribution.log_sigma f4 [1, 2]
00000000: 26cc 26bc c24a 18bd
-0.010180509 -0.03718067

action_model._continuous_distribution.mu.bias f4 [2]
00000000: 4cb4 2e3b eded 383a
0.0026657758 0.00070544967

action_model._continuous_distribution.mu.weight f4 [2, 256]
00000000: f6da 62bc 7c16 acbc 52c2 9b3c cd13 0e3c
00000010: 8471 9f3c fb4e 9c3c a67b a63c eca8 babc
00000020: e952 debc acd2 d1bb 96df 37bd b432 5c3d
00000030: c904 99bc 157a 213c b001 8fbc ca41 98bc
00000040: d780 b13c ae8d 5bba 534d 57bc 63a1 eabc
00000050: e71e 763b 5e9a 943c 0cc9 17bd 7593 7cbc
00000060: 9de6 a93c 4e26 19bd 773e 303d deb5 a53b
00000070: 71bf 173d 55df 9e3c 7839 59bd 23ed b13c
00000080: 5fae f13c 5c45 1c3d 98bd a93b 9364 81bd
00000090: f7be d83c 96f8 a8bc c37c 2e3d f45e 6c3c
000000a0: b6f6 f83c 0c92 693b e5ca 853c f3b4 17bc
000000b0: 3651 d13c 366f 133d 500a 963c 9f11 b63b
000000c0: 183f 923c 5617 13bc 6b58 0cbc c337 403c
000000d0: 9c66 423c fa78 1f3d 8620 a7bc 45b7 46bd
000000e0: e757 e7bc 42bd a8bc ba6a 9cbc 335e e33c
000000f0: 47db c23c c0f6 73bc df10 90bc 17e1 023d
00000100: 5c8e e93c f238 e53c 2d44 fa3c d6a5 d7bb
00000110: 38c6 113c 4e63 0cbd a74b 843c 8827 d1bc
00000120: 2ea4 043d 0b76 893a 3ae9 f5bc ecb9 e3bb
00000130: b74f 023d ae8b e6bc 12b5 cf3b 82ae f93c
00000140: a60a 133b c3a8 b83c 1a8e e13c f431 2ebc
00000150: 532b 6ebb 9ac9 79bc 9241 963c e56a 0c3d
00000160: af20 bebc 9c5c 093c e624 12bc 55de 8d3d
00000170: f5b6 963b 996f 25bd 44ce f7bc c0a9 f3bb
00000180: d8d8 39bc 7c38 533d f653 7dbc 0b2e f03b
00000190: 37d8 aa3c 70e2 773d 81f7 073d da07 b93c
000001a0: 456f ee38 7589 be3b 19f2 4abd 60db df3b
000001b0: cb25 5f3c 86a6 bf3c 5590 bcbb 27c5 39bd
000001c0: 4310 443c 871a 0b3c 4736 27bd c05c 213d
000001d0: 5fb0 aa3c dbac 893c ded7 7dbb 48d5 54bc
000001e0: b40a da3c 5b84 29bc 61ec d7bc 9f86 083a
000001f0: 374f 3abd 02f5 073b 0016 513b c28c 31bb
00000200: a5e3 0bbc ae8a d23b 672f 1b3c 8b53 64bb
00000210: f856 1abd 32a1 a8bb 39ec 863b 0d92 29bd
00000220: dd4a 8dbc 9f28 e2bc d751 033d 57cd 14bb
00000230: 0baf 583d 5524 bb3c 6ecb 053d 3cbf 773d
00000240: 0bd8 3ebd ee1c 0ebd 130b d93b 7616 40bb
00000250: e614 0abd 6764 f73c 3b7d 0d3d 09ee f7bc
00000260: c804 863c aa04 63bc 55fb edbb eda1 fb3c
00000270: ab94 8abc be49 153c 0d19 653c 1696 19bd
00000280: d8ba 02bc aaaa c93b cb4d babc 11b4 7fba
00000290: 9569 7bbb 3320 8a3c b4d6 e23c dcd1 a8bc
000002a0: caaa e7bb a9a0 d53b d95f a7bc c640 903c
000002b0: a212 9b3c ced4 c73c 26a5 aebc e479 383d
000002c0: 58b0 c9bc 67a5 0a3d 1f07 3cbc 2d65 1e3d
000002d0: 821c 503c 1aa4 cb3c 20da f0bc 6759 643c
000002e0: 0670 913b 2423 24bd 33b5 55bb 092a 7bbc
000002f0: b7b0 55bc e25b 103d 3420 103d fef8 3bbd
00000300: f7c9 f73c 2f6b f33c 5c0f 14bd b8d6 15bd
00000310: 9dfc f03c 1b46 203a 85fe de3b 7deb 58bb
00000320: 4793 9dba d938 11bc d279 f83b 2095 39bd
00000330: 0c0f deb9 87d5 193c 674b b7bc 7836 98ba
00000340: 4b48 b53c 346f 063d 8945 2dbd 5c35 62bd
00000350: 0716 b3bd 11ae 1b3b 0d65 49bd b9e4 a13c
00000360: 3eac 163d b7f1 a2bb 04d9 b6bc 5397 333d
00000370: 6285 1abd 3572 903b 8cc4 4a3d 58ad 17bd
00000380: 4c6c 383d 06f2 9a3c 9d4c 183d 48b5 b63c
00000390: 39f6 f03c d1a4 05bd c636 debc b455 a6bc
000003a0: 77e0 10bd 2b89 003d 6405 4fbb 6580 1f3d
000003b0: 898a 80bc 4c4e 87bb bdfd cdbc 6cf4 94bc
000003c0: 700d 823c fa9e c6bc fb0b b03c 963c 12bd
000003d0: bcb8 283b e0fb 6ebc d362 cfba afea 123c
000003e0: c3e9 1f3d 8c65 f2b8 3840 4bbc d3c2 0c3c
000003f0: 6be0 33bd 7eb7 983c 6716 c83c b692 54bd
-0.01384615 -0.021006815 0.019013558 0.008671713 0.019463308 0.01908063 0.020322632 -0.022785626
-0.027139144 -0.006403288 -0.044890963 0.05375929 -0.01867904 0.009855767 -0.01745686 -0.018586058
0.021667881 -0.0008375299 -0.013140994 -0.028641408 0.003755504 0.018140014 -0.037056968 -0.015416016
0.020739848 -0.037390046 0.04302832 0.0050570806 0.037047807 0.019393602 -0.053033322 0.02171952
0.029502092 0.038152084 0.005180072 -0.06318011 0.026458247 -0.020626348 0.04259945 0.014426935
0.030391078 0.003564003 0.0163321 -0.00925945 0.02555142 0.03599473 0.018315464 0.0055563
0.017852351 -0.008977732 -0.008566002 0.011732045 0.011865284 0.03893373 -0.02040125 -0.048514623
-0.028240157 -0.020598058 -0.01909386 0.027754879 0.0237862 -0.014890373 -0.01758617 0.031952944
0.028510265 0.027981255 0.030550087 -0.0065810485 0.008897357 -0.03427439 0.016149355 -0.025531545
0.032383136 0.001048745 -0.030018438 -0.006949654 0.031814303 -0.028142776 0.006338724 0.03047872
0.0022436767 0.02254141 0.02753358 -0.010632027 -0.0036341741 -0.015245819 0.018341813 0.03428163
-0.023208944 0.008383896 -0.00891993 0.06927172 0.004599447 -0.04038963 -0.030249722 -0.0074360073
-0.0113432035 0.05156754 -0.015461912 0.0073297075 0.020855052 0.060518682 0.033195022 0.022586752
0.0001136945 0.005814726 -0.04954729 0.0068315715 0.01361985 0.023394834 -0.0057545104 -0.045354035
0.011966768 0.008490211 -0.040823247 0.039395094 0.020836053 0.016806057 -0.0038733403 -0.012990303
0.026616432 -0.010346497 -0.026357831 0.00052080484 -0.0454857 0.0020745401 0.0031903982 -0.0027091955
-0.008538161 0.0064252233 0.009471751 -0.0034839835 -0.037680596 -0.005146169 0.0041175154 -0.04139905
-0.017247612 -0.02760726 0.03206047 -0.00227054 0.05290131 0.022844473 0.03266471 0.06048511
-0.046592753 -0.03469556 0.0066236346 -0.0029310263 -0.033711337 0.030199243 0.034543257 -0.030264871
0.016359702 -0.0138560925 -0.007262627 0.03071686 -0.016916594 0.00911182 0.013983023 -0.03749665
-0.007979117 0.006154378 -0.022742173 -0.000975431 -0.0038362492 0.016861057 0.027690269 -0.020607881
-0.00706992 0.0065193963 -0.020431446 0.017609011 0.018929783 0.024393465 -0.021318983 0.04503812
-0.02462022 0.033849146 -0.011476307 0.038670707 0.012702109 0.024858523 -0.029400885 0.013937331
0.004438403 -0.040072575 -0.0032609224 -0.015329846 -0.01304262 0.035243876 0.03518696 -0.045891754
0.030247672 0.029714195 -0.03614746 -0.036581725 0.02941733 0.0006113962 0.0068052434 -0.0033099346
-0.0012022041 -0.008863651 0.0075828815 -0.045308232 -0.0004235435 0.009389288 -0.022374822 -0.0011612913
0.022129199 0.032820895 -0.042302642 -0.05522667 -0.08744436 0.0023754875 -0.049168635 0.019762384
0.036785357 -0.0049726623 -0.022320278 0.043845486 -0.03772486 0.004408146 0.049503848 -0.037030548
0.045025155 0.018914234 0.03718244 0.022303239 0.029414283 -0.032627884 -0.027125727 -0.020304538
-0.035370316 0.031380814 -0.0031588906 0.038940806 -0.015691059 -0.0041292068 -0.025145406 -0.018182956
0.015875548 -0.024245728 0.021490088 -0.03570231 0.0025744876 -0.014586419 -0.0015822299 0.008967086
0.039041292 -0.00011558374 -0.012405448 0.008591372 -0.043915194 0.018642183 0.024424745 -0.051897727

network_body._body_endoder.seq_layers.0.bias f4 [256]
00000000: 39e1 fdb9 8b40 323c ec9f cd3b b9e3 b23a
00000010: 5fea 87bb 2d1b a53b 87c7 92bc 60f1 103b
00000020: 6c9f a73c 7fce a1bc 22bd 1e3c 802e 5d3c
00000030: 95b6 613b 2132 043c a77d 983c 4871 e83b
00000040: 01b4 9fbc f2e9 6e3c 02d7 893c b3a7 db3c
00000050: f2e1 563b 3a4e 3c3c a6db 6c3c 5a13 c63b
00000060: ab05 8fbc 4eb3 23ba a8d8 f23b 3e45 803b
00000070: dcff 273c b1c3 173c f18a 593c 502f df3b
00000080: fafc 003c 8614 4f3c ce5b 9139 deb8 69b9
00000090: ed46 28bc f193 733c fb4a f03b 00d8 f23b
000000a0: f020 533c 6e81 8e3c 31d5 e23c 4418 f93b
000000b0: 58fc 513c 70bf f53b ab7a f93b 4ca2 9aba
000000c0: 8f2d e038 9281 053b fb87 443c 45bf c5bb
000000d0: c1c6 023c d4a1 533c b117 3c3a 80bd 2b3c
000000e0: 8629 b53b a962 e63a 6078 993c 3773 61bc
000000f0: 58db 5e3c 564f b23c e557 fc3b be29 ab3b
00000100: 060b cb3a 4a5b 673c 3b82 d43b e81b c5b9
00000110: d9d5 a73c b8e0 903b 5225 fb3b 3595 44bc
00000120: 7c9d 0c3b a2f0 413c 7e64 263c 0f75 47b8
00000130: cfcd 643c 88fd 64bb 5f33 933c e3c1 07bc
00000140: 08c7 2a3c 6e00 913c 4634 143c cdcc 223c
00000150: 727e 3b3b dfe8 4a3c 8f25 ae3b 1e05 dc3c
00000160: 7177 0c3c 8295 113d 1d19 363c 7c73 433c
00000170: d109 5b3c 83b5 08bc a00f 503c 27cd a63b
00000180: 8184 653c e6a6 d43a 96f6 873c 1757 883b
00000190: 7897 903c 49ee 3c3c b4e1 8b3b 0f4e 60bb
000001a0: 4eb7 153a a36d 903c 12c2 f53b 040d 3a3c
000001b0: 92d3 0e3c f59f e63b b2e7 663c a2f1 c4bc
000001c0: 11d1 39bc 70bf fa3b ae18 e73b 4bc5 5e3c
000001d0: 123b a13c 0f08 873b 8d0a e1bb 3d45 243c
000001e0: 029f 00ba f223 863b a5af 203c 368f 853c
000001f0: bf4b fe3b e0af 503c 6fd6 433c 54e4 953b
00000200: 94b0 07bb 2455 d6bb 58cb 073b 99b4 5c3c
00000210: e604 3bbb fcfe 483c f280 043b d17e cf3a
00000220: f56e a23b 069a 6abc 24ae 173c 6417 463c
00000230: f980 ceba b64a 803a ddd1 173c 0c9a 773b
00000240: cb5e 793b 3d05 ac3c 4ed7 8d3c 91f9 7f3c
00000250: a42b 1c3c 63e5 423c 0e98 873b fb1e c33c
00000260: ac2f 223c 64b8 373c d779 913c 37a8 273c
00000270: 1438 3c3a 0320 4b3c e1c3 473c 02ac f5bb
00000280: e577 3d3c a90a 4bbb 31ba 523c b16b 603c
00000290: 8e1f 903b 8b1a b33c 7dfd ab3b 7e60 703c
000002a0: d665 893c 4438 183c 6100 c5b8 da19 ac3c
000002b0: ed43 423c e467 483c 029b 403c dc99 a53c
000002c0: a091 fc3b 9114 a43a d81d c83c 0a61 acbb
000002d0: 4f96 103c 8e7d bd3b 324f 633c 902b 073c
000002e0: 37e2 773b 2cca 5f3c 502c 403c d938 813c
000002f0: 4a0f 423b f98b 9e3c d69a fbbb f9ef 423b
00000300: ca4e 153c 7d68 863b 3907 f73b b09e e83b
00000310: ca8e 623c 62b1 993c c008 533c 205c 693c
00000320: 79e2 343a 6e5b 2f3c b013 393c 4e06 513c
00000330: f850 81bb f87c 913b 068b ac3c f5c9 2c3b
00000340: 8240 183c 4a57 123c 615b a83c d0f7 5ebb
00000350: 2ee9 d23a 8a38 3d3c 0935 123c c12f e53c
00000360: 9df3 553c 0ffa d2ba f8fd 723c 0167 533c
00000370: e316 153c dbfe 5f3c a870 833c a6d4 523c
00000380: a423 593b 5664 1b3c 2e66 643c f9ed 2c3c
00000390: 3636 9cbb 3dd0 a83c a796 d13b e964 9c3c
000003a0: 6be6 153a 7036 2abb 6e7c 58bb 22e4 563b
000003b0: bf83 9dbb 36e7 173c dca5 44bb 6e87 583c
000003c0: a706 7bbb 5de3 043c 26bf 243c c4fe 3e3c
000003d0: 2ceb cdbb e09b f83b 17b0 953c 1bb7 063c
000003e0: a46b 063c 19b5 d33b 36ff 923c 4cbf 303a
000003f0: 579d 3f3c ed20 173c 9e9a f73b 5836 253c
-0.00048423724 0.010879646 0.0062751677 0.0013648189 -0.0041478123 0.00503864 -0.017917408 0.0022116527
0.02046176 -0.019751785 0.009688647 0.013499856 0.0034441103 0.008068592 0.018614603 0.0070935823
-0.019495012 0.014582144 0.016826157 0.026813364 0.0032788482 0.01149326 0.014456665 0.0060447874
-0.017458757 -0.0006244675 0.0074110813 0.0039145043 0.010253873 0.009262965 0.013277755 0.00681106
0.007872814 0.0126391705 0.00027724955 -0.0002228948 -0.010270816 0.014866815 0.007333157 0.007411003
0.012886271 0.017395701 0.027689548 0.0076017696 0.012816511 0.007499628 0.0076135 -0.0011797636
0.00010689638 0.002037142 0.011995311 -0.006034764 0.007981957 0.012917001 0.0007175161 0.010482192
0.0055286316 0.001757701 0.018734157 -0.0137603795 0.0136021 0.021766346 0.0077009075 0.005223482
0.0015490956 0.014120886 0.0064852512 -0.0003759556 0.020487713 0.00442132 0.007664361 -0.011998464
0.0021456173 0.0118371565 0.010155795 -4.7554317e-05 0.013965084 -0.0034941155 0.017968832 -0.008285972
0.010423429 0.0177004 0.009045666 0.009936524 0.0028609303 0.012384622 0.005314536 0.026857909
0.008573399 0.035542972 0.011114386 0.011929389 0.01336904 -0.008344057 0.012699038 0.005090374
0.014008642 0.0016224056 0.016597074 0.0041607725 0.01765035 0.011531421 0.0042688493 -0.0034226214
0.00057112135 0.017630404 0.0074999416 0.011355642 0.0087174345 0.0070381113 0.014093326 -0.024041
-0.011341349 0.0076522157 0.0070525026 0.013596843 0.019681487 0.0041208337 -0.006867713 0.010026273
-0.00049065065 0.0040936405 0.009807502 0.01630364 0.0077604945 0.012737244 0.01195298 0.004574338
-0.0020704614 -0.0065409113 0.0020720568 0.013470792 -0.0028536855 0.012267824 0.002021846 0.0015830641
0.0049570748 -0.014318949 0.009257827 0.012090538 -0.001575499 0.0009787891 0.009266344 0.0037781028
0.0038050886 0.020998592 0.01731458 0.015623466 0.009531889 0.01189551 0.0041379994 0.023818484
0.009899061 0.011213396 0.017758293 0.010232977 0.0007179987 0.012397769 0.012192697 -0.0074973116
0.01156423 -0.0030981696 0.012861774 0.013697551 0.004398293 0.021863243 0.005248724 0.014671443
0.016772192 0.0092907585 -9.3937626e-05 0.02100842 0.011857015 0.012231801 0.011755707 0.020214967
0.0077077895 0.0012518336 0.024428293 -0.0052605914 0.008824899 0.0057827896 0.013873862 0.008250132
0.0037824044 0.013659041 0.011729315 0.015774177 0.0029611164 0.019353854 -0.00767837 0.0029745086
0.009113023 0.0041018114 0.007538703 0.007098995 0.013827989 0.01876134 0.012880504 0.014243156
0.0006900202 0.010702951 0.011296198 0.012757851 -0.00394642 0.0044399463 0.021062385 0.0026365493
0.009292724 0.008931944 0.020551385 -0.003402222 0.0016091221 0.0115491245 0.008923777 0.027976872
0.01305857 -0.0016096252 0.014831059 0.012902976 0.009099695 0.013671602 0.01604493 0.012868082
0.0033132816 0.009484371 0.013940377 0.010554784 -0.0047672046 0.020607108 0.006396133 0.019091086
0.0005718234 -0.0025972389 -0.003303315 0.0032789786 -0.004806965 0.009271434 -0.0030006086 0.013215883
-0.0038303526 0.008110848 0.010055339 0.011657421 -0.006284138 0.007586941 0.018272443 0.008222367
0.008204374 0.0064607975 0.01794396 0.00067423726 0.011695228 0.009224159 0.0075562736 0.010083757

network_body._body_endoder.seq_layers.0.weight f4 [256, 74]
00000000: 50ed cbbb 2c03 5f3c b665 9b3a fad8 1d3e
00000010: 1ea3 1ebe 8057 37be 110a e73d afb7 1b3d
00000020: ebf1 fcbd f569 d43d 6acf c93d 1980 9cbc
00000030: 7d9d c23a 981c c43d bb6b 413d d72f 1f3e
00000040: 16e5 4cbe 8ec3 553d 8db8 a0bc 0878 fe3d
00000050: 357e 14bd 8982 573d 4dcf 893c 04f9 5bbe
00000060: 7464 16bc d261 15be 74de 5abd 061e d63d
00000070: bac1 5e3e edba 803d d281 5a3d 0abc 183d
00000080: 9ea2 853e 0dab 2abe b9ef 2cbe b2f8 963d
00000090: ba61 a3bc 0a49 993d 46bf b0bd 024c 713d
000000a0: 4bb5 42be 6e5d 2c3d 20e1 34bd b1c6 e43b
000000b0: 7ea1 48be 5a62 3cbe 019b f13d fc2d 503e
000000c0: 5029 37bc 6cf5 3b3d 89b6 93bd f743 0dbe
000000d0: 5593 293d b6ef 653e addb 593d e3f2 00bd
000000e0: e973 94bd f918 f53d 4905 233e 1dd3 93bd
000000f0: 7bc1 f63d b2dc 3fbd 9be3 db3d 030f 373e
00000100: 75db 59be f772 e8bd 8b9f 04be 0944 bf3d
00000110: 6a71 9ebd 7803 6dbe 48d7 3b3d 9325 e6bd
00000120: 9e56 1cbe e645 dd3c dac4 293d 45c1 b9bc
00000130: bedf 9fbd b5bf 223d 76c1 7c3e 77af c2bd
00000140: c748 ddbd 15e6 e63d ec6d 2fbe 074e 383d
00000150: d56e 23bd 0fbf 5a3d 1f41 e3bd 8630 d63d
00000160: f088 c03d e093 e33d f426 af3c 6a0b 403d
00000170: c677 583c 1e5a 51be 1587 843d 8a13 5f3e
00000180: ae12 31be c4d4 b33d a7f6 1ebd 5bf0 373e
00000190: 69f3 32bd 3cd0 5bbd cc6c 47bc 81b5 203e
000001a0: 2548 17be 8081 16bb a38d babd fbab 213d
000001b0: a7c0 023e 315f afbd fd60 0abe c08d 89bd
000001c0: 1066 913d 997c a73d fb36 c7bd 6e5a 133e
000001d0: 8d7c 20be e644 0fbd 0e6c 833c 16ac 063c
000001e0: 6d7d 163d d77c 323e 7a64 d53c 81b7 3ebe
000001f0: b025 7ebc fc6a 1b3e 38e1 f5bd 6238 38bd
00000200: bdd0 203d 52a7 c63c d623 3e3d 78e5 b2bd
00000210: b8f0 973d ecb1 aabd 6399 d9bd b311 7e3d
00000220: 2e9c f23d cc4e 0b3e ade2 0bbe cebd a83d
00000230: 00c9 6dbe 068c 2d3e fabd 9dbd bed5 353d
00000240: 4617 ef3a b317 a63d 097e e8bd d31d a9bd
00000250: 1bda 10be 4e3d 81bd edba 483e edf6 97bd
00000260: 75e2 89bd 4c9e 39bc 555e dabb e30c bc3d
00000270: 17c8 48bb b1a9 e63d 8d24 e1bd 7e35 ef3d
00000280: 13c5 aabd 8e99 21bc 351e 13bb c02d c63c
00000290: f200 503e 58c4 9fbb 7811 0cbd ee6d a2bb
000002a0: 0279 17bc 2133 88bd 6216 f83b 5fea a43d
000002b0: 4730 a2bd 4316 adbe c6bc 013e 4e9a 803d
000002c0: 1a73 e23d 7b24 6b3e 4df1 b8bc 0308 343e
000002d0: 3361 8aba 50e0 7e3e 4a69 a1bd 843a 16be
000002e0: e638 363e 4a3f 3cbd 5ac0 99bb 606f 4fbc
000002f0: c3d1 9f3d 63a6 7f3e dbff b73d f361 1dbd
00000300: 7b73 8c3e bd76 86be f8e8 22bd e582 9e3d
00000310: a6f5 6abc d496 b4bd df58 023e 08f6 803d
00000320: 02f3 1b3c 54bb 10bc 7602 ddbd 1df2 883d
00000330: 5eca 47be caf1 d73d ec40 40bd efc0 573e
00000340: 47df 8abc 86e4 a5bd fb3e f3bd c2a9 943e
00000350: 4b46 78be 2f94 ac3d b530 103e 687b 883c
00000360: bc4b 643e 48d5 993e c782 6f3d 092d c73d
00000370: ea30 6bbd 74dd 463d 087b cd3d 7911 7dbd
00000380: dea0 fb3d 34df 9d3c 32fe 473e a9bb 34bd
00000390: ebcc 043e d6c6 dabc 9c71 273c 8b8c 9fbd
000003a0: 7464 26be 59e7 013e 4ea6 7ebd 8c64 7f3d
000003b0: 3c2f be3d bf07 8ebd 4f32 da3d c9ac 453e
000003c0: 1d60 febd 6676 79bd 0911 b4bd cdd5 db3d
000003d0: 6349 c2ba 1693 01bc 4bed 14be 0fa6 ca3d
000003e0: a4c3 26b9 9f74 b93e 8ff4 77bc b55a 5ebe
000003f0: d7f9 e13d 0967 6c3e a318 763e b448 9d3d
-0.006223358 0.013611596 0.0011855874 0.15414801 -0.15491912 -0.17904472 0.11281217 0.03801697
-0.1235083 0.10371772 0.09854014 -0.01910405 0.001484796 0.09575766 0.04722188 0.15545593
-0.20009264 0.05218845 -0.01961925 0.12425238 -0.036253173 0.052614722 0.016822482 -0.2148171
-0.009179223 -0.14588097 -0.053434804 0.10454945 0.21753588 0.06285653 0.053346463 0.037288703
0.2610063 -0.16666813 -0.16888322 0.073716536 -0.01994406 0.07484634 -0.086302325 0.058910377
-0.1901447 0.04208129 -0.04416001 0.0069816937 -0.19592854 -0.18396893 0.11797143 0.20330042
-0.011179283 0.04588835 -0.0721255 -0.13795458 0.041400272 0.22454724 0.053188015 -0.031481635
-0.072486706 0.11967654 0.15919985 -0.07218001 0.12048622 -0.04684133 0.10736772 0.1787682
-0.21275122 -0.11350053 -0.12951486 0.093391486 -0.07736476 -0.23145854 0.045859605 -0.112376355
-0.15267417 0.02701087 0.041447498 -0.022675166 -0.07806347 0.039733607 0.24683174 -0.095061235
-0.10804897 0.112743534 -0.17131776 0.044996288 -0.03990062 0.053404864 -0.11096405 0.10458474
0.09401119 0.11112189 0.021380879 0.046885885 0.01321215 -0.20444533 0.06471077 0.21784797
-0.17292282 0.08780816 -0.038809445 0.17962782 -0.043689165 -0.053665385 -0.012171935 0.15694238
-0.14773615 -0.0022965372 -0.09109046 0.039470654 0.12768804 -0.08563078 -0.1351356 -0.0671649
0.07099545 0.08178062 -0.097272836 0.14389965 -0.15672512 -0.034977816 0.016042735 0.008219739
0.03674071 0.17430435 0.026048888 -0.18624689 -0.015511915 0.1517753 -0.12005848 -0.044975646
0.03926157 0.024249706 0.046420895 -0.08735174 0.0741896 -0.08334717 -0.10624959 0.062028598
0.11846195 0.13604277 -0.13660689 0.08239327 -0.23221207 0.16947946 -0.07702251 0.044393294
0.0018241189 0.08109989 -0.11352164 -0.08257642 -0.141457 -0.06310521 0.19602557 -0.07420144
-0.067326464 -0.011329245 -0.0066640773 0.091821454 -0.003063684 0.11262835 -0.109933 0.11680125
-0.0833837 -0.00986327 -0.0022448425 0.024191737 0.2031286 -0.004875701 -0.034196347 -0.0049569523
-0.009245159 -0.06650377 0.0075710276 0.08052515 -0.079193644 -0.33806047 0.12669668 0.06279431
0.1105711 0.22963135 -0.022575999 0.17581181 -0.0010557532 0.24890256 -0.078814104 -0.1467076
0.17795143 -0.045958795 -0.0046921195 -0.012660831 0.07803681 0.24965815 0.089843474 -0.03842349
0.27431855 -0.26262465 -0.039772958 0.0773981 -0.014340794 -0.08817831 0.12729214 0.06296927
0.009518387 -0.008833725 -0.10791485 0.066868044 -0.1951079 0.105441645 -0.046936914 0.21069692
-0.01695217 -0.08100228 -0.11877247 0.29035765 -0.24245565 0.08426701 0.1408108 0.016660407
0.22294515 0.30045533 0.05847433 0.09725387 -0.057419695 0.048551038 0.10033232 -0.06178424
0.12286542 0.01927147 0.19530562 -0.04412428 0.12968795 -0.02670614 0.010219958 -0.07790478
-0.16249257 0.12685908 -0.06217032 0.06235175 0.09286353 -0.06935071 0.10654127 0.19304194
-0.12420676 -0.06090393 -0.08792312 0.10734139 -0.0014822896 -0.007908603 -0.14543645 0.098949544
-0.00015903875 0.36221787 -0.015133991 -0.2171429 0.11033981 0.2308618 0.24032836 0.07679883

network_body._body_endoder.seq_layers.2.bias f4 [256]
00000000: f7ad b53c e38a 163a 403a a43b 2918 8c3c
00000010: 0035 4a3c 7211 fe3b 6d03 473c ffbd 5b3a
00000020: e12b 4b3c e858 503c d6d1 3b3c d3b8 693c
00000030: 7370 253b e4a6 0a3c b072 883b 18ae 0f3c
00000040: ca11 003b 5f19 c33b b921 843c a789 05bc
00000050: e2e7 62ba 3b61 943c b318 2a3c 8b9c 1d3b
00000060: 9928 e83a 1a20 ac3c 1020 143c feeb 82bb
00000070: a5a1 0ebc 0fd4 9f3b 8f9e 0c3c 84dd a63a
00000080: f61e ca3b 5a2d 503c dcff 273c caff a6ba
00000090: b532 333c a45c 983c b696 0f3c e6d0 b13c
000000a0: bf52 f23b 0ce6 de3b a97f db39 c5c2 b73b
000000b0: 6426 9f3b a0f0 c83b 12a9 a83b 2d54 c93a
000000c0: eb33 eb3b 2de2 dfba 6cf0 843b 3f0e a83a
000000d0: 6fc4 c63a 5441 09bb c80a 173b 750d 593c
000000e0: af43 053b 41ca 2c3c 05f9 6e3b c5f9 1a3c
000000f0: 3e24 313b ef47 203c bdfe 3d3c c72f ce3b
00000100: 9c3c 05ba 78fc c43b 41f1 643c 0b0c 903c
00000110: 31b3 ce3b 0eac b53c 6179 5f3c 1124 613b
00000120: eb2b 993a 7498 4fbc e02c da39 bf3a 023c
00000130: ca5c 813b 9cfd 223c 8fa1 c63b b087 993c
00000140: f6b9 fe3a 72a8 863b 2d23 383c 1737 de3b
00000150: 8100 f03b 1c81 d13b 189f b53b 1d9c bbbb
00000160: a713 9dbb 0676 143c 0115 4b3c c840 cb3b
00000170: 0175 8c3c 3741 ae3b bbfe 4b3c 4c8f a73b
00000180: 0afd 323c 0037 843b a8b1 fd3b ad9b 5f3c
00000190: cd34 913c d0bf 0f3b 844a abbb 0912 2c3b
000001a0: 3bfa 1f3c 263f a4ba 4528 88bc 4f3e 443c
000001b0: 9857 663c f699 993c 58df 2dbc ef57 073c
000001c0: 5040 293c ad3c 1b3c 7fd6 413c 3da3 7c3b
000001d0: a710 113c 6693 bb3c 40ee 04bb 74f4 4eb9
000001e0: a0d2 67bb f8a8 5f3c 3bf2 09bb c9e8 a53c
000001f0: b34f 8cbc e686 503b 540c 1fb9 50d7 ca3a
00000200: b177 0d3c c569 a4bb 1d0f 383b 4d59 1abb
00000210: 95b4 353c cdb7 5c3a 854e a63b 35e0 e33b
00000220: 4edc bdbb a6f4 3dbc 57a4 3b3b f611 203c
00000230: d710 243c c9d2 0a3c 3a42 853b 897c 913b
00000240: 29fa c23b 283b 673b 2073 523c be49 c73b
00000250: 36ea 273a ccb2 883c 74d0 c23b a05d 96bb
00000260: 6145 803c 5a18 bd3b d56b 6a3b b55e 4c3a
00000270: 9570 5b3c c4e5 273c 9146 313a 0be1 373c
00000280: ba2a 143c 7dbc 643c 6aab ca3b 01b1 123b
00000290: 6429 62bc 4110 e43b de65 0aba b6a0 0f3b
000002a0: edb6 8a3b af4e f4ba 1370 873b 0112 ef3a
000002b0: bc87 ce3b 7e1c 993b 4c8e 0d3c bb1a b83a
000002c0: cea5 213c ab39 b23b 22b6 233c 4d65 cf3b
000002d0: 4a71 693c 9dc9 e43b 483c 4c3c a279 4c3c
000002e0: 9166 833c 3d28 8f3c 18b2 10bb a009 8b3b
000002f0: 1a52 003c 42b3 133c 4df5 66ba 74f7 8c3b
00000300: ca0b 0ebc 8ed4 6e3b 1316 8f3b 70dd 87bb
00000310: 3f76 aa3b 566b 0abc ecf5 053c 54b7 2f3c
00000320: a04d 28bb 8597 383c bedc 4a3c d59e a93b
00000330: f957 2a3c b1cf 973c 1f57 003c 8c52 503c
00000340: 62f7 6b3b f725 ee3b f6ea 453c 9dd7 f43b
00000350: 5303 7c3b 3cd4 3a3b 8454 853c 4e3e 18bb
00000360: 2405 043c 433a 1e3c c990 403b 104c 2c3c
00000370: 9936 433b bc0e e83c d117 c63b 34a8 533b
00000380: b5ad 943c 1ebd 023c 5d87 8c3c ac59 763c
00000390: a8a6 2b3c 8173 c83b f10a 993b 452f f73b
000003a0: 1790 883c 9c96 08bb 900b f03b af18 403c
000003b0: 8dbe 03bb 9c29 a23b 3774 2e3b 6cb9 d13c
000003c0: 0449 573c 47ab 093c ece5 963c 593b 2b3b
000003d0: 1f7b 0d3c 757c 2cb8 16a5 183c 5ab4 ef3b
000003e0: c905 1e3c 5fba 75bb a78f 54bb 6a58 0b3c
000003f0: 6500 883c 79e1 433c e925 293b 10ab ee3b
0.02217768 0.00057427416 0.0050118268 0.017101364 0.012341738 0.0077535445 0.012146813 0.00083824986
0.012400598 0.012716509 0.011463603 0.014265257 0.0025244027 0.008462641 0.0041640624 0.0087695345
0.0019541853 0.005953952 0.016129361 -0.008150495 -0.0008655769 0.01811277 0.010381865 0.0024049606
0.0017712294 0.021011401 0.009040847 -0.0039954176 -0.008705531 0.0048775743 0.008582725 0.0012730812
0.0061682416 0.012706125 0.010253873 -0.0012741026 0.0109373825 0.018598862 0.00876396 0.021706056
0.007395118 0.006802326 0.0004186605 0.005607935 0.0048568714 0.0061322004 0.005147108 0.0015360169
0.00717782 -0.0017080955 0.004056981 0.0012821628 0.0015164743 -0.002094348 0.0023047198 0.013247837
0.0020334532 0.010546268 0.0036464345 0.009458964 0.0027029659 0.009782775 0.011596379 0.0062923166
-0.0005082579 0.006011542 0.013973535 0.017583868 0.0063079824 0.022176769 0.013639779 0.0034353773
0.0011686062 -0.012670625 0.00041613635 0.0079485765 0.003947829 0.0099481605 0.0060617398 0.018741459
0.0019434083 0.0041094357 0.011238855 0.0067814696 0.007324279 0.006393565 0.005542647 -0.0057253973
-0.0047936025 0.009061342 0.012395144 0.006202791 0.017145636 0.005317833 0.012450869 0.005113518
0.010924587 0.004034877 0.0077421255 0.013647956 0.017725373 0.0021934398 -0.005227389 0.0026255867
0.009764249 -0.0012531027 -0.016620765 0.011977746 0.01405897 0.018750172 -0.010612331 0.008260711
0.010330275 0.009474915 0.011830925 0.0038549446 0.008854068 0.022897433 -0.002028361 -0.00019736757
-0.0035373345 0.013651125 -0.0021048922 0.020252602 -0.017127847 0.0031818687 -0.00015168014 0.0015475545
0.008634494 -0.0050174915 0.002808518 -0.0023551763 0.011090417 0.00084197224 0.005075278 0.006954218
-0.0057940846 -0.011593973 0.002863189 0.009769907 0.010013781 0.008473107 0.0040667327 0.0044398946
0.0059502316 0.0035283063 0.012844831 0.006081789 0.00064054446 0.01668682 0.0059452597 -0.0045887977
0.015658082 0.005770725 0.003576984 0.0007796095 0.013393541 0.0102476515 0.00067625294 0.011223088
0.00904339 0.013960955 0.006184985 0.0022383335 -0.013803814 0.0069599454 -0.00052794616 0.002191586
0.0042332322 -0.0018639172 0.0041332333 0.0018239619 0.006302802 0.004672586 0.008639883 0.0014046052
0.009866191 0.0054390035 0.009992154 0.0063292147 0.014248202 0.006982042 0.012465544 0.012480171
0.016040118 0.017475242 -0.0022078808 0.0042430907 0.007832075 0.009014906 -0.00088103564 0.0043019596
-0.008669803 0.003644261 0.004366645 -0.0041462705 0.0052020843 -0.008448442 0.008176308 0.010724861
-0.0025681034 0.011266594 0.012381731 0.005176405 0.010396951 0.018531652 0.007833271 0.012714993
0.0036005606 0.0072677094 0.012079945 0.007471992 0.003845413 0.002850785 0.016275652 -0.0023230496
0.008057866 0.009657445 0.0029383174 0.010516182 0.0029787181 0.028327338 0.0060453196 0.0032296302
0.018149236 0.007979659 0.01715439 0.015036028 0.010476746 0.0061172848 0.004670494 0.0075434768
0.01667027 -0.0020841723 0.007325597 0.011724635 -0.002010259 0.004948808 0.0026619562 0.025601111
0.013139967 0.008402652 0.018420182 0.0026127903 0.008635311 -4.1123905e-05 0.009316703 0.0073152008
0.009644934 -0.003749512 -0.0032434256 0.008504966 0.01660175 0.011955612 0.002580995 0.007283576

network_body._body_endoder.seq_layers.2.weight f4 [256, 256]
00000000: 291a 6c3d 4ead 083e 1cfc de3a 5efe ea3c
00000010: 282d 013e 7386 98bd 0efa 843d 2475 693d
00000020: 56b8 74bd e83a 9d3d 6cbf e7bd 6ae3 d53d
00000030: e1bc 68bd 4916 6abd 3dc2 a9bc 9b87 63bd
00000040: 1b86 c0bc 8f0f 9b3c 35b4 a63c d1ee f03c
00000050: b5a1 3d3c 55a5 e83c 8d2d 3dbd df2d 103d
00000060: 542f 0cbd 0211 41bd d024 753b ff2b 5bbd
00000070: d1ed 713c 6be3 d73c 254b 3fbd 4486 93ba
00000080: 6719 bd3d 0976 01bd c03d 6abd 0811 d6bc
00000090: ffaa 98bc ac0d 943d 2312 87bd 1164 82bd
000000a0: a60d c83c 29cc 94bd e37a 25bd c287 91bc
000000b0: f463 643d 93a7 b33c f1f8 2e3d c339 ab3d
000000c0: e64a 543d 9474 063c 982a 613d ce26 c4bd
000000d0: 0878 353d d37c 4e3d c55f 9a3d 24c4 dc3a
000000e0: 322a e5bd 4c03 293c 8622 ad3d 70b3 d2bd
000000f0: 621e 223d 8156 213b 84cb d53d 0914 7fbb
00000100: 84e8 5bbd d1e8 abbd c8e5 d83b dcef 8239
00000110: 0d13 143a f0d9 9abd 8268 8c3d cb70 7b3c
00000120: 439f 293d c433 e73a c5c3 17bc a86e b1bd
00000130: cc8d e8bb 0b49 813d 09b4 893d 9c83 82bb
00000140: 14a3 053d e0be 03bd 13c8 123e 6088 06bd
00000150: fcdb 91bd fdc7 74bd 0489 48bd 3071 283d
00000160: fd24 b3bd 55bd d53a 91c3 a43d 803e 18bc
00000170: d66c 09be 2a9a efbc 6f8f 5f3d 1145 62bc
00000180: 2283 1c3d 1652 88bc 2a22 323d 99e0 963c
00000190: ffe5 54bc 6e35 66bc f7e9 95bc ab1c 6bbd
000001a0: 56e0 d13c c338 46bc 19ae 153e 471a a03d
000001b0: 6d02 743c 89c3 5c3d 71a4 893d 06f4 9b3b
000001c0: bd3d 3dbe dbcf 08bc 2db5 173d 7404 df3d
000001d0: e102 69bc 76e6 dc3a 7fd6 82bb e5b9 27bc
000001e0: 4255 00be 1975 a73c d4b6 72bd 4263 4bbd
000001f0: f54b 5d3e 7d9e bf3d 5f69 3b3c ca68 c93c
00000200: 757d ff3c 7ed9 9bbd 6af2 15bc bc60 843d
00000210: 9be3 8abd 383c f1bc fd06 9e3d 949b aa3b
00000220: 8d83 a9bd 8dc3 813d b794 63bd e0bc 0d3d
00000230: 0375 5cb9 9e26 6fbd f377 8b3b f235 9cbc
00000240: 33e8 61bd 2906 18bc 0828 543d c146 23bd
00000250: f2f9 66bd f492 8b3d 132a 9c3d d74d 55bc
00000260: e7e6 553d 0db8 e3bc ee23 b13c c78c 5d3c
00000270: dff5 fd3d 2cd3 cc3a 2ba8 073d 3ce4 133d
00000280: 72cc aa3d ddfb 703d 2a0a b63c 9937 00be
00000290: b1f9 96bc 793b 31bd 8b56 293d 2219 653d
000002a0: 1ff5 8f39 0905 22bd 7170 efbc a996 8b3d
000002b0: 7820 5ebd 8f16 babc fd55 d4bd b478 253d
000002c0: 2fb9 f43c 4299 243c 59b4 2a3d 000a d43c
000002d0: 6b43 0a3d e2b0 adba a7ca bf3d b11f dc3c
000002e0: 591c aebd 91ec 1fbe 46c7 0f3e d846 f53d
000002f0: afd8 e2bc 7b79 e1bc 51aa 6abc 8198 5d3d
00000300: 62ff 97bd 6bb5 e1bd c188 863d 4e5e b4bd
00000310: fed0 51bd 932b 2cbd 17ba a8bc 02cb d13d
00000320: 01a3 af3d 49f4 86bd 5365 1abb 203e cfbd
00000330: f339 a53c aa37 a13d b1bf 8f3d 579c f7bd
00000340: e691 00be aab1 8ebd ccfb f23c 700f 073d
00000350: d641 5d3c 5289 0e3c e4fb f2bc 72f0 51bd
00000360: fb6b 583d 5869 0ebd 326f 713d 4496 bd3c
00000370: 450e 9c3d d59a fb3c 13bc 6d3c 81b0 c93d
00000380: dd7b 4d3d 6991 bf3d 0304 94bc 684b 11bd
00000390: 666e 403d 0d72 98ba 8a3b 803c 3ea7 64bd
000003a0: b0f9 71bd f974 53bd a96c c7bc 7247 2e3c
000003b0: e0e0 7e3c 6b98 0c3c 3e55 833d 51ab c93d
000003c0: 6e68 c0bd 9c53 8d3d ea42 033e f074 4f3e
000003d0: f268 283d 7e81 f0bc b822 4e3c 70a0 663d
000003e0: 97eb 3b3d fcfb 133e 36fc ee3d 6bc2 fcbc
000003f0: b42d 72bc f211 923d a3dd 87bd 7ac3 6abd
0.057642136 0.1334736 0.001701239 0.028685745 0.12614882 -0.07447519 0.06493007 0.05699648
-0.05974611 0.07677251 -0.11315808 0.104437664 -0.056820754 -0.05715016 -0.020722503 -0.055549245
-0.023501446 0.018928317 0.020349601 0.029410752 0.0115741985 0.028399149 -0.04618602 0.035199996
-0.034224823 -0.04713536 0.0037405975 -0.053508755 0.0147661725 0.026353559 -0.046702523 -0.0011255224
0.09233361 -0.031606708 -0.057187796 -0.026131168 -0.018636225 0.0722917 -0.06595256 -0.063667424
0.02442057 -0.07265503 -0.040400397 -0.01776493 0.055759385 0.021930492 0.042717878 0.083606265
0.05182924 0.008206505 0.05497226 -0.09577714 0.044303924 0.05041201 0.07537798 0.0016843122
-0.11189689 0.010315727 0.084538504 -0.10288131 0.039579757 0.002461821 0.10439208 -0.0038921854
-0.05368854 -0.083940156 0.006619189 0.0002497424 0.0005648591 -0.075610995 0.06855871 0.015346716
0.04141165 0.0017639329 -0.009262984 -0.08663684 -0.0070969816 0.0631276 0.06723792 -0.003982974
0.032626227 -0.032164454 0.14334135 -0.0328449 -0.07122037 -0.059761036 -0.048958793 0.04112357
-0.08747289 0.0016307036 0.08045114 -0.009292245 -0.13420424 -0.029248316 0.05458015 -0.013810412
0.038210995 -0.016640704 0.043489613 0.018417643 -0.0129942885 -0.014050825 -0.01830004 -0.057400387
0.025619667 -0.012098494 0.14617194 0.07817512 0.0148931565 0.053897414 0.06720818 0.0047593145
-0.18480583 -0.008350338 0.037038017 0.10889521 -0.014221878 0.0016853351 -0.003992855 -0.010237192
-0.12532523 0.020441579 -0.05925639 -0.049655207 0.21611007 0.09356401 0.011438697 0.0245861
0.031187752 -0.07609843 -0.009152034 0.06463763 -0.067816935 -0.02944766 0.07716177 0.0052065346
-0.082770444 0.063361265 -0.055561747 0.034603953 -0.00021024425 -0.058386438 0.0042562424 -0.019068692
-0.055153083 -0.009278812 0.05179599 -0.039862398 -0.05639071 0.068151385 0.076252125 -0.013019047
0.05222216 -0.027797723 0.021623578 0.013522333 0.12400412 0.0015626899 0.03311936 0.036106333
0.08339776 0.058833946 0.022221643 -0.12521209 -0.018429609 -0.04326961 0.0413423 0.05593217
0.00027457715 -0.039555583 -0.02922842 0.068158455 -0.054230183 -0.022715835 -0.103679635 0.040398315
0.029873459 0.010046305 0.0416759 0.025883675 0.0337557 -0.0013251568 0.09364825 0.02687058
-0.08501501 -0.15617587 0.1404086 0.11976403 -0.027691213 -0.027523747 -0.014322833 0.054100517
-0.07421757 -0.11020931 0.065690525 -0.0880705 -0.0512247 -0.042033743 -0.020596547 0.10243799
0.085760124 -0.065895624 -0.002355893 -0.10119271 0.020169234 0.07871945 0.07018984 -0.12090366
-0.12555656 -0.069674805 0.029661082 0.032973707 0.013504466 0.008699732 -0.029661126 -0.051254697
0.052837353 -0.034768432 0.058943935 0.023142941 0.07619909 0.030713478 0.014510172 0.098481186
0.050166953 0.09353907 -0.01806832 -0.035472304 0.046980284 -0.001163067 0.01565339 -0.055823557
-0.05907601 -0.051625226 -0.024343805 0.010637151 0.015556544 0.008581261 0.06412743 0.09847129
-0.093949184 0.06900713 0.12818494 0.20259452 0.04111571 -0.029358622 0.01258152 0.05630535
0.045878973 0.14451593 0.11669199 -0.030854424 -0.014781404 0.07132329 -0.06634071 -0.057315327

network_body._body_endoder.seq_layers.4.bias f4 [256]
00000000: e905 0a3c 3eb6 d43b ce41 b23b dc64 8639
00000010: 0984 8a3b 08d3 b23b 2c92 be3a 1eda 503b
00000020: ac6e 803b e87a d13b 0f6c f93b e2c5 6b3c
00000030: cc0b ff3b 4a4c 033c 0040 7f3b 7bbd 05bb
00000040: 586d b63b d620 f83b 8a93 1bbb df08 dd3a
00000050: fe2d 073c 99e7 413b 7646 103c b5ce 933b
00000060: 8805 f23b 5d63 ab3b 982a 953b cb6b fd3b
00000070: 7b72 e33b cb1f ce3b fa82 1e3c e698 3a3c
00000080: b6b7 273c 95af f83b 4961 553b 3524 813c
00000090: d097 b33b 7709 b83b 268c f53b d013 563b
000000a0: 90ce f43b 2dee b63b a893 323c 28c1 273c
000000b0: 8563 993b c3a7 9f3b 2a38 0a3c f17e c43b
000000c0: fe2b 943b 56ec 173b a68a b83b 619e 60bb
000000d0: da79 3e3b 2b0d bb3b 2978 f23b f460 98ba
000000e0: 673b 7b3c 3fc7 c23b c34f f13b eaa5 f23b
000000f0: af33 aa3b 51ab 2b3c 719f 043c 77ef 523c
00000100: 88a2 a83b 230b 793b bb09 d43b f23a 4d3b
00000110: d2b7 c53a d8e1 083c 2172 193c 3484 273c
00000120: 0d5d 633b 2bac 833b a559 573c 693e 1c3c
00000130: b829 263c 3824 e6ba 8b74 be3a caf2 e93b
00000140: 3999 883b b216 0dba a84a 5e3c 45c9 ea3b
00000150: 2990 223c fc53 093c 2ee9 e83b dd1f 2f3c
00000160: 4e0a a73a c7a5 883b e811 ad3a 4372 5d3c
00000170: 21db 483b f977 993b 0146 003c 7995 9a3b
00000180: ddc3 89bb 03d0 0b3c a259 e3b8 a242 8b3b
00000190: ae0e e13b bb6d 593c 7886 f03b f434 e73b
000001a0: 0bc1 1e3c baf4 b13b 8f64 033c 6d5f 4f3b
000001b0: beda 6a3c e78f 26bb 0890 503c d8da 3d3c
000001c0: cdc2 893b 8e25 0a3b 7dd6 dfb9 ecc6 5e3c
000001d0: 80b8 8a3b 853b 2f3c 8b48 a03b 30e1 cfba
000001e0: 7623 1c3c 1957 223c 1cb2 1bbb bf56 f03b
000001f0: b351 9e3b d51d e63b 1a96 043c 1865 f73b
00000200: ea7d 573c 9aaa 843b f6f4 803b cc67 b53b
00000210: bac8 0e3c 097d 4dbb 6728 f03b 8922 423c
00000220: a94b 5e3b 2212 073c 8c41 033c 182c d63b
00000230: f5f7 393c 3c19 97b9 223b 2d3c 1af9 8f3c
00000240: 3a3e 493c e763 143c ab99 fe3b 3b7b c73b
00000250: 01e9 673b 97d9 b23a 3c60 0a3c 91b9 e93b
00000260: 7a3a c93b 5dd2 6339 ec2d bd3b 0d14 633b
00000270: b957 713c 90c6 b63b fb12 b23b ac99 583b
00000280: 3b92 373b e494 a33b 04e8 1a3c c749 5f3b
00000290: 687c 5f3b bde4 fd3b a147 153c 859c 2a3c
000002a0: a139 c83b 10d6 a83b e85a 303c cff0 e53b
000002b0: 5a30 073c def1 5d3b 2874 ae3b 8128 6c3c
000002c0: 9123 183c 5cd7 583c 29ec 503b aade 853b
000002d0: 1b51 c83a 3b5d 173c b8bc 5a3c c6b3 e43a
000002e0: de1e 213c 9674 4e3c daaa 393b a9e3 a13b
000002f0: de25 f73b ef1e 3a3c 0c2f 1d3c 5679 063c
00000300: f57f 0a3c 731f 173c 6cbd 7b3c a335 b23b
00000310: e114 143c 58bd b03b 6ca1 da3b f9f1 893b
00000320: 5208 1e3c a76e 623b 0edd 8b3a d202 103c
00000330: 36b6 5c3b 6134 823b 9793 7c3b a27c 303b
00000340: 3877 593b 946d 073c f6d4 373c 001d d93b
00000350: ae9c 3d3c fc3f f23b e532 443c e4b5 903a
00000360: 3ec0 383c 8ad2 963b c28f df3b 968d 863b
00000370: 1b84 043c 0600 cd3b 0b76 d93b 6683 103c
00000380: b88c 353c 6bd3 0e3c 5b00 833b 3784 d73b
00000390: 7976 953b f56c f83b 6a86 2c3c 15c1 503c
000003a0: 843c 723b 17bd 563b 99e7 bfbb 6b9e fd3b
000003b0: d455 b63b e720 843c 1031 943b f675 bf3b
000003c0: 6e88 a23b 2b51 df3b 61fc 503c 5e04 183c
000003d0: 1e3d 863b c6ee 413c 9703 9f3b 1f2a 6a3b
000003e0: 2c34 8c3b cd55 1d3c 3014 9d3b a343 863b
000003f0: d4b0 b13b f201 2c3b 3726 35ba 718a 653c
0.008424261 0.0064914515 0.0054399734 0.00025633618 0.0042271656 0.005457286 0.0014539412 0.003186829
0.003919443 0.0063928254 0.0076117585 0.014390441 0.0077833887 0.008013794 0.003894806 -0.0020407129
0.005567234 0.0075722737 -0.0023739063 0.0016863606 0.0082507115 0.0029587506 0.008805862 0.0045107254
0.0073859133 0.005230351 0.0045521967 0.007733797 0.0069411374 0.006290411 0.009674782 0.011388993
0.010236671 0.0075892904 0.0032559207 0.015764335 0.005480744 0.0056163627 0.0074935136 0.0032665618
0.007470913 0.005582592 0.010899462 0.010238923 0.004681053 0.0048722937 0.008436242 0.005996578
0.004521846 0.0023181639 0.0056317626 -0.0034274089 0.0029064328 0.005708357 0.007399578 -0.0011625574
0.015333987 0.005944162 0.0073642447 0.0074050324 0.0051941494 0.010477857 0.008094654 0.012874476
0.0051463284 0.0038001023 0.0064708865 0.0031315652 0.001508469 0.008354627 0.009365589 0.010224391
0.0034692914 0.0040183268 0.0131439315 0.009536364 0.010141782 -0.0017558401 0.0014530582 0.0071395384
0.004168656 -0.0005382105 0.013567604 0.0071651065 0.009922066 0.00838184 0.0071078753 0.010688749
0.001274416 0.004170153 0.0013204189 0.013516012 0.003064819 0.0046834913 0.00782919 0.0047175256
-0.004204257 0.008533481 -0.00010840899 0.0042498866 0.006868205 0.013270791 0.0073402487 0.007055873
0.00968958 0.005430785 0.0080195805 0.0031642572 0.014334379 -0.0025415362 0.012729652 0.011587821
0.0042041303 0.0021079513 -0.0004269368 0.013597231 0.00423342 0.010695343 0.0048914603 -0.0015859958
0.009529939 0.009908461 -0.0023757285 0.0073345597 0.0048315166 0.007022599 0.008092428 0.007549893
0.013152579 0.0040486576 0.0039354516 0.005536055 0.008714849 -0.0031355044 0.007329035 0.011849054
0.0033919609 0.008244069 0.008011233 0.006536018 0.0113506215 -0.00028819765 0.01057318 0.017574836
0.012282902 0.009057022 0.0077697835 0.0060876883 0.0035386684 0.0013645169 0.008445796 0.007132717
0.006141004 0.00021726773 0.0057732966 0.0034649402 0.014730387 0.0055778697 0.0054343916 0.003305058
0.0028010744 0.0049921144 0.009454731 0.0034071074 0.0034101252 0.007748215 0.009111316 0.010413294
0.0061103855 0.0051524714 0.010763861 0.007017232 0.008251274 0.0033866088 0.0053239055 0.014413954
0.009285823 0.013234939 0.0031879044 0.0040853815 0.001528296 0.0092385365 0.013350658 0.0017448596
0.0098340195 0.012601038 0.0028330595 0.0049404693 0.007542356 0.011359914 0.009593736 0.00820764
0.008453359 0.009223807 0.015364986 0.005438523 0.009038181 0.0053936653 0.006672075 0.0042097536
0.009645538 0.0034550817 0.0010670738 0.008789735 0.0033677942 0.003973529 0.003854012 0.0026929756
0.0033182632 0.008265872 0.011220207 0.0066257715 0.011573 0.0073928814 0.011975025 0.0011040536
0.011276303 0.004602735 0.006822557 0.004106234 0.008088137 0.0062561063 0.0066363863 0.00882039
0.011080913 0.008717398 0.003997845 0.0065770405 0.004561242 0.007581348 0.010530094 0.012741347
0.003696234 0.0032766515 -0.005856466 0.007739832 0.0055644307 0.01612897 0.0045224503 0.0058429195
0.0049601113 0.006815096 0.012755484 0.009278385 0.004096641 0.011836713 0.004852723 0.0035730673
0.0042786803 0.009602976 0.0047936663 0.0040974184 0.005422691 0.0026246277 -0.00069102965 0.014010058

network_body._body_endoder.seq_layers.4.weight f4 [256, 256]
00000000: 3b27 12bb e2c0 2f3d 8ae2 cf3d 0966 d9bc
00000010: 923a 8d3d 33ee cabd 1cba 9c3d e090 af3d
00000020: aa8d 733d 6a41 553d 0b45 b83d c5f5 95bc
00000030: b5cd cabd 22e4 dfbd bfc7 993d f2df 38bd
00000040: 3e03 133d 6654 9d3d e228 a43d 0448 77ba
00000050: d26d 1fbc 7c4f c93d 37cf 96bc 188d dabd
00000060: de0c fa3d a0d2 9e3d 5d3b 2ebd 936b 7b3d
00000070: 691f f1bb 4490 b83c 37a2 763b 3cc6 b3bd
00000080: a38a 993c 0410 283e 4e63 fe3c 7082 123d
00000090: d751 ab3c 5d58 5bbd 6c41 603d ba42 b7bc
000000a0: 5f0c 45ba 4015 ffbc 8a4d e93c ab67 dd3d
000000b0: f9d7 1dbc 71dd df3c 3579 3dbd 52b6 adbd
000000c0: 9710 22bd 0ae6 a2bd 3994 2bbc 34dd f0bc
000000d0: 9df2 06be 70f4 193d 8c03 7d3d 685a a53c
000000e0: bc15 183b dd88 b3ba f443 da3d f1fa a43d
000000f0: dc07 f0bc 3d5b cebd 9db8 323d ea57 dfbd
00000100: 245c 24bd 967a f4bc 43c2 ee3c cacc e6bd
00000110: 92ee 1b3d eec5 003d 064d 18bd be59 c53d
00000120: 164d 41bc d5d5 1b3b e1bb 1a3e d7c4 193d
00000130: e402 513a 363e 90bd 2d0d af3d 8461 e33d
00000140: 3415 84bc 732a 93bc e12e b43d 8cec ccbc
00000150: 92e1 0bbd d46a 953d 529b 47bd ad5d 84bc
00000160: 0f9a bcbc af73 923d a8ae 2bbd 496d b6bc
00000170: 0d3c 4e3d d9ed d83c e991 1a3d 42f6 10bd
00000180: 8cb5 46bb 173b 0f3e 437b efbc 7d08 463d
00000190: 85c7 74bd da86 113c f7d3 26bd 9d0a 513d
000001a0: a9b9 77bd c5a9 fc3b cdbe a03d c4a2 30bd
000001b0: b219 afbd 58bb 373d fb6b 66bc ed04 003d
000001c0: a674 99bd 990e f3bb 5d0d 2ebe 38fb 393b
000001d0: ede3 44bd 0ad7 8ebc d799 813c d15a bdbc
000001e0: 3c11 babd c126 96bc c0e7 6abd 9edd 8fbb
000001f0: f46a 3bbc 818a ab3c c7d9 ffbd d132 58bd
00000200: d2c9 92bc f761 77bd bad7 f1bd 8d7c 313d
00000210: 9278 9cbd 362d 103d e2ea cbbd 9dc5 28bd
00000220: b1af bebc 1809 dbbd d858 0b3e bbae 143c
00000230: 21e0 5bbd f45d b8bc cae1 97bd a77c 7cbd
00000240: a09d 9abd 8245 6d3d 1aa1 8fbd 5974 8d3c
00000250: d2cb a9bc bb45 edba d6d5 723d 5dde 9a3d
00000260: d887 b43d bd5d babd de65 70bb a6de 95bd
00000270: 9911 76bc d53d 7cbd a10c 1e3d b1f7 0a3d
00000280: 364a adbd fa67 cd3d 58dc 2cba ca4d b1bc
00000290: 8a79 253d c611 0ebd 2131 16bc d0e7 d2bc
000002a0: 021c 64bd 78e4 0fbc 207f d93d f055 ad3d
000002b0: 90ff 88bd 6156 8e3c 0219 b2bd 6f1c 88bd
000002c0: 8994 983d 0e4f fa3d d9c3 89bd 922e c2bc
000002d0: 0b91 e23c 556d cf3d 1202 b3bd 79c1 f8bc
000002e0: 8676 903d ea50 9ebd 4b68 28bc 7c65 87bd
000002f0: 5c03 97bd 382b 0bbd a42e 89bd 6d13 853c
00000300: a535 283d 1c59 593b f93a f1bb b998 a3bd
00000310: aece ee3d 6394 52bd f495 fabb f88b 88bd
00000320: 0b22 e73c cef9 28bd 64aa 42bc faab 17bc
00000330: a14e f83c 8aaa b6bd 5990 94bb 8c0b adbd
00000340: 9789 8b3d 0a05 d43c 3aa4 f73c 001b fc3d
00000350: 6c46 113e 923b d8bc c366 1cbd a72a c1bc
00000360: e0dc e2bc 3365 9c3c 9310 87bd 0299 97bc
00000370: 5fd0 19bc 4b8d 95bb 0bae 0a3d de0a e6ba
00000380: cb9f 0abe 1f80 133c f385 db3c 4829 1d3e
00000390: 9cec f93a 9e68 45bd b004 c73c 0386 c4bc
000003a0: 3695 28bd 261c 233d 6456 cf3d 1a28 e1bc
000003b0: 3abb 953c e852 883d 4a8f acbd 31f0 323b
000003c0: b6fe 6abd 4982 a03d 5b1d 183c f4e8 c33d
000003d0: d881 273d 346e 0e3d bbda 783c 902c ba3d
000003e0: 7fd2 8b3d f118 06be deeb 9ebb 134c 05bd
000003f0: 76cf 44bc 1b8d 333e ec68 373d 4e35 733d
-0.0022301215 0.042908557 0.10150631 -0.026537912 0.06895937 -0.09908714 0.07652685 0.085725546
0.059461273 0.052064337 0.08997544 -0.018305669 -0.09902517 -0.10932185 0.07508802 -0.045135446
0.035891764 0.07682113 0.0801561 -0.00094330334 -0.009730773 0.098296136 -0.018409355 -0.10671443
0.122094855 0.07755017 -0.042537082 0.061381888 -0.0073584807 0.022529729 0.0037633309 -0.087780446
0.018742865 0.1641236 0.031053212 0.035768926 0.020913048 -0.053551067 0.05474989 -0.022370685
-0.0007516797 -0.031138062 0.028479356 0.10810789 -0.009634011 0.027327271 -0.04625817 -0.084820405
-0.039566603 -0.07954033 -0.010472351 -0.029402353 -0.13178487 0.03758663 0.06177096 0.02018471
0.0023206314 -0.0013697405 0.10657492 0.08055676 -0.029300623 -0.10075996 0.043633092 -0.1090544
-0.040126935 -0.02984361 0.029145366 -0.11269529 0.038069315 0.03143876 -0.03718283 0.096362576
-0.011798164 0.0023778577 0.15110733 0.037541237 0.0007973148 -0.07043116 0.08547435 0.11102584
-0.016123392 -0.017964577 0.08798004 -0.025015138 -0.034150667 0.072957665 -0.04873211 -0.01615795
-0.02302268 0.07150971 -0.041914612 -0.022268908 0.050350238 0.026480602 0.037736807 -0.0353911
-0.0030320613 0.13987385 -0.02923358 0.04834794 -0.05976059 0.008882249 -0.04072949 0.051035512
-0.060479794 0.007710668 0.07848892 -0.043123975 -0.08549823 0.0448564 -0.0140638305 0.031254698
-0.07492952 -0.0074175117 -0.16997285 0.0028378498 -0.04806893 -0.017436523 0.015820427 -0.023114594
-0.090853184 -0.018329026 -0.05734992 -0.0043904325 -0.011439074 0.020940067 -0.124927096 -0.052782837
-0.017918501 -0.06039616 -0.11808725 0.04333167 -0.076401845 0.035199367 -0.0995691 -0.041204084
-0.023277136 -0.10695094 0.1360811 0.009074862 -0.053680543 -0.022505738 -0.07416113 -0.061642315
-0.07549596 0.057927616 -0.070131496 0.017267393 -0.020727072 -0.0018102446 0.05928596 0.07561944
0.08814973 -0.090999104 -0.0036681811 -0.073178574 -0.015018844 -0.061582405 0.038586263 0.033927623
-0.0846142 0.100295976 -0.0006594113 -0.021643538 0.04039911 -0.03468492 -0.009166987 -0.025745302
-0.055690773 -0.008782499 0.1061995 0.08463657 -0.0668937 0.017375173 -0.08696176 -0.06646048
0.07450206 0.1222211 -0.06726808 -0.023703847 0.027657053 0.10128275 -0.08740629 -0.030365692
0.070538566 -0.07730277 -0.010278772 -0.066111535 -0.073736876 -0.033976763 -0.06698349 0.016244614
0.041066784 0.0033164686 -0.0073617664 -0.07988114 0.11660515 -0.051411044 -0.0076472703 -0.06667322
0.028214475 -0.041253857 -0.011881445 -0.009257311 0.03031093 -0.089192465 -0.004533809 -0.08449468
0.068133526 0.025881309 0.030229677 0.12309837 0.1418702 -0.026395593 -0.03818394 -0.023579909
-0.027693212 0.019091224 -0.06594958 -0.018505577 -0.009388058 -0.0045639626 0.033857387 -0.0017550846
-0.13537519 0.009002714 0.02679727 0.15347779 0.0019067707 -0.048195474 0.024294227 -0.023989683
-0.041157924 0.039821766 0.101238996 -0.027484942 0.018277753 0.06656438 -0.08425768 0.002730381
-0.057371818 0.0783735 0.009284343 0.09565917 0.040895313 0.034773067 0.015188868 0.09090531
0.06827258 -0.13095452 -0.004849895 -0.032543253 -0.012012353 0.17534296 0.044777796 0.059377007

network_body.observation_encoder.processors.0.normalizer.running_mean f4 [68]
00000000: 716e 9a3e 11ca d13e d6c6 933e 49d0 493f
00000010: 027b fb3d e7e2 663e a5d7 263f 7530 683f
00000020: 7f04 ff3e de12 073e f26d bd3e af50 2c3f
00000030: 3227 d63e 9877 2c3e 849b d33e 140c 433f
00000040: 5896 ed3e cf6a 1c3e 6733 c43e e057 233f
00000050: 16b9 8e3e 6ff7 033f 5a96 523e fc8c 493f
00000060: 1f1b 143f 2496 a93e 4ba5 b83d fbf8 ed3e
00000070: cd0f 223f 2fee a83e 6506 163d fee0 013f
00000080: aff6 3c3f c756 553e 163c 5a3d 8bc4 a93e
00000090: 8594 653e d56d 283f 7961 ec3d a14a 413f
000000a0: 2c85 b73e c0ec 053f d041 f13d b733 1e3f
000000b0: 2195 963d a33e 303f 97bc b03d f495 4e3f
000000c0: 35be f73d 05fc 563f 40a2 c23c d2dc 313f
000000d0: 6a44 963d a521 493f 4abc ef38 5eb0 233f
000000e0: e481 d03d 4176 4f3f a69b 993a 5fdd 173f
000000f0: 7d61 c93d bb6a 4c3f 4aea 3b39 2d40 113f
00000100: 7d61 c93d b86a 4c3f 4aea 3b39 2d40 113f
0.30162385 0.40974477 0.28862637 0.7883344 0.12279321 0.22547494 0.651728 0.9069894
0.49808118 0.13190791 0.36997944 0.67310613 0.4182678 0.16842496 0.41329587 0.76190305
0.46403766 0.15275119 0.38320467 0.6380596 0.27875584 0.5154943 0.20565167 0.7873075
0.57853884 0.3312236 0.09015902 0.4647902 0.6330536 0.3299422 0.036627192 0.50733936
0.7381391 0.20833884 0.05327996 0.33157763 0.22419937 0.6579259 0.11542029 0.755045
0.3584379 0.52314377 0.11780131 0.6179766 0.07352663 0.68845576 0.08629721 0.8069756
0.12096826 0.839783 0.023759007 0.6947757 0.07337268 0.7856696 0.0001143148 0.6394099
0.10181025 0.81039816 0.001171936 0.5932216 0.098330475 0.7985036 0.00017920989 0.5673855
0.098330475 0.7985034 0.00017920989 0.5673855

network_body.observation_encoder.processors.1.normalizer.running_mean f4 [6]
00000000: be51 22c1 762b cd40 e0fe 2fc1 bcfe df40
00000010: 39a3 2440 8c18 e242
-10.144957 6.4115553 -10.999725 6.9998455 2.5724623 113.04794
