Assets/Training/results/b_treasure_test80_Th64_Lr1e-4Bs4096Bs65536_EndDistanceReward_0.5deltaXZ_15deltaY/TreasureSearch/TreasureSearch-999990.onnx (onnx, 608683 bytes, 13 tensors)

65 f4 [68]
0.4405666 0.4949303 0.3714724 0.28050405 0.42954585 0.48831865 0.35548326 0.2737207
0.42000023 0.49175963 0.38479832 0.2622224 0.40459454 0.48096612 0.36382413 0.28859335
0.43083864 0.4956272 0.39029637 0.2526941 0.47237653 0.49096632 0.25338942 0.3155533
0.4297246 0.498513 0.41167656 0.27623445 0.49960187 0.49950683 0.19893235 0.30209547
0.4934468 0.49354336 0.36537513 0.33041173 0.42585886 0.49644652 0.3986274 0.3118396
0.49977788 0.48967466 0.3139781 0.3325809 0.46325767 0.497376 0.18332998 0.26091924
0.4684255 0.4973472 0.2507137 0.30903488 0.43252462 0.4781636 0.029125283 0.20283002
0.45169675 0.41881448 0.051525597 0.20780957 0.35803545 0.44302246 0.039466184 0.16872604
0.35803545 0.44302246 0.039466184 0.16872604
00000000: f291 e13e 8167 fd3e a131 be3e 3a9e 8f3e
00000010: 6fed db3e e704 fa3e e701 b63e 1f25 8c3e
00000020: 450a d73e ebc7 fb3e 4904 c53e 0442 863e
00000030: 0427 cf3e 3141 f63e 2847 ba3e 82c2 933e
00000040: e296 dc3e d9c2 fd3e edd4 c73e 1f61 813e
00000050: 56db f13e f05f fb3e 42bc 813e 3490 a13e
00000060: dd04 dc3e 193d ff3e 45c7 d23e 9a6e 8d3e
00000070: d1cb ff3e 5cbf ff3e ecb4 4b3e 42ac 9a3e
00000080: 0fa5 fc3e b7b1 fc3e 7312 bb3e ba2b a93e
00000090: 2c0a da3e 3d2e fe3e e418 cc3e 71a9 9f3e
000000a0: e3e2 ff3e a3b6 fa3e bdc1 a03e 0b48 aa3e
000000b0: 1c30 ed3e 11a8 fe3e dbba 3b3e 3597 853e
000000c0: 78d5 ef3e 4ba4 fe3e 8c5d 803e d239 9e3e
000000d0: de73 dd3e dcd1 f43e 2598 ee3c acb2 4f3e
000000e0: cc44 e73e da6e d63e 810c 533d 08cc 543e
000000f0: 6c50 b73e d7d3 e23e 4ba7 213d 85c6 2c3e
00000100: 6c50 b73e d7d3 e23e 4ba7 213d 85c6 2c3e

68 f4 [6]
2.5323615 4.436205 0.011050315 0.0070709707 4.0273185 115.75139
00000000: 3612 2240 64f5 8d40 610c 353c 9ab3 e73b
00000010: cbdf 8040 b680 e742

action_model._continuous_distribution.log_sigma f4 [1, 2]
0.0006180946 -0.008570207
00000000: a007 223a 0e6a 0cbc

action_model._continuous_distribution.mu.bias f4 [2]
-0.0047604386 0.002215273
00000000: 74fd 9bbb 1d2e 113b

action_model._continuous_distribution.mu.weight f4 [2, 256]
0.014746715 0.009824827 -0.015359564 0.00666229 -0.010391811 -0.022140337 -0.030521594 -0.030238323
0.026603874 -0.020370375 -0.009427191 0.019364025 -0.01047808 0.010861616 -0.016854092 0.021611143
-0.03459265 0.010127902 0.00023702688 -0.031177577 0.024812268 -0.03156596 0.006284589 0.016219331
0.041107196 -0.019489912 -0.007993327 -0.012364974 0.001957032 -0.014707692 -0.026607418 0.003771296
0.029681362 -0.02911999 -0.025896033 -0.0032624363 -0.014634109 -0.04139568 0.028481403 0.018735996
0.007106422 -0.012744145 -0.035302404 0.006051795 0.0041472255 0.0049860836 0.020804096 0.0031082032
-0.0038887588 -0.006710341 0.030005662 0.018255142 0.019440187 0.008833092 0.025215017 0.007588839
-0.00557614 -0.0030397465 -0.018653477 -0.02228769 0.015185203 0.017402427 -0.013885614 -0.014730889
0.0063312263 -0.032441232 -0.017498769 -0.004250143 -0.021807712 -0.0021612446 -0.0068992605 0.00029116686
0.0008689806 -0.0060092765 0.012027429 0.01731366 0.018229747 -0.02362933 -0.028648432 0.018792462
0.03458996 -0.0056742565 -0.023762964 0.022998732 0.009797044 0.024006326 -0.029562373 -0.013097388
0.009388845 0.008597827 -0.017123168 -0.010385524 0.024113296 -0.013135687 0.035443753 0.01064215
0.024401318 0.0003712304 0.02343589 0.017327016 0.02100956 0.0014239326 -0.005916141 0.024285499
-0.007789973 -0.008073287 0.003411647 -0.0032879089 -0.024580268 0.009728895 -0.013584485 -0.009593182
-0.03135688 0.021342356 0.009647136 -0.017747022 -0.023615506 -0.00063940074 0.0043599103 0.008682733
0.0041240994 -0.007998674 -0.015263599 0.0012631608 -0.019244654 -0.021963755 0.007140604 0.0034835953
-0.033352975 0.002639084 -0.014386773 0.006054019 -0.023400107 -0.017446809 0.02056991 -0.01404603
0.0011516183 0.01564278 -0.012123653 0.024993127 0.037272915 -0.03230624 -0.007896984 -0.014435206
-0.012554878 0.012558945 -0.032722745 0.010493723 -0.017070716 -0.014144848 -0.038818024 0.01845542
-0.006820478 -0.01505462 0.024730287 -0.003476901 -0.008197074 -0.006968331 0.02260442 0.010886883
-0.009921283 -0.019218989 -0.019022044 0.0022059092 0.007356453 -0.049157735 -0.022980569 0.00816807
-0.022461716 -0.0037988967 -0.018622013 -0.0052582193 -0.028399 0.041795775 0.0036116506 0.028369969
0.0010655881 -0.0020021063 -0.0042141383 0.020842746 0.023094527 -0.027507413 0.00026640657 -0.028341612
0.021384738 -0.01767601 -0.014776031 -0.03181098 -0.013298501 0.021850921 0.022991965 -0.03540944
-0.014585464 -0.0014236475 0.022009594 -0.0024551433 -0.026809856 -0.01396234 0.022782072 0.017556475
0.03851655 0.044208422 0.0016782446 0.017056234 -0.021375379 0.04702573 0.016128894 0.0029479335
-0.008349705 -0.016792903 0.0025476753 -3.7121237e-05 -0.023341224 0.007166535 -0.026523747 -0.0153869735
-0.020172337 -0.013076604 0.003892156 -0.0096655 -0.0016287847 -0.005100082 0.0133369025 0.01764166
0.02845617 0.0071911695 -0.029769141 0.015241167 0.006433556 0.006009343 0.019537693 -0.017778292
-0.02534232 0.0042340164 0.020292867 -0.0075635905 -0.0048143025 -0.001068496 -0.0019414496 -0.023574797
-0.01182337 -0.0112537 0.003825645 -0.011747479 0.025544308 -0.021136323 0.009498419 0.022179408
0.02980237 0.008191832 0.029266166 0.028655207 0.010446282 -0.031828064 0.011448655 -0.013119625
00000000: 359c 713c 50f8 203c aea6 7bbc 574f da3b
00000010: 6a42 2abc a75f b5bc 6c08 fabc 5cb6 f7bc
00000020: 5ef0 d93c c6df a6bc 8174 1abc 4ea1 9e3c
00000030: 41ac 2bbc ebf4 313c 9811 8abc da09 b13c
00000040: 06b1 0dbd 80ef 253c 6b8a 7839 1e68 ffbc
00000050: 1943 cb3c 4f4b 01bd f4ee cd3b 67de 843c
00000060: 0560 283d 4fa9 9fbc 72f6 02bc 7696 4abc
00000070: 8c41 003b 88f8 70bc cdf7 d9bc d927 773b
00000080: 5426 f33c 0c8d eebc eb23 d4bc 99ce 55bb
00000090: e7c3 6fbc 848e 29bd d551 e93c 3b7c 993c
000000a0: fddc e83b d1cc 50bc 4199 10bd 234e c63b
000000b0: 73e5 873b 4d62 a33b 5a6d aa3c ffb2 4b3b
000000c0: 8cda 7ebb 6ce2 dbbb 6fce f53c cf8b 953c
000000d0: 0741 9f3c acb8 103c b98f ce3c ccab f83b
000000e0: 0db8 b6bb 7c36 47bb 2dcf 98bc ac94 b6bc
000000f0: 5ccb 783c 898f 8e3c 7d80 63bc d459 71bc
00000100: 2d76 cf3b 19e1 04bd 9459 8fbc c944 8bbb
00000110: 16a6 b2bc aba3 0dbb 3113 e2bb c1a7 9839
00000120: 4dcc 633a 77e9 c4bb b20e 453c 60d5 8d3c
00000130: 8d56 953c 4c92 c1bc 1eb0 eabc a6f2 993c
00000140: 34ae 0d3d 1def b9bb 8caa c2bc d667 bc3c
00000150: c883 203c eaa8 c43c ca2c f2bc 6d96 56bc
00000160: acd3 193c e6dd 0c3c e345 8cbc 0b28 2abc
00000170: 3f89 c53c 1137 57bc 782d 113d 6a5c 2e3c
00000180: 46e5 c73c b3a1 c239 a0fc bf3c 63f1 8d3c
00000190: 3e1c ac3c 40a3 ba3a 30dc c1bb 62f2 c63c
000001a0: 0843 ffbb d245 04bc f095 5f3b f579 57bb
000001b0: 8f5c c9bc f165 1f3c 7691 5ebc b92c 1dbc
000001c0: 1270 00bd 2ad6 ae3c 050f 1e3c 3462 91bc
000001d0: 4e75 c1bc 759d 27ba 94dd 8e3b 0642 0e3c
000001e0: 7423 873b df0c 03bc 2d14 7abc a590 a53a
000001f0: f7a6 9dbc 55ed b3bc bafb e93b 084d 643b
00000200: 219d 08bd 7bf4 2c3b 80b6 6bbc cb60 c63b
00000210: 95b1 bfbc 9cec 8ebc 3a82 a83c 5221 66bc
00000220: e6f1 963a 4a25 803c 49a2 46bc 63be cc3c
00000230: 7cab 183d 8c53 04bd 5a62 01bc a481 6cbc
00000240: fab2 4dbc 09c4 4d3c 4908 06bd dded 2b3c
00000250: e3d7 8bbc cbbf 67bc a6ff 1ebd d22f 973c
00000260: 517e dfbb a7a7 76bc 2c97 ca3c b8dc 63bb
00000270: 054d 06bc 9956 e4bb e82c b93c e65e 323c
00000280: e18c 22bc 2471 9dbc 1ed4 9bbc 0491 103b
00000290: 670e f13b 9f59 49bd bf41 bcbc 5ed3 053c
000002a0: a201 b8bc e9f6 78bb 318d 98bc 244d acbb
000002b0: 05a5 e8bc 0c32 2b3d 71b1 6c3b 2368 e83c
000002c0: 34ab 8b3a c535 03bb c116 8abb 68be aa3c
000002d0: bc30 bd3c 3a57 e1bc 7cac 8b39 ab2c e8bc
000002e0: 0c2f af3c 48cd 90bc 2a17 72bc 3b4c 02bd
000002f0: f5e1 59bc b400 b33c a559 bc3c 7d09 11bd
00000300: dff7 6ebc af99 baba 774d b43c 78e6 20bb
00000310: 58a0 dbbc 4cc2 64bc 78a1 ba3c 99d2 8f3c
00000320: 88c3 1d3d e413 353d 8bf8 db3a 84b9 8b3c
00000330: 6b1b afbc 0d9e 403d be20 843c 1e32 413b
00000340: 33cd 08bc 4591 89bc e6f6 263b a0b2 1bb8
00000350: 1836 bfbc 41d5 ea3b 5448 d9bc a519 7cbc
00000360: 7540 a5bc 413f 56bc 8b13 7f3b 0c5c 1ebc
00000370: f27c d5ba 971e a7bb 0683 5a3c 3e85 903c
00000380: ea1c e93c e7a3 eb3b 6ade f3bc 16b6 793c
00000390: 94d0 d23b 06ea c43b 830d a03c c8a3 91bc
000003a0: b29a cfbc 81bd 8a3b 3a3d a63c ffd7 f7bb
000003b0: 4cc1 9dbb c70c 8cba 3d78 feba ef1f c1bc
000003c0: cfb6 41bc 7061 38bc acb7 7a3b 8078 40bc
000003d0: 4c42 d13c 1526 adbc 429f 1b3c 97b1 b53c
000003e0: 1a24 f43c 0937 063c 99bf ef3c 53be ea3c
000003f0: e226 2b3c 255e 02bd 2493 3b3c b2f3 56bc

network_body._body_endoder.seq_layers.0.bias f4 [256]
0.0070318347 0.02207444 -0.0034858875 0.0006244389 0.010584468 0.010065731 0.00055351335 -0.0019421977
0.00076390733 0.013221496 0.0007697895 0.0066321106 0.01679982 0.001601528 0.0075056516 0.001106308
0.009540356 0.006213206 0.007962695 0.008545494 0.005909244 0.0010090668 0.0016332326 -0.00033760967
0.00093391386 0.0061537935 -0.0037964988 0.010940731 0.016959334 0.0033095388 0.0052240444 0.0018985965
0.004585547 0.015155071 0.014925868 0.011808327 0.015678534 0.0049799155 -0.007694462 -0.0019241265
0.018043866 0.011602069 0.0014720805 0.012598958 -0.0014777079 -0.011473938 1.3042438e-05 0.0038579453
-0.0033852996 0.006920882 -0.0015198337 0.0069627366 -0.00090842316 0.008799577 0.0021859922 0.009714329
0.004502779 0.013752085 0.007365589 0.0065566585 0.005046677 0.009589998 0.011453216 0.022190116
0.006765069 0.01629728 -0.00047474913 0.0111184595 0.009062494 0.010748942 0.0020026185 -0.008624569
0.0050925734 -0.008148365 -0.0041596075 -0.0029616128 0.012007803 0.0024988109 -0.00073751947 0.005071839
0.002435592 -0.0019609598 0.003207658 -0.0025685828 0.0005006968 -0.0023981382 -1.1487387e-05 0.0043891
0.007858991 0.010394223 0.0061047175 -0.005664651 0.0066927727 -0.0041068676 0.008994706 0.0057840967
0.00025696852 -0.0022995723 0.011486719 0.012924648 0.02072702 0.019655138 0.00038346316 -0.0014650066
0.008256862 0.0030153508 0.007474367 0.008059555 0.01859801 0.010007981 0.016765589 0.009104658
0.012536115 0.001222756 0.01746491 0.0013589003 0.011041549 -0.0022941935 -0.0038155376 0.0064458298
0.001068739 0.01597286 0.009442468 0.0065573566 -0.0011802672 0.018685563 0.008216589 -0.00082025887
0.016777575 -0.013137157 -0.006045856 0.009002369 0.023576537 0.0007167253 0.0048819548 0.0061053
0.0017237259 0.005616383 0.008805218 0.0076337988 0.006390678 0.015005167 0.00684471 -0.007064923
0.013277004 0.0074712816 0.0075750714 0.0130245425 -0.019151222 0.013447213 0.007263219 0.00073765183
0.0083956225 0.005320487 0.019121703 0.017210681 0.011577729 0.006622572 0.00052308 0.010286971
0.003420757 0.00024171306 0.008689913 -0.0018092241 0.011222015 0.0011694592 0.016507912 0.013287305
0.004920307 -0.012921238 -0.0025817791 0.020082597 -0.0037599567 0.008368393 0.003022383 -0.020736123
0.014441436 0.010497707 0.011077783 -0.0023124344 0.009178033 -0.0015366089 0.002838423 0.0093833245
0.0027453962 -0.014775915 0.013347185 0.017749457 0.0037577457 0.0014992687 0.0014213463 0.017971607
-0.0045694136 -0.003015893 0.005139361 0.013763201 0.010977337 0.008569312 0.0036906812 0.015387249
0.0046795947 0.01107946 0.0035029275 0.018267691 0.0066197896 0.014508452 -0.011454459 0.016907686
0.010991736 -0.0040927515 -0.0013618353 0.0105575835 -0.00035664905 -0.0075688385 -0.009949919 -0.012434404
0.0041681454 0.0069799004 0.004560316 0.011060576 0.010844178 0.009933019 0.0123352725 0.008098339
0.01768264 0.005600451 0.021061799 0.012576438 0.0048229885 0.0014028149 0.0075156684 0.009514882
0.014897664 0.005414593 0.006697667 -0.0027566499 0.0020998034 -0.0024409906 0.010383909 0.0040153093
0.007710821 0.0031329277 -0.013503923 0.00789638 0.0194985 0.017054055 -0.0075433743 0.003105868
-0.010048267 0.014219893 0.0058958945 0.00642624 0.015190985 0.012546182 0.0064619514 0.017780676
00000000: 4e6b e63b 75d5 b43c 7d73 64bb 63b1 233a
00000010: 7a6a 2d3c bcea 243c a719 113a 5791 feba
00000020: f440 483a f99e 583c b3cb 493a 2d52 d93b
00000030: c79f 893c 5dea d13a f8f1 f53b 8901 913a
00000040: 274f 1c3c 2698 cb3b f775 023c 6602 0c3c
00000050: 55a2 c13b aa42 843a 3112 d63a 3401 b1b9
00000060: e6d1 743a c3a5 c93b aece 78bb c040 333c
00000070: 4dee 8a3c d9e4 583b 762e ab3b 54da f83a
00000080: 5b42 963b fa4c 783c a18b 743c b777 413c
00000090: 4570 803c 8f2e a33b d321 fcbb f932 fcba
000000a0: bbd0 933c 9b16 3e3c d3f2 c03a dc6b 4e3c
000000b0: a6af c1ba 2ffd 3bbc d8d0 5a37 95d5 7c3b
000000c0: e7db 5dbb 91c8 e23b 2835 c7ba ab27 e43b
000000d0: 3f23 6eba 1a2c 103c dd42 0f3b d928 1f3c
000000e0: 0c8c 933b 6d50 613c 0a5b f13b 3dd9 d63b
000000f0: 985e a53b 5e1f 1d3c 45a6 3b3c 0cc8 b53c
00000100: 83ad dd3b e081 853c c0e7 f8b9 332a 363c
00000110: db7a 143c 551c 303c 5d3e 033b 104e 0dbc
00000120: 9adf a63b b880 05bc 514d 88bb 9e17 42bb
00000130: 60bc 443c 17c3 233b 1856 41ba ab31 a63b
00000140: 749e 1f3b 7283 00bb 9237 523b ab55 28bb
00000150: 3241 033a 152a 1dbb f4b9 40b7 70d2 8f3b
00000160: ffc2 003c 884c 2a3c 150a c83b 899e b9bb
00000170: 0c4f db3b e792 86bb 885e 133c 8588 bd3b
00000180: bbb9 8639 6cb4 16bb cb32 3c3c e7c1 533c
00000190: b6cb a93c d003 a13c 8e0b c939 7705 c0ba
000001a0: ca47 073c 319d 453b 89eb f43b 390c 043c
000001b0: db5a 983c 84f8 233c fd57 893c b42b 153c
000001c0: 4764 4d3c e244 a03a 9212 8f3c 211d b23a
000001d0: 9de7 343c 2e5a 16bb 190e 7abb 8a37 d33b
000001e0: ee14 8c3a 84d9 823c 95b4 1a3c 18df d63b
000001f0: 32b3 9aba 7712 993c df9e 063c a406 57ba
00000200: 2071 893c 3b3d 57bc 511c c6bb ac7e 133c
00000210: 9523 c13c 9fe2 3b3a cef8 9f3b f80e c83b
00000220: a5ee e13a a309 b83b c343 103c f224 fa3b
00000230: e568 d13b 3bd8 753c 9749 e03b df80 e7bb
00000240: ca87 593c a7d1 f43b 4e38 f83b e464 553c
00000250: 06e3 9cbc b351 5c3c 4c00 ee3b fa5e 413a
00000260: cb8d 093c 7b57 ae3b 1ea5 9c3c 6afd 8c3c
00000270: 84b0 3d3c 2902 d93b 4e1f 093a af8a 283c
00000280: c72e 603b 5b74 7d39 2360 0e3c 7d23 edba
00000290: 8bdc 373c 8a48 993a 9a3b 873c ffb2 593c
000002a0: 873a a13b 9ab3 53bc 1133 29bb 4284 a43c
000002b0: 9b69 76bb 961b 093c 2c13 463b cdde a9bc
000002c0: c69b 6c3c 93fe 2b3c 977f 353c 368c 17bb
000002d0: 765f 163c 0a68 c9ba d604 3a3b 84bc 193c
000002e0: 1bec 333b ae16 72bc 27ae 5a3c 4f67 913c
000002f0: 8344 763b 1c83 c43a 784c ba3a 3139 933c
00000300: 05bb 95bb 4aa6 45bb 1668 a83b 0d7f 613c
00000310: 4ada 333c 4d66 0c3c 5bdf 713b cd1a 7c3c
00000320: 4957 993b a086 353c 5f91 653b 20a6 953c
00000330: d2ea d83b dcb4 6d3c 7cab 3bbc fd81 8a3c
00000340: af16 343c 7d1c 86bb 9c7f b2ba b7f9 2c3c
00000350: a0fc bab9 0504 f8bb fc04 23bc acb9 4bbc
00000360: f094 883b a6b7 e43b b46e 953b 6b37 353c
00000370: c7ab 313c 1abe 223c e219 4a3c e5ae 043c
00000380: 2fdb 903c fd83 b73b cb89 ac3c 670d 4e3c
00000390: 290a 9e3b a8de b73a ff45 f63b 4fe4 1b3c
000003a0: 5515 743c e66c b13b 1a78 db3b e9a8 34bb
000003b0: db9c 093b 07f9 1fbb 4521 2a3c db92 833b
000003c0: 0eab fc3b ce51 4d3b 8f3f 5dbc d15f 013c
000003d0: 51bb 9f3c f2b4 8b3c 692e f7bb d18b 4b3b
000003e0: 7da1 24bc 8efa 683c 5932 c13b 3593 d23b
000003f0: 9ce3 783c 808e 4d3c c7be d33b c8a8 913c

network_body._body_endoder.seq_layers.0.weight f4 [256, 74]
0.12302753 -0.038790125 -0.0059999856 0.08055882 -0.013166345 -0.1582289 -0.18142456 -0.07982569
0.03449332 -0.20543654 0.12844108 -0.104901955 0.2183811 0.04524599 0.05877177 -0.23020485
-0.030692171 -0.10088503 0.049979806 0.09586976 0.11458608 -0.06775066 -0.14433606 -0.025424078
-0.039818157 0.03856186 -0.0069299485 -0.21820313 0.008168429 0.06362798 -0.21454024 0.13949248
0.19175568 0.16437376 -0.010797591 -0.1186198 0.22940286 -0.053607956 0.014042491 0.12405051
-0.08133874 -0.09737965 -0.0940522 -0.026848275 0.085640065 -0.08371103 0.097775094 0.068555765
0.103682965 -0.20828861 -0.15631083 0.0135206245 -0.08334696 0.001464391 0.07104287 0.015593321
-0.22819817 0.070253566 0.17778736 0.045856513 -0.106676936 0.28405157 0.042524252 -0.01485655
-0.018045861 -0.11151966 0.10406109 0.015059854 0.02377427 -0.12940732 -0.018367276 -0.07938509
-0.014635693 -0.041192513 0.025572088 0.022716582 -0.028735764 -0.08168736 -0.0061031454 -0.06566091
-0.007056154 -0.017405959 0.027426153 0.175535 0.08040395 -0.16689286 -0.0106307715 -0.031563092
0.05046581 0.010906772 0.12684645 0.08812892 -0.052984603 0.022781927 0.06679051 -0.009450933
-0.037233148 0.029908316 -0.04232672 -0.14791736 -0.08187583 0.08761673 -0.10268776 0.26787353
-0.13706864 0.10103595 0.056872737 0.05345796 -0.13072403 -0.007746422 0.09240744 0.1793374
0.026562413 0.15177406 0.019264834 -0.09179476 0.15366878 0.032044798 0.06657543 0.12818836
0.049283233 0.16714188 0.088681586 0.005158521 -0.16829869 0.051199935 -0.02827516 -0.25007153
0.11646545 -0.1227597 -0.052357156 0.037957884 -0.029814465 0.20180276 0.19104996 -0.111724004
0.0054550525 -0.104646735 0.07314655 -0.026725888 -0.15154012 0.00057270366 0.121194616 0.16985399
0.020413645 -0.05168354 -0.002873955 0.29469594 0.13988744 0.11975877 -0.024796419 0.15088578
0.13624735 0.009618682 0.14143464 0.13374978 0.18380673 0.14126422 0.025160886 -0.04578973
0.10158948 0.102488436 -0.05355844 0.15333226 0.04611928 0.014465508 0.055771388 -0.074670784
-0.012866688 0.04795202 -0.04743354 0.08668861 0.09879962 0.10605506 0.052140772 0.038300537
0.076344706 -0.042314794 0.08064483 -0.30600393 -0.054402027 -0.013717499 -0.08201549 0.0016683947
-0.024179889 0.0077528665 -0.058306903 -0.061052833 0.2903821 -0.013870797 -0.18537782 -0.3161335
-0.24953659 0.027631808 0.24307205 -0.008903126 -0.11086433 -0.026690334 0.0019555886 0.06717247
0.08046719 -0.07251614 0.082943946 -0.11150809 -0.19869296 -0.09025403 -0.09344604 0.32455176
0.061616164 0.14758582 -0.042222865 -0.014371139 -0.1781772 -0.12441015 -0.14126104 0.004791194
-0.091491625 0.03198589 -0.069553584 -0.09374334 -0.14380558 -0.047524367 0.22095005 -0.14331318
0.022323187 -0.15009491 0.06166703 -0.1593045 0.02523029 0.047502887 -0.07374513 0.087256685
-0.012432895 -0.06664525 -0.11218427 -0.08960167 -0.08984097 0.02776735 0.04067351 -0.104198836
-0.017113212 -0.01242658 0.1219313 0.07264853 0.10738055 -0.036676414 0.032207977 -0.16077013
0.0282254 -0.059331313 0.022346776 -0.04623212 0.22034432 -0.05344243 -0.016987627 0.007874987
00000000: dcf5 fb3d 65e2 1ebd 879b c4bb 06fc a43d
00000010: a7b7 57bc c206 22be 5cc7 39be a77b a3bd
00000020: de48 0d3d f55d 52be 0f86 033e d6d6 d6bd
00000030: 4c9f 5f3e dc53 393d abba 703d d2ba 6bbe
00000040: 266e fbbc d09c cebd a0b7 4c3d 5d57 c43d
00000050: 1bac ea3d dcc0 8abd d5cc 13be 2846 d0bc
00000060: 5d18 23bd 0af3 1d3d 9f14 e3bb a470 5fbe
00000070: e0d4 053c 634f 823d 70b0 5bbe 1ed7 0e3e
00000080: 9a5b 443e 9851 283e 61e8 30bc f0ee f2bd
00000090: 95e8 6a3e 0494 5bbd 7a12 663c 320e fe3d
000000a0: ed94 a6bd fb6e c7bd 719e c0bd eaf0 dbbc
000000b0: 0f64 af3d b070 abbd 4f3e c83d f766 8c3d
000000c0: bc57 d43d 9c49 55be f20f 20be 9c85 5d3c
000000d0: d0b1 aabd cff0 bf3a ed7e 913d 217b 7f3c
000000e0: c8ac 69be 1ae1 8f3d e40d 363e 0ad4 3b3d
000000f0: 7079 dabd 356f 913e e92d 2e3d e368 73bc
00000100: ead4 93bc 6b64 e4bd fb1d d53d 9bbd 763c
00000110: 42c2 c23c 5a83 04be f876 96bc a694 a2bd
00000120: 8cca 6fbc 7bb9 28bd 8e7c d13c 2018 ba3c
00000130: 4467 ebbc b44b a7bd e5fc c7bb 3a79 86bd
00000140: 4f37 e7bb f196 8ebc d0ac e03c 72bf 333e
00000150: d3aa a43d f6e5 2abe b02c 2ebc 4d48 01bd
00000160: 3db5 4e3d 51b2 323c 09e4 013e ef7c b43d
00000170: 6206 59bd 2aa1 ba3c 77c9 883d 16d8 1abc
00000180: c981 18bd 4902 f53c c85e 2dbd a677 17be
00000190: 84ae a7bd 6670 b33d f64d d2bd b826 893e
000001a0: b95b 0cbe f0eb ce3d 63f3 683d bcf6 5a3d
000001b0: 85dc 05be b3d5 fdbb 1d40 bd3d 39a4 373e
000001c0: 6b99 d93c a96a 1b3e 49d1 9d3c e4fe bbbd
000001d0: 595b 1d3e 6841 033d b358 883d cf43 033e
000001e0: 37dd 493d 3e27 2b3e b19e b53d cf08 a93b
000001f0: 7e56 2cbe 06b7 513d 4fa1 e7bc 6009 80be
00000200: 7085 ee3d 7069 fbbd 7574 56bd ba79 1b3d
00000210: 773d f4bc 62a5 4e3e 9aa2 433e 8ecf e4bd
00000220: 4cc0 b23b 0751 d6bd dccd 953d 40f0 dabc
00000230: 552d 1bbe 7e21 163a e234 f83d 34ee 2d3e
00000240: 843a a73c 1fb2 53bd f758 3cbb 63e2 963e
00000250: a73e 0f3e 1644 f53d dc21 cbbc cd81 1a3e
00000260: 6d84 0b3e ad97 1d3c 3ed4 103e b4f5 083e
00000270: d537 3c3e 91a7 103e 341e ce3c 038e 3bbd
00000280: 250e d03d 75e5 d13d 1860 5bbd 2203 1d3e
00000290: 92e7 3c3d bd00 6d3c 8a70 643d ffec 98bd
000002a0: cdce 52bc 5669 443d ac49 42bd cc89 b13d
000002b0: 7557 ca3d 6533 d93d 9091 553d 06e1 1c3d
000002c0: 9d5a 9c3d 4752 2dbd 1e29 a53d 8cac 9cbe
000002d0: a9d4 5ebd 5cbf 60bc bdf7 a7bd 09ae da3a
000002e0: e714 c6bc c20b fe3b 38d3 6ebd 8912 7abd
000002f0: f6ac 943e 5742 63bc afd3 3dbe 40dc a1be
00000300: 8586 7fbe 1a5c e23c e1e7 783e 6bde 11bc
00000310: d60c e3bd b0a5 dabc 5529 003b b891 893d
00000320: fbcb a43d 5883 94bd 84de a93d 5a5e e4bd
00000330: 2b76 4bbe 1bd7 b8bd a360 bfbd a62b a63e
00000340: 3b61 7c3d bd20 173e e2f1 2cbd ed74 6bbc
00000350: 1574 36be c0ca febd bca6 10be 73ff 9c3b
00000360: f65f bbbd a303 033d 1c72 8ebd 82fc bfbd
00000370: c541 13be e9a8 42bd bb40 623e b1c0 12be
00000380: 1edf b63c 7bb2 19be 9196 7c3d b820 23be
00000390: c1af ce3c 6392 423d b007 97bd a2b3 b23d
000003a0: 57b3 4bbc 4e7d 88bd dec0 e5bd 1581 b7bd
000003b0: 8bfe b7bd 5b78 e33c 4499 263d 3366 d5bd
000003c0: 0231 8cbc db98 4bbc 1eb7 f93d c1c8 943d
000003d0: 55ea db3d 023a 16bd 83ec 033d eda0 24be
000003e0: f438 e73c 6405 73bd 9610 b73c e45d 3dbd
000003f0: f1a1 613e 73e6 5abd a329 8bbc 1706 013c

network_body._body_endoder.seq_layers.2.bias f4 [256]
0.015382792 0.0035167274 0.014923794 0.008556591 0.0060686497 0.01089417 0.014595469 0.0071988525
0.0044680345 0.006772541 0.0046808096 -0.0012832148 -0.0015370061 0.007692832 0.0033893415 -0.0039653247
0.0066897436 -0.0020149047 0.00073902716 -0.008348573 0.016180588 0.015033428 0.006553979 0.0006361291
0.0055675753 -0.0007185665 0.0121299615 0.006035735 0.00075207395 0.00072858087 0.0060722996 -0.0012320705
-0.0026783561 0.008337574 0.008606885 0.0010333023 -0.0079667065 -0.004363409 0.016003078 0.010429762
-0.0061853277 0.0023592033 0.008263898 0.008716888 0.010680499 -0.004893234 0.003839827 -0.0048625157
0.004000693 0.004335899 -0.0010774164 0.004651617 0.0077434722 0.00035796827 0.011256539 0.010360153
0.013135574 0.0045977994 0.020281091 0.0010231136 0.014973354 0.006889332 0.016633164 0.00740104
0.003835791 0.015430109 -0.004435311 -0.00037833245 0.004106283 -0.0022844025 0.0069874926 0.0037082715
0.0014814754 0.014014469 -0.0024242373 -0.0012595041 0.0067965975 0.0036915538 0.009920701 0.008610207
-0.003002619 -0.0029540472 -0.003368265 0.014962412 0.016236756 -0.007794312 0.0053686653 0.001019584
0.01116785 0.005045272 0.00481709 0.0070014875 0.0034946383 0.007906021 0.009243817 -0.009950337
0.0057902597 0.011381942 -0.0007104106 0.0059677847 -0.0030859592 0.009362634 -0.0030745023 0.015225739
-0.0044306777 0.012650215 0.0031935074 0.012908132 -0.003154082 0.0059431233 0.0016793008 -0.0023857811
-0.000810742 0.0024349762 0.007054096 0.0057501793 -0.00025725501 0.013562559 0.012278847 0.007103542
-0.006466005 0.0050697397 0.0068962653 0.012075602 0.008767528 0.0039129336 -0.0044924966 -0.0040814383
-0.0010192373 0.009153835 0.001457172 0.0056737666 0.006364269 0.0151319 0.002775974 -0.0017800776
0.0071027284 0.0051895366 0.011527603 0.004763374 -0.0016861256 0.00014239782 0.0050074025 0.0047620945
0.011733009 0.0029171722 0.010344487 0.010004611 -0.00042539398 -0.005133121 -0.00065278204 0.015805177
0.009534713 0.0029881902 0.010111948 0.007270065 0.00252716 0.002059007 0.014984118 -0.0046730316
0.0034732802 0.00735946 0.008382799 0.0068283556 -0.007790304 0.008631222 0.0032750908 0.01000719
0.0035654157 0.002698882 0.013091189 -0.0052257213 -0.00017587117 0.01793133 0.008501139 0.0041100024
0.0075162756 -0.0007159253 -0.007415695 -0.012285647 0.006633056 0.0008060861 0.0014073347 7.267226e-05
0.02542123 0.0058245356 0.012815207 0.014913171 -0.0009758165 0.008892692 0.00039789363 6.346837e-05
0.009502735 0.010417771 0.008998625 0.026613282 -0.0014173709 0.0014158874 0.0039242352 -0.006566453
0.0032073613 -0.0030836347 0.002267832 0.011507734 0.002914471 0.00022928014 0.005274884 0.0015974893
-0.0079886485 0.0105515225 -0.0034417936 0.0099301655 -7.0646245e-05 -0.005839266 0.0153346555 1.4309662e-06
0.009280802 -0.00034685346 0.019869514 0.006039785 0.008304509 -0.0049861013 0.006321416 0.0074552703
-0.003927864 0.004865116 0.0053592087 0.0062956447 0.0021049331 0.014912808 0.004405951 0.005229033
0.0133719295 0.0040644826 0.023802271 0.010844393 0.009418451 0.01498424 0.0018531322 -0.0022701016
0.012562222 -0.0038838862 0.0036008104 0.0067395577 0.014905855 0.009657244 0.0075446037 0.007627669
0.0004327958 0.0077023203 0.0072009345 -6.817048e-05 0.0052015902 0.0016539609 -0.0024973215 -0.0046389927
00000000: 1b08 7c3c e578 663b ee82 743c f230 0c3c
00000010: 86db c63b 767d 323c d621 6f3c 5ae4 eb3b
00000020: 9768 923b 31ec dd3b 7a61 993b 8b31 a8ba
00000030: 5e75 c9ba 2714 fc3b b71f 5e3b 8eef 81bb
00000040: a335 db3b 7e0c 04bb 46bb 413a 74c8 08bc
00000050: 278d 843c c44e 763c c3c2 d63b e7c1 263a
00000060: 3570 b63b 2e5e 3cba bfbc 463c 6ac7 c53b
00000070: d426 453a 3cfe 3e3a 24fa c63b 6d7d a1ba
00000080: 5c87 2fbb 529a 083c e403 0d3c df6f 873a
00000090: ca86 02bc edfa 8ebb e318 833c 98e1 2a3c
000000a0: 4aae cabb dd9c 1a3b 4d65 073c 47d1 0e3c
000000b0: 42fd 2e3c 6c57 a0bb 9ba5 7b3b bd55 9fbb
000000c0: 3f18 833b 2814 8e3b 1838 8dba 976c 983b
000000d0: f4bc fd3b b0ad bb39 596d 383c a2bd 293c
000000e0: 9736 573c 23a9 963b 8824 a63c ff19 863a
000000f0: cc52 753c e8bf e13b 4642 883c 6c84 f23b
00000100: e561 7b3b 91ce 7c3c 1656 91bb ec5a c6b9
00000110: 008e 863b eab5 15bb 56f7 e43b 7906 733b
00000120: 112e c23a f29c 653c f4df 1ebb f215 a5ba
00000130: feb5 de3b ffed 713b 708a 223c d311 0d3c
00000140: 96c7 44bb b098 41bb 1cbe 5cbb e824 753c
00000150: f202 853c 6e67 ffbb a1eb af3b 90a3 853a
00000160: 5cf9 363c cf52 a53b aed8 9d3b bc6c e53b
00000170: 4d06 653b 4188 013c 6173 173c bd06 23bc
00000180: 38bc bd3b 537b 3a3c d93a 3aba 688d c33b
00000190: ce3d 4abb bc65 193c 977d 49bb 6175 793c
000001a0: 382f 91bb d942 4f3c 2a4a 513b a17c 533c
000001b0: b7b4 4ebb 88be c23b fc1b dc3a c45a 1cbb
000001c0: fa87 54ba 1f94 1f3b 0c26 e73b 006c bc3b
000001d0: 2fe0 86b9 7f35 5e3c 382d 493c d4c4 e83b
000001e0: c8e0 d3bb 0f20 a63b 11fa e13b bfd8 453c
000001f0: aea5 0f3c 1138 803b cb35 93bb 96bd 85bb
00000200: ee97 85ba f7f9 153c 94fe be3a 01eb b93b
00000210: 5c8b d03b caeb 773c 1eed 353b 7e51 e9ba
00000220: 01be e83b fd0c aa3b 45de 3c3c 1416 9c3b
00000230: fd00 ddba a050 1539 2315 a43b 580b 9c3b
00000240: ce3b 403c 072e 3f3b ec7b 293c 61ea 233c
00000250: 6a07 dfb9 bd33 a8bb 761f 2bba dc79 813c
00000260: 7c37 1c3c 83d5 433b 95ac 253c ba39 ee3b
00000270: b69e 253b 68f0 063b f27f 753c 3b20 99bb
00000280: f99f 633b a027 f13b 0258 093c 66c0 df3b
00000290: ce45 ffbb f869 0d3c e8a2 563b 32f5 233c
000002a0: c0a9 693b badf 303b 6d7c 563c 873c abbb
000002b0: 0f6a 38b9 b9e4 923c 5c48 0b3c 33ad 863b
000002c0: 174b f63b efac 3bba 5cff f2bb bd49 49bc
000002d0: 1b5a d93b 864f 533a 5176 b83a 9f67 9838
000002e0: 2f40 d03c bfdb be3b e0f6 513c 5f56 743c
000002f0: f0cd 7fba a7b2 113c 619c d039 521a 8538
00000300: 5cb1 1b3c 4caf 2a3c f86e 133c 1904 da3c
00000310: 13c7 b9ba 4c95 b93a df96 803b 662b d7bb
00000320: 9832 523b ce16 4abb e89f 143b ef8a 3c3c
00000330: b600 3f3b eb6a 7039 efd8 ac3b d962 d13a
00000340: d2e2 02bc 4be0 2c3c b78f 61bb 22b2 223c
00000350: ea27 94b8 5057 bfbb 353e 7b3c a00f c035
00000360: 810e 183c e2d9 b5b9 64c5 a23c 64e9 c53b
00000370: a30f 083c 7362 a3bb e123 cf3b 574b f43b
00000380: 50b5 80bb 8d6b 9f3b 4d9c af3b b24b ce3b
00000390: ebf2 093b da54 743c cc5f 903b 4f58 ab3b
000003a0: f015 5b3c 5a2f 853b fbfc c23c aeac 313c
000003b0: d94f 1a3c 7580 753c cce4 f23a fcc5 14bb
000003c0: c7d1 4d3c cc88 7ebb 93fb 6b3b 82d7 dc3b
000003d0: b037 743c 6b39 1e3c b938 f73b 86f1 f93b
000003e0: dee8 e239 bf63 fc3b d1f5 eb3b bff6 8eb8
000003f0: 1a72 aa3b b8c9 d83a 1aaa 23bb b102 98bb

network_body._body_endoder.seq_layers.2.weight f4 [256, 256]
0.09971797 0.032034177 -0.06021392 0.050155465 0.08369788 0.09725114 -0.013068308 -0.017797519
-0.020477874 -0.03885214 0.0668672 0.056423154 0.12665609 -0.01654299 -0.06285354 -0.063777566
-0.027415756 -0.075771295 0.07081286 0.041679684 -0.004094319 0.033807047 -0.02538721 -0.12866032
-0.17699169 0.02292273 -0.013185402 -0.040800914 0.052545257 0.0074587744 -0.073880464 -0.10025695
0.057369895 -0.08456862 0.039775416 0.05022975 0.10022297 -0.002631638 -0.12058147 -0.01664858
-0.0061818333 -0.04460198 0.04228335 -0.033188958 -0.00090551487 0.0024013147 -0.10173452 -0.014658565
-0.17934941 0.019146914 -0.023001011 0.07289239 -0.024720049 0.043055624 -0.04856379 -0.09501948
0.08555857 -0.0041822055 -0.10781446 -0.07317077 0.14847802 0.15044497 -0.011484506 0.016756883
-0.01788753 -0.03404923 -0.03592263 0.029068444 -0.08383678 -0.0031214885 -0.03211311 0.06862736
-0.07474543 -0.017735654 0.027387483 0.058844768 -0.054463353 -0.037199754 -0.044591933 0.00752752
0.009632305 0.033702694 -0.0094739385 -0.069209605 -0.04127444 -0.042531803 0.01714186 -0.026906347
0.041517075 0.1865207 0.0953144 0.01610056 0.026730563 0.115383655 0.04419827 0.050979063
-0.03234769 0.116732776 0.0043700696 0.03578159 -0.07595799 -0.08512542 0.085234955 0.008082774
0.052116524 -0.08643944 -0.09856694 -0.023300072 0.045717098 -0.051810544 0.06303558 -0.004835389
0.010008335 -0.09533241 -0.060589366 -0.044306062 0.11898361 0.117753625 -0.0076182447 -0.034776255
0.08721719 -0.056872148 -0.00025756325 0.06709161 0.029011834 0.07513938 0.072994836 0.05468433
-0.05598468 -0.06437801 -0.0151204495 0.1111392 -0.005212374 0.10398013 -0.017713599 0.04768926
-0.03292668 0.030094765 -0.12732233 0.04242996 0.07135509 0.03326601 0.020593025 -0.018132284
-0.027109396 -0.013914327 0.0663533 0.05764855 0.04683563 -0.033753656 0.021043751 -0.012100685
-0.042309 -0.045126393 -0.030815108 -0.014701654 0.05981015 -0.0063844896 0.027765024 0.035605274
0.04909728 -0.09665828 0.11699817 -0.062485553 0.012214802 0.030292004 0.017369453 -0.025005965
0.099689685 0.01238844 -0.14947595 0.07800191 -0.052358445 -0.17669462 -0.113353096 -0.14519127
0.044454355 -0.0021998694 0.059047252 -0.032469757 0.05267911 -0.024105558 -0.018214721 -0.055570025
-0.073043056 0.1301883 0.042687032 -0.028913943 0.083705604 0.0705672 0.046142064 -0.0377739
0.0020122898 -0.061320778 -0.011476982 -0.13897341 -0.09988856 0.04974279 0.011408506 -0.05425837
0.0928209 0.03213211 -0.11864522 -0.0911713 0.0237696 -0.08560061 -0.009067484 0.03312288
-0.0040829675 0.07111636 0.05608618 -0.00565557 0.11588003 0.015341837 -0.09202338 0.017267851
-0.02534519 -0.07499565 -0.016545435 -0.027125888 0.031836558 -0.04668278 0.052835345 -0.0032370603
0.060180858 -0.035669748 0.046946704 0.062609024 0.037285194 0.08694458 0.08416145 -0.07217082
-0.050520718 -0.00053856644 -0.07263528 0.003260379 0.038110994 0.033219717 0.03145037 0.044890344
-0.07665839 0.10036716 0.06839221 -0.02021784 -0.026136037 0.085197486 -0.079640776 -0.060027316
0.060591683 -0.011461282 -0.020038676 -0.023098942 -0.039357025 0.015234755 -0.027267288 0.081850864
00000000: ef38 cc3d 4536 033d dfa2 76bd d16f 4d3d
00000010: cb69 ab3d 9b2b c73d 751c 56bc 1acc 91bc
00000020: 37c1 a7bc 6c23 1fbd acf1 883d f71b 673d
00000030: 22b2 013e 2a85 87bc 5bb9 80bd d09d 82bd
00000040: 0297 e0bc fb2d 9bbd 5506 913d 51b8 2a3d
00000050: a329 86bb 4279 0a3d d7f8 cfbc 88bf 03be
00000060: 4f3d 35be 73c8 bb3c 9607 58bc dc1e 27bd
00000070: b239 573d bc68 f43b a44e 97bd 8453 cdbd
00000080: b2fc 6a3d 5032 adbd 8ceb 223d b6bd 4d3d
00000090: b341 cd3d 8f77 2cbb 6bf3 f6bd 9a62 88bc
000000a0: fa90 cabb 91b0 36bd 4e31 2d3d 25f1 07bd
000000b0: 1360 6dba 605f 1d3b 305a d0bd 7a2a 70bc
000000c0: 5fa7 37be fdd9 9c3c 9e6c bcbc 9b48 953d
000000d0: b381 cabc 185b 303d d3ea 46bd 9399 c2bd
000000e0: 5539 af3d e20a 89bb d4cd dcbd 8fda 95bd
000000f0: 9f0a 183e 3f0e 1a3e 8229 3cbc bb45 893c
00000100: df88 92bc 3577 0bbd 9c23 13bd f220 ee3c
00000110: 9eb2 abbd e391 4cbb 0989 03bd 808c 8c3d
00000120: 2214 99bd 5d4a 91bc b75b e03c 3607 713d
00000130: f714 5fbd c55e 18bd 08a6 36bd 6aa9 f63b
00000140: d1d0 1d3c d60b 0a3d 9438 1bbc c4bd 8dbd
00000150: 630f 29bd d435 2ebd 166d 8c3c b36a dcbc
00000160: cf0d 2a3d 48ff 3e3e 3234 c33d 52e5 833c
00000170: 0efa da3c 444e ec3d 3f09 353d 6ccf 503d
00000180: 037f 04bd 9811 ef3d cd32 8f3b b78f 123d
00000190: dd8f 9bbd 3c56 aebd aa8f ae3d 9c6d 043c
000001a0: 2378 553d 2907 b1bd 77dd c9bd cbdf bebc
000001b0: da41 3b3d 4b37 54bd cc18 813d 2f72 9ebb
000001c0: 00fa 233c a33d c3bd 8e2c 78bd 467a 35bd
000001d0: aead f33d d028 f13d 78a2 f9bb 8c71 0ebd
000001e0: ed9e b23d c5f2 68bd 8e09 87b9 5367 893d
000001f0: 3aaa ed3c ade2 993d 517e 953d adfc 5f3d
00000200: 3150 65bd 9ed8 83bd c3bb 77bc f39c e33d
00000210: 90cc aabb 89f3 d43d 1c1c 91bc d055 433d
00000220: 20de 06bd 4c89 f63c c960 02be 0acb 2d3d
00000230: 9e22 923d f141 083d b4b2 a83c 288a 94bc
00000240: 8614 debc ebf8 63bc 3de4 873d e320 6c3d
00000250: b8d6 3f3d 4641 0abd f263 ac3c f441 46bc
00000260: 344c 2dbd 74d6 38bd f76f fcbc 35df 70bc
00000270: 7dfb 743d fb34 d1bb 7a73 e33c d6d6 113d
00000280: 3b1a 493d c7f4 c5bd bd9c ef3d daf0 7fbd
00000290: 9820 483c f026 f83c 624a 8e3c 4fd9 ccbc
000002a0: 1b2a cc3d e2f8 4a3c 3910 19be 77bf 9f3d
000002b0: cf75 56bd 6fef 34be ab25 e8bd 05ad 14be
000002c0: c515 363d af2b 10bb 88db 713d 02ff 04bd
000002d0: 0dc6 573d 0579 c5bc 0a37 95bc 659d 63bd
000002e0: 9997 95bd 1550 053e 99d8 2e3d efdc ecbc
000002f0: d86d ab3d 8985 903d 76ff 3c3d ceb8 1abd
00000300: 9fe0 033b 7f2b 7bbd f409 3cbc 0c4f 0ebe
00000310: 6092 ccbd 19bf 4b3d beea 3a3c 063e 5ebd
00000320: e218 be3d f69c 033d 44fc f2bd 05b8 babd
00000330: 77b8 c23c 5f4f afbd c98f 14bc dbab 073d
00000340: 6aca 85bb 74a5 913d 9fba 653d 5c52 b9bb
00000350: 8252 ed3d 545c 7b3c c176 bcbd 4f75 8d3c
00000360: b7a0 cfbc 5297 99bd 4b8a 87bc 1c37 debc
00000370: 0d67 023d 7136 3fbd e069 583d dc24 54bb
00000380: 3480 763d 711a 12bd 304b 403d 2939 803d
00000390: 5cb8 183d 0010 b23d d75c ac3d 4bce 93bd
000003a0: d0ee 4ebd 952e 0dba cec1 94bd 15ac 553b
000003b0: 461a 1c3d 6611 083d 1ad2 003d f0de 373d
000003c0: 13ff 9cbd 4c8d cd3d 3711 8c3d e29f a5bc
000003d0: 3e1b d6bc 057c ae3d b41a a3bd 34df 75bd
000003e0: fc2e 783d 1ac8 3bbc 2628 a4bc fe39 bdbc
000003f0: d534 21bd 329b 793c a65f dfbc 6da1 a73d

network_body._body_endoder.seq_layers.4.bias f4 [256]
-0.0028400251 -0.0019582098 0.0019080632 -0.0058495267 0.007789803 0.014596218 0.008152346 0.0075739115
0.0007062713 0.0077192155 0.0029302845 -0.0022413577 0.0059102015 -0.0024692214 0.006266506 0.0044850064
0.010080635 0.0015887077 0.009708579 0.010379932 -0.001516361 0.0137995705 0.0005391712 -0.0027793047
0.0017911398 0.010581091 0.012321268 0.008078436 0.0055031744 0.009099693 0.007806423 0.001948913
0.0010131813 0.008307337 0.007508842 0.009350861 0.013151927 0.0077777305 -0.0005995404 0.0047098673
0.00035296605 0.0022166218 0.00826095 0.0016129285 -0.0029929637 -0.0037882922 0.0023982744 -0.002219362
0.0046836897 0.0011129763 -0.0033793557 5.9729966e-05 -0.00062269287 -0.0030103237 0.00023602444 -0.00047188182
0.0071078166 -0.0010965813 0.012658025 0.008861837 -0.0025460988 -0.0010312685 0.011958337 0.013680358
0.009389022 0.010738504 0.0054432126 0.009814596 0.0061091827 -0.0018634127 0.002489962 0.004150316
0.0064616757 -0.0009329766 0.00875026 0.0009706664 -0.0017784734 0.0063911397 0.012832604 6.369199e-05
0.0005969891 0.0060587716 0.008763823 0.00029916887 0.00015914529 0.00019406421 0.0068261484 0.0055534244
0.0012158043 0.0010641626 0.007848745 0.0029638936 -0.0014786872 0.0030960806 -0.0010070241 0.0064217765
0.0054977136 -0.0009965982 -0.00532428 0.002150898 0.0005637448 0.0058453614 0.009809348 0.0010452308
0.010241389 0.0054970686 0.0016922819 0.00684979 0.00947216 0.006164066 0.0111683365 0.005736163
0.008659029 0.0016201994 0.008046794 0.004456723 0.00810109 0.00095749594 0.008870083 -0.000551446
-0.0009728553 0.0071211606 0.010099282 0.008630393 0.011467926 0.0063025467 0.011979145 -0.0004669045
0.01117189 0.009610171 0.011055718 0.005882725 0.0053688474 0.0043708007 -0.00109933 0.0026633546
0.0027848033 0.0055595627 0.0017673939 -0.0031771197 0.0017919822 0.011353695 0.00663144 0.015150389
0.009302711 -0.0013868271 0.014087217 0.0028082514 0.012349709 0.005257816 0.009355491 -0.0041248905
0.0066528725 0.004973738 0.0054881005 0.00049353496 0.0017958662 0.00999746 -0.0018219663 -0.0026329057
0.006283094 0.0069394256 0.010215277 0.001555705 0.000571144 0.01030891 0.009040077 0.0048922473
0.007939793 -0.0012287766 0.004471459 0.005093383 0.016367743 0.0024061578 -0.0044391737 0.00033745336
0.003691099 0.0011911613 0.0022382922 0.0049621975 -0.001637733 0.008793942 0.005056787 0.010307424
-0.0007245017 0.007859531 0.004703692 0.009260335 0.0037253632 0.00040120265 0.00016585486 0.012702185
0.009085807 0.001694386 0.0015540505 -0.0029329134 0.00843316 0.006146302 0.0068944306 -0.0043061282
0.005076287 -0.0007461665 9.590975e-05 0.00020325552 0.0041086767 -0.00023988336 -0.0027276522 -0.00062731374
0.0014334798 0.00807008 0.0003367023 0.00088135205 0.006862663 -0.0015797216 0.007598746 0.0064615994
0.0071247453 0.002268245 0.006115963 0.0055158515 5.3552867e-05 0.0013141955 -0.0036685679 0.0040715826
0.0028077078 -0.0041600154 0.007313225 0.0017022409 -0.00029838103 0.004682214 -0.0019373358 0.005977683
0.010996914 0.0037375907 -0.00039057998 0.0042797155 0.0025902654 0.00865785 0.011169852 0.009562923
0.004507974 0.006480279 0.011450456 0.008737518 0.002356089 0.0062689697 0.0008552202 0.0004903428
0.0015209609 0.0033378638 0.00995807 -0.0014670669 -0.0048142914 0.007697434 -0.005823693 0.008606007
00000000: b71f 3abb 4f55 00bb fa17 fa3a 63ad bfbb
00000010: 9b41 ff3b fa24 6f3c 6b91 053c 932e f83b
00000020: 1125 393a 79f1 fc3b 040a 403b bee3 12bb
00000030: 5daa c13b a9d2 21bb 4357 cd3b f6f6 923b
00000040: 3f29 253c 2f3c d03a bb10 1f3c 9710 2a3c
00000050: a2c0 c6ba 9817 623c 2b57 0d3a ff24 36bb
00000060: aec4 ea3a 505c 2d3c 25df 493c 6b5b 043c
00000070: f953 b43b e116 153c 06cd ff3b ab72 ff3a
00000080: b9cc 843a 7f1b 083c bb0c f63b 5b34 193c
00000090: 2e7b 573c 55dc fe3b 7a2a 1dba 3b55 9a3b
000000a0: 4d0e b939 be44 113b f058 073c e668 d33a
000000b0: 9925 44bb ff44 78bb 5e2c 1d3b b772 11bb
000000c0: a379 993b 4ae1 913a 2e78 5dbb 9086 7a38
000000d0: 363c 23ba da48 45bb 547d 7739 e866 f7b9
000000e0: b0e8 e83b 2abb 8fba 9b63 4f3c 3d31 113c
000000f0: 73dc 26bb a12b 87ba e7ec 433c 9523 603c
00000100: 6ad4 193c 8df0 2f3c fa5c b23b 66cd 203c
00000110: 8a2f c83b c13d f4ba a12e 233b 60ff 873b
00000120: 77bc d33b 0093 74ba 405d 0f3c 5274 7e3a
00000130: aa1b e9ba c46c d13b d83f 523c 6092 8538
00000140: 437f 1c3a a988 c63b 2396 0f3c c4d9 9c39
00000150: 3de0 2639 b77d 4b39 e2ad df3b 80f9 b53b
00000160: 9f5b 9f3a 5f7b 8b3a 0698 003c e23d 423b
00000170: 82d0 c1ba 9de7 4a3b 1ffe 83ba c46d d23b
00000180: 2a26 b43b 49a0 82ba 4c77 aebb 15f6 0c3b
00000190: 46c8 133a 728a bf3b 63b7 203c 2000 893a
000001a0: 80cb 273c c120 b43b 8fcf dd3a 3474 e03b
000001b0: 1e31 1b3c effb c93b 66fb 363c 6cf6 bb3b
000001c0: 9ade 0d3c df5c d43a b3d6 033c b409 923b
000001d0: 6fba 043c 7700 7b3a d353 113c ea8e 10ba
000001e0: 3707 7fba a058 e93b 7577 253c 7e66 0d3c
000001f0: f8e3 3b3c 9885 ce3b 2d44 443c dcca f4b9
00000200: 4e0a 373c fb73 1d3c 0b23 353c e0c3 c03b
00000210: 28ed af3b ef38 8f3b 6517 90ba ad8b 2e3b
00000220: 3f81 363b fe2c b63b e6a7 e73a 3937 50bb
00000230: f2e0 ea3a d904 3a3c 8d4c d93b 5639 783c
00000240: 666a 183c 32c6 b5ba 12ce 663c a40a 383b
00000250: 6f56 4a3c c249 ac3b c647 193c 172a 87bb
00000260: 5700 da3b bdfa a23b 86d5 b33b 9260 013a
00000270: 4563 eb3a 63cc 233c 0bcf eeba d48c 2cbb
00000280: 6ae2 cd3b 1f64 e33b fa5d 273c cce8 cb3a
00000290: d3b8 153a b4e6 283c d51c 143c 254f a03b
000002a0: e815 023c e70e a1ba 5185 923b 65e6 a63b
000002b0: a515 863c a1b0 1d3b 7d76 91bb 39ec b039
000002c0: 5de6 713b be20 9c3a 50b0 123b ee99 a23b
000002d0: 33a9 d6ba 7714 103c 67b3 a53b 78e0 283c
000002e0: 7cec 3dba 43c5 003c 6e21 9a3b a9b8 173c
000002f0: 3925 743b 8258 d239 53e9 2d39 d31c 503c
00000300: a3dc 143c 2916 de3a 48b1 cb3a 1f36 40bb
00000310: 3d2b 0a3c eb66 c93b adea e13b 6c1a 8dbb
00000320: fb56 a63b 639a 43ba 2823 c938 fd20 5539
00000330: 14a2 863b 3389 7bb9 69c2 32bb 5072 24ba
00000340: 9ae3 bb3a 5e38 043c 6b87 b039 890a 673a
00000350: 31e0 e03b a90e cfba e7fe f83b d3bb d33b
00000360: b276 e93b d6a6 143b 6b68 c83b 51be b43b
00000370: f49d 6038 1541 ac3a 5b6c 70bb e96a 853b
00000380: 8501 383b bd50 88bb c7a3 ef3b ba1d df3a
00000390: 0670 9cb9 426d 993b 34ee fdba 70e0 c33b
000003a0: 662c 343c 5ef2 743b c2c6 ccb9 db3c 8c3b
000003b0: 71c1 293b a8d9 0d3c c101 373c cead 1c3c
000003c0: a0b7 933b 8558 d43b b29a 3b3c cf27 0f3c
000003d0: 9d68 1a3b ee6b cd3b db30 603a 598a 003a
000003e0: fb5a c73a 10c0 5a3b 2c27 233c 994a c0ba
000003f0: 34c1 9dbb c23a fc3b add4 bebb 3600 0d3c

network_body._body_endoder.seq_layers.4.weight f4 [256, 256]
0.02655339 0.0051557906 -0.024818724 -0.043812003 -0.13816936 0.10108901 -0.021939399 -0.0023390865
0.003934039 0.018121522 -0.068634525 0.18949236 -0.1736623 -0.07718503 -0.032540277 0.058162354
-0.006140948 0.038709115 0.060434785 -0.03499431 0.018823238 -0.1542494 -0.04232517 0.03130242
-0.019594774 -0.06336958 -0.05547346 -0.015490271 0.044218067 0.089034766 0.08650795 -0.02328802
-0.045307856 0.019153904 -0.044204995 0.037942946 -0.078484476 -0.04582261 -0.06540057 4.363933e-06
0.08679863 -0.08200977 -0.03261185 -0.155243 0.042962298 -0.0012815611 0.10199954 0.054987356
0.03690348 -0.0243751 -0.030292965 0.04799418 -0.20817962 0.06235737 -0.034311865 -0.019197732
-0.06854521 -0.07172802 0.044074297 -0.090866365 0.0075087813 0.037446123 0.08504504 0.025303978
-0.0473601 0.05625301 -0.008623313 0.06506998 0.016916666 -0.06443558 -0.1493913 -0.048421994
-0.015569645 -0.04563677 0.14181286 -0.037254676 0.07736809 0.12928538 0.012812302 -0.013648335
-0.09141223 0.035257217 0.07375077 0.0072221244 -0.008003181 0.025672037 0.029787714 0.18387368
0.09790209 -0.054451074 -0.044146623 -0.09543296 -0.013944385 0.12002121 0.038600758 0.12165153
0.015193004 -0.030332569 -0.13622493 -0.05269934 -0.03997211 -0.02552655 -0.037484135 -0.047772482
0.050908417 0.019665394 0.024429908 -0.057536624 0.0037546717 0.022102159 0.040767644 -0.024105506
0.077529415 -0.11943509 0.105641074 -0.0052962145 -0.18029486 0.044374134 -0.19362776 0.06619674
0.048587684 -0.0903025 -0.012572689 -0.11859148 0.029884886 -0.010556678 0.036883943 0.08032791
-0.017695501 -0.04677252 0.022605497 0.005321957 4.513473e-05 -0.060092505 -0.061242722 -0.13392437
-0.09000469 -0.04198261 -0.03345614 -0.01002096 0.06123193 -0.013720699 0.015446559 0.08713414
-0.044261258 -0.16519672 0.13231651 0.034480218 -0.015467668 -0.14990844 0.1277769 -0.057401232
0.016084833 0.04603752 -0.000922679 -0.0645862 0.06681028 -0.09330737 0.027434593 0.06505614
0.040259268 0.0665635 -0.016575053 0.0033713 -0.040761877 0.014911309 -0.08485368 -0.03456512
0.057952438 -0.012192098 -0.101629086 -0.019749304 0.12980638 0.024524746 -0.05984773 0.03597177
0.07258527 -0.09531806 0.06762508 0.026144072 -0.077711955 -0.023335546 -0.056175735 -0.040938526
-0.0046343575 0.014783257 -0.03457442 -0.051410004 -0.059989102 0.05443048 -0.029688286 0.03677327
0.076415166 0.15594882 0.0028387974 0.0016032323 0.088661835 -0.06610099 -0.0031861456 0.033624392
0.038285635 -0.03455024 -0.048813332 -0.02279243 0.05356514 -0.06726176 -0.030632513 0.14072312
-0.07553189 0.009421334 0.016562419 -0.08000151 -0.093852654 0.0571093 -0.002684202 0.031042492
-0.025983403 -0.020206504 0.025170632 0.0188665 0.040213633 -0.010595602 -0.021968111 0.08478683
0.04851354 -0.07076683 0.05061643 0.05106759 0.06869237 0.07172551 -0.05281262 0.040858317
0.024648143 0.04282083 0.09822803 0.01369839 0.020718364 -0.10306372 0.017604107 0.052700892
-0.008757715 0.001766968 -0.08033703 0.07294385 -0.03256259 -0.069454156 0.1140047 0.13008456
0.12338621 0.0011609746 -0.007810422 -0.069076754 -0.073318034 0.0764582 0.038996212 0.07989143
00000000: 7f86 d93c e8f1 a83b a350 cbbc 3774 33bd
00000010: 457c 0dbe c107 cf3d 41ba b3bc 5c4b 19bb
00000020: 1ce9 803b 9673 943c 4290 8cbd 490a 423e
00000030: 88d4 31be 2f13 9ebd f448 05bd a63b 6e3d
00000040: 013a c9bb 738d 1e3d 778a 773d 3256 0fbd
00000050: 3133 9a3c 8ef3 1dbe 285d 2dbd f736 003d
00000060: 3885 a0bc e9c7 81bd 2438 63bd e8ca 7dbc
00000070: 011e 353d dc57 b63d 152b b13d 85c6 bebc
00000080: bb94 39bd a6e8 9c3c 4c10 35bd 106a 1b3d
00000090: 78bc a0bd 7db0 3bbd bcf0 85bd e66d 9236
000000a0: 7bc3 b13d bdf4 a7bd 0194 05bd 05f8 1ebe
000000b0: 3cf9 2f3d 0efa a7ba 23e5 d03d 6c3a 613d
000000c0: 1a28 173d 4aae c7bc f428 f8bc 8c95 443d
000000d0: 0a2d 55be 716a 7f3d 998a 0cbd 9044 9dbc
000000e0: 6e61 8cbd 24e6 92bd 4087 343d 2518 babd
000000f0: 390c f63b 1b61 193d 182c ae3d 4a4a cf3c
00000100: aafc 41bd 8e69 663d cc48 0dbc 6943 853d
00000110: d294 8a3c cdf6 83bd 08fa 18be 2456 46bd
00000120: d317 7fbc 9fed 3abd 6437 113e 5c98 18bd
00000130: 2973 9e3d 6363 043e b1ea 513c 449d 5fbc
00000140: 5636 bbbd df69 103d a50a 973d 92a7 ec3b
00000150: c61f 03bc 2a4e d23c 5d05 f43c 6249 3c3e
00000160: e480 c83d 1708 5fbd 17d3 34bd 5b72 c3bd
00000170: fd76 64bc aecd f53d d41b 1e3d 7024 f93d
00000180: 14ec 783c 027c f8bc 8c7e 0bbe 43db 57bd
00000190: ccb9 23bd 0e1d d1bc f788 19bd 14ad 43bd
000001a0: 5885 503d 5219 a13c 3b21 c83c 86ab 6bbd
000001b0: f010 763b 960f b53c f9fb 263d e978 c5bc
000001c0: bec7 9e3d 629a f4bd 595a d83d de8b adbb
000001d0: 379f 38be a7c1 353d 5b46 46be 2892 873d
000001e0: e103 473d 84f0 b8bd aefd 4dbc 17e0 f2bd
000001f0: 26d1 f43c ebf5 2cbc 9e13 173d f682 a43d
00000200: 28f6 90bc 8b94 3fbd 2a2f b93c d063 ae3b
00000210: 0c4f 3d38 8f23 76bd a6d9 7abd 7823 09be
00000220: 6154 b8bd f5f5 2bbd 4e09 09bd f42e 24bc
00000230: 55ce 7a3d c8cc 60bc 9013 7d3c 6273 b23d
00000240: 4b4b 35bd 5429 29be fb7d 073e 213b 0d3d
00000250: 1a6c 7dbc 9981 19be f3d7 023e 8e1d 6bbd
00000260: 57c4 833c d791 3c3d f1df 71ba c545 84bd
00000270: d4d3 883d ef17 bfbd 83be e03c 273c 853d
00000280: e7e6 243d 7252 883d 68c8 87bc 07f1 5c3b
00000290: edf5 26bd 904e 743c c4c7 adbd 2894 0dbd
000002a0: 895f 6d3d 5ec1 47bc e922 d0bd 4bc9 a1bc
000002b0: f7eb 043e 1fe8 c83c e522 75bd 2257 133d
000002c0: 96a7 943d 1d36 c3bd 057f 8a3d 182c d63c
000002d0: 7227 9fbd 302a bfbc 8718 66bd 28af 27bd
000002e0: cfdb 97bb 7935 723c e89d 0dbd 4c93 52bd
000002f0: 22b7 75bd 7ff2 5e3d d934 f3bc 929f 163d
00000300: 8e7f 9c3d 0cb1 1f3e 1e0b 3a3b 8d23 d23a
00000310: 5694 b53d f55f 87bd a7ce 50bb bbb9 093d
00000320: 66d1 1c3d 8d84 0dbd 7df0 47bd 31b7 babc
00000330: 1f67 5b3d 89c0 89bd 09f1 fabc b919 103e
00000340: 77b0 9abd f05b 1a3c e9ad 873c d5d7 a3bd
00000350: d235 c0bd 71eb 693d 70e9 2fbb d34c fe3c
00000360: 25db d4bc 1c88 a5bc a432 ce3c eb8d 9a3c
00000370: 0db7 243d 2d99 2dbc 78f6 b3bc b8a4 ad3d
00000380: 22b6 463d 33ee 90bd 2c53 4f3d 402c 513d
00000390: 96ae 8c3d d3e4 923d 0c52 58bd 0d5b 273d
000003a0: e7ea c93c e564 2f3d c72b c93d 366f 603c
000003b0: 8fb9 a93c 1213 d3bd 7d36 903c e4dc 573d
000003c0: 857c 0fbc 9c99 e73a be87 a4bd 9663 953d
000003d0: 5a60 05bd fb3d 8ebd 4c7b e93d e334 053e
000003e0: e9b1 fc3d d82b 983a 92ee ffbb 1d78 8dbd
000003f0: c427 96bd 1e96 9c3d 7eba 1f3d 1e9e a33d

network_body.observation_encoder.processors.0.normalizer.running_mean f4 [68]
0.26356435 0.57102686 0.16532272 0.65515757 0.2440879 0.6074513 0.14838594 0.6700089
0.22870684 0.5904081 0.18073349 0.68674076 0.20622359 0.63664746 0.15702356 0.70540845
0.24627014 0.5659866 0.18747833 0.70778114 0.33610696 0.594622 0.068960786 0.5900667
0.2443889 0.5385524 0.21623352 0.75214225 0.48001248 0.47776902 0.041277327 0.4856626
0.41930673 0.4199085 0.1586763 0.62280804 0.23799697 0.5595087 0.1981762 0.6614665
0.48506385 0.39890853 0.11087402 0.56423104 0.31187102 0.5511679 0.034821264 0.60997003
0.32513526 0.44855464 0.0673994 0.6636215 0.24915437 0.3538458 0.00084800983 0.5743169
0.2855944 0.22687964 0.0026610137 0.5957557 0.15098426 0.26819688 0.0015590179 0.593431
0.15098427 0.26819688 0.0015590176 0.593431
00000000: e8f1 863e d12e 123f 5c4a 293e 68b8 273f
00000010: 2ef2 793e ee81 1b3f 7cf2 173e b485 2b3f
00000020: 2032 6a3e fc24 173f 3312 393e 3ece 2f3f
00000030: 472c 533e 54fb 223f c9ca 203e a695 343f
00000040: 3d2e 7c3e 7fe4 103f 52fa 3f3e 2531 353f
00000050: 3616 ac3e 2639 183f 503b 8d3d 9c0e 173f
00000060: 1541 7a3e 92de 093f 526c 5d3e 658c 403f
00000070: 32c4 f53e 249e f43e 6a12 293d c5a8 f83e
00000080: 5faf d63e 3ffe d63e 0a7c 223e 5970 1f3f
00000090: 7ab5 733e f63b 0f3f b4ee 4a3e de55 293f
000000a0: 4a5a f83e bd3d cc3e eb11 e33d 7271 103f
000000b0: 8fad 9f3e 5719 0d3f bea0 0e3d ff26 1c3f
000000c0: 2178 a63e f4a8 e53e b208 8a3d 19e3 293f
000000d0: 5322 7f3e 472b b53e fa4c 5e3a 6f06 133f
000000e0: 6e39 923e 2353 683e 6764 2e3b 7283 183f
000000f0: 9e9b 1a3e 1a51 893e f657 cc3a 18eb 173f
00000100: 9f9b 1a3e 1a51 893e f357 cc3a 18eb 173f

network_body.observation_encoder.processors.1.normalizer.running_mean f4 [6]
-8.729113 3.873641 -10.999726 6.9998455 4.9803934 202.33347
00000000: 72aa 0bc1 bce9 7740 e1fe 2fc1 bcfe df40
00000010: 625f 9f40 5e55 4a43
