Assets/Training/results/b_treasure_test80_Th64_Lr1e-4Bs4096Bs65536_EndDistanceReward_0.5deltaXZ_15deltaY/TreasureSearch/TreasureSearch-1771481.onnx (onnx, 608683 bytes, 13 tensors)

65 f4 [68]
0	0x3edb387b	0.4281653
1	0x3efdb64a	0.49553138
2	0x3ec9725c	0.39345062
3	0x3e8238c8	0.25433946
4	0x3ed6088b	0.41803393
5	0x3efd4a1e	0.4947061
6	0x3ecd72da	0.40126687
7	0x3e82145f	0.25406167
8	0x3ec37597	0.3817565
9	0x3efa6aec	0.489097
10	0x3ed3bb4a	0.41353828
11	0x3e7bff4d	0.24609108
12	0x3ee78f81	0.45226672
13	0x3eff999f	0.4992189
14	0x3ec6e54d	0.38846818
15	0x3e9eec50	0.31039667
16	0x3ed665dd	0.4187459
17	0x3ef4aded	0.47788945
18	0x3ea9eb39	0.33187273
19	0x3e82d42e	0.25552505
20	0x3efc1ee8	0.4924233
21	0x3efff92e	0.49994797
22	0x3e8a45db	0.2700642
23	0x3eb1e1e9	0.34742668
24	0x3ed1233b	0.4084719
25	0x3efb7818	0.49115062
26	0x3eca8aa3	0.39558896
27	0x3e8ec420	0.27884007
28	0x3effaaa5	0.4993488
29	0x3efdadd4	0.49546683
30	0x3e4b5975	0.19858344
31	0x3ea58196	0.3232543
32	0x3efbdd7b	0.49192414
33	0x3effceef	0.49962565
34	0x3e9ea779	0.30987146
35	0x3ea64e4b	0.32481608
36	0x3ee68345	0.45022026
37	0x3effd83f	0.4996967
38	0x3ecbdfdb	0.39819226
39	0x3ea8544d	0.32876816
40	0x3effd648	0.4996817
41	0x3ef9384c	0.48675764
42	0x3e95009b	0.29102024
43	0x3eaa3281	0.33241656
44	0x3ef4dd3c	0.47825038
45	0x3effffc7	0.4999983
46	0x3e6003a5	0.2187639
47	0x3e8b6bc9	0.2723067
48	0x3ef111ce	0.47083896
49	0x3efc4423	0.49270734
50	0x3e8f0fd0	0.2794175
51	0x3e9b5f50	0.30346155
52	0x3ee6a089	0.45044354
53	0x3ef3f67b	0.47648987
54	0x3cc01f00	0.023452282
55	0x3e564ab1	0.2092693
56	0x3ecfdc14	0.40597594
57	0x3ee7683f	0.4519672
58	0x3d1f8c6e	0.038952284
59	0x3e40dad1	0.18833472
60	0x3eb8b46d	0.36075154
61	0x3eeb06d2	0.4590364
62	0x3cf53abb	0.029935231
63	0x3e28f024	0.16497856
64	0x3eb8b46d	0.36075154
65	0x3eeb06d2	0.4590364
66	0x3cf53abb	0.029935231
67	0x3e28f024	0.16497856

68 f4 [6]
0	0x4011de67	2.2791994
1	0x408aae4e	4.3337774
2	0x3c080f60	0.008304447
3	0x3bae157b	0.0053126193
4	0x4078d938	3.888258
5	0x42dad409	109.41413

action_model._continuous_distribution.log_sigma f4 [1, 2]
0	0xbd105dc9	-0.03524569
1	0xbd41f6e8	-0.04735461

action_model._continuous_distribution.mu.bias f4 [2]
0	0xbbc4d45d	-0.006006761
1	0x3baafc23	0.0052180453

action_model._continuous_distribution.mu.weight f4 [2, 256]
0	0x3c988485	0.018617878
1	0x3c603d17	0.01368644
2	0xbc837f3c	-0.016051881
3	0x3b9c6d12	0.0047737444
4	0xbc8eb4dc	-0.017420225
5	0xbcf610f8	-0.030037388
6	0xbd15d917	-0.036583986
7	0xbd190b10	-0.037364066
8	0x3d1639f3	0.03667636
9	0xbcbe0dc6	-0.023199927
10	0xbc7d08af	-0.015443965
11	0x3cb2b175	0.021813134
12	0xbc8bd832	-0.017070863
13	0x3c6dc8e9	0.014513233
14	0xbce79d42	-0.028273229
15	0x3cca29c7	0.024678124
16	0xbd2fe166	-0.042939566
17	0x3c3e42e2	0.011612626
18	0x3b2b7894	0.00261644
19	0xbd15ba6f	-0.03655475
20	0x3d1e0568	0.038579375
21	0xbd183289	-0.03715757
22	0x3bdf6bb8	0.006818261
23	0x3c9051c2	0.01761711
24	0x3d3fb605	0.046804447
25	0xbcd4eaa4	-0.025990792
26	0xbc0f2096	-0.008735796
27	0xbc86bebf	-0.016448377
28	0x3b2fe709	0.0026840589
29	0xbc8b63df	-0.017015396
30	0xbd0ad00f	-0.033889826
31	0x3c064647	0.008195466
32	0x3d139b1f	0.036036607
33	0xbd25aecd	-0.040449906
34	0xbd023d1d	-0.031796563
35	0x3afcfe7b	0.0019301915
36	0xbc61fd79	-0.013793343
37	0xbd2eb853	-0.042656254
38	0x3d17157b	0.03688572
39	0x3d054396	0.032535158
40	0x3c3c4ba5	0.011492644
41	0xbc943072	-0.018089507
42	0xbd2c8505	-0.042119045
43	0x3c361e1b	0.011115576
44	0x3c1680c3	0.009185973
45	0x3ac135e8	0.0014740797
46	0x3cc95614	0.024577178
47	0x3bd5e432	0.006527447
48	0xbc4978ab	-0.012296836
49	0xbc62115d	-0.013798085
50	0x3d14b591	0.036305968
51	0x3cc5a9d2	0.024128828
52	0x3cdf8f14	0.027289905
53	0x3c6779cf	0.0141281625
54	0x3d0338dc	0.032036647
55	0x3bdc289a	0.0067187073
56	0xbbc9f822	-0.006163613
57	0xbbeaafce	-0.007162071
58	0xbcb5e266	-0.022202682
59	0xbcdec1b5	-0.027191976
60	0x3cdf2b10	0.027242213
61	0x3cba1cb9	0.022718774
62	0xbc865011	-0.0163956
63	0xbc8712de	-0.016488489
64	0x3b9c8e89	0.0047777337
65	0xbd1eac08	-0.03873828
66	0xbceb660c	-0.028735183
67	0xbbac6639	-0.0052612093
68	0xbcfeaaeb	-0.03108736
69	0xbc1aca53	-0.009447652
70	0xbc89447a	-0.016756285
71	0x39abc320	0.0003276104
72	0xb98044cb	-0.00024465317
73	0xbbec5600	-0.0072124004
74	0x3cb6c419	0.022310304
75	0x3cdb9e2b	0.026808819
76	0x3cc67efa	0.024230469
77	0xbd061e02	-0.03274346
78	0xbd1feaba	-0.039042212
79	0x3cd97d1e	0.026548918
80	0x3d30afbc	0.043136343
81	0xbbfb0186	-0.0076600937
82	0xbd0870b9	-0.033310626
83	0x3d001787	0.031272437
84	0x3c64881e	0.0139484685
85	0x3d1773b0	0.036975563
86	0xbd13418f	-0.035951193
87	0xbcbc1b04	-0.0229621
88	0x3c8a56f6	0.01688717
89	0x3c565d7b	0.013083811
90	0xbcd0a610	-0.02546981
91	0xbc27b422	-0.010235818
92	0x3cf4f534	0.029902078
93	0xbc5bb945	-0.013410871
94	0x3d3c03c1	0.045902018
95	0x3c9c56fa	0.019084442
96	0x3cd8c6fe	0.026462074
97	0xbbfbe3a0	-0.007687047
98	0x3d0002ba	0.0312526
99	0x3cd57f5d	0.026061708
100	0x3ce025ff	0.027361868
101	0xba6d2d73	-0.0009047605
102	0xbbc91ec7	-0.006137702
103	0x3ceae576	0.028673869
104	0xbc0d9823	-0.008642229
105	0xbc5606d1	-0.013063149
106	0x39dae25f	0.0004174886
107	0x3a8aa545	0.0010577819
108	0xbd05e760	-0.03269136
109	0x3c6301fe	0.013855455
110	0xbc8d863f	-0.017275928
111	0xbc9bd5aa	-0.019022781
112	0xbd39450e	-0.04523187
113	0x3ce53c86	0.027982961
114	0x3c929a56	0.017895859
115	0xbcea1f35	-0.028579334
116	0xbd00b0f2	-0.03141875
117	0x3b8147a0	0.003945306
118	0x3c211b06	0.009833103
119	0x3c859a38	0.016308889
120	0x3c3255a4	0.010884676
121	0xbba96944	-0.0051700193
122	0xbc8f254f	-0.017473845
123	0x3b061ad5	0.002046277
124	0xbcb9b364	-0.022668548
125	0xbd002e35	-0.031294066
126	0x3c32ea4b	0.010920118
127	0x3c7d81df	0.015472858
128	0xbd334629	-0.04376808
129	0x3b950f74	0.0045489613
130	0xbc8f48ff	-0.017490862
131	0x3c4857d4	0.012227971
132	0xbd0d947e	-0.03456544
133	0xbcc58773	-0.024112439
134	0x3d01b54b	0.031667035
135	0xbc9fe764	-0.019519515
136	0x3b1d6f88	0.0024022777
137	0x3d00430f	0.031313952
138	0xbca3357e	-0.019922968
139	0x3cfda626	0.030963015
140	0x3d44ddc7	0.048063066
141	0xbd2b73eb	-0.041858595
142	0xbc539d60	-0.012915939
143	0xbca2f8cb	-0.019894024
144	0xbc816402	-0.015794758
145	0x3c9ea0d4	0.019363798
146	0xbd2e6eca	-0.042586125
147	0x3c7eff31	0.015563772
148	0xbccd8cf6	-0.02509163
149	0xbc844a26	-0.016148638
150	0xbd2d3334	-0.04228516
151	0x3ceba1af	0.02876362
152	0xbc113e50	-0.008864954
153	0xbcc13748	-0.02358593
154	0x3d06001f	0.03271496
155	0xbc031505	-0.008000617
156	0xbc00a35c	-0.007851448
157	0xbbca2fbb	-0.0061702407
158	0x3cc38d03	0.02387095
159	0x3cb134a4	0.021631546
160	0xbc82fe63	-0.015990442
161	0xbcab4fda	-0.0209121
162	0xbca42d4e	-0.020041134
163	0x3b6e95c4	0.0036405185
164	0x3bed4702	0.007241131
165	0xbd75d094	-0.06001337
166	0xbcbd90a5	-0.023140261
167	0x3c622889	0.01380361
168	0xbcf12513	-0.029436624
169	0xbb9815b2	-0.004641258
170	0xbcc7f389	-0.024408119
171	0xbc09421e	-0.00837758
172	0xbd10e93d	-0.035378683
173	0x3d63adba	0.0555856
174	0x3c05da09	0.008169659
175	0x3d15ffe8	0.036621004
176	0x39cdabbb	0.00039228596
177	0xba998266	-0.0011711835
178	0xbc1539a9	-0.0091079855
179	0x3ce19690	0.027537614
180	0x3d02482f	0.03180712
181	0xbd04d299	-0.032427404
182	0x3bb46ce7	0.0055061462
183	0xbd37cb7e	-0.0448718
184	0x3cbaacfc	0.022787564
185	0xbcc94c11	-0.024572404
186	0xbc8a0818	-0.016849563
187	0xbd2f14de	-0.04274451
188	0xbc940328	-0.018067911
189	0x3cdcd580	0.026957273
190	0x3cc958ba	0.024578441
191	0xbd35ee42	-0.044416673
192	0xbcb3ec5d	-0.021963293
193	0xb8b9b6fd	-8.855572e-05
194	0x3d030a22	0.031992085
195	0xbc1ee56a	-0.009698251
196	0xbd14551b	-0.036213975
197	0xbcb04979	-0.02151941
198	0x3cf01b9b	0.029310038
199	0x3ccaaacf	0.024739651
200	0x3d4be212	0.049776144
201	0x3d65f22b	0.056139152
202	0x3b10ba52	0.0022083712
203	0x3cc49154	0.02399508
204	0xbcdbe562	-0.026842777
205	0x3d7260f0	0.059174478
206	0x3cedc997	0.02902679
207	0x3c4eb720	0.012616903
208	0xbc8690b8	-0.01642643
209	0xbc7fd31b	-0.015614296
210	0x3bc625f9	0.006047007
211	0xbade74dc	-0.0016972083
212	0xbcc8c731	-0.024509044
213	0x3c89e7cb	0.01683416
214	0xbd0c13a5	-0.034198422
215	0xbce65123	-0.02811486
216	0xbcf231f4	-0.029564835
217	0xbc9fe93c	-0.019520395
218	0x3c9c8bdd	0.01910966
219	0xbc8d6aa4	-0.017262764
220	0xba474064	-0.00076008425
221	0xbcaeae4f	-0.021323351
222	0x3c7a2a04	0.015268806
223	0x3cd97817	0.026546521
224	0x3d136dd0	0.035993397
225	0x3c003a6f	0.007826432
226	0xbd13ddc2	-0.036100157
227	0x3c937dc3	0.018004304
228	0x3bb83c97	0.0056224572
229	0x3bf860fb	0.0075799203
230	0x3d02fc19	0.0319787
231	0xbcba71f6	-0.022759419
232	0xbd059b66	-0.032618903
233	0x3bf5776e	0.007491044
234	0x3cf8b6a1	0.030360522
235	0xbbf98415	-0.0076146224
236	0xbc4588f6	-0.01205658
237	0x3b4f806f	0.0031662246
238	0xbaefef1e	-0.0018305515
239	0xbceed216	-0.029152911
240	0xbc77deef	-0.015128835
241	0xbc1eabad	-0.009684485
242	0x3bb4a588	0.005512897
243	0xbc58b6d1	-0.013227181
244	0x3d1abba6	0.03777661
245	0xbcef91b2	-0.029244278
246	0x3c0d24ad	0.008614701
247	0x3d0da4fe	0.034581177
248	0x3d25e4ba	0.040501334
249	0x3c8f65f5	0.017504672
250	0x3d267062	0.04063452
251	0x3d08ffa1	0.03344691
252	0x3c5d08a4	0.01349083
253	0xbd1b4403	-0.037906658
254	0x3c54c8a3	0.012987289
255	0xbc4874d7	-0.012234888

network_body._body_endoder.seq_layers.0.bias f4 [256]
0	0x3c37f2b0	0.011227295
1	0x3ce461b1	0.027878614
2	0xbbeb6944	-0.0071841795
3	0xbb087c0f	-0.0020825898
4	0x3c9a6b7e	0.018850084
5	0x3c601811	0.013677613
6	0x3c11e0c4	0.008903686
7	0xbb0f150f	-0.002183262
8	0x3bdeabb2	0.00679537
9	0x3c7f186c	0.0155697875
10	0x3c1507b1	0.009096072
11	0x3be04733	0.006844425
12	0x3caffbb2	0.021482322
13	0x3b1b713c	0.0023718616
14	0x3c861db9	0.016371595
15	0x38d239e0	0.000100243604
16	0x3c3d9c31	0.011572883
17	0x3c39d3fe	0.011342047
18	0x3c6cf934	0.0144637115
19	0x3c25b41f	0.010113745
20	0x3c1de7fe	0.009637831
21	0xba95feb2	-0.0011443703
22	0x3ae77108	0.0017657587
23	0x3b6c8546	0.003609018
24	0x3c44e7a9	0.012018123
25	0x3c05d654	0.008168776
26	0xbbb8e23a	-0.0056422027
27	0x3c59c4e1	0.0132915685
28	0x3cb949fd	0.022618288
29	0x3b0d5cb3	0.0021570146
30	0x3c08205a	0.008308494
31	0x3af7fccb	0.0018919943
32	0x3c267f10	0.01016213
33	0x3ca03805	0.019557962
34	0x3cca4f50	0.024696022
35	0x3ca1e50d	0.01976254
36	0x3ca69e41	0.020339133
37	0x3c13bdac	0.009017389
38	0xbc424c80	-0.011859059
39	0x3a3d2471	0.0007215208
40	0x3ca4d9ab	0.020123323
41	0x3c42878b	0.011873136
42	0x3bf7e013	0.0075645535
43	0x3c963526	0.01833589
44	0x3af1b856	0.0018441777
45	0xbc87371d	-0.016505772
46	0xbb7540eb	-0.0037422727
47	0x3c4a632b	0.012352745
48	0xbb9789cc	-0.004624581
49	0x3c26c3ad	0.010178489
50	0x3c23d6fd	0.009999988
51	0x3c303f2e	0.010757251
52	0x3a2ec712	0.0006667237
53	0x3bd8b70c	0.0066136178
54	0x3a1c5cef	0.0005964776
55	0x3c05008b	0.008117805
56	0x3b390e05	0.0028237116
57	0x3c9cc7ed	0.0191383
58	0x3c45896f	0.0120566925
59	0x3bb31e17	0.0054662335
60	0x3b947a3c	0.004531173
61	0x3c9cc10f	0.019135026
62	0x3c40d899	0.011770391
63	0x3cea7d0b	0.028624078
64	0x3c10a27c	0.008827802
65	0x3c8b445c	0.01700037
66	0xba8cf03a	-0.0010752745
67	0x3ba284a9	0.004959662
68	0x3c96c6fa	0.018405426
69	0x3c58c8de	0.013231484
70	0x3c0794a2	0.008275183
71	0xbc72939f	-0.014805703
72	0x3bf6f167	0.0075361016
73	0xbc0b8739	-0.008516126
74	0xbada1127	-0.0016637192
75	0x3a94346b	0.0011307126
76	0x3c959c55	0.018263021
77	0x3c1aa41e	0.009438543
78	0xbb59237c	-0.0033132723
79	0x3c155607	0.009114749
80	0x3c3df996	0.01159515
81	0x3b8120a0	0.003940657
82	0x3b55d720	0.0032629445
83	0xbbfca090	-0.00770957
84	0xbb3cf248	-0.0028830934
85	0xbb7dae2e	-0.0038708556
86	0xbbe7ee3f	-0.0070779617
87	0x3c4139b3	0.011793542
88	0x3c51f088	0.012813695
89	0x3c7e2458	0.015511595
90	0x3c09f80f	0.008420958
91	0xbbf86cd3	-0.007581332
92	0x3c30bd40	0.010787308
93	0xbba03cf4	-0.0048900787
94	0x3c82a95e	0.015949901
95	0x3bc40439	0.0059819487
96	0xbb26bf7d	-0.0025443726
97	0x3b0a9c6b	0.0021150361
98	0x3c674be3	0.014117214
99	0x3cc52dcb	0.024069687
100	0x3ce73a3a	0.028226007
101	0x3cdae043	0.026718264
102	0x3b3a0f0e	0.002839032
103	0xbbfa2d40	-0.0076347888
104	0x3c41cec9	0.011829087
105	0x3ab2aa8f	0.0013631153
106	0x3c42a9ff	0.011881351
107	0x3c457e08	0.012053974
108	0x3d0b5ce0	0.03402412
109	0x3c0a8e3f	0.008456766
110	0x3cdcafc1	0.026939275
111	0x3c486cb8	0.012232952
112	0x3c9fafa1	0.019492926
113	0xba35f286	-0.0006940741
114	0x3cb6f5b0	0.02233395
115	0x38b48248	8.6073356e-05
116	0x3c572341	0.013130964
117	0xbb913cfa	-0.004432318
118	0xbb2fa9e2	-0.002680414
119	0x3c14f2b9	0.009091073
120	0x3c050f95	0.008121391
121	0x3cfb5c6d	0.03068372
122	0x3c7c9e6f	0.015418633
123	0x3c643296	0.013928076
124	0x3b1939e6	0.0023380457
125	0x3cce467e	0.025180098
126	0x3c2c5817	0.010519049
127	0xbbda74d8	-0.006666761
128	0x3cc21798	0.023692891
129	0xbc873d5b	-0.016508749
130	0xbc267a2a	-0.010160962
131	0x3c3fd774	0.011709083
132	0x3cea5d64	0.028608985
133	0xbb9cbb90	-0.0047831014
134	0x3bc6ce35	0.0060670623
135	0x3b61bbb6	0.003444416
136	0x3b02ff52	0.0019988609
137	0x3be4e560	0.0069853514
138	0x3c2fb6d6	0.010724744
139	0x3c3d72fd	0.01156306
140	0x3bb6a710	0.0055741146
141	0x3c9d62ed	0.01921221
142	0x3c2aadeb	0.010417442
143	0xbc2d0871	-0.010561095
144	0x3c7d439d	0.015458015
145	0x3c342772	0.010995733
146	0x3c1a47c2	0.009416522
147	0x3ca0809f	0.019592581
148	0xbca4a29c	-0.02009707
149	0x3c93a975	0.01802514
150	0x3c3e0c9f	0.011599689
151	0x3b52f45b	0.0032189104
152	0x3c4f6fc3	0.012660923
153	0x3c0b4da4	0.008502398
154	0x3cc4ed18	0.024038836
155	0x3ce834fd	0.02834558
156	0x3c9d8fa9	0.019233542
157	0x3c59a0e4	0.013282988
158	0x3b18212e	0.0023213136
159	0x3c7ab7bf	0.015302598
160	0x3b072d02	0.0020626192
161	0x3b505a58	0.003179213
162	0x3c41c8ab	0.011827628
163	0xba263b65	-0.0006341248
164	0x3c8e7c39	0.017393218
165	0x3ba49737	0.005022909
166	0x3cb6c200	0.022309303
167	0x3c86c0d5	0.016449371
168	0x3b9d866e	0.004807285
169	0xbc1b8638	-0.009492449
170	0xbb16d848	-0.0023017097
171	0x3ce2342e	0.027612772
172	0x3aff5e16	0.0019482996
173	0x3bb0ca4a	0.0053952085
174	0x3ba7f44e	0.005125559
175	0xbcd6caa7	-0.026219679
176	0x3c923a0d	0.017849946
177	0x3c8be91b	0.017078927
178	0x3c815dbf	0.015791772
179	0x3b4c4f94	0.0031175362
180	0x3c7bc97a	0.01536786
181	0xbb393ae5	-0.0028263864
182	0x3b9e8648	0.004837785
183	0x3be4f64a	0.0069873678
184	0x3babdb78	0.0052446686
185	0xbc3e316c	-0.011608463
186	0x3ca444ab	0.020052275
187	0x3cdff7cb	0.027339837
188	0x3af43ae0	0.0018633269
189	0x3b8b06aa	0.004242738
190	0xbb5f9311	-0.0034114758
191	0x3cdb635c	0.026780777
192	0xbc22d412	-0.009938257
193	0x39a8153c	0.00032059278
194	0x3b7dc78b	0.0038723673
195	0x3c6fde54	0.0146404095
196	0x3c62d907	0.013845689
197	0x3bfa6062	0.0076408843
198	0x3c151710	0.009099737
199	0x3cb8fda7	0.022581888
200	0x3c3ce479	0.0115290815
201	0x3c2605bc	0.010133203
202	0x3be32108	0.006931428
203	0x3ccdc25b	0.02511709
204	0x3c444924	0.011980329
205	0x3c8d6c3e	0.017263528
206	0xbc7150c6	-0.014728731
207	0x3caa9906	0.02082492
208	0x3c95a132	0.01826534
209	0xbb839b7c	-0.004016338
210	0xba8021ba	-0.0009775676
211	0x3c7c9f6b	0.015418868
212	0x3b673463	0.0035279028
213	0xbc35c1a7	-0.011093534
214	0xbc3c719d	-0.011501697
215	0xbc824fd2	-0.015907202
216	0x3c142b28	0.009043492
217	0x3bd9f63c	0.006651668
218	0x3c427690	0.011869088
219	0x3c8ec45a	0.017427612
220	0x3c4cea37	0.012507013
221	0x3c38fb53	0.011290389
222	0x3c9162fe	0.017747398
223	0x3c78f427	0.015194929
224	0x3ca13acb	0.019681355
225	0x3bbdbda6	0.00579043
226	0x3cdfee94	0.027335443
227	0x3c93960b	0.018015882
228	0x3c36b610	0.0111518055
229	0x3bcba90c	0.0062152203
230	0x3c586233	0.013207006
231	0x3c692f12	0.014232414
232	0x3ca7ee2c	0.020499311
233	0x3c8a60b2	0.016891811
234	0x3c0731d2	0.008251624
235	0xbba52b4d	-0.0050405622
236	0x3a12c717	0.00055991247
237	0xbb3bd7f0	-0.0028662644
238	0x3c076ce7	0.00826571
239	0x3bb652ef	0.0055640857
240	0x3c2502ae	0.01007144
241	0x3bc44516	0.005989681
242	0xbc93e221	-0.018052163
243	0x3c0d3778	0.008619182
244	0x3cd411bd	0.025887365
245	0x3cc649cd	0.024205113
246	0xbc171a53	-0.009222585
247	0xbb64f7c0	-0.003493771
248	0xbbb14074	-0.0054092947
249	0x3ca40198	0.020020291
250	0x3bbadad5	0.0057023563
251	0x3c43f6f9	0.011960738
252	0x3cb555df	0.022135673
253	0x3c863218	0.016381308
254	0x3c25fb76	0.010130754
255	0x3cbbda52	0.022931252

network_body._body_endoder.seq_layers.0.weight f4 [256, 74]
0	0x3e032b1d	0.12809415
1	0xbd1dd325	-0.03853144
2	0xbc24fa5b	-0.010069455
3	0x3da8bc0d	0.08238993
4	0xbc6af456	-0.014340481
5	0xbe1bab45	-0.15202053
6	0xbe40bffb	-0.18823235
7	0xbd981155	-0.07425181
8	0x3d1af9a0	0.037835717
9	0xbe528c16	-0.20561251
10	0x3e0072e5	0.12543829
11	0xbdcf84ec	-0.10132775
12	0x3e68563b	0.22689144
13	0x3d21afb7	0.039474215
14	0x3d61f251	0.05516273
15	0xbe73b67f	-0.23800085
16	0xbd03a980	-0.03214407
17	0xbdc9910a	-0.09842117
18	0x3d42ffce	0.047607236
19	0x3dc740d1	0.097291596
20	0x3dee8e77	0.11648267
21	0xbd8e3eba	-0.06945558
22	0xbe15500e	-0.1458132
23	0xbce68c72	-0.028143141
24	0xbd1aafd5	-0.037765343
25	0x3cde083f	0.027103541
26	0x3ba7dded	0.005122891
27	0xbe5eb575	-0.21748908
28	0x3b13e376	0.0022565997
29	0x3d985a56	0.07439105
30	0xbe6cbb91	-0.23118426
31	0x3e1481fa	0.14502707
32	0x3e4c79d6	0.19968352
33	0x3e207a40	0.15671635
34	0xbc4c1806	-0.0124568995
35	0xbe00b9ed	-0.12570925
36	0x3e713317	0.23554645
37	0xbd679c63	-0.056545626
38	0x3c286a9c	0.010279324
39	0x3df251b0	0.11831987
40	0xbdb32219	-0.08746738
41	0xbdbb197f	-0.09135722
42	0xbdb75731	-0.08952177
43	0xbc948694	-0.018130578
44	0x3db99ec2	0.09063484
45	0xbda83722	-0.08213641
46	0x3dcb6d96	0.09933011
47	0x3d830ad1	0.063985474
48	0x3dc9ac2f	0.098472945
49	0xbe5edc6a	-0.21763769
50	0xbe27a703	-0.16372304
51	0x3c61b5e3	0.013776275
52	0xbd9e90c3	-0.07742455
53	0x3c116c1c	0.008875873
54	0x3d839f77	0.064269
55	0x3c6a0622	0.014283689
56	0xbe675f48	-0.2259494
57	0x3d914913	0.07094016
58	0x3e3154c8	0.17317498
59	0x3d365b71	0.0445208
60	0xbde1e015	-0.110290684
61	0x3e8f4ddb	0.27989087
62	0x3d28d56d	0.041219164
63	0xbbf76fee	-0.007551185
64	0xbcb16fbf	-0.02165973
65	0xbdece9c3	-0.11568024
66	0x3dd271b0	0.102755904
67	0x3cb7377c	0.022365324
68	0x3cf98e3d	0.030463332
69	0xbe007345	-0.12543972
70	0xbcbc7e04	-0.023009308
71	0xbd991326	-0.074743554
72	0xbc8dcf8c	-0.01731088
73	0xbd1ab145	-0.037766714
74	0x3d0e8ba5	0.034801144
75	0x3caec6b2	0.02133498
76	0xbd1cd2be	-0.038286917
77	0xbdba1bd0	-0.09087336
78	0xbbc5a0ed	-0.0060311467
79	0xbd76d24b	-0.060259145
80	0xbc908e7d	-0.017646069
81	0xbc688036	-0.014190724
82	0x3cb91774	0.022594191
83	0x3e396c5f	0.18107747
84	0x3d9844ea	0.07435019
85	0xbe1cfa27	-0.153298
86	0xbc843c1d	-0.016141945
87	0xbce3c328	-0.027803019
88	0x3d4e1f41	0.050322775
89	0x3ca83b0a	0.020535965
90	0x3df8b9b1	0.12144793
91	0x3dbdd3e1	0.09268928
92	0xbd66142f	-0.056171592
93	0x3d1363ed	0.03598397
94	0x3d98de68	0.074642956
95	0xbc897293	-0.016778266
96	0xbd2a5641	-0.041586164
97	0x3ccbd4df	0.024881778
98	0xbd3daf87	-0.046309974
99	0xbe1ad3a3	-0.15119796
100	0xbd956715	-0.07295052
101	0x3dbf0ea6	0.09328966
102	0xbdcd9e77	-0.100399904
103	0x3e8888e2	0.26666933
104	0xbe1082cf	-0.141124
105	0x3dd29258	0.10281819
106	0x3d7a15c7	0.061055925
107	0x3d4f6f74	0.0506434
108	0xbe0adf50	-0.1356175
109	0xbc53912a	-0.012913028
110	0x3dbbd22c	0.091709465
111	0x3e3319d1	0.17490317
112	0x3cf8e954	0.030384697
113	0x3e1d691d	0.15372129
114	0x3c874a90	0.016515046
115	0xbdb9377b	-0.09043785
116	0x3e23663e	0.15956971
117	0x3d117ff3	0.035522413
118	0x3d7c5633	0.061605643
119	0x3e054d73	0.13017826
120	0x3d619ac1	0.055079225
121	0x3e334422	0.1750646
122	0x3db81afc	0.08989522
123	0xbb7c6d1b	-0.003851718
124	0xbe2cfb49	-0.16892733
125	0x3d46efe3	0.048568618
126	0xbcc38a9f	-0.02386981
127	0xbe817efe	-0.252922
128	0x3dda3d24	0.10656193
129	0xbdf6e120	-0.12054658
130	0xbd4f6cb7	-0.050640788
131	0x3ce807a1	0.02832395
132	0xbd09a497	-0.03360423
133	0x3e50cd97	0.20390926
134	0x3e415925	0.18881662
135	0xbdf0c679	-0.11756606
136	0x39a652e7	0.00031723754
137	0xbdc44e6a	-0.09585269
138	0x3d913af2	0.07091321
139	0xbd0565fe	-0.03256797
140	0xbe20701f	-0.15667771
141	0x3c1976e6	0.0093667265
142	0x3dfb52fa	0.12271686
143	0x3e331ec2	0.17492202
144	0x3c6773ba	0.014126712
145	0xbd39f22d	-0.045396972
146	0xbc133ca3	-0.008986625
147	0x3e9a9a3e	0.30195802
148	0x3e0df3e3	0.13862567
149	0x3df566b1	0.119824775
150	0xbcc266e4	-0.023730703
151	0x3e178696	0.14797434
152	0x3e0702ab	0.13184611
153	0x3c561520	0.01306656
154	0x3e107fcc	0.1411125
155	0x3e0ca529	0.13734879
156	0x3e3c850d	0.1841013
157	0x3e0eaefc	0.13933939
158	0x3cead405	0.028665552
159	0xbd40dda2	-0.047086366
160	0x3dcf5c67	0.10125046
161	0x3dd8c84c	0.105850786
162	0xbd673add	-0.05645262
163	0x3e18989b	0.14901964
164	0x3d472186	0.048615955
165	0x3c2867e0	0.010278672
166	0x3d77da64	0.060511008
167	0xbd9dacbd	-0.07698963
168	0xbc9049e3	-0.017613357
169	0x3d5b0303	0.05346967
170	0xbd46df20	-0.048552632
171	0x3db61f01	0.08892632
172	0x3dcb9065	0.099396504
173	0x3dda0c4e	0.10646878
174	0x3d527211	0.051378313
175	0x3d1b39c5	0.03789689
176	0x3d98c8d5	0.07460181
177	0xbd1c7029	-0.0381929
178	0x3d98d6a4	0.074628145
179	0xbe9d97a3	-0.30779752
180	0xbd57ea60	-0.05271375
181	0xbc75f665	-0.015012358
182	0xbda999ce	-0.08281289
183	0x3a0f6d59	0.0005471311
184	0xbc92081b	-0.01782613
185	0x3c09be34	0.008407164
186	0xbd7ca67c	-0.06168221
187	0xbd8606c0	-0.06544256
188	0x3e935f47	0.28783628
189	0xbc33a687	-0.010964996
190	0xbe3ca0fb	-0.18420784
191	0xbea01711	-0.31267598
192	0xbe756549	-0.23964418
193	0x3cb91411	0.022592576
194	0x3e7827e5	0.24233969
195	0xbc9e708b	-0.019340774
196	0xbde2823d	-0.11059997
197	0xbcfac578	-0.030611739
198	0x3ac2e8d2	0.0014870411
199	0x3d8d55d1	0.06901134
200	0x3dac2139	0.08404774
201	0xbd8cb6e4	-0.06870821
202	0x3db9ae7d	0.09066484
203	0xbdf40d7e	-0.11916636
204	0xbe4c95a0	-0.19978952
205	0xbdaffeba	-0.08593507
206	0xbdb94949	-0.09047181
207	0x3ea62ded	0.32456914
208	0x3d7ca9b7	0.06168529
209	0x3e1bd118	0.15216482
210	0xbd24b35e	-0.04021012
211	0xbc872b1d	-0.01650005
212	0xbe3661f6	-0.17810807
213	0xbdf56a01	-0.11983109
214	0xbe0e9725	-0.13924845
215	0x3b2e79a1	0.002662279
216	0xbdc13fcf	-0.09435999
217	0x3d0c2e67	0.03422394
218	0xbd85d0d3	-0.06533971
219	0xbdc89db2	-0.09795703
220	0xbe1242c5	-0.14283283
221	0xbd5beb4e	-0.0536912
222	0x3e6b99fc	0.23007959
223	0xbe1cb9ab	-0.15305202
224	0x3cd6b232	0.026208017
225	0xbe1af2cb	-0.1513168
226	0x3d6e3c6c	0.05816309
227	0xbe27906c	-0.16363686
228	0x3d0e364a	0.034719743
229	0x3d680742	0.056647547
230	0xbd8b8e59	-0.0681426
231	0x3da1b774	0.07896319
232	0xbb745675	-0.0037282978
233	0xbd87d73e	-0.06632851
234	0xbdd506c8	-0.10401684
235	0xbdc79463	-0.097450994
236	0xbdb8c827	-0.09022551
237	0x3c9464a6	0.0181144
238	0x3d3827b6	0.044959746
239	0xbde6ff2f	-0.11279141
240	0xbbf9cbbd	-0.0076231644
241	0xbc8d6161	-0.017258348
242	0x3e042f0c	0.12908572
243	0x3d88424e	0.066532716
244	0x3dd6a753	0.10481133
245	0xbd4176ec	-0.047232553
246	0x3d0f1fac	0.034942314
247	0xbe26d9c9	-0.16294016
248	0x3ced0b17	0.028935952
249	0xbd87e6ec	-0.06635842
250	0x3c8bf592	0.01708487
251	0xbd278420	-0.04089749
252	0x3e5fcfc2	0.21856597
253	0xbd57d9d6	-0.05269798
254	0xbc51a7b9	-0.012796336
255	0x38e2f1c5	0.00010821553

network_body._body_endoder.seq_layers.2.bias f4 [256]
0	0x3ca334c1	0.019922616
1	0x3bb62d17	0.0055595743
2	0x3c985b39	0.018598186
3	0x3c5f26c2	0.01362008
4	0x3c1f3408	0.009716995
5	0x3c94eaeb	0.018178424
6	0x3ca58bf8	0.020208344
7	0x3c1e0e06	0.009646898
8	0x3b14fa1f	0.0022732092
9	0x3c597529	0.013272562
10	0x3c7da21b	0.0154805435
11	0xbae4f838	-0.0017468994
12	0xbb8d7ccb	-0.004317855
13	0x3b991ff1	0.004672997
14	0x3c32440d	0.010880482
15	0xbbc54829	-0.006020565
16	0x3c366db3	0.011134553
17	0xbb13c205	-0.0022546065
18	0x3b0abe41	0.002117053
19	0xbc3ee352	-0.011650877
20	0x3cac5b6a	0.021039683
21	0x3caf96b6	0.02143417
22	0x3c267933	0.010160732
23	0x3bc1d325	0.005915063
24	0x3b4c916d	0.003121461
25	0xbb923b86	-0.004462662
26	0x3c8b4448	0.017000332
27	0x3be8fb2b	0.0071100197
28	0x3bdad694	0.0066784117
29	0x3b2ef8cb	0.0026698585
30	0x3c36eece	0.011165334
31	0xbb456db0	-0.0030125193
32	0xbb8eafe0	-0.004354462
33	0x3c5603aa	0.013062397
34	0x3c05abd3	0.008158642
35	0x3b02c4b5	0.0019953672
36	0xbc358357	-0.011078677
37	0xbbb825dd	-0.005619748
38	0x3ca8f491	0.02062443
39	0x3c82eef5	0.015983084
40	0xbbc42cd0	-0.0059867874
41	0x3c093b0a	0.008375892
42	0x3c75be2d	0.014998955
43	0x3c5656e7	0.013082243
44	0x3c873134	0.016502954
45	0xba8316a8	-0.0010001259
46	0x3ab98eae	0.0014156902
47	0xbbac65c3	-0.0052611544
48	0x3a38d668	0.0007050992
49	0x3c076bd6	0.008265456
50	0x3b0348f6	0.0020032502
51	0x3a115612	0.00055441365
52	0x3c39fd85	0.011351948
53	0xbb613030	-0.0034360997
54	0x3c6e1089	0.0145303095
55	0x3c882406	0.01661874
56	0x3ca6439d	0.020295912
57	0x3bcd5bac	0.0062670317
58	0x3ce3ed45	0.0278231
59	0x3ba9656c	0.005169561
60	0x3c9822d8	0.018571302
61	0x3c18f5a5	0.00933591
62	0x3cbae1bb	0.022812715
63	0x3c80a59d	0.01570397
64	0x3c201279	0.009770029
65	0x3ca7efd6	0.020500105
66	0xbc120605	-0.008912568
67	0xbb5f311f	-0.0034056378
68	0x3be47234	0.006971622
69	0xbaed9fbb	-0.0018129268
70	0x3c0bbbab	0.00852863
71	0x3b2af268	0.0026084427
72	0x3b8d3e85	0.0043104314
73	0x3c94569f	0.01810771
74	0xbb09b916	-0.002101486
75	0x3b1a9320	0.0023586228
76	0x3c31b9c4	0.010847513
77	0x3ba741b4	0.005104268
78	0x3c302caa	0.010752836
79	0x3c586540	0.013207734
80	0xbb8c816e	-0.00428789
81	0xba2e29c8	-0.0006643799
82	0xbc008d25	-0.0078461515
83	0x3c9ed9fe	0.019391056
84	0x3ca0ea37	0.019642932
85	0xbc284be7	-0.010272003
86	0x3bbee0a0	0.005825117
87	0x3b20956c	0.0024503125
88	0x3caa15a5	0.020762274
89	0x3b804fec	0.0039157774
90	0x3c13b65e	0.009015648
91	0x3b69fc41	0.0035703334
92	0x3b14318d	0.0022612542
93	0x3c2e4ded	0.010638696
94	0x3c49bc49	0.012312957
95	0xbc404b92	-0.011736767
96	0x3c47df31	0.012199209
97	0x3c55766e	0.013028724
98	0x3c0646be	0.008195577
99	0x3c6d9698	0.014501236
100	0xbb859995	-0.0040771463
101	0x3c6eca56	0.014574608
102	0xbba128fd	-0.0049182163
103	0x3cb2242d	0.021745766
104	0xbb4d25a9	-0.0031302965
105	0x3c8c3927	0.017117096
106	0x3b25f784	0.0025324533
107	0x3c8bf4c1	0.017084481
108	0xb9b0605d	-0.00033641132
109	0x3ba9125b	0.005159659
110	0xba3216af	-0.0006793541
111	0xbb378050	-0.0028000064
112	0xbb0fc035	-0.0021934633
113	0x3c157bcc	0.009123754
114	0x3c3b50c3	0.011432829
115	0x3b7375ab	0.0037148993
116	0xbb588c6f	-0.003304269
117	0x3c786aee	0.015162213
118	0x3c7772f9	0.015103095
119	0x3c25d8cb	0.010122488
120	0xbc63bbb8	-0.013899736
121	0x3bccb362	0.00624697
122	0x3c58abd1	0.013224558
123	0x3c940ab6	0.018071514
124	0x3c34151d	0.010991362
125	0x3a13e015	0.0005640996
126	0xbbd06398	-0.0063595288
127	0xbc00ffd0	-0.00787349
128	0x3ab6fa7f	0.0013960152
129	0x3c5deed2	0.013545709
130	0x3b955cec	0.0045581963
131	0x3bb68546	0.0055700867
132	0x3c207d0d	0.009795439
133	0x3caf9477	0.021433098
134	0x3b002245	0.0019551676
135	0x3a7680d6	0.00094033533
136	0x3c06e870	0.008234128
137	0x3c198159	0.009369218
138	0x3c808809	0.015689867
139	0x3c2b0650	0.010438517
140	0x39ce3f29	0.0003933844
141	0xbb17357a	-0.0023072646
142	0x3b710a28	0.0036779735
143	0x3bc82ee8	0.0061091073
144	0x3c978aec	0.01849886
145	0x3a8ed738	0.001089788
146	0x3c692f8e	0.014232529
147	0x3c6a938b	0.014317404
148	0xba125044	-0.00055814185
149	0xbbec0285	-0.007202449
150	0x3b9a44b0	0.004707895
151	0x3cb3a3c6	0.02192868
152	0x3c6a2e10	0.014293209
153	0x3c037207	0.008022792
154	0x3c573d19	0.013137125
155	0x3c2a332b	0.010388176
156	0x3be05b0e	0.006846792
157	0x3b8818d2	0.0041533494
158	0x3ca968b8	0.020679817
159	0x39460816	0.00018885764
160	0x3beb6d13	0.0071846335
161	0x3c2b6daf	0.010463162
162	0x3c13e46a	0.009026626
163	0x3c146227	0.0090566045
164	0xbb6f5464	-0.0036518807
165	0x3c58dea8	0.013236679
166	0x3b8bb8e1	0.0042639826
167	0x3c5ad2b9	0.013355904
168	0x3c131544	0.008977238
169	0x3a2f9252	0.00066975236
170	0x3c966d5e	0.018362697
171	0xbae16380	-0.0017195791
172	0x39443717	0.00018712539
173	0x3cb7807c	0.022400133
174	0x3c2a035d	0.010376778
175	0x3c102ad3	0.008799273
176	0x3bf036dc	0.0073307585
177	0x39b9a626	0.0003540974
178	0xbc39364e	-0.011304451
179	0xbc83cbeb	-0.016088447
180	0x3c30bd00	0.010787249
181	0x3be7bac7	0.007071826
182	0x37b345b2	2.1370917e-05
183	0xbb1c6091	-0.002386127
184	0x3cfa5eb8	0.030562744
185	0x3c092419	0.008370423
186	0x3c980383	0.018556362
187	0x3cbba7af	0.022907106
188	0xbb944f97	-0.0045260894
189	0x3c692656	0.014230331
190	0x39d18594	0.0003996311
191	0xbb853ed2	-0.0040663267
192	0x3c5d9c60	0.013526052
193	0x3c7e7f0a	0.015533218
194	0x3c6b0b96	0.014346024
195	0x3d08c94f	0.033395108
196	0xbb44c15c	-0.0030022478
197	0xba92b8eb	-0.0011194026
198	0x3c0c1899	0.008550786
199	0xbbe4c3c6	-0.006981346
200	0x3be6e901	0.007046819
201	0xbbd44edd	-0.006479128
202	0x3be47a86	0.0069726137
203	0x3c4a454c	0.012345623
204	0x3c05411d	0.0081332
205	0x3bb88d38	0.005632069
206	0x3c4de6af	0.012567206
207	0xbab46274	-0.0013762251
208	0xbba0bd51	-0.004905381
209	0x3c8e7cca	0.017393488
210	0x39ce6148	0.00039363862
211	0x3c5c8f84	0.013461951
212	0x39bb4af1	0.00035723255
213	0xbc39fb26	-0.011351382
214	0x3cbdbe93	0.023162162
215	0x3b2cea18	0.0026384648
216	0x3c7e4f17	0.015521786
217	0x3b38df49	0.002820926
218	0x3cd02110	0.02540639
219	0x3c2bd4a1	0.010487706
220	0x3c62563a	0.013814503
221	0xbc03fa89	-0.008055338
222	0x3c30306c	0.010753732
223	0x3c3d934c	0.011570763
224	0xbc0f9313	-0.008763093
225	0x3c14bde5	0.0090784775
226	0x3c2c1740	0.01050359
227	0x3c486044	0.012229983
228	0x3a81ebba	0.0009912171
229	0x3cb4bc62	0.022062484
230	0x3bac1abb	0.00525221
231	0x3b8630a6	0.004095155
232	0x3c9e7e17	0.019347234
233	0x3c36bca3	0.011153373
234	0x3cf3ee6c	0.029776774
235	0x3c5d3d4d	0.013503385
236	0x3c83351a	0.016016532
237	0x3ca1908c	0.019722246
238	0x3affb0fd	0.0019507703
239	0xbb94d650	-0.0045421496
240	0x3c88677e	0.016650911
241	0xbbd33ceb	-0.006446471
242	0x3bfacd3c	0.0076538604
243	0x3c543a86	0.012953406
244	0x3cb3acd0	0.02193299
245	0x3c689801	0.014196397
246	0x3bc1f30e	0.005918867
247	0x3c02b0b6	0.0079767015
248	0x3afe3f95	0.0019397611
249	0x3c5ec0c4	0.013595764
250	0x3c13ccd2	0.009021001
251	0xbb51c7c1	-0.0032009932
252	0x3c1c77d3	0.009550053
253	0xbb0d2ca0	-0.002154149
254	0x39497fcf	0.00019216466
255	0xbb4c0244	-0.003112928

network_body._body_endoder.seq_layers.2.weight f4 [256, 256]
0	0x3dd374f2	0.1032504
1	0x3d12248c	0.035679385
2	0xbd6f759c	-0.05846177
3	0x3d308c08	0.043102294
4	0x3dbc9acf	0.09209215
5	0x3dc5e0b1	0.09661997
6	0xbbef8268	-0.007309247
7	0xbc92f98b	-0.017941257
8	0xbc80a503	-0.015703684
9	0xbd1c9b0d	-0.038233805
10	0x3d8ddeda	0.06927271
11	0x3d813f18	0.06310862
12	0x3e034ebc	0.12823004
13	0xbc78929a	-0.015171671
14	0xbd84190a	-0.06450088
15	0xbd8d5fec	-0.06903061
16	0xbcc9219d	-0.02455216
17	0xbd99c9cc	-0.07509193
18	0x3d99c1aa	0.075076416
19	0x3d37696a	0.044778265
20	0xbc04b9de	-0.008100955
21	0x3d09ee6a	0.033674635
22	0xbcbb9807	-0.02289964
23	0xbe0a5191	-0.13507678
24	0xbe3704d8	-0.17872941
25	0x3cc89e2e	0.024489488
26	0xbc0f099d	-0.008730319
27	0xbd230785	-0.039802093
28	0x3d6293b5	0.055316646
29	0x3bd8685d	0.006604238
30	0xbd9e85bd	-0.07740352
31	0xbdcef3f1	-0.10105122
32	0x3d6ee235	0.058321197
33	0xbdac560d	-0.084148504
34	0x3d33430e	0.04376512
35	0x3d53d459	0.051716182
36	0x3dcefe8c	0.10107145
37	0x3ac16555	0.0014754931
38	0xbdfbda29	-0.1229747
39	0xbccf3620	-0.025294363
40	0xbbf0736f	-0.0073379795
41	0xbd39e38e	-0.04538303
42	0x3d2d21e5	0.042268652
43	0xbd187d2c	-0.03722875
44	0x3c2b674c	0.01046164
45	0xb99d26f4	-0.00029974396
46	0xbdd9180f	-0.10600292
47	0xbc8d3bd4	-0.017240442
48	0xbe3c2484	-0.18373305
49	0x3c7f20c7	0.01557178
50	0xbce746c7	-0.028231991
51	0x3d9b0fd5	0.07571379
52	0xbcaefed8	-0.021361753
53	0x3d383a77	0.04497763
54	0xbd208030	-0.03918475
55	0xbdbe7498	-0.09299582
56	0x3db0903f	0.08621263
57	0x3a878dea	0.0010341976
58	0xbdd9d9d4	-0.106372505
59	0xbd8dd2e8	-0.06924993
60	0x3e1a3542	0.15059379
61	0x3e1adbf7	0.15122972
62	0xbc3a7c0f	-0.011382117
63	0x3c9d56bf	0.019206403
64	0xbcb62c4c	-0.02223792
65	0xbd12848d	-0.03577094
66	0xbd075078	-0.033035725
67	0x3d00ae6f	0.031416353
68	0xbda91c86	-0.082573935
69	0x3a26ee9a	0.0006367952
70	0xbd033fd8	-0.032043308
71	0x3d8c1e55	0.06841723
72	0xbd8e289e	-0.06941341
73	0xbc891e98	-0.016738221
74	0x3ce64b6e	0.02811214
75	0x3d74e0e1	0.059784774
76	0xbd6a5c3d	-0.05721687
77	0xbd036563	-0.03207911
78	0xbd3e25ca	-0.046422757
79	0x3be4936f	0.0069755833
80	0x3c81c953	0.01584307
81	0x3d3affd8	0.045654148
82	0xbc3bd717	-0.011464856
83	0xbd8bf2e7	-0.06833439
84	0xbd282e44	-0.041059747
85	0xbd29a1f9	-0.041414235
86	0x3c8a3d4e	0.016874935
87	0xbd01f485	-0.031727333
88	0x3d44e7ed	0.048072744
89	0x3e4234ae	0.18965408
90	0x3dcb919a	0.09939881
91	0x3c4d5abf	0.012533843
92	0x3c715932	0.0147307385
93	0x3deb1592	0.114787236
94	0x3d3cfd18	0.046139807
95	0x3d66660f	0.056249674
96	0xbd0826e6	-0.03324022
97	0x3df422c8	0.119206965
98	0x3bd069d4	0.006360272
99	0x3d0ad7e9	0.033897314
100	0xbd95e0a2	-0.07318236
101	0xbdb37d3b	-0.0876412
102	0x3dac084b	0.08400019
103	0x3c5051d9	0.0127148265
104	0x3d571cba	0.05251763
105	0xbdb11878	-0.08647245
106	0xbdbbf4b4	-0.09177533
107	0xbce0fa74	-0.027463175
108	0x3d31b506	0.043385528
109	0xbd51cba7	-0.05121961
110	0x3d8677f4	0.06565848
111	0xba9b0462	-0.0011826868
112	0x3c94bb97	0.018155856
113	0xbdb2a0fa	-0.0872211
114	0xbd5e865a	-0.054327346
115	0xbd2cfb24	-0.042231694
116	0x3df2e7f7	0.1186065
117	0x3de6d0dc	0.112703055
118	0xbb6e30ad	-0.003634493
119	0xbd108035	-0.035278518
120	0x3dbc9486	0.09208016
121	0xbd6ea46c	-0.058262274
122	0xba2c3f22	-0.0006570687
123	0x3d97c8eb	0.07411369
124	0x3caac7d5	0.02084724
125	0x3da1e72c	0.07905421
126	0x3d975f67	0.073912434
127	0x3d515ec2	0.05111576
128	0xbd76099d	-0.06006776
129	0xbd754163	-0.05987681
130	0xbc1dfc19	-0.009642624
131	0x3de61e70	0.11236274
132	0xbb9953ca	-0.004679178
133	0x3dd37768	0.10325509
134	0xbc5ab9df	-0.013349979
135	0x3d51a72a	0.05118481
136	0xbd065fb3	-0.03280611
137	0x3cef7171	0.029228898
138	0xbdff9c82	-0.12481023
139	0x3d4ede66	0.050505064
140	0x3d9449c8	0.07240635
141	0x3d0cd17e	0.034379475
142	0x3ccff92b	0.025387367
143	0xbc90dfc6	-0.017684828
144	0xbd13537f	-0.0359683
145	0xbc1bd631	-0.009511516
146	0x3d90d778	0.070723474
147	0x3d7c8e70	0.061659276
148	0x3d34765c	0.04405819
149	0xbd074ad0	-0.03303033
150	0x3ca19f4f	0.019729285
151	0xbc880923	-0.01660592
152	0xbd37b642	-0.04485155
153	0xbd14c909	-0.036324535
154	0xbd041097	-0.032242384
155	0xbc554139	-0.013016039
156	0x3d6cbe5d	0.057798732
157	0xbba92ad5	-0.0051625767
158	0x3cb98b6c	0.02264949
159	0x3d2235db	0.03960214
160	0x3d4c9528	0.049946934
161	0xbdc31209	-0.09524924
162	0x3df6a1a1	0.12042547
163	0xbd7f3ce2	-0.06231392
164	0x3c8bf80c	0.017086051
165	0x3ce48fc0	0.027900577
166	0x3c9dd8a3	0.01926834
167	0xbcabdd9d	-0.020979697
168	0x3dcbe7d8	0.0995633
169	0x3c63cb55	0.013903459
170	0xbe18fde9	-0.14940609
171	0x3da664b1	0.08124674
172	0xbd4d5811	-0.050132815
173	0xbe34d093	-0.1765769
174	0xbde70c43	-0.112816356
175	0xbe1cb09c	-0.15301746
176	0x3d3a2b34	0.045451358
177	0xba5636b8	-0.0008171606
178	0x3d7ef5e2	0.06224621
179	0xbcc7f155	-0.024407068
180	0x3d65e9ea	0.05613128
181	0xbcaad37a	-0.020852793
182	0xbcb49b3a	-0.022046674
183	0xbd46ec1c	-0.048565015
184	0xbd8f023c	-0.06982848
185	0x3e0abb6f	0.13548063
186	0x3d384afc	0.044993386
187	0xbce94cc8	-0.028478995
188	0x3db07771	0.08616532
189	0x3d9b21cb	0.07574805
190	0x3d2dd18c	0.042436168
191	0xbcfee908	-0.031116977
192	0xba71c823	-0.0009223243
193	0xbd82fb1b	-0.06395551
194	0xbc45741c	-0.012051608
195	0xbe0e64cd	-0.1390564
196	0xbdc51f7e	-0.09625147
197	0x3d491f6a	0.049102224
198	0x3c396ea0	0.011317879
199	0xbd624b25	-0.055247445
200	0x3db6e5ab	0.089305244
201	0x3d143fe5	0.036193747
202	0xbdf53acc	-0.11974105
203	0xbdb9e00d	-0.090759374
204	0x3cf2c0c8	0.02963294
205	0xbdad1bb5	-0.0845255
206	0xbc00da4d	-0.007864547
207	0x3d0789d3	0.033090424
208	0xba426a17	-0.00074163213
209	0x3d98f2db	0.07468196
210	0x3d69a356	0.057040535
211	0xbbd15ed3	-0.0063894778
212	0x3df490a8	0.119416535
213	0x3cb62ce2	0.022238199
214	0xbdb915af	-0.09037339
215	0x3c92b0af	0.017906515
216	0xbcb34bc1	-0.021886708
217	0xbd96b7b4	-0.07359257
218	0xbc858770	-0.016299933
219	0xbcdb85fb	-0.026797285
220	0x3ced8656	0.02899472
221	0xbd4a5be4	-0.04940404
222	0x3d638fa9	0.055556927
223	0xbb542d35	-0.0032375578
224	0x3d814278	0.06311506
225	0xbd1ec5d9	-0.0387629
226	0x3d503873	0.050835084
227	0x3d9236f5	0.071393885
228	0x3d128177	0.035768
229	0x3dab7bf9	0.08373255
230	0x3dab44c7	0.083627276
231	0xbd93cb3c	-0.07216498
232	0xbd61b74e	-0.055106454
233	0x3b35b6ca	0.002772736
234	0xbd8e1ef8	-0.069395006
235	0xba9dc100	-0.0012035668
236	0x3d14565e	0.03621518
237	0x3d106095	0.035248358
238	0x3d057880	0.03258562
239	0x3d408eeb	0.047011297
240	0xbd98bb55	-0.07457606
241	0x3dd17f77	0.1022939
242	0x3d8db0f6	0.06918518
243	0xbcad1d60	-0.021132171
244	0xbcd05f7d	-0.025436157
245	0x3db93d16	0.09044854
246	0xbdb4bc20	-0.088249445
247	0xbd7cb1ed	-0.06169312
248	0x3d80754d	0.06272373
249	0xbc25a1ed	-0.010109407
250	0xbcdc2d91	-0.026877197
251	0xbcdbb908	-0.026821628
252	0xbd16ae72	-0.036787458
253	0x3c9cf9a9	0.019162016
254	0xbcf03cf5	-0.029325942
255	0x3da84058	0.082153976

network_body._body_endoder.seq_layers.4.bias f4 [256]
0	0xbb1577aa	-0.002280692
1	0xbb42c65f	-0.002972029
2	0x3b44dce7	0.0030038895
3	0xbc0ee246	-0.00872094
4	0x3c5a2ab0	0.013315842
5	0x3ca3fe4c	0.02001872
6	0x3c5ac3cd	0.013352347
7	0x3c2e52e3	0.010639879
8	0x3b337984	0.0027385661
9	0x3c0ed660	0.008718103
10	0x3b3dd50e	0.0028966102
11	0xba2a0a76	-0.0006486544
12	0x3bbb8bf2	0.00572347
13	0xbb9b2aa8	-0.0047353096
14	0x3c27af90	0.010234728
15	0x3b96ec98	0.004605841
16	0x3c7dcb0e	0.015490307
17	0xb9e793a4	-0.00044169754
18	0x3c6b91ff	0.01437807
19	0x3c730771	0.014833317
20	0x3b302d7a	0.0026882575
21	0x3ca230ee	0.019798722
22	0xb9d48544	-0.00040535082
23	0xbac4a24d	-0.0015001983
24	0x3b2275fe	0.0024789567
25	0x3c8006b3	0.015628194
26	0x3c8e2ffa	0.017356861
27	0x3c1a2f93	0.009410757
28	0x3c257610	0.010098949
29	0x3c6e2745	0.01453573
30	0x3c2f26c1	0.010690392
31	0x3bc9a5a4	0.006153779
32	0x3b08f5bf	0.002089843
33	0x3c55df96	0.013053795
34	0x3c24d5a5	0.010060702
35	0x3c74b3e3	0.014935466
36	0x3c9762dd	0.018479759
37	0x3c2a5f3a	0.01039868
38	0x3a97de6d	0.0011586674
39	0x3c23cd35	0.009997656
40	0xb996c2dd	-0.00028755414
41	0x3ad30b51	0.0016101395
42	0x3c317b44	0.0108326115
43	0x3bc47406	0.0059952764
44	0xbb7a649a	-0.0038206936
45	0xbbe42df5	-0.0069634863
46	0x3b465037	0.0030260214
47	0xb83a1e6a	-4.437418e-05
48	0x3c21beb1	0.0098721245
49	0x3b6a97ab	0.0035795968
50	0xbbb094b0	-0.0053888187
51	0x3b1fc27d	0.0024377399
52	0x3b3591c4	0.0027705291
53	0xbb220fe0	-0.00247287
54	0x3b70441d	0.0036661692
55	0xbb2137a2	-0.002459981
56	0x3c364dad	0.011126918
57	0xbb14816d	-0.0022660152
58	0x3c94e9bc	0.01817786
59	0x3c4b7c34	0.012419749
60	0x3a87cafd	0.0010360178
61	0xb8080ba2	-3.243576e-05
62	0x3c92310e	0.017845657
63	0x3ca08521	0.01959473
64	0x3c65af65	0.014018868
65	0x3c8105f4	0.015749909
66	0x3c118d81	0.008883835
67	0x3c682eca	0.014171312
68	0x3c3fe55c	0.011712398
69	0xbb2eb808	-0.0026659984
70	0x3bb55403	0.0055336966
71	0x3c0a718a	0.008449921
72	0x3bc327be	0.0059556654
73	0x394ddd99	0.00019632875
74	0x3c6a6783	0.014306906
75	0x3bcd16b6	0.006258811
76	0x3a18a783	0.0005823301
77	0x3c0c92cb	0.00857992
78	0x3ca086f5	0.019595603
79	0x3ba43022	0.0050106207
80	0x3b4f6668	0.0031646732
81	0x3c31729e	0.0108305495
82	0x3c820451	0.015871199
83	0x3b178d2b	0.0023124914
84	0x3959f6ed	0.0002078672
85	0x3b82d252	0.0039923573
86	0x3c1d3fa7	0.009597695
87	0x3c0ecf88	0.0087164715
88	0x3b82a632	0.003987097
89	0x3ae27e1b	0.0017280014
90	0x3c27c5f1	0.010240064
91	0x3b7e306b	0.0038786184
92	0xba604d9c	-0.00085564866
93	0x3b6c8212	0.003608827
94	0x3b035296	0.0020038239
95	0x3c3d7059	0.01156243
96	0x3ba7294c	0.0051013585
97	0x3b67ec8a	0.003538879
98	0xbb443d87	-0.00299439
99	0x3bcb4124	0.0062028337
100	0x3ba28403	0.0049595847
101	0x3bc60ff5	0.0060443827
102	0x3c77b2aa	0.01511828
103	0x3b792bd0	0.00380205
104	0x3c56faa2	0.013121279
105	0x3bd2f3e9	0.0064377678
106	0x3ac06c8d	0.0014680788
107	0x3c37be58	0.011214815
108	0x3c6c3c4a	0.014418671
109	0x3bd9f4f1	0.0066515137
110	0x3c41b0b3	0.0118219135
111	0x3c04ac2f	0.008097692
112	0x3c7e36ac	0.0155159645
113	0x3be25d99	0.0069081304
114	0x3c6069b2	0.013697075
115	0x3bd518f4	0.006503219
116	0x3c643c32	0.013930367
117	0x39620f36	0.00021558706
118	0x3c5fdde0	0.013663739
119	0x39bd791c	0.00036139123
120	0xbaaaecca	-0.0013040539
121	0x3c3cd697	0.011525772
122	0x3c7dd3ce	0.015492393
123	0x3c658013	0.014007586
124	0x3c78bdf0	0.015182003
125	0x3c45bf88	0.01206959
126	0x3c8e06e6	0.017337274
127	0x3b572a60	0.0032831654
128	0x3c89acad	0.016805971
129	0x3c7e338b	0.0155152185
130	0x3c85ca91	0.016331943
131	0x3c2e9062	0.010654541
132	0x3c0015ba	0.00781768
133	0x3bd1608e	0.006389684
134	0x3b652dfe	0.003497004
135	0x3b25b4a2	0.0025284667
136	0x3a3b0826	0.0007134698
137	0x3c5149fe	0.012773989
138	0x3ab92664	0.0014125821
139	0xbb90d865	-0.0044203275
140	0x3bbf6bf5	0.005841727
141	0x3c8e3b5b	0.017362287
142	0x3c4d56ba	0.012532884
143	0x3caa17e4	0.020763345
144	0x3c628666	0.013825988
145	0x3b0e3fb5	0.0021705453
146	0x3caa2f3c	0.020774476
147	0x3b8369f6	0.0040104343
148	0x3c8070c0	0.015678763
149	0x3c18c4ce	0.009324266
150	0x3c5e0be7	0.013552642
151	0xbb8cf614	-0.0043017957
152	0x3be617ec	0.0070218947
153	0x3bd834fe	0.006598114
154	0x3c3b478f	0.011430635
155	0xba73e2f8	-0.00093035353
156	0x39aac9c7	0.00032575263
157	0x3c7d98e9	0.015478351
158	0x3871c16d	5.763902e-05
159	0x3b01264c	0.0019706665
160	0x3be8cc75	0.0071044513
161	0x3c30629c	0.010765698
162	0x3c78a5d1	0.015176252
163	0xbab7df41	-0.0014028327
164	0xbab4c77f	-0.0013792365
165	0x3c8041b8	0.015656337
166	0x3c57c271	0.013168917
167	0x3c1de197	0.009636304
168	0x3c5b1a97	0.013373039
169	0xbb250e10	-0.0025185384
170	0x3c0620af	0.008186503
171	0x3bc53865	0.0060186856
172	0x3cbba69e	0.022906598
173	0x3bd77f97	0.006576489
174	0xbbbcf271	-0.005766206
175	0x3b635f2c	0.0034694178
176	0x3b63ed40	0.0034778863
177	0xba77db39	-0.0009454969
178	0x3bd47e72	0.0064848
179	0x3c2c4682	0.010514857
180	0x3a95b5e2	0.0011422003
181	0x3c596d56	0.013270697
182	0x3c239450	0.009984091
183	0x3c8cb089	0.017174022
184	0xbafee97f	-0.0019448249
185	0x3c437a7d	0.011931059
186	0x3bc09617	0.005877267
187	0x3c6582f9	0.014008277
188	0x3b8053a8	0.0039162226
189	0x3b496441	0.0030729922
190	0x39911396	0.00027671148
191	0x3c9d870f	0.01922944
192	0x3c4221ce	0.01184888
193	0x3a487526	0.0007646851
194	0x3bc724cf	0.006077386
195	0xbb6e10ad	-0.0036325858
196	0x3c608a0f	0.013704791
197	0x3bf4a05c	0.0074654054
198	0x3c400124	0.011719022
199	0xbba38553	-0.0049902587
200	0x3c258469	0.01010237
201	0x3ac02f5b	0.001466255
202	0xbaf0b928	-0.0018365728
203	0x37b9cd79	2.21494e-05
204	0x3b5dc02f	0.0033836474
205	0x3b191418	0.0023357924
206	0x3a5ffe43	0.0008544663
207	0x3a7f6e37	0.00097439013
208	0x3bd9dd90	0.0066487268
209	0x3c4bf677	0.0124488985
210	0x397432ac	0.0002328853
211	0x3b613a14	0.0034366893
212	0x3c210e52	0.009830074
213	0xba736d61	-0.0009286013
214	0x3c3e9dbe	0.011634288
215	0x3c2ab5a9	0.010419288
216	0x3c2ca909	0.010538348
217	0x3b459b29	0.0030152297
218	0x3c49cc12	0.012316721
219	0x3bd8f3d2	0.0066208625
220	0xbae3de3e	-0.0017384959
221	0x3bdf4964	0.0068141688
222	0xbbadc50b	-0.0053030304
223	0x3bfeef03	0.0077799573
224	0x3bde3fc4	0.006782504
225	0xbbc77a27	-0.0060875597
226	0x3c0d6de6	0.008632159
227	0x3984e6e9	0.00025349043
228	0xb982902c	-0.0002490295
229	0x3c1d4f00	0.009601355
230	0x3b5f8c45	0.0034110707
231	0x3c09cd54	0.00841077
232	0x3c8373bc	0.016046397
233	0x3c0d3582	0.008618714
234	0x3b12ed41	0.0022419246
235	0x3c147eec	0.009063464
236	0x3b2d7cbc	0.0026472053
237	0x3c61fbcf	0.013792946
238	0x3c8450e7	0.016151858
239	0x3c73a3bc	0.01487058
240	0x3b8d1c3c	0.0043063443
241	0x3c2d1d7f	0.010566114
242	0x3c8977f9	0.01678084
243	0x3c604a5e	0.0136896055
244	0x3c0b082e	0.008485837
245	0x3bf24516	0.0073934896
246	0x3b89ff51	0.0042113443
247	0x3c0560ed	0.008140785
248	0x3bc2de25	0.005946892
249	0x3bf6a9e5	0.007527577
250	0x3c8c1798	0.017101094
251	0xb88a88bc	-6.6058215e-05
252	0xbb142ea8	-0.0022610817
253	0x3c3a600b	0.0113754375
254	0xbc0f6358	-0.008751713
255	0x3c603b30	0.013685986
