Assets/Training/results/parkolas2/parking/parking-6999984.onnx (onnx, 608683 bytes, 13 tensors)

65 f4 [68]
0	0x3ef3cbec	0.47616518
1	0x3efe9842	0.49725538
2	0x3ecea8a8	0.4036305
3	0x3e607cf2	0.21922663
4	0x3ed71874	0.42010844
5	0x3eff1bc0	0.4982586
6	0x3eed681a	0.46368486
7	0x3e6a4a60	0.22879934
8	0x3eab97ec	0.33514345
9	0x3eff3cd0	0.49851084
10	0x3ef1385b	0.47113308
11	0x3e7a02e6	0.24415168
12	0x3efcad50	0.49350977
13	0x3ef2c17b	0.4741324
14	0x3eda5c88	0.4264872
15	0x3ea754ef	0.32681987
16	0x3ee14a0a	0.440018
17	0x3ee6c99e	0.45075697
18	0x3e12d3cf	0.14338611
19	0x3e96019f	0.29298112
20	0x3efe21fd	0.49635306
21	0x3ee6f9f6	0.4511258
22	0x3eb9730c	0.36220586
23	0x3ec5d3b8	0.3863809
24	0x3ec9fb56	0.39449567
25	0x3ef60658	0.48051715
26	0x3ebfcf9b	0.37463078
27	0x3e99bb13	0.3002554
28	0x3effef41	0.49987224
29	0x3efe951a	0.4972313
30	0x3e4a4f4f	0.19756816
31	0x3eb61532	0.35563046
32	0x3efffef6	0.49999207
33	0x3effd384	0.4996606
34	0x3e0c209d	0.13684316
35	0x3e98f3d1	0.29873517
36	0x3ee4a89d	0.44659892
37	0x3ef2df73	0.47436103
38	0x3e7e4423	0.2483068
39	0x3e9fa2e7	0.31178972
40	0x3ef7d49f	0.48404405
41	0x3efd7e39	0.49510363
42	0x3e667d1b	0.22508661
43	0x3eb061f4	0.34449732
44	0x3eec4ab1	0.46150735
45	0x3effd8a7	0.4996998
46	0x3e9bd2a0	0.30434132
47	0x3e93a977	0.2884023
48	0x3effd59b	0.49967656
49	0x3eeea442	0.46609694
50	0x3e1fd270	0.1560762
51	0x3e821333	0.25405273
52	0x3ed3f8e6	0.41400832
53	0x3efca739	0.4934633
54	0x3d62b03c	0.05534385
55	0x3e5479ce	0.2074959
56	0x3e5e3f79	0.217039
57	0x3eff98f0	0.4992137
58	0x3ca26365	0.019822786
59	0x3e29ea1f	0.16593216
60	0x3eab7220	0.33485508
61	0x3efd7a3c	0.4950732
62	0x3c95c848	0.018283978
63	0x3e2e3682	0.1701298
64	0x3eab721f	0.33485505
65	0x3efd7a3b	0.49507317
66	0x3c95c84a	0.018283982
67	0x3e2e3682	0.1701298

68 f4 [6]
0	0x3fc6957b	1.5514368
1	0x408cdd5c	4.4020214
2	0x3b88fb68	0.0041803606
3	0x3b2f263b	0.0026725668
4	0x4078aa35	3.8853886
5	0x4287b062	67.8445

action_model._continuous_distribution.log_sigma f4 [1, 2]
0	0xbe946367	-0.28982088
1	0xbea7d726	-0.32781333

action_model._continuous_distribution.mu.bias f4 [2]
0	0xbb9a7e63	-0.0047147735
1	0x3c6703d8	0.0141000375

action_model._continuous_distribution.mu.weight f4 [2, 256]
0	0x3cf5596e	0.02994987
1	0x3cc0215a	0.023453403
2	0xbc416546	-0.011803931
3	0xbc89141a	-0.016733218
4	0xbd28408c	-0.04107718
5	0xbc9d1f9a	-0.019180108
6	0x3c224309	0.009903678
7	0x3d00654a	0.031346597
8	0x3d164fca	0.036697187
9	0xbd2dcb69	-0.042430315
10	0xbbd5c5c7	-0.006523821
11	0xbd62302a	-0.055221714
12	0xbd1fa7e4	-0.038978472
13	0xbd06f56a	-0.03294889
14	0xbcc4212e	-0.023941603
15	0x3ad35204	0.0016122465
16	0x3ce53227	0.027978016
17	0xbce4c944	-0.027928002
18	0x3d2c7685	0.042105217
19	0x3c222800	0.009897232
20	0x3ab81639	0.0014044709
21	0x3c20017d	0.00976598
22	0x3c93ac47	0.018026484
23	0xbd2ff2f4	-0.042956308
24	0x3ba74c06	0.0051054982
25	0xbc6b874c	-0.014375519
26	0x3d0222e1	0.031771544
27	0x3a90c6b2	0.0011045544
28	0x3d35fa59	0.044428203
29	0xbd079b5f	-0.033107158
30	0x3bbbeedd	0.005735262
31	0x3d0f4d0c	0.034985587
32	0x3d1ae879	0.03781936
33	0xbd178c4c	-0.036999032
34	0x3d880c97	0.06643026
35	0xbcef02d2	-0.02917615
36	0xbd2d507c	-0.042313084
37	0x3b9b7d41	0.004745156
38	0x3c5348e5	0.012895797
39	0xbd119b46	-0.03554847
40	0x3d2ee118	0.042695135
41	0x3b4f4755	0.003162821
42	0x3d7843d4	0.06061156
43	0x3c0b89f7	0.00851678
44	0xbbd76410	-0.0065732077
45	0xbd06c56c	-0.03290312
46	0xbd182977	-0.03714892
47	0xbcf1597d	-0.029461617
48	0x3d1c26b0	0.038122833
49	0x3d820308	0.063482344
50	0x3d6642a2	0.05621589
51	0xbd28de15	-0.04122742
52	0x3bd336b7	0.0064457315
53	0xbce46d81	-0.027884247
54	0xbce92a82	-0.028462652
55	0xbcb79f4e	-0.02241483
56	0xbd05f9b6	-0.032708846
57	0x3d0a650a	0.033787765
58	0xbb4758a2	-0.003041782
59	0xbc8b0106	-0.016968261
60	0xbd119ff8	-0.03555295
61	0xbd0738db	-0.033013206
62	0x3ce2c4e0	0.027681768
63	0x3cb22076	0.021743994
64	0xbd27ad4d	-0.040936757
65	0xbced9124	-0.028999873
66	0xbd2675e5	-0.040639777
67	0x3d7340e3	0.059388053
68	0xbcb174c6	-0.021662127
69	0xbd2c936a	-0.042132773
70	0xbc9160a8	-0.017746285
71	0xbcc72d4d	-0.024313593
72	0x3cdab59f	0.026697932
73	0x3d114284	0.035463825
74	0x3cac80a7	0.02105744
75	0xbc623064	-0.013805483
76	0x3d6a4ab5	0.057200152
77	0xbc3bd46a	-0.011464218
78	0x3d77daa1	0.060511235
79	0xbcf2caab	-0.029637655
80	0xbc5c59d1	-0.013449148
81	0xbc256ca8	-0.010096706
82	0x3ccdee5a	0.025138069
83	0x3d1cc227	0.038271096
84	0xbc76c256	-0.015060982
85	0x3d90cdd7	0.07070511
86	0xbced6991	-0.028981002
87	0xbd37a49e	-0.044834726
88	0xbd3fc0c6	-0.046814702
89	0x3d437c42	0.047725923
90	0x3d0de2fd	0.0346403
91	0xbd21ad74	-0.03947206
92	0x3d180c4d	0.037121106
93	0x3d4541e8	0.048158556
94	0xbae29d17	-0.0017289248
95	0xbd1af427	-0.037830498
96	0x3d6eaad7	0.058268394
97	0x3d021af1	0.031763975
98	0x3d393322	0.04521478
99	0x3ccb99cf	0.024853615
100	0x3cf6ab7f	0.030111073
101	0x3a07958f	0.0005172127
102	0xbd17e0f2	-0.03707976
103	0xbd0e0682	-0.034674175
104	0x3d046dde	0.03233134
105	0xbd4b8dda	-0.049695827
106	0xbcc5a22c	-0.024125181
107	0x3c452c76	0.012034526
108	0xbd1eccef	-0.03876966
109	0xbcd8653b	-0.026415458
110	0xbc0ca29e	-0.008583693
111	0xbc860758	-0.016360924
112	0x3d3b48b9	0.04572365
113	0xbd43c3a0	-0.047793984
114	0x3d6a8eb6	0.057265006
115	0x3d9ce73b	0.07661291
116	0x3d173faa	0.03692595
117	0x3d32f02a	0.04368607
118	0xbcdd65b7	-0.02702604
119	0x3d520f9b	0.051284414
120	0x3b9350ea	0.0044957297
121	0xbcfdd970	-0.030987471
122	0xbceaa68a	-0.028643865
123	0x3cf3afb6	0.029746871
124	0xbcccf6ad	-0.025019968
125	0xbcb0253a	-0.021502126
126	0x3d04f3cf	0.032459076
127	0xbd380327	-0.04492488
128	0xbceaa532	-0.028643224
129	0x3cde2b8d	0.027120376
130	0xbd1763e4	-0.036960497
131	0xbd03c563	-0.032170665
132	0x3a8b1c81	0.0010613353
133	0xbd550391	-0.052005354
134	0x3cba2d76	0.022726756
135	0xbcafa5d4	-0.021441378
136	0x3d3c33c6	0.045947812
137	0xbc53328f	-0.012890472
138	0x3cc91e71	0.024550648
139	0xbd023686	-0.03179028
140	0xbd4c58b0	-0.049889266
141	0xbcb809b4	-0.022465564
142	0xbccd0d5f	-0.02503079
143	0x3cd49867	0.025951577
144	0x3d3a0f43	0.04542471
145	0x3c4118b7	0.011785678
146	0x3c9f1123	0.019417351
147	0x3d40d9d1	0.047082726
148	0xbd0af19f	-0.033921834
149	0x3d273f61	0.040831927
150	0x3ce73030	0.02822122
151	0x3ce9153f	0.028452514
152	0x3caccef4	0.021094777
153	0x3d2e5d64	0.042569533
154	0x3ca3a329	0.019975262
155	0x3c99ad9a	0.018759537
156	0xbcee1ae5	-0.029065559
157	0xbd03c61c	-0.032171354
158	0x3ae8dd7e	0.0017766205
159	0xbc86ffaa	-0.016479332
160	0x3cbfc991	0.023411544
161	0x3d4933e0	0.049121737
162	0x3d10a763	0.035315882
163	0xbc4f1301	-0.012638808
164	0xbd2c1382	-0.04201079
165	0xbcedeaa4	-0.02904255
166	0x3d21315d	0.039353717
167	0x3d630a3c	0.055429682
168	0x3cb6e4c9	0.02232589
169	0xbd04c88a	-0.03241781
170	0xbcee0e4a	-0.029059548
171	0x3d3ab4b1	0.045582477
172	0x3ce34123	0.02774102
173	0x3b4a2068	0.003084207
174	0x3d141462	0.03615225
175	0x3d1dea84	0.03855373
176	0x3c5cb39a	0.013470555
177	0xbd1337c2	-0.035941847
178	0xbca285f9	-0.019839274
179	0xbd04661d	-0.032323945
180	0x3c5a058d	0.0133069875
181	0x3d9fb3c2	0.07797958
182	0x3d6e86be	0.05823397
183	0xbd3dd045	-0.0463412
184	0x3d4b8c90	0.049694598
185	0xbcfb6aeb	-0.03069063
186	0xbd293f6a	-0.041320242
187	0x3bbff79a	0.005858374
188	0x3c336838	0.010950141
189	0xbcea4b2a	-0.028600294
190	0xbd1a32f2	-0.03764624
191	0x3d381884	0.044945255
192	0xbc75a831	-0.014993713
193	0x3ca3fb0e	0.020017173
194	0x3c15a97f	0.009134649
195	0xbc90bb87	-0.017667545
196	0xbcdd2ea8	-0.026999786
197	0xbcc2ec69	-0.02379437
198	0xbb4619a1	-0.0030227678
199	0xbc48ea73	-0.012262928
200	0xbd12913a	-0.03578303
201	0x3d3ac33f	0.045596357
202	0xbc890fba	-0.016731132
203	0xbcc864b7	-0.024462087
204	0xbc7cd553	-0.01543172
205	0x3d73f633	0.059560966
206	0x3d2b90ca	0.04188613
207	0xbc9cb101	-0.01912737
208	0x3b05e76b	0.0020432125
209	0xbd135b8f	-0.03597599
210	0xbd289032	-0.04115314
211	0x3d368f53	0.04457028
212	0xba9a860b	-0.0011789215
213	0xbb88c948	-0.004174385
214	0xbc787666	-0.015164947
215	0x3d6ed978	0.058312863
216	0x3c4f7f82	0.012664678
217	0x39a69c86	0.00031778606
218	0x3d46f80f	0.04857641
219	0xbbfced2c	-0.007718703
220	0x3d27e548	0.040990144
221	0x3c28c842	0.010301651
222	0xbd5652b1	-0.052324954
223	0x3d12586f	0.035728868
224	0xbd1a0a96	-0.03760775
225	0xbd3b89a6	-0.04578557
226	0x3d5358c0	0.05159831
227	0xbce49b8b	-0.0279062
228	0xbcb6223d	-0.022233123
229	0xbcce3826	-0.025173258
230	0x3c7a10ff	0.015262841
231	0x3cb0ee62	0.021598045
232	0x3d47fd0f	0.04882532
233	0xbca58c7d	-0.020208592
234	0xbc527520	-0.012845308
235	0x3d02109a	0.031754114
236	0x3ba37935	0.0049888142
237	0xbc87fafa	-0.016599167
238	0xbd0da0b3	-0.034577083
239	0x3c938f38	0.018012628
240	0xbcfca3c0	-0.0308398
241	0x3d97da1d	0.07414649
242	0xb9263ba8	-0.00015853217
243	0x3b9c640d	0.004772669
244	0xbc6efaca	-0.01458616
245	0xbd07b3e4	-0.03313054
246	0xbcde2b4e	-0.027120259
247	0x3d6d64b0	0.05795735
248	0x3db0bf85	0.086302795
249	0x3d69289e	0.0569235
250	0xbc49c0a7	-0.012313998
251	0xbd12035a	-0.035647728
252	0x3d3fb501	0.04680348
253	0xbd527542	-0.051381357
254	0x3d5850bd	0.052811373
255	0xbcf0bcda	-0.029386926

network_body._body_endoder.seq_layers.0.bias f4 [256]
0	0x3bff48e1	0.0077906703
1	0xba008203	-0.0004902186
2	0x3c86d21b	0.016457608
3	0x3983d805	0.00025147214
4	0x3c643042	0.013927521
5	0x3c9df7f4	0.019283272
6	0xbbbca798	-0.0057572834
7	0x3c8f1ca7	0.017469717
8	0xbb6939cd	-0.003558743
9	0x3cd0340b	0.025415441
10	0x3b1f0e00	0.002426982
11	0xb78ca940	-1.6768114e-05
12	0x3c54b0b5	0.012981583
13	0xba2dab2d	-0.00066249334
14	0x3bf6a2b7	0.0075267213
15	0x3c2de48e	0.010613574
16	0x3cce2bbe	0.025167342
17	0x3c11fdaa	0.008910576
18	0x3be4acb0	0.0069785938
19	0x3cc5557a	0.02408861
20	0x3c755cf5	0.014975776
21	0x3c0f8b8e	0.0087613
22	0x3c581e75	0.013190855
23	0x3ca29c4d	0.01984992
24	0x3c474f09	0.01216484
25	0x3ae1bf87	0.0017223217
26	0xbb48acdc	-0.003062061
27	0x3bfbb814	0.007681856
28	0x3b07facf	0.0020748859
29	0x3c93042f	0.01794633
30	0x3c83bc85	0.016081104
31	0x3c9e67b6	0.019336563
32	0x3ceec26f	0.029145448
33	0x3cd49da7	0.02595408
34	0xbacbb811	-0.0015542527
35	0x3cc3f3b6	0.023919921
36	0x3c3bba56	0.011458
37	0x3c3303f3	0.010926235
38	0x3cb2f2cb	0.021844288
39	0x3c6b960d	0.014379037
40	0xbb1ad499	-0.0023625253
41	0x3c5acbcf	0.013354256
42	0xbbccf5eb	-0.0062549016
43	0x3c9a5496	0.018839162
44	0x3cb4ff10	0.02209428
45	0x3c8daff7	0.01729582
46	0x3a9465fd	0.0011321899
47	0xbb2e7add	-0.0026623525
48	0x3cc37eb3	0.023864126
49	0x3c856b11	0.016286405
50	0x3c63b5df	0.013898342
51	0x3cc10de7	0.0235662
52	0x3c8f669e	0.017504986
53	0x3847bd45	4.762157e-05
54	0x3c313d1b	0.010817791
55	0x3bc96619	0.006146204
56	0x3bfe8a68	0.007767964
57	0x3bc8adef	0.00612425
58	0x3c0e9382	0.008702161
59	0x3c87f203	0.016594892
60	0x3aeff35c	0.001830678
61	0x3cff1384	0.031137235
62	0x3c98e054	0.018661655
63	0x3c237202	0.009975912
64	0x3b20f12a	0.0024557807
65	0x3cb79a55	0.022412458
66	0x3c28461c	0.010270622
67	0xbb20dff0	-0.002454754
68	0x3cfbd950	0.030743271
69	0xbb68ca24	-0.0035520876
70	0x3c8e542b	0.017374119
71	0x3cb41772	0.021983836
72	0x3cd68e74	0.026190974
73	0x3d054695	0.032538015
74	0x3c851dfa	0.016249646
75	0x3c9d6788	0.019214407
76	0x3cbacce6	0.022802781
77	0x3cc44c6e	0.023962226
78	0xbc9b2a16	-0.018940967
79	0x3c4eec17	0.01262953
80	0x3b8ea0db	0.0043526716
81	0x3b93742f	0.004499934
82	0x3c9fae58	0.019492313
83	0x3c9627aa	0.01832946
84	0x3b7356b3	0.0037130534
85	0x3cb5c82c	0.022190176
86	0x3b8a0393	0.004211852
87	0x3cb40a0b	0.021977445
88	0x39cfe17f	0.00039650124
89	0x3ac557bd	0.0015056055
90	0x399db561	0.0003008051
91	0x3c848168	0.016174987
92	0x3c8689e2	0.01642317
93	0xbc84337c	-0.01613783
94	0x3ce217ce	0.027599242
95	0xba602aeb	-0.0008551317
96	0x3cc277c5	0.023738751
97	0x3c9dd8c0	0.019268394
98	0x3b1d7315	0.0024024893
99	0x3cc84554	0.02444712
100	0x3c7aa8a8	0.015299
101	0x3c2fec6c	0.01073752
102	0x3b2eb41f	0.0026657654
103	0x3cb7593c	0.022381417
104	0x3c925f34	0.017867662
105	0xbbf3b0c5	-0.007436844
106	0x3c98e346	0.01866306
107	0x3c31f963	0.010862681
108	0x3c7ca3af	0.015419885
109	0x398176a2	0.00024693186
110	0x3cb544f4	0.022127606
111	0x3d0fb783	0.03508712
112	0x3c3d6ce2	0.011561604
113	0x3a298593	0.00064667425
114	0x3c98e01e	0.018661555
115	0x3c4eb435	0.012616207
116	0x3cdcab43	0.026937133
117	0x3b6d593f	0.0036216525
118	0xbc8c21ad	-0.017105902
119	0x3b0419c4	0.002015696
120	0x3cc96a01	0.02458668
121	0xbbc75968	-0.006083656
122	0xbba14cd2	-0.004922488
123	0x3c76520c	0.01503421
124	0x3c2addab	0.010428826
125	0x3cbc7360	0.023004234
126	0x3bb24cf4	0.0054413024
127	0xbb84add4	-0.0040490422
128	0xbbed3fd5	-0.0072402754
129	0x3cea12ff	0.028573511
130	0x3c0427f8	0.00806617
131	0x3a5f83a6	0.0008526392
132	0x3c93e8c5	0.01805533
133	0x3c80436f	0.015657155
134	0x3c4f393c	0.012647923
135	0x3ccab3cb	0.024743935
136	0xbb863c3b	-0.0040965355
137	0x3c36a580	0.011147857
138	0x3ceb5a98	0.028729722
139	0x3ccc6d6b	0.024954518
140	0xbc0dc328	-0.008652486
141	0x3a4f6ec4	0.00079129287
142	0xbbf79eba	-0.0075567635
143	0xbc75714f	-0.014980628
144	0x3ca9bfbd	0.02072131
145	0x3c77a9ff	0.015116214
146	0x3c4a0cb0	0.0123321265
147	0x3c390237	0.011292032
148	0x3b85ec81	0.0040870314
149	0x3cce1831	0.02515802
150	0x3aa98d5d	0.0012935806
151	0x3c0af86e	0.008482082
152	0x3cbd8472	0.023134444
153	0x3c46a5f2	0.012124525
154	0x3cc14e06	0.023596775
155	0x3bbe02e1	0.005798683
156	0xbb9176ba	-0.004439202
157	0x3b497f5e	0.0030746083
158	0x3ad3a006	0.0016145713
159	0x3c0d1e27	0.008613146
160	0x3c85b4af	0.016321508
161	0x3caef97c	0.021359198
162	0x3c8daeb3	0.017295217
163	0x3cbb0e99	0.02283411
164	0x3d01b5a2	0.03166736
165	0x3c9338b2	0.01797137
166	0x3c46bdf9	0.012130254
167	0x3bf01db7	0.007327761
168	0x3c95afcf	0.018272309
169	0xbba8981e	-0.005145087
170	0x3c66d98d	0.014089954
171	0x3c218c77	0.00986015
172	0x3c3bad95	0.011454959
173	0x3c869971	0.016430588
174	0x3c90ddbe	0.01768386
175	0x3d015a92	0.031580515
176	0x3c27e41a	0.010247255
177	0x3d056261	0.032564525
178	0x3bf44742	0.0074547837
179	0x3c8dd203	0.017312055
180	0xbb4bf7fe	-0.0031123157
181	0xbb2a4223	-0.0025979362
182	0x3c7cd1df	0.015430897
183	0x3c82be87	0.015959991
184	0x3bbeb774	0.005820209
185	0x3b8f1f6f	0.004367761
186	0x3bbde485	0.005795064
187	0x3ccb9324	0.024850436
188	0x3c187c5c	0.009306993
189	0xbb14b474	-0.0022690566
190	0x3bd33383	0.0064453497
191	0x3c732e34	0.014842559
192	0x3ca56110	0.020187885
193	0x3ba870f5	0.0051404187
194	0x3c439e9f	0.011939674
195	0x3c8cc7b4	0.01718507
196	0x3c75cade	0.015001981
197	0x3b539c8a	0.003228935
198	0xbaef1ef9	-0.0018243484
199	0xbbbe0a7e	-0.0057995906
200	0x3ba4242c	0.005009195
201	0xbc33bf49	-0.010970899
202	0x3ca9bced	0.02071997
203	0xbb9595e7	-0.004564989
204	0xbc19e68d	-0.0093933465
205	0xbbb434b7	-0.005499448
206	0xb998e0ed	-0.00029159282
207	0x3c52ac77	0.012858502
208	0x3c61f6f3	0.013791787
209	0x3cb2b0a2	0.02181274
210	0x3cb23593	0.021754062
211	0x3c18cce6	0.009326195
212	0x3c68fc32	0.014220284
213	0x3c6b7f99	0.014373683
214	0xbca7803c	-0.02044689
215	0xbb494276	-0.003070978
216	0x3bd76060	0.006572768
217	0x3bc061bd	0.0058710263
218	0x3c3491b5	0.011021067
219	0x3ba6618f	0.005077548
220	0x3d14087d	0.036140908
221	0x3bd2abe0	0.0064291805
222	0x3c9094f4	0.017649151
223	0xba97669a	-0.0011550963
224	0x3c36cb57	0.011156878
225	0x3c07069a	0.00824132
226	0x3bbd5f86	0.0057792095
227	0x3c20fe00	0.009826183
228	0x3c2261e7	0.009911037
229	0x3af2f1f2	0.001853524
230	0x3c87c16a	0.01657172
231	0x3c8a9e68	0.016921237
232	0xbb725529	-0.003697703
233	0x3d023725	0.03179087
234	0x3b577f76	0.003288237
235	0x3cf4350a	0.029810447
236	0x3c57157a	0.013127679
237	0xbc60fed1	-0.013732628
238	0x3bea5d4c	0.007152235
239	0x3cab24e2	0.02089161
240	0x3c16c37e	0.009201882
241	0x3cb84b92	0.022496972
242	0xbc574ea4	-0.013141308
243	0x3ca675fc	0.020319931
244	0x3c648f19	0.013950133
245	0xbc81bca3	-0.01583702
246	0x3ca8cc53	0.020605242
247	0xba03c15e	-0.00050260674
248	0x3c774305	0.015091662
249	0xbc70f727	-0.014707363
250	0x3bf3c2f1	0.0074390103
251	0x3c2290b8	0.009922199
252	0x3c813aaf	0.015775053
253	0x3a896d4e	0.0010484846
254	0x3ccf00ef	0.025269
255	0x3c3c7186	0.0115016755

network_body._body_endoder.seq_layers.0.weight f4 [256, 74]
0	0xbe5de689	-0.21669973
1	0xbdaea4ba	-0.08527513
2	0xbe14ecb6	-0.14543423
3	0xbdbd59d7	-0.09245651
4	0xbe8c7310	-0.27431536
5	0x3df60f7c	0.12014672
6	0x3dc69f55	0.09698359
7	0x3c50131c	0.0126998685
8	0x3e737658	0.23775613
9	0xbd98d496	-0.074624225
10	0x3c571e40	0.013129771
11	0xbe0e5e1a	-0.13903084
12	0xbc87121c	-0.016488127
13	0x3e5fd7ac	0.21859616
14	0x3d79e5d9	0.061010215
15	0xbe6a69d5	-0.22891934
16	0x3c0b5c03	0.008505824
17	0xbd9d6b0c	-0.07686433
18	0x3dacbd45	0.08434538
19	0x3e74cab3	0.23905449
20	0xbd18ad77	-0.037274804
21	0xbdea60dc	-0.11444256
22	0x3df363de	0.118842825
23	0x3d0dd48a	0.03462652
24	0x3e441ff7	0.19152819
25	0x3e93075f	0.2871656
26	0xbd34e992	-0.044168063
27	0x3e875402	0.2643128
28	0x3d0042ee	0.03131383
29	0xbcbfca15	-0.02341179
30	0x3d31da73	0.04342122
31	0xbe14d1cd	-0.14533158
32	0x3ddea5a1	0.10871435
33	0xbd95e2db	-0.0731866
34	0x3dd88807	0.1057282
35	0xbcfe8e40	-0.03107369
36	0xbd06af59	-0.03288207
37	0xbe408eb8	-0.18804443
38	0xbde85e95	-0.11346165
39	0x3e1dc06c	0.15405434
40	0x3c50642c	0.012719195
41	0xbcbba129	-0.022903996
42	0x3e0658e9	0.13119854
43	0x3d8db854	0.069199234
44	0x3d932aec	0.07185921
45	0xbc88e878	-0.016712412
46	0xbde1792c	-0.1100944
47	0xbdea1067	-0.1142891
48	0x3cdad5c9	0.026713269
49	0xbd9ecfe6	-0.07754497
50	0xbdee14bc	-0.116250485
51	0x3da2536b	0.07926067
52	0x3df62f51	0.12020744
53	0xbe01c489	-0.12672628
54	0xbcd83f38	-0.026397333
55	0xbe34d2c1	-0.17658521
56	0x3da5da09	0.080982275
57	0x3e696abd	0.22794624
58	0x3d85866c	0.065197796
59	0xbc9ee133	-0.019394493
60	0xbdf85883	-0.12126257
61	0x3d6504ba	0.05591271
62	0x3e0dd1bc	0.13849539
63	0xbdba40db	-0.090944014
64	0x3dfa9623	0.122356676
65	0xbd408c11	-0.047008578
66	0x3da465c2	0.08027221
67	0xbd36e009	-0.04464725
68	0xbd3767c2	-0.044776686
69	0x3d2d80cd	0.042359162
70	0xbe969420	-0.29409885
71	0xbd897764	-0.06712225
72	0x3d9b467f	0.075818054
73	0x3e1b60c4	0.15173632
74	0x39808bb5	0.00024518152
75	0xbe48cf96	-0.19610438
76	0xbce75188	-0.02823712
77	0xbc9d1c39	-0.019178497
78	0xbd57b7ba	-0.05266545
79	0x3df4d87b	0.11955353
80	0xbd3ecfa5	-0.046584744
81	0xbd4f969e	-0.05068075
82	0x3d5e8b1a	0.054331876
83	0xbddda40f	-0.10822307
84	0xbdb05693	-0.08610263
85	0xbd850e73	-0.064968966
86	0x3e92b003	0.2864991
87	0xbe41c5aa	-0.18923059
88	0x3d1ad01e	0.037796132
89	0x3dcf7a69	0.1013077
90	0x3d9ac961	0.07557941
91	0xbdc92453	-0.098213814
92	0xbe9fed8e	-0.31235927
93	0xbe038ea6	-0.12847385
94	0x3d996f7c	0.07491967
95	0x3d687cc7	0.056759622
96	0xbd259a4d	-0.040430356
97	0x3d22ffc7	0.03979471
98	0xbe26a60b	-0.16274278
99	0xbdc8574e	-0.09782277
100	0x3da0003a	0.07812543
101	0xbd80a0a0	-0.06280637
102	0x3c8d17e9	0.017223315
103	0xbc94e32e	-0.018174734
104	0x3e426301	0.1898308
105	0xbe8eb3d7	-0.27871582
106	0x3b644bec	0.0034835292
107	0xbd055239	-0.032549117
108	0x3df3384d	0.11875973
109	0x3df5c5a2	0.12000586
110	0xbe03ef15	-0.12884171
111	0x3d203381	0.039111618
112	0x3df56328	0.11981803
113	0x3e8b97f7	0.27264377
114	0xbdef8d1d	-0.11696837
115	0xbd02b4c8	-0.031910688
116	0xbcf275ae	-0.02959713
117	0xbd59c0d0	-0.053162396
118	0x3c36fa35	0.011168052
119	0x3da9bacc	0.08287582
120	0x3dc1c323	0.094610475
121	0xbdf4a05d	-0.11944649
122	0xbe01bbcf	-0.126693
123	0xbe5a1fe2	-0.21301225
124	0xbcfde82e	-0.030994501
125	0xbd7ceb79	-0.061748
126	0x3df5c098	0.11999625
127	0xbd06b682	-0.032888897
128	0x3d1b69ea	0.037942804
129	0xbe23ca40	-0.15995121
130	0xbdf65568	-0.12028009
131	0x3de53dd3	0.11193433
132	0x3e34fe61	0.17675163
133	0x3cb336bd	0.021876687
134	0x3c4747de	0.012163131
135	0xbd32185a	-0.043480255
136	0x3d931074	0.071808726
137	0x3e978f09	0.29601315
138	0x3e4bb38b	0.19892709
139	0xbae9fabe	-0.0017851216
140	0x3c93d85b	0.018047502
141	0xbda4a464	-0.080391675
142	0x3c1593ee	0.0091295075
143	0xbe4c8d1a	-0.19975701
144	0x3e298bea	0.16557279
145	0xbcb11be2	-0.02161974
146	0x3db76b28	0.08955985
147	0xbd75cf35	-0.06001206
148	0xbd48db74	-0.04903741
149	0x3d27a083	0.04092456
150	0x3d02a6f8	0.031897515
151	0x3c11e941	0.00890571
152	0xbe052582	-0.1300259
153	0xbe8b8c17	-0.27255318
154	0xbd2386e0	-0.03992355
155	0xbdbda577	-0.092600755
156	0xbd3d40e2	-0.046204455
157	0x3e10f5ae	0.1415622
158	0xbdbe1412	-0.09281172
159	0x3e13f96f	0.1445062
160	0x3df53e5f	0.11974787
161	0x3e8d52ad	0.2760214
162	0x3bae1faa	0.0053138332
163	0x3e8f6548	0.2800696
164	0xbd6b8e7c	-0.05750893
165	0x3d955509	0.0729161
166	0x3dfd9ee7	0.12383824
167	0xbd72bef4	-0.05926414
168	0x3cae811f	0.021301804
169	0xbdbbe271	-0.0917405
170	0x3c6b847b	0.0143748475
171	0x3d503700	0.050833702
172	0xbe0d9e4b	-0.13829915
173	0xbdaeddd4	-0.08538404
174	0x3cf1f0cb	0.029533764
175	0xbe18c449	-0.14918627
176	0x3db75b5b	0.089529715
177	0xbe9c5c85	-0.30539337
178	0x3d9e4287	0.07727533
179	0x3d505f0a	0.050871886
180	0xbdd14d02	-0.10219766
181	0x3e077511	0.13228251
182	0xbe0a8e4b	-0.13530843
183	0xbd908684	-0.07056907
184	0x3b1992da	0.0023433478
185	0xbe0e22a1	-0.13880397
186	0x3b43d2cb	0.002988028
187	0xbe682ce1	-0.2267337
188	0x3dd099c2	0.10185577
189	0xbdd272df	-0.10275816
190	0x3ca1e99a	0.01976471
191	0xbde87932	-0.11351241
192	0x3dde4b2c	0.10854182
193	0x3e1546b1	0.14577748
194	0x3e07b232	0.1325157
195	0x3c05d5af	0.008168622
196	0xbd5bf6fb	-0.053702336
197	0xbbb40847	-0.005494151
198	0xbe114c23	-0.141892
199	0x3d59367e	0.053030483
200	0xbe08dbe9	-0.13365139
201	0xbe102f58	-0.1408056
202	0xbd85b029	-0.065277405
203	0xbd8a0b98	-0.067404926
204	0x3df866bf	0.12128972
205	0xbe0938a6	-0.13400516
206	0x3e4894ad	0.19587965
207	0x3d029e67	0.031889345
208	0xbd419615	-0.04726227
209	0x3d09affd	0.0336151
210	0xbdff173f	-0.12455606
211	0xbbeadff8	-0.0071678124
212	0xbcbabe98	-0.02279596
213	0x3e237f57	0.15966545
214	0x3d4fedb9	0.05076382
215	0x3b20e82d	0.002455245
216	0x3e032fe7	0.12811242
217	0xbddf610a	-0.109071806
218	0xbd44e326	-0.048068188
219	0x3d137607	0.03600123
220	0x3cae29f5	0.021260241
221	0x3ec5af1c	0.3861016
222	0x3dab9404	0.08377841
223	0xbe37238d	-0.17884655
224	0x3e2c5890	0.16830659
225	0x3cda6bbc	0.0266627
226	0x3da40bf7	0.080100946
227	0x3be7f904	0.0070792455
228	0x3dc109dc	0.09425709
229	0xbd62f95d	-0.055413593
230	0xbe0bfe0f	-0.13671134
231	0xbd86ad1e	-0.06575988
232	0xbcf0e755	-0.029407183
233	0xbe48403e	-0.19555756
234	0xbde6d1ef	-0.112705104
235	0x3e25fe19	0.16210212
236	0x3df83bf8	0.12120813
237	0xbe30f366	-0.17280349
238	0xbe39419e	-0.18091437
239	0xbd89260b	-0.06696709
240	0x3b544d43	0.0032394684
241	0xbe4a50b1	-0.19757344
242	0xbdcbfb7c	-0.09960076
243	0x3cc27826	0.023738932
244	0x3ccefc18	0.025266692
245	0xbd322bc7	-0.04349878
246	0xbda91cc0	-0.08257437
247	0xbd560e93	-0.052259993
248	0xbe0b0aaa	-0.13578287
249	0xbdccaecc	-0.09994277
250	0xbdb612f2	-0.08890332
251	0x3e2f9cc7	0.1714965
252	0x3da7ddf5	0.08196632
253	0xbcc47e55	-0.023986021
254	0x3de2dbfe	0.110771164
255	0xbc083102	-0.008312466

network_body._body_endoder.seq_layers.2.bias f4 [256]
0	0x3d0abf35	0.033873755
1	0x3c937e53	0.018004572
2	0x3cca548f	0.024698524
3	0xb8ff288a	-0.000121668985
4	0x3c87e40b	0.016588232
5	0x3c35a226	0.0110860225
6	0x3ad95d6f	0.0016583632
7	0x3c886436	0.016649347
8	0x3c0ae5f0	0.008477673
9	0x3cc3530f	0.023843316
10	0x3c41da17	0.011831782
11	0x3b8717a5	0.0041226917
12	0x3d10d520	0.0353595
13	0x3bb36197	0.00547428
14	0x3c8a2432	0.016862962
15	0x3b0b0b60	0.0021216497
16	0xbb629adc	-0.0034577167
17	0xbbedd6d0	-0.0072582737
18	0x3c3cfa64	0.011534307
19	0xbb5a5ee7	-0.0033320726
20	0x3aad0155	0.001319925
21	0x3c32dda2	0.010917099
22	0x3cd321c0	0.02577293
23	0xbbfdd347	-0.0077461335
24	0x3b506995	0.0031801213
25	0x3ccc920a	0.02497198
26	0xbc219cd4	-0.009864051
27	0x3ca27291	0.01983002
28	0x3c04c59e	0.008103756
29	0x3c69c190	0.01426734
30	0x3c9d63b9	0.01921259
31	0x3c8d82e1	0.017274322
32	0x3c64b7b7	0.013959817
33	0xbc722df6	-0.014781466
34	0x3994c9fe	0.00028379256
35	0xbb9614de	-0.0045801243
36	0xbc56c437	-0.013108305
37	0x3c657a91	0.014006273
38	0x3c975cce	0.01847687
39	0x3bcc26f5	0.00623023
40	0x3cbceda2	0.02306253
41	0x3c97ffa9	0.018554525
42	0xbc976119	-0.018478917
43	0xbae9ad07	-0.0017828055
44	0x3cc62783	0.024188763
45	0x3c773f84	0.015090827
46	0xbb817bcf	-0.0039515267
47	0x3c2d6b90	0.010584727
48	0xbc5aa4db	-0.013344969
49	0x3c27f255	0.010250648
50	0xbb791a93	-0.0038010224
51	0x3b63e7dc	0.003477565
52	0x3c454a7d	0.012041685
53	0x3c948278	0.018128619
54	0x3badf440	0.005308658
55	0x3c8bce0c	0.017066024
56	0xbbcad371	-0.0061897566
57	0x3c914c09	0.017736452
58	0x3be1f3f6	0.0068955375
59	0xbbbc2b10	-0.005742438
60	0x3c3c59de	0.011496035
61	0x3aa482dd	0.0012551207
62	0x3c590996	0.013246914
63	0x3b22f739	0.0024866594
64	0x3cc6d5c9	0.024271863
65	0xbb3db5a0	-0.0028947368
66	0x3b2e1f30	0.0026568882
67	0x3c117de9	0.008880117
68	0x3c9db814	0.019252814
69	0x3c0335ab	0.008008401
70	0x3c0f0e39	0.008731418
71	0xbaaf1eda	-0.0013360635
72	0x3c2a4da2	0.010394486
73	0x3c8cadb0	0.017172664
74	0x3c94b1b0	0.018151134
75	0x3aeb11f9	0.0017934433
76	0x3bde4e7d	0.006784259
77	0x3c5e5905	0.013571029
78	0xbb814ecf	-0.0039461623
79	0xbc036731	-0.008020208
80	0x3c2e84cc	0.010651778
81	0x3baed696	0.005335639
82	0x3ca75b82	0.020429377
83	0xbc529bf1	-0.012854562
84	0x3c8e300c	0.017356895
85	0x3c502c0a	0.012705812
86	0xbc30c3c7	-0.010788864
87	0x3bcc547f	0.0062356587
88	0xbb8362f2	-0.004009598
89	0x3cd05122	0.025429312
90	0xbad3e233	-0.0016165435
91	0xbb220187	-0.0024720149
92	0x3b5323ac	0.0032217307
93	0x3ba09e2b	0.0049016676
94	0x3c85391c	0.016262583
95	0x3ce942bd	0.028474206
96	0xbba7cefa	-0.005121109
97	0x3b69ee78	0.0035695117
98	0xbb382142	-0.0028095995
99	0xbbfc89d5	-0.0077068605
100	0xbc34ce03	-0.011035445
101	0x3be1d138	0.006891396
102	0x3c3eb412	0.011639612
103	0x3c0050f7	0.0078318035
104	0x3c908032	0.017639253
105	0x3caf615f	0.021408735
106	0x3bd10e6f	0.0063798944
107	0x3ca088e8	0.019596532
108	0x38bca33b	8.9949426e-05
109	0x3cae8ee0	0.021308362
110	0xbb0c3668	-0.0021394733
111	0x3c6cf683	0.01446307
112	0x3c9ae071	0.01890585
113	0x3c649fc6	0.013954109
114	0x3c4f67ca	0.012659023
115	0x3bd2ede6	0.006437051
116	0xbb6b0a3e	-0.003586426
117	0x3c6cc7fd	0.014451978
118	0x3c8bc090	0.017059594
119	0x3c7dddf1	0.0154948095
120	0xbb9c6d40	-0.004773766
121	0x3c9a2262	0.018815223
122	0x3c229573	0.009923327
123	0x3c2c0cbf	0.010501086
124	0x3beb73dd	0.007185443
125	0x3c0f4a4f	0.008745744
126	0x3b054f56	0.0020341477
127	0xbca8548a	-0.020548124
128	0x3c5d336c	0.013501029
129	0x3ba4b2e2	0.0050262073
130	0x3c688e3f	0.01419407
131	0xbb17c234	-0.0023156526
132	0x3c8f1281	0.017464878
133	0xbc2ccd7f	-0.010547041
134	0x3c2ba7c3	0.010477009
135	0x3c9fed8b	0.019522449
136	0xbc0e52f0	-0.008686766
137	0x3c5a38da	0.0133192185
138	0x3c7de408	0.015496261
139	0x3ca5177a	0.020152796
140	0x3be14c72	0.006875568
141	0xbb9146a4	-0.00443347
142	0xbc82f3fd	-0.015985483
143	0xbc232c9c	-0.009959366
144	0x3be3723f	0.0069411094
145	0xbbe7398c	-0.0070564207
146	0xbc0ca633	-0.008584547
147	0x3cbe3b97	0.023221774
148	0xbc2c07e6	-0.01049993
149	0x398c1b27	0.0002672311
150	0x3ae35430	0.0017343815
151	0x3b6dde1b	0.0036295715
152	0x3c94aea5	0.018149683
153	0x3c30d2b0	0.010792419
154	0x3cadd4ca	0.02121963
155	0x3cf73fdb	0.030181816
156	0x3c8c3496	0.017114919
157	0xbb81b883	-0.003958763
158	0x3c9337bb	0.01797091
159	0xbbbe338d	-0.005804485
160	0x3b33456c	0.002735461
161	0xb9f8ab3a	-0.0004742982
162	0x3c88978e	0.01667383
163	0x3c12f878	0.008970372
164	0xbb739c30	-0.0037171952
165	0xbbfad703	-0.007655026
166	0x3c9b070a	0.018924255
167	0xbb8b48f4	-0.00425064
168	0xbcedadce	-0.02901354
169	0x3c6b581d	0.01436427
170	0x3c766f7a	0.0150412265
171	0x3c00a053	0.007850724
172	0x3c451fd7	0.012031517
173	0x3c71c6c3	0.014756861
174	0x3c9ecb57	0.01938407
175	0x3c866ea0	0.016410172
176	0x3cb90fc5	0.022590527
177	0x3c0c50f4	0.008564223
178	0x3b37d967	0.0028053166
179	0x3bd7dc44	0.006587537
180	0x3cb9eed9	0.0226969
181	0x3c030b7e	0.007998345
182	0x3bdcc248	0.0067370273
183	0x3c85459c	0.016268544
184	0x3cb26cec	0.021780454
185	0x3c9cfafe	0.019162651
186	0x3be6f853	0.0070486455
187	0x3c4c4657	0.012467942
188	0x3ba2b1f2	0.0049650604
189	0xbb1aa459	-0.0023596494
190	0x3bb34bdd	0.00547169
191	0x3b343521	0.0027497488
192	0xbafba1c0	-0.0019197986
193	0x3c82bf1d	0.01596027
194	0x3628bc5e	2.5143595e-06
195	0xbbac9b45	-0.005267533
196	0xbb8df9bd	-0.0043327496
197	0x3c89e572	0.01683304
198	0x3c107171	0.008816109
199	0x3c8390fb	0.016060343
200	0x3b95b4b1	0.0045686592
201	0xbb01c770	-0.0019802712
202	0x3c8b41ee	0.016999211
203	0xbbbf2d5c	-0.0058342647
204	0xba19f08a	-0.000587233
205	0x3c850ab1	0.01624045
206	0x3bf689b7	0.007523741
207	0x3cbbb3c2	0.022912864
208	0x3b832794	0.004002521
209	0xbbafb9bf	-0.005362719
210	0x3be1f5e8	0.0068957694
211	0x3a259842	0.00063169387
212	0x3bbb4962	0.005715535
213	0x3c9110ff	0.0177083
214	0x3c0c3bc1	0.008559168
215	0x3b115ceb	0.0022180628
216	0x3bc8bff1	0.006126397
217	0xbb846d4d	-0.00404135
218	0x3cba6f47	0.02275814
219	0xbaaeb049	-0.0013327684
220	0x3c9d210f	0.019180803
221	0x3c8a2aa4	0.016866036
222	0x3c4fb1b5	0.012676646
223	0x3c791d8a	0.015204797
224	0xbb952ea0	-0.0045526773
225	0x3cbdfdc3	0.023192292
226	0x3c9c71c5	0.019097218
227	0x3ca022ad	0.019547785
228	0x3ce30ca9	0.027715998
229	0x3cc922cf	0.02455273
230	0x3bd11a5e	0.006381317
231	0x3cbd4b80	0.02310729
232	0x3bc10a7d	0.005891143
233	0x3cb70e43	0.022345668
234	0x3ca97a71	0.020688267
235	0x3c9ea27e	0.019364592
236	0xba2f06e7	-0.0006676749
237	0xba260ad1	-0.0006334009
238	0x3c93a187	0.018021358
239	0x3c13b5c5	0.009015505
240	0x3c85f199	0.016350554
241	0xbb2d5e41	-0.0026453885
242	0x3c17fe54	0.009276945
243	0x3c030109	0.007995852
244	0xbadaf2d6	-0.0016704451
245	0xbb07967a	-0.0020689056
246	0x3c46100f	0.01208879
247	0xbbe73681	-0.007056058
248	0xbbb444af	-0.005501352
249	0x3baae41b	0.0052151806
250	0x3c5a4c9b	0.013323928
251	0x3c644c26	0.013934171
252	0x3c175543	0.009236637
253	0x3c4dd14d	0.012562108
254	0x3cbe6cfb	0.023245325
255	0xbc7ed14f	-0.015552833

network_body._body_endoder.seq_layers.2.weight f4 [256, 256]
0	0x3cb73967	0.022366239
1	0x3d72f168	0.059312254
2	0xb9a375a9	-0.00031177446
3	0x3dd235bd	0.10264156
4	0xbe06e13a	-0.13171855
5	0xbc492dcd	-0.012278986
6	0xbcb249c5	-0.021763692
7	0xbdfa3aba	-0.122182325
8	0x3d3832b6	0.044970237
9	0x3bcc7318	0.006239306
10	0x3db373d5	0.087623276
11	0xbcff2f6d	-0.031150544
12	0xbd2202c1	-0.039553408
13	0x3acb6f8b	0.0015520913
14	0x3dc5ac28	0.09651977
15	0xbb898d53	-0.0041977554
16	0x3cf0bfd8	0.029388353
17	0x3db9af67	0.090666585
18	0xbd9c7a1f	-0.0764048
19	0x3d93b271	0.07211769
20	0x3a4ed7bb	0.0007890423
21	0xbcf760f7	-0.030197604
22	0x3dc38317	0.09546488
23	0x3d77bd0a	0.060483016
24	0xbd814c54	-0.063133866
25	0x3d8dc749	0.06922776
26	0x3d3ca548	0.046056062
27	0xbd943c55	-0.0723807
28	0xbd25c6e8	-0.040472895
29	0xbbb50a04	-0.0055248756
30	0x3dc1e6ab	0.094678245
31	0xbd0d4e44	-0.034498468
32	0x3d6db91a	0.058037855
33	0xbd57755a	-0.05260215
34	0x3da83c3b	0.08214613
35	0xbc2aaf1b	-0.010417725
36	0xbd69cedf	-0.057082053
37	0x3d981956	0.074267074
38	0x3d6787f4	0.05652614
39	0xbd5d730a	-0.054064788
40	0xbb1dda29	-0.0024086332
41	0x3e053a3d	0.13010497
42	0x3b8a8f54	0.004228512
43	0x3cd10c91	0.025518687
44	0xbd539804	-0.051658645
45	0x3d8b71dd	0.06808827
46	0x3c2925d7	0.010323963
47	0x3a25556b	0.0006306979
48	0xbdb6ed8a	-0.08932026
49	0xbc89af74	-0.016807295
50	0xbc244f17	-0.010028622
51	0x3dcd3966	0.100207135
52	0x3d9ca274	0.07648173
53	0xbc81afe4	-0.015830941
54	0x3c547fcb	0.012969921
55	0x3d925f5f	0.07147097
56	0x3c228f0d	0.009921801
57	0x3d718ba3	0.05897106
58	0x3de92e23	0.11385753
59	0x3dfeb4cd	0.12436829
60	0x3e53d15d	0.20685335
61	0xbd8a2fb2	-0.067473784
62	0x3c84fb25	0.016233036
63	0x3d649891	0.05580956
64	0xbdf496f4	-0.119428545
65	0xbbe77499	-0.00706346
66	0x3d5641e0	0.052308917
67	0x3d470aa9	0.04859415
68	0x3d09c511	0.033635203
69	0x3ba35ea5	0.0049856477
70	0xbd400f8a	-0.04688982
71	0xbd4dbe5e	-0.050230376
72	0x3dfeda46	0.12443976
73	0x3dc239f1	0.09483708
74	0x3ca1db89	0.019758003
75	0x3df853b3	0.12125339
76	0xbd90ec7a	-0.07076354
77	0xbc3b68ab	-0.011438529
78	0xbc95bc0f	-0.01827815
79	0xbd5000e4	-0.0507821
80	0x3d3e6ddf	0.0464915
81	0x3c30aa0e	0.010782732
82	0x3e00596f	0.12534116
83	0xbdc57a39	-0.09642453
84	0x3dab605e	0.0836799
85	0x3e132867	0.14370881
86	0xbd940e90	-0.0722934
87	0x3de04c4c	0.109520525
88	0xbcaa7424	-0.020807333
89	0x3da1fd38	0.07909626
90	0x3d06dd1a	0.032925703
91	0xbca5b56e	-0.020228114
92	0x3e08d370	0.13361907
93	0x3d14a495	0.03628977
94	0xbd256145	-0.040375967
95	0xbda2dce1	-0.079522856
96	0x3d0c7af6	0.034296952
97	0xbdd4cba3	-0.10390403
98	0x3d5c2867	0.05374947
99	0x3dd4105f	0.10354685
100	0xbe00ecdc	-0.12590355
101	0x3d98eb3e	0.07466744
102	0x3d5b2278	0.05349967
103	0x3dcaf0ad	0.099091865
104	0xbd0d5f8f	-0.03451496
105	0x3d6574e9	0.056019697
106	0xbbb69670	-0.0055721328
107	0x3b455ecf	0.0030116325
108	0x3d8306c8	0.06397778
109	0xbd4d4568	-0.05011502
110	0xbc1d27e1	-0.009592027
111	0x3e00688c	0.12539881
112	0xbd52378c	-0.051322505
113	0x3c066d13	0.008204716
114	0xbd90202c	-0.07037386
115	0xbdcea8e7	-0.10090809
116	0xba50fe06	-0.0007972423
117	0x3cb13952	0.021633778
118	0xbd5858b1	-0.052818958
119	0x3cad9fbb	0.02119433
120	0x3d63cb19	0.05561361
121	0xbdcafb4d	-0.09911213
122	0xbb0cdb3a	-0.0021492974
123	0xbc38f923	-0.011289868
124	0xbd65cf93	-0.05610616
125	0x3d8be743	0.06831219
126	0x3e0d7a39	0.13816155
127	0x3d30f65f	0.043203708
128	0xbca62a15	-0.020283738
129	0x3c9e0bd4	0.01929275
130	0x3d94fa36	0.072742864
131	0xbd6a0486	-0.05713322
132	0x3c9d6006	0.019210827
133	0x3d56455f	0.05231225
134	0x3c7e7b98	0.015532397
135	0xbd3fb137	-0.046799865
136	0xbbf5694d	-0.0074893595
137	0x3e00a342	0.12562278
138	0xbcf676d8	-0.030085966
139	0x3cd447bb	0.02591311
140	0xbdb9e49e	-0.090768084
141	0xbc01af83	-0.00791538
142	0xbcaa3eff	-0.020781992
143	0xbcd4871b	-0.02594333
144	0xbd35e131	-0.044404212
145	0xbc1c1642	-0.009526791
146	0xbc01762d	-0.00790171
147	0x3c947592	0.018122468
148	0xbb947528	-0.0045305677
149	0x3e009f5c	0.12560791
150	0xbb468def	-0.0030297001
151	0x3d98a95a	0.07454176
152	0xbe1f03af	-0.15528749
153	0x3e07f0bc	0.13275427
154	0x3da16d1f	0.07882141
155	0xbccd722f	-0.025078861
156	0x3d985416	0.07437913
157	0x3dc289bd	0.09498928
158	0x3c9ec842	0.0193826
159	0xbd588af9	-0.05286691
160	0x3b830327	0.0039981785
161	0xbe167cb0	-0.14696002
162	0x3e3c8189	0.18408789
163	0xbd51961a	-0.05116854
164	0xbd8426c7	-0.06452709
165	0x3db3d95d	0.08781693
166	0x3bd02ee1	0.0063532447
167	0x3d3cfe4a	0.046140946
168	0x3d8889c2	0.066669
169	0x3cbd55b6	0.02311216
170	0x3d7926b9	0.060827944
171	0xbdb19ebe	-0.08672856
172	0xbd090a82	-0.033457287
173	0xbe0394f4	-0.1284979
174	0x3bc77284	0.0060866494
175	0xbbfd66b7	-0.007733192
176	0x3cd3fa8f	0.025876312
177	0xbde88580	-0.11353588
178	0xbd2cf94d	-0.04222994
179	0x3e17bec7	0.1481887
180	0x3d06c9ad	0.032907177
181	0xbde77b40	-0.11302805
182	0xbdf0d0d1	-0.117585786
183	0x3d8b3f8a	0.067992285
184	0x3da5ff08	0.08105284
185	0x3cf61ea7	0.030043913
186	0x3e221e4c	0.1583187
187	0xbd962708	-0.07331663
188	0xbe1390ec	-0.14410752
189	0x3c903932	0.017605398
190	0x3d9449ca	0.07240637
191	0xbd908469	-0.07056505
192	0x3a99d779	0.001173719
193	0x3d33cb18	0.043894857
194	0xbd7838e3	-0.060601126
195	0x3dabcc8d	0.08388624
196	0xbc97bb2e	-0.018521871
197	0x3b921ab9	0.004458752
198	0x3d7038f9	0.058648083
199	0xbcd18082	-0.025573973
200	0xbc8c3206	-0.017113697
201	0xbd26025c	-0.040529594
202	0x3c4cf507	0.012509591
203	0xbc3af251	-0.011410312
204	0xbca8a4bd	-0.020586366
205	0x3d980d39	0.07424397
206	0xbd4ad620	-0.04952061
207	0xbd4cd5df	-0.05000865
208	0xbe2b484b	-0.16726796
209	0x3d9406b7	0.07227843
210	0xbce65f3c	-0.028121583
211	0xbda29cf9	-0.079400964
212	0x3ca41f71	0.020034524
213	0xbc41635e	-0.011803476
214	0x3d690dd9	0.05689797
215	0x3c3f9584	0.011693362
216	0x3d77b671	0.060476724
217	0x3d201481	0.039082054
218	0xbd960b73	-0.073264025
219	0x3cdfd25f	0.027321992
220	0x3dd8632f	0.10565793
221	0xbcae28bf	-0.021259664
222	0x3de1d1fb	0.11026379
223	0xbddbb0c8	-0.10727078
224	0x3db4caf0	0.0882777
225	0xbdabc599	-0.08387298
226	0x3bfce56c	0.007717779
227	0x3a2b1bb1	0.00065272587
228	0xbca24cc6	-0.019811999
229	0x3cdf2d5b	0.027243307
230	0x3d0679de	0.032831065
231	0x3c35b8e9	0.011091449
232	0x3adb92bf	0.0016752108
233	0x3d55385b	0.052055698
234	0x3de10eed	0.10989175
235	0x3cb5b6f3	0.022181964
236	0xbcace1b6	-0.021103721
237	0x3d45eab8	0.04831955
238	0xbc369cbd	-0.011145768
239	0xbd811ee6	-0.063047215
240	0xbd91c6c0	-0.07117987
241	0x3d625487	0.055256393
242	0xbdcda4cf	-0.100412
243	0xbc481ea2	-0.012214335
244	0x3c60746a	0.01369963
245	0xbd666fac	-0.056258842
246	0x3be96c48	0.007123504
247	0xbdc8f6a9	-0.09812672
248	0xbd14fc28	-0.036373287
249	0x3bd2378f	0.0064153145
250	0xbc4d253b	-0.0125210835
251	0xbbe21316	-0.006899248
252	0x3cb7f652	0.022456322
253	0x3cbcdad6	0.023053568
254	0x3e012e7d	0.1261539
255	0x3dc86a68	0.097859204

network_body._body_endoder.seq_layers.4.bias f4 [256]
0	0x3a54355d	0.000809511
1	0x3cb88e87	0.0225289
2	0x3b3d3af3	0.0028874248
3	0x3c9eae07	0.019370092
4	0x3bf6ff83	0.0075377836
5	0x3c9ebcd4	0.01937715
6	0x3bffdcec	0.0078083184
7	0xbb492336	-0.0030691153
8	0x3c9fce88	0.019507661
9	0x3c9dd2d6	0.019265573
10	0x3c673cad	0.014113587
11	0x3caa1833	0.020763492
12	0x3ba26f31	0.0049571027
13	0x3c88b0dc	0.016685896
14	0x3cbaccb1	0.022802683
15	0x3c8f973c	0.017528169
16	0x3cca3186	0.024681818
17	0x3cd8a183	0.026444202
18	0x3b4fcf6e	0.003170933
19	0x3c9520eb	0.018204173
20	0x3a6470b9	0.0008714307
21	0xbc02f705	-0.007993464
22	0x3bacb4ff	0.0052706
23	0x3c890d7f	0.016730068
24	0x3bbee8e5	0.005826103
25	0x3cac637a	0.021043528
26	0xbc00c69a	-0.00785985
27	0x3bc77d94	0.006087968
28	0x3ba07422	0.0048966566
29	0x3b99643a	0.0046811374
30	0xbbe4f411	-0.006987103
31	0x3b9ca71c	0.004780663
32	0x3b5b33c6	0.0033447607
33	0x3b80fca5	0.0039363676
34	0x3cae0e54	0.021247067
35	0x3be18992	0.0068828547
36	0x3bfe0418	0.007751953
37	0x3afe9dde	0.001942571
38	0x3c2993c0	0.010350168
39	0x3c9253da	0.01786225
40	0x3c8da76a	0.017291743
41	0xb8c68a78	-9.4671675e-05
42	0x3c5f0a87	0.01361335
43	0xbb83b045	-0.0040188157
44	0x3cd26ad2	0.025685702
45	0x3cae07c0	0.02124393
46	0x3c2709d4	0.010195214
47	0x3cad5d7a	0.021162737
48	0x3c40fecf	0.011779501
49	0x3c928e4f	0.017890124
50	0x3b72fb83	0.0037076182
51	0x3bbb8219	0.005722296
52	0x3c7e9ff5	0.015541066
53	0x3ca4b9a9	0.02010806
54	0xb9ce5581	-0.00039355087
55	0x3a98ca39	0.0011656947
56	0x3cd0b757	0.025478048
57	0x3c823a27	0.01589687
58	0x3c461c7b	0.012091751
59	0x3bed16b4	0.0072353724
60	0x3c364eb7	0.0111271655
61	0x3c5ca424	0.013466869
62	0xbaae37e8	-0.0013291808
63	0x3c2805a5	0.010255252
64	0x3c9f8eac	0.019477211
65	0x3ccc9848	0.024974957
66	0x3cb37424	0.021905966
67	0x3bb45308	0.005503062
68	0x3ca5a3be	0.02021968
69	0x3c48e7f6	0.012262335
70	0x3bb61124	0.0055562425
71	0x3b89a8e3	0.004201041
72	0x3ca4dd99	0.020125197
73	0x3c4e5ed5	0.012595852
74	0x3c869620	0.016429007
75	0x3aaa683a	0.0013001033
76	0x3cc42136	0.023941617
77	0x3cb5d7c5	0.022197613
78	0x3c6fb098	0.014629506
79	0x3c9e8895	0.019352237
80	0x3c7bc30e	0.015366329
81	0xbb680381	-0.003540248
82	0x3c9f9fb8	0.01948534
83	0x3b21bc63	0.0024678938
84	0xbbab87f7	-0.005234714
85	0x3c915313	0.017739808
86	0x3cde7cdb	0.027159145
87	0x3c9f678e	0.019458558
88	0x3ca12a37	0.01967345
89	0x3c2244ca	0.009904096
90	0x3ac7d71d	0.0015246604
91	0x3c646b6d	0.013941628
92	0xb926b9fc	-0.00015900278
93	0x3c857523	0.016291207
94	0x3ca5291b	0.020161202
95	0x3c6856bb	0.014180834
96	0x3c964dff	0.018347738
97	0x3c056e67	0.008143998
98	0x3bd2087c	0.006409703
99	0x3acd8911	0.0015681108
100	0x3c4441a8	0.011978544
101	0xbb7c4e9c	-0.0038499003
102	0x3c37b75d	0.011213151
103	0x3b05c405	0.0020411026
104	0x3c7d5d77	0.015464178
105	0x3c612bed	0.013743383
106	0x3ca98cb9	0.020696985
107	0x3cd7465f	0.026278673
108	0x3c2c0751	0.010499791
109	0x3bac1151	0.0052510877
110	0x3bd29ac9	0.0064271432
111	0x3ccc44f2	0.02493522
112	0x3c15d04a	0.009143898
113	0x3bfcce53	0.0077150255
114	0x3c3a0825	0.011354481
115	0x3bf6d547	0.007532749
116	0x3b314f49	0.0027055314
117	0x3b932786	0.0044907955
118	0x3b9a2911	0.0047046025
119	0x3a367966	0.0006960839
120	0x3ba65628	0.0050761886
121	0x3c05bc47	0.008162565
122	0x3c783bde	0.015150992
123	0x3ab1ba7b	0.0013559604
124	0x3ba940e7	0.0051652077
125	0x3b567f06	0.003272952
126	0x3b8678da	0.004103762
127	0x3bf64ef6	0.007516737
128	0x3cc106c2	0.023562793
129	0x3ca553a0	0.020181477
130	0x3b7dfc28	0.0038755033
131	0x3c32afd8	0.010906182
132	0x3abbbb61	0.0014322811
133	0x3ca310a9	0.019905405
134	0xbc06616e	-0.00820194
135	0x3c4f13be	0.012638984
136	0x3c08d1be	0.008350788
137	0x3c9d3929	0.019192295
138	0xbb3f8ce2	-0.002922826
139	0x3cbacca5	0.02280266
140	0x3c9f9289	0.019479053
141	0x3ca9b78f	0.02071741
142	0x3c74e1ac	0.0149463825
143	0xb9d44763	-0.00040488978
144	0x3c0669ba	0.008203918
145	0xbc035dbd	-0.008017954
146	0x3c761be5	0.015021299
147	0x3c9c2837	0.019062145
148	0x3cb90df2	0.022589657
149	0xbbcd6104	-0.0062676687
150	0x3ba5edee	0.005063764
151	0x3c9cac7d	0.019125218
152	0x3c789637	0.015172533
153	0x3ae43779	0.0017411552
154	0x3ca61499	0.020273494
155	0x3c640b31	0.013918684
156	0x3c1f4944	0.009722058
157	0x3c6f6895	0.014612337
158	0x3caaae78	0.020835146
159	0x3cb84737	0.022494895
160	0xbac724f0	-0.0015193503
161	0x3bac0f50	0.005250849
162	0x3cc59e06	0.024123203
163	0x3cdd6295	0.027024547
164	0x3c45aeb8	0.012065582
165	0x3c4e8ea8	0.012607254
166	0x3c4482af	0.011994048
167	0x3c849e01	0.016188623
168	0xbbc21628	-0.0059230514
169	0x3aa00c68	0.0012210729
170	0x3bd8eb4d	0.006619847
171	0x3a2e9a81	0.0006660596
172	0x3b266e21	0.0025395232
173	0x3bca2d42	0.006169946
174	0xba3c2f98	-0.0007178723
175	0x3c054fff	0.008136748
176	0xbb43d6b7	-0.0029882619
177	0x3ca53350	0.02016607
178	0x3c042d43	0.008067432
179	0x3c31e4f0	0.010857806
180	0x3bbb4c7b	0.0057159043
181	0x3ba40e0c	0.0050065573
182	0x3ca2ad37	0.019857986
183	0x3bfc481c	0.007699026
184	0x3b786eb9	0.0037907793
185	0x3c8a94a3	0.016916579
186	0x3bdbb0a6	0.0067044077
187	0xbc74bd26	-0.014937675
188	0x3ca6af50	0.020347267
189	0x3c170b1f	0.00921896
190	0x3cbaf304	0.022820957
191	0x3c166432	0.009179162
192	0x3cbe6216	0.02324013
193	0xbc32743d	-0.010891971
194	0x3cc530e7	0.02407117
195	0x3bde7987	0.0067893895
196	0x3ce11f5f	0.02748078
197	0x3bc68ac2	0.0060590217
198	0xbb5be490	-0.0033552982
199	0x3c10c2e9	0.008835533
200	0x3c96f09f	0.018425284
201	0x3ac3d7df	0.0014941654
202	0x3be3fc37	0.0069575566
203	0x3c32ec43	0.010920587
204	0x3c91ccd1	0.01779786
205	0x3c1d12e3	0.0095870225
206	0x3bcffffb	0.006347654
207	0x3ac0d25a	0.0014711127
208	0xbc417671	-0.011808024
209	0x3cbda0d2	0.023147974
210	0x3c95ae69	0.018271642
211	0x3bae62d5	0.0053218403
212	0xbbca5af7	-0.0061753946
213	0x3ca0d64c	0.019633435
214	0x3cb0a5f7	0.021563513
215	0x3cb8e73a	0.022571195
216	0xbb76311d	-0.0037565895
217	0x3c994061	0.018707456
218	0x3c8a67ef	0.016895263
219	0x37ebbe27	2.810273e-05
220	0x3c9323ae	0.01796135
221	0x3bc4d856	0.0060072346
222	0x3b528beb	0.0032126855
223	0x3bd32216	0.0064432723
224	0x3c5207d7	0.012819252
225	0x3c4c4d7c	0.012469646
226	0x3c7ef137	0.01556044
227	0x3cdb94f7	0.02680443
228	0x3c26d663	0.01018295
229	0x3ccb3a55	0.024808088
230	0xbb8b2285	-0.0042460584
231	0x3c75a260	0.0149923265
232	0x3c151da6	0.009101307
233	0x3c058011	0.008148209
234	0x36e70de0	6.8859517e-06
235	0xb9bf7750	-0.00036519254
236	0x3b28118c	0.0025645224
237	0x3bb42953	0.0054980903
238	0x3c03a610	0.008035198
239	0x3c8bfa99	0.017087268
240	0x3c603877	0.013685337
241	0x3bc8fbc3	0.006133528
242	0x3cb5853f	0.022158263
243	0x3cb52959	0.022114443
244	0x3c38f58d	0.011289013
245	0x3c946be2	0.018117849
246	0x3c1eec1f	0.00969985
247	0x3be09991	0.006854244
248	0x3ca345c5	0.01993073
249	0x3cc31ccb	0.02381744
250	0x3cae1e14	0.021254577
251	0x3b838353	0.004013458
252	0x3c7b195a	0.0153258685
253	0x3cde03b7	0.02710138
254	0x3c7f2367	0.015572405
255	0x3c6a03c3	0.014283123

network_body._body_endoder.seq_layers.4.weight f4 [256, 256]
0	0x3d720fb0	0.059096992
1	0x3d48996c	0.04897444
2	0x3df28c4f	0.11843168
3	0x3dab1397	0.08353346
4	0xbc978b13	-0.018498933
5	0xbd4d40be	-0.05011057
6	0x3e02187f	0.12704657
7	0xbd8e987a	-0.06962676
8	0x3d1e5094	0.038651064
9	0x3d298f9a	0.041396715
10	0xbd2ecd00	-0.042675972
11	0x3d4a7f43	0.049437772
12	0x3af6a252	0.0018816686
13	0x3cf72946	0.030171048
14	0x3ca706b5	0.02038894
15	0xbd39b6ed	-0.045340467
16	0x3e15bcc6	0.14622793
17	0x3e03868d	0.12844296
18	0x3d0bc947	0.0341275
19	0x3d9c53a7	0.07633143
20	0xbd0cce2e	-0.034376316
21	0xbda640d9	-0.081178375
22	0x39b8de5a	0.0003526088
23	0xbd8578f3	-0.0651721
24	0xbd140b10	-0.036143363
25	0xbc0de2e2	-0.00866005
26	0x3ac5bd98	0.001508641
27	0xbb28af1a	-0.0025739134
28	0xbd8180cf	-0.063233964
29	0x3dd03bfb	0.1016769
30	0x3ce43912	0.027859244
31	0xbd9948c0	-0.07484579
32	0xbd211502	-0.039326675
33	0x3d07527b	0.033037644
34	0x3e32d543	0.17464165
35	0x3e13138f	0.1436293
36	0xbde15d9c	-0.11004183
37	0xbd877724	-0.06614521
38	0x3d025d37	0.031827178
39	0x3c407fb3	0.011749196
40	0x3d2b1e70	0.041777074
41	0xbd249bab	-0.04018752
42	0x3d7c4d5a	0.061597206
43	0xbafeae80	-0.0019430667
44	0x3cfc9b68	0.030835822
45	0x3b689482	0.0035488908
46	0x3aaad86e	0.0013034472
47	0xbd926da6	-0.0714982
48	0xbda313f8	-0.07962793
49	0xbd292310	-0.041293204
50	0xbdb64717	-0.08900278
51	0xbcd5d78a	-0.026103754
52	0x3cee10f6	0.029060822
53	0xbd1e8911	-0.038704935
54	0x3b60d92c	0.0034309132
55	0x3d90dc6d	0.07073293
56	0x3dc2e7c2	0.095168605
57	0xbc826e8b	-0.015921852
58	0xbd777f0e	-0.060423903
59	0xbc46f9f1	-0.012144552
60	0x3dc3d7de	0.09562658
61	0x3d0c351e	0.034230344
62	0xbbf65d75	-0.007518465
63	0x3b20cfc3	0.0024537898
64	0x3c8e5863	0.01737613
65	0xbdb78767	-0.08961373
66	0x3d0cb8e8	0.034356028
67	0x3d2babf8	0.04191205
68	0xbe0b112d	-0.13580771
69	0xbc58cffd	-0.013233182
70	0x3ba1c247	0.0049364897
71	0x3d72a66e	0.05924075
72	0xbd1b61b0	-0.03793496
73	0xbc10f496	-0.008847376
74	0xbbbaa06e	-0.0056953942
75	0x3d8d8235	0.06909601
76	0xbd067d32	-0.03283424
77	0xbda61684	-0.08109763
78	0x3b1c85df	0.0023883504
79	0xbdb8687f	-0.09004306
80	0x3d5ca264	0.053865805
81	0x3c2d822a	0.010590116
82	0xbd8919e2	-0.0669439
83	0x3d4053de	0.046954982
84	0x3ca7e66d	0.020495618
85	0xbe1bcb98	-0.15214384
86	0xbc24ac68	-0.0100508705
87	0x3c0207ec	0.007936459
88	0x3d942e90	0.072354436
89	0x3c17ab11	0.009257094
90	0x3da0746e	0.07834707
91	0xbc151c83	-0.009101036
92	0xbd94d301	-0.07266808
93	0xbe1f9397	-0.15583645
94	0xbd062f2b	-0.032759827
95	0xbc994081	-0.018707516
96	0x3cd87c5a	0.026426483
97	0xbd45558b	-0.048177283
98	0x3d8b337b	0.067969285
99	0xbc0f7dfc	-0.008758064
100	0x3cb02851	0.0215036
101	0xbdea157e	-0.114298806
102	0x3dfe3af0	0.12413585
103	0x3d26e8c0	0.04074931
104	0xbd1486c0	-0.03626132
105	0xbdb773bc	-0.089576215
106	0x3e01a159	0.12659205
107	0xbd7b6ed9	-0.06138501
108	0xbd39b372	-0.045337148
109	0xbd55977a	-0.052146412
110	0x3d7e512f	0.06208914
111	0xbd13f9d2	-0.03612692
112	0x3daba2a5	0.08380631
113	0xbc51b26d	-0.012798888
114	0xbe411655	-0.18856175
115	0xbd911a59	-0.070851035
116	0x3d197a32	0.03747005
117	0x3d0359a3	0.032067906
118	0x3cddfeef	0.0270991
119	0xbcaa2cd1	-0.020773323
120	0xbd59269a	-0.05301533
121	0x3d5780c8	0.05261305
122	0x3a6dd1b0	0.00090720784
123	0x3db8d646	0.090252444
124	0x3b9cd3cf	0.0047859917
125	0x3c11c83f	0.00889784
126	0x3ddcd29b	0.10782357
127	0xbd14a4d0	-0.03628999
128	0x3d0302da	0.03198514
129	0x3c107bb1	0.008818553
130	0xbd375904	-0.044762626
131	0xbc854e5f	-0.016272722
132	0x3dd3aa8b	0.10335263
133	0x3d94f4f4	0.072732836
134	0x3d59521c	0.05305682
135	0x3c49dfc8	0.01232142
136	0xbc1816ac	-0.009282749
137	0xbc163457	-0.009167752
138	0xbd865d29	-0.06560738
139	0xbb825831	-0.0039777984
140	0x3ce81686	0.028331053
141	0x3de199cc	0.110156626
142	0xbcf332b8	-0.02968727
143	0xbd2666f2	-0.04062552
144	0x3d956e04	0.072963744
145	0xbb1958ad	-0.0023398802
146	0x3d4c0d4d	0.049817372
147	0x3ce4991c	0.02790504
148	0xbde15d33	-0.110041045
149	0x3d059fa8	0.032622963
150	0xbd109c22	-0.03530515
151	0xbca69eda	-0.020339418
152	0xbdb149f6	-0.08656685
153	0xbd597b44	-0.05309607
154	0x3db70f56	0.08938472
155	0x3d27d85f	0.040977832
156	0x3d3ded66	0.04636898
157	0x3d02cb01	0.03193188
158	0xbc1d5e16	-0.009604951
159	0xbd859411	-0.06522382
160	0xbb4ce82b	-0.0031266313
161	0x3dc45ed4	0.095883995
162	0xbc07f889	-0.0082990015
163	0xbbbbb662	-0.005728529
164	0x3d0df22e	0.03465479
165	0x3b803efc	0.0039137583
166	0xbd4cc682	-0.049994
167	0xbdd32a03	-0.103107475
168	0x3b12f2de	0.0022422592
169	0xbbd13aa2	-0.0063851634
170	0xbcaa5e7b	-0.020797005
171	0xbd3006aa	-0.042975105
172	0xbe0d9170	-0.13825011
173	0x3d0fc124	0.035096303
174	0xbe35c105	-0.17749412
175	0xbdd6c382	-0.10486509
176	0xbd960382	-0.07324888
177	0x3b841bd6	0.0040316386
178	0xbd352e32	-0.04423351
179	0x3d154ffc	0.036453232
180	0xbbf8e7f5	-0.007596011
181	0x3dc9b055	0.09848086
182	0xbd98d751	-0.07462943
183	0xbdac5126	-0.08413915
184	0xbc795832	-0.015218781
185	0x3ceb5fd1	0.028732212
186	0x3dfbed4e	0.12301122
187	0x3d05a355	0.03262647
188	0x3ddb495b	0.10707351
189	0x3da3e43b	0.08002516
190	0xbd24a549	-0.04019669
191	0x3b825893	0.003977844
192	0x3d8f0e5b	0.0698516
193	0x3e25720a	0.16156784
194	0xbd9f4420	-0.07776666
195	0x3db0db7a	0.08635612
196	0xbc9e87b7	-0.019351823
197	0x3d0a5304	0.033770576
198	0xbdc50160	-0.09619403
199	0xbdab4067	-0.08361893
200	0xbdd6107b	-0.10452362
201	0xbcd9bf14	-0.026580371
202	0x3cfde061	0.030990781
203	0x3deb4944	0.11488584
204	0xbc133050	-0.008983687
205	0xbcc5644b	-0.024095675
206	0x3cf0a07a	0.029373396
207	0x3d8f7828	0.0700534
208	0x3d9c2eb0	0.076260924
209	0xbd22cc9c	-0.039745912
210	0x3d744435	0.05963536
211	0x3d0e9bf5	0.0348167
212	0x3c656df5	0.014003267
213	0xbd76f9ca	-0.06029681
214	0xbd022ebb	-0.031782847
215	0xbd0f10bd	-0.034928072
216	0x3dc926a9	0.09821827
217	0xbde5743b	-0.1120381
218	0xbdca34a7	-0.09873324
219	0xbcb392b3	-0.021920538
220	0xbe0c291c	-0.13687557
221	0x3d090fbc	0.03346227
222	0xbd8611e8	-0.06546384
223	0xbd228ca9	-0.039684925
224	0x3de4e8a5	0.11177186
225	0x3e07279a	0.131987
226	0x3d8bfdaf	0.06835496
227	0xbce314e3	-0.02771992
228	0xbd29cbc1	-0.04145408
229	0xbe522bc0	-0.20524502
230	0x3cb77fd6	0.022399824
231	0x3e2ab4f8	0.16670597
232	0xbca069ca	-0.019581694
233	0x3d5d1480	0.05397463
234	0xbe2e59cb	-0.17026441
235	0xbcb3f908	-0.021969333
236	0xbc94875a	-0.018130947
237	0x3e1ba115	0.15198167
238	0xbda7b51a	-0.08188839
239	0xbd4b7aa6	-0.049677514
240	0xbdae13d5	-0.084998764
241	0x3d1f2cab	0.038860958
242	0x3d62da4c	0.055383965
243	0x3b96b9d9	0.0045997915
244	0xbc31255d	-0.010812131
245	0x3d952a9c	0.07283518
246	0xbd19203c	-0.037384257
247	0xbd219e6d	-0.039457727
248	0x3d915e20	0.07098031
249	0xbd1378dc	-0.036003932
250	0xbd468b91	-0.048472945
251	0x3d1cac93	0.038250517
252	0x3d02fb34	0.031977847
253	0xbd675012	-0.056472845
254	0xbd1fae38	-0.038984507
255	0x3c9ab4c1	0.018885018
