Assets/Training/results/parkolas2/parking/parking-8499970.onnx (onnx, 608683 bytes, 13 tensors)

65 f4 [68]
00000000: 15b0 f83e 14f9 f93e af51 d63e a238 6a3e
00000010: a3a9 dd3e 174f fb3e 6a74 f33e d10a 703e
00000020: 4b01 af3e 91ee ff3e fedd f73e ede3 803e
00000030: 0642 fe3e 610b eb3e 1f84 df3e 8cbb a63e
00000040: 61f4 e73e 3cee eb3e d636 063e 9f8b 993e
00000050: 1f64 ff3e cbfa ea3e 6f7b bd3e 1b4d c43e
00000060: e400 cf3e f7ea f33e 37d8 b23e 97b0 9a3e
00000070: 0d83 ff3e 53f4 ff3e 1090 4b3e ef69 b33e
00000080: da38 ff3e 16c8 ff3e 18aa 083e 2343 9b3e
00000090: d287 e33e be68 f13e 8d0e 773e 1c48 9b3e
000000a0: 036a fb3e cae9 fe3e 8a9e 573e f76d af3e
000000b0: 8a71 e93e b29b ff3e c8e2 913e 8d54 923e
000000c0: dcf9 ff3e 135e f33e 25de 113e bb58 803e
000000d0: 67ac d03e 0659 ff3e 9bcf 563d 39ef 553e
000000e0: 7e8b 5b3e 8ac5 ff3e 745d 933c f935 2a3e
000000f0: 11ab a43e 4db2 ff3e 1d37 883c 6f92 2e3e
00000100: 10ab a43e 4db2 ff3e 1f37 883c 6f92 2e3e
0.4857184 0.48822844 0.41859195 0.22873166 0.43293485 0.49083778 0.47549754 0.23441626
0.34180674 0.499867 0.48411554 0.25173894 0.49659747 0.4590712 0.43655488 0.32564962
0.45303634 0.46080196 0.13106856 0.29989335 0.49881074 0.45894465 0.37008235 0.38340077
0.40430367 0.476402 0.34930584 0.30212852 0.4990467 0.49991092 0.19879174 0.35041758
0.49848062 0.4995734 0.13346136 0.3032466 0.4443956 0.47150224 0.24126644 0.30328453
0.49104318 0.49787742 0.21056572 0.34263584 0.45594436 0.49923474 0.28493333 0.28580132
0.49995315 0.4753271 0.14244898 0.25067696 0.40756533 0.49872607 0.05244408 0.20892037
0.21439931 0.49955398 0.017988898 0.16622151 0.32161763 0.4994072 0.016627843 0.17048047
0.3216176 0.4994072 0.016627846 0.17048047

68 f4 [6]
00000000: c077 c23f 78fd 8b40 869e 783b 0ef2 1e3b
00000010: 00b9 7a40 aea8 8742
1.5192795 4.374691 0.0037936284 0.0024253163 3.9175415 67.82945

action_model._continuous_distribution.log_sigma f4 [1, 2]
00000000: 152b a0be 0ab7 b5be
-0.3128287 -0.3549121

action_model._continuous_distribution.mu.bias f4 [2]
00000000: 756e 9bbb b7f7 773c
-0.004743392 0.015134743

action_model._continuous_distribution.mu.weight f4 [2, 256]
00000000: 9c8d fb3c e84a c73c c2a0 3cbc 1ee5 8cbc
00000010: 62d9 29bd 63ce 9dbc eae1 243c 947f 013d
00000020: 6b54 183d 582f 30bd d644 dfbb dd98 65bd
00000030: 8b93 21bd d5dd 0abd 0369 c6bc 6985 093b
00000040: 75ce ed3c 4127 e5bc af53 353d d4d1 233c
00000050: 2782 b83a 042b 1f3c fa86 963c 0103 32bd
00000060: 065e ac3b d5b1 6fbc 6cfd 093d 48f8 a53a
00000070: 6e69 3a3d 2b86 08bd ef0b c13b a9ea 153d
00000080: 21a0 1f3d f5a7 18bd 39bb 8b3d de67 fabc
00000090: 61ba 32bd e46b ad3b a825 503c ff71 15bd
000000a0: 413a 353d f146 633b eef0 803d 9511 0c3c
000000b0: f66a d4bb 7947 08bd 8257 1abd 1d63 f3bc
000000c0: d95e 213d f4ff 833d c44d 703d 2258 2bbd
000000d0: 4be9 db3b 53b4 edbc fb8a eabc 82bf bdbc
000000e0: 196e 09bd 9656 0e3d bbff 1fbb fc10 89bc
000000f0: c33e 15bd 4a05 0abd 1baa e73c 69e2 b53c
00000100: 300c 2ebd d87b efbc c25f 27bd 8a78 7c3d
00000110: bf0f bbbc 8340 30bd 653b 93bc 5f89 c4bc
00000120: 5c7d e43c a85a 193d eab1 b03c 2ae4 5fbc
00000130: 9f33 763d a6f6 3bbc 6a8a 7e3d 74ee f5bc
00000140: 9b25 51bc 5a81 20bc cbd5 d23c 7029 1e3d
00000150: 1d2d 82bc 2579 953d 20cb eebc ca07 3abd
00000160: 9e9a 42bd 1348 4a3d 0073 103d a815 27bd
00000170: cd28 1e3d e080 4a3d 0867 f0ba 444e 1dbd
00000180: 4a4d 733d cc89 063d ff34 3c3d adff cf3c
00000190: 0373 fb3c 48af 3d3a bdb8 17bd 169b 0ebd
000001a0: f1db 093d 2674 4dbd 24f3 c4bc a9fa 4e3c
000001b0: 1027 20bd 559a d1bc 5a47 0ebc 84fb 88bc
000001c0: c36f 423d 7d74 48bd 1dff 6f3d 4bc6 a03d
000001d0: 0cb2 173d c5ec 3d3d 8966 debc 8bfb 5d3d
000001e0: 580b ad3b 4373 00bd 1125 f1bc 4f2f f43c
000001f0: 8c77 d2bc a8d8 b6bc cd1b 063d 12a7 39bd
00000200: f9b2 eebc ca55 e93c 3964 20bd 483e 06bd
00000210: 2b08 123b a422 57bd a615 bb3c 9f8f b3bc
00000220: a078 403d d886 58bc 27ac cf3c d88b 04bd
00000230: ca1f 53bd e4dd b7bc 75da cebc 9201 d93c
00000240: 71f1 3c3d bc22 523c f9a5 9a3c 1dd0 423d
00000250: 95a9 0bbd 26bd 293d 6a9f e93c 6742 ec3c
00000260: c65b b03c 2952 313d e686 a93c 9043 a83c
00000270: 4b01 f7bc 6420 06bd ba98 0c3b 73ec 8abc
00000280: 4f17 c83c 916f 4f3d ce43 183d 38c2 4abc
00000290: 7fcd 30bd 9612 f3bc 2430 243d fba2 673d
000002a0: 277d bb3c 9747 09bd 3307 f1bc 4ced 3c3d
000002b0: 221c ec3c a422 543b 66d2 173d 17a6 203d
000002c0: df35 603c 734a 16bd 8b97 a3bc 362a 06bd
000002d0: d5a9 5a3c 4a8a a43d 38ff 723d 528c 3ebd
000002e0: 064b 4d3d be19 fbbc a2b3 2ebd 6487 b13b
000002f0: f88e 373c ffcd efbc e70e 1cbd 7eb3 393d
00000300: b8b5 77bc 7dca a23c 0b54 193c a528 90bc
00000310: 1ae9 debc 839d d0bc c49a 1bbb ce64 3cbc
00000320: 5878 13bd 5ac1 453d c443 87bc 9f86 c9bc
00000330: 15eb 80bc e82a 7b3d 6ae3 2d3d 46ba 9bbc
00000340: 53ee e93a c4bf 16bd ab29 29bd 3b53 3a3d
00000350: d65f 47ba 9f61 85bb acd9 77bc e262 733d
00000360: bc44 553c 0ee2 c539 bd00 473d 9ad1 00bc
00000370: 1b07 2c3d f6a4 2c3c 787b 57bd 9c5f 163d
00000380: 700b 1ebd a856 3dbd 11dd 533d 42b8 e9bc
00000390: 89e3 b7bc 1bb1 ccbc 3e5c 803c bf3d b63c
000003a0: a704 513d ce60 a9bc b442 51bc 6a52 043d
000003b0: 52a1 ad3b f785 82bc 8d04 10bd 327a 9c3c
000003c0: 9bcc fbbc b58d 993d 2b0c a238 e201 b93b
000003d0: 6f00 7cbc 8f64 08bd 332d edbc 8a04 6e3d
000003e0: aef4 b23d 4551 6e3d 16e4 46bc a9d8 15bd
000003f0: 2a75 473d 6349 59bd eb70 623d 2787 f8bc
0.030707173 0.02432771 -0.011512937 -0.017199095 -0.041467078 -0.019263452 0.010063628 0.03161581
0.037189882 -0.0430139 -0.006813626 -0.056053985 -0.03944735 -0.03390296 -0.024219995 0.002098406
0.02902911 -0.02797282 0.04426926 0.009998757 0.0014076874 0.009714846 0.018374909 -0.043459896
0.005260232 -0.014629801 0.033688948 0.0012662495 0.0455107 -0.033331078 0.005891315 0.036600742
0.03897107 -0.03726955 0.06822819 -0.030567106 -0.043634776 0.0052924026 0.01270429 -0.03648567
0.04424501 0.0034679736 0.06295954 0.008549114 -0.0064824773 -0.033271287 -0.03768111 -0.029710347
0.039397094 0.064453036 0.058667913 -0.041832097 0.0067111603 -0.02901665 -0.028630724 -0.023162607
-0.033552263 0.034750544 -0.0024413902 -0.016731732 -0.036436807 -0.03369645 0.028279355 0.022202687
-0.04249209 -0.029233858 -0.040862806 0.061638393 -0.022834657 -0.043030273 -0.017972657 -0.023991285
0.027891807 0.037439972 0.021569211 -0.013665238 0.060107823 -0.01147238 0.06214372 -0.03002093
-0.0127653135 -0.009796465 0.02573671 0.038613737 -0.015890652 0.07298497 -0.029149592 -0.045417584
-0.047510736 0.04938514 0.035265923 -0.040792137 0.03861313 0.04943931 -0.0018341253 -0.038404718
0.05939988 0.032846257 0.04594898 0.02539047 0.03069449 0.0007235897 -0.037041415 -0.03481587
0.033657018 -0.050159596 -0.02404172 0.012633004 -0.039099753 -0.025586287 -0.008684004 -0.016721494
0.047469866 -0.048939217 0.058592904 0.078503214 0.037035033 0.04636838 -0.027148502 0.05419497
0.0052808933 -0.031359922 -0.02943662 0.029807715 -0.02569177 -0.022320107 0.032741357 -0.045325346
-0.029138075 0.02848329 -0.03915808 -0.03277424 0.00222827 -0.05252327 0.022837471 -0.02191907
0.046990037 -0.013215743 0.025350643 -0.032359928 -0.05154399 -0.022444673 -0.025250653 0.026490007
0.046128694 0.012825664 0.01887797 0.047561754 -0.034097273 0.04144015 0.028518397 0.028840257
0.021528136 0.043291245 0.020694207 0.020540029 -0.030151984 -0.032745734 0.0021453337 -0.01695845
0.024425177 0.050643507 0.03717404 -0.012375407 -0.043164726 -0.029671948 0.040084973 0.056551915
0.022886826 -0.03351554 -0.029422378 0.04612474 0.028822009 0.003236928 0.037065886 0.039220896
0.013684719 -0.036692094 -0.019969722 -0.0327551 0.013346155 0.08034189 0.059325427 -0.04652054
0.050120376 -0.030651923 -0.04265178 0.005417751 0.01120352 -0.029273031 -0.03810015 0.045337193
-0.015119009 0.019871945 0.009358416 -0.017597506 -0.02721076 -0.025465732 -0.002374337 -0.011498643
-0.03600344 0.048280098 -0.016511805 -0.024600325 -0.015737096 0.061320215 0.042453207 -0.01900972
0.0017847515 -0.036803976 -0.041299503 0.04548953 -0.0007605528 -0.004070475 -0.015127581 0.059420474
0.013016876 0.00037743192 0.04858469 -0.007862473 0.041998964 0.010537377 -0.052607983 0.036712274
-0.038585126 -0.04622522 0.051724497 -0.028530244 -0.022447364 -0.024986794 0.015668985 0.02224624
0.051029827 -0.020676043 -0.012772251 0.03230516 0.005298772 -0.01593302 -0.03516059 0.019101236
-0.030737212 0.074977316 7.7270284e-05 0.0056459764 -0.015380963 -0.033299025 -0.028952217 0.058109798
0.08738075 0.058182973 -0.012139341 -0.036583576 0.04869572 -0.053048503 0.05528347 -0.030337883

network_body._body_endoder.seq_layers.0.bias f4 [256]
00000000: 37be 003c d4a5 85ba 662e 903c 5950 7d39
00000010: 22ff 763c 6d06 9b3c a0fd c0bb 3aa2 953c
00000020: 8f26 82bb b200 d53c ed0a 453b 1e79 a7b9
00000030: af1b 573c 84c4 42ba 0362 e03b 71ca 3d3c
00000040: 69bb d03c 04a8 113c 9dc4 d33b b3fd c63c
00000050: 872e 913c ab92 103c c631 4c3c 3c5b ad3c
00000060: 0277 623c 7906 c73a f5ae 63bb 7dc2 e83b
00000070: 9070 fc3a db2c 9a3c 4f39 8b3c 25cf a83c
00000080: e4f6 f43c 23ff d63c a429 2cbb 6d11 d23c
00000090: 2b2d 4f3c 4abf 403c 5e4f bf3c c3ec 6c3c
000000a0: 393b 3bbb 410c 773c 4a7a d2bb 418f a43c
000000b0: 62e2 c03c bbd8 a43c 7649 9d3a 43a6 baba
000000c0: f927 c73c 5b1c 863c 2d3f 593c 4f89 cd3c
000000d0: c521 933c c121 1a3a d554 4c3c 3e3e ce3b
000000e0: 1fbb f93b 8f48 c53b b157 223c 01af 943c
000000f0: 6933 c93a 6ac6 023d 9703 9f3c 381c 3c3c
00000100: dcb5 3b3b e4b8 c53c cdc1 2b3c 1508 56bb
00000110: 8ae0 043d 5c0c 27bb 1948 943c 8e2a b83c
00000120: 7eae e63c 791e 0a3d 7f2e 993c 824a a53c
00000130: d363 c73c b5c4 c43c 47b5 9bbc c550 5e3c
00000140: e790 a33b 6580 8f3b 415c a93c a8f5 a13c
00000150: 2a9e b13b e6b4 bc3c bc98 8e3b 8e51 bd3c
00000160: 7f64 743a db1e 643a 58f2 da3a c576 8f3c
00000170: 17b3 883c 5942 7abc 9ba5 ed3c 2301 bf3a
00000180: a6cd d33c f776 9b3c 7fbe 3b3b 4367 c63c
00000190: c02e 8b3c a249 463c e149 123b 7c78 b83c
000001a0: c454 943c 183d fbbb 7633 9b3c 3263 3a3c
000001b0: 6991 853c 91b2 3838 745f be3c 6d19 123d
000001c0: a898 343c 472d 0c3b 0bad 9a3c ce5b 393c
000001d0: 4fe4 eb3c 391e 993b ab2a 8dbc 5d37 e23a
000001e0: 59ec c83c 7c89 cabb dc91 d0bb e407 863c
000001f0: 7127 213c a63c c43c 858a ae3b 40de 78bb
00000200: 0213 01bc 0a34 ee3c 9e0c eb3b 8812 9039
00000210: fdb5 9a3c 5eef 803c 35d8 553c 12c5 cd3c
00000220: 3641 7fbb 04e5 3f3c 2bab f13c 12a8 d13c
00000230: c54f 1abc e888 af3a 0f8a debb cfe2 80bc
00000240: 0ebb a93c b7eb 743c d29d 653c acaa 423c
00000250: c969 903b 58fc d53c c666 cd3a 337d 083c
00000260: 10ff cc3c 4bbe 623c 304c cd3c 9b91 b63b
00000270: 2d64 9bbb 92dd 2b3b c875 763a 5eec 2b3c
00000280: 7d57 8a3c bde8 b43c 542d 8e3c 0a38 c83c
00000290: 4f04 043d 3918 a13c 875b 4b3c 3417 0a3c
000002a0: cad4 943c 825b 8cbb 2b04 773c c5a1 243c
000002b0: 8f98 303c f2c6 8f3c 44fe 953c 1eef 063d
000002c0: 4c22 233c d721 093d bf8e 093c dc82 903c
000002d0: 6100 2fbb ed07 2bbb 7e29 773c 5319 803c
000002e0: e569 e43b 08cf 983b 909b a63b 7761 dc3c
000002f0: b21d 123c ca99 3fbb 8945 cd3b 694b 813c
00000300: 456d b13c f0c5 953b e682 533c 13e9 933c
00000310: 0b9d 793c e4ca 7a3b f434 faba af2c 93bb
00000320: 9017 9e3b 7e6f 36bc 3011 a53c 312e a7bb
00000330: 7760 1ebc 15e0 e4bb b4cd 9a39 e3b8 4a3c
00000340: 4980 6f3c 9fde b33c d72c b43c 8618 173c
00000350: a1f1 6d3c 3af5 813c 9a7e a1bc dd59 68bb
00000360: 9460 d33b f8d7 ac3b 1fb8 323c 382c b63b
00000370: 4682 163d 3933 c13b 509f 8f3c 29ef 4cba
00000380: 3905 4a3c 4fcb fa3b 7985 c93b 81e8 0f3c
00000390: 7dcc 2b3c 6c99 a13a a480 823c eebf 8e3c
000003a0: 5f80 7cbb 04a6 043d d2ea 473b d10f 013d
000003b0: 67ba 583c 1a16 77bc 8e62 d03b 596e b03c
000003c0: cd09 2a3c 94b1 b73c ab95 64bc 86b7 ae3c
000003d0: dc68 603c 886d 89bc 24b3 af3c 0447 a1ba
000003e0: 3019 833c 7690 57bc 16bf 003c 3107 373c
000003f0: 2489 803c 459e 363a 9789 c63c 670a 323c
0.007857851 -0.0010196515 0.01760025 0.00024157892 0.015075477 0.018923962 -0.0058896095 0.018265832
-0.0039718817 0.026001308 0.0030066327 -0.00031942962 0.013129159 -0.0007429796 0.0068476214 0.01158391
0.02547999 0.008890156 0.006462647 0.024290895 0.017722381 0.008824031 0.012463039 0.021161668
0.013822319 0.0015184424 -0.0034741734 0.007103263 0.001925962 0.018820217 0.0169951 0.020606587
0.029902883 0.026244706 -0.0026269937 0.025643075 0.012645046 0.011764357 0.023353275 0.014460745
-0.0028569235 0.015078605 -0.0064232694 0.02008784 0.023545448 0.020122876 0.0012000042 -0.0014240224
0.024311053 0.016370943 0.013259691 0.025089888 0.017960439 0.00058796635 0.012471397 0.006294041
0.0076211835 0.0060206125 0.009908603 0.018149855 0.0015350404 0.031927504 0.019410891 0.011481337
0.0028642332 0.024136014 0.010483217 -0.0032658626 0.0324407 -0.0025489544 0.018100785 0.02248123
0.028159376 0.033720467 0.018698929 0.02017713 0.024339592 0.024019578 -0.019007338 0.013569062
0.004991639 0.0043793195 0.020673873 0.019770458 0.005420466 0.023035478 0.0043517035 0.023110177
0.00093228364 0.00087021076 0.0016704304 0.017512688 0.01668696 -0.015274608 0.02900963 0.0014572482
0.025854897 0.018977625 0.002864748 0.02421916 0.016990066 0.012102516 0.0022321867 0.022518389
0.018106826 -0.007667195 0.018945437 0.011376189 0.016304689 4.403532e-05 0.023238875 0.03566878
0.011022724 0.0021389292 0.018881341 0.011313392 0.02879539 0.0046727923 -0.01723226 0.0017258931
0.024526762 -0.00618094 -0.006365044 0.016361184 0.009836064 0.0239547 0.0053265714 -0.0037974268
-0.007878067 0.029077549 0.007173135 0.00027479627 0.018885607 0.01573914 0.013052036 0.025118385
-0.003894878 0.011712316 0.029500565 0.025592837 -0.009418433 0.0013392242 -0.00679136 -0.01573315
0.020719077 0.014948777 0.014014678 0.011881512 0.004407142 0.026121303 0.0015670888 0.008330631
0.025023967 0.013839315 0.025060743 0.0055715567 -0.0047421665 0.0026224595 0.0009401706 0.010493366
0.01688742 0.022083635 0.017355599 0.024440784 0.03223067 0.01966487 0.012411959 0.008428384
0.018167872 -0.0042833695 0.015076677 0.0100483345 0.01077856 0.01755092 0.01830972 0.032942884
0.0099569075 0.033479538 0.00839585 0.017640524 -0.0026703107 -0.0026097253 0.015085576 0.015637076
0.0069706314 0.004663352 0.0050844625 0.026901944 0.008918213 -0.0029235953 0.0062643928 0.015783029
0.02165855 0.004570715 0.012909627 0.018055474 0.015235196 0.0038267905 -0.0019089268 -0.0044914107
0.004824586 -0.01113498 0.020149797 -0.005101942 -0.009666554 -0.0069847205 0.0002952643 0.012373182
0.014617988 0.02195674 0.021994038 0.009222155 0.014522941 0.015864003 -0.019713689 -0.0035453953
0.006450722 0.005274769 0.010908156 0.0055594705 0.036745332 0.005895999 0.01753202 -0.000781762
0.012330347 0.007653631 0.0061499444 0.008783461 0.0104857655 0.0012329048 0.015930481 0.017425504
-0.0038528664 0.032384887 0.0030504954 0.031509224 0.0132280355 -0.015080953 0.006359405 0.021536993
0.010378313 0.022423543 -0.013951699 0.021327745 0.013696875 -0.016775861 0.021447726 -0.001230449
0.016003221 -0.013157001 0.007858058 0.011171148 0.015690394 0.0006966333 0.02423553 0.010866738

network_body._body_endoder.seq_layers.0.weight f4 [256, 74]
00000000: 9e9e 5ebe 9d65 adbd df50 15be f6b3 bebd
00000010: 86ea 8cbe 35ae f63d e9f1 c63d 1089 463c
00000020: c3f7 723e b97b 98bd ba61 563c ed18 10be
00000030: a5d1 88bc dbf8 5e3e 3508 803d 7b39 6abe
00000040: b8e5 0a3c 8a90 9ebd 5f56 b13d 63ec 733e
00000050: 3ceb 15bd 4844 ecbd 409e f33d 642a 093d
00000060: 621a 443e ded8 923e 35c6 32bd 83a7 873e
00000070: c556 013d 1f18 c3bc a4af 323d 0c92 15be
00000080: df9b df3d 8d51 97bd 2b94 d93d ccf5 febc
00000090: e22e 06bd fd15 42be 6a39 e5bd 69b0 1d3e
000000a0: beae 5e3c 00c9 cbbc 6b49 073e d684 8c3d
000000b0: d214 953d d8b7 93bc 21fe e0bd c169 ecbd
000000c0: 38e8 c53c 5d51 9cbd 9534 eabd 4f2e a83d
000000d0: 7e1e f83d 6c3a 02be 9850 e1bc fc41 36be
000000e0: a4f4 a43d 0cb9 683e 835f 853d 0d80 97bc
000000f0: 13df f8bd b322 663d a8ac 0d3e 77d4 b9bd
00000100: 930f fa3d 196e 3fbd 8f1b a43d 2e07 36bd
00000110: f715 3ebd 2ba1 303d d69c 96be aa54 89bd
00000120: 946e 9a3d 5a02 1a3e 54f0 373a 8297 49be
00000130: ebb5 dfbc 08ce a2bc 067f 5bbd 2eab f43d
00000140: 8915 3bbd 063b 4cbd 4fb3 5e3d 9a40 dfbd
00000150: 6c42 aebd ed07 81bd e6ae 923e 6a6f 41be
00000160: c188 193d bf87 ce3d 7487 9b3d a30e cabd
00000170: 434e 9fbe 7e6a 03be edc5 983d d4b3 6d3d
00000180: 3294 2bbd d07b 243d c423 26be 4e4e c5bd
00000190: 5998 9c3d e206 82bd a7e6 893c 45c8 91bc
000001a0: 8080 423e 7a92 8ebe 6d1b 6c3b 6c12 06bd
000001b0: 39ab f33d 6be3 f43d d4ae 03be 036d 263d
000001c0: bea1 f23d 1154 8b3e 0cf5 eebd 6ec3 f8bc
000001d0: 314a 01bd c74b 58bd 4c4c 293c c260 ab3d
000001e0: 991f c33d adc1 f2bd c007 00be 0f9b 58be
000001f0: 92e5 fdbc eeff 7fbd 51d9 f43d e335 02bd
00000200: 35fe 183d ee30 23be 7a63 f7bd 9f14 ea3d
00000210: c043 353e df35 b33c fa18 493c 4fdb 31bd
00000220: 09e2 923d cd37 973e 98d0 4b3e c555 e2ba
00000230: ef1e 933c 3601 a6bd 6288 203c 8b34 4cbe
00000240: 341d 2a3e 31a6 b5bc db83 b73d 0129 74bd
00000250: 8875 49bd b3ab 2a3d 7feb fd3c 5502 103c
00000260: fbb5 04be 5d99 8bbe 074c 25bd 5731 bdbd
00000270: 6b43 40bd d222 123e b9b5 c0bd 33f1 123e
00000280: 1974 f53d b9ff 8d3e 23e8 383b 4ca1 8f3e
00000290: 0a08 6ebd c8bf 963d 69c0 fa3d cf4a 6cbd
000002a0: 57b0 b43c 0926 bdbd ced4 663c f155 4f3d
000002b0: d3cb 0dbe 690c b1bd b48b ff3c 9f6c 17be
000002c0: ccb8 b83d 09ca 9cbe 0683 9e3d eb6a 513d
000002d0: 027f d3bd 4022 083e 144d 09be 0180 8ebd
000002e0: b6f6 553b bd3d 0fbe 911f 5a3b 652e 68be
000002f0: 8bba d23d c436 d4bd f01d 8b3c 27d1 ecbd
00000300: aed9 e03d 5d58 143e aae3 073e 8306 f43b
00000310: bb91 5fbd 2fe0 fdbb 38ac 11be 7610 5a3d
00000320: dea2 0abe 1abb 0fbe 7cf9 82bd bc5f 86bd
00000330: 6c1c f93d b39a 0abe 2480 473e fc24 023d
00000340: 6e1a 41bd 4a76 053d 3208 00be f0bc c7bb
00000350: 0cc7 b9bc e170 223e 71fb 4d3d 5d2e 673b
00000360: 97ab 033e 5c75 e1bd 53c5 49bd 3558 183d
00000370: 8c3b ad3c eef1 c43e 06dc a83d 42d6 36be
00000380: 232a 2d3e 7512 e03c 6a2b a33d ea8b 023c
00000390: 0ee8 bf3d 2817 65bd 591e 0cbe 22aa 86bd
000003a0: 7c8e f0bc aff8 47be fe45 e9bd cb3b 273e
000003b0: 97b7 f73d 96e1 30be 56d8 39be 5d83 87bd
000003c0: eb22 013b 8758 4abe 96f9 c9bd 4f33 c23c
000003d0: 0193 c53c d72f 37bd 04b5 abbd 81a5 53bd
000003e0: 33cd 0abe 761e cbbd f615 b8bd ef99 303e
000003f0: 03f0 a73d 5a91 c1bc 0d13 e23d 431a 02bc
-0.21740195 -0.08466647 -0.14581631 -0.093116686 -0.27522677 0.12044946 0.097141095 0.012117639
0.23727326 -0.07445473 0.013084823 -0.14072008 -0.016701529 0.21774618 0.06251565 -0.2287349
0.008477621 -0.077424124 0.08659052 0.23820643 -0.03660129 -0.11536461 0.11895418 0.033487692
0.19150689 0.28681082 -0.043646056 0.2649499 0.03157689 -0.023815213 0.043624535 -0.14606494
0.10918402 -0.073886015 0.10623964 -0.031123064 -0.032759555 -0.189537 -0.111925915 0.15399326
0.0135914665 -0.024876118 0.132116 0.06861274 0.07279362 -0.018032 -0.10985971 -0.115436085
0.024158582 -0.07632706 -0.114358105 0.08211958 0.12115191 -0.12717599 -0.02750425 -0.17798609
0.08054474 0.2272684 0.06512358 -0.018493677 -0.12151923 0.056185436 0.13835394 -0.090737276
0.12210002 -0.046735857 0.08013069 -0.04444044 -0.046407666 0.04312245 -0.2941653 -0.067056015
0.07540622 0.1503996 0.00070167077 -0.19686702 -0.027308425 -0.019873634 -0.053587936 0.119467124
-0.045674834 -0.049860977 0.05437022 -0.10900994 -0.08508763 -0.0630034 0.28649062 -0.18890157
0.037483934 0.10084485 0.07594195 -0.09866073 -0.31114396 -0.12833592 0.07459626 0.058032826
-0.041889377 0.04015714 -0.16224581 -0.09634076 0.076462455 -0.06348969 0.016833616 -0.017795691
0.18994331 -0.27846128 0.003602709 -0.032732412 0.118978925 0.11957439 -0.1285966 0.040631305
0.11847256 0.27212575 -0.11667833 -0.030366626 -0.031564895 -0.052806642 0.010333132 0.083680645
0.09527511 -0.11853347 -0.12502956 -0.211529 -0.030993257 -0.062499933 0.11955512 -0.03178967
0.037351806 -0.15936634 -0.120795205 0.114297144 0.17701626 0.021876274 0.012274021 -0.04342204
0.07172019 0.2953476 0.19903791 -0.0017267993 0.017959086 -0.081057 0.009798141 -0.19941919
0.16612703 -0.022173973 0.08960696 -0.059609417 -0.049184352 0.04166765 0.030996082 0.0087896185
-0.12960045 -0.27265444 -0.04035571 -0.092379265 -0.046939295 0.14271095 -0.09409661 0.14349823
0.119850345 0.27734163 0.0028214536 0.28052747 -0.058113135 0.07360798 0.122437306 -0.05768853
0.022056742 -0.0923577 0.0140888225 0.05061907 -0.13847284 -0.08644945 0.031194545 -0.1478753
0.09019622 -0.3062289 0.077398345 0.051127356 -0.10326959 0.13294315 -0.13408309 -0.069580086
0.0032648272 -0.13988395 0.0033282975 -0.22673948 0.102894865 -0.10362008 0.016982049 -0.1156333
0.10979019 0.14486833 0.1327044 0.0074470653 -0.05458234 -0.007747672 -0.14225852 0.053238355
-0.13538691 -0.14036217 -0.063952416 -0.06561229 0.12163624 -0.13535576 0.19482476 0.031773552
-0.047144346 0.032583512 -0.12503126 -0.006095521 -0.02267792 0.15863372 0.05028862 0.0035275437
0.12858425 -0.11008713 -0.04926045 0.037193496 0.021146558 0.38465828 0.08245091 -0.1785517
0.16910605 0.027352551 0.07967265 0.007967928 0.09370433 -0.055930287 -0.13683452 -0.06575419
-0.029364817 -0.19528459 -0.11390303 0.16331403 0.12095564 -0.17273554 -0.18148932 -0.066168524
0.001970465 -0.19760333 -0.09862058 0.023706106 0.024117948 -0.044723358 -0.08384135 -0.05167151
-0.1355484 -0.09917919 -0.08988564 0.17246221 0.082000755 -0.02362888 0.1103879 -0.007940832

network_body._body_endoder.seq_layers.2.bias f4 [256]
00000000: 3c31 0d3d ba3c 963c f2b7 cc3c ac79 4a38
00000010: fc2d 923c d2f1 413c 2849 073b 81a0 8f3c
00000020: 7f28 153c d567 ca3c 1c85 413c a817 903b
00000030: 48ab 163d 4277 d33b b244 933c a1eb 3e3b
00000040: 4294 65bb ff2e 0abc da52 363c b4ad 73bb
00000050: 70c5 9a3a 18df 363c eb70 da3c 0a8f febb
00000060: fc43 143b 22aa ce3c 8366 18bc 41ff a83c
00000070: 0af1 0e3c 52ba 813c 3bd4 a03c cbe6 953c
00000080: 76a6 6a3c 205c 80bc c00f 31ba 61f4 88bb
00000090: d5a2 58bc a1f7 773c da96 a43c 5b63 ae3b
000000a0: 67af c73c 73ed 993c f45c 97bc f031 4abb
000000b0: 2865 d23c c214 863c 0f12 8fbb b559 4a3c
000000c0: f88f 69bc e5cc 2d3c 8b54 a0bb 9798 8b3b
000000d0: 1941 4b3c 1569 953c d259 d63b f968 893c
000000e0: 2662 d3bb b2d4 913c 4918 ea3b 5ec5 cfbb
000000f0: dbbe 433c 7e15 3b3a 69d9 4a3c 85c1 b53a
00000100: 9d6d cc3c 41bf 26bb e1d6 213b 2d2a 0a3c
00000110: 1e0e a63c 5b6d 093c dd44 0b3c 3315 9bba
00000120: 6b67 313c e245 983c 5d60 933c a290 813a
00000130: ca41 e13b 55a4 663c 2b67 9cbb 2c52 0abc
00000140: a260 443c 997a b33b 7432 af3c 8629 43bc
00000150: 3f31 933c 8678 613c c7e0 42bc 406f c53b
00000160: b5a7 a7bb 164a d83c 299c 05bb 5483 2cbb
00000170: 1ed2 3c3b 7a9d a73b d158 8a3c b937 ee3c
00000180: a6ea b8bb 21fb 7a3b 2519 fdba 6001 05bc
00000190: 345b 41bc fe83 f33b 3dfd 3a3c 5b4e 013c
000001a0: 5e06 963c 17ca b33c 3c7e c73b 5a3b a23c
000001b0: d282 ddb8 b382 b93c 320b 23bb de01 693c
000001c0: e9f1 a13c 85ab 613c 40c0 623c 19dd da3b
000001d0: 07fa 72bb 59ed 673c 0976 903c 8283 743c
000001e0: b6d4 acbb 1444 9f3c aafb 1c3c f4b3 283c
000001f0: 3849 f53b 67b3 063c 5521 973a 7063 aabc
00000200: cbb4 583c 2c3d 9d3b 2be1 673c 6758 f6ba
00000210: ee9a 953c 2c2d 2ebc 0b40 2d3c da26 a53c
00000220: ca23 09bc 1b0d 573c 8fb1 833c 32a8 aa3c
00000230: 41c9 cc3b af43 cfbb d390 87bc e5ac 33bc
00000240: 5276 eb3b 46b8 edbb 1eb2 09bc 2581 c93c
00000250: 2582 27bc d0fc ba39 b595 ed3a 9d76 423b
00000260: d234 9e3c 08be 2d3c 0f73 b33c cc9b fa3c
00000270: a376 8b3c 60a7 29bb 43bd 983c 385f b0bb
00000280: cc61 3b3b d5f7 f2b9 0956 8f3c b131 1b3c
00000290: 8ead 41bb bbff 06bc 9418 983c 9119 5cbb
000002a0: a462 e9bc 9408 6e3c 174d 7b3c 6e89 0e3c
000002b0: 5242 3f3c 4883 823c 34cc a53c 54ae 973c
000002c0: 6791 c03c 9095 0b3c 5fc6 253b 028c ed3b
000002d0: e314 c03c 56d9 ee3b d876 d93b 315b 8a3c
000002e0: 5d8c ba3c 07f2 a33c 09a3 d93b a008 493c
000002f0: d093 ae3b 66e3 3fbb 3506 b73b 44db 0f3b
00000300: 9c16 b7ba 0fd9 803c f2f4 9e39 ae33 c4bb
00000310: d280 82bb 6f18 8a3c 6813 1f3c cc35 863c
00000320: 8bc6 a73b a020 28bb 129b 933c 57ec d9bb
00000330: 90c0 01ba d264 883c d10b 093c aa9b be3c
00000340: 576d ca3b d1a6 c1bb da71 0d3c a630 0539
00000350: 6b9b ce3b 542b 963c a076 223c d68a 163b
00000360: 2184 cb3b edf5 30bb 6434 c23c 6644 2bbb
00000370: 62ce a03c eae9 8f3c 012a 543c 2d67 833c
00000380: 4a36 a1bb e2e8 c33c f640 a33c a41a a93c
00000390: 04f4 eb3c 558f d43c 95b7 c23b ac70 c13c
000003a0: 5518 b73b af54 c03c f4f9 b03c 11e4 a23c
000003b0: 09c1 29ba b6bd 1ebb cfda 973c 1a7c 153c
000003c0: baa5 913c ca4f 88bb f238 203c 4f06 013c
000003d0: ec54 6eba 3401 1ebb fbf3 493c 1251 e9bb
000003e0: bf8c e2bb 7132 9d3b 2c3d 723c d50e 683c
000003f0: 31ba 1c3c 7f4e 493c ebfd c63c c50a 87bc
0.03447078 0.018339504 0.024990056 4.827387e-05 0.017844193 0.01183744 0.002064297 0.017532589
0.009103893 0.024707714 0.011811521 0.0043973513 0.03678444 0.0064534256 0.017977092 0.0029132145
-0.0035030995 -0.008434056 0.011128152 -0.0037182393 0.0011808109 0.011161588 0.026665172 -0.0077685164
0.002262353 0.02522761 -0.009301784 0.020629527 0.00872446 0.015835915 0.01963245 0.018298527
0.014321914 -0.015668929 -0.0006754361 -0.004179523 -0.013222416 0.015134723 0.020091463 0.0053219027
0.02437563 0.018789982 -0.01847694 -0.003085252 0.025683 0.01636732 -0.0043661664 0.012350489
-0.014255516 0.010607933 -0.004892891 0.0042601335 0.012405657 0.018238584 0.006541469 0.016773688
-0.006450909 0.017801616 0.0071440083 -0.0063406667 0.011947359 0.00071366865 0.012380936 0.0013866877
0.024954611 -0.0025443586 0.0024694728 0.008432907 0.020270403 0.008387889 0.008500305 -0.0011831879
0.010827879 0.01858801 0.017990286 0.0009885023 0.0068742977 0.014077266 -0.004773041 -0.008442443
0.01198593 0.0054772613 0.021386363 -0.011911755 0.017967818 0.013761645 -0.011894411 0.006025225
-0.005116428 0.026402514 -0.0020387268 -0.0026323395 0.0028811763 0.005115208 0.016888054 0.029079305
-0.0056432066 0.0038296657 -0.0019309862 -0.008118004 -0.01180153 0.007431506 0.011412916 0.007892217
0.018313583 0.02194695 0.0060880464 0.019803692 -0.000105624684 0.02264533 -0.00248785 0.014221637
0.019768672 0.013773804 0.013839781 0.006679189 -0.0037075297 0.014155709 0.017634409 0.014923932
-0.0052743806 0.019441642 0.009581486 0.01029681 0.007485535 0.008221484 0.001153032 -0.020799369
0.013226698 0.004798552 0.014152805 -0.0018794656 0.018262353 -0.010630887 0.010574351 0.020160127
-0.008370349 0.013125683 0.016075877 0.020832155 0.0062495773 -0.006325207 -0.01654855 -0.010966514
0.0071857357 -0.007254633 -0.008404283 0.024597714 -0.0102239 0.00035665045 0.0018126281 0.002967275
0.019312296 0.010604389 0.02190545 0.030591868 0.017024344 -0.0025887117 0.018644935 -0.0053824447
0.0028592227 -0.00046342486 0.01749708 0.009472297 -0.002955291 -0.008239682 0.018566407 -0.0033584575
-0.028489418 0.014528412 0.015338204 0.008699758 0.011673527 0.01593174 0.020238973 0.018515743
0.023506833 0.008519545 0.002529524 0.0072493562 0.02344746 0.007289092 0.0066364817 0.016889187
0.022772009 0.020012869 0.0066417498 0.012270123 0.005327679 -0.0029279827 0.0055854567 0.002195076
-0.001396853 0.015728502 0.00030318607 -0.005987606 -0.0039826417 0.016857354 0.009709217 0.016383074
0.0051201037 -0.0025654212 0.01801828 -0.0066504884 -0.00049496535 0.016649637 0.008364634 0.023267586
0.006177585 -0.0059097786 0.008633101 0.00012701991 0.0063051484 0.018331207 0.009915978 0.0022970936
0.0062108194 -0.0027002052 0.023706622 -0.0026133298 0.019629661 0.017567594 0.012949468 0.016040409
-0.004919802 0.023914758 0.019928437 0.020642586 0.02880288 0.025947252 0.005942295 0.023613296
0.0055876174 0.02347788 0.021603562 0.019884141 -0.0006475603 -0.0024221963 0.018536953 0.009123826
0.01777922 -0.004159902 0.009779202 0.007875039 -0.0009091634 -0.0024109604 0.012326236 -0.00712026
-0.006913751 0.004797273 0.014785092 0.0141636925 0.009565876 0.012286781 0.024291 -0.016484628

network_body._body_endoder.seq_layers.2.weight f4 [256, 256]
00000000: eab4 bb3c 43c4 6c3d 7545 9339 9aa9 d43d
00000010: a5c3 07be 9394 43bc 62e3 b9bc 853e febd
00000020: aae4 393d 5c4a c23b 24a8 b23d 3bd7 fbbc
00000030: 95ea 20bd 0d34 fb3a f241 c53d 3ba8 50bb
00000040: a4d4 e93c 2ed6 bb3d 4638 9dbd ebf7 943d
00000050: 7447 9d3a 37e1 f7bc 739e c23d f7fd 7f3d
00000060: a393 7dbd 92e1 8e3d 722c 433d cb26 94bd
00000070: e282 24bd be79 99bb 11e8 c33d c6c7 0cbd
00000080: 9ed7 6f3d ce03 55bd 89ee a53d dda7 22bc
00000090: 301b 67bd f3ca 9a3d f226 693d bc86 61bd
000000a0: edfc 02bb 4a22 053e d3f7 893b 7e90 e03c
000000b0: c2c2 4cbd e889 8d3d 6d60 2f3c 32c6 c23a
000000c0: 424e b9bd 6439 7fbc 67e8 33bc fb67 cd3d
000000d0: 9084 9b3d 804d 83bc 774c 5f3c 685b 943d
000000e0: 5de5 183c 99c0 6d3d cfae e93d cf64 fe3d
000000f0: a812 533e 9a41 89bd da1b 863c 5a8c 693d
00000100: 02c2 f3bd 5cbb d3bb 752d 563d 0a5c 453d
00000110: aef3 063d 2683 db3b 192d 43bd 649b 4abd
00000120: 945b 003e 1aa5 c43d d382 ae3c 98a0 fb3d
00000130: bc09 8dbd 1483 3abc 171b a2bc e2d4 4cbd
00000140: fb82 403d c771 393c 6a23 013e a016 c4bd
00000150: 0744 ae3d 978f 133e 4261 93bd 6688 e03d
00000160: e515 a1bc dc5f a33d 981f 0c3d 3862 abbc
00000170: a261 083e f25c 1a3d 9c63 26bd b07e a2bd
00000180: 15c8 0a3d 60c8 d3bd 3d8d 583d d810 d33d
00000190: aef1 00be f68d 973d 2402 583d 08e0 cc3d
000001a0: 8cab 0ebd 6f13 633d a85e aebb 32f9 6b3b
000001b0: b723 833d f631 4bbd 0204 27bc 5c18 013e
000001c0: 400c 52bd 00c9 123c b714 8ebd 7d83 cbbd
000001d0: df93 15b9 abde ae3c 553d 5dbd 091e a83c
000001e0: b9bc 673d 6c4b cabd 88ff 8eba 8c83 24bc
000001f0: 2003 65bd 25af 8c3d 082d 0d3e 43ba 303d
00000200: ba29 a4bc d0d2 983c 1c89 953d 4823 6cbd
00000210: 9d1a 9f3c ce73 5d3d 29fa 7c3c caa7 44bd
00000220: 4ecb a6bb dc52 023e 694a efbc 4b36 d73c
00000230: 62da b8bd 46c3 06bc 6ea1 a9bc cf5c d1bc
00000240: d8c3 37bd 3402 16bc 4379 18bc 5619 973c
00000250: a6d4 ccbb b4a9 013e 468e 44bb 1ce3 983d
00000260: 84a2 1ebe 089f 073e 053f a23d 4919 ccbc
00000270: a336 973d e49d c43d 6089 9e3c 7b45 52bd
00000280: 1b15 a43b b86f 15be 2d8f 3c3e 35d1 50bd
00000290: 976f 82bd 644e b53d 8054 e03b c439 403d
000002a0: 0329 883d e48f be3c bdb5 7c3d df33 b3bd
000002b0: 5fb3 09bd 6e34 03be de8b e13b 0b4a e7bb
000002c0: bcc2 d83c 02bb e7bd 42f4 29bd efe3 183e
000002d0: 9d1a 0b3d 5833 e6bd dd03 f2bd 96fa 8c3d
000002e0: 2b49 a63d 70dc f33c 57d3 213e d520 98bd
000002f0: 9ffa 12be 04ca 9a3c 4542 913d c352 8fbd
00000300: 4b6a 293b 88a8 363d 7d67 76bd 91a4 ad3d
00000310: 2b13 94bc b9e0 723b 7872 6d3d 2373 c8bc
00000320: 6e53 90bc 1c71 1dbd 348d 433c 9ddf 3ebc
00000330: cd8e a9bc af8f 9a3d 5ad0 49bd 1f15 4bbd
00000340: 27ac 2bbe cf0a 913d 270c e3bc 9fb1 a2bd
00000350: e49d 9f3c d073 1cbc 7bfd 693d 5996 2c3c
00000360: 56a3 733d 1023 253d 4801 96bd 801e e93c
00000370: ba43 d93d 33f8 aebc f211 e53d f73a ddbd
00000380: 9a5d b53d c077 aabd abd5 f93b c99a 7a3a
00000390: bc81 9cbc 9f18 df3c c599 023d 2b83 1b3c
000003a0: 31c4 473b 13a5 583d 3985 e13d 4fb0 ba3c
000003b0: 0c61 a8bc 506e 4d3d 9241 31bc d9e5 7fbd
000003c0: f7e8 8dbd c095 5e3d 6570 cdbd 2824 42bc
000003d0: 49c3 603c a7d3 6abd b87a f93b 93c2 cabd
000003e0: 21ba 11bd 6e1d e33b b906 3fbc c094 a4bb
000003f0: 2c55 b93c c6e7 c53c 1925 013e f191 c73d
0.022913415 0.057804357 0.00028089774 0.103839114 -0.13258226 -0.011937278 -0.022691432 -0.124142684
0.045384087 0.0059292745 0.087234765 -0.030742278 -0.039286215 0.0019165293 0.09631719 -0.0031838554
0.028543778 0.09171711 -0.07676749 0.07273849 0.0011999444 -0.030258758 0.09502878 0.06249806
-0.061908375 0.06976618 0.04764981 -0.07233962 -0.040163882 -0.0046837023 0.095657475 -0.034370206
0.058555238 -0.05200558 0.081021376 -0.009927717 -0.056422412 0.07558241 0.056921907 -0.055060133
-0.0019987181 0.13001361 0.004210451 0.02741265 -0.049990423 0.06911069 0.010704142 0.0014860092
-0.090481296 -0.015577648 -0.010980702 0.10029598 0.07593644 -0.016028166 0.0136290705 0.07243997
0.009332028 0.058045004 0.11410295 0.124215715 0.20612586 -0.06701966 0.016370703 0.057018615
-0.119022384 -0.006461544 0.052289445 0.04818348 0.032947235 0.0066989837 -0.04765043 -0.0494646
0.12534934 0.09601803 0.021302616 0.1228649 -0.06886622 -0.0113837905 -0.019788308 -0.05000771
0.046999913 0.011318631 0.12611166 -0.09574628 0.08509069 0.14410244 -0.07196285 0.10963516
-0.01966376 0.07977268 0.034209818 -0.020920858 0.13318494 0.037686296 -0.04062234 -0.0793432
0.03388222 -0.10340953 0.05286907 0.10305947 -0.12592193 0.07400124 0.052736416 0.10003668
-0.03483157 0.055438455 -0.0053213425 0.0036006686 0.064032964 -0.049608193 -0.010193827 0.12606949
-0.051281214 0.008959055 -0.06937545 -0.09937189 -0.00014264834 0.02134641 -0.05401357 0.020522134
0.056576464 -0.09877667 -0.0010909894 -0.010041129 -0.055911183 0.06869344 0.1378671 0.043146383
-0.020039428 0.01865521 0.07301542 -0.057650834 0.01942187 0.054065518 0.015440502 -0.04801158
-0.005090154 0.12726921 -0.029210286 0.026271006 -0.09026028 -0.008225268 -0.020706858 -0.02555695
-0.044864506 -0.009155799 -0.009306255 0.018444698 -0.0062509356 0.12662393 -0.0029992028 0.07465193
-0.15491682 0.1324426 0.07922176 -0.0249144 0.07383468 0.09600428 0.019352615 -0.051335793
0.005007399 -0.14593399 0.18413992 -0.050980765 -0.0636894 0.088528425 0.0068460107 0.04693009
0.06648447 0.023261972 0.061696757 -0.08750128 -0.033618327 -0.12812969 0.0068831285 -0.007058387
0.026460044 -0.11314966 -0.041492708 0.149307 0.033960927 -0.11240262 -0.11817143 0.06883733
0.081194244 0.029768199 0.15803276 -0.07428137 -0.14353417 0.018895157 0.07092718 -0.069982074
0.002585071 0.044594318 -0.060157288 0.08478654 -0.018075546 0.0037060215 0.057970494 -0.024468964
-0.017617907 -0.038437948 0.011935521 -0.011649993 -0.020697976 0.07546937 -0.049270965 -0.04958069
-0.1676489 0.0708214 -0.027715756 -0.07944035 0.019484468 -0.009549096 0.057126503 0.010533893
0.05948194 0.04031664 -0.07324463 0.028456926 0.10608621 -0.021358585 0.111850634 -0.10802262
0.08855744 -0.08323622 0.007624348 0.0009559808 -0.01910483 0.02723342 0.031884927 0.009491722
0.003048193 0.052891802 0.11011738 0.022789149 -0.020554088 0.05015403 -0.010818856 -0.06247506
-0.069292 0.05434203 -0.10031203 -0.011849441 0.013718435 -0.057330754 0.007613506 -0.09900393
-0.035577897 0.0069309985 -0.011659318 -0.005022615 0.02262362 0.02415837 0.12611808 0.09744633

network_body._body_endoder.seq_layers.4.bias f4 [256]
00000000: 801c 9739 04aa bf3c 3784 143b 9e80 a83c
00000010: 3790 013c 5b9e a53c b2d6 f73b 10c4 6dbb
00000020: 2b2c a93c aead a23c 33ad 623c fddb ae3c
00000030: 82ef 923b 755e 893c 2c4b be3c 284e 973c
00000040: 17c2 d33c a9e5 dd3c aaa7 5c3b 7873 9c3c
00000050: 0f79 143a 7644 16bc ec4f b13b c4da 883c
00000060: 8535 aa3b 8f56 b43c f5a2 00bc 273d c03b
00000070: 21db 923b 378d 923b 1fb7 f6bb 9a4e 963b
00000080: 6080 3f3b 0673 713b 47b9 b63c 9bb2 eb3b
00000090: db5b 013c cf30 d13a 325a 403c d25f 963c
000000a0: 6f64 983c 6e01 4a3a 38a5 6c3c c749 b5bb
000000b0: 8ee5 d73c dd14 b23c 49a0 283c e4e9 b23c
000000c0: 368a 463c ec9a 993c 1f17 773b 2563 bd3b
000000d0: 4783 863c cd76 ae3c 485a 4eba 7515 8d3a
000000e0: 5687 d63c 014e 8c3c 92d0 553c f74d df3b
000000f0: e2de 3d3c f1cb 5a3c 3b7a deba 60d9 263c
00000100: 9063 a43c 3c50 ce3c 45dd b73c e894 cc3b
00000110: 2f2a ac3c 033f 4d3c 50a9 ac3b 2aca 8b3b
00000120: 5677 b03c 0f84 593c c021 903c 4918 6f3a
00000130: 8568 d03c c4f0 bb3c 549d 7f3c e42c a13c
00000140: b480 743c df58 84bb da11 a93c 881c 0a3b
00000150: 61ae b4bb 8033 993c c736 e33c 39d5 a23c
00000160: cedc a23c d62d 173c 4145 783a f486 6e3c
00000170: 3eba 233a ca9f 8f3c f7e9 ab3c 9c95 6e3c
00000180: b45f 9e3c f445 073c 80d3 d83b 4a8c 903a
00000190: e909 3d3c 3427 80bb a39d 383c 6ea0 fb3a
000001a0: 1353 853c 9209 673c 7f64 ae3c 3cc6 de3c
000001b0: 3c15 2a3c 8aa2 9f3b 14c6 c33b c9c0 d23c
000001c0: c734 243c 1b37 fa3b b5e9 483c 3929 053c
000001d0: b80b 0f3b 43d1 a93b 6845 8e3b 50f0 aa3a
000001e0: d924 a83b 965b 053c dd7b 7e3c 2f4c 923a
000001f0: c026 a63b 1c2c 4f3b 0fb0 623b 1587 f43b
00000200: fa9f c93c 20e8 ad3c 8013 893b 8bff 2d3c
00000210: 30e8 8d3a 6ac3 a43c 12d0 09bc dbb0 583c
00000220: 5999 023c 02ea a43c c78d 5fbb 81a4 bf3c
00000230: 4bd9 a43c 5897 b03c a380 713c 3f52 f3ba
00000240: ab84 023c 410d 05bc 77d2 863c 14ac a03c
00000250: 61e2 be3c e458 e3bb 85f3 ca3b 604f a63c
00000260: cf32 843c 3ea0 9f3a 7707 b03c 3e64 753c
00000270: 3c5e 1f3c 32f1 6d3c 6476 b23c e033 bf3c
00000280: ab42 c8ba bfa1 a83b 1e75 d33c 37f7 e33c
00000290: 82a5 473c 61b2 533c b10a 543c 2f86 8a3c
000002a0: 42f9 cdbb b958 913a b528 d83b e712 9b39
000002b0: 205a 063b 67a5 c63b 9ddc 8fba a1fc 093c
000002c0: 0e78 4fbb a5c0 a73c 55d3 013c 4344 353c
000002d0: f9e7 db3b c51b a83b 9a2d ab3c 149b f93b
000002e0: 4658 563b 816b 8d3c 0ad4 df3b 2b62 79bc
000002f0: 63d5 ad3c fcf3 173c 2127 bf3c 3b4c 0e3c
00000300: e3fc c53c f23a 4cbc e9be ce3c d77a d13b
00000310: 677c e73c 1f57 cb3b e141 87bb 9976 0d3c
00000320: 5bfd 9a3c 489b 183b 5fa2 d93b 9843 3c3c
00000330: d58d 993c 358c 223c e06e ea3b cf51 b23a
00000340: c699 52bc d648 be3c 83dd 993c c3ba a53b
00000350: 136f d7bb 1fae a73c 5ef1 b73c bc56 c33c
00000360: d21a 85bb 1099 a23c 81cb 903c 930d e9b8
00000370: 23f2 943c 04a2 df3b 187f 503b 6e63 c33b
00000380: 6204 583c 88ad 4c3c c918 873c 073c e23c
00000390: 573b 223c 1f4d d13c b041 a6bb d269 833c
000003a0: 2f24 253c e520 fe3b c5c2 08ba ba54 9b39
000003b0: 4ce2 2e3b 2778 aa3b 735b 073c 327a 933c
000003c0: eff2 5d3c e1c5 c33b c10a bc3c 3931 be3c
000003d0: 6d3b 413c 4e04 943c 4cee 273c 09e9 d03b
000003e0: 11cb aa3c 046a c63c 71ff b43c 0ebd 803b
000003f0: bc8f 873c 16b8 e43c d0a4 873c 50de 6e3c
0.00028822199 0.0233965 0.0022661814 0.020569142 0.007907919 0.020217111 0.0075634355 -0.0036280192
0.020650944 0.019858208 0.013835239 0.021345133 0.004484118 0.016768673 0.023229204 0.018469885
0.025849385 0.02708705 0.0033669272 0.019098029 0.0005663791 -0.009171596 0.0054111388 0.016705878
0.0051943683 0.02201393 -0.007851352 0.005866665 0.0044816886 0.0044724005 -0.007529154 0.0045870068
0.0029220805 0.003684224 0.022305144 0.0071929223 0.007895435 0.0015959981 0.011740254 0.018356238
0.018602578 0.00077059015 0.014443688 -0.0055324766 0.026354577 0.021738464 0.010292121 0.021840043
0.012117913 0.01875063 0.003770299 0.005779641 0.01642002 0.021296883 -0.00078717293 0.0010763841
0.02618758 0.017127039 0.013050215 0.006814714 0.011588784 0.0133542875 -0.0016973683 0.010183662
0.020067006 0.025184743 0.022444377 0.006243337 0.021016208 0.01252723 0.005269207 0.004266043
0.021541279 0.013276114 0.017594218 0.0009120745 0.025440464 0.022941954 0.015601475 0.019674726
0.014923263 -0.0040389146 0.020638395 0.0021074135 -0.0055139516 0.018701315 0.02773608 0.019877063
0.019880679 0.009227237 0.0009470769 0.0145585425 0.0006245709 0.017532248 0.020985587 0.014562037
0.019332744 0.008256424 0.0066170096 0.0011028138 0.011538007 -0.0039109234 0.011268052 0.0019197592
0.016274964 0.014101403 0.021288155 0.027194135 0.010381039 0.004871671 0.0059745405 0.025726693
0.010022349 0.0076359636 0.012262751 0.008127504 0.0021827053 0.0051824166 0.00434177 0.0013041589
0.0051313457 0.008139512 0.015532461 0.001116162 0.0050705373 0.0031611985 0.0034589802 0.007462392
0.024612416 0.02122885 0.004183233 0.010620008 0.0010826644 0.020112712 -0.008411424 0.013225759
0.007971131 0.020131115 -0.0034111605 0.023393871 0.020123145 0.021556541 0.014740142 -0.001856394
0.007966201 -0.008120836 0.01645778 0.019613303 0.023301305 -0.006938087 0.0061935806 0.02030152
0.016137509 0.0012178493 0.021487935 0.014977513 0.009727057 0.0145228375 0.021784969 0.023340166
-0.0015278658 0.0051462348 0.025812682 0.027827842 0.012185456 0.012920947 0.012942002 0.016909687
-0.0062858174 0.0011089063 0.0065966495 0.00029577987 0.0020500496 0.006062198 -0.0010975782 0.008422048
-0.0031657252 0.020477602 0.007923921 0.011063638 0.006711003 0.0051302635 0.020895768 0.0076173637
0.0032706424 0.017263176 0.006830697 -0.015221159 0.021219915 0.009274479 0.023334088 0.008685167
0.024168437 -0.0124652255 0.025237517 0.0063928175 0.028257562 0.006205454 -0.0041277264 0.008634233
0.018919637 0.0023285914 0.0066416706 0.011490725 0.018744389 0.009921123 0.0071543306 0.0013604703
-0.012854045 0.02322809 0.018782383 0.005057664 -0.0065745204 0.02046877 0.02245396 0.02384507
-0.004062035 0.019848377 0.017675163 -0.00011112834 0.018181866 0.0068247337 0.0031814035 0.0059627807
0.013184639 0.012492545 0.01649131 0.027616514 0.009901843 0.02554947 -0.0050737485 0.01604167
0.010079428 0.007755386 -0.0005217011 0.0002962703 0.0026685176 0.0052023116 0.008261549 0.018002603
0.013546689 0.0059745167 0.022954347 0.02321683 0.011793953 0.018068459 0.0102496855 0.006375436
0.020848783 0.024220474 0.02209446 0.003928787 0.01654803 0.02791981 0.01655808 0.014579371

network_body._body_endoder.seq_layers.4.weight f4 [256, 256]
00000000: 4d07 703d 7238 4b3d 9b50 f03d 2d5f a93d
00000010: 8705 98bc 2bfe 48bd 7abe 023e 7b09 91bd
00000020: e210 1f3d 8a59 273d a322 2fbd f973 4c3d
00000030: 60f9 8d3a 41fe fd3c e772 a63c 4de1 36bd
00000040: 82eb 143e b331 043e 4ec6 0b3d 08aa 9b3d
00000050: 93c6 0ebd 7ffc a4bd aed1 eb39 bcd8 82bd
00000060: 7dc9 12bd cb46 0abc b199 ce3a f3be 7bba
00000070: b10c 82bd 514c cf3d 81b7 dc3c ff8f 9bbd
00000080: 367e 26bd 4753 053d 8329 333e 06bf 143e
00000090: f413 e3bd 3004 88bd bf5f fa3c fdf9 643c
000000a0: 8a23 283d c903 22bd 88b2 7f3d 5bfa 82ba
000000b0: 430f f33c f651 063b 3dd2 893a 2705 96bd
000000c0: 2833 a4bd 9e5d 2cbd 673c b8bd eb8d e0bc
000000d0: 633e f53c 8b74 19bd 0eab 1e3a a969 913d
000000e0: 2571 c93d 7f90 8bbc aac7 73bd 7ecb 32bc
000000f0: 9879 be3d ca41 113d bdf7 f5bb b8bf 6b3b
00000100: 99e0 913c 2f25 b6bd 8e3b 063d 6151 2a3d
00000110: 8511 0bbe 704f 57bc d02c dd3b 4248 6d3d
00000120: 5957 19bd 61b9 2abc 860d 9cbb c8f3 8d3d
00000130: 94b8 04bd f5f4 a5bd 45f7 f13a 908b b7bd
00000140: 3b39 643d 129e 233c 948f 8dbd 08b3 3f3d
00000150: 95a2 9f3c 10af 1cbe b681 24bc 6dae 353c
00000160: 6be7 913d 7841 1e3c b084 a23d 691d 0bbc
00000170: 6813 97bd 026a 20be 58d6 07bd 27e3 91bc
00000180: bde0 dc3c a489 4abd b1c8 863d 980e 19bc
00000190: d0b9 ad3c 6f59 e8bd 884b 003e 387e 203d
000001a0: 4784 13bd 1bf6 b7bd 4b0d 003e 6584 74bd
000001b0: 5493 3ebd d32a 54bd 395f 7b3d 4b8d 10bd
000001c0: 149b ab3d d2b2 3bbc f1ad 44be 5c6f 8fbd
000001d0: 8b9e 1c3d a533 083d 224a df3c 1307 a6bc
000001e0: 4395 58bd 2bf6 553d 27da cc3a 4bd1 b83d
000001f0: a8d7 903b 26e8 123c 29a9 db3d a5c4 11bd
00000200: dfea 043d 891f 193c 1edd 30bd ee1f 65bc
00000210: 62dc d43d 4eee 953d 0090 5d3d 5364 4c3c
00000220: 84fe 2ebc 0d39 1ebc e010 89bd aaa1 7abb
00000230: e7b0 e63c dc78 dd3d fd90 f0bc fb46 2fbd
00000240: a36f 943d a213 33bb a4fd 4d3d 4aa9 e03c
00000250: 4b62 e1bd ab46 ff3c e8b1 05bd d48e b0bc
00000260: 0d18 b3bd 6413 58bd b2b6 b63d 4baf 273d
00000270: b8c2 413d 2336 023d b714 2dbc 9c8f 87bd
00000280: 5196 1dbb 52f3 bf3d 6b17 fdbb 296a d6bb
00000290: aad1 133d a7c0 a83b 0494 48bd f54a d1bd
000002a0: 73e1 273b 4cbf b4bb 248b a0bc c49e 32bd
000002b0: 852f 0ebe 09e8 0f3d 5cc7 35be dcf3 d8bd
000002c0: b763 96bd 35d6 8c3b 55a4 32bd ba36 133d
000002d0: 5ada 07bc 9b77 c93d 2dd5 98bd b75a acbd
000002e0: b810 81bc e20e f13c a557 fc3d 881a 083d
000002f0: 5bf7 d63d 289f a13d c7e8 23bd 1d79 283b
00000300: bc6e 8d3d 5658 253e 8bdc a1bd d5df b13d
00000310: d45d 93bc fc0f 033d 2e60 c7bd 243d a8bd
00000320: 171c d8bd 1a01 c0bc 826a f53c 7dec e93d
00000330: a8fc 1abc 4b11 bebc 7b84 e43c 6e42 903d
00000340: ab88 9c3d e210 21bd c430 713d 690b 0c3d
00000350: 4790 743c ab2a 79bd 11cd 01bd 0273 0cbd
00000360: 41f6 c43d a05d e5bd 35f9 cdbd 5ff3 c2bc
00000370: 2ecc 0bbe a556 0c3d 5617 85bd 0707 21bd
00000380: 7c48 e33d 5692 063e 4a50 853d 117c ecbc
00000390: 9c9b 2cbd bf82 52be 1f41 b03c 9a0b 2b3e
000003a0: c3a0 98bc 7227 5c3d ca04 2ebe de02 bebc
000003b0: a432 90bc fb8c 193e f7c8 a6bd f3f3 48bd
000003c0: 7164 aebd 6c9d 213d a0af 5f3d 44ac 893b
000003d0: 9402 38bc 06e3 973d 21e2 15bd bcc4 23bd
000003e0: d444 903d 51cc 13bd 2956 4bbd b497 1b3d
000003f0: e68a 023d c9b4 67bd 6eaf 1ebd 262b 913c
0.058600713 0.049614377 0.11734124 0.082701065 -0.018557323 -0.04907052 0.12767974 -0.070818864
0.03883446 0.040856875 -0.04275764 0.049915288 0.0010831766 0.031005027 0.020318462 -0.044648457
0.14542964 0.12909584 0.034124665 0.0760079 -0.034857344 -0.08055972 0.00044978916 -0.06388995
-0.035836685 -0.00843973 0.0015762356 -0.0009603344 -0.06350077 0.10121978 0.02694297 -0.075958245
-0.040647708 0.032550123 0.17496304 0.14525995 -0.1108779 -0.06641424 0.030563233 0.0139756175
0.041049518 -0.03955439 0.06242612 -0.0009992825 0.029670363 0.002049563 0.0010514926 -0.073252015
-0.0801757 -0.042081468 -0.08995896 -0.027411422 0.029936975 -0.03746466 0.0006052711 0.07100231
0.09836034 -0.017036675 -0.059516586 -0.010912774 0.09300536 0.035463132 -0.0075063393 0.0035972428
0.017807292 -0.08893811 0.03277164 0.041581515 -0.13580902 -0.013141498 0.006749727 0.05793024
-0.037436817 -0.010420174 -0.0047623543 0.06931263 -0.03240259 -0.081033625 0.0018460533 -0.08962166
0.05571864 0.009986417 -0.06912151 0.046801597 0.019486705 -0.15301156 -0.010040691 0.01108895
0.071242176 0.009659164 0.079354644 -0.008490899 -0.07376748 -0.15665439 -0.0331634 -0.01780851
0.026962632 -0.04944767 0.065812476 -0.009341858 0.021206766 -0.11345183 0.12528813 0.03918287
-0.03601482 -0.08982488 0.12505071 -0.059696574 -0.04652722 -0.051798653 0.06137011 -0.035290997
0.08379188 -0.011456208 -0.19206978 -0.07003662 0.038237136 0.033252377 0.027257029 -0.020267045
-0.052876722 0.052236717 0.0015628979 0.090242945 0.0044202395 0.008966481 0.10725624 -0.035587925
0.032450553 0.0093458975 -0.043179624 -0.013984663 0.10393597 0.07320844 0.054092407 0.012475091
-0.010680798 -0.009657157 -0.06692672 -0.0038243332 0.028160525 0.10814068 -0.02936601 -0.0427923
0.072478555 -0.0027324934 0.05029072 0.027424473 -0.11005076 0.031161627 -0.032640368 -0.02155248
-0.08744822 -0.052752867 0.08921565 0.040938657 0.04730484 0.03178991 -0.010564021 -0.06619188
-0.0024045894 0.093725815 -0.007723739 -0.006543417 0.036088623 0.005149919 -0.048969284 -0.10219375
0.0025616556 -0.0055159684 -0.019597597 -0.043608442 -0.13885315 0.035133395 -0.17751831 -0.105933875
-0.07343238 0.0042979964 -0.04361375 0.035940863 -0.008291805 0.09837266 -0.07462535 -0.0841574
-0.015755042 0.029426042 0.12321404 0.033228427 0.10496398 0.07891685 -0.040016916 0.0025706955
0.069058865 0.16146979 -0.07903393 0.08685271 -0.017989077 0.031997666 -0.09735142 -0.08214787
-0.10552233 -0.023438025 0.029958013 0.1142206 -0.009459652 -0.023201605 0.027895203 0.070439205
0.07643255 -0.03932274 0.058884397 0.03419057 0.0149269765 -0.060831707 -0.031689707 -0.034289367
0.09617282 -0.11199498 -0.10057298 -0.023797689 -0.13652107 0.03426232 -0.064985916 -0.039313342
0.1109781 0.1314176 0.065094545 -0.028867753 -0.04214059 -0.20557688 0.021515427 0.16703644
-0.018631345 0.053748555 -0.16994014 -0.023194727 -0.017602272 0.14995186 -0.081438 -0.049060773
-0.085152514 0.03945677 0.05461085 0.004201444 -0.011231083 0.07416348 -0.036592606 -0.039982542
0.07044378 -0.036083523 -0.049642716 0.037986472 0.031870745 -0.056568895 -0.03874152 0.01772077

network_body.observation_encoder.processors.0.normalizer.running_mean f4 [68]
00000000: 273f c33e afc2 c83e 2ffb 673e 56d9 283f
00000010: 29e6 7f3e 9d35 cf3e 28d6 b03e 76c7 453f
00000020: 6654 0a3e 0fd2 fa3e 49fd bf3e 77d3 403f
00000030: 6e40 e23e d98c 9a3e 722f 833e bab9 2b3f
00000040: 7fb5 933e 1cae 313f 3d2d 8f3c 70c0 1e3f
00000050: f6d4 083f 916d 9a3e 21c6 273e 1fe4 0d3f
00000060: 19e3 523e 55dc 263f 7ba9 113e d5aa 313f
00000070: 163c f03e d38d fa3e 1de3 283d 3856 0a3f
00000080: 0411 ec3e 544c 053f c788 943c ec6e 0b3f
00000090: 0a9b 8a3e 17aa 2a3f 067b 7e3d 8729 2f3f
000000a0: 0dbf cf3e c5c4 0b3f df73 3e3d 9fa3 103f
000000b0: 8dfb 963e 8907 073f fc7f b63d 3077 2d3f
000000c0: d7a7 003f 2a93 b03e a6cb a93c a0a1 ee3e
000000d0: 396a 573e 85b9 ed3e 5f1c 353b d2d3 173f
000000e0: 4bf9 453d 5d85 053f 8ace a939 e32c 193f
000000f0: 67fe ef3d 24ba f33e 3413 9139 ed55 103f
00000100: 68fe ef3d 20ba f33e 3513 9139 ee55 103f
0.3813412 0.39211032 0.22654413 0.6595663 0.24990143 0.4047059 0.34538388 0.7725748
0.13508758 0.48988387 0.3749793 0.7532267 0.4418978 0.30185583 0.25622135 0.6708027
0.28849408 0.69406295 0.017477626 0.62012386 0.5344995 0.30161718 0.16384174 0.5542621
0.20594443 0.6517995 0.14224808 0.69401294 0.46920842 0.48936328 0.041232217 0.5403781
0.46106732 0.5206959 0.018131627 0.5446613 0.2707141 0.66665787 0.062129043 0.6842274
0.40575448 0.5459712 0.046497222 0.56499666 0.29488793 0.5274587 0.0891113 0.6775999
0.50256103 0.34487277 0.02072699 0.46607685 0.21036614 0.46430603 0.0027635319 0.5930759
0.048333447 0.5215662 0.00032388075 0.59834117 0.11718445 0.47602952 0.00027670863 0.5638111
0.11718446 0.4760294 0.00027670866 0.5638112

network_body.observation_encoder.processors.1.normalizer.running_mean f4 [6]
00000000: 96d9 10c1 ed23 5240 e2fe 2fc1 bdfe df40
00000010: b1cc 9b40 a1d6 9843
-9.053122 3.2834427 -10.999727 6.999846 4.8687367 305.6768
