Assets/Training/results/parkolas2/parking/parking-7499998.onnx (onnx, 608683 bytes, 13 tensors)

65 f4 [68]
0.48010734 0.49460232 0.40938428 0.2227884 0.4250776 0.4961438 0.4684759 0.2310261
0.33795753 0.4995808 0.4763918 0.24722369 0.49478978 0.46892363 0.43038288 0.3263764
0.44515926 0.45470852 0.13886221 0.2957657 0.49745134 0.45419964 0.36525935 0.38550696
0.3982307 0.47899926 0.36544928 0.30112362 0.4999913 0.49864084 0.19815062 0.3540526
0.49976546 0.49999374 0.13550557 0.30052805 0.44574016 0.4733007 0.24577382 0.3086199
0.48695377 0.49628207 0.21967973 0.34411678 0.45941713 0.49999323 0.29726532 0.28740945
0.49988234 0.46975195 0.1511003 0.25297943 0.4115632 0.49594206 0.054458328 0.20803925
0.21601915 0.49991047 0.019150613 0.1661528 0.33007076 0.4972157 0.017679064 0.17027488
0.33007073 0.49721566 0.017679065 0.17027488
00000000: a1d0 f53e 843c fd3e d19a d13e a422 643e
00000010: c5a3 d93e 8f06 fe3e 13dc ef3e 1b92 6c3e
00000020: c508 ad3e 0ec9 ff3e a0e9 f33e 3528 7d3e
00000030: 1655 fd3e c216 f03e 255b dc3e cf1a a73e
00000040: eaeb e33e 8ecf e83e e531 0e3e 9a6e 973e
00000050: f1b1 fe3e db8c e83e 4603 bb3e 2b61 c53e
00000060: e5e4 cb3e 643f f53e 2b1c bb3e e02c 9a3e
00000070: dcfe ff3e da4d ff3e ffe7 4a3e 6246 b53e
00000080: 42e1 ff3e 2eff ff3e f9c1 0a3e d0de 993e
00000090: 0e38 e43e 7854 f23e 22ac 7b3e 6d03 9e3e
000000a0: 0152 f93e af18 fe3e b9f3 603e 1330 b03e
000000b0: b938 eb3e 1dff ff3e 2933 983e 5527 933e
000000c0: 94f0 ff3e 5483 f03e 09ba 1a3e 8586 813e
000000d0: 69b8 d23e 1eec fd3e b20f 5f3d 3e08 553e
000000e0: 2034 5d3e 44f4 ff3e bfe1 9c3c f623 2a3e
000000f0: 09ff a83e 0e93 fe3e afd3 903c 8a5c 2e3e
00000100: 08ff a83e 0d93 fe3e b0d3 903c 8a5c 2e3e

68 f4 [6]
1.5410378 4.39581 0.004038612 0.0025819421 3.9001403 67.867935
00000000: ba40 c53f 7aaa 8c40 5556 843b cd35 293b
00000010: e69b 7940 62bc 8742

action_model._continuous_distribution.log_sigma f4 [1, 2]
-0.2986141 -0.33819857
00000000: f3e3 98be 5d28 adbe

action_model._continuous_distribution.mu.bias f4 [2]
-0.004767323 0.014539695
00000000: 3437 9cbb e737 6e3c

action_model._continuous_distribution.mu.weight f4 [2, 256]
0.030117936 0.023872638 -0.011513535 -0.016863449 -0.041168258 -0.019299237 0.010130495 0.03154312
0.036932647 -0.042873688 -0.006687801 -0.055584073 -0.039241824 -0.033369843 -0.02404674 0.0017991449
0.028357156 -0.028068371 0.042878535 0.009901949 0.0014121961 0.009383677 0.018272305 -0.04322111
0.005348314 -0.0146006625 0.032369837 0.0010952667 0.0444701 -0.033255886 0.0058765104 0.035550304
0.03851915 -0.03705118 0.0670948 -0.02991316 -0.04292907 0.0055031492 0.013025448 -0.036078848
0.043279 0.0033625737 0.06145507 0.008432224 -0.0066178334 -0.03301807 -0.03745744 -0.029575426
0.038741734 0.063618094 0.056990005 -0.04159065 0.0066671413 -0.028621411 -0.02849973 -0.022589197
-0.03317663 0.03412453 -0.0028481658 -0.01670729 -0.035880808 -0.033142373 0.027698338 0.021736072
-0.04159736 -0.029147424 -0.04086875 0.059973385 -0.021937363 -0.042571723 -0.0178743 -0.024079142
0.027079053 0.036022913 0.021362027 -0.013082896 0.058355864 -0.01158096 0.061124876 -0.029855013
-0.012986743 -0.009752405 0.025412327 0.038355757 -0.015814235 0.071312144 -0.029156059 -0.045232754
-0.04713017 0.04799432 0.035240177 -0.040000826 0.037683688 0.048640918 -0.00176642 -0.038066726
0.05881981 0.032041516 0.04551775 0.02575652 0.030570334 0.0004334779 -0.0371698 -0.034613375
0.032896098 -0.049907975 -0.024090838 0.012224063 -0.039059985 -0.025673265 -0.00832906 -0.016284889
0.046234865 -0.048264902 0.057819076 0.077311374 0.036937855 0.04438522 -0.026769899 0.052293614
0.0052237683 -0.03093245 -0.028868567 0.030263655 -0.025039336 -0.021827677 0.03236671 -0.044988185
-0.028791884 0.027649943 -0.03816193 -0.032094885 0.0017918822 -0.05237298 0.022592982 -0.021550493
0.046272796 -0.012936685 0.024828888 -0.0321084 -0.050768655 -0.022503553 -0.025128754 0.025800416
0.04573808 0.012205645 0.019390054 0.047135875 -0.034092117 0.040970434 0.028495805 0.028610963
0.02123375 0.04269637 0.020271529 0.01924213 -0.02938703 -0.032291044 0.0018721847 -0.01658804
0.024022436 0.049549982 0.036041766 -0.01251178 -0.042405568 -0.029218854 0.039754383 0.05565381
0.022442073 -0.032877434 -0.029210493 0.04576935 0.02852322 0.0032464226 0.03629314 0.038774777
0.013604623 -0.03622574 -0.019702194 -0.032448847 0.013291236 0.07842309 0.058578573 -0.046430428
0.050373457 -0.030693047 -0.04192219 0.0055154674 0.010981179 -0.029002422 -0.037854753 0.044834483
-0.015142505 0.01986051 0.009319043 -0.017528817 -0.027165765 -0.024026904 -0.0016641458 -0.011651209
-0.035898104 0.04649572 -0.016417244 -0.024531849 -0.015452097 0.060134094 0.0421668 -0.018863702
0.0020604488 -0.036295813 -0.041216675 0.045071863 -0.00086117384 -0.0041160975 -0.015148455 0.058804527
0.0130364625 0.00027196773 0.048487622 -0.0076528043 0.041412916 0.010299401 -0.052426733 0.03605798
-0.03798525 -0.045973476 0.051597178 -0.02820572 -0.022314418 -0.025185628 0.015189454 0.02193331
0.049497217 -0.020359991 -0.012697748 0.031980667 0.005471729 -0.01622135 -0.034631453 0.01835413
-0.030625701 0.07415611 8.956381e-06 0.0052032294 -0.0149045065 -0.03308415 -0.027943559 0.0578913
0.08664354 0.057357218 -0.0122199925 -0.03596467 0.047464702 -0.05184183 0.05377244 -0.029850246
00000000: e4b9 f63c 8d90 c33c 44a3 3cbc 3725 8abc
00000010: 0ca0 28bd 6f19 9ebc 60fa 253c 5c33 013d
00000020: b046 173d 529c 2fbd 5725 dbbb 20ac 63bd
00000030: 09bc 20bd d1ae 08bd abfd c4bc 49d1 eb3a
00000040: 444d e83c a4ef e5bc 67a1 2f3d c93b 223c
00000050: 7019 b93a febd 193c cdaf 953c 9e08 31bd
00000060: e940 af3b 9e37 6fbc 3c96 043d 0d8f 8f3a
00000070: 4826 363d 5337 08bd be8f c03b 329d 113d
00000080: 42c6 1d3d fac2 17bd 0069 893d 710c f5bc
00000090: 64d6 2fbd c353 b43b b068 553c 6ac7 13bd
000000a0: 5245 313d a05e 5c3b 50b8 7b3d 5027 0a3c
000000b0: 69da d8bb f53d 07bd f96c 19bd 2a48 f2bc
000000c0: a7af 1e3d 344a 823d 5a6e 693d f55a 2abd
000000d0: 0978 da3b 7377 eabc 4478 e9bc fb0c b9bc
000000e0: 38e4 07bd 2ac6 0b3d 4ba8 3abb badd 88bc
000000f0: c1f7 12bd 4cc0 07bd a0e7 e23c d90f b23c
00000100: fe61 2abd 94c6 eebc fe65 27bd a7a6 753d
00000110: fcb5 b3bc b05f 2ebd 206d 92bc 9f41 c5bc
00000120: e4d4 dd3c c38c 133d 6bff ae3c a559 56bc
00000130: 8f06 6f3d 11be 3dbc 145e 7a3d 8092 f4bc
00000140: 59c6 54bc 8dc8 1fbc 832d d03c ed1a 1d3d
00000150: db8c 81bc 1a0c 923d b0d8 eebc fb45 39bd
00000160: 910b 41bd b195 443d 0158 103d e8d7 23bd
00000170: 365a 1a3d b33b 473d 3887 e7ba dbeb 1bbd
00000180: 0bed 703d f73d 033d d270 3a3d 56ff d23c
00000190: a36e fa3c 6b44 e339 5c3f 18bd c1c6 0dbd
000001a0: 0fbe 063d 4e6c 4cbd 265a c5bc 7047 483c
000001b0: 5dfd 1fbd bd50 d2bc 9c76 08bc e367 85bc
000001c0: c560 3d3d 6bb1 45bd b2d3 6c3d 6d55 9e3d
000001d0: 264c 173d 47cd 353d 8c4c dbbc d431 563d
000001e0: 252c ab3b 0d66 fdbc c67d ecbc 7ceb f73c
000001f0: 4b1f cdbc f5cf b2bc f592 043d 8845 38bd
00000200: f5dc ebbc 2282 e23c af4f 1cbd ed75 03bd
00000210: 97dd ea3a 0d85 56bd eb14 b93c a98a b0bc
00000220: 8b88 3d3d 64f4 53bc f465 cb3c 1984 03bd
00000230: cbf2 4fbd 5f59 b8bc d1da cdbc 655b d33c
00000240: da57 3b3d 30fa 473c e4d7 9e3c 8c11 413d
00000250: 2da4 0bbd 9dd0 273d 0970 e93c 8a61 ea3c
00000260: 67f2 ad3c 64e2 2e3d 7a10 a63c aca1 9d3c
00000270: 12bd f0bc 9d43 04bd 1864 f53a a4e3 87bc
00000280: b3ca c43c ecf4 4a3d 88a0 133d 35fe 4cbc
00000290: 76b1 2dbd 615c efbc 7ed5 223d 40f5 633d
000002a0: 70d8 b73c 7daa 06bd d84a efbc a478 3b3d
000002b0: 87a9 e93c efc1 543b 1ea8 143d 4dd2 1e3d
000002c0: ede5 5e3c 7161 14bd 7f66 a1bc 15e9 04bd
000002d0: 7cc3 593c 499c a03d 16f0 6f3d d52d 3ebd
000002e0: 6654 4e3d fc6f fbbc 9ab6 2bbd 18bb b43b
000002f0: 67ea 333c 7d96 edbc 960d 1bbd 5da4 373d
00000300: 4518 78bc 82b2 a23c e6ae 183c 9898 8fbc
00000310: bd8a debc 12d4 c4bc 781f daba b6e4 3ebc
00000320: e409 13bd 4c72 3e3d 757d 86bc 04f7 c8bc
00000330: cb2a 7dbc 2b4f 763d 18b7 2c3d 0d88 9abc
00000340: 9808 073b ebaa 14bd d1d2 28bd 469d 383d
00000350: 66c0 61ba 54e0 86bb 3a31 78bc 04dd 703d
00000360: e396 553c e496 8e39 f59a 463d 60c4 fabb
00000370: 97a0 293d d2be 283c 6abd 56bd 88b1 133d
00000380: 6c96 1bbd af4e 3cbd 9057 533d af0f e7bc
00000390: bacc b6bc 1752 cebc 30dd 783c 7cad b33c
000003a0: 98bd 4a3d ffc9 a6bc 370a 50bc 29fe 023d
000003b0: 314c b33b a3e2 84bc b6d9 0dbd 675b 963c
000003c0: c0e2 fabc 29df 973d 5d43 1637 da7f aa3b
000003d0: 0832 74bc 3f83 07bd e4e9 e4bc 6e1f 6d3d
000003e0: 2b72 b13d 67ef 6a3d 5d36 48bc b14f 13bd
000003f0: 596a 423d 1958 54bd 7d40 5c3d 8188 f4bc

network_body._body_endoder.seq_layers.0.bias f4 [256]
0.007770693 -0.00095444004 0.016883884 0.00045563796 0.0144917965 0.019109765 -0.0057095317 0.017777218
-0.0037135473 0.025541432 0.002598901 -0.000100025005 0.013050722 -0.00038184202 0.0072075524 0.010822176
0.025383854 0.0089723095 0.006769384 0.024321014 0.015769783 0.00862823 0.012904001 0.020772405
0.012904534 0.0018333938 -0.0032979154 0.0073916065 0.002097555 0.018359406 0.01640202 0.019762313
0.029529039 0.026135484 -0.0021392961 0.02476859 0.011926519 0.011214411 0.022450238 0.014426397
-0.002553347 0.013944503 -0.0064813015 0.019202007 0.022513548 0.018301383 0.0011986353 -0.0021236462
0.023799362 0.01651908 0.013574074 0.024120238 0.01760466 0.00040937023 0.011288512 0.0060845437
0.0077788066 0.006078251 0.00935713 0.01721066 0.0019709805 0.031439103 0.019031608 0.010860207
0.002521296 0.023333957 0.010237673 -0.0027521905 0.0312318 -0.003280892 0.017788773 0.022184744
0.026972625 0.032954928 0.017690169 0.019522889 0.023569511 0.023682447 -0.01899569 0.012925126
0.0045880172 0.0042697582 0.020026399 0.018850826 0.0045402213 0.022539422 0.0039660754 0.022423146
0.00074647705 0.0014040916 0.00082536007 0.016607534 0.016425135 -0.015648989 0.02797098 -9.9554e-05
0.024554757 0.019201996 0.0027329419 0.024393696 0.016212229 0.0111268945 0.00251062 0.022252386
0.017974885 -0.0075092413 0.018659709 0.010937048 0.015912576 0.00018798314 0.022989659 0.035356455
0.011475936 0.001060333 0.01871192 0.011896519 0.027712181 0.0039430344 -0.017157057 0.001845943
0.02457544 -0.0061600995 -0.005672834 0.015304109 0.010125831 0.023230724 0.0053196587 -0.00391449
-0.0074195904 0.028527154 0.0077817803 0.0003027341 0.01848918 0.015869714 0.01276034 0.02476325
-0.004023805 0.011502043 0.029126907 0.025209028 -0.009105156 0.00080692465 -0.0074147987 -0.015423799
0.020430231 0.014934465 0.0129384445 0.011640798 0.0043253046 0.025511125 0.0014201447 0.008873831
0.023964422 0.012583156 0.023941606 0.0058271885 -0.004447427 0.002991458 0.001525385 0.009449494
0.016481483 0.022142898 0.017256664 0.023390612 0.031785544 0.018767484 0.01206562 0.0077287033
0.017985689 -0.0047870493 0.014703759 0.009455968 0.01086622 0.016584154 0.018177124 0.032209497
0.010260558 0.032696154 0.007671973 0.017591571 -0.0027519388 -0.0026124709 0.015300949 0.015752403
0.006341077 0.0045763906 0.0055787186 0.025736319 0.0090173585 -0.0024714137 0.0062611466 0.015359848
0.020807495 0.004866579 0.012261458 0.017205013 0.015087132 0.0033917672 -0.0019943956 -0.005273252
0.0053227344 -0.010811702 0.020492053 -0.004708196 -0.009656102 -0.0055192434 -0.00032817933 0.012542727
0.013939794 0.02195419 0.021753399 0.009199617 0.014327611 0.015061773 -0.020199113 -0.0033737454
0.006619554 0.005571877 0.010727819 0.00520851 0.036493063 0.0062305303 0.01796242 -0.0008202394
0.01157682 0.008029552 0.00595184 0.009438879 0.010172487 0.0016580323 0.016303118 0.017300216
-0.00392827 0.03164738 0.0033263846 0.030641448 0.012763139 -0.014394338 0.006639018 0.02107687
0.009888733 0.02257929 -0.013556134 0.020480173 0.013741533 -0.016422793 0.020887127 -0.0007994249
0.01569627 -0.013714378 0.007577373 0.010703081 0.015741633 0.0010259275 0.02477225 0.011282805
00000000: 4ca1 fe3b 6333 7aba 1250 8a3c b1e2 ee39
00000010: 006f 6d3c 158c 9c3c 0617 bbbb 87a1 913c
00000020: fc5e 73bb 443c d13c 5352 2a3b 84c4 d1b8
00000030: b2d2 553c f831 c8b9 552d ec3b 7f4f 313c
00000040: cdf1 cf3c 9800 133c b5d1 dd3b dd3c c73c
00000050: a22f 813c 6b5d 0d3c 4e6b 533c e42a aa3c
00000060: 8a6d 533c 7d4e f03a d721 58bb 4a35 f23b
00000070: 2277 093b 7766 963c 875d 863c 93e4 a13c
00000080: e2e6 f13c 151a d63c 6f33 0cbb 80e7 ca3c
00000090: 7267 433c a6bc 373c 90e9 b73c b25c 6c3c
000000a0: 0e56 27bb 7c77 643c 1961 d4bb 874d 9d3c
000000b0: 556e b83c c8ec 953c 871b 9d3a df2c 0bbb
000000c0: e1f6 c23c 0653 873c cb65 5e3c ce97 c53c
000000d0: a637 903c bea0 d639 73f3 383c da60 c73b
000000e0: 5ce5 fe3b 112c c73b a64e 193c 5ffd 8c3c
000000f0: 912b 013b 4ac6 003d 2de8 9b3c 02ef 313c
00000100: 543c 253b db26 bf3c eabb 273c 185e 34bb
00000110: d5d9 ff3c 3c04 57bb c3b9 913c c8bc b53c
00000120: b2f5 dc3c bffb 063d f9ea 903c 77ee 9f3c
00000130: d914 c13c b101 c23c d99c 9bbc e8c3 533c
00000140: 1457 963b 54e9 8b3b 670e a43c 0c6d 9a3c
00000150: 23c6 943b 98a4 b83c daf5 813b bfb0 b73c
00000160: 3aaf 433a 7f09 b83a fa5c 583a 860c 883c
00000170: 018e 863c 4f32 80bc 6623 e53c a6c7 d0b8
00000180: 0f27 c93c 814d 9d3c 281b 333b 4ad5 c73c
00000190: 82cf 843c 944d 363c 3789 243b a34a b63c
000001a0: 1140 933c 1510 f6bb 3fdc 983c 4e31 333c
000001b0: 175b 823c 571d 4539 cf54 bc3c eed1 103d
000001c0: 9005 3c3c dffa 8a3a be49 993c 9ee9 423c
000001d0: a804 e33c 9234 813b f58c 8cbc 92f3 f13a
000001e0: 6f52 c93c a9da c9bb 2ee3 b9bb 16be 7a3c
000001f0: d0e6 253c 5c4e be3c 8850 ae3b 1f45 80bb
00000200: 0920 f3bb c7b1 e93c 4efe fe3b 48b8 9e39
00000210: 9f76 973c 3401 823c bf10 513c 4ddc ca3c
00000220: 1fda 83bb 1173 3c3c 8d9b ee3c 2a83 ce3c
00000230: cb2d 15bc cc87 533a d7f7 f2bb 1ab4 7cbc
00000240: 4d5d a73c b0af 743c c5fb 533c 0cb9 3e3c
00000250: 49bb 8d3b b5fc d03c 2624 ba3a 8b63 113c
00000260: 0951 c43c 9529 4e3c 3021 c43c 00f2 be3b
00000270: b9bb 91bb 560c 443b 6def c73a 0dd2 1a3c
00000280: 2d04 873c 0665 b53c d95d 8d3c ab9d bf3c
00000290: 8f31 023d 44be 993c e1ae 453c 1041 fd3b
000002a0: b956 933c aedc 9cbb 09e8 703c 34ed 1a3c
000002b0: 3b08 323c 7edb 873c 31e8 943c 1bee 033d
000002c0: e61b 283c 67ec 053d 2d65 fb3b 331c 903c
000002d0: df59 34bb fd35 2bbb d5b0 7a3c 2f0b 813c
000002e0: cfc8 cf3b 8cf5 953b afcd b63b f9d4 d23c
000002f0: 8bbd 133c 71f7 21bb 4e2a cd3b dfa7 7b3c
00000300: 7b74 aa3c d377 9f3b 48e4 483c 87f1 8c3c
00000310: 0530 773c 6948 5e3b 68b4 02bb 3ecb acbb
00000320: 556a ae3b 9123 31bc f3de a73c 3647 9abb
00000330: a134 1ebc c5da b4bb 7c0f acb9 0380 4d3c
00000340: bc63 643c 46d9 b33c 2f34 b23c feb9 163c
00000350: 5bbe 6a3c a8c5 763c 9c78 a5bc 0e1a 5dbb
00000360: d8e8 d83b 4b94 b63b bcc3 2f3c 26ac aa3b
00000370: c079 153d 7a29 cc3b ed25 933c 5605 57ba
00000380: b4ac 3d3c 628e 033c a707 c33b 87a5 1a3c
00000390: 81aa 263c 5552 d93a 1e8e 853c 2fb9 8d3c
000003a0: b8b8 80bb afa0 013d 79ff 593b c603 fb3c
000003b0: 7c1c 513c 3bd6 6bbc 1f8c d93b 66a9 ac3c
000003c0: 5a04 223c 34f8 b83c 8c1a 5ebc 09c6 a73c
000003d0: 2b24 613c 1889 86bc 7b1b ab3c 7f90 51ba
000003e0: 7795 803c 45b2 60bc 9d4b f83b fa5b 2f3c
000003f0: 99f4 803c 6a78 863a 2cef ca3c 84db 383c

network_body._body_endoder.seq_layers.0.weight f4 [256, 74]
-0.21714981 -0.0848838 -0.14567952 -0.09250656 -0.27494332 0.120342694 0.09711218 0.012757567
0.23745959 -0.07450753 0.013086187 -0.13990457 -0.016452221 0.21819556 0.061557475 -0.22889172
0.008512823 -0.07710295 0.085239105 0.23855796 -0.036994454 -0.11486407 0.11897541 0.03412531
0.19120055 0.28744873 -0.04431478 0.2648411 0.031391125 -0.023573594 0.043591484 -0.14558768
0.10909736 -0.07375665 0.10622945 -0.03127294 -0.032645963 -0.18901855 -0.112564094 0.15388967
0.013526556 -0.024907056 0.13095847 0.068482906 0.07217237 -0.017211122 -0.1099354 -0.11466938
0.025337322 -0.07767502 -0.1154559 0.080572635 0.120843254 -0.12697713 -0.02692247 -0.17748915
0.08073946 0.22759832 0.06520465 -0.01896281 -0.121666 0.055879842 0.13864477 -0.09068813
0.12195325 -0.047041446 0.0804218 -0.04439131 -0.04556932 0.042679388 -0.29407695 -0.06714424
0.0756492 0.15111445 0.0006072876 -0.19666763 -0.027599378 -0.019437078 -0.052886866 0.119365185
-0.046094596 -0.050438065 0.054511197 -0.10894184 -0.08522843 -0.06394646 0.28651148 -0.18982542
0.038305122 0.10116821 0.07603322 -0.098685265 -0.31176546 -0.12860034 0.074662566 0.057314314
-0.040797215 0.04005386 -0.16209379 -0.09773014 0.0777493 -0.06336127 0.017001873 -0.017835343
0.189645 -0.27859876 0.004053576 -0.033051796 0.11854294 0.11918144 -0.12863147 0.040137824
0.1188677 0.27227244 -0.11693742 -0.030922333 -0.029742425 -0.05298466 0.0107066035 0.08334418
0.09490017 -0.119041175 -0.1258788 -0.21261643 -0.031295683 -0.06237238 0.11990314 -0.03260296
0.036701575 -0.16005678 -0.12068497 0.11320502 0.17696077 0.021502018 0.012234044 -0.04312506
0.07195844 0.29560432 0.19899793 -0.0014298826 0.018197397 -0.08080049 0.00969346 -0.19994898
0.16605997 -0.022106979 0.08981445 -0.059854012 -0.04862577 0.041196324 0.03111079 0.008422433
-0.1297333 -0.27266893 -0.040172417 -0.09256501 -0.04638637 0.14205053 -0.09340872 0.14425853
0.11969065 0.27684477 0.0039443993 0.28030607 -0.057706542 0.07315318 0.123257324 -0.05878683
0.022172328 -0.09268797 0.01434367 0.050206784 -0.13852824 -0.085692026 0.030111495 -0.148486
0.08994775 -0.30589658 0.07732432 0.05087192 -0.10294621 0.13264291 -0.13410126 -0.06987107
0.0028120703 -0.13938968 0.0032127877 -0.22686118 0.10250125 -0.103333116 0.019209258 -0.114605695
0.10913633 0.14513622 0.13261929 0.007675601 -0.054246858 -0.005625363 -0.14226833 0.053358857
-0.13414066 -0.14057925 -0.064903244 -0.06678839 0.12140298 -0.13464403 0.19549532 0.032149594
-0.047205113 0.03319036 -0.124409564 -0.007031061 -0.022738757 0.15924063 0.050910342 0.0025919857
0.12858745 -0.10946992 -0.04851382 0.036446873 0.02129592 0.38561547 0.08321452 -0.17875959
0.16867419 0.026753172 0.079869546 0.0077907005 0.093668275 -0.055678863 -0.1370633 -0.06574994
-0.029283341 -0.19545564 -0.113105446 0.16269195 0.12078957 -0.17288238 -0.18145433 -0.06633734
0.0026360648 -0.19724877 -0.09904727 0.023980618 0.024353977 -0.044044618 -0.08309731 -0.051920258
-0.13590585 -0.09988437 -0.089203715 0.17179987 0.08198433 -0.02396852 0.11040703 -0.007715187
00000000: 855c 5ebe 8fd7 adbd 032d 15be 1474 bdbd
00000010: 5fc5 8cbe 3b76 f63d c0e2 c63d 1d05 513c
00000020: 9b28 733e 6797 98bd 7267 563c 2543 0fbe
00000030: cfc6 86bc a86e 5f3e b123 7c3d 9762 6abe
00000040: 5e79 0b3c 27e8 9dbd d791 ae3d 8a48 743e
00000050: 7f87 17bd db3d ebbd 61a9 f33d fbc6 0b3d
00000060: 14ca 433e 7b2c 933e 6a83 35bd 4199 873e
00000070: fb93 003d 691d c1bc fc8c 323d f014 15be
00000080: 706e df3d ba0d 97bd d38e d93d 0e18 00bd
00000090: c6b7 05bd 148e 41be 0188 e6bd 4195 1d3e
000000a0: 7d9e 5d3c e209 ccbc fa19 063e c440 8c3d
000000b0: 1ccf 933d 57fe 8cbc d025 e1bd c8d7 eabd
000000c0: 3790 cf3c 1514 9fbd 2574 ecbd 4403 a53d
000000d0: ab7c f73d 4b06 02be 838c dcbc b7bf 35be
000000e0: bb5a a53d 890f 693e 048a 853d e557 9bbc
000000f0: 062c f9bd 43e2 643d e5f8 0d3e b3ba b9bd
00000100: a0c2 f93d 88ae 40bd 2fb4 a43d aad3 35bd
00000110: e5a6 3abd 95d0 2e3d 4191 96be eb82 89bd
00000120: f8ed 9a3d bfbd 1a3e 6232 1f3a 3d63 49be
00000130: 1718 e2bc 823a 9fbc e69f 58bd bc75 f43d
00000140: b0cd 3cbd 2598 4ebd 2247 5f3d e61c dfbd
00000150: 3e8c aebd 5df6 82bd a2b1 923e 9861 42be
00000160: d5e5 1c3d 4731 cf3d 4eb7 9b3d 801b cabd
00000170: b99f 9fbe cfaf 03be b0e8 983d 6ac2 6a3d
00000180: fb1a 27bd 840f 243d eafb 25be bd26 c8bd
00000190: 063b 9f3d 8ec3 81bd 8347 8b3c 6d1b 92bc
000001a0: 4d32 423e 7fa4 8ebe dcd3 843b 5261 07bd
000001b0: a4c6 f23d 6615 f43d f8b7 03be 8f67 243d
000001c0: e970 f33d 4b67 8b3e e37c efbd d550 fdbc
000001d0: 63a6 f3bc 7106 59bd c06a 2f3c 5ab0 aa3d
000001e0: 055b c23d dccb f3bd 5fe6 00be 1fb8 59be
000001f0: e72f 00bd 2e7a 7fbd c78f f53d ae8a 05bd
00000200: 6454 163d ede5 23be ae29 f7bd 09d8 e73d
00000210: 3435 353e 0025 b03c 4d71 483c e7a3 30bd
00000220: f25e 933d 7359 973e 1dc6 4b3e e66a bbba
00000230: b512 953c ba7a a5bd 51d1 1e3c 6dbf 4cbe
00000240: a00b 2a3e b219 b5bc a3f0 b73d 7b29 75bd
00000250: d12b 47bd 7abd 283d 0edc fe3c 3ffe 093c
00000260: ced8 04be 439b 8bbe d58b 24bd b992 bdbd
00000270: a2ff 3dbd b275 113e 124d bfbd 82b8 133e
00000280: 5f20 f53d 99be 8d3e 0540 813b 4784 8f3e
00000290: b25d 6cbd 56d1 953d 566e fc3d 76ca 70bd
000002a0: bea2 b53c 31d3 bdbd b601 6b3c a1a5 4d3d
000002b0: 59da 0dbe 4d7f afbd 62ac f63c b70c 18be
000002c0: 8736 b83d 7a9e 9cbe 375c 9e3d 135f 503d
000002d0: 76d5 d2bd 8bd3 073e d751 09be 9018 8fbd
000002e0: b64a 383b 2bbc 0ebe a28d 523b 4c4e 68be
000002f0: 2dec d13d 50a0 d3bd bc5c 9d3c 64b6 eabd
00000300: de82 df3d 979e 143e 5acd 073e 9c83 fb3b
00000310: f431 5ebd f754 b8bb caae 11be d18e 5a3d
00000320: 2b5c 09be 02f4 0fbe feeb 84bd 5ac8 88bd
00000330: 20a2 f83d 20e0 09be ed2f 483e 4baf 033d
00000340: 265a 41bd 9df2 073d 71ca febd d164 e6bb
00000350: a146 babc fa0f 233e 5d87 503d 4ede 293b
00000360: 6eac 033e c431 e0bd 6db6 46bd 5149 153d
00000370: c874 ae3c 646f c53e 606c aa3d c10c 37be
00000380: edb8 2c3e 7829 db3c a592 a33d 2249 ff3b
00000390: 27d5 bf3d 850f 64bd 525a 0cbe e8a7 86bd
000003a0: 9ee3 efbc 8625 48be d4a3 e7bd b898 263e
000003b0: 8660 f73d 1408 31be 2acf 39be dfdb 87bd
000003c0: d4c1 2c3b 95fb 49be 4cd9 cabd 0073 c43c
000003d0: fe81 c73c 2168 34bd ec2e aabd 56aa 54bd
000003e0: e72a 0bbe 2d90 ccbd 70b0 b6bd 4eec 2f3e
000003f0: 67e7 a73d a159 c4bc 151d e23d aecf fcbb

network_body._body_endoder.seq_layers.2.bias f4 [256]
0.034096666 0.018132608 0.024654701 0.00015827498 0.017049916 0.011400527 0.0019292609 0.017166985
0.008749389 0.024097448 0.011794682 0.0042144647 0.035876177 0.0059319967 0.017270243 0.0025997653
-0.0035947706 -0.007820115 0.011405326 -0.0036012167 0.0011194645 0.010981574 0.02600605 -0.0075959237
0.0027304443 0.02506255 -0.009557495 0.019983351 0.008397991 0.014777558 0.019454869 0.017713534
0.014081361 -0.014987136 -0.00024255087 -0.004372777 -0.013271937 0.014319391 0.019006938 0.00580016
0.02354634 0.01866366 -0.018671881 -0.002334427 0.024726998 0.015617854 -0.004086795 0.011284208
-0.0137400925 0.010261072 -0.0040739924 0.0037730674 0.012070535 0.018133726 0.0056578023 0.016954156
-0.006330062 0.017895024 0.007072981 -0.006126489 0.011570333 0.00097075605 0.012755787 0.0019778227
0.024586352 -0.0027056755 0.0029508024 0.008641574 0.019535894 0.0081967795 0.008551521 -0.0012911868
0.010594131 0.01752979 0.018066343 0.0014443431 0.0068253754 0.013768841 -0.00436782 -0.008283995
0.011191654 0.0053628194 0.020656979 -0.012507052 0.017753573 0.013017703 -0.01147697 0.006152944
-0.0045647454 0.025805673 -0.0018609497 -0.0025249568 0.0030334273 0.005076195 0.01649729 0.028828673
-0.0053635137 0.0035717208 -0.0025202269 -0.00790218 -0.011386535 0.0069828318 0.0115463715 0.007824514
0.018009951 0.021642182 0.0063256556 0.019675376 -8.288138e-05 0.021687044 -0.0023741536 0.014333268
0.019238504 0.013927016 0.013066079 0.006568186 -0.0037420092 0.014260393 0.01732877 0.01518548
-0.0048619723 0.01902947 0.009695829 0.010402949 0.0073027173 0.008461643 0.00175488 -0.021000626
0.013314144 0.0049021 0.014081544 -0.0020659852 0.017850664 -0.010712334 0.010599487 0.019720504
-0.008595459 0.013235576 0.015720507 0.02043574 0.0065843766 -0.005080019 -0.015999645 -0.010374746
0.007046238 -0.007286632 -0.008366765 0.023761503 -0.0105295405 0.00025414466 0.0017942797 0.0031171457
0.018623214 0.010758719 0.021585403 0.030262627 0.016998298 -0.00350828 0.018061003 -0.0056908103
0.002844393 -0.00051027944 0.017176913 0.009256912 -0.0034323467 -0.007891018 0.018762486 -0.003999664
-0.02866728 0.014502061 0.015284877 0.008169792 0.011926522 0.015154644 0.019859599 0.017225174
0.023059128 0.008482521 0.0027727964 0.006920249 0.022955613 0.0076655187 0.006771384 0.016809013
0.022157224 0.019552607 0.006773843 0.012353546 0.005178392 -0.0023634091 0.005535427 0.0024491367
-0.0015868825 0.015873637 0.00010451768 -0.005610689 -0.004343302 0.016883828 0.008971698 0.016196482
0.0048836516 -0.0021582234 0.01732694 -0.0063120066 -0.0006169149 0.016442206 0.007883402 0.023126595
0.0047800876 -0.005688045 0.0074960757 0.0003583186 0.0058078677 0.017911047 0.008900656 0.0021488047
0.006124874 -0.0034341908 0.023116134 -0.0017717208 0.019398188 0.017230177 0.012808347 0.015507703
-0.0049519115 0.02343813 0.019432925 0.019870212 0.028194934 0.025046157 0.006277204 0.023393467
0.005674782 0.022832386 0.021085437 0.019492535 -0.00071330066 -0.0013097832 0.018191945 0.009112635
0.016854275 -0.0034714171 0.009547288 0.008012316 -0.0015091073 -0.0022855105 0.012213054 -0.0071571586
-0.006414328 0.004844873 0.013800454 0.013981187 0.0095827775 0.0124891475 0.023758184 -0.01611007
00000000: f2a8 0b3d d68a 943c a8f8 c93c 9ef6 2539
00000010: 44ac 8b3c 47c9 3a3c 41df fc3a c7a1 8c3c
00000020: 9959 0f3c 0368 c53c 7b3e 413c 7e19 8a3b
00000030: e6f2 123d 3261 c23b 537a 8d3c d360 2a3b
00000040: 3e96 6bbb f11f 00bc 68dd 3a3c 6402 6cbb
00000050: ffba 923a 0fec 333c a40a d53c 3ae7 f8bb
00000060: 41f1 323b fa4f cd3c 0a97 1cbc 20b4 a33c
00000070: ba97 093c 921d 723c d15f 9f3c f91b 913c
00000080: 82b5 663c 9b8c 75bc 4155 7eb9 8349 8fbb
00000090: 8a72 59bc e19b 6a3c 70b4 9b3c 450f be3b
000000a0: 41e4 c03c 88e4 983c c6f5 98bc 30fd 18bb
000000b0: 4690 ca3c 07e2 7f3c 85ea 85bb 66e1 383c
000000c0: 201e 61bc 0e1e 283c 207f 85bb 9145 773b
000000d0: 7ec3 453c 2e8d 943c 1665 b93b 71e3 8a3c
000000e0: 696c cfbb 9698 923c 77c4 e73b b7c0 c8bb
000000f0: 7e91 3d3c 567a 7e3a a6fd 503c 5c9e 013b
00000100: 5169 c93c b451 31bb 4062 413b 6395 0d3c
00000110: bd09 a03c c94b 063c ae1b 0c3c 0a3d a9ba
00000120: 0293 2d3c a29a 8f3c deff 933c 1d50 bd3a
00000130: 66a7 df3b b496 613c ee1f 8fbb 98b9 07bc
00000140: 335d 373c 97ba af3b d338 a93c 61ea 4cbc
00000150: f16f 913c 3448 553c e709 3cbc a39e c93b
00000160: dc93 95bb 6b66 d33c 1ceb f3ba bf79 25bb
00000170: 77cc 463b 3656 a63b 5325 873c 1c2a ec3c
00000180: 6ac0 afbb 8813 6a3b 642a 25bb 2578 01bc
00000190: 978e 3abc 3dd0 e43b fe2c 3d3c 6432 003c
000001a0: 9b89 933c f24a b13c 7247 cf3b 412e a13c
000001b0: 9ad0 adb8 07a9 b13c b097 1bbb 15d6 6a3c
000001c0: 119a 9d3c 242e 643c 1b13 563c f039 d73b
000001d0: 7f3c 75bb 6ca4 693c 11f5 8d3c 85cc 783c
000001e0: 2e51 9fbb b1e3 9b3c 41db 1e3c 2171 2a3c
000001f0: a24b ef3b b4a2 0a3c 0004 e63a 8109 acbc
00000200: 9123 5a3c cca1 a03b 47b6 663c 7b65 07bb
00000210: 8e3b 923c c982 2fbc 79a9 2d3c e58c a13c
00000220: f8d3 0cbc 08da 583c 4bc8 803c da68 a73c
00000230: c1c1 d73b 4a76 a6bb b011 83bc d7fa 29bc
00000240: 21e4 e63b b3c4 eebb c214 09bc 7ca7 c23c
00000250: 1884 2cbc b83e 8539 092e eb3a 0749 4c3b
00000260: b68f 983c 5745 303c dfd3 b03c 54e9 f73c
00000270: 0440 8b3c 2ceb 65bb abf4 933c fa79 babb
00000280: ff68 3a3b 46c4 05ba 99b6 8c3c 4eaa 173c
00000290: 39f1 60bb 5449 01bc c9b3 993c 9d0f 83bb
000002a0: a5d7 eabc 0d9a 6d3c 6c6d 7a3c 97da 053c
000002b0: 7567 433c 2f4b 783c 99b0 a23c cf1b 8d3c
000002c0: 7fe6 bc3c 46fa 0a3c ceb7 353b 42c3 e23b
000002d0: 690d bc3c 082f fb3b 7ce2 dd3b 0eb3 893c
000002e0: 1183 b53c ca2c a03c 1df7 dd3b 8766 4a3c
000002f0: 80af a93b 6de3 1abb 8762 b53b b281 203b
00000300: f1fe cfba 6e09 823c 8130 db38 dfd9 b7bb
00000310: 4252 8ebb f44f 8a3c 07fe 123c 7cae 843c
00000320: 0a07 a03b fb70 0dbb 3af1 8d3c f3d4 cebb
00000330: 75b8 21ba ceb1 863c 6229 013c fc73 bd3c
00000340: 48a2 9c3b c862 babb a4a1 f53b b5dc bb39
00000350: ed4f be3b 30ba 923c 0fd4 113c f6d2 0c3b
00000360: 2bb3 c83b 2910 61bb 0c5e bd3c 1639 e8ba
00000370: f3e8 9e3c 4d26 8d3c 1ada 513c 0514 7e3c
00000380: a543 a2bb 5201 c03c cc31 9f3c dbc6 a23c
00000390: 10f9 e63c 992d cd3c 01b1 cd3b a8a3 bf3c
000003a0: 86f3 b93b fc0a bb3c 5ebb ac3c cfae 9f3c
000003b0: ccfc 3aba 08ad abba 4607 953c 294d 153c
000003c0: fa11 8a3c b780 63bb 3a6c 1c3c 1746 033c
000003d0: 3dcd c5ba 81c8 15bb 4319 483c 9986 eabb
000003e0: 482f d2bb bec1 9e3b 4d1b 623c 5911 653c
000003f0: 1501 1d3c 489f 4c3c 86a0 c23c 44f9 83bc

network_body._body_endoder.seq_layers.2.weight f4 [256, 256]
0.02210316 0.059043 -0.0003915612 0.103498906 -0.13193494 -0.012733551 -0.022278046 -0.12294685
0.044830333 0.006116312 0.08761247 -0.030966505 -0.039277457 0.002047303 0.096361905 -0.0037682583
0.028931053 0.091143675 -0.0764553 0.072330736 0.0011075999 -0.030080799 0.09523572 0.061661642
-0.06266665 0.06929974 0.046781227 -0.071634814 -0.040251948 -0.0051750587 0.09504148 -0.034233723
0.05877625 -0.052439265 0.0818039 -0.010587533 -0.0571333 0.07393518 0.056531783 -0.054316856
-0.00260439 0.1300103 0.0045626382 0.026253445 -0.05102454 0.06845806 0.010166529 0.0012402146
-0.08931706 -0.016188888 -0.010573661 0.100453876 0.076285735 -0.016150435 0.013047839 0.071879014
0.00914878 0.059079003 0.11426331 0.124374904 0.20702116 -0.067804135 0.016331734 0.056591395
-0.11928263 -0.0070294975 0.052184258 0.04819657 0.03323434 0.00585005 -0.047295384 -0.05003098
0.12518857 0.09540823 0.020085486 0.12150308 -0.06976776 -0.011899434 -0.019364584 -0.05073741
0.046812307 0.010944476 0.12568662 -0.0963608 0.0842779 0.14367843 -0.072459504 0.10994027
-0.020441046 0.07957556 0.033619214 -0.020977544 0.1333026 0.037226774 -0.04034876 -0.08040841
0.034046926 -0.103683315 0.05332406 0.10334427 -0.1264611 0.074542865 0.053265743 0.0985458
-0.034360103 0.055429876 -0.005565808 0.002315512 0.063834265 -0.049740538 -0.009516447 0.12576285
-0.051429152 0.008540825 -0.06963323 -0.10029505 -8.12337e-05 0.021778628 -0.053525466 0.02055995
0.055162504 -0.09793533 -0.0017946189 -0.010646334 -0.056334816 0.06845693 0.13796976 0.043016568
-0.020447962 0.0192211 0.07305891 -0.05758238 0.019242749 0.05316444 0.015262723 -0.047366615
-0.0064398963 0.12653877 -0.02982893 0.025821269 -0.09071999 -0.008226272 -0.020633537 -0.026545228
-0.044741586 -0.009282027 -0.008998413 0.018011635 -0.005390154 0.12622203 -0.0030440886 0.074550636
-0.15578496 0.13276155 0.07854546 -0.025053486 0.07400452 0.095793284 0.019538097 -0.052499514
0.0046449383 -0.14691293 0.18397689 -0.051162627 -0.06415655 0.087463744 0.0067186425 0.046491694
0.06633302 0.023231527 0.06212195 -0.087467946 -0.033817805 -0.12784597 0.006167939 -0.0075497236
0.026002446 -0.11341333 -0.04223351 0.14867209 0.03396673 -0.113002904 -0.11786417 0.068263225
0.08118255 0.029305907 0.15846452 -0.073767744 -0.14385575 0.018050602 0.0719238 -0.070550896
0.0012474557 0.043769684 -0.059756797 0.08419868 -0.018581152 0.0042629694 0.058871645 -0.02515694
-0.016898278 -0.039521173 0.012022111 -0.011631053 -0.020665254 0.07458721 -0.0489953 -0.05034512
-0.16688605 0.07194103 -0.028158382 -0.079079874 0.020150067 -0.010913503 0.05684366 0.01113591
0.060053736 0.039394327 -0.07339943 0.027629623 0.10636223 -0.02060168 0.11132774 -0.10814745
0.08825994 -0.083587795 0.008036038 0.0009357123 -0.019422043 0.02684297 0.031835373 0.010752519
0.0021966996 0.05220653 0.110064596 0.022632971 -0.021233302 0.048997797 -0.0108529525 -0.06274926
-0.06986941 0.05446372 -0.10034987 -0.012208731 0.013372066 -0.056144267 0.0075686704 -0.09885495
-0.03575556 0.0069193235 -0.012077237 -0.0058194995 0.022759998 0.024213875 0.12602144 0.09779497
00000000: b011 b53c 13d7 713d 744a cdb9 3cf7 d33d
00000010: f419 07be 62a0 50bc 7380 b6bc 8fcb fbbd
00000020: 03a0 373d 586b c83b 2b6e b33d 78ad fdbc
00000030: 66e1 20bd 0b2c 063b 6459 c53d e2f4 76bb
00000040: d100 ed3c 89a9 ba3d 9994 9cbd 2322 943d
00000050: e32c 913a 026c f6bc f20a c33d eb90 7c3d
00000060: 5f57 80bd 06ed 8d3d ac9d 3f3d 46b5 92bd
00000070: 3adf 24bd 8a93 a9bb 1ca5 c23d a938 0cbd
00000080: 5dbf 703d 8eca 56bd ce88 a73d 5577 2dbc
00000090: 9b04 6abd 546b 973d df8d 673d 5a7b 5ebd
000000a0: 6aae 2abb 6c21 053e 2f82 953b 7711 d73c
000000b0: 1cff 50bd bd33 8c3d 8391 263c b28e a23a
000000c0: ddeb b6bd 8f9e 84bc 263d 2dbc c3ba cd3d
000000d0: b23b 9c3d eb4d 84bc 9ac6 553c 4e35 933d
000000e0: c4e4 153c d3fc 713d e202 ea3d 45b8 fe3d
000000f0: 5bfd 533e e5dc 8abd 21ca 853c 61cc 673d
00000100: 744a f4bd b357 e6bb 29bf 553d c469 453d
00000110: bb20 083d c7b1 bf3b ceb8 41bd 49ed 4cbd
00000120: 6f31 003e 6465 c33d 518a a43c 9bd6 f83d
00000130: 66e2 8ebd d8f5 42bc 7aa2 9ebc 08d2 4fbd
00000140: 43be 3f3d 7650 333c feb3 003e d058 c5bd
00000150: e499 ac3d 7020 133e a665 94bd 5d28 e13d
00000160: fb73 a7bc 83f8 a23d 4db4 093d 19d9 abbc
00000170: 7a80 083e 1a7b 183d be44 25bd 2aad a4bd
00000180: ca74 0b3d eb57 d4bd 546a 5a3d 29a6 d33d
00000190: 057f 01be eea9 983d 2e2d 5a3d 61d2 c93d
000001a0: 2ebd 0cbd 700a 633d 6261 b6bb d8bf 173b
000001b0: 8abb 823d bcbc 4bbd dfea 1bbc fac7 003e
000001c0: 60a7 52bd d1ee 0b3c de9b 8ebd 7e67 cdbd
000001d0: 035c aab8 1869 b23c 853d 5bbd 576d a83c
000001e0: 14f2 613d 5192 c8bd 6b39 ebba f66d 2ebc
000001f0: 56bf 66bd 2633 8c3d f247 0d3e 2432 303d
00000200: 7c82 a7bc 9175 9d3c e99f 953d 80db 6bbd
00000210: f8a2 9d3c f5c2 593d 8010 7a3c 7f03 42bd
00000220: c405 d3bb 6193 013e cd5b f4bc 2087 d33c
00000230: 67cb b9bd 7cc7 06bc aa07 a9bc 6175 d9bc
00000240: f442 37bd a513 18bc 146e 13bc 238d 933c
00000250: e49f b0bb 5940 013e 557f 47bb 01ae 983d
00000260: 1886 1fbe a5f2 073e 71dc a03d f83c cdbc
00000270: af8f 973d 452f c43d 5c0e a03c bb09 57bd
00000280: 9134 983b 5870 16be 7064 3c3e e78f 51bd
00000290: 8264 83bd 3120 b33d 0f28 dc3b 136e 3e3d
000002a0: 9bd9 873d 0b50 be3c 9673 7e3d 6522 b3bd
000002b0: 8a84 0abd 0eea 02be 6c1c ca3b ac63 f7bb
000002c0: 1503 d53c 3f45 e8bd 0cfd 2cbd 7f3d 183e
000002d0: b320 0b3d 116e e7bd c562 f1bd 97cd 8b3d
000002e0: 0943 a63d f112 f03c 8644 223e 8b13 97bd
000002f0: ec4e 13be dbde 933c c94c 933d fd7c 90bd
00000300: ab81 a33a d747 333d 8bc3 74bd 5c70 ac3d
00000310: 8037 98bc 61b0 8b3b 6523 713d ed15 cebc
00000320: 426e 8abc f4e0 21bd 63f8 443c 2c90 3ebc
00000330: 2e4a a9bc 2ec1 983d 4caf 48bd af36 4ebd
00000340: 2de4 2abe d255 933d 68ac e6bc a1f4 a1bd
00000350: c111 a53c 8dce 32bc e6d4 683d 6473 363c
00000360: e8fa 753d f25b 213d 7152 96bd 8557 e23c
00000370: 71d4 d93d dbc4 a8bc ccff e33d 697c ddbd
00000380: a1c1 b43d 1430 abbd 96a9 033c 974a 753a
00000390: fa1a 9fbc cae5 db3c cf65 023d 552b 303c
000003a0: 81f6 0f3b 84d6 553d 8c69 e13d c868 b93c
000003b0: 76f1 adbc eab1 483d 95d0 31bc af82 80bd
000003c0: b117 8fbd 5a15 5f3d 3c84 cdbd 2107 48bc
000003d0: 8316 5b3c 88f7 65bd 9c02 f83b 7774 cabd
000003e0: 6c74 12bd 7ebb e23b 9adf 45bc 80b1 bebb
000003f0: 2d73 ba3c 2d5c c63c c40b 013e bb48 c83d

network_body._body_endoder.seq_layers.4.bias f4 [256]
0.0006014864 0.022800269 0.0025433372 0.019924467 0.0077004884 0.019798262 0.0075426507 -0.0032055047
0.020012625 0.019571032 0.01396669 0.021020532 0.0047693774 0.01672213 0.022991259 0.017901726
0.025189891 0.026729815 0.003162647 0.018536264 0.0006772405 -0.00846016 0.0051633627 0.016706495
0.0054890416 0.021403467 -0.007893699 0.00590929 0.0043569007 0.0045609795 -0.0070169396 0.0045401086
0.0030952801 0.0038136945 0.021633543 0.007050095 0.007799214 0.0017720347 0.010926343 0.018109148
0.017848168 0.000244553 0.013938836 -0.004555145 0.025967263 0.02147036 0.010253442 0.021444416
0.011964412 0.018181384 0.0038045393 0.0057995124 0.015862003 0.020592233 -0.00057098665 0.001026152
0.02590669 0.016343417 0.012582407 0.0069449577 0.011317937 0.013400931 -0.0016212332 0.009992644
0.01977348 0.025105583 0.02220759 0.005670008 0.020579789 0.012359296 0.0054932185 0.004181288
0.020562435 0.012812848 0.01689187 0.0009928105 0.024399893 0.022536812 0.01505872 0.01943151
0.015262085 -0.0037806947 0.019946577 0.002216315 -0.00518605 0.017992403 0.02749673 0.019703919
0.019770704 0.009446053 0.0012712118 0.014210004 0.00014473521 0.016851798 0.020507589 0.0143301785
0.018676672 0.008186938 0.0065526064 0.0013897766 0.011705765 -0.0041008387 0.011221882 0.0019768772
0.015776135 0.013877987 0.020989101 0.026625607 0.01040773 0.005074899 0.006228084 0.025297126
0.009428507 0.0076776342 0.011764105 0.0077700634 0.0023656767 0.0045743706 0.0045205653 0.00081161887
0.0049954536 0.008118637 0.015263338 0.0012922111 0.0050202855 0.0030963118 0.0037511939 0.0074894903
0.023965644 0.020537611 0.004150041 0.010845208 0.0013075292 0.019974664 -0.008428638 0.012911173
0.008296284 0.019536227 -0.0030364492 0.023052132 0.019851264 0.021103436 0.014793683 -0.0011346625
0.008148421 -0.0081126625 0.015675042 0.019267192 0.022922873 -0.0066796904 0.0056958375 0.01960593
0.015486593 0.0014192648 0.020797836 0.0142288795 0.00969259 0.014539656 0.021143038 0.022873605
-0.0015330956 0.005138698 0.024699287 0.027383104 0.012089421 0.01275055 0.012437693 0.016497409
-0.0062219803 0.0011762304 0.006640329 0.0006111643 0.0022210253 0.006034651 -0.0009765111 0.008181999
-0.0031401187 0.020292364 0.007869024 0.010956319 0.0059379195 0.004908546 0.020171694 0.0076547163
0.0036394186 0.017063957 0.0067462274 -0.014849111 0.020679295 0.009380278 0.023090268 0.008906659
0.023579823 -0.011636976 0.024558453 0.0066672466 0.027851757 0.0060893367 -0.0037746371 0.00875201
0.01864904 0.0017702638 0.006787851 0.011151982 0.018226108 0.009748174 0.006638775 0.0013480516
-0.012451314 0.023190895 0.018489853 0.0050986903 -0.006406061 0.020010665 0.021910766 0.023039829
-0.0040140213 0.019165432 0.017225102 -3.744285e-05 0.018047517 0.006132593 0.0031897745 0.0062020025
0.012985743 0.012436729 0.015998535 0.027235663 0.009995065 0.025113922 -0.0046838513 0.015371641
0.009543873 0.008011838 -0.00026896084 -0.00013355668 0.0026041989 0.0052845664 0.008113915 0.017377665
0.013600649 0.0058574798 0.022531003 0.022568606 0.011522311 0.018070463 0.010125135 0.0065654814
0.020347772 0.023978604 0.021590607 0.00395812 0.015808877 0.02754057 0.01587728 0.014406204
00000000: 12ad 1d3a a1c7 ba3c 1eae 263b a338 a33c
00000010: 6154 fc3b f72f a23c 5728 f73b 7213 52bb
00000020: 84f1 a33c 6e53 a03c 8bd4 643c 4033 ac3c
00000030: 7048 9c3b d9fc 883c 2a58 bc3c a4a6 923c
00000040: 085b ce3c 7cf8 da3c 6944 4f3b 5dd9 973c
00000050: d788 313a 7c9c 0abc 6d31 a93b 0fdc 883c
00000060: 6bdd b33b 5356 af3c 9354 01bc b8a2 c13b
00000070: 55c4 8e3b 4574 953b 5bee e5bb 31c5 943b
00000080: 2fda 4a3b 2def 793b d438 b13c 7c04 e73b
00000090: 8d90 ff3b 9e43 e83a 6704 333c a359 943c
000000a0: 5236 923c 5937 8039 b75f 643c 5343 95bb
000000b0: 4cb9 d43c 9ce2 af3c 0efe 273c 33ac af3c
000000c0: 6206 443c 20f1 943c 9455 793b d609 be3b
000000d0: 08f1 813c 0bb1 a83c 44ae 15ba f37f 863a
000000e0: 443a d43c a1e2 853c 7126 4e3c 8792 e33b
000000f0: de6e 393c 948f 5b3c 8f7f d4ba 30b8 233c
00000100: fefb a13c 39aa cd3c b1ec b53c 79cb b93b
00000110: f296 a83c a57e 4a3c 7500 b43b 3003 893b
00000120: 8d72 a83c fbec 513c d260 8a3c 3121 823a
00000130: 49e2 c73c 1f9f b83c d9b8 763c d42e 9f3c
00000140: d30d 7a3c 88c5 77bb 0167 a33c 983f 113b
00000150: beef a9bb ce64 933c d340 e13c 1d6a a13c
00000160: 2cf6 a13c 9ec3 1a3c ca9e a63a 14d1 683c
00000170: 10c4 1739 c80c 8a3c 88ff a73c 20c9 6a3c
00000180: d2ff 983c 8222 063c 3fb7 d63b 2a29 b63a
00000190: 89c9 3f3c 5460 86bb fcdb 373c 7f8e 013b
000001a0: f43c 813c 7f60 633c 56f1 ab3c f21d da3c
000001b0: 2f85 2a3c 574b a63b f514 cc3b eb3b cf3c
000001c0: 067a 1a3c aa94 fb3b 3cbe 403c 049c fe3b
000001d0: 7809 1b3b 9ae4 953b 4021 943b d2c2 543a
000001e0: e7b0 a33b 0804 053c 1413 7a3c 695f a93a
000001f0: 3581 a43b 7eeb 4a3b 97d6 753b 666a f53b
00000200: 9953 c43c 7e3e a83c 11fd 873b 19b0 313c
00000210: 6661 ab3a e8a1 a33c 4518 0abc 6289 533c
00000220: 23ed 073c 700a a03c 2aff 46bb d3d7 bc3c
00000230: 1e9f a23c 1de1 ac3c 3461 723c f5b8 94ba
00000240: f480 053c f9ea 04bc f268 803c 3bd6 9d3c
00000250: c0c8 bb3c 4ee1 dabb 26a4 ba3b 9e9c a03c
00000260: 7bbb 7d3c a006 ba3a 3960 aa3c 3f20 693c
00000270: abcd 1e3c bd37 6e3c 2a34 ad3c 6d61 bb3c
00000280: 27f2 c8ba 8662 a83b 2956 ca3c 8852 e03c
00000290: b512 463c afe7 503c 77c7 4b3c 9325 873c
000002a0: c1e1 cbbb be2b 9a3a 1e97 d93b 8b36 203a
000002b0: 9f8e 113b 52be c53b 8dfc 7fba cb0d 063c
000002c0: 73ca 4dbb 2c3c a63c 14ed 003c 2282 333c
000002d0: e192 c23b ded7 a03b 1c3f a53c 6ad4 fa3b
000002e0: 5083 6e3b b6c9 8b3c 750f dd3b b049 73bc
000002f0: a067 a93c bdaf 193c cd27 bd3c 3ced 113c
00000300: 792a c13c 04a9 3ebc cf2e c93c eb78 da3b
00000310: 5e29 e43c 0f89 c73b e75f 77bb 9764 0f3c
00000320: dfc5 983c 3208 e83a 9f6c de3b cdb6 363c
00000330: eb4e 953c ceb6 1f3c 158a d93b 1bb1 b03a
00000340: 9900 4cbc d5fa bd3c 0878 973c ea12 a73b
00000350: efe9 d1bb 68ed a33c 357e b33c 06be bc3c
00000360: 0d88 83bb d300 9d3c a81b 8d3c f40b 1db8
00000370: 63d8 933c ebf3 c83b 890b 513b 2b3a cb3b
00000380: 27c2 543c 6cc3 4b3c 5c0f 833c 531d df3c
00000390: 57c2 233c b6bb cd3c fe7a 99bb 56d9 7b3c
000003a0: e85d 1c3c 1644 033c 5003 8db9 590b 0cb9
000003b0: 35ab 2a3b 282a ad3b 3af0 043c 9b5b 8e3c
000003c0: 42d5 5e3c 1af0 bf3b f092 b83c cce1 b83c
000003d0: 13c8 3c3c 8208 943c e5e3 253c 4023 d73b
000003e0: 5fb0 a63c c76e c43c c9de b03c 1eb3 813b
000003f0: 9e81 813c c39c e13c 1211 823c 0008 6c3c

network_body._body_endoder.seq_layers.4.weight f4 [256, 256]
0.05916078 0.04908397 0.11815133 0.08349702 -0.018368917 -0.04969829 0.12714022 -0.07037732
0.038664896 0.040579595 -0.04261685 0.049343124 0.0019320183 0.030512502 0.020324135 -0.04523108
0.14550427 0.12839083 0.03381375 0.07636357 -0.03480539 -0.08088342 0.00068142795 -0.06433289
-0.036721442 -0.008422479 0.0014793499 -0.0021298593 -0.06345472 0.101752974 0.02759231 -0.0751973
-0.039840333 0.032580648 0.17471881 0.14423607 -0.110742845 -0.06611854 0.03144376 0.013126332
0.04188348 -0.039729312 0.062142216 -0.0020543148 0.030315919 0.0032224609 0.0013893726 -0.07266025
-0.08016514 -0.041969158 -0.089098684 -0.027106024 0.029367667 -0.03837064 0.00265283 0.070590965
0.095906675 -0.015847476 -0.059939366 -0.011564759 0.09502509 0.03417297 -0.007370932 0.0031185963
0.017613877 -0.08977032 0.03407899 0.041822523 -0.13491492 -0.013317342 0.005429718 0.05815893
-0.037770707 -0.00933682 -0.0052756197 0.06889018 -0.032009494 -0.080539994 0.0025304374 -0.090113565
0.05468219 0.011015212 -0.06723755 0.047402296 0.02037191 -0.15211686 -0.01037498 0.009617286
0.07155338 0.0089626135 0.078748375 -0.008655939 -0.073570065 -0.15612029 -0.03265242 -0.018393517
0.026841424 -0.048454706 0.067387685 -0.009695737 0.021324089 -0.11407104 0.12464339 0.040358607
-0.03621952 -0.08945339 0.12616493 -0.06098734 -0.046009123 -0.05175046 0.06186975 -0.03565566
0.083645 -0.012679173 -0.18961482 -0.070347965 0.037985727 0.032551307 0.026962249 -0.020847412
-0.052605066 0.05262986 0.0010679467 0.090111025 0.005182962 0.00887418 0.10804854 -0.03598162
0.032236833 0.009106952 -0.04459586 -0.0146793695 0.10343584 0.07272108 0.05333208 0.012268092
-0.010241102 -0.008919684 -0.06669193 -0.0035661878 0.02790304 0.109256715 -0.029606313 -0.042321477
0.072775215 -0.0027994688 0.049932584 0.027866097 -0.10973726 0.032523327 -0.034205157 -0.020877969
-0.08665281 -0.05277336 0.08906461 0.0408219 0.046371862 0.031960666 -0.009453525 -0.06464408
-0.0030818023 0.095107324 -0.008148589 -0.005978377 0.035942957 0.004492252 -0.049742952 -0.103047535
0.0025206348 -0.005892684 -0.02049822 -0.043268308 -0.13857338 0.035292357 -0.17779645 -0.10559357
-0.07292532 0.0044761766 -0.04472117 0.036251135 -0.0076496066 0.09864029 -0.07481648 -0.08470368
-0.014798992 0.029431915 0.123133406 0.032711048 0.10619906 0.07996075 -0.04031308 0.0037635106
0.06965521 0.16159956 -0.07884209 0.08607674 -0.018900815 0.033044238 -0.09675431 -0.083354086
-0.10551377 -0.024872895 0.030566188 0.11444737 -0.009187108 -0.023764111 0.029005377 0.07001251
0.075996645 -0.039270706 0.058912992 0.034701053 0.014725085 -0.06024829 -0.032033347 -0.03551654
0.09733863 -0.111882076 -0.099155515 -0.02246407 -0.13689654 0.03420841 -0.065300725 -0.038920578
0.1113452 0.13167244 0.067162365 -0.02762083 -0.041848175 -0.20513782 0.022212904 0.1669037
-0.019139573 0.0536641 -0.170329 -0.021820495 -0.017264806 0.15099922 -0.08165417 -0.049354386
-0.0850671 0.038761463 0.055633977 0.0044731335 -0.011190068 0.07310329 -0.03717194 -0.03913002
0.070494704 -0.03639569 -0.04868044 0.03836272 0.032011595 -0.05632969 -0.038397677 0.018312154
00000000: 9352 723d 460c 493d 53f9 f13d 7c00 ab3d
00000010: 697a 96bc 6f90 4bbd 0c31 023e fc21 90bd
00000020: 155f 1e3d ca36 263d 028f 2ebd 041c 4a3d
00000030: c73b fd3a 5bf5 f93c cd7e a63c 3a44 39bd
00000040: 12ff 143e e378 033e 4980 0a3d 8164 9c3d
00000050: 1990 0ebd 35a6 a5bd dba1 323a f6c0 83bd
00000060: 3969 16bd 70fe 09bc bfe6 c13a 1c95 0bbb
00000070: 8cf4 81bd dd63 d03d 4509 e23c 0b01 9abd
00000080: 9e2f 23bd 4973 053d 7de9 323e 9fb2 133e
00000090: 25cd e2bd 2869 87bd 2ccb 003d d40f 573c
000000a0: 038e 2b3d 34bb 22bd d688 7e3d afa1 06bb
000000b0: 1759 f83c ec2f 533b 9c1b b63a e6ce 94bd
000000c0: 9f2d a4bd dae7 2bbd 5f79 b6bd 740d debc
000000d0: 7694 f03c 882a 1dbd 1adb 2d3b ff91 903d
000000e0: b86a c43d 91d2 81bc fb82 75bd 1d7a 3dbc
000000f0: 849c c23d f5f8 0b3d dc87 f1bb 5d61 4c3b
00000100: fa4a 903c 80d9 b7bd 6996 0b3d 184e 2b3d
00000110: 2327 0abe fb30 5abc c7eb b13b 0f38 6e3d
00000120: 75b5 1abd 76f9 18bc 1bdf acbb 4b16 8d3d
00000130: 631c 03bd 27f2 a4bd b2d5 253b 768d b8bd
00000140: 6ffa 5f3d 2679 343c d7b3 89bd e928 423d
00000150: fee2 a63c 86c4 1bbe d2fb 29bc d291 1d3c
00000160: 948a 923d edd7 123c d446 a13d a4d1 0dbc
00000170: e7ab 96bd ffdd 1fbe 8bbe 05bd 00ae 96bc
00000180: 8ce2 db3c 7178 46bd 8e02 8a3d deda 1ebc
00000190: dbaf ae3c 149e e9bd 0945 ff3d 114f 253d
000001a0: eb5a 14bd 5733 b7bd 6131 013e dccd 79bd
000001b0: 1074 3cbd 4af8 53bd 236b 7d3d ab0b 12bd
000001c0: 124e ab3d 4ebc 4fbc 632a 42be 9812 90bd
000001d0: ec96 1b3d 8554 053d efdf dc3c 31c8 aabc
000001e0: 6978 57bd 6892 573d 58fa 8b3a 218c b83d
000001f0: d6d5 a93b 0265 113c 8e48 dd3d 7761 13bd
00000200: c50a 043d 5335 153c 26aa 36bd bd81 70bc
00000210: 2bd6 d33d caee 943d bd72 5a3d 1b00 493c
00000220: 4cca 27bc de23 12bc c795 88bd b4b6 69bb
00000230: eb94 e43c fcc1 df3d f088 f2bc 4959 2dbd
00000240: 2c0b 953d 4b77 37bb 1c86 4c3d 7147 e43c
00000250: eebd e0bd 2e37 053d b51a 0cbd 4608 abbc
00000260: 0777 b1bd e128 58bd 8267 b63d dd34 273d
00000270: 6cf0 3d3d 30e9 023d f5e2 1abc 1e64 84bd
00000280: 10f8 49bb a1c7 c23d a981 05bc 43e6 c3bb
00000290: ec38 133d be33 933b 44bf 4bbd 960a d3bd
000002a0: 3c31 253b 6b17 c1bb e2eb a7bc 1c3a 31bd
000002b0: 2ee6 0dbe b88e 103d 4610 36be 7141 d8bd
000002c0: df59 95bd e4ac 923b 8c2d 37bd 127c 143d
000002d0: 8da9 fabb ec03 ca3d 6239 99bd 1f79 adbd
000002e0: 7977 72bc 331b f13c 5e2d fc3d 05fc 053d
000002f0: e57e d93d 76c2 a33d 541f 25bd 3ba5 763b
00000300: 64a7 8e3d 5b7a 253e f677 a1bd 0049 b03d
00000310: e2d5 9abc 6559 073d 2027 c6bd 8cb5 aabd
00000320: 9a17 d8bd 3ec2 cbbc f165 fa3c 6263 ea3d
00000330: 8685 16bc f4ac c2bc af9c ed3c b862 8f3d
00000340: 21a4 9b3d 52da 20bd c04e 713d b122 0e3d
00000350: 7c41 713c e9c6 76bd 6635 03bd cb79 11bd
00000360: 7a59 c73d 6e22 e5bd 0c12 cbbd 9206 b8bc
00000370: 9b2e 0cbe 1e1e 0c3d 63bc 85bd 2f6b 1fbd
00000380: f408 e43d 24d5 063e 6c8c 893d 1445 e2bc
00000390: fe68 2bbd a60f 52be d6f7 b53c cee8 2a3e
000003a0: 98ca 9cbc e3ce 5b3d ba6a 2ebe e5c0 b2bc
000003b0: ec6e 8dbc 8a9f 1a3e 4d3a a7bd d327 4abd
000003c0: a937 aebd 57c4 1e3d 74e0 633d 5d93 923b
000003d0: 8c56 37bc 2db7 953d 9b41 18bd cd46 20bd
000003e0: 875f 903d a613 15bd 2465 47bd 3a22 1d3d
000003f0: 971e 033d f6b9 66bd e246 1dbd 5f03 963c

network_body.observation_encoder.processors.0.normalizer.running_mean f4 [68]
0.36036798 0.42668968 0.21294343 0.6578611 0.23672496 0.4380054 0.32526928 0.76610005
0.1315329 0.5202615 0.34817705 0.7448761 0.42797506 0.32648256 0.24553242 0.6734102
0.27235773 0.7079683 0.019676806 0.6317223 0.5503861 0.29094955 0.15860264 0.5376106
0.1977725 0.64341766 0.15875842 0.70653814 0.495652 0.46317822 0.04096433 0.51956075
0.48471937 0.49644417 0.018697845 0.53534234 0.27339768 0.66135794 0.064609155 0.68206716
0.38650653 0.5607431 0.050836213 0.5837575 0.30273956 0.4996246 0.0979768 0.67927164
0.5124235 0.3287318 0.023381362 0.47804543 0.2159917 0.43643758 0.0029797764 0.59562236
0.049057115 0.49062008 0.00036707128 0.6060509 0.12438913 0.44734636 0.00031279822 0.5667251
0.12438913 0.44734624 0.00031279825 0.56672513
00000000: 2782 b83e 1277 da3e d80d 5a3e 9669 283f
00000010: 0768 723e 3e42 e03e b289 a63e 221f 443f
00000020: 8fb0 063e dc2f 053f 4344 b23e 33b0 3e3f
00000030: 8c1f db3e b928 a73e da6c 7b3e 9c64 2c3f
00000040: 7972 8b3e 693d 353f 4131 a13c 8db8 213f
00000050: 1ae6 0c3f 57f7 943e bb68 223e d9a0 093f
00000060: e084 4a3e 05b7 243f 9191 223e afdf 343f
00000070: 19c6 fd3e b225 ed3e 37ca 273d ef01 053f
00000080: 232d f83e ee2d fe3e 392c 993c 320c 093f
00000090: c8fa 8b3e c14e 293f ce51 843d f49b 2e3f
000000a0: 2fe4 c53e dc8c 0f3f a239 503d 2271 153f
000000b0: ae00 9b3e ccce ff3e 0fa8 c83d bfe4 2d3f
000000c0: 302e 033f 894f a83e 458a bf3c 5fc2 f43e
000000d0: ee2c 5d3e bf74 df3e 5a48 433b b57a 183f
000000e0: 1df0 483d 8e32 fb3e 7973 c039 2726 1b3f
000000f0: babf fe3d 950a e53e 11ff a339 e514 113f
00000100: babf fe3d 910a e53e 12ff a339 e614 113f

network_body.observation_encoder.processors.1.normalizer.running_mean f4 [6]
-9.148964 3.530616 -10.999727 6.999846 4.6852636 302.76
00000000: 2862 12c1 9df5 6140 e2fe 2fc1 bdfe df40
00000010: aeed 9540 4861 9743
