Assets/Training/results/b_treasure_test60_Th64Lr1e-4Bs4096Bs65536_Curisosity_EndDistanceReward/TreasureSearch/TreasureSearch-499984.onnx (onnx, 608683 bytes, 13 tensors)

65 f4 [68]
0.454236 0.49980494 0.41606572 0.2859439 0.44860744 0.49558684 0.36115718 0.2880733
0.4821021 0.49257663 0.412931 0.2913545 0.43739322 0.479366 0.29952943 0.29373223
0.48460847 0.48885798 0.4191725 0.3081826 0.39100772 0.43928966 0.25751615 0.29059198
0.48142844 0.4976396 0.38343155 0.31738994 0.3608351 0.41779974 0.24841194 0.2812175
0.4783551 0.49989745 0.34847376 0.31728232 0.3397184 0.4110754 0.24943626 0.2694023
0.44983804 0.49643406 0.32937893 0.30858824 0.32128936 0.423292 0.17482837 0.26498115
0.408372 0.4888447 0.24046424 0.29748943 0.308006 0.4790033 0.07193818 0.23423752
0.38362864 0.49862483 0.10284975 0.24375196 0.336009 0.49514592 0.08487418 0.22171825
0.336009 0.49514592 0.08487419 0.2217182
00000000: 9f91 e83e 6fe6 ff3e 9106 d53e 3d67 923e
00000010: e0af e53e 8fbd fd3e 98e9 b83e 587e 933e
00000020: 16d6 f63e 0133 fc3e b16b d33e 6b2c 953e
00000030: 01f2 df3e 766f f53e ec5b 993e 1264 963e
00000040: 9a1e f83e 984b fa3e c79d d63e 1cca 9d3e
00000050: 2a32 c83e 93ea e03e 28d9 833e 79c8 943e
00000060: ca7d f63e 9eca fe3e 2451 c43e ef80 a23e
00000070: 61bf b83e d9e9 d53e b35f 7e3e bdfb 8f3e
00000080: f6ea f43e 8ff2 ff3e 276b b23e d472 a23e
00000090: 92ef ad3e 7a78 d23e 386c 7f3e 19ef 893e
000000a0: 2c51 e63e 9b2c fe3e 5ba4 a83e 47ff 9d3e
000000b0: 0a80 a43e bbb9 d83e 3506 333e 9cab 873e
000000c0: 2316 d13e da49 fa3e 423c 763e 8950 983e
000000d0: f6b2 9d3e ec3f f53e 5354 933d f6db 6f3e
000000e0: f96a c43e c14b ff3e e4a2 d23d 1d9a 793e
000000f0: 5f09 ac3e c483 fd3e 84d2 ad3d 1c0a 633e
00000100: 5f09 ac3e c483 fd3e 85d2 ad3d 190a 633e

68 f4 [6]
3.0829558 3.760424 0.015623985 0.009999966 2.846113 113.52632
00000000: 264f 4540 c9aa 7040 befb 7f3c e6d6 233c
00000010: b726 3640 7a0d e342

action_model._continuous_distribution.log_sigma f4 [1, 2]
0.02458134 0.010290522
00000000: ce5e c93c 9499 283c

action_model._continuous_distribution.mu.bias f4 [2]
-0.0025581147 -0.0070239506
00000000: 0ba6 27bb 2b29 e6bb

action_model._continuous_distribution.mu.weight f4 [2, 256]
-0.010364395 0.0060494244 -0.00184592 0.01544023 0.006849694 0.006515729 -0.011363037 0.005679545
0.014104632 0.007448326 -0.011621131 -0.0036973555 0.008260107 -0.0010491321 -0.009409209 -0.008635218
0.010798751 0.026130477 0.0068723564 0.016744154 -0.017021209 -0.0055236705 0.008733134 0.010518218
-0.010306523 0.014871789 -0.019429049 -0.020024473 -0.007823954 -0.012538974 -0.008258341 0.003286115
-0.0120339785 0.0011953126 -0.0140692 0.004191349 0.0045597116 -7.922844e-05 0.011696554 0.0057916488
0.017202392 -0.006059858 0.022810586 0.00064741226 -0.024860537 0.01117384 0.00092006737 -0.02479511
0.010640178 0.0012274778 0.00088864606 0.012288921 0.0022186136 -0.01745436 0.0013222647 0.00076004444
0.01077064 0.0115777245 0.008827884 -0.021086395 -0.005249503 0.0008370706 -0.041865192 0.0043417583
0.0072088814 0.013976121 -0.0037491107 0.009865467 0.016403211 0.007676533 0.019553743 0.008560904
-0.0011749186 -0.016854258 -0.0002757844 0.0016231266 -0.021135101 0.0058992663 0.004195136 0.010719151
0.0010160969 -0.017068993 -0.0023925907 -0.0057990644 -0.028107274 0.00946823 0.006442748 0.0037718078
0.0031491907 0.0034388928 -0.011338089 -0.012851319 0.008556477 0.01154477 -0.009505995 -0.009665457
-0.008311871 -0.007243744 -0.015164627 -0.00091577903 -0.0007819077 0.020967327 -0.01174773 -0.0035191216
0.01732078 -0.0028691916 0.02359935 -0.015373144 0.0045503196 0.015549246 0.020820351 0.010688002
0.009436058 -0.004947296 -0.014534074 -0.0076051787 -0.019447759 -0.008898919 -0.015034805 0.013092146
-0.011528975 0.027266828 0.0014580121 0.011985299 0.031900648 -0.014455683 -0.011231294 -0.007464932
-0.028828688 -0.02064851 -0.015163577 -0.018265853 -0.0036085693 0.012121509 0.0059318994 0.0063206023
-0.01165728 0.008591196 0.02933902 0.023934454 0.0101386765 0.0019742858 0.021106644 -0.010157796
0.012222428 -0.0027041642 0.005535568 0.0032683995 0.0060670655 -0.017568447 -0.011822252 0.0084637925
-0.008302284 0.013217685 0.011951821 0.014740365 -0.0025696433 -0.015211807 0.013510973 0.013089728
0.027134592 0.010875369 0.007002975 0.0051382626 -0.019213825 0.016652022 -0.011593906 0.0020515656
0.00522005 -0.02564038 0.010920243 -0.011005008 0.008945165 -0.0033322056 -0.0057038395 0.0030293108
0.025647031 0.0057477937 -0.0038182174 -0.019233014 0.0047581475 -0.0015084818 0.0018127841 0.012289219
0.0232666 0.0040801056 0.019853208 0.0055705663 -0.0033609453 -0.004701655 -0.017409114 -0.0035964348
-0.01897461 0.012885002 0.012380878 0.012132291 0.0019759936 0.015030074 -0.0043742633 0.0053745024
-0.0002710975 -0.009417504 -0.0063436744 -0.008052828 -0.015390429 -0.012044448 -0.011633219 0.019809606
0.0147056235 0.012133477 -0.0077990144 0.016960787 -0.013329967 0.011072499 0.022283096 0.0018524282
0.006667995 -0.008870408 -0.0073569953 0.002360762 0.010593328 -0.008705133 -0.016239911 0.023178129
-0.013884358 -0.026271444 -0.018171001 -0.025222898 -0.0013935941 -0.012138489 0.00876159 0.0058617196
0.020708205 -0.025484538 -0.010060361 -0.01722939 -0.004262051 0.029939115 -0.018669985 0.034324024
-0.010873918 0.02372175 -0.008337816 -0.017264899 0.02196783 -0.00052564725 0.013192793 0.0044313367
0.009970714 -0.01477472 -0.003927918 -0.00049244787 0.0016273852 0.0015358198 0.008689616 -0.014094417
00000000: 6ccf 29bc 403a c63b ccf2 f1ba 05f9 7c3c
00000010: 6673 e03b e581 d53b 082c 3abc 7a1b ba3b
00000020: 1d17 673c 1611 f43b 8e66 3ebc 554f 72bb
00000030: 6655 073c 0883 89ba 1529 1abc bb7a 0dbc
00000040: 3fed 303c 950f d63c 8131 e13b 092b 893c
00000050: 1070 8bbc e8ff b4bb 6b15 0f3c 9b54 2c3c
00000060: b1dc 28bc cea8 733c ab29 9fbc 5d0a a4bc
00000070: 0b30 00bc 4570 4dbc fe4d 07bc dc5b 573b
00000080: 2a2a 45bc 09ac 9c3a 8082 66bc 9557 893b
00000090: a269 953b 7227 a6b8 e7a2 3f3c dfc7 bd3b
000000a0: 08ec 8c3c c691 c6bb 44dd ba3c 1ab7 293a
000000b0: 53a8 cbbc 7b12 373c ad30 713a 1d1f cbbc
000000c0: 2454 2e3c 52e3 a03a 07f4 683a 7857 493c
000000d0: 2966 113b 72fc 8ebc d74f ad3a b83d 473a
000000e0: 5777 303c 7fb0 3d3c d4a2 103c 60bd acbc
000000f0: 0604 acbb db6e 5b3a d67a 2bbd 4f45 8e3b
00000100: 7b38 ec3b 1afc 643c a4b3 75bb c5a2 213c
00000110: 0760 863c 6d8b fb3b 2c2f a03c 0943 0c3c
00000120: baff 99ba f111 8abc 2897 90b9 17bf d43a
00000130: 8523 adbc a24e c13b 5a77 893b 619f 2f3c
00000140: 8e2e 853a 46d4 8bbc 03cd 1cbb 1406 bebb
00000150: 3a41 e6bc a320 1b3c b01d d33b 6f30 773b
00000160: a762 4e3b 0c5f 613b 64c3 39bc 578e 52bc
00000170: 7730 0c3c 4626 3d3c 08bf 1bbc dd5b 1ebc
00000180: 842e 08bc ee5c edbb 0e75 78bc e410 70ba
00000190: f0f8 4cba acc3 ab3c 8d79 40bc 10a1 66bb
000001a0: 4fe4 8d3c 0c09 3cbb 6d53 c13c a4df 7bbc
000001b0: d91a 953b 44c2 7e3c 718f aa3c bb1c 2f3c
000001c0: b299 1a3c ed1c a2bb 5320 6ebc dd34 f9bb
000001d0: e850 9fbc c6cc 11bc 8b54 76bc 7180 563c
000001e0: 07e4 3cbc af5e df3c c51a bf3a fd5d 443c
000001f0: 41aa 023d 87d7 6cbc 7603 38bc 639c f4bb
00000200: 242a ecbc 1027 a9bc a770 78bc 45a2 95bc
00000210: bf7d 6cbb 4b99 463c 6160 c23b 0e1d cf3b
00000220: 2dfe 3ebc 16c2 0c3c 6258 f03c 3012 c43c
00000230: b11c 263c 0563 013b d7e7 ac3c e26c 26bc
00000240: 9440 483c 5938 31bb b663 b53b a532 563b
00000250: 3cce c63b b4eb 8fbc 1eb2 41bc b8ab 0a3c
00000260: 4e06 08bc fd8e 583c 92d1 433c 9281 713c
00000270: 7667 28bb f13a 79bc 215d 5d3c 4c76 563c
00000280: 5d49 de3c 9b2e 323c 3679 e53b df5e a83b
00000290: 5066 9dbc d269 883c 5ef4 3dbc 8f73 063b
000002a0: f40c ab3b c60b d2bc d2ea 323c 594e 34bc
000002b0: be8e 123c 2261 5abb 46e7 babb 6787 463b
000002c0: b919 d23c fd57 bc3b 0f3b 7abb 8e8e 9dbc
000002d0: 3cea 9b3b 40b8 c5ba f19a ed3a b858 493c
000002e0: 9999 be3c 68b2 853b 32a3 a23c 4c89 b63b
000002f0: 4e43 5cbb 5710 9abb 8f9d 8ebc 2ab2 6bbb
00000300: a470 9bbc 9e1b 533c 2bd9 4a3c 84c6 463c
00000310: ac7f 013b b340 763c fb55 8fbb 981c b03b
00000320: 1722 8eb9 e04b 1abc 99de cfbb 02f0 03bc
00000330: 2328 7cbc 1456 45bc 4299 3ebc c147 a23c
00000340: dbef 703c 7ecb 463c e08e ffbb 59f1 8a3c
00000350: ef65 5abc 6d69 353c 0a8b b63c 2dcd f23a
00000360: 327f da3b 3055 11bc f312 f1bb 04b7 1a3b
00000370: a38f 2d3c f99f 0ebc 9009 85bc 0fe0 bd3c
00000380: 387b 63bc 3637 d7bc 5adb 94bc 40a0 cebc
00000390: 42a9 b6ba 83e0 46bc c68c 0f3c ab13 c03b
000003a0: 41a4 a93c f3c4 d0bc 36d4 24bc a624 8dbc
000003b0: ada8 8bbb e042 f53c ccf1 98bc 5997 0c3d
000003c0: 8528 32bc 1e54 c23c 569b 08bc 1e6f 8dbc
000003d0: e1f5 b33c 97cb 09ba 9626 583c bf34 913b
000003e0: 355c 233c ab11 72bc c4b5 80bb 9e17 01ba
000003f0: fc4d d53a 904d c93a e45e 0e3c 45ec 66bc

network_body._body_endoder.seq_layers.0.bias f4 [256]
-0.0010208754 0.010469526 -0.006575185 -0.004915674 -0.007063553 0.008943177 -0.0027976148 -0.002016145
-0.00033362999 0.005517176 0.009397222 -0.005456983 -0.0012524417 -0.0023101056 -0.0022920812 0.00014817977
0.0018467135 -0.00439335 -0.006701457 0.0053835753 -0.004901874 -0.0013294534 0.006276906 4.876325e-05
0.00088685 -0.0004476484 -0.0026670995 -0.0050891414 0.004498442 0.002038438 0.0024045128 0.005360367
-0.0032201183 -0.00209189 -0.0010811093 0.010628535 0.003816943 -0.0005763143 -0.0018730633 0.0054153493
0.004498997 0.0005220224 0.002096505 0.0004242677 0.00366996 -0.0024510983 0.0041801305 0.0026771564
0.0037719766 0.009198621 0.007244116 -0.00043776922 0.00075624377 0.00404891 0.007941182 0.008015363
0.005543856 0.0019317496 -0.0017716928 0.0006486696 -0.0029461735 0.0026702716 -0.00451975 -0.0009622925
0.0022348706 -0.007649479 -0.002707389 0.0045264587 0.00031892644 0.004529909 0.00059509993 0.0056200754
-0.0038606056 -0.0014588918 0.0016047712 0.0023561374 0.0013045649 0.011027971 8.88141e-05 0.0032973175
-0.0013260269 -0.0005405369 -0.0011497077 0.00853185 0.0064758305 0.0030990858 0.00031339118 -9.010038e-05
0.0027668108 0.0071333996 0.0048715193 -0.0014908497 0.0055014878 -0.00088753446 -0.0062986836 -0.0060223443
-0.0024428105 -0.004659742 -0.0011230146 0.006432472 0.0052489075 0.0046554 -0.006082122 0.0057725008
0.006141168 -0.008194612 0.0070484844 0.0027601244 2.3678915e-05 0.007758985 0.005989354 -0.0011203098
-0.003411325 -0.0009884313 -0.0005437968 -0.0049102004 0.00076569157 0.0034668422 0.006051381 0.003943935
0.0025486106 0.00039506558 -0.0059118997 0.0033842586 0.006084989 -0.00046900733 -0.0012116508 0.002278763
-0.0009722332 0.0029448043 0.0058944724 -0.0042805984 0.008252593 0.0028145087 -3.7655554e-05 -0.0049867197
0.0018184367 -0.0017817775 -0.0038293733 -0.0034378534 -0.0042477646 -0.004714527 0.0052610203 0.00267295
-0.0032191982 0.0008331085 -0.0060170214 -0.0044099763 0.00306304 0.0023037107 0.004419872 -0.0006841114
-0.0041769743 -0.0064779785 -0.0039688586 0.006536789 -0.0026350382 -0.0020780948 0.003093493 0.00548421
-0.00074957364 0.004385302 6.557828e-05 0.004903895 -0.004771916 0.00032063414 0.0024711315 0.0068261833
-0.005045045 -0.0033983793 0.0010762943 -0.0046526683 0.006074476 0.004288442 -0.00079559546 -0.004461147
0.0014296902 0.0019796218 0.004517625 -5.717495e-06 -0.002491281 0.0037562738 -0.006499871 0.0018734686
-0.0046009803 -0.003350614 -0.0038763685 0.0061571845 -0.002009019 -0.00573584 -0.0035480468 0.0006600666
0.0026048278 -0.006846422 -0.0029153011 0.003068723 0.00035287172 -0.004927695 0.010197046 -0.0016990143
0.0031919647 0.00423297 0.0020289863 -0.0024853253 0.002169381 0.0063827056 -0.004618114 -0.007670881
-0.0008676971 0.0068710637 -0.0047131847 -0.0042822575 0.010403494 0.0059220567 0.0036475642 -0.008236868
-0.0005716979 0.010211479 0.0018642186 -0.0018115513 -0.003373091 -0.0023297204 0.0065649697 -0.0015680295
0.009396333 -0.0057532396 0.0014947872 0.0013915412 0.0025309054 0.0018316179 -0.0022310964 -0.00074027496
-0.0033996676 0.0013464184 0.0040465854 0.0004476444 -0.0012641754 -0.0060175136 -0.0010324704 0.0004931411
0.005388663 -0.00842417 0.002959603 -0.0026829394 -0.00062250526 -0.004229711 8.1381484e-05 -0.0069129374
-0.0050922083 -0.0005691855 0.003739431 0.008978024 0.013586856 -0.0063457945 0.0039686724 0.007570034
00000000: e5ce 85ba 6088 2b3c a674 d7bb aa13 a1bb
00000010: 6175 e7bb 6786 123c 3058 37bb 4d21 04bb
00000020: 0feb aeb9 6dc9 b43b cef6 193c 7ed0 b2bb
00000030: f828 a4ba 2465 17bb be36 16bb b460 1b39
00000040: 6c0d f23a 17f6 8fbb e597 dbbb b468 b03b
00000050: e69f a0bb 0e41 aeba 81ae cd3b 2487 4c38
00000060: 7f7b 683a 5ab2 eab9 81ca 2ebb d0c2 a6bb
00000070: ab67 933b 5197 053b 0895 1d3b 04a6 af3b
00000080: 9f08 53bb 1718 09bb 02b4 8dba 4f23 2e3c
00000090: ad25 7a3b cc13 17ba 9381 f5ba 3e73 b13b
000000a0: 526c 933b 55d8 083a 8465 093b 3f70 de39
000000b0: b683 703b 9ba2 20bb 7af9 883b 3b73 2f3b
000000c0: 4433 773b d0b5 163c 0d60 ed3b 6484 e5b9
000000d0: a93e 463a b8ac 843b bb1b 023c de52 033c
000000e0: 3ca9 b53b c332 fd3a 2538 e8ba 7b0b 2a3a
000000f0: 9714 41bb b9ff 2e3b 691a 94bb 5b42 7cba
00000100: e876 123b 7ba8 fabb 736e 31bb b052 943b
00000110: 9535 a739 a26f 943b 7b00 1c3a 9c28 b83b
00000120: 3702 7dbb 4938 bfba 3057 d23a 6d69 1a3b
00000130: effd aa3a aaae 343c b541 ba38 cf17 583b
00000140: 14ce adba d1b2 0dba cab1 96ba 2cc9 0b3c
00000150: 3433 d43b 081a 4b3b a74e a439 46f4 bcb8
00000160: 6253 353b 4bbf e93b 44a1 9f3b 9d68 c3ba
00000170: d345 b43b 6ea9 68ba 3065 cebb 1657 c5bb
00000180: 8f17 20bb c0b0 98bb 1e32 93ba 7cc7 d23b
00000190: 07ff ab3b 538c 983b 8a4c c7bb 3f27 bd3b
000001a0: da3b c93b b242 06bc f9f6 e63b 34e3 343b
000001b0: 15a2 c637 153f fe3b 5842 c43b 5cd7 92ba
000001c0: 8990 5fbb 408e 81ba 968d 0eba bfe5 a0bb
000001d0: b1b8 483a f633 633b aa4a c63b 203c 813b
000001e0: 9706 273b ce20 cf39 9cb8 c1bb 70ca 5d3b
000001f0: 9664 c73b 19e5 f5b9 41d0 9eba 4d57 153b
00000200: 77dd 7eba 9efd 403b 6b26 c13b 4344 8cbb
00000210: e235 073c 9f73 383b 58f0 1db8 a367 a3bb
00000220: 9c58 ee3a 888a e9ba 39f6 7abb 9c4d 61bb
00000230: d530 8bbb 527c 9abb a364 ac3b a92c 2f3b
00000240: 2ff9 52bb f764 5a3a 6f2a c5bb 9081 90bb
00000250: 49bd 483b daf9 163b 93d4 903b f055 33ba
00000260: 00df 88bb 3945 d4bb 330d 82bb 8f32 d63b
00000270: 9bb0 2cbb a530 08bb 33bc 4a3b e3b4 b33b
00000280: 097f 44ba 94b2 8f3b 1287 8938 dab0 a03b
00000290: bc5d 9cbb c91a a839 b5f2 213b 2dae df3b
000002a0: e850 a5bb 58b7 5ebb 7212 8d3a 6975 98bb
000002b0: 660c c73b 0f86 8c3b 828f 50ba d02e 92bb
000002c0: 7164 bb3a 8bbc 013b 9608 943b e8d8 bfb6
000002d0: c244 23bb d12b 763b dffc d4bb 2d8f f53a
000002e0: d2c3 96bb fa95 5bbb ac0a 7ebb 35c2 c93b
000002f0: bfa9 03bb b7f3 bbbb 5986 68bb 5208 2d3a
00000300: c2b5 2a3b f357 e0bb a30e 3fbb a11c 493b
00000310: a401 b939 8078 a1bb 8311 273c 76b1 deba
00000320: 4830 513b bab4 8a3b bef8 043b d7e0 22bb
00000330: 2c2c 0e3b 0426 d13b 8c53 97bb 045c fbbb
00000340: 2b76 63ba a926 e13b 0f71 9abb 2e52 8cbb
00000350: 6b73 2a3c d00d c23b f90b 6f3b eef3 06bc
00000360: ffdd 15ba 0c4e 273c cc58 f43a 9371 edba
00000370: 140f 5dbb 39ae 18bb f51e d73b 5786 cdba
00000380: 14f3 193c ac85 bcbb bcec c33a 6064 b63a
00000390: 8cdd 253b e612 f03a 9637 12bb 030f 42ba
000003a0: f5cc 5ebb 4e7a b03a 3899 843b d0b1 ea39
000003b0: b0b2 a5ba 902e c5bb f553 87ba 2446 013a
000003c0: 6293 b03b 8805 0abc e6f5 413b 41d4 2fbb
000003d0: 9f2f 23ba 6399 8abb 5aab aa38 ec85 e2bb
000003e0: 8adc a6bb 6435 15ba 3e11 753b 9018 133c
000003f0: 689b 5e3c 62f0 cfbb a30b 823b 0c0e f83b

network_body._body_endoder.seq_layers.0.weight f4 [256, 74]
0.105198726 0.047335695 -0.26762143 0.063093565 -0.12201418 0.15111655 -0.036786135 0.07326173
0.03276951 -0.1049754 -0.035245266 0.074030116 -0.019779861 0.13773006 0.14954284 -0.16451731
0.07070724 -0.1553644 -0.02576148 0.1428595 0.0777581 -0.00076139154 0.032584623 0.07063798
-0.11987859 0.011310293 0.10655919 0.04345655 0.18269254 -0.08951864 0.023171527 0.10236921
-0.021412922 0.08573579 0.26720592 0.28886944 -0.099383466 -0.24622041 -0.17094313 0.14261399
0.25992647 0.16926342 0.27707043 -0.014314416 0.042726062 -0.08121711 0.03186584 0.08254607
0.0016202552 -0.17425473 0.17094693 -0.2277673 0.25677028 -0.1485426 -0.03197548 0.13931319
0.0037339064 -0.22059287 -0.03704029 -0.16772762 -0.041679062 -0.028699849 -0.0090369405 -0.060691517
-0.10950443 -0.1563265 -0.124002434 0.091677934 0.062474236 -0.033881918 -0.11213375 -0.012559232
-0.02959867 0.32879904 0.025087431 0.018381577 -0.12320207 0.08778213 0.020581566 0.06894361
-0.20348057 0.06593935 -0.06735077 -0.038870204 -0.050356716 0.037121546 0.03384952 0.16953686
-0.04289675 -0.051613327 0.028518211 0.010707171 -0.061282735 -0.036368262 0.0020378856 0.1608832
-0.009360299 -0.23639059 0.14207871 -0.23121692 -0.27235964 -0.06622781 -0.0065438556 -0.065036334
0.03891992 -0.10924526 0.06973831 0.0818541 -0.07240965 0.002420301 0.17208785 0.012421562
0.04513539 -0.14728071 0.123885274 0.21855703 -0.055116102 0.14288117 -0.04409294 0.035686545
-0.10120031 -0.13186851 0.25605577 0.052294504 0.061556138 -0.05801694 -0.07740752 -0.031817578
0.1372793 -0.020168023 -0.027511058 0.053344782 -0.09774847 0.17228873 0.023736063 -0.022279227
-0.0038262864 0.09267161 -0.07507953 -0.061082195 -0.137987 0.016801074 -0.07581045 0.15661515
-0.10928314 0.14076994 -0.06875919 -0.16725892 -0.0780748 0.005060653 -0.05229937 -0.022022586
0.120343514 -0.067836545 0.051671084 -0.058663666 0.01598705 -0.030682119 0.039358538 -0.016750665
-0.05666623 -0.17764653 0.13365647 0.071116336 -0.022393754 0.09138224 0.07047408 0.029219914
-0.055367354 -0.033870775 0.0032172636 0.08019895 0.06326668 -0.26994047 0.041958667 -0.037138756
0.174156 -0.050832614 -0.06335708 -0.10898428 0.16699313 0.22735958 -0.027054735 0.032957785
-0.14441283 0.18343161 -0.12572078 -0.017046807 0.18804663 0.14418773 -0.14127043 0.030501885
-0.05854646 0.0037452853 0.05084297 0.096531935 0.03334563 0.079534285 -0.07579216 0.2277472
-0.018768158 0.056946184 0.06423851 -0.02537766 0.04611507 -0.11970774 0.026568066 -0.029134883
0.1566712 0.06932468 0.03553247 -0.1284591 0.03265687 0.036352914 0.0066565555 -0.076600745
0.006024255 0.10885563 -0.014513315 -0.05835811 -0.017526777 0.13493668 0.10746654 -0.050625794
-0.09816184 -0.05381321 -0.1499093 -0.12209395 -0.18387192 -0.050340276 0.13715358 0.027748372
0.007557926 0.025236774 0.10499651 0.13845044 -0.04854385 0.15884508 0.020125343 -0.19750516
-0.04473897 0.10073367 0.028689545 -0.16686745 -0.08539084 -0.14616048 -0.045965075 -0.1212189
-0.17449167 0.032902565 0.018593462 -0.037831493 0.087035775 0.19616513 -0.119443074 0.106076956
00000000: 6e72 d73d 13e3 413d ad05 89be 3337 813d
00000010: 92e2 f9bd 4cbe 1a3e 0fad 16bd 3f0a 963d
00000020: 5239 063d 58fd d6bd 575d 10bd 1a9d 973d
00000030: 6009 a2bc 1c09 0d3e c221 193e 3a77 28be
00000040: f5ce 903d d817 1fbe bd09 d3bc c349 123e
00000050: a43f 9f3d 1f98 47ba 7477 053d a5aa 903d
00000060: e882 f5bd cf4e 393c b43b da3d 7fff 313d
00000070: c113 3b3e 8c55 b7bd 37d2 bd3c f3a6 d13d
00000080: 276a afbc 3f96 af3d 37cf 883e b2e6 933e
00000090: 8f89 cbbd 3421 7cbe b70b 2fbe 6709 123e
000000a0: 1515 853e 6453 2d3e 2ddc 8d3e 0387 6abc
000000b0: 8601 2f3d 2855 a6bd c185 023d ea0d a93d
000000c0: be5e d43a d56f 32be b60c 2f3e d53b 69be
000000d0: 6577 833e 8d1b 18be b9f8 02bd 1ea8 0e3e
000000e0: 8eb4 743b 19e3 61be 8fb7 17bd cac0 2bbe
000000f0: aab7 2abd f21b ebbc ad0f 14bc ab97 78bd
00000100: dc43 e0bd 0e14 20be fdf4 fdbd a4c1 bb3d
00000110: fce4 7f3d c4c7 0abd 61a6 e5bd 3dc5 4dbc
00000120: e978 f2bc 5958 a83e 2884 cd3c f694 963c
00000130: 5e51 fcbd 1ec7 b33d ac9a a83c 4f32 8d3d
00000140: 365d 50be 360b 873d 33ef 89bd 5d36 1fbd
00000150: d842 4ebd c30c 183d cba5 0a3d 129b 2d3e
00000160: 81b4 2fbd 7f68 53bd 069f e93c 216d 2f3c
00000170: 9b03 7bbd e3f6 14bd 0c8e 053b 91be 243e
00000180: f15b 19bc 6010 72be 157d 113e 21c4 6cbe
00000190: b972 8bbe 72a2 87bd d76d d6bb c531 85bd
000001a0: 7e6a 1f3d fbbb dfbd f6d2 8e3d 1fa3 a73d
000001b0: 834b 94bd ea9d 1e3b cc37 303e cf83 4b3c
000001c0: e3df 383d c1d0 16be 90b7 fd3d 6acd 5f3e
000001d0: 6cc1 61bd 714f 123e cc9a 34bd 0e2c 123d
000001e0: 1c42 cfbd 8a08 07be be19 833e c332 563d
000001f0: 4a22 7c3d 2ca3 6dbd d587 9ebd 2653 02bd
00000200: f292 0c3e 6937 a5bc df5e e1bc 0f80 5a3d
00000210: 5a30 c8bd 756c 303e 2272 c23c ed82 b6bc
00000220: 6fc2 7abb 9dca bd3d 4cc3 99bd 5331 7abd
00000230: 774c 0dbe 68a2 893c 8242 9bbd b95f 203e
00000240: d7cf dfbd ff25 103e 9ed1 8cbd ec45 2bbe
00000250: aee5 9fbd d6d3 a53b dd37 56bd b668 b4bc
00000260: a976 f63d e3ed 8abd 0fa5 533d 5049 70bd
00000270: 46f7 823c 1159 fbbc 6b36 213d b138 89bc
00000280: d91a 68bd f9e8 35be 3edd 083e 71a5 913d
00000290: 1b73 b7bc 9d26 bb3d b754 903d 9a5e ef3c
000002a0: e1c8 62bd 15bc 0abd bad8 523b 593f a43d
000002b0: f691 813d a335 8abe dadc 2b3d cf1e 18bd
000002c0: f355 323e dc35 50bd 5bc1 81bd 2633 dfbd
000002d0: 3f00 2b3e f3d0 683e e4a1 ddbc befe 063d
000002e0: f5e0 13be 7fd5 3b3e f3bc 00be bfa5 8bbc
000002f0: 4c8f 403e f3a5 133e 32a9 10be 17df f93c
00000300: 6ace 6fbd 7673 753b b840 503d 89b2 c53d
00000310: 6d95 083d dfe2 a23d ec38 9bbd 9036 693e
00000320: aebf 99bc 6740 693d 7b8f 833d cfe4 cfbc
00000330: 28e3 3c3d 5529 f5bd 46a5 d93c 47ac eebc
00000340: 6a6e 203e 19fa 8d3d 7f8a 113d c88a 03be
00000350: 36c3 053d cbe6 143d 3c1f da3b dae0 9cbd
00000360: 1d67 c53b b3ef de3d 41c9 6dbc ea08 6fbd
00000370: 5194 8fbc d72c 0a3e 6b17 dc3d fe5c 4fbd
00000380: 1309 c9bd 3e6b 5cbd d381 19be 650c fabd
00000390: ec48 3cbe 9b31 4ebd fd71 0c3e 8e50 e33c
000003a0: 7aa8 f73b 5abd ce3c 6908 d73d f4c5 0d3e
000003b0: ebd5 46bd 49a8 223e e7dd a43c cb3e 4abe
000003c0: 3640 37bd 744d ce3d 5606 eb3c 4ddf 2abe
000003d0: 65e1 aebd 18ab 15be e045 3cbd 9d41 f8bd
000003e0: f2ad 32be d7c4 063d 5151 983c 32f5 1abd
000003f0: d03f b23d 83df 483e 929e f4bd e03e d93d

network_body._body_endoder.seq_layers.2.bias f4 [256]
-0.007957017 0.0038147576 0.0051148883 -0.006213262 0.005489826 0.0053061703 0.0036467116 -0.0055213785
0.011116826 -0.0044365334 0.005992539 -0.0006190406 0.0021166878 -0.0068148198 0.0002635267 -0.0018968922
-0.00321596 -0.0024219388 0.0010445867 0.0014308044 0.002940867 0.005383908 -0.0012045467 0.007116134
0.009464009 -0.001213364 0.002553341 0.002134402 0.0015612473 -0.0062505393 -0.0025349697 -6.64308e-05
-0.0013556266 -0.0087599605 -0.0064290995 -0.0066015255 0.0057908283 0.0051254136 0.00786203 -0.0023480556
0.004035992 0.009027671 -0.003764176 -0.005361296 0.0032903547 -0.0022710962 -0.007066937 0.003217859
0.004324761 -0.0061287284 0.0072690337 -0.0028854613 -0.0027644334 0.010564021 0.0009957972 0.00521101
0.0031667263 -0.0013772108 -0.0037527133 0.0025578202 0.006745759 -0.000505876 0.0063541415 -0.0010419337
-1.6708535e-05 0.0017368138 0.0044218535 0.0058978945 0.005124197 -0.0003131788 -0.00092772313 0.007906374
-0.0058125225 0.007257385 -0.0016894508 0.0018088289 -0.0043846746 -0.0023832074 0.0024412007 -0.0052738935
0.0032953117 -0.006807846 -0.0035649305 -0.008040396 -0.005438161 -0.0065145814 0.0018239492 -0.0062606568
0.005073179 0.012476192 0.004707395 0.0039159027 -0.0037743894 0.0020500454 -0.0039476412 -0.0016197477
0.0051929033 -0.004030834 3.7668702e-05 0.00030875718 -0.00208769 0.005904209 0.0009842906 0.003309497
0.0008491523 -0.0047474424 0.008570867 -0.004675603 -0.0054809824 0.0038194163 0.003641566 0.011080693
-0.006317592 0.0047578556 0.00077135174 -0.00061869837 0.004841476 -0.0016243627 -0.00086869847 0.0023027568
-0.0031959254 -0.002600441 -0.005575162 0.009291367 0.0021758305 -0.0029195594 0.0050293775 -0.011137038
0.00045174555 -0.005001619 0.0006220714 -0.0049806307 0.009328562 0.00051932083 0.0041085733 0.00064163347
-0.00710711 0.0043275394 0.0005421857 0.00909875 0.0031267435 -0.0016742732 0.0015632716 -0.0043440275
0.0067522484 -0.006372347 -0.00055831147 0.00070190814 -0.002228536 0.0038722425 0.0013471434 0.004413004
0.0020275982 0.005374954 -0.0004887139 0.0053771166 -0.005217182 0.008194078 0.0023862722 0.0063134115
-0.0068522817 -0.0030156716 0.006090103 0.003488245 0.0030326706 -0.004237501 0.0013763522 -0.0043868716
0.0062102675 -0.0036471488 0.0011034895 0.0007907783 -0.004193014 -0.0026129656 0.0019173205 -0.0020060115
0.0019877527 -0.0045836084 0.008443591 -0.003369946 -0.0009380475 -0.00074303005 -0.0008717624 -0.0043931506
-0.0071983533 0.00019645777 -0.0057602534 0.0017765677 0.0001291095 0.002239651 0.0038930734 0.0043414203
-0.0013475221 0.013726836 0.007833213 0.0059857527 0.006856603 0.0013585548 -0.005801667 0.0067781834
0.005125114 -0.0067217653 0.003317739 -0.0024459055 -0.0014269336 0.0005546988 0.0015402663 -0.0022295353
0.00030035933 -7.425364e-05 -0.003998722 0.001300805 0.0040595327 -0.011414626 0.0034559711 1.9846575e-05
0.0005542968 -0.0028013615 -0.0020162954 0.00560528 -0.002351066 0.008842616 -0.0045753634 0.006320734
-0.0044834577 -0.0036305871 -0.009603498 0.007501778 0.003271589 -0.0090924995 0.006229615 -0.0028438868
-0.003162233 0.0020307254 0.0038002604 0.0047705034 -0.0005377831 0.004212687 -0.00019435777 -0.001029655
0.005919417 -0.00016313329 -0.0076663187 -0.0025543994 -0.0053709703 0.0045831096 -0.004075308 -0.001977882
-0.008159424 0.0061625564 -0.0035526997 0.004519463 -0.00024406836 0.00022534496 -0.0032251037 -0.0046237605
00000000: 265e 02bc 0301 7a3b cb9a a73b 9f98 cbbb
00000010: 00e4 b33b 62df ad3b abfd 6e3b aeec b4bb
00000020: 5923 363c 5760 91bb 105d c43b 1d47 22ba
00000030: 21b8 0a3b da4e dfbb f429 8a39 24a1 f8ba
00000040: dbc2 52bb 64b9 1ebb 83ea 883a d489 bb3a
00000050: 90bb 403b 7e6b b03b e1e1 9dba 752e e93b
00000060: ee0e 1b3c bd09 9fba f455 273b 53e1 0b3b
00000070: c4a2 cc3a 53d1 ccbb bc21 26bb c450 8bb8
00000080: 48af b1ba f085 0fbc 32ab d2bb 9c51 d8bb
00000090: fdc0 bd3b 16f3 a73b becf 003c d6e1 19bb
000000a0: 5b40 843b cce8 133c 65b0 76bb cfad afbb
000000b0: fea2 573b acd6 14bb c491 e7bb b7e2 523b
000000c0: bab6 8d3b 80d3 c8bb 1331 ee3b 021a 3dbb
000000d0: 7f2b 35bb b714 2d3c 6985 823a 1fc1 aa3b
000000e0: da88 4f3b 8783 b4ba 15f0 75bb 1aa1 273b
000000f0: 870b dd3b c49c 04ba 6736 d03b 7e91 88ba
00000100: 4e29 8cb7 cda5 e33a 32e5 903b 2043 c13b
00000110: e1e8 a73b 2632 a4b9 7232 73ba bc89 013c
00000120: f976 bebb 5ccf ed3b 9070 ddba 3a16 ed3a
00000130: 51ad 8fbb 962f 1cbb 8dfc 1f3b a0d0 acbb
00000140: 28f6 573b 5a14 dfbb 9ca1 69bb ddbb 03bc
00000150: 9a32 b2bb 4578 d5bb 9411 ef3a 3226 cdbb
00000160: e93c a63b f168 4c3c 7e40 9a3b f950 803b
00000170: bf5b 77bb 0e5a 063b 375b 81bb b74d d4ba
00000180: 3b29 aa3b 1615 84bb 76fe 1d38 b0e0 a139
00000190: a0d1 08bb 1878 c13b 5003 813a 25e4 583b
000001a0: a599 5e3a 6f90 9bbb d26c 0c3c cd35 99bb
000001b0: d099 b3bb 2c4f 7a3b 57a7 6e3b cc8b 353c
000001c0: ce03 cfbb c9e7 9b3b 8a34 4a3a 2530 22ba
000001d0: 3fa5 9e3b 91e8 d4ba 5eb9 63ba d9e9 163b
000001e0: bb72 51bb 296c 2abb d9af b6bb d13a 183c
000001f0: 6198 0e3b 1456 3fbb 7acd a43b 1f78 36bc
00000200: 43d8 ec39 9fe4 a3bb 8112 233a 8f34 a3bb
00000210: d3d6 183c 0823 083a 36a1 863b 4b33 283a
00000220: c3e2 e8bb 08ce 8d3b 7721 0e3a ec12 153c
00000230: 0dea 4c3b 4973 dbba b1e6 cc3a 5858 8ebb
00000240: f741 dd3b 1fcf d0bb a65b 12ba 4200 383a
00000250: a10c 12bb 73c5 7d3b a292 b03a f69a 903b
00000260: 74e1 043b 6220 b03b 091d 00ba 8632 b03b
00000270: e5f4 aabb 7440 063c 0163 1c3b bce0 ce3b
00000280: 1b89 e0bb 93a2 45bb 7d8f c73b 0a9b 643b
00000290: c5bf 463b bcda 8abb b766 b43a bfbf 8fbb
000002a0: 807f cb3b 0105 6fbb f7a2 903a 3c4c 4f3a
000002b0: 8d65 89bb 4a3e 2bbb 9a4e fb3a 4a77 03bb
000002c0: f544 023b 1832 96bb fd56 0a3c 50da 5cbb
000002d0: 4de7 75ba e7c7 42ba fc86 64ba 6bf4 8fbb
000002e0: 2ae0 ebbb 3b00 4e39 82c0 bcbb b8db e83a
000002f0: 9161 0739 1cc7 123b ef22 7f3b 7942 8e3b
00000300: 579f b0ba 86e6 603c e056 003c 2224 c43b
00000310: 5bad e03b 8911 b23a e91b bebb 861b de3b
00000320: 93f0 a73b 4142 dcbb 6d6e 593b 7c4b 20bb
00000330: f207 bbba 3569 113a c3e2 c93a 651d 12bb
00000340: 8c79 9d39 9fb8 9bb8 b607 83bb c67f aa3a
00000350: d405 853b 6904 3bbc 937d 623b 327c a637
00000360: 3b4e 113a 0c97 37bb d323 04bb 7fac b73b
00000370: 5814 1abb 9fe0 103c eeec 95bb 291e cf3b
00000380: f8e9 92bb 25ef 6dbb fd57 1dbc 7ad1 f53b
00000390: 2868 563b b5f8 14bc cc21 cc3b 8160 3abb
000003a0: 773d 4fbb eb15 053b ca0d 793b e251 9c3b
000003b0: 03fa 0cba 940a 8a3b 84cc 4bb9 7df5 86ba
000003c0: abf7 c13b c20e 2bb9 be35 fbbb b667 27bb
000003d0: f7fe afbb e92d 963b 298a 85bb 5b9f 01bb
000003e0: 1baf 05bc 45ef c93b 69d4 68bb 0118 943b
000003f0: 9aec 7fb9 944a 6c39 435c 53bb ea82 97bb

network_body._body_endoder.seq_layers.2.weight f4 [256, 256]
0.042580176 -0.060880862 -0.078312226 -0.071941346 -0.06588447 0.019457715 0.024940683 -0.052463524
0.013496656 0.044884793 -0.09175308 0.050924256 -0.12902887 0.004973624 0.10137785 -0.06526434
-0.096597195 0.013336864 0.06627763 -0.07192808 -0.032852177 0.021751277 -0.036737267 0.052360866
0.0249634 -0.09251892 -0.03650928 -0.05845057 -0.046810493 -0.15285037 -0.018275568 -0.0032067494
-0.028034093 -0.036126275 -0.00946547 -0.025502399 -0.0384024 0.019533388 0.018490242 -0.016895
-0.00823663 0.06078145 0.063925736 0.042189848 -0.03224578 0.027494172 -0.096182205 -0.023332223
-0.0043738903 0.08537079 0.037572462 -0.06680617 0.03258017 -0.04052276 0.07259137 -0.051546376
-0.09778574 0.045814373 -0.0023927959 0.078207046 0.13453546 -0.06294951 -0.0115027595 0.068215966
0.0046841954 -0.026497457 -0.035255495 -0.069076546 0.043233342 -0.032629166 0.022801891 -0.15602182
-0.07585237 0.053554147 -0.1127705 -0.016797125 0.0030934564 -0.031360887 0.13560738 0.09925167
-0.061420687 -0.02963787 -0.11954785 -0.045662396 0.048316043 -0.026138406 -0.027121775 -0.040747337
0.11400682 0.039333373 -0.066196546 0.012652374 0.07143657 -0.040013883 0.07264861 0.060288962
-0.024719287 0.08721156 0.13341625 0.027674925 0.07677062 -0.16101946 -0.09692981 0.028569525
-0.09036893 0.07202163 0.025055928 -0.079619765 0.07316233 -0.062019564 -0.00518696 -0.020619847
-0.02206479 0.061416436 -0.10580143 0.033190224 -0.06346956 -0.00607894 -0.07690661 -0.07813096
0.053705577 0.074590035 -0.1098824 0.0024819998 0.01229585 -0.08213152 0.019083507 0.05328579
-0.029978642 0.045492023 -0.024611238 0.09642625 -0.12841012 -0.041534714 -0.026476473 0.09166023
0.018551579 0.06825891 -0.08901992 0.011706693 -0.009182459 0.14181598 -0.04737006 0.05873337
0.10727197 -0.022582218 -0.027984079 0.054892786 0.029893816 -0.103396915 -0.053460296 0.036009558
0.09292837 -0.017211458 0.004225324 -0.04507544 -0.069758795 -0.16307208 0.0006145099 0.08885855
-0.021254659 -0.0007395147 0.042441126 -0.060790453 -0.070436314 -0.042811204 -0.00012083257 0.054141164
0.07870192 0.059687283 0.091108404 -0.007372578 0.05713945 0.054323766 -0.07137254 -0.13210566
0.030772991 -0.005499597 -0.0064013875 0.09181038 -0.11931303 -0.10035084 -0.03356708 0.076258615
0.03159467 0.08923697 0.07255842 0.08205565 -0.044053033 0.06716391 -0.022427112 -0.0007416309
0.04588858 0.028582947 -0.04349156 -0.005030441 -0.12062168 0.028650386 -0.0023814738 -0.06624477
0.08885495 -0.018514132 0.07649682 0.033608627 -0.08334054 0.06033562 0.010739129 -0.08617312
0.013971875 0.09149427 -0.026356518 -0.045866434 -0.14382496 -0.074025124 -0.062344495 0.014185166
-0.10999646 0.02844623 -0.043751862 0.02517244 0.012969672 -0.00095229974 0.09508997 0.1430885
0.04411673 -0.046357803 -0.0078001665 0.07565182 -0.047424342 0.027974168 -0.11812711 -0.026359195
-0.033761743 0.07734351 0.005440179 0.014249962 0.071548775 0.0038436532 -0.05297676 0.048471354
0.010420055 0.06656507 -0.040804643 0.018452678 -0.087810464 0.03177932 0.16114227 0.05904057
-0.13479899 -0.037294693 -0.034433298 -0.016389454 -0.081036575 -0.0034308347 -0.083192974 -0.05056907
00000000: 8d68 2e3d 365e 79bd 2962 a0bd fc55 93bd
00000010: 70ee 86bd c965 9f3c 6750 cc3c fee3 56bd
00000020: 1421 5d3c 1ed9 373d 0ae9 bbbd f495 503d
00000030: 2520 04be c8f9 a23b 319f cf3d 4fa9 85bd
00000040: c0d4 c5bd dd82 5a3c 91bc 873d 074f 93bd
00000050: 0190 06bd bc2f b23c d179 16bd 5978 563d
00000060: 0b80 cc3c 8f7a bdbd c18a 15bd dd69 6fbd
00000070: 5cbc 3fbd cf84 1cbe a5b6 95bc 5428 52bb
00000080: c1a7 e5bc 25f9 13bd 0f15 1bbc 68ea d0bc
00000090: d64b 1dbd 7c04 a03c d978 973c 6267 8abc
000000a0: eef2 06bc f8f5 783d 7feb 823d 43cf 2c3d
000000b0: 2714 04bd 753b e13c 2dfb c4bd 3823 bfbc
000000c0: da52 8fbb e1d6 ae3d 95e5 193d acd1 88bd
000000d0: c972 053d 32fb 25bd c9aa 943d 4b22 53bd
000000e0: e443 c8bd daa7 3b3d 74d0 1cbb 042b a03d
000000f0: aac3 093e aceb 80bd 1276 3cbc d0b4 8b3d
00000100: e17d 993b 3211 d9bc 1168 10bd 0178 8dbd
00000110: 7215 313d 29a6 05bd 08cb ba3c 2fc4 1fbe
00000120: 7d58 9bbd 985b 5b3d 38f4 e6bd 209a 89bc
00000130: 96bb 4a3b 4674 00bd a9dc 0a3e 7644 cb3d
00000140: 4294 7bbd 1ecb f2bc 81d5 f4bd 7e08 3bbd
00000150: 0be7 453d 3620 d6bc 7c2e debc aee6 26bd
00000160: 687c e93d 081c 213d 0e92 87bd e74b 4f3c
00000170: 564d 923d 99e5 23bd cbc8 943d 8ff1 763d
00000180: 1a80 cabc f99b b23d 459e 083e 86b6 e23c
00000190: ea39 9d3d 49e2 24be 2383 c6bd a30a ea3c
000001a0: 5813 b9bd 1480 933d 1742 cd3c b00f a3bd
000001b0: 22d6 953d 3a08 7ebd 60f7 a9bb f4ea a8bc
000001c0: 38c1 b4bc cd8f 7b3d 6cae d8bd 79f2 073d
000001d0: 54fc 81bd d831 c7bb 3681 9dbd 2003 a0bd
000001e0: 61fa 5b3d a9c2 983d 060a e1bd 0ca9 223b
000001f0: 8874 493c 9234 a8bd 0455 9c3c 3342 5a3d
00000200: c595 f5bc d855 3a3d 829d c9bc 207b c53d
00000210: f17d 03be 4e20 2abd 30e5 d8bc 5cb8 bb3d
00000220: 7bf9 973c 54cb 8b3d 1350 b6bd 6ecd 3f3c
00000230: 0672 16bc 3538 113e 1c07 42bd 6792 703d
00000240: 68b1 db3d 58fe b8bc de3e e5bc 42d7 603d
00000250: e0e3 f43c c3c1 d3bd 2ff9 5abd c27e 133d
00000260: 3b51 be3d 0bff 8cbc 9674 8a3b 06a1 38bd
00000270: b3dd 8ebd 5efc 26be 1017 213a 79fb b53d
00000280: 401e aebc fedb 41ba bfd6 2d3d 69ff 78bd
00000290: ea40 90bd cd5a 2fbd 7e67 fdb8 20c3 5d3d
000002a0: 792e a13d a77a 743d 0b97 ba3d ab95 f1bb
000002b0: 0e0b 6a3d 9982 5e3d c42b 92bd b546 07be
000002c0: a417 fc3c f735 b4bb bbc2 d1bb 1507 bc3d
000002d0: 645a f4bd be84 cdbd a27d 09bd 7a2d 9c3d
000002e0: 6a69 013d dfc1 b63d 8299 943d cb0c a83d
000002f0: f470 34bd 3b8d 893d 10b9 b7bc 026a 42ba
00000300: aaf5 3b3d c926 ea3c 3524 32bd 66d6 a4bb
00000310: 8008 f7bd 37b4 ea3c 8012 1cbb 57ab 87bd
00000320: 96f9 b53d f3aa 97bc 5daa 9c3d 33a9 093d
00000330: 72ae aabd 7c22 773d 2cf3 2f3c 887b b0bd
00000340: 4bea 643c 5961 bb3d a0e9 d7bc 71de 3bbd
00000350: da46 13be 7c9a 97bd f15c 7fbd e668 683c
00000360: d345 e1bd 1108 e93c 2735 33bd 6f36 ce3c
00000370: bf7e 543c c1a3 79ba 88be c23d cb85 123e
00000380: bfb3 343d aee1 3dbd 8a98 ffbb 57ef 9a3d
00000390: 0740 42bd 152a e53c a0ec f1bd 3def d7bc
000003a0: c149 0abd 4666 9e3d 8743 b23b ac78 693c
000003b0: 2a88 923d cde5 7b3b 29fe 58bd e689 463d
000003c0: e1b8 2a3c 4453 883d c522 27bd 122a 973c
000003d0: f9d5 b3bd 082b 023d 7b02 253e 86d4 713d
000003e0: bf08 0abe 52c2 18bd ee09 0dbd 2d43 86bc
000003f0: 81f6 a5bd dbd7 60bb 1461 aabd 8321 4fbd

network_body._body_endoder.seq_layers.4.bias f4 [256]
0.011441122 -0.0034225092 -0.006369731 -0.0010058102 -0.0076119592 -0.006221918 -0.0022741552 -0.0006948171
-0.00562685 0.0011210833 0.0055197445 0.0072879493 -0.00606931 -0.0034016958 -0.0005393247 0.009406499
-0.00055961363 0.0013204969 -0.007221631 0.0046513723 -0.0032842113 -0.003529307 -0.0034093633 -0.0055966643
0.006255758 -0.0070812833 0.0029878507 0.0018267717 0.0044524 0.00414729 -0.0010831626 0.0038287966
0.005250636 0.005173238 -0.0013876002 0.005523584 -0.0058467826 0.003218012 -0.004288601 -0.0042314045
-0.00058502523 -0.00572734 -0.00052331144 0.0032832094 0.0012714899 0.0018983468 -0.0073463744 0.0014907159
-0.0022145621 -0.0046727485 0.0070402473 -0.00622597 -0.007194971 0.0010323067 -0.0073115206 -0.0073196334
-0.0074825864 0.004086122 0.0011414839 0.006080484 -0.0035701557 -0.0064804973 0.0029640964 -0.0075884825
-0.0074900817 0.0026660403 0.007490439 -0.005538736 -0.00181432 -0.00699446 0.0030688005 0.0017992633
-0.0050244518 -0.0037519129 -0.004295879 0.0060642166 0.0018266062 0.00053654105 0.003834089 -0.0038177394
0.007054417 0.006825756 0.007083895 -0.0040856902 0.0022520125 0.006220661 0.0035261547 0.0036956572
-0.006655017 0.005046608 0.010044143 0.00650767 -0.0015590608 -0.0060680807 8.5866915e-05 0.006453965
0.0058757523 0.0010823023 0.0019293017 0.007122745 -0.00068797264 -0.001455628 0.0056542456 0.006489086
-0.00018305672 0.009152762 0.0031956576 0.00041127225 9.2628274e-05 -0.0061816345 0.0028569181 -0.001891682
-0.00605966 0.009776588 -0.003292025 0.0080938535 0.004765028 0.006256734 0.0028434328 0.00016250194
0.004759048 -0.0041895695 -0.005855644 0.0038105506 -0.0014866812 0.003993304 0.0075332755 0.008422875
0.0029154827 0.0026236055 -0.00023589765 0.00076572807 0.004876397 -0.00055580446 -0.0035862795 0.0031351147
-0.002077927 0.0026025423 -0.0017152157 0.0038694586 0.0053714206 -0.007168561 -0.00014400769 -0.0014244687
-0.0043143905 0.0071576918 0.006802635 -0.0012196945 0.000901926 0.0056693056 0.005030959 0.0009007477
-0.0038115617 0.002823498 -0.0054577584 -0.0037027397 0.0040128455 0.009480928 -0.004531688 -0.0069139176
-0.00069777813 -0.0051438515 -0.0073110373 -0.00499691 0.0019045282 7.3712865e-05 -0.0013960707 -0.007052969
-0.0068944246 0.0017525703 0.0023871353 0.0063528353 0.00013041294 -0.00309237 0.003369269 -0.004086726
0.0005981678 0.007838023 -0.0062600323 0.0044680615 -0.008365652 -0.001925726 -0.0059165084 -0.007863362
-0.0067964736 -0.0016054785 -0.0019199771 0.0034459042 -0.0026748055 0.003615077 0.004116831 0.0077765067
0.002656132 0.0029118005 -0.0023456265 -0.0030190856 -0.0064466475 -0.0065561514 0.005845026 0.0051786792
-0.006143582 0.0053087114 0.004156008 -0.0031254068 0.0075488137 -0.00012645501 -0.003750099 0.00069745455
0.00096758176 9.503846e-05 -0.0035355326 -0.00017714947 0.0024408703 -0.0005334909 -0.0034142092 -0.008263797
-0.0071820565 0.0071772262 -0.006533384 -0.008285543 -0.004224096 -0.003876956 -0.0018713564 0.0015599946
-0.0012642135 0.0040443735 -0.004087602 0.004566204 -0.005633978 8.793371e-05 -0.006972043 -0.0033362296
-0.00070780655 0.0038633696 0.006488556 0.0034511124 0.0047815437 -0.00012615311 0.0047721257 -0.0026795473
-0.0039397604 0.001417374 0.005014858 0.0043416456 0.0015624642 0.00670339 2.05915e-05 -0.0017067137
-0.002511154 -0.00026258166 0.010497754 -0.006723582 -0.0059891 -0.0077290414 -0.0072427313 0.008239812
00000000: 8b73 3b3c 2d4c 60bb 2db9 d0bb 64d5 83ba
00000010: be6d f9bb 3be1 cbbb fe09 15bb 6324 36ba
00000020: 7061 b8bb 50f1 923a f9de b43b c0cf ee3b
00000030: 10e1 c6bb fcee 5ebb 7861 0dba b71d 1a3c
00000040: 09b3 12ba 8614 ad3a 6ea3 ecbb 8a6a 983b
00000050: ec3b 57bb f24b 67bb a06f 5fbb 3964 b7bb
00000060: 1afd cc3b 1c0a e8bb d1cf 433b 4970 ef3a
00000070: 70e5 913b fde5 873b e8f8 8dba 8cec 7a3b
00000080: 870d ac3b 4484 a93b 23e0 b5ba 2eff b43b
00000090: 5e96 bfbb 48e5 523b 6587 8cbb 98a7 8abb
000000a0: 615c 19ba 69ac bbbb d62e 09ba 1d2b 573b
000000b0: 1fa8 a63a f3d1 f83a dbb9 f0bb 2064 c33a
000000c0: 3022 11bb db1d 99bb e0b1 e63b 3903 ccbb
000000d0: cbc3 ebbb 774e 873a 7b95 efbb 89d9 efbb
000000e0: 7c30 f5bb e0e4 853b d89d 953a cc3e c73b
000000f0: 46f9 69bb 5a5a d4bb 4941 423b cea8 f8bb
00000100: 5c6f f5bb bcb8 2e3b 5b72 f53b 497e b5bb
00000110: 7ace edba c831 e5bb ee1d 493b 42d5 eb3a
00000120: 28a4 a4bb a7e2 75bb 72c4 8cbb 56b6 c63b
00000130: bc6a ef3a a9a6 0c3a 5745 7b3b 0a33 7abb
00000140: bd28 e73b 97aa df3b 0520 e83b 41e1 85bb
00000150: 8096 133b b0d6 cb3b 0f17 673b d732 723b
00000160: 5412 dabb 045e a53b 3090 243c 4b3e d53b
00000170: 6659 ccba c0d6 c6bb 7313 b438 c87b d33b
00000180: 6289 c03b 0adc 8d3a 9fe0 fc3a ea65 e93b
00000190: 1059 34ba c5ca beba 4047 b93b 66a2 d43b
000001a0: eaf2 3fb9 77f5 153c 3d6e 513b 07a0 d739
000001b0: 6d41 c238 4f8f cabb 223b 3b3b 51f2 f7ba
000001c0: 1d90 c6bb fb2d 203c 04bf 57bb 159c 043c
000001d0: f423 9c3b 4a05 cd3b e358 3a3b 4865 2a39
000001e0: caf1 9b3b a848 89bb b4e0 bfbb 6eba 793b
000001f0: bedc c2ba 43da 823b b2d9 f63b 1900 0a3c
00000200: af11 3f3b ccf0 2b3b 4b5b 77b9 24bb 483a
00000210: 2fca 9f3b 68b3 11ba c907 6bbb 7f76 4d3b
00000220: d52d 08bb 6a8f 2a3b 17d1 e0ba be96 7d3b
00000230: be02 b03b 40e6 eabb c500 17b9 3db5 baba
00000240: bb5f 8dbb 128b ea3b a3e8 de3b 28de 9fba
00000250: 3b6f 6c3a 95c5 b93b beda a43b 2820 6c3a
00000260: 65cb 79bb 700a 393b ffd6 b2bb aaa9 72bb
00000270: 307e 833b e555 1b3c 8e7e 94bb 258e e2bb
00000280: 19eb 36ba c18d a8bb 6d91 efbb 1fbd a3bb
00000290: 5da1 f93a 4b96 9a38 5cfc b6ba 981c e7bb
000002a0: a0ea e1bb 80b6 e53a 7c71 1c3b 722b d03b
000002b0: 75bf 0839 5ca9 4abb f4ce 5c3b f1e9 85bb
000002c0: 5dce 1c3a 0d6b 003c f520 cdbb d168 923b
000002d0: 1610 09bc a468 fcba 45df c1bb 55d5 00bc
000002e0: f4b4 debb eb6e d2ba bea7 fbba aed4 613b
000002f0: ca4b 2fbb edea 6c3b 7be6 863b 11d2 fe3b
00000300: 8012 2e3b e8d3 3e3b 15b9 19bb dadb 45bb
00000310: 663e d3bb fcd4 d6bb a287 bf3b e9b1 a93b
00000320: 1a50 c9bb b3f4 ad3b 1f2f 883b a0d3 4cbb
00000330: 0a5c f73b 0299 04b9 39c4 75bb 62d5 363a
00000340: 50a5 7d3a 624f c738 65b4 67bb 33c1 39b9
00000350: 02f7 1f3b f8d9 0bba edc0 5fbb e064 07bc
00000360: 7557 ebbb f02e eb3b ff15 d6bb 16c0 07bc
00000370: 496a 8abb 8714 7ebb 4d48 f5ba bc78 cc3a
00000380: f7b3 a5ba aa86 843b 4af1 85bb 18a0 953b
00000390: 3c9d b8bb 0d69 b838 bc75 e4bb a5a4 5abb
000003a0: 188c 39ba 9630 7d3b f49d d43b 0f2c 623b
000003b0: 7fae 9c3b f847 04b9 7e5f 9c3b 589b 2fbb
000003c0: 1b19 81bb 2ec7 b93a ae53 a43b 5d44 8e3b
000003d0: 99cb cc3a 1ca8 db3b e9bb ac37 cfb3 dfba
000003e0: 2c92 24bb 1dab 89b9 c6fe 2b3c 7e51 dcbb
000003f0: 3640 c4bb e643 fdbb 6f54 edbb 4700 073c

network_body._body_endoder.seq_layers.4.weight f4 [256, 256]
-0.17389494 0.050612204 0.1679414 0.015985778 0.062444557 -0.046886913 0.045089304 -0.015936326
-0.030173417 -0.0013751576 0.004038609 -0.06691491 0.064587615 -0.044766344 0.059123892 0.026652269
0.062164262 -0.06305355 -0.029306296 -0.034043893 0.049211733 -0.031915627 -0.0468492 -0.019855034
0.12866543 0.01037812 0.12760319 -0.02981063 0.11008458 -0.030577546 -0.07335963 0.08011923
0.07990679 -0.032981094 -0.17116846 0.01225322 -0.023370871 -0.07375739 -0.022620544 0.084915265
-0.002860464 0.038877174 -0.093146846 0.016332436 -0.088481635 -0.08035237 0.054784697 0.035160977
-0.12633245 0.022607747 -0.09194522 -0.040275484 -0.006998085 0.042846356 -0.026490344 0.05006678
-0.015127712 -0.045472838 0.039078772 -0.010997775 -0.07078487 0.073774904 0.0132847 -0.0144694075
0.04405799 -0.046542883 -0.10703264 0.05019434 0.13666263 -0.035611376 -0.017607357 0.010287125
-0.03717551 -0.09009965 -0.005598757 0.08791447 -0.068240486 -0.0077270363 -0.0003644531 0.09074129
0.041874044 0.01737618 -0.12113608 0.10307103 -0.017578587 0.10739577 0.024967577 -0.037275035
-0.05296564 0.011072546 -0.034028247 -0.00032623362 0.1066529 -0.038683247 0.1481991 -0.0006059317
0.0131099755 0.05178949 0.009259597 0.068363465 0.12994806 0.03553751 -0.061818056 -0.061186757
0.026851572 0.028500173 0.14103307 0.03641566 0.0072545335 0.062223647 -0.07865323 -0.18087476
-0.055858362 0.1305548 0.026187604 0.116441205 0.036425974 -0.038430076 0.08868348 -0.0826946
-0.07427258 -0.063393146 -0.0067544547 0.13081886 -0.06998856 0.012093037 -0.011116171 -0.04253194
-0.010025638 -0.030108668 0.0017721679 -0.08856152 0.096176386 0.029383224 0.045066338 0.04604903
0.06881111 0.028090425 0.04691475 0.008171465 -0.019033128 -0.07406266 0.059872016 0.02629952
-0.026393542 -0.038386237 -0.042550243 -0.060797658 0.015395083 -0.045320872 0.06971973 0.08086725
0.008334324 0.019928997 -0.049996324 -0.012038422 -0.021099346 0.052420523 -0.020067522 -0.010441035
-0.04823325 -0.03802919 -0.08061246 -0.072834246 -0.06175957 0.06530512 -0.08603578 0.05807984
0.03217592 -0.06923175 0.023395618 -0.06933028 0.06336156 0.0975876 -0.01860455 -0.019460505
0.04783202 0.083247006 0.087874316 -0.015334761 -0.06611515 -0.039764717 -0.03508718 0.02237881
0.010460669 -0.03635416 0.0599437 -0.09263917 0.03980213 -0.06644933 -0.10861407 -0.041228652
-0.036693282 -0.08198781 -0.10021885 0.04107011 0.057131212 0.06472718 0.02601499 -0.056875117
0.10472365 -0.026552899 -0.10039303 0.043750413 -0.034882706 -0.10705862 -0.03143353 -0.024024636
-0.031172814 -0.07756805 0.007737867 -0.09176641 0.032468036 0.109373055 0.08555429 -0.044816412
0.061408974 0.00926412 0.00846226 0.04070733 0.108290195 0.048353802 -0.017153414 0.079014964
-0.057985723 -0.06364232 -0.060184993 0.00033250396 0.07470345 0.051841557 0.017208511 -0.028968723
0.049901877 0.042417057 -0.01424715 -0.037713256 0.02608298 0.016866434 -0.068340465 -0.06012463
-0.06829979 0.21174915 0.001269695 -0.029557157 0.036532648 -0.041382357 -0.054611504 0.014401376
-0.08940265 0.06713106 -0.027031919 -0.09937307 -0.03476018 -0.036105964 -0.012298613 -0.008948825
00000000: 8411 32be be4e 4f3d d5f8 2b3e 9bf4 823c
00000010: ddc5 7f3d 7e0c 40bd 90af 383d e68c 82bc
00000020: 3e2e f7bc a23e b4ba 4f56 843b af0a 89bd
00000030: 8346 843d ea5c 37bd e52b 723d dc55 da3c
00000040: f49f 7e3d 3822 81bd c213 f0bc 9c71 0bbd
00000050: 3e92 493d f6b9 02bd f2e4 3fbd 06a7 a2bc
00000060: dfc0 033e fd08 2a3c 69aa 023e 6c35 f4bc
00000070: 0674 e13d c37d fabc 933d 96bd 8d15 a43d
00000080: 2ca6 a33d 2f17 07bd c946 2fbe bbc1 483c
00000090: 4574 bfbc 1d0e 97bd b84e b9bc 0ee8 ad3d
000000a0: 9f76 3bbb ac3d 1f3d c6c3 bebd 9acb 853c
000000b0: dc35 b5bd c98f a4bd eb65 603d f504 103d
000000c0: 4b5d 01be e233 b93c c74d bcbd e8f7 24bd
000000d0: 3150 e5bb a97f 2f3d 4702 d9bc d312 4d3d
000000e0: 39da 77bc ba41 3abd 1011 203d 0330 34bc
000000f0: a8f7 90bd 4c17 973d 12a8 593c 1811 6dbc
00000100: 2776 343d c0a3 3ebd ee33 dbbd 9598 4d3d
00000110: 4af1 0b3e 3cdd 11bd 4e3d 90bc 548b 283c
00000120: 5945 18bd 2a86 b8bd c775 b7bb 800c b43d
00000130: abc1 8bbd 1433 fdbb 1114 bfb9 92d6 b93d
00000140: 1e84 2b3d 7e58 8e3c 3116 f8bd e716 d33d
00000150: f800 90bc 50f2 db3d ce88 cc3c b5ad 18bd
00000160: 80f2 58bd a069 353c 3461 0bbd 560a abb9
00000170: d66c da3d 5372 1ebd 81c1 173e 63d7 1eba
00000180: 39cb 563c 3721 543d 91b5 173c 2502 8c3d
00000190: 1b11 053e c88f 113d ee34 7dbd f79e 7abd
000001a0: d4f7 db3c 3279 e93c f96a 103e 9628 153d
000001b0: 70b7 ed3b 39de 7e3d f214 a1bd 3c37 39be
000001c0: bdcb 64bd 28b0 053e 6387 d63c ba78 ee3d
000001d0: 6733 153d db68 1dbd af9f b53d c95b a9bd
000001e0: 391c 98bd 44d4 81bd 7954 ddbb 61f5 053e
000001f0: 2a56 8fbd e021 463c 9a20 36bc f935 2ebd
00000200: 9342 24bc 74a6 f6bc 1648 e83a be5f b5bd
00000210: 20f8 c43d 16b5 f03c 7b97 383d e89d 3c3d
00000220: d7ec 8c3d e41d e63c ae29 403d 9ce1 053c
00000230: 5deb 9bbc 2aae 97bd 5c3c 753d 1772 d73c
00000240: 4537 d8bc e33a 1dbd 2a49 2ebd f706 79bd
00000250: a93b 7c3c 61a2 39bd 38c9 8e3d bb9d a53d
00000260: b08c 083c 2342 a33c f2c8 4cbd cd3c 45bc
00000270: 89d8 acbc e7b6 563d a564 a4bc e010 2bbc
00000280: 3a90 45bd 7fc4 1bbd 2518 a5bd 1f2a 95bd
00000290: 9af7 7cbd b1be 853d 8733 b0bd 20e5 6d3d
000002a0: e6ca 033d 60c9 8dbd 2ba8 bf3c 09fd 8dbd
000002b0: b5c3 813d 02dc c73d 9268 98bc a36b 9fbc
000002c0: 82eb 433d 687d aa3d 73f7 b33d a63e 7bbc
000002d0: 6167 87bd 54e0 22bd 93b7 0fbd c453 b73c
000002e0: 3a63 2b3c 1ae8 14bd 8687 753d 9bb9 bdbd
000002f0: 8f07 233d 9616 88bd 0e71 debd 60df 28bd
00000300: b24b 16bd 3ae9 a7bd 8a3f cdbd 2239 283d
00000310: 6b02 6a3d af8f 843d 631d d53c e2f5 68bd
00000320: 5a79 d63d 7785 d9bc dc9a cdbd a233 333d
00000330: 2be1 0ebd 8d41 dbbd 72c0 00bd 50cf c4bc
00000340: 215e ffbc ffdb 9ebd ef8d fd3b 07f0 bbbd
00000350: 34fd 043d fbfe df3d 1637 af3d 6a91 37bd
00000360: fa87 7b3d 89c8 173c 4aa5 0a3c bbbc 263d
00000370: 40c7 dd3d a30e 463d 5185 8cbc 99d2 a13d
00000380: 7082 6dbd e856 82bd 8a84 76bd ed53 ae39
00000390: 1ffe 983d d057 543d ddf8 8c3c d14f edbc
000003a0: e965 4c3d 82bd 2d3d e16c 69bc 3779 1abd
000003b0: f9ab d53c 7a2b 8a3c 16f6 8bbd 3e45 76bd
000003c0: c3e0 8bbd c5d4 583e e56b a63a da21 f2bc
000003d0: 42a3 153d 8c80 29bd 50b0 5fbd c0f3 6b3c
000003e0: bd18 b7bd 027c 893d 0b72 ddbc 1c84 cbbd
000003f0: b160 0ebd d9e3 13bd 1f80 49bc 189e 12bc

network_body.observation_encoder.processors.0.normalizer.running_mean f4 [68]
0.29102352 0.4859621 0.22270638 0.6604468 0.27919835 0.56629705 0.15421459 0.6108078
0.36741102 0.41414782 0.21806073 0.63805795 0.25774157 0.6421617 0.09964502 0.5585149
0.3768894 0.39502442 0.22742693 0.6275105 0.18836778 0.73880213 0.071412265 0.5441143
0.36498684 0.45145854 0.17909132 0.60944223 0.15387866 0.7746733 0.066071965 0.51359564
0.35447338 0.48978123 0.1414363 0.5696071 0.13312949 0.78463864 0.06665994 0.47482988
0.28171667 0.5596242 0.123819694 0.5575795 0.11688789 0.76613194 0.03155888 0.46040973
0.21149607 0.60503495 0.061617892 0.52723134 0.1061291 0.64337957 0.005200148 0.44373304
0.1793269 0.5370863 0.0106903305 0.46002656 0.12972976 0.56951666 0.007254208 0.4368943
0.12972976 0.56951666 0.007254208 0.43689427
00000000: 0901 953e 06d0 f83e 240d 643e 0b13 293f
00000010: 16f3 8e3e d8f8 103f 6eea 1d3e e65d 1c3f
00000020: 4c1d bc3e 2f0b d43e 504b 5f3e c457 233f
00000030: b4f6 833e b664 243f b012 cc3d d5fa 0e3f
00000040: a6f7 c03e a440 ca3e 9be2 683e 87a4 203f
00000050: 7ce3 403e 2322 3d3f 9840 923d 134b 0b3f
00000060: 8edf ba3e 9325 e73e b763 373e 6804 1c3f
00000070: 5e92 1d3e fd50 463f bd50 873d 017b 033f
00000080: 897d b53e 9bc4 fa3e add4 103e c5d1 113f
00000090: 1953 083e 14de 483f 0285 883d e71c f33e
000000a0: 2b3d 903e 8843 0f3f 2e95 fd3d 88bd 0e3f
000000b0: eb62 ef3d 3921 443f e243 013d d3ba eb3e
000000c0: 6d92 583e 92e3 1a3f 0b63 7c3d a2f8 063f
000000d0: 375a d93d 86b4 243f 0166 aa3b fa30 e33e
000000e0: 79a1 373e 7d7e 093f 7f26 2f3c 9a88 eb3e
000000f0: e1d7 043e d8cb 113f b5b4 ed3b 9cb0 df3e
00000100: e1d7 043e d8cb 113f b5b4 ed3b 9bb0 df3e

network_body.observation_encoder.processors.1.normalizer.running_mean f4 [6]
-8.033949 -3.3937783 -10.999725 6.9998455 11.505348 150.04158
00000000: 0e8b 00c1 aa33 59c0 e0fe 2fc1 bcfe df40
00000010: e815 3841 a50a 1643
