Assets/Training/results/alap2/TreasureSearch/TreasureSearch-1499984.onnx (onnx, 608683 bytes, 13 tensors)

65 f4 [68]
000000 18 50 b7 3e 9b fd e5 3e a5 db ab 3e cf 28 6d 3e
       0.35803294 0.44920048 0.33566013 0.23160098
000010 d7 3d af 3e 9c 52 f6 3e 01 e8 d6 3e 5a fc 60 3e
       0.34226868 0.481099 0.4197388 0.21971264
000020 f7 06 de 3e 60 51 f9 3e 45 2b af 3e bf bd 7b 3e
       0.4336469 0.48694897 0.342127 0.24584101
000030 71 fb d7 3e 53 e2 fa 3e 00 d8 bf 3e a2 ed 77 3e
       0.42184022 0.49000797 0.37469482 0.24211743
000040 03 8c e2 3e 84 eb fa 3e 78 40 ae 3e 0c d0 89 3e
       0.44247445 0.4900781 0.3403356 0.2691654
000050 70 b7 f6 3e 03 08 ff 3e 31 57 c3 3e 0f b0 b2 3e
       0.48186827 0.498108 0.3815246 0.34899947
000060 03 9e e1 3e 9f 3f fa 3e a4 9a ac 3e d0 da 9d 3e
       0.44065866 0.48876664 0.3371173 0.30831003
000070 ae db f3 3e 79 62 e9 3e 33 fe 64 3e c2 6c a5 3e
       0.4762854 0.4558294 0.22362594 0.32309538
000080 33 18 f7 3e 8d b1 ee 3e 26 82 5d 3e 15 a1 9a 3e
       0.4826065 0.46619835 0.21631679 0.3020102
000090 b6 8b ef 3e 14 bb ff 3e 14 9c b7 3e 05 ee b1 3e
       0.46786278 0.49947417 0.35861266 0.34751907
0000a0 84 ea e6 3e d8 a1 fc 3e c3 89 ad 3e 09 16 a4 3e
       0.45100796 0.49342227 0.33894166 0.3204806
0000b0 74 66 e6 3e c4 22 fd 3e 1e b1 ae 3e 95 79 87 3e
       0.4500004 0.49440587 0.34119505 0.26459947
0000c0 53 4f f3 3e 1b 84 f9 3e d8 c1 85 3e db d0 82 3e
       0.47521457 0.487336 0.26124454 0.2554997
0000d0 14 9d f4 3e 5a ad e5 3e 51 85 eb 3c 7b 4c 48 3e
       0.4777609 0.4485882 0.028750094 0.19560425
0000e0 d7 a1 a9 3e 01 f0 eb 3e e3 ea 98 3c 88 be 2e 3e
       0.33131287 0.46081546 0.01866669 0.1706487
0000f0 05 93 ce 3e 4d 86 e5 3e be 3b 9a 3c 84 bf 2b 3e
       0.40346542 0.44829026 0.018827315 0.16772276
000100 05 93 ce 3e 4e 86 e5 3e bd 3b 9a 3c 82 bf 2b 3e
       0.40346542 0.4482903 0.018827314 0.16772273

68 f4 [6]
000000 cd 9e e6 3f eb 52 5c 40 62 dc 13 3c 04 2f bd 3b
       1.8017212 3.442561 0.009024711 0.005773427
000010 0d e9 52 40 a1 5b ce 42
       3.2954743 103.17896

action_model._continuous_distribution.log_sigma f4 [1, 2]
000000 dd 8c e2 3b 47 68 91 ba
       0.006913765 -0.0011093699

action_model._continuous_distribution.mu.bias f4 [2]
000000 4e 6b 23 3b 47 f6 cc 3b
       0.0024935785 0.0062549445

action_model._continuous_distribution.mu.weight f4 [2, 256]
000000 b8 7b 33 bc 0c 29 8d b9 f5 76 a2 3c 2a ab 20 bd
       -0.01095479 -0.00026924198 0.019832114 -0.039225735
000010 9c e7 7c b9 fb 12 8c 3c 87 d9 ec 3c 6d b0 28 bb
       -0.00024118874 0.017098894 0.028912319 -0.0025739924
000020 34 99 05 bc 7b 61 e7 3c cb 74 9d 3c 89 32 05 bd
       -0.008154202 0.028244724 0.01922073 -0.032518897
000030 75 27 aa 3c f0 15 9c bc 0e cb 70 3c 75 c0 c1 3c
       0.020770768 -0.01905343 0.0146968495 0.023651341
000040 ae 35 54 bc 2c e8 5e 3c 40 6f 69 39 f6 07 4f bc
       -0.012952251 0.013605159 0.00022262055 -0.012636175
000050 f9 10 a2 3c 8e e3 c7 bc df 71 90 3c 0b 71 04 3d
       0.019783484 -0.024400499 0.017632423 0.03233437
000060 b3 0e 3e bc 10 58 bc bc 86 36 05 3c 1a 88 8e 3c
       -0.011600184 -0.02299121 0.008130675 0.017398883
000070 11 53 72 3b 21 7d a7 3c 3a 6e a6 bc 21 22 bb bb
       0.003697578 0.020445408 -0.020316232 -0.0057108556
000080 01 71 ca 3b e6 18 dd 3c bd 84 9e bc 4d c9 02 3d
       0.006178022 0.026989412 -0.019350404 0.031930257
000090 9f 4a d9 bc f0 66 f3 bb a8 ea 51 bc 7c 4f 06 bb
       -0.02652484 -0.0074280426 -0.012812294 -0.0020494154
0000a0 0a 5d 12 bc 74 4f 4e ba 7b 34 05 bc 8d 8e c0 bb
       -0.008933315 -0.0007870116 -0.008130188 -0.0058763684
0000b0 b7 fb a2 bb 4c 38 af 3c c6 b8 b6 3b 8e 34 bf 3b
       -0.0049738544 0.02138915 0.005576226 0.0058351224
0000c0 b8 d2 11 bd 50 9d 28 bc a7 26 99 bc 10 68 f4 bb
       -0.035601348 -0.0102914125 -0.018695189 -0.0074586943
0000d0 db ad 61 bc 99 ce 26 3d 0f d1 4a bc ed 39 0e 3c
       -0.0137743605 0.04072437 -0.012378945 0.008680803
0000e0 c0 c2 aa 3c 32 78 39 3c 10 4b 08 3d c9 e0 81 bc
       0.020844817 0.011320161 0.03327471 -0.015854256
0000f0 02 2b 6e bc 6e 6e 04 3a 93 6f c2 bc 25 8f ed bc
       -0.014536621 0.00050518557 -0.023734843 -0.02899892
000100 7b 3a 78 bb f8 9d a0 bb 7a bb bd bc 48 5e 25 3c
       -0.0037876654 -0.004901644 -0.023160685 0.010093279
000110 f1 d3 1a bc 9c bb b1 3c ff 36 aa 3c 46 ef 05 bc
       -0.009449945 0.021695904 0.020778177 -0.008174723
000120 93 29 87 3b 75 5b 22 bb 9b 08 00 bd 77 3d 59 bc
       0.004124829 -0.002477375 -0.031258207 -0.013259283
000130 17 c8 84 3c e8 74 a8 3b 97 ee e1 bc bd c5 f1 3c
       0.016208692 0.0051408894 -0.027579589 0.029513234
000140 2b f1 cd bb 26 64 7d 3c 3b 8f a6 bc 5b cc 92 bc
       -0.006284853 0.015465772 -0.02033197 -0.01791971
000150 95 7f 89 3b b2 17 0a 3d c0 29 82 3c e7 c0 c0 3c
       0.004196117 0.033714004 0.015889049 0.023529483
000160 0d 91 b4 bc b6 fb de 3c 10 46 0c 3d 17 c6 14 3d
       -0.022041822 0.027219635 0.034246504 0.036321726
000170 61 c5 4a bc e9 b7 06 bd 4c d5 9a bc 52 1b 1c 3c
       -0.01237616 -0.032890234 -0.018900536 0.009527998
000180 87 8b 07 3b 5a 9a 26 bc 11 27 10 3d 04 e1 9f bc
       0.002068253 -0.010168636 0.035193507 -0.019516475
000190 e7 55 78 3c 81 50 e5 bc 6c b6 23 bb b2 13 2b 3d
       0.015157199 -0.027992489 -0.0024980558 0.04176683
0001a0 a6 f5 66 bd 58 03 6e bb d1 28 8f 3b 4a 2e a0 bb
       -0.056386612 -0.003631791 0.0043688794 -0.0048883306
0001b0 f8 69 c2 bc c5 dd da bc fe 19 cb bc 99 3b cb 3b
       -0.02373217 -0.026717076 -0.024792667 0.006202173
0001c0 f2 2f 8a bc b7 b3 60 3c 31 89 e9 bc 99 1c a4 bc
       -0.016868565 0.013714722 -0.0285078 -0.020033168
0001d0 d0 3b 6f 3b 2d e6 6b bc 21 d6 bb ba 66 b7 d9 bc
       0.0036504157 -0.01439814 -0.0014330783 -0.026576709
0001e0 71 b5 48 bc 5d da fa ba b6 c3 f8 bb 5f 69 56 3c
       -0.01225029 -0.0019138564 -0.00759169 0.013086646
0001f0 2a 31 d1 bb e1 45 09 bd ae ce d3 bc ce e8 4f 3c
       -0.0063840346 -0.033513907 -0.025855388 0.012689782
000200 ca e6 7a bc 02 3a f0 bc 9d 83 96 3b ba 9b 98 bc
       -0.015313813 -0.029324535 0.0045933262 -0.018628944
000210 13 7c 8b bc f9 64 1f 3c 83 41 12 bb f6 13 d6 3b
       -0.017026937 0.009728664 -0.002231688 0.0065331412
000220 31 0e f9 bb 2b b3 96 3b 32 97 58 bc 75 11 f2 bc
       -0.0076005687 0.004598995 -0.0132196415 -0.02954934
000230 0b 64 d1 bc ce 43 07 3d b8 f2 e1 bb 6c 82 34 bc
       -0.0255604 0.033023648 -0.0068953894 -0.011017423
000240 71 08 b4 3c da 68 b9 bc 36 7f b8 bc cb 4b 22 bc
       0.021976681 -0.022633005 -0.022521596 -0.009905766
000250 88 4d 09 3d a8 bf 7c 3c d7 56 59 bc 1f d7 ca 3b
       0.033521205 0.015426554 -0.013265333 0.006190195
000260 e5 c0 94 3c ab 1f 95 3c c8 3a 01 3d 15 52 10 3c
       0.018158386 0.018203577 0.0315502 0.008808632
000270 06 f2 18 bc 81 b2 0d 3d f5 67 95 3a e7 b9 8c bc
       -0.009335047 0.034594063 0.001139878 -0.017178489
000280 43 3b 71 3c 82 0c 1a bb 34 e3 fb bb e7 5e 8c bc
       0.014723602 -0.002350599 -0.007686997 -0.017135097
000290 7e 7d 85 bc a1 49 f6 bc 13 76 68 bc 20 0e 0a 3c
       -0.01629519 -0.030064406 -0.014188307 0.008426219
0002a0 f9 4f 46 3c ef ed aa 3c 9e 10 a0 3c 69 9e ba 3c
       0.012104028 0.020865409 0.019539174 0.022780614
0002b0 42 7d b0 bc 21 eb 41 bc 94 dd 51 3c 2b 0f d1 3c
       -0.021544103 -0.011835844 0.012809176 0.025519928
0002c0 4b cd 62 3b 85 68 e4 3c 22 50 99 3c 7b 87 34 bc
       0.0034607227 0.02788187 0.018714968 -0.011018629
0002d0 75 86 72 bc c5 80 f7 3a 16 3e 40 3c ea 65 ba bc
       -0.014802565 0.0018882981 0.011733552 -0.022753675
0002e0 ce 0d c1 bc 97 04 e1 3c 73 72 7f 3b c7 6f 0b 3c
       -0.023566153 0.027468009 0.003897813 0.0085105365
0002f0 f8 b9 85 bc f7 e7 60 bc db ac 31 bc 6a d2 14 3d
       -0.016324028 -0.01372718 -0.010844435 0.03633348
000300 77 da c4 bc a8 7f cb 3c 05 28 f3 3c cf a5 1f 3c
       -0.024029953 0.024841145 0.029682169 0.009744122
000310 cb fa ec 3c 3b 20 d8 3c 9e d0 06 bd 2d c7 8a bc
       0.028928181 0.026382556 -0.032913797 -0.016940678
000320 c9 5d 99 3c cf dc 81 3c 36 46 72 bc a0 77 58 bc
       0.018721478 0.01585236 -0.014787247 -0.013212115
000330 96 08 b8 bc e0 6a f6 bc 16 91 0f bd 11 fd 46 bb
       -0.022465032 -0.030080259 -0.035050474 -0.0030363242
000340 d1 d5 96 3c a7 8f b3 bc 33 a5 2d 3d 7e 82 d5 3c
       0.018412502 -0.021919085 0.042393874 0.0260632
000350 0f cd f9 3c 8e 1a f5 bc bd 70 f3 bc 33 fe 3e 3c
       0.030493287 -0.029919889 -0.029716844 0.0116572855
000360 64 1f ca bc 69 84 86 bc 83 6e 8e 3c a3 69 e0 3c
       -0.024673171 -0.01642056 0.01738668 0.027394122
000370 87 25 26 bd c5 00 d2 bc 51 19 8b bc 1b e2 c7 bc
       -0.040563133 -0.025635133 -0.016979845 -0.024399808
000380 cb fd 79 bc dc fc cb bb ec 5a c0 3c cf e7 c4 bc
       -0.015258263 -0.0062252115 0.023480855 -0.024036316
000390 f7 99 07 bb 96 36 02 3d a4 f0 22 bc 84 db 41 3c
       -0.0020691135 0.03179034 -0.0099450685 0.011832122
0003a0 d1 f4 2b 3b 36 df 45 bd 98 42 0c bd 21 e3 ff bc
       0.0026238451 -0.048308574 -0.034243196 -0.031236233
0003b0 46 d2 0f bd 59 c3 c4 3c 01 a2 be bc ab 2a ba 3c
       -0.03511264 0.02401893 -0.023270609 0.022725424
0003c0 0d bd 19 bb 3b 3d 21 3c 71 5a 00 3c d7 b3 24 3d
       -0.002345863 0.009841259 0.007834063 0.04021057
0003d0 7a 32 b5 3c 6e fc cc bc 3a 32 ae bc 5b 1e 26 3c
       0.022118796 -0.025022712 -0.021264184 0.010139073
0003e0 3e dc fb bc 48 fc 8c 3c c7 92 9a 3c 2c 19 be 3c
       -0.030744668 0.01721014 0.018868817 0.023205362
0003f0 a8 41 00 bc 53 ea 6d 3b 25 b8 25 bb 43 dd 9c 39
       -0.007828154 0.0036302998 -0.002528676 0.00029919491

network_body._body_endoder.seq_layers.0.bias f4 [256]
000000 36 cf b6 bb 91 03 39 3c cf 07 c1 3b fa ad db 3b
       -0.0055789007 0.011292354 0.0058908234 0.006704089
000010 2c 3a 07 3b 44 97 d5 3b bb 13 22 bb 4c 9f ca ba
       0.0020634038 0.0065182764 -0.0024730999 -0.0015458851
000020 4c 99 0c 3c fc 84 f8 3b ef 81 9a bb 19 a4 f4 3b
       0.008581471 0.0075842123 -0.0047151963 0.007465851
000030 c1 78 21 3c 23 f1 cb 3c 01 12 f6 3b 4b 1c 25 3b
       0.00985545 0.024895256 0.0075094705 0.0025193866
000040 53 aa 8b bb d1 dd 30 3c 7b 8d 69 3b 03 22 a2 3b
       -0.0042622476 0.010795073 0.0035637307 0.004947902
000050 ac 25 9a 3b 2b 56 d1 bb c5 da 88 3b 5b 20 e7 3b
       0.004704198 -0.006388446 0.00417647 0.0070534176
000060 05 31 50 3c 1a 8d 5b 3c 66 9b c8 3c 19 a5 38 3b
       0.012707 0.01340034 0.024488162 0.0028174578
000070 b9 29 a8 3b 81 b4 31 ba 6d 4c e5 3b 12 11 47 3c
       0.005131927 -0.00067789113 0.006997636 0.012150066
000080 31 15 7c 3c 18 55 1a 39 4a ec 3e 3c 78 54 1b 3b
       0.015385912 0.00014718284 0.011653015 0.002370147
000090 94 e9 b4 bb 5a b1 92 3b 47 92 6c 3c 61 db dc b9
       -0.0055210087 0.0044767084 0.014439172 -0.0004212512
0000a0 df 1c 9d ba 0e 4d c9 3b 30 4b e5 3b 4a f5 79 3c
       -0.0011986754 0.006143219 0.0069974884 0.015256235
0000b0 b9 2c 13 3c 3e 3c 64 3c 12 e5 88 3c 18 4e 67 3b
       0.008982831 0.0139303785 0.016710792 0.003529435
0000c0 36 26 85 3c 58 56 29 bb d6 1a a0 3b 2f 99 e4 bb
       0.016253572 -0.0025838818 0.0048860116 -0.0069762687
0000d0 4e 46 43 ba c1 42 98 3b 70 02 08 3a ad 60 35 ba
       -0.0007449136 0.0046466296 0.00051883515 -0.0006919008
0000e0 c9 89 8c ba aa b3 d1 3c 66 9f 92 bb 8c 5f 76 3b
       -0.0010722216 0.025598366 -0.004474568 0.0037593571
0000f0 ad 68 0b 3c 0f a5 97 3c 9d ae 37 3b 75 90 02 3a
       0.008508843 0.018511323 0.0028027662 0.0004980632
000100 2f 9f 2c 3c ff e1 f0 3b 29 fd 5a bb 7f 9f 3a 3a
       0.010535999 0.0073511596 -0.0033415055 0.00071191037
000110 86 23 7f 3b 75 4b bf 3c 8f d1 c9 3b 54 81 63 3c
       0.0038931086 0.02335141 0.0061590145 0.013885815
000120 51 c6 84 bb 9c 3d 49 3c 2d 59 05 3a a7 7c 03 3c
       -0.0040519615 0.012282755 0.00050868356 0.008025325
000130 ec e6 1c 3c cc ef 10 3c 03 d5 8d 3c 37 14 81 bb
       0.00957654 0.0088462345 0.017313486 -0.0039391774
000140 00 50 8f bb 2b 66 bc bb 57 cb 18 3b af c2 aa 3b
       -0.0043735504 -0.005749484 0.002331456 0.0052111964
000150 d6 52 ab 3c 29 5e 76 bb 31 fa 0b bb 2a 67 26 3c
       0.020913523 -0.0037592745 -0.0021358842 0.010156432
000160 a7 9b 42 3c ad 9a 5e 3c 2b 70 b7 3c 20 21 19 3c
       0.011877931 0.013586682 0.022392353 0.0093462765
000170 54 9b 81 3b fd af b4 3a b9 d8 59 3c ac 20 54 3c
       0.003955284 0.0013785359 0.0132963 0.012947243
000180 11 a6 60 3c 8b 39 41 3c bb 62 59 3c ae f6 d6 bb
       0.013711468 0.0117935045 0.013268168 -0.006560168
000190 7a ea e9 3b f2 38 2e 3c 9d 03 8e 3c 78 c4 3a 3b
       0.0071385475 0.010633694 0.017335707 0.0028498452
0001a0 b1 01 06 3c 6e 41 a4 ba a6 7d e7 bb fb 76 95 3c
       0.008179114 -0.0012531707 -0.007064539 0.01824521
0001b0 0b 33 25 3b d8 d8 2c 3c 71 d9 7e 3c 42 2e 5a 3a
       0.0025207426 0.010549746 0.015554772 0.0008322933
0001c0 ef 1e ae 3c e1 fa 5b 3c 59 98 40 bc 79 87 d2 3a
       0.021254985 0.013426513 -0.0117550725 0.0016062103
0001d0 f2 d0 17 bc dd c8 34 3c ce 33 49 bb 1b c4 9f 3a
       -0.009266125 0.011034218 -0.0030701044 0.0012189181
0001e0 28 61 a8 bb 02 1e bd 3c 4d 5e 9e 3b f8 0e 55 3c
       -0.005138535 0.023085598 0.004833019 0.013004057
0001f0 b9 5f 61 3b 1b 7c 02 3c 12 75 18 3c 01 70 20 3c
       0.003438933 0.007964159 0.0093052555 0.009792329
000200 d3 16 8e 3c 8f de ef 3a e1 9d 4f 3c 33 8d 04 3c
       0.017344868 0.001830058 0.012671919 0.008090305
000210 ca d3 48 3c 69 2c bc 3a e5 b7 87 3c 1a b2 25 3c
       0.012257526 0.0014356497 0.01656718 0.0101132635
000220 01 a9 1c 3c d8 a2 33 bc 09 4a d7 3b e2 02 4a 3c
       0.009561778 -0.010964118 0.006570105 0.012329789
000230 e9 0f 35 bb aa b3 57 3c 92 3e 82 3c 27 b6 aa 3c
       -0.0027627891 0.013165394 0.015898976 0.02083881
000240 b4 76 b0 ba 99 ec fc bb 89 39 1e 3c ff 0b e7 3b
       -0.0013463111 -0.0077186343 0.009657272 0.0070509906
000250 c4 b1 26 b9 c5 af 61 3c 32 31 da 3c de 1d d7 bb
       -0.00015897217 0.013774817 0.026634786 -0.0065648397
000260 18 09 4e 3b fd 20 f9 3b 63 b5 51 3b 90 37 6d 3c
       0.0031438526 0.0076028095 0.0031998984 0.014478579
000270 31 27 b0 3c 5f dc 59 3c 45 d1 a5 bb 0b 3a 8c 3c
       0.021503063 0.0132971695 -0.0050603473 0.01711752
000280 b6 f1 27 3c 9c d2 6f 3b 9f cf 91 3b ff 1c 37 3c
       0.0102504995 0.0036594039 0.004449799 0.011176347
000290 cf 69 de 3c bd 2c 6b 3b 73 a1 0e 3c 59 99 b0 3b
       0.027150063 0.003588482 0.008705485 0.005389374
0002a0 0d ba 69 38 7c ab 86 3c 02 79 fb 3b 61 5c 3a 3c
       5.5724802e-05 0.016439192 0.0076743374 0.011374564
0002b0 ee 42 81 bb 94 a5 f0 b9 95 af 63 3c a9 b6 80 ba
       -0.003944746 -0.00045899733 0.0138968425 -0.0009820062
0002c0 c1 95 f5 b9 3a 8b 8b 3c 99 ce ef 3b 12 e8 8b 3c
       -0.00046841617 0.017034162 0.0073183295 0.017078433
0002d0 b5 6e 8a 3c 73 ef ed 3a 01 f4 38 b8 2e 22 55 bb
       0.016898492 0.0018153026 -4.4096265e-05 -0.0032521593
0002e0 4b 91 59 3c 1f 88 43 3c 29 f2 8c 3c af a3 cd 3b
       0.013279269 0.011934309 0.017205315 0.006275616
0002f0 17 d7 1f 3a 74 f2 1f 3c 8d a4 ad 3c 86 39 06 bb
       0.00060974195 0.009762395 0.021196628 -0.0020481064
000300 8b d6 8a 3c 07 5d 58 3a a4 8a 0b 3c 3f 30 ab 3c
       0.016948005 0.0008253608 0.008516941 0.020897029
000310 aa e4 cf b9 12 1a 23 3c d5 63 26 3c 9f bd 85 bb
       -0.00039652485 0.009954946 0.010155638 -0.0040814425
000320 89 ed a3 3c dd e7 66 3c 10 bb 1d 3c e0 ce ba 3b
       0.020010727 0.014093366 0.009627119 0.005700931
000330 bc 57 16 3c f1 fa 3a 3c 8b 20 42 3b 7d 57 55 3c
       0.009176191 0.011412368 0.0029621448 0.013021347
000340 3a 05 3d 3a 97 cf 49 3b b5 b1 8c 3c cc 3a 5e 3c
       0.00072105567 0.00307939 0.017174581 0.013563823
000350 c9 1e a7 3c e5 ce 04 3a f6 3d 42 3c 25 95 8c bb
       0.020400422 0.000506623 0.011855593 -0.0042902404
000360 4f 5c 58 bb 4f c1 28 3c a3 10 08 3c 61 f4 6e 3c
       -0.0033014005 0.010299995 0.008304748 0.014584632
000370 aa 91 8d 3c b4 27 7a bc 83 f5 a7 3c bf 2e 84 bb
       0.017281372 -0.015268255 0.020502811 -0.004033893
000380 99 8e 2a bb 3c c9 2d 3c b7 ab 82 3c 8e 28 0d 3c
       -0.0026024936 0.01060706 0.01595102 0.008615626
000390 5e 11 5b 3c b0 90 8d 3c 9a 2f 48 3c 13 41 3f 3c
       0.01337084 0.017280906 0.01221838 0.01167323
0003a0 34 eb e4 3b b7 39 47 bc c3 79 20 3c 1b c2 dc 38
       0.006986046 -0.012159756 0.009794655 0.000105265724
0003b0 57 59 2c 3c 5b 80 14 3b 00 4f 87 3c dc 6c 59 bc
       0.010519347 0.0022659514 0.016517162 -0.013270583
0003c0 da 89 82 3b e7 79 80 3b f8 a1 30 3c 17 24 e8 3b
       0.0039837183 0.003920782 0.010780804 0.0070843804
0003d0 ab 51 59 3c 89 76 c5 3c 92 1b d1 3b 4e 28 36 3b
       0.0132641 0.024104374 0.0063814605 0.002779502
0003e0 c4 53 7f bb 03 c9 78 3c 06 cd c6 3b 20 9a 12 bb
       -0.003895984 0.015184644 0.006066921 -0.0022369698
0003f0 ca c3 26 39 35 2d 85 ba 2a 92 c8 bb 0a 8d a3 3b
       0.00015903931 -0.0010160567 -0.0061209397 0.0049911784

network_body._body_endoder.seq_layers.0.weight f4 [256, 74]
000000 77 db 42 bd 0d ad f5 3b 79 1a 18 3d 11 58 0c be
       -0.04757258 0.007497436 0.03713462 -0.1370547
000010 7e 1b 8b 3d f9 1a 9c 3d d0 5c 0a 3e ff 2c 71 bd
       0.06792353 0.07622332 0.13511968 -0.058880802
000020 87 f8 87 3d 2d 64 03 3e 35 5b 75 3e 42 85 3a be
       0.066392 0.12831183 0.23960574 -0.18214896
000030 fe cc 28 be 58 e5 16 3e ee 50 e2 bd cf b6 f1 3c
       -0.16484448 0.14735925 -0.11050592 0.029506115
000040 fe d6 4c be 9b 07 9b bd db 0e 31 3c eb 76 c2 bd
       -0.20003888 -0.0756981 0.0108067645 -0.09495338
000050 5f 3d 00 bd 48 54 c2 3d 8d a5 95 bd 41 b4 e3 bd
       -0.031308528 0.094887316 -0.07306967 -0.11118365
000060 68 c6 eb ba af 20 0b be 81 c6 2a 3c 1c 18 a0 bd
       -0.0017988207 -0.13586687 0.010423304 -0.078170985
000070 f1 93 85 3d 8a 45 18 bd 80 4f cc 3d 16 0a c9 bd
       0.06522358 -0.037175693 0.09976101 -0.09816377
000080 3d 84 4a be c6 87 0b 3e 54 7f 16 3e a8 46 11 be
       -0.19777007 0.13626012 0.1469701 -0.1418711
000090 8b 6d e0 bd b7 16 84 be 94 69 d2 3c f1 b0 b8 bd
       -0.10958394 -0.2579858 0.02568511 -0.09018124
0000a0 f9 2b 44 be 00 a1 13 3e cd 8b 32 bc 59 2e e4 3d
       -0.19157399 0.14416885 -0.010897589 0.111416526
0000b0 31 17 f0 3d 51 0a 07 bd 3c eb a6 bc 57 e4 c0 3d
       0.117231734 -0.032968823 -0.02037584 0.09418552
0000c0 be df 9a bc eb c1 a8 3d f4 41 bd 3e 06 91 a1 bd
       -0.018905517 0.08240112 0.3696438 -0.07888989
0000d0 39 de a1 be 39 fa 2b 3e 5e 50 77 3e d1 84 20 bc
       -0.31614855 0.16794671 0.24151751 -0.009797291
0000e0 d2 a5 25 bd a7 8c a3 bd 2f 8f a7 bd 49 6c 82 3c
       -0.04044134 -0.07985812 -0.08181607 0.015920775
0000f0 08 e8 ca 3d 8f f2 6b 3e 45 ff 51 3c e6 70 71 be
       0.09907538 0.23041748 0.012817209 -0.23578224
000100 f0 59 2e be 3b 59 8a be 65 65 8f bc f2 75 06 be
       -0.17026496 -0.27021202 -0.017504403 -0.1313093
000110 c9 74 69 3d 99 bf b4 3d ae 4a 2a 3c ad 8d de bd
       0.05699614 0.08825607 0.010393782 -0.10866866
000120 00 6c 54 bb 57 08 8c 3c 26 45 77 bd ce 56 30 3d
       -0.0032413006 0.01709382 -0.06036868 0.043051533
000130 d8 0d 75 3e 4c 9a 7d 3c 83 d2 25 bd d9 93 2d 3d
       0.23931062 0.015478682 -0.040483963 0.042377327
000140 3f 7f 19 3e a4 68 94 bd 53 23 26 be 9d a0 72 3d
       0.14989947 -0.07246521 -0.16224413 0.059235204
000150 b8 b5 56 be b1 c2 38 3d 66 d4 fd 3d 16 e2 32 bd
       -0.20967758 0.045107547 0.123940274 -0.043672644
000160 d4 a3 ce bd c3 b8 50 3e e3 19 51 3e ec b7 11 3c
       -0.100898415 0.20382981 0.20420031 0.008893948
000170 b2 06 b4 3d dc fe 86 bd 9c 8f c7 3d 5b ff 53 bc
       0.087903395 -0.06591579 0.09744188 -0.012939299
000180 78 fe 9a bd 18 92 bf bd 13 27 df 3d 98 db ae bd
       -0.07568067 -0.09354037 0.10896125 -0.08537978
000190 62 e4 97 3d 89 da a1 bc 24 3b 4e bd 10 3d 0f 3d
       0.074166074 -0.019757526 -0.05034937 0.034970343
0001a0 40 23 dd 3d a4 e1 0a bd 00 b7 db 3d c3 6a 57 3d
       0.10797739 -0.033906594 0.10728264 0.05259205
0001b0 ff 80 44 3e 8c 91 76 be bc 1b 9b 3d 53 74 c7 3d
       0.19189833 -0.24078959 0.07573649 0.09738984
0001c0 2e 68 47 3e fe 8f 9c bd 00 f0 16 3e 72 37 23 3d
       0.19473335 -0.07644652 0.1473999 0.0398478
0001d0 c4 a6 80 3e a8 d4 91 be 5a 5b 64 3c 5e bf 98 bc
       0.25127232 -0.28482556 0.013937796 -0.018645938
0001e0 32 03 01 3e 86 22 91 3e fb e7 a9 bd 67 e5 65 3d
       0.12598875 0.28346652 -0.082962 0.05612698
0001f0 4f 2b 44 bd 8b cb 73 3e f0 82 5b bb 8e 6b 2f be
       -0.047892865 0.23808114 -0.0033494793 -0.17130873
000200 88 f6 0e bd ba c3 3b 3e d7 f0 20 bd 7c 92 5d 3b
       -0.03490308 0.18336383 -0.039292183 0.0033809235
000210 fb 1f 3d 3c 9f e7 57 3e d9 77 87 3b 65 dd 0a be
       0.011543269 0.2108445 0.00413416 -0.13561018
000220 e0 9d 03 3d 9a fe 45 3d e3 65 9c bd 1a 0b 44 3c
       0.032132983 0.04833851 -0.07636621 0.011965537
000230 8f c5 b7 bd db e8 0f 3d 3c e9 94 bd 63 07 89 bd
       -0.08973228 0.035134178 -0.072710484 -0.06690862
000240 0e 66 00 bb 64 54 a4 bc 53 5d 99 3d aa 99 ca 3d
       -0.001959208 -0.020059772 0.07488503 0.0989259
000250 cf a0 09 3e 34 66 04 3e 0c d3 17 bd d9 61 f3 3b
       0.1344025 0.12929612 -0.037066504 0.007427436
000260 c7 76 ee 3c 0f 00 00 be be c9 5d 3d ee ae c9 bd
       0.029109372 -0.12500022 0.054147474 -0.09847818
000270 4c 07 cb bd 21 33 45 3c df a3 45 be 7e e9 20 3e
       -0.09913501 0.012036116 -0.19300793 0.1571407
000280 0a 30 24 be 52 08 53 be dd 6b 6f 3e bb 8d 99 3a
       -0.1603395 -0.20608643 0.2338099 0.0011715213
000290 5d 70 13 be 50 87 b9 3d ea 29 96 bd f8 dd 42 bd
       -0.14398332 0.09059012 -0.07332213 -0.047574967
0002a0 cb 28 c8 3b 9e a6 74 3d c9 e2 f5 bd 03 54 e8 bd
       0.0061083785 0.05972921 -0.120061465 -0.11344149
0002b0 b5 95 13 3e 1d b1 4f bd 90 1b 01 be e2 6d 04 3e
       0.14412577 -0.050706018 -0.1260817 0.12932542
0002c0 20 4a 4b 3e 98 98 ee bc 28 e0 da 3d 93 3d 11 be
       0.19852495 -0.029125497 0.10687286 -0.14183645
0002d0 7b ac 77 3d 1a 9b 02 be 11 ba aa 3d fe 4a 34 3e
       0.060467225 -0.12754479 0.083362706 0.17606732
0002e0 d5 4a d2 3d 61 d9 09 3e e7 57 97 3d e6 ea a4 3d
       0.10268179 0.1346183 0.07389813 0.08052616
0002f0 18 05 70 3d 67 90 ea bd 75 0f 90 3d df b2 35 3e
       0.058598608 -0.11453324 0.07034198 0.17744015
000300 54 d6 ec bd 84 b1 28 3e f6 16 09 3e ed da 7c bd
       -0.11564317 0.16473967 0.13387665 -0.06173222
000310 df 29 c1 3d 94 de 99 3d b2 14 e8 bc 55 c9 ab bd
       0.094318144 0.075131565 -0.02833018 -0.083880104
000320 8a 9a 83 3d b0 5d 29 be cb 95 de 3d fc 7a 57 3c
       0.0642596 -0.16539645 0.108684145 0.01315188
000330 c2 f0 ce 3d 66 05 a3 bd c3 b0 05 bd 7c c0 59 bd
       0.10104515 -0.07960014 -0.032639276 -0.053162083
000340 97 07 20 3e 1c 2b 05 3e d3 f7 50 3e 29 57 6a be
       0.15627895 0.13004726 0.20407037 -0.22884811
000350 b2 21 b3 bd fb 60 c3 bd a1 b5 1e bd db 2b a7 3d
       -0.08746661 -0.09539982 -0.038747434 0.08162662
000360 0e 9d d6 ba 03 51 30 bd 3e fb 31 bd f8 c8 b3 3d
       -0.001637371 -0.04304601 -0.043452494 0.08778566
000370 f4 de 11 3e 38 99 3b bd 3f 01 49 be 25 b1 09 bd
       0.14245206 -0.045800418 -0.19629382 -0.033616204
000380 24 96 50 bc 78 cd 07 3d 6e 43 b0 3d 7d fe 87 3d
       -0.012731109 0.033154935 0.08606611 0.06640337
000390 c4 8e 48 3d 98 e8 13 3d ef c0 33 bd 96 b9 e9 3d
       0.048964277 0.03611049 -0.043885168 0.11412351
0003a0 a5 87 37 3e 18 60 33 3e 16 0a 00 3c 27 4f 2a 3e
       0.17922838 0.17517126 0.007814905 0.16631757
0003b0 d6 99 df bd ff 93 fe 3d a5 77 12 3e d9 6d e0 3d
       -0.10918014 0.12430572 0.14303453 0.10958452
0003c0 95 ce 6b bd 68 13 06 bd 0c c1 df 3c a5 34 26 3e
       -0.05757006 -0.03273335 0.027313732 0.1623102
0003d0 07 5e 0b be df f9 30 3d 42 65 00 3d c6 ac f7 bd
       -0.13610087 0.043207046 0.031346567 -0.12093501
0003e0 03 98 d8 bc 9d 64 b7 bb 3f c3 68 bd fe ae f5 bc
       -0.026439672 -0.005596711 -0.056826826 -0.02999067
0003f0 5e 11 e5 3d 7f 9d da bd 79 77 45 3e 69 a1 8d 3d
       0.11184953 -0.10674571 0.19283856 0.06915552

network_body._body_endoder.seq_layers.2.bias f4 [256]
000000 05 e9 7e 3c 97 d9 8b 3b 7b 45 54 3c bd 9e d8 3b
       0.015558486 0.004267882 0.012956019 0.00661072
000010 02 cb 8d 3b ed 73 b6 3c b7 26 65 3c 8a 3f fe 3a
       0.004327179 0.022272075 0.013986281 0.0019397598
000020 56 94 0d ba 26 3d 66 3c 99 2a 55 3b c3 b1 66 bc
       -0.0005400827 0.014052665 0.003252661 -0.014080468
000030 d1 86 0e 3c f9 7e 73 3b e5 ff 99 3c f7 f7 dd bb
       0.008699135 0.003715454 0.018798778 -0.0067739445
000040 49 4a d8 ba e9 33 38 3c 4e 60 57 3b 8a 06 4d 3b
       -0.0016501631 0.011242845 0.0032863799 0.0031284415
000050 80 21 70 3c 2e 33 8d 3b e9 1c e3 3b 9c 33 74 3b
       0.0146564245 0.0043090796 0.0069309366 0.0037262207
000060 60 50 8c bb 5f ba 40 ba 81 3b 0a 3c 29 57 22 3c
       -0.0042820424 -0.000735199 0.008437038 0.009908476
000070 1a e8 81 3c 2c 17 d8 3c 82 e3 ac 3a 15 4e 55 3c
       0.015857745 0.026378237 0.0013190361 0.0130191045
000080 93 60 64 ba 4e c2 e8 ba f9 c5 0b 3c 3f 0d bd 3a
       -0.00087119004 -0.0017758103 0.008531087 0.0014423503
000090 da 06 04 3c 96 f4 8d 3b f5 6a 62 3b dd c2 a5 3b
       0.008058274 0.0043321354 0.0034548615 0.00505863
0000a0 c7 62 48 b9 3e 06 be 3b 9a b2 e8 3b c4 52 8d bb
       -0.00019110284 0.005799084 0.007101369 -0.004312845
0000b0 37 03 67 3b 3f fc 22 3c ca 9c 3d 3c fc 2f ac 3b
       0.003524972 0.0099478355 0.011573026 0.0052547436
0000c0 03 1c 6d bc 07 84 53 bb 0a 6c 8a 3c 37 79 27 3c
       -0.014472011 -0.003227474 0.01689722 0.010221771
0000d0 2f 61 32 bb 8a e1 bb ba a0 61 a3 bb e7 5d eb ba
       -0.002721857 -0.0014334184 -0.004986003 -0.0017957062
0000e0 52 20 f2 39 8a 6f 26 3c 34 9e 28 3a 59 b6 33 3b
       0.00046181917 0.010158429 0.00064322655 0.002742192
0000f0 50 19 b5 3b 5a 83 0a 3c 15 9d 98 bb c7 a1 d0 3b
       0.005526699 0.008454168 -0.0046573975 0.0063669416
000100 a2 d9 7d bb 89 ec 06 3c bf 3f eb 3a 66 dd e6 3b
       -0.0038734456 0.008235105 0.0017948075 0.0070454357
000110 c9 6c 3b bb ac c0 28 bb 45 3f 27 bb 02 7c a4 3b
       -0.0028598777 -0.0025749607 -0.002551989 0.0050196657
000120 e3 d7 1e 3c b7 55 5c 3c d3 7d 25 bb 73 2d 1e 3c
       0.009695026 0.01344817 -0.0025252 0.009654391
000130 ad 00 6b 3b 59 11 00 3c 97 f2 e7 3a af 7d 16 3c
       0.0035858557 0.007816636 0.0017696199 0.009185239
000140 86 3b e4 3b 8f 72 7e 3c 08 41 13 bc c5 e9 b7 3b
       0.0069651036 0.015530243 -0.008987673 0.0056125843
000150 2f 56 55 3c c3 ba 6a 3c 43 d6 9d 3b c7 a4 a5 3c
       0.013021036 0.014326754 0.0048168018 0.020220174
000160 fa 92 4c bc 5e a2 19 3c 5c 03 6a 3c f5 fb 47 3c
       -0.012486214 0.00937709 0.0142830275 0.012206067
000170 91 9d 11 3c 1f 69 dc 3b ad bb 02 bc f8 c0 3b 3c
       0.008887664 0.0067263986 -0.007979316 0.011459582
000180 33 bc c7 3a 0e 83 86 3c de 32 67 3c d0 3d 71 3b
       0.0015238583 0.016419914 0.014111249 0.0036810525
000190 40 6e a7 3c 5d e3 8e 3b e8 75 86 bb f1 2b 16 3c
       0.020438313 0.0043606 -0.004103411 0.00916575
0001a0 36 5e 87 3c 60 75 a1 3b d5 73 be 3b 8f 30 85 3c
       0.016524415 0.0049273223 0.005812148 0.016258506
0001b0 39 a9 26 3b 73 2b f0 b9 68 b2 24 3c f9 dd 0c 3c
       0.0025430454 -0.0004580874 0.010052301 0.008597844
0001c0 65 56 d6 3b 1f 84 7f 3c f8 40 60 3c 8c ca 17 3c
       0.0065410607 0.015595465 0.013687365 0.0092645995
0001d0 9b 00 bd 3a ee 58 2b 3c a7 05 7f 3c d8 7e 6c 3c
       0.0014419736 0.010458214 0.0155653125 0.014434539
0001e0 75 56 8c 3c ad fd 42 3c ca da 41 bc 27 dd 1e 3c
       0.01713107 0.011901301 -0.0118319485 0.0096962815
0001f0 63 6b 38 3b 32 43 36 3b b7 cd 09 3c 4b 4c 3d 3c
       0.002814018 0.0027811048 0.008410863 0.011553834
000200 b8 73 88 3a bf bb 3e 3c e2 01 07 3b a4 7f 3f 3c
       0.0010410463 0.011641442 0.0020600487 0.011688147
000210 48 22 4f ba ed 06 30 3c 99 e9 84 3c 11 13 60 3c
       -0.00079015316 0.010743839 0.01622467 0.013676421
000220 78 32 2f 3c 61 26 8f b9 11 e1 26 bb 42 93 ac 3c
       0.010693185 -0.0002730368 -0.002546374 0.021066312
000230 e4 2d 1f ba f9 05 6d bb 8b 80 30 3c e0 9e a6 39
       -0.0006072207 -0.003616689 0.0107728345 0.00031780358
000240 27 98 39 3c 5d 91 53 3c 44 3c 3e 3c 41 83 9e 3b
       0.01132778 0.012913075 0.011611048 0.004837424
000250 b5 d3 25 3c 7f 0b 4b 3c fc 3b 70 ba 33 67 05 3c
       0.010121276 0.012392878 -0.0009164212 0.00814228
000260 35 d1 71 3c be 03 87 3c 85 44 43 3c 62 59 a6 3c
       0.0147593515 0.016481277 0.011918192 0.020306293
000270 63 23 10 3c 3b c6 88 bb ee 90 69 3b 67 08 9e bb
       0.008797499 -0.0041740215 0.0035639363 -0.004822779
000280 6b ef a0 ba ce e1 94 3a bf e7 05 3c 02 0e 98 bb
       -0.0012278383 0.0011358799 0.008172928 -0.0046403417
000290 64 3d 9b 3b 9b 20 32 3c 90 3b 00 3c ab e2 2a 3b
       0.004737543 0.010872032 0.007826701 0.0026075046
0002a0 45 76 74 3c e5 46 dd bb 1c bb 46 3c f8 9f 83 3c
       0.014920776 -0.006752836 0.012129571 0.01606749
0002b0 14 e8 5d 3c bd 9c 46 bb 9a 28 d4 b9 ad 2c 67 3b
       0.013544101 -0.0030305826 -0.00040466042 0.0035274432
0002c0 36 0a 78 bb fa ce fd 3a 15 bb 77 bb 01 06 8d 3a
       -0.0037847883 0.0019364052 -0.0037800719 0.0010759236
0002d0 db f4 fe 3b 20 56 e3 3b ff df 11 bb bf 8a 0b 3c
       0.007780654 0.006937757 -0.0022258756 0.008516966
0002e0 a4 a9 38 3c 26 98 43 3c 06 2d 24 39 b5 08 64 3c
       0.011270914 0.0119381305 0.00015657031 0.013918092
0002f0 14 b5 26 3c 5b 44 b5 3b 9d 27 41 3c 00 f4 64 3c
       0.010175008 0.0055318302 0.01178923 0.01397419
000300 d0 71 85 3b e6 80 93 3b cd 3b c6 bb ce e8 3f 3c
       0.0040724054 0.00450145 -0.0060496093 0.01171322
000310 10 d5 bc 3b 59 89 46 3c 49 42 96 3c e7 ef db bb
       0.0057627037 0.012117707 0.018342154 -0.006711948
000320 2a 35 49 3a ed f8 a2 3a 4c e4 ec 3b 6f b2 15 3c
       0.00076754636 0.0012433805 0.0072293635 0.00913678
000330 34 0b 44 3c f2 1c 00 3b de 00 30 bc b0 2a 40 bc
       0.011965562 0.0019548503 -0.010742394 -0.0117289275
000340 df d9 bc 39 35 47 7b 3c 31 13 9e bb 4a d2 c9 b8
       0.0003602048 0.015336801 -0.004824065 -9.623596e-05
000350 d4 1f 20 b8 fa 46 84 3b 5b 79 fc 3b df 6d b1 ba
       -3.8176615e-05 0.0040367814 0.0077048964 -0.0013536772
000360 cc a4 2f 3b 11 31 59 bb 2b 80 f7 3b 61 05 f4 3b
       0.0026801107 -0.0033140818 0.0075531206 0.0074469303
000370 5a 0a cc 3b 48 e6 ea b8 ae 95 6d 3c 83 ec 2a ba
       0.00622682 -0.00011200883 0.014501018 -0.00065202283
000380 ac 99 50 bc 53 4d 07 3b 43 5a 0c 3c 5c c0 f1 bb
       -0.012731951 0.0020645454 0.008566442 -0.0073776674
000390 d0 d8 94 bc 15 89 83 bc dc 00 3f 3c 14 f0 9e 3b
       -0.01816979 -0.016056577 0.01165792 0.004850397
0003a0 d6 78 87 bb 7d cc c5 3b fe 96 5d 3c 0f 9f 1b 3b
       -0.004134278 0.00603634 0.013524769 0.002374593
0003b0 82 2e 52 3a d6 c9 9c 3b 4e 01 c1 b9 7a 2b e4 3b
       0.00080177945 0.004784803 -0.000368128 0.0069631906
0003c0 c7 9d 7e 3c fa 99 0e 3c e1 67 8b bb c9 88 62 3c
       0.015540547 0.008703703 -0.0042543267 0.013826557
0003d0 15 35 48 3c 47 91 d7 3b aa 44 b8 ba c1 e9 60 bc
       0.012219687 0.0065785977 -0.001405855 -0.013727606
0003e0 c9 c3 96 bb d6 62 23 3c d5 1b 81 3b 06 21 08 3c
       -0.004600976 0.009972295 0.0039400854 0.008308655
0003f0 63 0d 0c 3a a1 aa 5b 3b 57 ad 82 3c 7a 94 7a 3a
       0.0005342571 0.003351845 0.015951796 0.0009558868

network_body._body_endoder.seq_layers.2.weight f4 [256, 256]
000000 03 6d 52 bd a8 a7 7e bd 20 18 01 bc 14 27 f4 bc
       -0.051373493 -0.06217161 -0.007879287 -0.02980379
000010 e5 18 8a 3b fb e9 3f 3a ce e6 b0 bc 51 02 9d 3b
       0.0042143934 0.00073209376 -0.021594431 0.004791536
000020 4e 9a 53 bd a5 1a bf 3c 1b 97 c0 3c 37 f5 1b 3e
       -0.05166083 0.023328135 0.023509553 0.15230261
000030 66 bd ce 3d 7b 67 ba 3d 43 e3 a9 3d 11 b4 a0 bd
       0.10094719 0.091017686 0.082953 -0.07846845
000040 ee 26 a5 3d 83 ff c5 bc 70 05 10 3c 7f 90 86 bc
       0.08064066 -0.024169689 0.008790359 -0.016426323
000050 94 e4 0f 3d 07 4c f7 bc 96 52 cb bc 96 1d 21 3c
       0.0351301 -0.03018762 -0.024819653 0.009833714
000060 aa 94 d2 3d 9b c6 ae 3d 15 00 be 3c 78 d7 0d 3e
       0.10282262 0.08533975 0.023193398 0.13851726
000070 a2 1f 80 3d 2b ec 97 3c f8 b2 86 3d 49 09 05 bd
       0.062560335 0.01854523 0.06577104 -0.03247956
000080 7d 23 f6 3c bb dd 0c 3d c8 a5 a0 bd 11 42 b1 bd
       0.030046219 0.034391146 -0.0784412 -0.08655179
000090 04 65 39 bd 4b 30 9b bd d8 62 5a 3c 40 54 06 bd
       -0.04526235 -0.075775705 0.01332923 -0.03279519
0000a0 d2 a6 1b 3e 04 9b 4a 3d ad 26 69 bc d2 27 aa 3d
       0.15200356 0.04946424 -0.014230412 0.08308376
0000b0 2e 2a d6 3c eb 66 e3 bc 5f 35 38 bc 5c a6 82 3d
       0.02614316 -0.027759036 -0.011243193 0.06379387
0000c0 9f bb 7a 3d 16 e2 ce 3d c2 aa 5f 3d 1e 51 48 bd
       0.061214086 0.10101716 0.054606207 -0.048905484
0000d0 3d dc 34 bd 29 6e 93 bd 11 f4 5e 3d ed a2 7f 3d
       -0.044155348 -0.07198746 0.05443198 0.062411238
0000e0 5c ab 17 bd e3 f3 84 3d f7 1c 84 bd 8f 63 80 3d
       -0.037028655 0.0649183 -0.06450837 0.06268989
0000f0 36 35 8c 3d 66 76 17 3d 9e 0b e7 bb e9 18 28 bd
       0.06846087 0.036978148 -0.0070509454 -0.04103938
000100 a0 fa 96 3d f1 d5 bd 3d 93 e2 bf bd dc b9 76 3b
       0.07372022 0.09269322 -0.093693875 0.0037647402
000110 5c c9 9b 3d 66 20 66 3d 5d ed 59 3d 9c 5d 9e bb
       0.07606766 0.05618324 0.053204883 -0.0048329365
000120 7e ab 84 bd 4d 4d bf 3b c7 23 a7 3c 46 d4 1a 3e
       -0.06478022 0.0058380724 0.020402802 0.15120038
000130 5d 0a 85 3d c2 56 90 bc f6 a2 90 bd 49 df 0f 3e
       0.06496117 -0.017619494 -0.07062332 0.1405002
000140 cd f5 38 bd e6 71 97 bc 3e c6 43 3d 69 80 9d bd
       -0.04515629 -0.018486928 0.04779648 -0.07690508
000150 da c3 58 bc 83 39 9e 3d 06 04 b9 3d 59 f7 fb bc
       -0.013230288 0.07725813 0.090339705 -0.030757593
000160 0e 7f 6b bd c6 38 0b 3d ed 7b a1 bc 0b d5 be 3d
       -0.057494216 0.03398969 -0.019712413 0.093179785
000170 2b 9d c8 3d ba 76 b0 bd 89 ba 45 3c 2a fa 19 bd
       0.097956024 -0.08616395 0.012068399 -0.03759209
000180 7c 39 f0 3c 9c 46 cc bd af 73 38 3d 0e 3f 41 bd
       0.029324286 -0.09974405 0.0450322 -0.047179274
000190 22 b3 86 3c 3b 4a a1 3c 30 c8 92 3c 47 61 ee bc
       0.016442839 0.019688716 0.017917722 -0.02909912
0001a0 d3 8a a4 bc f0 4b e9 bd 1f 93 61 bc 25 db 39 bd
       -0.020085728 -0.11391437 -0.013767987 -0.045375008
0001b0 6a ff f8 3c 7a a8 36 3d 85 14 4d bc b5 df 33 3d
       0.030395228 0.044594266 -0.012517099 0.043914516
0001c0 11 ca 5b 3d 77 d5 9a 3d 2b 80 76 3d 79 6a 52 bc
       0.053659502 0.075602464 0.060180824 -0.012842768
0001d0 b5 9d b2 bc d9 b7 57 3d 11 cf 50 bd e6 5a 29 bd
       -0.021803716 0.052665565 -0.050978724 -0.041346453
0001e0 14 64 9b bd 38 c4 c1 bd 0a 41 a5 3d 53 8b 89 bd
       -0.07587448 -0.09461254 0.08069046 -0.06716027
0001f0 7c 98 9d bd bb 1d c3 3d 5b fb 00 3e d3 47 a9 3d
       -0.076951 0.09527155 0.12595885 0.082656525
000200 e2 ed 9d 3c 14 71 06 3d 43 40 45 3d 2b 2a f1 3a
       0.01927847 0.032822683 0.048156988 0.0018399408
000210 c9 6d 81 3c 7a 6b 00 bd a4 25 ff bd c4 d6 2f 3d
       0.01579942 -0.031352498 -0.12458351 0.042929426
000220 3d da da 3a d3 df e4 bc 0b 2b 21 bd c7 8e be bd
       0.001669712 -0.027938759 -0.03934769 -0.09304576
000230 05 9f e6 3b 82 00 93 3d 28 ac 94 3c 56 da 2e 3d
       0.0070379996 0.07177831 0.018148497 0.04268869
000240 b3 70 42 bd c3 a5 18 bc 67 49 1c 3e a6 0e bd 3d
       -0.04747076 -0.009316864 0.15262376 0.092313096
000250 79 dc df bc 26 4b f4 bd a6 b8 b1 3d 10 3c 4c bd
       -0.02732681 -0.11928396 0.08677797 -0.049861968
000260 6a 8f 08 bd bd 67 33 3d d0 cd 18 3d f0 4d 86 3c
       -0.033339895 0.043800104 0.037305653 0.016394585
000270 56 2d de bd c9 8a 8d bb a8 02 7c 3c c1 42 95 3d
       -0.10848491 -0.004319523 0.015381493 0.07288123
000280 2d 96 10 3d 83 bb c8 3b 99 6c ba 3d 64 9e a1 bc
       0.03529947 0.0061258688 0.091027446 -0.019728847
000290 27 30 01 3d 48 4d 45 3d 01 43 b4 bb c5 ac c9 3d
       0.031540062 0.048169404 -0.0055011516 0.09847406
0002a0 77 b1 f3 bc 6a 2c df bd 5e 87 34 3d 80 1d 81 bb
       -0.029747708 -0.10897143 0.04407441 -0.0039402843
0002b0 fc 68 c6 3d 06 ba 35 3e 89 ca 14 3e bc 8e 24 3d
       0.09687993 0.17746744 0.14530386 0.040175185
0002c0 da 88 81 3b 7b 24 49 bc b4 e3 af 3d b6 92 b4 3d
       0.0039530816 -0.012276764 0.08588353 0.088170454
0002d0 9f 5c e9 3c 29 b0 7d 3b 0a 7c 10 3c 20 ca f2 bc
       0.028486548 0.0038709736 0.008818636 -0.029637396
0002e0 fe 76 72 bd 4e c0 8d 3d a9 5f cf bd d7 45 59 3c
       -0.05919551 0.06921445 -0.101256676 0.01326128
0002f0 7b e4 0c 3d 19 3e 80 bb b2 c8 a8 bd d2 ee f6 3c
       0.034397583 -0.0039136526 -0.082414046 0.030143175
000300 74 42 bf 3d ba 57 fb 3d ba 66 a8 bd 95 6b f7 bd
       0.09338847 0.12272592 -0.082227185 -0.120810665
000310 0e d1 8c 3d 0c 1a 81 bd 7d fd 73 3d 29 f6 e0 3c
       0.068758115 -0.06303796 0.059567917 0.027461128
000320 82 9b 8c 3d 08 4b b1 bd 20 6a 77 bd bd 22 94 3d
       0.06865598 -0.08656889 -0.060403943 0.07233188
000330 94 5b 7a 3d 8e af 02 3e 75 54 cc bd 2a 13 97 bc
       0.061122492 0.12762281 -0.099770464 -0.018441755
000340 e5 9e ed bc c8 5b 89 bd f4 b8 e1 3c 27 73 92 3d
       -0.02900643 -0.06706959 0.027554013 0.0715087
000350 d6 31 a0 bc 37 a7 37 3d df ad 7f bd 41 74 07 3c
       -0.019555014 0.044837203 -0.062421676 0.008267463
000360 7a d1 87 bd bf d1 83 3b 3f 07 91 3d c1 c7 b8 bb
       -0.06631751 0.0040228064 0.0708146 -0.005639047
000370 ff e3 97 bc b0 8c 05 3e c4 47 9e 3d 2c 0b 94 3d
       -0.018541334 0.1304195 0.07728532 0.07228693
000380 7d a5 75 bc c1 46 b0 3d d9 12 76 3d 1c 23 0a 3d
       -0.014993069 0.08607245 0.06007657 0.03372489
000390 43 4c 5c 3d 8a 64 7a bd 43 c6 3a bc 98 a8 97 bc
       0.053783666 -0.061131038 -0.011399808 -0.018513009
0003a0 32 16 11 3d db 32 c8 bb 1e 33 a0 3a ab 2c 28 3d
       0.035421558 -0.006109578 0.0012222265 0.041058224
0003b0 0b 09 3a 3c 36 7c 80 bc 94 33 7f 3c 99 f0 15 3c
       0.011354695 -0.015684228 0.015576262 0.009151601
0003c0 2a 91 bd bd dd 39 f5 3c ea 15 0f be 6f 4b 5b 3d
       -0.092562035 0.029934818 -0.13973203 0.053538736
0003d0 a9 0c 05 be 88 71 b9 bc 17 0b 9e 3d 64 e4 82 bc
       -0.1299311 -0.022637144 0.07716959 -0.015978046
0003e0 a9 7d aa 3d 22 ee bf bd 08 80 5e 3d 29 9d b0 bc
       0.08324749 -0.09371592 0.05432132 -0.021559315
0003f0 7f bb ec 3d bb 18 68 bc f3 fa 04 bd 2f e5 68 bc
       0.115591995 -0.014166052 -0.032465886 -0.014214798

network_body._body_endoder.seq_layers.4.bias f4 [256]
000000 3f 9a 40 3c 91 2d 77 3c 1d a0 3d 3c a5 b0 ec 3a
       0.011755525 0.0150865475 0.0115738185 0.0018058015
000010 90 69 58 bb a9 8b 29 3c 88 76 35 3c 7c a3 10 3c
       -0.0033021905 0.010348239 0.011075623 0.00882804
000020 0c 71 b6 3b 04 3e 81 3c a6 81 3c 39 fd 6a 1c bb
       0.0055676755 0.015776642 0.00017977375 -0.002386748
000030 7d 80 65 3c cf a5 60 ba 09 73 e2 3a c1 f6 69 3c
       0.014007685 -0.0008569629 0.0017276715 0.014280022
000040 aa 21 54 3b f0 07 5c ba 92 eb 9b bb c8 15 85 ba
       0.0032368698 -0.0008393517 -0.004758307 -0.0010153586
000050 00 57 a7 3b 1c 9a 98 3b 6b f8 93 3b 3d 0d 63 3c
       0.0051068068 0.004657043 0.0045156977 0.013858137
000060 fa 1e 1d 3c d3 ec a8 3b cf 8d 29 bb 64 f1 50 3c
       0.009589905 0.005155185 -0.0025871878 0.0127528645
000070 95 41 77 bb 52 33 26 3c 58 f4 1a 3b e0 4e 07 bc
       -0.00377283 0.010144072 0.0023644175 -0.008258551
000080 c9 29 3c bb a0 3e 36 3b 48 f9 5c bb 98 4a 09 3c
       -0.002871143 0.0027808324 -0.003371792 0.008379601
000090 6e 5b 2d 3b c6 24 29 3c 05 16 7d 3b 3a 48 d7 3a
       0.0026452201 0.010323709 0.003861786 0.0016424723
0000a0 ce 0e db 3a 95 b9 c2 3b b8 b7 31 ba cc b5 aa bb
       0.0016712786 0.0059425333 -0.00067793904 -0.00520966
0000b0 12 32 06 3c 3d 77 57 3c b6 ac 7b 3c a5 51 1c 3c
       0.008190649 0.013150987 0.015361002 0.00954095
0000c0 a7 fe 83 ba f6 e4 18 3c fd 5a b7 bb c2 d8 89 bb
       -0.0010070399 0.009331932 -0.0055955634 -0.0042067477
0000d0 7a be 17 3c d5 62 3b 3c 99 ae 17 bb f3 2e 44 bb
       0.009261722 0.011437138 -0.002314484 -0.002993521
0000e0 c5 f0 38 3c 92 1d 5b bb 82 e9 c5 3b 73 bf 14 3c
       0.011287873 -0.0033434373 0.006039799 0.009078848
0000f0 42 f2 e1 3b 29 7d 02 3c 6a 48 0a bb 04 19 fd 3b
       0.0068953345 0.007964411 -0.002110029 0.0077239294
000100 2e b5 93 3a fe ab 9a bb b9 e1 21 39 24 73 f2 3b
       0.0011269206 -0.00472021 0.00015438245 0.0073989797
000110 f8 97 e2 3b f2 64 65 3c 42 2e 81 3c 4c fc 16 bc
       0.0069150887 0.014001118 0.015769128 -0.009215426
000120 3e bb 7b bb 28 6b c0 3b 16 62 84 3b c1 72 43 bb
       -0.0038411166 0.005872149 0.004040013 -0.0029823037
000130 a3 8e 18 3c a1 87 fc 3b 80 ad 14 3b 81 0e 00 3c
       0.009311351 0.007706598 0.0022686422 0.007815958
000140 3d 60 51 bb 1f d4 00 39 99 b3 68 ba d6 07 e9 39
       -0.0031948232 0.00012286053 -0.000887686 0.0004444706
000150 26 e0 1b 3c 2a 77 c6 3b d5 c2 4c 3c ae 5b 50 3c
       0.00951389 0.006056686 0.012497623 0.012717171
000160 5a 78 bd 3b 80 69 91 3c 0a c3 3c 3c f4 2e 7e 3b
       0.0057821693 0.017750502 0.01152111 0.003878531
000170 90 ee 49 3c 77 a1 18 3c f9 27 3f 3b 88 b5 04 3c
       0.012324944 0.00931584 0.0029168113 0.008099921
000180 bb b3 51 3b ea 5e 46 bb 3d f3 68 3c 36 5e 52 3a
       0.0031997997 -0.0030268976 0.014218149 0.0008024903
000190 27 5a 81 ba c2 c8 09 bb 83 98 cb 3b 1c d3 ea 3b
       -0.0009868786 -0.0021024202 0.006213249 0.0071662795
0001a0 a4 bd 06 3c 23 7a 3e 3c 29 da 0d 3c 77 f5 0f bb
       0.008223925 0.011625799 0.0086579705 -0.0021966377
0001b0 1d cd ad 3b 2b d9 b2 39 a3 8a ea 3b 4a 24 06 3c
       0.0053039924 0.00034112608 0.00715764 0.008187363
0001c0 35 c1 9c 3b 01 ba 07 3c 86 75 14 bb 23 eb eb 3b
       0.0047837743 0.008284093 -0.0022653057 0.0071996613
0001d0 57 46 41 ba 29 5f d8 ba 35 97 f7 3b 72 14 46 bb
       -0.0007372847 -0.0016507852 0.007555867 -0.0030224589
0001e0 26 b5 c5 3a 86 fa d3 39 d5 1d 1c bb 75 44 e9 3b
       0.0015083894 0.0004043171 -0.0023821492 0.0071187564
0001f0 d5 ed 0c 3c da 28 f1 ba 04 40 49 bb f8 79 58 3c
       0.008601625 -0.0018399016 -0.0030708322 0.013212673
000200 e5 ea 54 3c 31 d4 93 3b 90 82 e3 3a 94 fa ad 3a
       0.012995456 0.004511379 0.0017357636 0.0013273531
000210 a5 87 25 3b f6 5d 01 3c 0e 63 03 3c 9d 76 2b 3c
       0.0025257852 0.007895937 0.008019222 0.010465291
000220 93 bf 69 3c a2 47 42 3b 19 5b 19 3c 30 d0 45 bb
       0.014266866 0.0029644747 0.009360098 -0.0030183904
000230 b6 38 d5 b9 15 f6 1b 3c ca 3d e4 38 91 5b 4b bc
       -0.0004066878 0.00951912 0.00010883396 -0.012411968
000240 66 bd c5 3b 38 7b 82 3b 0c 38 0e 3c 28 3c c0 bb
       0.006034541 0.003981974 0.008680355 -0.005866546
000250 3f 54 79 3c 99 5a 40 ba ef 3b 76 3b 98 c9 4e ba
       0.01521784 -0.0007337719 0.0037572344 -0.0007888316
000260 c6 07 c8 3b b4 20 13 3b 1a 1f 31 3c 0d 5c 42 bb
       0.0061044423 0.0022449913 0.010810638 -0.0029656917
000270 d9 c6 eb ba 8e 89 49 3c ee 69 3f bb 82 c9 a6 bb
       -0.0017988338 0.012300862 -0.0029207426 -0.0050899396
000280 91 76 ef 3b b3 ee fb b9 3e 9d e8 3b 5f 3a ab bb
       0.0073078354 -0.00048052295 0.007098823 -0.0052254642
000290 ec 97 eb b9 48 fe 8a b8 55 04 1b 3b 75 e9 47 3c
       -0.00044935883 -6.627716e-05 0.0023653705 0.012201657
0002a0 72 52 10 3c e8 6f 18 b9 5d cb a7 39 84 db 5e 3b
       0.008808719 -0.00014537538 0.0003200424 0.0034005353
0002b0 b3 71 10 3c bc 90 a1 bb 11 60 b4 ba 9b d2 55 3b
       0.0088161705 -0.0049305838 -0.001376154 0.0032626751
0002c0 83 06 e9 3b 2b c2 15 3b c2 de f7 3b 84 5c 66 3b
       0.007111372 0.0022851329 0.0075643966 0.0035150358
0002d0 44 d3 1a 3b 42 74 7a 3c 3c b8 3b 3a 38 4b b1 bb
       0.002362446 0.015286507 0.0007160937 -0.005410578
0002e0 dc a9 98 b9 fb da 0d 3b 04 d2 83 3a 9c 38 5a 3a
       -0.00029118254 0.0021645415 0.0010057096 0.00083244755
0002f0 f9 93 c8 3b fb 48 69 ba 94 d4 1c bb 02 e2 73 3c
       0.0061211553 -0.00088991196 -0.0023930417 0.014885427
000300 8e 2d e0 3b 75 81 44 3b 47 a3 28 3c 96 ae 89 3c
       0.006841368 0.002998439 0.010292835 0.016806882
000310 fd b4 a5 3b 3e 28 2d 3c 4e 73 cf 3b 23 ba 71 3b
       0.005056976 0.0105686765 0.006330884 0.0036884628
000320 e2 4d 19 3c cc 6a 72 3b bf f1 47 b9 9b 72 9a 3a
       0.009356948 0.0036989925 -0.00019068176 0.0011783423
000330 de 00 f0 ba 17 94 cb 3a 14 85 78 3b d5 10 c9 bb
       -0.0018310805 0.0015531805 0.0037921118 -0.0061360397
000340 0c cf 21 b9 98 a6 7a bb 89 8a 0a 3c 59 df 40 3b
       -0.00015431287 -0.003824627 0.008455881 0.002943
000350 b8 a8 58 3c 06 7c eb 3b 20 ef 97 3b c9 be 1b 3a
       0.013223819 0.0071864156 0.00463666 0.000594121
000360 06 97 20 3b f1 6c 99 bb b0 0b a1 3a 53 de 60 3c
       0.002450408 -0.0046821763 0.0012286808 0.013724881
000370 ac d2 81 3a 5e 84 66 3c 7f 60 2f 3c e7 27 4a 3c
       0.0009904704 0.014069645 0.010704159 0.012338615
000380 41 9e 21 3c 4c 76 ea ba bc c4 15 3c 98 f8 69 bb
       0.009864391 -0.0017888038 0.009141143 -0.0035701152
000390 50 69 a4 3b 2f e5 40 3c 2e f1 10 bc 1b cc 02 3b
       0.005017437 0.011773392 -0.008846564 0.0019958082
0003a0 a5 56 ab 3a 09 2b 44 3b 6d 61 0a 3c 59 3a 6e 3b
       0.0013072087 0.0029932878 0.00844608 0.0036350696
0003b0 78 a7 55 3b 71 b2 e9 3a e8 73 70 3b 8f 65 23 3c
       0.003260104 0.0017829669 0.003669018 0.009972944
0003c0 d1 f4 37 bb 30 c0 0c bb 03 23 3b 3c b2 86 56 3c
       -0.0028069506 -0.0021476857 0.011421922 0.013093637
0003d0 cf e3 19 3c 46 d5 5f 3a 3c 7d 8f bb b2 a7 53 3b
       0.009392693 0.0008538555 -0.004378943 0.0032296
0003e0 e0 a5 12 3c b9 fc 85 39 59 2a 2c 3c ca 4d 80 3c
       0.0089506805 0.0002555603 0.010508143 0.015662093
0003f0 d1 fa f0 bb 18 3d 99 ba ef 61 7c 3b ca de 9a ba
       -0.0073541184 -0.0011691181 0.0038510521 -0.0011815664
