Assets/Training/results/b_treasure_test30/TreasureSearch.onnx (onnx, 574627 bytes, 13 tensors)

65 f4 [36]
00000000: f876 2e3e 4ac2 0a3e 1356 5c3e 7d47 963d
00000010: de83 f73e 3828 123e 0f84 f43e 4a44 873e
00000020: c401 fc3e a36a ef3d 7ca2 fa3e 3d5c a23e
00000030: 940b f83e 3b4b 173e 74c7 fa3e c29c ac3e
00000040: 33d2 f83e 17c4 eb3d 477c fa3e 231c b93e
00000050: 43c4 fe3e 01ff 843e 1ba1 ff3e a2aa 8f3e
00000060: b66c fe3e 8838 923e 5d6b ff3e 5489 9e3e
00000070: 6b3c f23d 5993 d93e 1a79 df3e e9ec d23d
00000080: 6c3c f23d 5993 d93e 1b79 df3e ebec d23d
0.1703757 0.13550678 0.2151721 0.07337854 0.48342794 0.14273155 0.47757003 0.26419288
0.49220097 0.11690261 0.4895209 0.31710997 0.48446333 0.14774792 0.48980296 0.33713347
0.4859787 0.115120105 0.4892294 0.3615428 0.4975911 0.25975803 0.499276 0.2805987
0.49692315 0.28558755 0.498866 0.30964148 0.1182793 0.4249523 0.4364708 0.10299093
0.11827931 0.4249523 0.43647084 0.10299095

68 f4 [5]
00000000: da08 3840 a7ac 9840 73d3 ed3a 17ef 4b3b
00000010: d9c3 6340
2.8755403 4.7710757 0.0018144682 0.003111785 3.5588286

action_model._continuous_distribution.log_sigma f4 [1, 2]
00000000: 26d2 39be af47 b9be
-0.18146572 -0.36187503

action_model._continuous_distribution.mu.bias f4 [2]
00000000: 7b1f a7ba f373 ee3c
-0.0012750471 0.029108023

action_model._continuous_distribution.mu.weight f4 [2, 256]
00000000: a56b 5abd 8f4f df3b 6452 95bc 495b fcbc
00000010: 4d8f 373d f15d ca3b 5dda 19bd afed fdbc
00000020: 4050 8abc da73 dabc a998 0b3c b367 133d
00000030: c61e 483d 21d7 29bc 2890 b3bb 727f d53c
00000040: a464 20bb 9374 8e3c d362 31bb 3a25 273d
00000050: 9379 23bd 29cf 9d3b 40cb 663c 89aa c93b
00000060: 370b 8c3c 0c72 75bd ace9 44bc 1fe9 b8bc
00000070: 337d 2f3c 45d8 8abc a317 d7bc cfec 14bd
00000080: 97df 36bb dcfc 49bd 92e6 9dbc a283 693c
00000090: a11c 613c fe30 9dbc 1dd4 26bc c8ce 7abc
000000a0: 7a30 24bd 5947 bb3b b12a d7bb e6d7 57bc
000000b0: e2a2 1dbc a6b8 b6bc 6d4c bdbc 710a 9a3b
000000c0: fa4b 54bd 4a30 25bd 0eae f63a ef2b 033d
000000d0: 4d15 46bc 8e96 733c 9dd1 da3c 8dad 163c
000000e0: 524a 633b 7e98 f7bb 0c6c c1bb bd5e d2bc
000000f0: 4fd8 e6bb bbf9 663d 5aaa 683d eeb6 243c
00000100: f6fd f13c 7d03 2c3c ff20 f73c 2dac 833c
00000110: 348e 8fbc d68f 083d a8e2 873c 96be 44bd
00000120: 0505 043d f15c 92bc e719 db3c c6c0 453d
00000130: e3fb d13a 0186 51bb dbac ea3c 48cd 1d3d
00000140: 4928 9339 8ec5 a0bc 3d8a 333c c4dc 833a
00000150: 8a16 813c 8469 eebc 6faa 0ebd 4516 023d
00000160: 3017 ba3b e175 00bd 8edc 3fbb 5aa9 90bc
00000170: 5ba5 883b e298 7bbd 1271 6a3d 8adb 22bd
00000180: df03 febc 0bee 293a 5824 e9bc c557 2cbd
00000190: 8cc5 91bc 12db 8d3b e451 3b3c ff5c 92bc
000001a0: 5f15 49bd addd 143b 2ee3 0abc 3c86 583c
000001b0: 6a96 4f3c eff2 13bd 860c 133d d37f 633c
000001c0: 4908 7fbd bc4d df3b 51e1 923c 57ef 993c
000001d0: 1c61 28bc 0086 003d f987 063b 8771 88bc
000001e0: fcce 56bc 713c 0f3c 198b 82bc e996 273c
000001f0: 22dc 173c 2d33 fe3c 3aae 36bc ea8f 1e3c
00000200: 1e42 873a 432a 4fbc 11b6 313c c1cf e23b
00000210: a63e 353d f3df 28bc 4c29 40bc 0535 b6bb
00000220: 080b c93b a038 0fbb a894 54bd 079c 7f3b
00000230: 47f1 333c 8aa4 313d d68a bebc 7893 2abc
00000240: 8dbd 3dbc 27d5 a03c d73e 88bc 96e9 77bc
00000250: 4213 d53c ef24 4fbd d3a7 a43c ab69 a83b
00000260: 7582 4b3c 2f98 02bb 46ab 2d3c 1f07 1dbd
00000270: 6478 70bc 2a76 d23b a8f7 fe3c 3532 d13b
00000280: 9876 6d3d 61dc f63c 42b0 e4bc 83bc 17bd
00000290: dbca b0bb 2c97 c03b 5fea 8d3b a488 073c
000002a0: 99d9 953c 73ce 75bc 5607 f8bc f907 933c
000002b0: 2973 3f3c 069d 27bb e818 ea3c 83a8 d43c
000002c0: 8fde b73b fafd 35bd dd34 2e3d 0eb4 d0bc
000002d0: 02e4 5e3c 4f2d 35bc ad06 0f3d 6a8a 2e3c
000002e0: 85b2 1c3d 920b 92bc b377 9dba 532d 0abd
000002f0: f7c5 6abc 806d ac3c 4596 093d 4355 aeba
00000300: 443a 5cbc ca48 ea3b 6b46 57bc 9c46 423a
00000310: b64d 663c caf3 b8bb 4236 ce3c 2a89 a2bc
00000320: 415e cdbc af89 c43c a1de 403d 3d8e 4a3b
00000330: 584e 81bb b4fb 103d a16a 53bd 2dd6 e03b
00000340: 0fd7 b8bc bfd5 553c 1834 e83c 2622 93bc
00000350: 54de 2a3c 8afd 23bd 653c 46bb 5f94 aabc
00000360: fc26 8e3c 39ec a5bc 9289 f43a b727 5bbc
00000370: 1e4e 30bd 0cfe 363c 4939 153d 2038 dcbc
00000380: 68d8 253d fdf4 503d 41bd 45bd 1a58 ccbc
00000390: d9f0 f73c 580b a4bc 1358 2fbd 2023 debc
000003a0: d88d 2a3d 101a 19bd a5fe 013d 241e d8ba
000003b0: bcf3 f6bc 702b dcbc bbbb 25bc 1266 1dbc
000003c0: 6b28 e03b f36e 103d 14f0 13bd 8f05 f1bc
000003d0: e36e 7dbc 4609 30bc 239a 183d 53a1 97bc
000003e0: dc6c 82bd a67b 3b3d 6305 853b df4c 1cbd
000003f0: 2001 a7bb 28fa 23bc b9ce bf3b 7087 84bb
-0.053325314 0.006814904 -0.018227763 -0.030805247 0.044814397 0.0061757495 -0.037561763 -0.030997125
-0.01688397 -0.02666657 0.008520284 0.035987567 0.048857473 -0.010366232 -0.0054798312 0.026061747
-0.002447405 0.017389571 -0.002706696 0.040806986 -0.039910864 0.004815955 0.0140865445 0.0061543626
0.017095191 -0.059923217 -0.012018602 -0.022572098 0.010711002 -0.016948828 -0.026256388 -0.03635865
-0.0027904266 -0.04931341 -0.019274984 0.014252575 0.013739736 -0.0191884 -0.010182408 -0.01530809
-0.040085293 0.0057152924 -0.0065663685 -0.013174033 -0.009621354 -0.022304844 -0.023107732 0.0047009517
-0.05183027 -0.040329255 0.0018820183 0.03202432 -0.012090039 0.014867438 0.02671128 0.009196651
0.003468175 -0.0075560203 -0.005902773 -0.02567994 -0.007044829 0.056390505 0.056803085 0.010053379
0.029540043 0.010498879 0.030167101 0.01607331 -0.017523862 0.033340298 0.01658757 -0.04803332
0.03223135 -0.017866584 0.02674575 0.048279546 0.0016020503 -0.0031970742 0.028646877 0.03852585
0.0002806804 -0.019625451 0.010958252 0.00100603 0.015757818 -0.029103048 -0.034830507 0.03175952
0.0056790337 -0.031362418 -0.0029275748 -0.017658878 0.0041701025 -0.061425097 0.05723674 -0.03976015
-0.031007705 0.00064823095 -0.028459713 -0.04207589 -0.017794393 0.0043290937 0.011433098 -0.01786661
-0.049092647 0.0022715137 -0.008477015 0.013215598 0.012670139 -0.03612035 0.035900615 0.013885456
-0.06226376 0.0068146866 0.017929705 0.018790884 -0.010277059 0.031377792 0.0020527823 -0.016655697
-0.013110872 0.008742438 -0.015935468 0.010228851 0.009268792 0.031030262 -0.011149937 0.0096778665
0.0010319387 -0.012644353 0.010846631 0.006921739 0.0442492 -0.0103073 -0.011728596 -0.0055605196
0.006135348 -0.002185382 -0.051899582 0.0039002912 0.010982818 0.043369807 -0.023259562 -0.010411136
-0.011580837 0.019632889 -0.016631527 -0.015131375 0.02601016 -0.050572332 0.020099556 0.0051395497
0.01242124 -0.0019927134 0.010599917 -0.03833687 -0.014677141 0.0064227777 0.031123951 0.006384159
0.057974428 0.030134382 -0.027916078 -0.037045013 -0.005395276 0.005877396 0.0043309177 0.008272324
0.018292235 -0.015002835 -0.030276936 0.017948138 0.011685171 -0.002557577 0.02857633 0.025959259
0.005611248 -0.044431664 0.042530883 -0.025476482 0.013604166 -0.011058166 0.034918476 0.010653118
0.038256187 -0.017827783 -0.0012013823 -0.03373463 -0.014329425 0.021048307 0.033590574 -0.0013300556
-0.013441626 0.0071497904 -0.013139348 0.00074110343 0.014056614 -0.0056442963 0.025172357 -0.019840796
-0.025069358 0.023991434 0.047087315 0.0030907535 -0.003946107 0.035396293 -0.05161536 0.0068614692
-0.022563485 0.013051449 0.028345153 -0.01796062 0.010428984 -0.040036716 -0.00302484 -0.020822702
0.017352574 -0.020254241 0.0018656722 -0.013376168 -0.04304325 0.011168968 0.036431585 -0.026882231
0.040489584 0.05101489 -0.04827619 -0.024944354 0.030266212 -0.02002494 -0.042808603 -0.027116358
0.04163918 -0.03737837 0.03173699 -0.0016488475 -0.030145518 -0.026876181 -0.010115559 -0.009606855
0.0068407557 0.03526206 -0.03611763 -0.029421596 -0.015468332 -0.010744398 0.03725637 -0.018509543
-0.063684195 0.045772217 0.00405948 -0.038159247 -0.0050965697 -0.010008372 0.0058535007 -0.0040444657

network_body._body_endoder.seq_layers.0.bias f4 [256]
00000000: 2793 503c e9dd bb3c 4908 cd3c b4f2 c83c
00000010: 70e9 3d3c d3bb c83b 71fe eb3c 1508 153d
00000020: d6e3 843c 0488 c5bc af06 453d 2a3d c43c
00000030: 0b60 c93c dd6c 24bd d702 9c3c f51c 073d
00000040: ddd2 43bb 7606 ecbc 57d8 8239 4e88 34bb
00000050: 91c1 293b ab5f b53c a43b f0bb 180a b13b
00000060: f5fa 0f3d 0515 323d 1057 343d f44d f93c
00000070: b892 7cbc 335e 903c e3c3 773c 038a a63c
00000080: cbe3 ed3c 36e8 afba 8791 9b3c 6feb 953c
00000090: 05ca 81bc eba8 d5bb 9454 b93c 0855 043d
000000a0: 2fd2 91bc 776c 6b3c b830 1e3c c72e 023d
000000b0: 8a22 b5bc a65e 713c e977 0b3d 1c8c ab3c
000000c0: 36ca 263d 9f35 84bc f765 ef3b 6ffa dbb9
000000d0: ac8e 3a3c 6629 8fbc 6a05 373c c2b3 babc
000000e0: 5b51 8d3c 2d0a 1d3c df8c c33c 4471 f73b
000000f0: fed6 65bc 7aa3 f83c 05f1 86bc 6bd0 723c
00000100: ad3f d73c 9b4c 863c b066 0e3d 99c1 dc3c
00000110: a428 c03c 5c44 733c 95ff 9d3c 37fc b93a
00000120: cc91 483c 4cd7 9b3c eb5d ab3c 9fdd 21bc
00000130: 91b5 85bc 4afe 093d e3de c93c 40e6 b5bc
00000140: 4ded 8c3c d52e c7ba 5245 bd3c ed62 08bb
00000150: 39f9 993c 8726 ac3c ded0 e03c 1da1 a83c
00000160: f3ab f7bc e5e7 2ebc bb6a ccbb f8e9 a63c
00000170: 4009 f53c a9dd 7c3c 522c b63c 2177 5e3b
00000180: c6fb 023d a447 81b9 8018 cc3c 0608 e63c
00000190: 4a20 46bc e4a8 5f3d ed95 d73c 5205 f43c
000001a0: 9133 e53c 554d 703c 6269 d33c 2332 053d
000001b0: 169d d13b ca0c 163d 24ea a63c 8f64 a4bc
000001c0: bd8e de3b 851c 073d f91d d33b b212 353c
000001d0: e71e 813c 83c1 b8bb 9556 cb3c 2774 8cbb
000001e0: 3c4d 203d d190 01bc a4cc 713b 00b2 9f3c
000001f0: bd4b 823c 536f 2e3c 9abf e73c fa88 d43c
00000200: aa2b 4fbc 3404 3f3c 0c3e b13c 5156 8a3c
00000210: 01d4 883c 6414 54bb 1b1a d53c 09b7 993c
00000220: ab04 27bc 2ba8 e9ba 14bf 263a 6ca7 df3c
00000230: a636 7fbc a18e a2bc c686 74bb 2a13 1d3d
00000240: 44ed 123d 26b3 a23a f24e b5bc 2811 89bc
00000250: 1c42 69b9 df93 723c a713 5ebc 2764 8fbc
00000260: 4a66 8b3c 7e2f c83c cbd5 ee3c 0db5 0c3d
00000270: 7b3f 2f3d d66c 4e3c 6463 94bc 5ba1 1b3d
00000280: 13c7 1e3d 1ef0 0b3d 2c0e 433c 65ff 963c
00000290: da7b d03c 0193 7f3c 282e be3c 051c 413d
000002a0: 9ea3 d13c ba36 983c f52d 86bc d621 1e3c
000002b0: 0087 003d 19c6 89bc 2cf8 0e3d 46c8 82bc
000002c0: a49b ebbb 63e9 0f3b 699b 6c3c 765c 28bc
000002d0: 39cd 013d 3b4d 953c 6e76 233b db76 b13c
000002e0: a8e5 063d 1b6d b73c 445c ef3c 2eab d3ba
000002f0: cb67 ad3c 9fce bb3c 3fe6 d53c 7cf5 233d
00000300: 53a5 bfbc 7759 16bc bef8 143d 58bb c43c
00000310: d680 74bc 1fcd f93c d6a8 ce3a b444 dd3c
00000320: c51d f23c c152 f33c c45e bf3c 17ef 833d
00000330: ede5 adbc 1390 293d d368 073d 10ce b43c
00000340: 984f e0bc 14c8 fe3c 352a 4f3d 6769 ac3b
00000350: 7aa4 db3c 23b9 9a3c eb7c 013d 7f21 683b
00000360: 55c9 97bc 8eed 67bc 2f9b e43b e644 d23c
00000370: 4b34 823c c83a 313d 378a 553c 45d8 f2bc
00000380: d0fb 9d3c 86be 83bc c477 c23c e7a1 003d
00000390: b4ac a33c 6138 6bbb b217 003d 45b0 e1bc
000003a0: 769b de3c 18bb d0bb 7797 693c a18c 90bc
000003b0: 5cad 71bc 0e9a 153d 76fa a53c 347e d4bc
000003c0: 728e f13c 3451 cebc 3700 cb3c 4209 ad3b
000003d0: 469a 9c39 7f05 a13c fce6 cd3c 84f0 e93c
000003e0: f0d9 d73c 4d03 c53b 2b9e 073d dad1 ca3c
000003f0: 66f4 31bc 3557 ef3c fd5b 94bc 8668 be3c
0.012730396 0.022932963 0.025028365 0.024529792 0.0115913 0.006125906 0.02880785 0.03638466
0.016221922 -0.024112709 0.048102077 0.023954947 0.02458193 -0.040142883 0.019044323 0.0329866
-0.0029880323 -0.028811675 0.00024956718 -0.0027547064 0.0025902728 0.022140345 -0.0073313285 0.0054028146
0.03515144 0.043477077 0.04402834 0.030432679 -0.01541584 0.017623043 0.015122387 0.020329481
0.029039284 -0.0013420645 0.018990291 0.01830074 -0.0158434 -0.0065203807 0.022623338 0.032307655
-0.017800419 0.014369122 0.00965517 0.03178289 -0.022111196 0.014732039 0.034049902 0.020940833
0.040720187 -0.01613885 0.0073058563 -0.00041957523 0.011386555 -0.017475795 0.011170724 -0.022790793
0.017250707 0.009584946 0.023870884 0.007551344 -0.014028309 0.03035139 -0.016472349 0.0148201985
0.02627548 0.01639395 0.0347659 0.026947783 0.023456879 0.014847841 0.01928691 0.0014189546
0.012241792 0.01902356 0.020918807 -0.009879499 -0.01632193 0.033689775 0.024642413 -0.022204518
0.017202998 -0.0015196452 0.023104344 -0.0020810917 0.018795596 0.021014465 0.027443346 0.020584637
-0.030233359 -0.010675405 -0.006238309 0.020375237 0.029911637 0.015433707 0.02223793 0.0033945518
0.03197839 -0.00024658174 0.024914026 0.028079998 -0.012092659 0.054604426 0.026316607 0.029787693
0.02797869 0.014666875 0.025807086 0.032518517 0.0063969 0.03663329 0.020375319 -0.020067481
0.006791918 0.032986183 0.006442782 0.011051821 0.015761806 -0.005638303 0.024821559 -0.0042863074
0.039136156 -0.007908062 0.0036895657 0.019494057 0.015905255 0.010646659 0.028289605 0.025944222
-0.012644688 0.011658717 0.021636032 0.016886862 0.016702654 -0.0032360787 0.026013425 0.018764036
-0.010193984 -0.0017826607 0.00063608703 0.027301513 -0.015576994 -0.019843401 -0.0037311777 0.038348354
0.035870805 0.001241301 -0.02213237 -0.016731814 -0.00022245239 0.014805763 -0.01355449 -0.017503811
0.017016549 0.024436709 0.029154679 0.03435235 0.04278515 0.012599191 -0.0181138 0.037995677
0.03876407 0.03416454 0.011905234 0.018432328 0.025449682 0.015599013 0.023215368 0.047145862
0.025590714 0.018580783 -0.016379336 0.009651622 0.031378746 -0.016818093 0.034904644 -0.015964638
-0.0071901847 0.0021959178 0.01444135 -0.010275951 0.031689856 0.018225303 0.0024942416 0.02166312
0.03293386 0.022390893 0.0292188 -0.0016149038 0.021167656 0.022925673 0.026110766 0.040029034
-0.023394262 -0.0091766035 0.03637003 0.024015114 -0.014923295 0.030493317 0.001576687 0.0270103
0.02955521 0.029702546 0.023360617 0.06442087 -0.021227801 0.041397166 0.033058953 0.022070915
-0.027381703 0.031101264 0.05057736 0.0052615884 0.026811827 0.018887108 0.03161327 0.0035420356
-0.01852862 -0.014155759 0.006976507 0.025667619 0.015894076 0.04326895 0.013033441 -0.029644141
0.019285113 -0.01608206 0.02373875 0.031404402 0.019979812 -0.0035891759 0.031272598 -0.027549872
0.027173739 -0.0063699596 0.014257303 -0.017645182 -0.014750805 0.03652387 0.02026103 -0.025939085
0.029486869 -0.025185205 0.024780376 0.0052806446 0.0002986958 0.019655941 0.025134556 0.02855707
0.026349038 0.0060123564 0.033109825 0.024758268 -0.010861492 0.029216388 -0.01811027 0.0232432

network_body._body_endoder.seq_layers.0.weight f4 [256, 41]
00000000: b98f 2a3e a43b a0bd b6ba a1bd c1c8 08bd
00000010: fe02 673e d030 403e 7198 d43b 5ffa 6f3e
00000020: 46e9 323d d199 d93d 8c78 0d3c 9a2e 653e
00000030: d22b 863d e636 533d 459e 523e 75d5 cebd
00000040: 6cd8 76bd d31e c3bd 2968 fc3d b584 393e
00000050: 1138 a9bb c93c dbbd 338a f23d dade f43d
00000060: c2aa 0abd 235a 173e b7a8 333e 847a 673e
00000070: 825c 08be 5c72 8a3e dc6f d5bd f5ed 5e3e
00000080: 34f3 b33d 8d2d 763e 560a 8bbd d449 35bc
00000090: 0719 313e a4fc a1bd 5c6f 82bd 439f afbd
000000a0: 309a d93d a8d9 4c3d 8a5c 46bd effd 65bd
000000b0: 6576 a53d d58f 00be ef81 5fbe 0c77 ec3d
000000c0: 4214 72be 1b58 e7bd 0670 3dbe e7b6 2ebe
000000d0: 6ce3 67be 239b 23bd 4ff8 05be 3d5e 203e
000000e0: 8e6d 1fbc 58a8 54be 52a2 1dbe 3233 023e
000000f0: 6123 80be c94a 21be 14e1 3a3e b7d3 76be
00000100: b708 12bd cc98 c53d 8405 a3be 85f5 5c3e
00000110: 6706 0f3d e021 16be fee8 f83d 123f bfbd
00000120: 7b4b 27bd 26d6 9dbd 7389 26be 2417 98be
00000130: 992a d6ba 4499 0bbe d826 67be 2f6e 8b3d
00000140: 3f75 f7bd 1cc0 94be 8d3c 58be 5603 21be
00000150: 5454 613e 000d 533d 62af de3d 079d 773e
00000160: 7a6a af3d 64d2 4a3d 7d25 84bb 32b6 a13d
00000170: 413b 813b 2c70 033e 7a9b 633e 90dd cdbc
00000180: fae6 563e b918 94be 2abf 723d 4ea8 053d
00000190: 321f 0ebe 43a3 b03d 2f24 d43d 54de 133e
000001a0: 4004 8b3d bbe2 1d3e 9ea9 f03c db29 933e
000001b0: 4094 893e 971e e0bd 915c 6c3e b5f5 56be
000001c0: 12c8 ab3c ab4b 76bd 7d46 223e 54f6 f9bd
000001d0: 099e 063d 0a94 553e 016d afbd 4ee5 ddbd
000001e0: 3b27 d1bd 6e61 cebd 2e71 043e 1b8f 3c3e
000001f0: 95d4 24be 9a84 36ba 6d89 1e3e 05bc e03c
00000200: 9065 6cbd 773e 99be 67b3 453e d076 67be
00000210: d81d 2c3e 64eb 803e 74a5 15be c21a 8fbd
00000220: 4355 a7bd 77fe 9bbe c73c ee3b 7740 7c3d
00000230: 82ca 553e 0277 82bc 47ad 18bd f0a2 babe
00000240: 45f2 0b3e b52d 1c3e 6a6f 40be af0c 3d3e
00000250: e5a9 94be 3836 843d 6494 5fbd 804e 283d
00000260: 264f 053e 46a1 83bc 21b9 b5bd 3800 a1bc
00000270: 746a 483e 91bc e53c 7716 5c3e b450 953d
00000280: 4839 09be f3c5 803e d9d8 2a3e 8afa 1fbe
00000290: 372b 8d3d 7bb9 24be eab0 9abe e989 70be
000002a0: e634 f0bd 839b c3bd 69d4 46bd 8353 02bd
000002b0: e1bc f6bd 17b8 bb3d 9d34 233d ebd6 283c
000002c0: a31c 9e3d 51de b43b 0ac4 3abe af61 e33d
000002d0: 8c75 853e c5a1 69bd 33b6 803e 99d8 6d3e
000002e0: 5c90 babe eb95 51bd ae11 11bd 6bf6 aabd
000002f0: aaf7 cf3d f3c6 1d3d 17ea 053e 4e6b 903e
00000300: 896a 1dbe 4d8a 143d 87db a0bd 51b5 c4bc
00000310: cd29 563b cae9 723e 02b3 8c3e ba3a 6a3e
00000320: 9bb6 0c3d 762c b93d 50dc 41bd 87b9 a6be
00000330: 376c acbd 94db 56be ce1f d9bc 664f 6fbe
00000340: d9d9 05be f18b 01be e4ce 89be 52f2 c43d
00000350: 7c49 843e 79ae 10be 4c31 79be 8805 4bbc
00000360: 7f0b 0fbe 5492 d2bd 6ee6 bcbd e805 603e
00000370: 7e26 27be 8a84 223e d2c9 6cbd c0d6 6c3d
00000380: 0d43 7e3e 5479 47bd baf9 173e 6982 843e
00000390: a23d 183e 59c2 fbbd b841 0e3c 0989 923e
000003a0: c04d 953d 622c 2fbe 87ba 71be 7654 1a3e
000003b0: 8ae3 a43e 0650 62bd 30da b53e 4623 4a3e
000003c0: 86ce dd3d 4bcd d9bd f2d0 09be eef2 3d3e
000003d0: f7db dd3d 6749 10be 9300 b73e ed31 a0bc
000003e0: 65bd 2ebd 2cc5 4abe 3bb0 10bd 8399 a23d
000003f0: 3115 09bc 6822 bb3d e120 723e 8bc3 e4bd
0.16656388 -0.078238755 -0.078969404 -0.03339458 0.22559735 0.1876862 0.006487899 0.23435353
0.043679498 0.10625041 0.008634698 0.22381058 0.06551327 0.051566027 0.20568188 -0.100993074
-0.06026499 -0.09527364 0.123245545 0.1811703 -0.0051641543 -0.10704953 0.11842766 0.11956568
-0.033854254 0.14780478 0.17544828 0.2260533 -0.13316539 0.27040374 -0.10421726 0.21770461
0.08786622 0.24040814 -0.06789081 -0.011064965 0.17294703 -0.079095155 -0.06368896 -0.08575299
0.10625112 0.05001226 -0.048428096 -0.056150373 0.080792226 -0.12554868 -0.2182691 0.11546144
-0.2364054 -0.11296102 -0.18499765 -0.17061959 -0.22645348 -0.03994287 -0.13083003 0.15660949
-0.00973071 -0.20767343 -0.15393952 0.12714842 -0.25026992 -0.15751185 0.18249923 -0.241042
-0.035652842 0.09648284 -0.31840146 0.21578033 0.034918215 -0.1466136 0.12153815 -0.093382016
-0.04084347 -0.07706861 -0.1626337 -0.29705155 -0.0016339599 -0.13632685 -0.22573411 0.06808125
-0.1208291 -0.29052818 -0.21116848 -0.15723929 0.22004825 0.05152607 0.10873295 0.24180995
0.08565231 0.04951705 -0.0040327893 0.07896079 0.003943831 0.12835759 0.22227278 -0.025130063
0.20986548 -0.28925112 0.05926434 0.03263121 -0.13879088 0.0862489 0.10358464 0.1444028
0.0678792 0.15418522 0.029377755 0.2874287 0.26870918 -0.109433345 0.23082186 -0.20992167
0.020969424 -0.060130756 0.15847202 -0.122051865 0.032865558 0.20857254 -0.08565713 -0.10834752
-0.10212561 -0.10077177 0.129338 0.18413965 -0.16096719 -0.0006962508 0.15482111 0.027433405
-0.057714045 -0.2993047 0.19306718 -0.22603917 0.1680826 0.2517959 -0.14613897 -0.069875255
-0.08170559 -0.3046758 0.007270429 0.061584916 0.20878032 -0.015925888 -0.037274625 -0.36452436
0.13666637 0.15251811 -0.18792501 0.1846187 -0.2903587 0.06455654 -0.054584876 0.04109049
0.13018474 -0.016068112 -0.08873201 -0.019653425 0.19571859 0.028044017 0.21492945 0.072907835
-0.13400757 0.25151023 0.16684283 -0.15622917 0.06893008 -0.1608638 -0.302131 -0.23490109
-0.117288396 -0.09551146 -0.048542414 -0.031817924 -0.120477445 0.09165972 0.039845098 0.010305147
0.07720306 0.0055196662 -0.18238845 0.11102616 0.26066244 -0.05703904 0.25139007 0.23227157
-0.36438262 -0.051168364 -0.03541725 -0.08347782 0.1015466 0.03851981 0.1307758 0.28206867
-0.15372671 0.036264706 -0.078543715 -0.02401224 0.0032678724 0.23721996 0.27480322 0.22873965
0.034353834 0.090416834 -0.047329247 -0.3256342 -0.08419078 -0.209822 -0.026504423 -0.23370132
-0.13071384 -0.1265104 -0.26915658 0.096165314 0.25837314 -0.14129056 -0.24335212 -0.0123914555
-0.13969229 -0.10281816 -0.092236385 0.21877253 -0.16323277 0.15870872 -0.05780966 0.05782199
0.24830265 -0.048699692 0.14841357 0.25880745 0.14867261 -0.12292928 0.008682661 0.28620175
0.0729022 -0.17106774 -0.23606311 0.15071282 0.3220485 -0.055252098 0.35518026 0.19740018
0.10830407 -0.1063486 -0.13458613 0.18549702 0.108329706 -0.14090501 0.35742626 -0.019555056
-0.04266109 -0.19801778 -0.035324316 0.07939436 -0.008366869 0.09137422 0.23645355 -0.11170109

network_body._body_endoder.seq_layers.2.bias f4 [256]
00000000: f03e 16bd a97a eb3c 9875 4d3c 2a83 d33c
00000010: 8822 713c 0892 c13c 056e 2e3c aa86 ce3c
00000020: 2e2b 1dbd c23d c43c c6d0 b53c a103 7e3c
00000030: 6744 d53c fded a63c ca64 86bc 6bdc f73c
00000040: 77e5 b23c 2898 95bc a1ba 063d be70 fdbc
00000050: 1576 da3c 4ee3 e73c a94b a2bc e429 25bd
00000060: 9dc3 c53c eb6e 5fbc 3a64 183c 0056 893c
00000070: 0b90 92bc 1f59 a43c 7be6 bd3c b6da 703c
00000080: fd6b ebbc fb5b a9bc 0801 20bd 4712 343b
00000090: 1f12 963c d4f1 933c 6846 65bc c544 a0bc
000000a0: 95eb fabc 99bb c0bc 0882 a8bc 6355 d3bc
000000b0: a5e8 9c3c 20bb e83c a2b4 c83c 0813 1f3c
000000c0: 9525 a8bc 7440 ff3c 78ab 8bbc 2454 b13c
000000d0: dc28 ff3c ebc5 abbc da00 97bb b545 db3c
000000e0: 96c1 dd3b 5c48 0cbd 2ac5 0cbc d9dc f3bb
000000f0: ce3e c33c ecc6 ea3c ccb2 98bc b6c1 23ba
00000100: 7471 b8bc 511e cc3b a558 60bc e144 913c
00000110: bc07 d9bc 9ad5 003b c3be bd3c d77f f7bc
00000120: 5191 0e3d e505 6b3c 04d3 fe3c 52fe 1d3b
00000130: e545 e9bb db75 ca3c 1e6a aebc ec03 c03c
00000140: 3c4f a53c 85a7 333c 15af b139 6a19 dfbc
00000150: a8c7 763c e4ba c8bc d8d3 bdbc 234d 773c
00000160: 8052 173d 84a2 12bd 9470 e0bc a975 b03c
00000170: a0e9 a13c 4dd6 df3c 6c4a 92bc d272 a03c
00000180: 4718 8d3c b8f3 b93c cc0b f93c 6022 b93c
00000190: c4a3 eebc fb40 e93c e888 1ebd 9705 c83c
000001a0: 8193 6abc f979 4c3c 54d4 42bc 21b8 a23c
000001b0: 64f5 8b3c 4a2b e2bc 9cad c33c c414 dd3c
000001c0: ec4f f9bc afc2 34bd 40aa 80bc de82 20bd
000001d0: 2b90 a5bc 547c 19bc c2b8 a73b 90fc fc3c
000001e0: 4ace e43c 6f57 093d 8ee0 8e3c d902 7a3c
000001f0: 1271 473c 25d3 89bb 7042 cf3c 64ba 3b3c
00000200: 83b1 38bb 3ffa 7c3c 8735 dd3c 2e0b f63c
00000210: a1e5 f73c d2ce c93c b012 30bc fda8 023d
00000220: 3da3 143c 4c98 a63b 475d 7b3b 0844 b33c
00000230: 892a 043c 1598 933c 114e 8bbc a6c8 a4bc
00000240: 06a0 9cbc 9dc9 c7ba c002 823c 0b66 05bd
00000250: 5a83 b43c 1eac 8c3c 6adf b93c c94d 1abd
00000260: 142e 29bb 6975 aebc 8e33 f6bc dc30 913c
00000270: 5b5b e43c 87c7 be3c bad3 20bd c906 c9bc
00000280: 9b70 8f3c b99e 033d f21f 543c ed03 dc3c
00000290: 3299 a83c 8bf0 b7bb 0c0b 01bd 07d3 ad3c
000002a0: e537 3abb 8594 87bc 5e96 063d 3ca5 803c
000002b0: 84a3 d23c eb12 f3bc 17af e93c 9ee8 7f3c
000002c0: 7e33 d5bc a5f2 a8bc bfd2 043d b830 f9bc
000002d0: da1d 4bbc bde4 863c 99c5 f73c 8436 18bd
000002e0: 5f15 1d3b 01fc ca3c c693 e03c f134 c63c
000002f0: 13dd 7c3c f486 bfbc 3555 063d a3d0 9ebc
00000300: a973 ca3c 12c2 8ebc 593c 01bd 8c92 833c
00000310: a832 e63c 0d85 03bd 434a 22bc e7da c7bc
00000320: 1b08 df3c ee84 8cbc 6d58 0fbd 5e26 393c
00000330: a3e5 c83c 9b9e d23c 26cd d4bc bb92 1ebc
00000340: e1bc c7bc aa22 063d 5337 e839 ce57 293c
00000350: f98c b73c 2c43 993c 1b81 4c3c 303e cebc
00000360: e0d3 e03c 8263 95bc ca52 60bc 3540 2e3b
00000370: cf0a c53c 77fb b83c 4b5c f33c c9b0 ffbc
00000380: 8a0b e63c 51d9 8f3c 9e7f c93c d0c7 9abc
00000390: 6ef9 973c 19ac fcbc 68fb ee3c cd5a 0f3d
000003a0: 9881 bb3c 7d12 8e3c 8820 d7bc 9902 e13c
000003b0: dcf8 e73c 57d8 c23c 50fa 93bc 9e34 8d3c
000003c0: 2b14 87bc c40a a3bc 38e8 fe3c a27c 7c3c
000003d0: 5301 ee3c d3d7 2f3c 87aa f5bc c31a a03c
000003e0: 9b62 b73c 4b00 583c 33c3 af3c 41d1 eebc
000003f0: a431 ca3c bf5c 0c3d baf6 51bb 5a99 683c
-0.036681116 0.028745012 0.012540244 0.02581938 0.014717706 0.023629203 0.010646348 0.025210697
-0.038371257 0.02395523 0.022194277 0.015503795 0.026033593 0.020377154 -0.016405482 0.03025647
0.021837933 -0.01826103 0.032892827 -0.030937549 0.026667634 0.02830663 -0.019811468 -0.040323153
0.024141127 -0.013637285 0.00930124 0.01676464 -0.01789095 0.020062027 0.02318119 0.014700582
-0.028738016 -0.020673743 -0.039063483 0.0027476714 0.018319188 0.018059649 -0.013993837 -0.019564042
-0.030629912 -0.023526954 -0.020569816 -0.025797551 0.019153902 0.02840954 0.024500195 0.009709127
-0.020525733 0.031158663 -0.017049536 0.021646567 0.031147413 -0.020968398 -0.004608256 0.026766637
0.006767462 -0.034248695 -0.008591929 -0.0074420986 0.023833659 0.028659306 -0.018639944 -0.0006246822
-0.022515036 0.0062292 -0.0136930095 0.01773304 -0.026492946 0.0019658566 0.023162251 -0.030212326
0.034806553 0.014344667 0.03110648 0.0024107886 -0.007118928 0.024714401 -0.021290835 0.02343937
0.020179383 0.010965233 0.00033890517 -0.027233798 0.01506225 -0.024503179 -0.023172304 0.015094074
0.036943913 -0.03579952 -0.027397431 0.02154048 0.019764721 0.027323866 -0.017857753 0.019586
0.01722349 0.022699222 0.030401133 0.0225994 -0.029130824 0.028473368 -0.038704783 0.024416728
-0.014317394 0.012480252 -0.011891443 0.01986319 0.017084785 -0.027608532 0.023886494 0.02698744
-0.030433618 -0.044130977 -0.015706182 -0.039187305 -0.020210346 -0.009368021 0.0051184604 0.03088215
0.027930398 0.03353065 0.01744106 0.015259468 0.012172954 -0.0042060786 0.025300235 0.011458013
-0.0028181977 0.015440523 0.027003063 0.030034628 0.030260863 0.024634752 -0.010746643 0.03189944
0.009072122 0.005084073 0.0038355158 0.021883026 0.008066782 0.018016854 -0.017004998 -0.020115208
-0.019119274 -0.001524258 0.015870452 -0.03256802 0.02203529 0.017171916 0.02268954 -0.037671838
-0.0025814818 -0.02129622 -0.03005388 0.017723493 0.027875593 0.023288501 -0.03926442 -0.024539368
0.01750975 0.03213379 0.0129470695 0.02685734 0.020580862 -0.0056133918 -0.031504676 0.02121879
-0.0028414663 -0.016550312 0.032858245 0.01570379 0.025712736 -0.029672107 0.028525872 0.015619425
-0.02602553 -0.020623514 0.032427546 -0.030418739 -0.012397254 0.016466493 0.03024559 -0.037161365
0.0023969037 0.024778368 0.027414214 0.024195166 0.015433568 -0.02337978 0.032796104 -0.019386595
0.024713354 -0.017426524 -0.031551693 0.01606109 0.028100327 -0.03210931 -0.009905401 -0.024396373
0.027225545 -0.01715323 -0.03499644 0.011300651 0.024523562 0.025710395 -0.025976729 -0.009678538
-0.024382057 0.032747902 0.00044291708 0.010335876 0.022406088 0.018708788 0.012481953 -0.025176138
0.02744478 -0.018235926 -0.013691613 0.0026588563 0.024053006 0.022580845 0.029707095 -0.031212227
0.028081674 0.01755968 0.024596985 -0.018894106 0.018551555 -0.030843781 0.029172614 0.034998704
0.022888944 0.0173428 -0.02626063 0.027467059 0.028316908 0.0237848 -0.018063694 0.017237004
-0.016489109 -0.019902594 0.03111659 0.015410574 0.029053366 0.010732609 -0.02998854 0.019544011
0.022385886 0.013183664 0.021455383 -0.029152514 0.024681874 0.034268137 -0.003203793 0.014196718

network_body._body_endoder.seq_layers.2.weight f4 [256, 256]
00000000: f133 c0bc bf69 f9bd 665a 923d 28c0 b0bd
00000010: 2722 9939 5e73 ca3d c2fa 64bd af19 6ebd
00000020: b73a d6bb 91fb 823c 0380 dfbd f3f7 bcbd
00000030: 5ec7 333a 91f5 3bbd fe14 0ebd da65 513c
00000040: c441 a63d 1b41 c83b 4225 043e f0f9 1f3c
00000050: 8fda 793d 3726 763d 1295 e13d 9e45 00bd
00000060: be2f 2c3c 2ff6 93bc 200e d3bc 59a9 703d
00000070: f8bd ba3c 1f5b 89bd f346 133d 4781 253d
00000080: 2857 d9bd ca0d cb3d b0c4 7bbc 6cca f03b
00000090: 6fc9 773d a915 40bb a10e e4bd f2e9 ad3b
000000a0: 483c 473d 809c fa3c 59b6 a3bd 9077 333d
000000b0: ca1d c2bd efd7 0ebe 1ef5 9c3b 0439 173d
000000c0: 1a90 2dbd 8876 a43c cfaa 47bd 4624 8c3b
000000d0: a5fc ad3c 5251 48bc 1320 113d 90d0 ba3c
000000e0: 72ed 78bd 8c68 043a 84fd 13bd abd6 653c
000000f0: f35e 063d 2474 c6bd 58da 133d ae29 0cbd
00000100: f26e d4bd 7eee 1f3d 7401 aebd f424 31bd
00000110: 2921 2fbe 52d7 5e3d a1b8 5abd 0ad0 233d
00000120: 5243 6a39 2d9a 8dbd cac5 e03c 8175 9b3b
00000130: 034b fdbb 72fe c2bc 0e1f d0bd 7d29 f23c
00000140: 1798 473b 8562 e2bc b1e5 d73b 22b7 3bbd
00000150: e152 dcbd ba8d 233d d2e1 e83b 57a4 c2bc
00000160: ff2d 413c 4011 d43c 9fc1 133c af74 6fbd
00000170: 7a7d 12be 7024 41bd 987e dcbc 8f9d e6bd
00000180: 8604 9fbd 190d 5cbd fbbd 4d3d 4ead 99bd
00000190: dcc5 923d 41c2 82bc ec0b da3d 8eca b33b
000001a0: 0e77 babd 8947 edbc 6254 dabc 6a03 0b3d
000001b0: 652a 4e3d 4bfc 883b daaa 0ebd e397 083a
000001c0: c24a c8bd f60b d9bc 0ce0 ddbd 6734 583d
000001d0: 3aa8 dd3c c59b 963d c7d7 503c 9f41 91bc
000001e0: fc1a 3f3c e26e ebbd 0828 50bd d14b 503d
000001f0: 26c2 10be e45d 22bd 37eb ddbd 8c27 d93b
00000200: d54a f6bc 6aec 8cbd 4d23 5fbd 58a9 fd3c
00000210: 2d67 01bd 86d4 3e3e ef54 4cbd 9ce2 77bd
00000220: b027 c4bc 7ee4 3d3c 068b 72bd ebfa f53d
00000230: 305e 69bd 348e 37bc 01fb 0fbd 94ba 603d
00000240: b31d ba3c a6c6 bbbc 4a00 c33d bf13 02be
00000250: baae a1bd e0ab a93d a5dd f63c 1fe6 283d
00000260: 6b67 9abd 75e5 043c dbcb e0bc 7db2 bfbd
00000270: e4da 03be ebb8 7fbd e3b1 6ebd 2e86 dd3b
00000280: 703c 4dbd b943 4abd ea21 5abd be1b 47bc
00000290: 158c 4fbd 9fa5 e3bd b9f0 36be 61e4 08bc
000002a0: 860a 983c ace8 0fbe e012 7bbd 36e6 973b
000002b0: b6f8 78bd 0ee4 56bb 2bd6 32bd 2cc2 153d
000002c0: f99f b43d 3ae6 c1bc 8a73 e5bd 8b5c 0fbc
000002d0: f955 a03d fb36 c5bc 6ac3 0bbd e091 a4bb
000002e0: 7d20 64bd e7cc 20bd ed39 94bc e517 bf3c
000002f0: 871b 0f3d 1085 2fbd 56f4 c4bc fc00 7c3c
00000300: 0c2e 1d3d 090f 5e3d e652 5dbd 5135 a6bd
00000310: aa5c 10bd ab70 f53c e8bd 1dbd 27d6 15bd
00000320: 26b8 fbbd b89d c6bd c4bc c7bd f888 1fbe
00000330: d695 92bd 81cd 4abd 353e 0cbd a864 233d
00000340: a051 843d 8681 e0bc a4c5 94bd 1d74 93bd
00000350: 35d8 a6bd b7a8 07bd 4221 dabc 13e0 c9bd
00000360: 5cc9 edbc 3166 143d d7ea 7ebd 32c6 2b3d
00000370: 7172 bcbd 5030 dbbb 93f3 d0bc f8cc 983d
00000380: fcbc 71bd b0e5 d33c fcf4 bfbc e960 e6bc
00000390: ba79 b1bd 062d ae3d bc68 0b3d b5ca 583d
000003a0: 82ab c0bc 5339 2c3c cb53 b7bd 2ec0 85bd
000003b0: 3807 da3d c9d9 bcbd 94cb 1e3d 7c8e 09be
000003c0: f324 41be 9baf e13d c3b3 363c 0f2d 09bc
000003d0: 06c7 3f3c 716f 69bd c55f a0bc cd63 96bd
000003e0: 99b8 6e3b f444 393c df9b 6e3d 4e06 933c
000003f0: 0843 833d c074 45bd 0c7e 9c3d 06de f1bc
-0.023462268 -0.121783726 0.071461484 -0.08630401 0.0002920788 0.09885286 -0.055903204 -0.058129963
-0.006537761 0.015989097 -0.10913088 -0.0922698 0.0006858016 -0.045888487 -0.03468799 0.012780631
0.081180125 0.006111277 0.12904838 0.00976418 0.06099945 0.06009504 0.11014761 -0.031316392
0.0105094295 -0.018061725 -0.025763571 0.058755253 0.022795662 -0.06706833 0.035956334 0.04040649
-0.10612327 0.099147394 -0.015366718 0.0073483493 0.060494836 -0.0029309785 -0.11135603 0.0053074295
0.048641473 0.030592203 -0.079937644 0.043815196 -0.09478338 -0.1394956 0.0047899624 0.03691961
-0.042373754 0.020076051 -0.04874688 0.004276785 0.021238634 -0.0122264195 0.03543098 0.022804528
-0.06077332 0.0005050979 -0.036130443 0.014028232 0.032805394 -0.09690121 0.0360969 -0.034219436
-0.10372724 0.039045803 -0.08496371 -0.043248132 -0.17102493 0.054404564 -0.053398732 0.039993323
0.00022341058 -0.06914172 0.027438063 0.004744232 -0.0077298894 -0.02380297 -0.10162173 0.029560799
0.0030455643 -0.027634868 0.0065886606 -0.045828946 -0.107579954 0.039930083 0.007106998 -0.023760004
0.0117907515 0.025887132 0.009018331 -0.058460888 -0.14305678 -0.04715389 -0.026915833 -0.11260521
-0.07764535 -0.05372343 0.050230008 -0.07503758 0.07166645 -0.015961768 0.10646805 0.005486793
-0.09104739 -0.028964775 -0.026651565 0.033938803 0.0503334 0.0041804663 -0.034830905 0.0005210621
-0.09779884 -0.026494961 -0.10833749 0.05278435 0.027057756 0.073539294 0.012746758 -0.017731486
0.011664148 -0.114957586 -0.050819427 0.050853554 -0.14136562 -0.039640322 -0.10835879 0.006627029
-0.03006498 -0.0688103 -0.054477025 0.030964538 -0.031592537 0.18635759 -0.049885686 -0.060518846
-0.023944706 0.011590121 -0.059214614 0.120107494 -0.05697459 -0.011203337 -0.035151485 0.054865435
0.02271924 -0.022921871 0.095215395 -0.12702845 -0.078946546 0.08284736 0.030134985 0.041235086
-0.07539257 0.008111347 -0.027440956 -0.09360216 -0.12876469 -0.06243221 -0.058275115 0.00676038
-0.050106466 -0.04938099 -0.053255 -0.01215261 -0.050670702 -0.11115574 -0.17865266 -0.008355231
0.018559705 -0.14053601 -0.061297297 0.0046355976 -0.060784064 -0.003278974 -0.043661278 0.03656213
0.08819575 -0.02366935 -0.11203678 -0.008750091 0.07828898 -0.024074068 -0.03412191 -0.0050222725
-0.055695046 -0.03925791 -0.018094027 0.023326823 0.03493836 -0.042851508 -0.02404229 0.015381094
0.03837399 0.054213557 -0.054034136 -0.08115638 -0.03524462 0.02996095 -0.038511187 -0.036581185
-0.12290983 -0.09698051 -0.09752801 -0.15579593 -0.07157485 -0.04951239 -0.034239013 0.039890915
0.06460881 -0.027405512 -0.072642595 -0.07199881 -0.08146707 -0.033119883 -0.026627187 -0.09857192
-0.02902668 0.03623027 -0.06223568 0.04193706 -0.092015155 -0.006689109 -0.02550677 0.0746097
-0.05901812 0.02586636 -0.023432247 -0.028122382 -0.086657956 0.08504681 0.03403543 0.05292769
-0.023519281 0.010511714 -0.08951529 -0.06530796 0.10645908 -0.09221227 0.038768366 -0.1343326
-0.18861751 0.11019822 0.011151257 -0.008372559 0.011705166 -0.056991044 -0.019576916 -0.07343254
0.0036425947 0.011307944 0.05825412 0.017947342 0.064092696 -0.048207045 0.07641229 -0.029524814

network_body._body_endoder.seq_layers.4.bias f4 [256]
00000000: d3f1 383c 5caa ae3c 7dff bf3c f172 973c
00000010: 5ca2 00bc f2bd 033d f426 083d f468 9539
00000020: cd35 b2bc 1efb a0bc 6792 e1bb 1774 c63c
00000030: 6b18 e03b 6b5f f43c 96aa 20bc b424 853c
00000040: 21ef da3c bc4b bdbc e6b7 dcbc 732b b4bc
00000050: e1a7 2e3c 2f8c 02bd 1af0 e23c 2e98 84bc
00000060: 76d4 003d da9a 7c3c 21b4 bdbc 649f 38bc
00000070: cadc dbbc 060a 09bc 829b de3c 99af 7b3c
00000080: 7f4c e6bc 4ca2 ab3b 1bf0 a5bc e59b c33c
00000090: afd4 c73c f899 ad3c 8ed2 d9bc c3fa a9bc
000000a0: 4d13 2f3b 7e87 f43c 5cd0 c9bc 0bec 8bbc
000000b0: c550 8bbc 6a54 c33c 6b5f ea3c 4054 d23c
000000c0: bd30 7b3c 5548 b1ba e545 fa3c 2972 4a3c
000000d0: fe62 8cbc 3172 f7bc 8be6 99bc b3f1 8fbc
000000e0: 335f c5bc b301 e7bc c018 f4b8 e843 983c
000000f0: d568 d33c 2587 e93b 739d e43a 3289 ea3c
00000100: 6590 dabc 43d0 d93c 985b b8bb efd9 e3bc
00000110: 8282 8fbc 1fa1 55bc 24a9 c5bc 837a 703c
00000120: de79 f1bb 6ae4 8ebc c9dc 023c 2466 823c
00000130: ee1a cfbc ef71 e8bc b2f4 a03c d430 9a3c
00000140: acba e6bc 3035 bbbc 78ad fb3c 764c f93c
00000150: 437b f73c 7303 07bc 2da4 aabb 913e cc3c
00000160: a810 e83c ded1 893c c59c eb3c 2f9a ce3c
00000170: 4f84 bebc 888c f03b 3077 b63c 652d ff3b
00000180: f03a db3c 2e44 e2bc 2f37 b43c 6eb8 c63c
00000190: b2e0 81bc 7061 99bc ccca c4bc d2e3 3cbc
000001a0: 49f4 b03a c0dc f63c 864a c43c 5f3a 063d
000001b0: 1d1d 81bc d2d7 023d 39f1 d83b 4295 f73c
000001c0: ddaf d33b ec2c b63c 0c49 adbc 7340 f13c
000001d0: 739b f23c 6f88 56bc a488 e73c 2555 b0bc
000001e0: a874 e5bc 208f 0f3d def8 cb3c be45 86bc
000001f0: 428a ee3c 5306 41bc 52f2 e3bc a10c 0f3d
00000200: 8549 c8bc a983 973c 9147 d6bc 447f 023d
00000210: 60ad 523c aa85 80bc acc4 b0bc c0e7 85bc
00000220: a030 0ebd 3138 e03c ae3f 88bb 29ef f13c
00000230: d8f3 e53c fd95 883c 92b0 99bc e95f 66bc
00000240: 0db5 d23c b88d 023d a9ea a1bc 905b 4b3b
00000250: aa4b 32bb 965b 833c 3a97 e23c cc7d ee3c
00000260: 1932 69bc f544 ce3c 8504 fd3c f764 97bc
00000270: d127 cbbc 1c7b f73c e102 32bc 497f bebc
00000280: d56c 873a 27b0 e03c fc83 96bc 6a55 bebb
00000290: 82d1 d8bc 4156 ce3c 3289 dcbc 19d1 d3bc
000002a0: ab7c babc 3f54 d53c 54a0 373c bea3 85bc
000002b0: a734 aa3c e41b a8bc 158a cabc eb40 093d
000002c0: 1a55 8abc 2e83 d4ba e668 693c 4fc4 8a3c
000002d0: 83da cebc 52dd e53c 2657 7c3c 4e92 483c
000002e0: 630d e73c 93e6 023c e6ab f1bc fdc7 b8bc
000002f0: 3a30 133d 5e97 60bc acb1 d23c 6054 e6bc
00000300: 99a0 c43c 8d6f b0bc e54f e33c 6524 de3c
00000310: f2a7 30bc bda8 d1bc b1cd f43c 457c be3c
00000320: 7991 df3c 740c 9bbc 2b65 27bc 9026 7c3b
00000330: c675 ee3c 7aa1 8f3a 55e9 473c f9a3 9fbc
00000340: 4455 e53c 86e6 c33c 1a96 acbc 08b5 c1bc
00000350: a734 a2bc 1baa d4ba fd1b a0bc a06f bd3b
00000360: bf0b e33c 832f b93c 8e9f dabc 02c1 e83c
00000370: cb12 8c3b 6ced 90bc 2bd1 863c 4b1c d53c
00000380: 89b5 cb3c 84c2 c23c 038d e83c fef1 8b3c
00000390: 5414 64bc ce62 e43c 0074 e8bb 473a a1bc
000003a0: a219 2bbc 925c 823c b502 22bc 8e06 5dbc
000003b0: dee3 943c 5175 69bc d5f2 e7bc e5cf 013c
000003c0: 719d ccbc 6e53 6b3c 28a1 0bbc 289d bc3c
000003d0: e321 e23c 0a17 bf3c 8c94 c03c 2354 e93c
000003e0: 3e18 c93c 7927 c7bb 9291 dd3c e1e9 17bc
000003f0: 6457 d53c 00c1 ed3c 7f28 a73c bf1e d53c
0.011288124 0.021321468 0.023437256 0.018487426 -0.0078512095 0.032163568 0.033240274 0.0002849769
-0.02175417 -0.019650992 -0.0068839076 0.024225278 0.0068388483 0.029830655 -0.009806296 0.016252853
0.026725354 -0.023107402 -0.026943158 -0.021993374 0.010660143 -0.03187197 0.02770238 -0.016185846
0.03145262 0.015417779 -0.023157181 -0.01126847 -0.026838679 -0.008364206 0.027173761 0.01536169
-0.028112648 0.005237853 -0.020256093 0.023878047 0.024393408 0.021191582 -0.026589658 -0.020749455
0.0026714385 0.029849764 -0.024635486 -0.017080327 -0.017006287 0.023843963 0.028609952 0.02567494
0.015331444 -0.0013525585 0.030550906 0.012356319 -0.017137047 -0.030205818 -0.01878669 -0.017571306
-0.024093246 -0.028199052 -0.00011639437 0.018587068 0.025806824 0.007126706 0.0017441943 0.028629873
-0.02668018 0.026588565 -0.005626153 -0.02781388 -0.017518286 -0.013038903 -0.024128504 0.014677647
-0.007369264 -0.0174429 0.00798721 0.015917845 -0.025281396 -0.02837464 0.01964793 0.018822111
-0.028165184 -0.02285251 0.030722365 0.030431967 0.030210143 -0.008240568 -0.0052075596 0.024932178
0.028328255 0.016823705 0.028761277 0.025220005 -0.023256449 0.0073409714 0.02227363 0.007787394
0.026761502 -0.027620401 0.02199897 0.024257865 -0.015854213 -0.01872322 -0.024022482 -0.011528926
0.0013500537 0.030134559 0.023961317 0.03277051 -0.015760953 0.031944104 0.006620553 0.030222539
0.0064601735 0.022238217 -0.021152996 0.029449677 0.02961514 -0.013094052 0.028263398 -0.021524975
-0.028009728 0.035048604 0.024898943 -0.016390678 0.02911866 -0.011781293 -0.027825508 0.034924153
-0.02444912 0.018495398 -0.026157172 0.03185965 0.012858719 -0.015688736 -0.021578155 -0.016345859
-0.03471434 0.027370544 -0.004157982 0.029532986 0.028070375 0.016673082 -0.018760953 -0.014060953
0.025721097 0.031873435 -0.019765215 0.0031029917 -0.0027205744 0.016034883 0.027660001 0.029112719
-0.014233136 0.025179366 0.030885944 -0.018480761 -0.02479926 0.03021007 -0.010864944 -0.023254054
0.0010332117 0.027427746 -0.018373482 -0.005808522 -0.026467089 0.025187613 -0.026920889 -0.025856541
-0.022764524 0.026041148 0.011207659 -0.01631343 0.02077706 -0.020521112 -0.024724046 0.033509176
-0.016886283 -0.0016213411 0.014246201 0.01693931 -0.025250679 0.028059635 0.015401637 0.012241913
0.028204625 0.0079895435 -0.029500913 -0.0225563 0.035934664 -0.013707964 0.025719486 -0.028116405
0.02400236 -0.021537567 0.027748058 0.027116964 -0.010782229 -0.025593156 0.029883238 0.023252616
0.027291046 -0.018926837 -0.010216991 0.0038475133 0.029108893 0.0010958158 0.012201627 -0.019487368
0.02799476 0.023913633 -0.021067668 -0.023645893 -0.019800497 -0.0016225012 -0.019544596 0.005781129
0.027715562 0.022605663 -0.02668741 0.028412346 0.0042747012 -0.017691337 0.016457161 0.026014468
0.024866836 0.023774393 0.028387552 0.017083164 -0.013920862 0.027879145 -0.0070939064 -0.01968111
-0.010443123 0.015913282 -0.009888341 -0.013490332 0.018175062 -0.014249162 -0.028314034 0.007923101
-0.024977418 0.014363153 -0.008522309 0.023024157 0.02760405 0.023326416 0.023508333 0.028482502
0.024547692 -0.0060777036 0.027046952 -0.00927207 0.026042648 0.029022694 0.020405052 0.026015637

network_body._body_endoder.seq_layers.4.weight f4 [256, 256]
00000000: 6462 a93c 3711 7b3d 8d03 d53c 2bd0 113e
00000010: d61d 9b3d 0aa6 7c3d 863e 9f3d 5fff e0bb
00000020: bc81 b0bc 8a99 be3d af2c 043d 61e0 e33c
00000030: 1488 113e 820b 8ebd d79f e23d 307e 093d
00000040: 6721 67bb cd85 543c 2772 66bd 67a1 183a
00000050: 52d4 103d 8542 51bc 3ad4 28bd 8101 47bc
00000060: 0261 ee3d 68be 8bbc e956 01bc 9954 993d
00000070: b727 d33d 2172 acbd 28ed a6bd 9eb0 3ebc
00000080: 4872 cd3d d9ff 8abb d14e cfbd 4854 cebd
00000090: fa59 393d 8a14 05bd e89d cfbd 982e d13c
000000a0: c1cb 06be 037b c9bd aa6f aebd 429d acbd
000000b0: 5d53 7d3c 1189 083d 9af4 ab3c 2923 19be
000000c0: 5894 263c 307f 1d3d b3e9 6ebd 5915 d33c
000000d0: fb97 92bd 42fe 2fbd 6608 d43c b562 91bd
000000e0: 711b 203d 6f0b 9e3c ddbe 4ebd 84f8 adbd
000000f0: af46 09be c725 4a3d 6ef0 5b3d 0d1c f9bb
00000100: 5b56 8ebb 188c 69bd 2f21 d63c 3898 c03c
00000110: 53c3 d7bd 404a 943d 9cff 0a3e 484a d63c
00000120: 3234 eebc ef50 b0bb b943 8c3c eeae f93c
00000130: 0705 93bd f165 34bd b86d 0e3e fe54 f8bb
00000140: abe3 9d3d 80cb 2dbd 4e52 b33c 5314 6d3d
00000150: b7e5 55bd 0f31 3c3d 291e 583d 3363 fd3c
00000160: 7df0 e1bd 468f c8bd 292f f1bd fa3b 0fbd
00000170: 8870 e93b 85ac 9bbd 24e5 6abd 6f6a 853d
00000180: 3be9 a3bd 1abd cbbc 4984 a23d 6670 823c
00000190: 3e7f 153e 623b 45bd 8923 373d 2a58 b8bd
000001a0: dc65 c53d 6537 e6bc 2b45 8b3c 0f4f e93d
000001b0: fef6 cbbd 4206 f5bc 80f4 a4bd edb3 1f3d
000001c0: 2d35 edbc ed73 8f3c dc10 babc 6e1c e7bd
000001d0: ee8f 96bc d63c 90bc dd9c 3c3d 7055 1bbd
000001e0: 5ef0 493d f232 1c3e fbe7 fa3d b264 99bd
000001f0: 0c25 483c f071 cbbc dd2b 0cbb 5c3b 6dbd
00000200: cca3 33bd 01ff cbbc fd0a ffbc b315 d63d
00000210: db18 433c 7e73 ff3c 34ee 073d 116e 5c3d
00000220: 3710 92bd 2759 713d fb8b 16bd fc69 19bd
00000230: d4f9 e5bb ea0f b93d 48d1 c23c dee9 5cbc
00000240: e1af 18be 6b2f fcbc 3d04 7f3b 9180 08bd
00000250: 6776 34bd 2c93 cb3b db54 473d 5192 27bd
00000260: 12b8 c9bc 6548 9d3c db58 b03c 7522 ae3d
00000270: d823 6cbc cfa8 53bd 4e05 993d ce3b d33d
00000280: 18a8 03bb 3f1e babc c032 b03c 19c4 603d
00000290: 905c 26be 257b f3bd c67c 59bd 6234 44bd
000002a0: 542f cfbb 0346 69bd 49db b73c 5be9 363d
000002b0: 1940 b13d 925c 87bd eb0c cd3c 5395 933d
000002c0: 72ad e7bd 4d38 10bc 2611 90bb 741f 22be
000002d0: 9748 b43d f2b9 94bc 475c 673d 8796 ddbd
000002e0: 3bbf 333d cbb5 013c 46ca 3d3d a229 88bd
000002f0: c466 a5bc 21b3 4b3d 0064 423d 2c74 e9bc
00000300: f045 ea3d 8ee4 ba3d f0c1 0b3c efc6 a33b
00000310: 321e 99bd 96a5 0a3d 51d4 d33d 8067 fc3d
00000320: d22c 283c 1211 a33c 4583 4dbd 48f7 d13b
00000330: fe25 bf3c 3bb1 b8bd 51d4 e6bc c2d7 6ebd
00000340: 7448 39bc 9769 fc3c 0b12 c13c b639 50bc
00000350: ea16 adbd 04ac 4137 c893 b13c c7b3 37bd
00000360: be23 14bc 8fb2 bdbc e462 89bd bc7a 37bc
00000370: 441a 26bc 3463 dabd c742 393e dadd 7c3d
00000380: 62b6 883d 96a9 aa3c e062 6e3c 2bfa 0bbd
00000390: 5f10 55bd 4ae1 2dbd b625 573b 2a65 82bd
000003a0: fb7f 14bd fd6f fbbd 6fb5 63bd baab b83c
000003b0: 7383 543d da88 823d 8312 7a3c 3c2f d63d
000003c0: a051 893d be21 07be 1a79 59bd 87f6 e83d
000003d0: ee07 df3b d9de 853d eaa9 8ebd a0f5 393d
000003e0: e376 f6bc c3d1 943c 7983 c93c 304d b83d
000003f0: 36b1 b13d 300b 113d 60ed 0dbc 20c5 79bd
0.0206768 0.061295714 0.02600267 0.14239566 0.0757405 0.061681785 0.07775597 -0.00686638
-0.021546237 0.09306629 0.032269176 0.027816953 0.14212066 -0.06935789 0.11065643 0.033567607
-0.0035267712 0.012971354 -0.056261208 0.00058223907 0.035358734 -0.012772207 -0.04121802 -0.012146355
0.116395965 -0.017058566 -0.007894256 0.07486839 0.103103094 -0.08420206 -0.08150703 -0.0116387885
0.10031563 -0.004241925 -0.10122455 -0.10074669 0.045251824 -0.03249029 -0.1013754 0.025534913
-0.13163663 -0.09837916 -0.08517392 -0.08428432 0.01546177 0.03333384 0.020990659 -0.14954819
0.010167204 0.038451374 -0.05832834 0.025767015 -0.07157894 -0.04296709 0.025882911 -0.07098905
0.03908867 0.019292561 -0.05047499 -0.08494666 -0.1340587 0.049352434 0.05369609 -0.007602221
-0.0043437905 -0.05701837 0.02613887 0.023510084 -0.10535302 0.072407246 0.1357407 0.026158467
-0.029077623 -0.005380742 0.017122136 0.03047892 -0.07178693 -0.04404253 0.13909042 -0.0075784912
0.0770944 -0.0424304 0.021889832 0.05788071 -0.052221026 0.045945223 0.052763138 0.030931091
-0.110321976 -0.09792952 -0.11776573 -0.034969307 0.0071240105 -0.07601265 -0.05734743 0.06514441
-0.080034696 -0.024870444 0.07935388 0.015922736 0.1459932 -0.048152335 0.044711623 -0.09001191
0.09638569 -0.028102586 0.017000755 0.11392032 -0.099592194 -0.02991021 -0.08054447 0.03898995
-0.02895602 0.017511332 -0.022713117 -0.112847194 -0.018379178 -0.017607134 0.046048034 -0.037923276
0.049301498 0.15253809 0.12251278 -0.07489909 0.012215864 -0.024834603 -0.002138845 -0.057917938
-0.04385738 -0.024901869 -0.03113317 0.104533575 0.0119077815 0.031183 0.033186153 0.053815905
-0.07131999 0.058922913 -0.03675459 -0.03745459 -0.007018307 0.090362385 0.023781434 -0.013483493
-0.14910842 -0.03078433 0.0038912438 -0.033325735 -0.04405823 0.0062126126 0.04866491 -0.040911023
-0.024623904 0.01919956 0.021526745 0.08502666 -0.014412843 -0.05167466 0.07471715 0.10314141
-0.0020089205 -0.0227195 0.021508574 0.054874513 -0.16246247 -0.11888722 -0.05309751 -0.04790152
-0.0063227806 -0.056951534 0.02244343 0.04465614 0.08654804 -0.06609453 0.025030574 0.07206216
-0.11312379 -0.008802486 -0.0043965755 -0.15832311 0.08802908 -0.018155072 0.056484487 -0.108197264
0.043883543 0.007916878 0.04633548 -0.06648566 -0.020190604 0.049731378 0.04745865 -0.028497778
0.11439121 0.091256246 0.008530125 0.00499808 -0.074764624 0.03384932 0.103432305 0.123244286
0.010264592 0.0199056 -0.050174017 0.006407652 0.023333546 -0.09018179 -0.028177412 -0.05831123
-0.011308778 0.030812068 0.023568174 -0.012709072 -0.08451636 1.1543747e-05 0.021676913 -0.044849183
-0.009041725 -0.023156432 -0.06708315 -0.011198696 -0.010138098 -0.10663453 0.1809188 0.06173501
0.06675412 0.020832818 0.014549941 -0.034174126 -0.052017566 -0.04245118 0.0032828874 -0.06366952
-0.036254864 -0.122772194 -0.05559295 0.022542823 0.051883172 0.063737586 0.015263203 0.10458228
0.06705022 -0.13196465 -0.053094007 0.11375146 0.006806365 0.065366454 -0.06966002 0.045400262
-0.030085986 0.018166428 0.024598824 0.08999097 0.086763784 0.03541106 -0.008662552 -0.06097901

network_body.observation_encoder.processors.0.normalizer.running_mean f4 [36]
00000000: fc40 f53c 5351 993c 8983 733f 50be 7c3f
00000010: 888a 203f 5983 aa3c ac36 b43e dd10 303f
00000020: 217f 163f f2c4 623c 72e5 cb3e c998 243f
00000030: b705 c13e 0bf9 b63c f7b4 193f 1f07 3c3f
00000040: 9500 c43e 1ce8 5b3c 1c88 1a3f 49f9 373f
00000050: 2f01 e73e 9d43 953d 08df f23e 675c 3f3f
00000060: cb10 e33e cfa1 b73d 0411 ee3e a43a 3a3f
00000070: 7221 683c 4689 723e 3586 3e3f 932d 733f
00000080: 7221 683c 4689 723e 3586 3e3f 932d 733f
0.029938214 0.018715536 0.9512258 0.98727894 0.6271138 0.020814585 0.3519796 0.6877573
0.58787733 0.013840901 0.3982349 0.6429563 0.37699673 0.02233555 0.60041755 0.73448366
0.38281694 0.013422038 0.60363936 0.71864754 0.4511809 0.07288287 0.47435784 0.7475037
0.4434875 0.089664094 0.46497357 0.7274573 0.01416813 0.23685178 0.74423534 0.94991416
0.01416813 0.23685178 0.74423534 0.94991416

network_body.observation_encoder.processors.1.normalizer.running_mean f4 [5]
00000000: ccd9 03c0 1133 42c0 17fe 7fc0 36fe df40
00000010: 3856 4c41
-2.0601683 -3.0343668 -3.9998834 6.9997816 12.7710495
