Assets/Training/results/b_treasure_test70_Th248_Lr1e-4Bs4096Bs65536_Curiosity_EndDistanceReward/TreasureSearch/TreasureSearch-499913.onnx (onnx, 608683 bytes, 13 tensors)

65 f4 [68]
000000 dd 91 e0 3e fc 9e fe 3e 74 c2 e8 3e 25 ae 91 3e
       0.43861285 0.4973067 0.45460856 0.28453174
000010 5a 6e ff 3e c9 9b f3 3e be 98 c7 3e 5a 5c 9b 3e
       0.4988888 0.47579792 0.3898372 0.30343896
000020 c7 f2 ee 3e a8 59 fe 3e 87 6b d9 3e d6 ca 90 3e
       0.466696 0.49677777 0.4246485 0.28279752
000030 94 57 fb 3e 26 17 fc 3e a8 7a c5 3e 2c 40 aa 3e
       0.49090254 0.4923641 0.38570142 0.33252084
000040 44 d5 fa 3e 16 b9 f8 3e 01 76 d3 3e 39 ff a4 3e
       0.48990834 0.4857871 0.41300967 0.3222597
000050 25 d6 e8 3e 46 3a f9 3e 8e bd 94 3e d1 fc 98 3e
       0.4547588 0.48677272 0.2905087 0.29880384
000060 10 ae f5 3e 04 2d ff 3e 73 58 99 3e ca 0c a6 3e
       0.47984362 0.49839032 0.29950294 0.32431632
000070 75 f3 d7 3e c0 06 ee 3e da 1c 8d 3e 04 8b 8c 3e
       0.4217793 0.46489525 0.27561074 0.2744981
000080 33 7e e5 3e 99 b6 f3 3e 2f ff 7d 3e 78 b9 9a 3e
       0.44822845 0.47600248 0.24804376 0.30219626
000090 3c 69 dd 3e 31 4f f2 3e e6 d7 8d 3e 07 73 94 3e
       0.4324435 0.47326043 0.2770378 0.2899401
0000a0 5d d3 e1 3e 67 84 f2 3e 8b de 80 3e 65 f0 9a 3e
       0.4410657 0.4736664 0.25169787 0.3026153
0000b0 b7 7c e6 3e 4c 7c ff 3e c1 23 56 3e e0 cb 95 3e
       0.45017025 0.49899518 0.20912077 0.29257107
0000c0 c8 4a eb 3e 52 73 fd 3e 98 7a 64 3e 7d 71 96 3e
       0.4595549 0.49502045 0.22312391 0.2938346
0000d0 48 e9 d8 3e ee f2 fe 3e 4f 6f 52 3d cd 38 63 3e
       0.4236548 0.49794716 0.051375683 0.22189637
0000e0 28 08 de 3e 77 79 ff 3e 55 e3 4c 3d aa 00 6a 3e
       0.43365598 0.49897358 0.05002149 0.22851816
0000f0 55 7a b8 3e ec ed fd 3e d3 3c 4f 3d 9f bb 50 3e
       0.36030832 0.49595582 0.050595116 0.20384072
000100 54 7a b8 3e ec ed fd 3e d2 3c 4f 3d 9e bb 50 3e
       0.3603083 0.49595582 0.050595112 0.2038407

68 f4 [6]
000000 b3 04 08 40 1d 38 aa 40 df f5 7f 3c 9e da 23 3c
       2.1252868 5.31935 0.015622585 0.010000853
000010 f9 3d 64 40 db 6c 08 43
       3.5662825 136.42522

action_model._continuous_distribution.log_sigma f4 [1, 2]
000000 02 e6 c5 3c c5 55 82 3b
       0.024157528 0.0039775097

action_model._continuous_distribution.mu.bias f4 [2]
000000 e2 a1 19 ba 3f da ca 3a
       -0.0005860609 0.0015476419

action_model._continuous_distribution.mu.weight f4 [2, 256]
000000 25 05 95 bb cf 35 1a bc 07 c0 88 3a 81 2a 81 3c
       -0.0045477324 -0.009412243 0.0010433205 0.015767338
000010 0e bf d3 3b c4 cb 8c 3c 93 e5 a1 bc fa e7 73 3c
       0.0064619845 0.017187007 -0.01976279 0.0148868505
000020 ca f9 77 bc 7e a8 7e bc 40 94 94 3c df ab 7a bc
       -0.015135238 -0.015543101 0.018137097 -0.015299766
000030 bc 2f 93 3c b1 1f 6d bc f3 87 a7 bb 0f 33 e4 3b
       0.017967097 -0.014472888 -0.005112642 0.0069640945
000040 86 dd 0b 3d 06 e9 01 3d 18 42 cd 3b 83 cb 56 bc
       0.034146808 0.03171637 0.0062639825 -0.013110044
000050 d9 69 a0 3c d3 0a 37 bc 2d 2f 80 bc ba cf e4 3b
       0.019581722 -0.011172014 -0.015647495 0.0069827707
000060 19 26 e7 3b 9e 83 80 3c 31 58 32 3c 4a e0 e4 bc
       0.007054102 0.01568776 0.010885284 -0.02793898
000070 1c d8 9a bc 18 7a c3 bc 2e 9b 9e 3c 2d ef 20 bd
       -0.018901877 -0.02386193 0.019361105 -0.039290596
000080 ba 2f 99 bc 3f 56 b4 3a 59 fc 05 bb be 45 d1 bc
       -0.018699516 0.0013758613 -0.00204446 -0.025545951
000090 a9 5f 1f bd 0a 31 cc bc e5 39 a2 3c a7 a5 4b 3b
       -0.038909588 -0.024925727 0.019802997 0.0031074078
0000a0 42 39 6d bc 83 61 9b bc 0f 54 54 3b 55 e2 4b bb
       -0.014478983 -0.018967396 0.0032398736 -0.0031110246
0000b0 b6 2a 82 3c c2 cb 98 3b 72 a8 ba b9 79 c4 8c bc
       0.015889507 0.0046629617 -0.00035602186 -0.01718353
0000c0 ea b3 c1 bc b0 b2 45 bc 7f f3 ce 3b b7 dc 93 ba
       -0.02364536 -0.012066528 0.006315648 -0.0011280988
0000d0 0d 0a 56 3b b2 81 cc bb 7f 9f c0 bb 7f 60 ae bc
       0.00326598 -0.006241047 -0.0058783884 -0.021286247
0000e0 12 b4 43 bb 21 d2 32 ba 40 5d 34 bb e3 e7 d1 3c
       -0.002986197 -0.0006821473 -0.0027521402 0.025623268
0000f0 da b6 2e bd 5f 21 5e 3b 4a af 25 3c cf 8d 97 3c
       -0.04265485 0.0033894402 0.010112593 0.018500237
000100 e3 c4 96 37 ea ef 10 39 27 d7 49 3c 9f 63 0d 3d
       1.7973076e-05 0.00013822285 0.012319363 0.034518834
000110 73 09 14 bc 37 eb 83 bc 60 8f 98 bc 30 0b d4 3c
       -0.009035456 -0.01610337 -0.018623054 0.02588424
000120 69 81 3c bc 7b 53 e1 3c 1f 8b 21 bd bd da b8 bc
       -0.011505463 0.027505627 -0.039439317 -0.02256524
000130 ca 64 0b 3d d8 1d 81 3c e1 75 2d 3d 37 c7 9d bc
       0.034031667 0.0157613 0.042348746 -0.019260032
000140 8b 61 e9 3c 44 07 96 3c fc be aa 3c 1a 82 6a 3c
       0.028488895 0.018314011 0.020843022 0.014313245
000150 f5 dd 87 bb 1a 87 9c 3c 6f 0c 64 3c 96 ca 71 3c
       -0.0041463324 0.01910739 0.01391898 0.014757773
000160 cb 38 97 3c d6 22 57 bc e2 3e 95 bc 51 33 9f bc
       0.018459698 -0.013130864 -0.018218461 -0.01943365
000170 8d 02 a1 bc 83 80 68 bc fd e3 b6 3b 04 15 25 bc
       -0.019654537 -0.014190796 0.0055813775 -0.010075811
000180 b2 dc c3 3b e9 49 aa bc a6 59 b7 bc 42 67 7e bc
       0.0059772367 -0.020787196 -0.022381615 -0.015527548
000190 a3 3d 46 3c cf a8 96 ba 6f a8 a0 3c fe dd 99 bc
       0.012099656 -0.0011494401 0.019611565 -0.018782612
0001a0 75 3c 91 bb 0e 10 2c bc 2e 70 38 3c eb e3 08 bc
       -0.004432256 -0.010501875 0.0112572145 -0.008355121
0001b0 0e 98 70 3c cf 47 d3 bc 9e 9f f9 3c 30 56 aa 3c
       0.01468469 -0.025791077 0.03047162 0.02079305
0001c0 d2 3d 19 3c 41 71 19 3d 2e 9d ec bc 40 fd 96 3c
       0.009353118 0.037461523 -0.028883543 0.018431306
0001d0 03 e1 0f 3d e1 ac fd 3a a0 8e 9a 3c c0 ad 6b bc
       0.035126697 0.001935389 0.018866837 -0.014384687
0001e0 ed 61 86 3c f2 e6 12 3d 82 54 bb 3c 9d 90 56 3c
       0.016404117 0.035864778 0.022867445 0.013096002
0001f0 a2 f2 5a bc ed 38 11 bd 94 87 20 bc 56 a5 c4 bb
       -0.013363512 -0.03545468 -0.009797949 -0.006001155
000200 b0 34 60 bc 9d 78 71 bc 80 8c 2a 3c 1d a4 10 3d
       -0.013684437 -0.014738229 0.010409474 0.03531276
000210 99 e0 f6 3c d5 47 06 3c 1d 2d 8d 3b 94 79 d9 3c
       0.030136393 0.008195837 0.0043083564 0.02654723
000220 d2 c3 91 3c 46 71 10 bc ff d8 4c 3c 87 bd b1 bc
       0.01779357 -0.008816069 0.012502908 -0.021696819
000230 b7 e2 f1 bc 8b 38 2b bc 4c 97 e0 3c 38 d8 fd bc
       -0.029527051 -0.010450493 0.027415894 -0.03098689
000240 47 dd 58 bc d9 b5 67 bc 29 0d 6e 3c 0f d2 2d bc
       -0.01323635 -0.014142477 0.014529505 -0.010609164
000250 fa 29 89 bb 0e f4 8d 3c 3c 95 a9 bc 1e eb 5b 3c
       -0.004185912 0.017328288 -0.020701043 0.0134227555
000260 91 fd 41 bc bb e8 ae ba 62 d7 eb 3a 5c c6 4f 3c
       -0.01184024 -0.0013344506 0.0017993266 0.01268157
000270 bb 6e 0a bc 21 be 3c 3c 2d 0c aa bc 4b 6f 81 bc
       -0.008449252 0.01151994 -0.020757759 -0.015800139
000280 44 b5 8b 3c be 72 cd 3c ad 01 d5 bc 28 b0 87 bc
       0.017054208 0.025079127 -0.026001776 -0.01656349
000290 7d a1 37 bc e3 ae c6 bb 5e 0c 92 bc 5b d4 ba 3c
       -0.011207935 -0.0060633286 -0.017828163 0.022806337
0002a0 60 da 1f 3c be 70 f3 3c 37 43 84 3c 4d cd df 3a
       0.0097566545 0.029716846 0.016145332 0.0017074734
0002b0 c5 56 81 bc f3 fe e6 bb cd 31 93 3b 6b 33 af 3c
       -0.015788445 -0.0070494353 0.0044920207 0.021386823
0002c0 ae 79 12 bc c6 af 81 3c 6e be 77 bc 9e 00 a1 3c
       -0.0089401435 0.015830886 -0.015121086 0.019653615
0002d0 68 33 21 bc 9d 40 14 3b 0d f7 85 3c 0b 8c 10 3c
       -0.009838916 0.002262152 0.016353155 0.008822451
0002e0 f2 d4 16 3c de c4 1b bb 42 9e 7d bc 42 9e 29 3a
       0.009206044 -0.0023768465 -0.015479626 0.00064704206
0002f0 78 8a 48 bc a4 2d 99 bc 69 71 96 3b 73 5b 02 3d
       -0.012240045 -0.018698521 0.0045911563 0.031825494
000300 b4 c7 9c bb 27 2b b1 bb bd 28 fc bb 68 c6 8c 3b
       -0.0047845487 -0.0054067555 -0.007695286 0.004296113
000310 d6 02 f0 3c 5b eb ac 3b 42 1a 25 3d 99 c6 7d bc
       0.029298227 0.00527708 0.040308245 -0.015489244
000320 1a e9 06 bd 50 62 78 3b ed c6 96 b9 7f ab 35 bd
       -0.032937147 0.0037900396 -0.0002875844 -0.044353005
000330 26 80 ed bb 0d 02 d3 3c 33 24 0c 3d 7f e8 11 bd
       -0.0072479425 0.025757814 0.03421421 -0.035622116
000340 7c 71 28 bc e2 4d c9 3c 68 0d eb 3b 7c 39 dd 3c
       -0.010280963 0.02457327 0.007173229 0.02700495
000350 5d 8d 6b bc a9 04 ca 3c bf b6 90 bc 27 cc 8b 3c
       -0.014376965 0.024660425 -0.017665265 0.01706512
000360 a4 6e 8e 3c c7 97 88 3c f3 fc 6f bc 52 2d 50 bc
       0.017386742 0.016673936 -0.01464771 -0.012706118
000370 e7 19 a9 3b e2 29 2f bc a9 93 e6 bb be 27 7e 3c
       0.0051605585 -0.010691138 -0.0070366454 0.015512405
000380 ca a6 eb 3c ae b0 93 3c 9f f8 6e bc 3a 49 02 bc
       0.028766055 0.018028583 -0.014585643 -0.007952029
000390 00 9c b7 3b bf 6c 28 bc ae 77 3f bd e5 26 7f ba
       0.0056033134 -0.010279833 -0.046744995 -0.0009733274
0003a0 c6 c5 b3 3b 80 1e 99 bc d7 8a 39 bc 15 f5 d7 3c
       0.005486223 -0.018691301 -0.011324606 0.026361981
0003b0 a2 e3 26 bc a2 d0 a1 bb 31 4c a4 bc ba ec d1 3b
       -0.010186108 -0.004938201 -0.020055862 0.006406394
0003c0 05 08 93 3a b3 cb 91 3c 59 dc b9 3c a5 21 82 39
       0.00112176 0.017797327 0.022688078 0.000248206
0003d0 c5 84 08 bc 32 5d ab bb 9c 97 c7 3b 53 87 29 bc
       -0.008332436 -0.0052296156 0.0060910713 -0.010347205
0003e0 bb 41 05 3d f7 5a ab 3c 16 f3 46 b9 0a ab 83 bc
       0.03253339 0.020917399 -0.00018973308 -0.016072769
0003f0 04 55 a3 3c 85 8f 9d bc 14 10 17 bc 2e c6 f9 bc
       0.019938 -0.019233475 -0.009220142 -0.030490007

network_body._body_endoder.seq_layers.0.bias f4 [256]
000000 70 6c 9a 3b c0 ca 13 bc b5 83 e7 3b a9 4b b7 3a
       0.004712634 -0.009020507 0.0070652612 0.001398434
000010 4c 6e 30 3b cb 6f b3 3b a8 f2 d3 ba 27 26 03 bb
       0.002692121 0.0054759732 -0.001617034 -0.0020011754
000020 d2 af 5c 3b e3 b0 ef 3b 03 16 00 3c 63 0f f3 3b
       0.0033674133 0.0073147877 0.007817748 0.0074176057
000030 f3 da 3c 3b 50 fa d0 3b dc 59 39 3a 4c 09 67 3b
       0.0028817027 0.006377496 0.000707058 0.0035253344
000040 d0 83 01 3c 68 97 6a bb e4 a2 28 3c 77 bc 84 ba
       0.007904962 -0.0035795812 0.010292742 -0.0010126968
000050 48 eb d6 3b 3a 91 b5 39 d1 88 9f 3a e8 b9 9c 3b
       0.0065588094 0.00034631212 0.0012171512 0.004782904
000060 29 46 db ba 50 a5 62 bb d3 5c 0c bb ca 92 99 ba
       -0.0016729283 -0.0034583397 -0.0021417632 -0.001171672
000070 1c 99 ae 3b b2 ca 5e 3c a5 e0 af 3b 59 e6 ef bb
       0.0053283107 0.013598131 0.005367356 -0.0073211608
000080 ca 8e 89 3b cd d1 0b 3c 10 b7 2f b9 b0 6a 54 3b
       0.00419793 0.008533907 -0.00016757497 0.0032412224
000090 5b d2 f3 3a 73 96 40 3b f5 8b 83 3b 0e 62 7a 3b
       0.001860212 0.002938655 0.004014487 0.0038205418
0000a0 af 6d e2 3b 66 ab 74 bb 5a 22 29 bb bc bf 12 b7
       0.006910048 -0.0037333607 -0.0025807829 -8.74692e-06
0000b0 78 df 02 3c d8 f1 60 3b f1 6a a1 3b 04 51 38 3a
       0.007987849 0.0034323838 0.0049260785 0.0007031115
0000c0 23 dd 93 bb b0 21 b8 bb fd d5 82 bb a1 d7 08 bb
       -0.0045124455 -0.0056192502 -0.0039927945 -0.0020880478
0000d0 c7 a0 ac bb af 26 38 3c e9 83 59 bb b4 66 3b bb
       -0.0052681896 0.011239692 -0.0033190197 -0.0028595151
0000e0 89 a3 5b bb ca 7f 53 3b f9 25 f9 3a ab 43 ee 3a
       -0.0033514223 0.0032272213 0.0019008509 0.0018178126
0000f0 6e 74 36 bb 19 c0 97 3a e5 65 3c bb 8f 45 13 3c
       -0.0027840394 0.0011577635 -0.0028747257 0.008988752
000100 ef e4 c3 ba 7f 02 62 ba 5d 09 20 3c bc c0 9f ba
       -0.0014945547 -0.0008621588 0.009767857 -0.0012188177
000110 e4 c5 ff 3b bc ea 2f 3c 27 39 6d 3a 70 88 e1 3a
       0.007805573 0.010737117 0.0009049349 0.0017206799
000120 17 e0 2c 3b 2d 87 0c bb 49 03 b6 bb 34 53 1b 3c
       0.0026378685 -0.0021442876 -0.005554591 0.009480286
000130 6c 47 e0 ba 9f 6a c3 3b 7b 5f af 3b e3 4f e6 3b
       -0.0017111129 0.005963638 0.0053519583 0.007028566
000140 a0 3b cb b9 79 18 aa 3b 3f 4c e5 ba 08 86 e9 b8
       -0.000387636 0.0051909056 -0.0017494037 -0.00011135271
000150 31 d5 4a 3c eb 38 55 3c f5 0d 3d 3c b4 8d dd ba
       0.01237993 0.013014059 0.011538972 -0.0016903193
000160 a5 4d 86 3b b9 b0 48 3b 16 b0 35 3c cb e8 01 3c
       0.0040986114 0.0030622913 0.011089345 0.007929037
000170 d9 0b 88 3b b9 75 b8 3b f1 46 7e bb ba b7 9a 3b
       0.004151803 0.005629268 -0.0038799609 0.004721609
000180 87 f6 5e 3b c5 8c 31 3b fb 87 76 b9 60 89 20 3b
       0.0034021453 0.0027091962 -0.00023511045 0.0024495944
000190 b3 2a a5 3b 0e a7 27 39 7b 82 0b 3c d8 0f 2e 3b
       0.0050404905 0.00015988594 0.008514996 0.0026559737
0001a0 56 b1 b5 3a c4 89 80 3a a5 0b 0a bb 76 f1 85 3b
       0.0013862054 0.0009806682 -0.002106407 0.0040876223
0001b0 ec 9d 9d 3b 93 70 ed 3b 21 e3 5f bb 82 19 fd ba
       0.0048100855 0.007246086 -0.003416248 -0.001930997
0001c0 fc b4 29 3b 0c 5f 85 3b 7a b5 54 3b 39 1d db 3b
       0.0025895229 0.0040701684 0.0032456801 0.006686833
0001d0 da 1c a7 3b e0 91 49 3b 8b 6b 03 3b 12 eb 41 3c
       0.005099875 0.0030757114 0.0020053114 0.01183583
0001e0 4a 1a 78 3b 2a 35 08 ba e5 3e ba bb 53 bc e4 3b
       0.0037857466 -0.00051959103 -0.005683767 0.006980458
0001f0 c3 57 18 bc 4d 0b bf 3b b5 ff d1 3b 19 41 e6 3a
       -0.009298268 0.0058302046 0.0064086565 0.0017567008
000200 09 56 7a 3b ed c0 1f 3c db 09 0c 3b 8f dc 4c 3a
       0.0038198254 0.009750587 0.002136818 0.0007814848
000210 77 34 fb 3b 22 e8 0d 3b cd 15 14 3b 95 4f d3 3b
       0.0076661664 0.0021653255 0.0022596002 0.006448696
000220 ec 6c 09 3c 00 41 5e 39 15 50 dd 3b f4 6d 77 bb
       0.008387785 0.00021195784 0.0067539313 -0.0037754746
000230 0b 5c f4 3b f2 88 21 3a 01 15 10 3c 0f 46 89 3b
       0.0074572614 0.0006162069 0.00879407 0.00418926
000240 71 63 79 38 34 3c f9 3b da 00 b0 3a 6a e3 e7 bb
       5.945884e-05 0.0076060537 0.0013427988 -0.0070766704
000250 2b 8d 46 ba cd 8e 56 3b 03 de 1e 3c c7 f0 11 bb
       -0.0007574136 0.0032738924 0.009696486 -0.0022268759
000260 47 5f 83 3b 41 ec 69 b9 79 85 89 b9 4c 1d 13 3a
       0.0040091607 -0.00022308623 -0.0002623012 0.00056119706
000270 68 b8 07 bb 82 e5 a3 3b c1 42 8d bb 92 c1 9d 3b
       -0.002070928 0.0050017247 -0.004310936 0.004814335
000280 e8 6c 40 3b 8f a5 5a bb cb 09 08 3c 1d 7c c6 bb
       0.0029361788 -0.003336284 0.008303116 -0.006057276
000290 38 13 68 3b 24 fd b6 ba 4d fc b2 3b 49 f1 1a 3c
       0.0035411846 -0.001396094 0.0054622055 0.009456941
0002a0 63 76 6f 3b e3 29 27 3b 0d 48 03 ba 12 1b f6 3b
       0.003653907 0.0025507144 -0.000500799 0.0075105513
0002b0 0e 1d 2a bb 75 3c e6 bb fd a8 cf bb ed 01 26 3b
       -0.002595726 -0.00702625 -0.0063372836 0.0025330738
0002c0 01 d0 57 3b 85 59 c9 38 ac 5b b9 39 aa d6 1d bb
       0.0032930376 9.601101e-05 0.0003535425 -0.0024084249
0002d0 c1 aa 33 bc 30 80 a6 3b 5c 81 cd 3b ad a5 bb b9
       -0.010966004 0.005081199 0.0062715244 -0.00035790858
0002e0 23 05 8b bb 7e 0f 91 bb 2d 71 c7 3a 0e f5 05 bc
       -0.0042425557 -0.0044268956 0.0015216224 -0.008176101
0002f0 46 41 08 3b ac 5d 0a bb 61 97 3e bb e0 92 79 3b
       0.002079086 -0.0021112962 -0.0029081928 0.003808193
000300 52 ab bf 3b f8 12 50 3c 12 ef ab bb 74 76 d8 3a
       0.0058492804 0.012699835 -0.0052470053 0.0016514794
000310 e9 65 51 3b ac 87 c2 3a b9 53 18 bb 32 5b 03 3c
       0.0031951612 0.0014841459 -0.0023243262 0.008017348
000320 6c 6f 13 bb 77 b2 9c 3b 80 c4 a1 3b 24 b3 e3 3a
       -0.0022496833 0.004782017 0.0049367547 0.0017372114
000330 47 13 f6 3b 32 9c 86 b9 90 dd e6 bb f8 69 f4 3b
       0.0075096223 -0.00025674846 -0.0070454553 0.0074589215
000340 24 1e 14 3b 6d 98 db 3b c4 91 af ba f8 64 81 3a
       0.0022600973 0.00670152 -0.0013394882 0.000987201
000350 3a ab 5f 3b b3 e6 16 3c ae af 6c 3a e0 7b fe 39
       0.0034129159 0.009210276 0.0009028864 0.0004853895
000360 87 09 2e bb d8 1a b9 3a 05 fa 2a 3c 59 e9 8f 3b
       -0.0026555972 0.001412238 0.010435586 0.004391831
000370 ef 7d 9d bb 0a 1e 50 3c 61 cd 21 39 2d 74 6e 3c
       -0.004806272 0.012702474 0.00015430666 0.014554066
000380 47 d8 3f ba 72 0c 98 3b 79 bb c7 bb fd 02 37 3b
       -0.00073182996 0.0046401555 -0.0060953465 0.0027925365
000390 d1 eb 6c 39 d7 2c 57 3c ad 47 70 bb fd c6 4d bc
       0.00022594562 0.013133249 -0.0036663816 -0.01255965
0003a0 da 6c 62 bb 43 e2 80 ba ba c3 19 bc 45 b2 b2 ba
       -0.0034549744 -0.0009833056 -0.009385044 -0.0013633451
0003b0 87 b7 71 3b d2 90 90 3b 6f ad 1f 3c d5 ce fe bb
       0.0036883072 0.004411795 0.00974594 -0.007776121
0003c0 b3 da f7 39 ae 66 bd 3b 36 f4 e6 3a f5 87 b4 3b
       0.00047274455 0.0057800626 0.0017620388 0.0055093714
0003d0 20 53 2f bb f3 44 ab ba 7b dd 4b 3c 62 65 f3 3a
       -0.0026752427 -0.0013066813 0.012442942 0.0018569643
0003e0 e6 d6 37 ba 28 8b 1d bb f6 56 cf 3b ae e8 f8 3b
       -0.00070129184 -0.0024039242 0.006327505 0.007596097
0003f0 b0 cb 24 3c cd 2a 16 3c 43 b2 a4 3b 65 9c 5b 3b
       0.0100583285 0.009165478 0.0050261333 0.0033509966

network_body._body_endoder.seq_layers.0.weight f4 [256, 74]
000000 c3 ea 46 3e 41 1f bc 3c 54 65 33 3e bb 6d b5 bd
       0.19425492 0.022964122 0.17519122 -0.0885882
000010 78 a5 d3 3d 98 75 cf bd c3 09 50 3e fd 81 e3 3c
       0.10334295 -0.10129851 0.20316224 0.027771944
000020 d3 bf 25 bc 21 9e 02 be e7 90 9a bd 28 2a 16 be
       -0.010116535 -0.12755634 -0.07547169 -0.14664519
000030 f4 92 a8 3d cb a5 7a bd 3c df ec bd 3e 54 cc 3d
       0.08231154 -0.06119327 -0.11566016 0.099770054
000040 0d a1 08 bd 62 82 de bd e0 74 31 be c7 6a 4a 3e
       -0.033356715 -0.10864712 -0.1732974 0.19767295
000050 16 75 71 3d 7c d7 be bd 71 1b f9 bd 65 63 a6 bd
       0.058949552 -0.09318444 -0.12163437 -0.08124427
000060 7a 4b f0 3d 4b db 95 bc a0 40 1f 3e aa bf 1f be
       0.11733146 -0.018293044 0.15551996 -0.15600458
000070 65 be 93 be f8 97 6a 3d 8d ce 90 3c 02 7a aa bd
       -0.28856197 0.057273835 0.017676616 -0.083240524
000080 af d1 83 bd e7 72 cd 3c 02 59 8c 3d 01 3c d1 3c
       -0.06436478 0.025079204 0.068529144 0.025541307
000090 b5 27 b1 3d 0d 1b c4 3d a8 2a f1 bc db 23 5a bd
       0.08650152 0.09575472 -0.029439285 -0.05325685
0000a0 4a dd a7 3d c1 b8 c7 bd 2c b1 a7 be 3c 28 76 bd
       0.081965044 -0.09752036 -0.3275236 -0.060096964
0000b0 a5 43 19 3e 37 43 c5 bd 84 37 23 be 17 4d 15 bd
       0.1496721 -0.09631961 -0.15939146 -0.03645047
0000c0 cd 5e e6 3d 9d 2c 38 3e 3e 32 b2 bd 5c 11 23 bd
       0.112485506 0.17985769 -0.08700989 -0.039811477
0000d0 0b 9f 60 3e 60 41 ed bd e8 04 32 be 39 a7 46 3d
       0.2193567 -0.11584735 -0.17384684 0.04849932
0000e0 f8 a2 1b be 63 35 a3 bd 93 11 08 3d dc 03 68 3e
       -0.15198886 -0.07969167 0.033219885 0.22657722
0000f0 eb 10 02 3e b5 51 b9 ba b9 57 9b bd 63 ef dc 3c
       0.12701766 -0.001413873 -0.07585091 0.026969617
000100 d2 9e ab 3a c0 75 07 3e d4 f3 6e bc 86 ff a0 3c
       0.0013093597 0.13228512 -0.0145845 0.019653093
000110 9c a0 4f 3d 39 75 86 3d df 16 c2 3d 46 c1 c8 bd
       0.05069028 0.06565327 0.094770186 -0.09802489
000120 3b 48 a9 3c e9 ec cf 3d ee 94 a9 bd 63 15 32 3e
       0.020664325 0.10152609 -0.08280359 0.17390971
000130 46 b6 75 3e 4e 60 f5 bc 82 d0 50 3e 6f 03 48 bd
       0.23995313 -0.029953148 0.2039204 -0.0488314
000140 df 90 88 3e c1 7e ce 3b 93 1b a9 3e bc ab 3f 3d
       0.26673028 0.0063017313 0.3302885 0.046794638
000150 9e 83 43 3e 5a 62 8f 3d 50 87 93 be df b9 fd 3d
       0.19093177 0.07001181 -0.28814173 0.12388968
000160 98 7b 71 3e ed f9 07 3e 7f cc b5 bd b0 82 0a 3e
       0.23582304 0.13278933 -0.08876895 0.13526416
000170 32 f9 b7 3c 60 48 82 3c 63 8e ad 3e 2c de 14 bc
       0.022457693 0.015903652 0.33897695 -0.009086173
000180 1e 11 29 bd d9 9d 23 3e 46 28 0a 3d af e4 02 bd
       -0.04127609 0.15978183 0.033729814 -0.03195637
000190 8b 31 42 be e9 4c fb bc ec 3f 7f bc da 95 c6 3d
       -0.18964212 -0.030676322 -0.015579205 0.09696551
0001a0 ea af 12 bd 1b 1c c2 3d 92 55 18 bd 8d 21 40 3e
       -0.035812296 0.09478017 -0.03719098 0.18762799
0001b0 b6 62 7f 3c dc 34 d7 bd 81 5b d1 bd 5a 23 91 be
       0.015587499 -0.10508129 -0.10222531 -0.28347284
0001c0 e3 5c 90 3d ed d4 97 3d dc c2 97 bb 0e df 1f bc
       0.07048967 0.07413659 -0.0046313833 -0.00975777
0001d0 f1 d8 5f be 6e 28 82 3d 0f 1f 8a bd 3f 53 38 3d
       -0.218601 0.063553676 -0.06744205 0.045001265
0001e0 59 5f 7a 3e e4 25 2b 3e a5 d3 2e be 4b d5 45 bc
       0.24450435 0.16713673 -0.17072923 -0.012074779
0001f0 9f a4 ae bc 88 91 25 3d d5 39 87 3c a8 5d 0e be
       -0.021318732 0.040421993 0.016507069 -0.13902915
000200 8c ba f5 3b 19 07 60 3c 7b 90 c5 3d fa 5c 1c be
       0.0074990448 0.013673567 0.09646698 -0.15269843
000210 78 83 c1 bd 25 d4 fb 3c e4 e9 38 3d de e0 c6 bc
       -0.09448904 0.030740807 0.04514493 -0.024277147
000220 14 31 57 be 77 b9 33 be da ff 28 3d 4e c7 af bd
       -0.21014816 -0.17551218 0.041259624 -0.08582936
000230 89 af b3 bd 07 fe 6c 3d 8e 45 71 bc 2a f4 21 bd
       -0.08773715 0.057859447 -0.014726056 -0.039539494
000240 96 87 1f be 67 ec 92 3d 01 2f 38 bd b8 34 95 3d
       -0.15579066 0.071739964 -0.0449667 0.07285446
000250 f2 83 48 3e 05 a4 89 bd 86 d5 df bd e5 d0 3f 3e
       0.19581583 -0.06720737 -0.10929398 0.1873203
000260 81 ec 9b 3c 34 43 68 be 9d e1 ed 3b 22 99 92 bd
       0.019033672 -0.22681886 0.007259561 -0.07158114
000270 70 c9 10 be d8 fc 18 3d a9 19 3b be 0c ed 0d 3e
       -0.14139342 0.037350506 -0.18271507 0.13859957
000280 9d cd 75 bc 7a cd c3 bd 56 34 13 be cb 78 34 be
       -0.015002635 -0.09560676 -0.14375433 -0.17624204
000290 bd 0c 97 bc e9 70 a2 bd 36 ca a3 bd b9 52 27 3d
       -0.018438691 -0.07931692 -0.07997553 0.040850375
0002a0 87 2b 82 bd 61 4b 00 3d 81 53 fb 3d 40 f7 08 be
       -0.063559584 0.031321887 0.122717865 -0.13375568
0002b0 9c a5 90 bd 6b 13 93 3d 16 08 b9 bd 30 22 66 bd
       -0.070628375 0.07181438 -0.090347454 -0.056184947
0002c0 42 e2 75 3d fc 86 76 bd 41 7e b9 3d 21 e4 62 3d
       0.06003023 -0.060187325 0.09057284 0.055393342
0002d0 be 99 19 3e 54 1f fc bc 0a 70 c8 ba aa 98 8c 3d
       0.15000054 -0.030776657 -0.0015292179 0.06865056
0002e0 12 49 03 3d f2 01 b1 3d 24 8b 89 be 85 f9 75 3e
       0.032052107 0.08642949 -0.26863968 0.24020965
0002f0 1a 28 39 bc 90 c5 aa 3a 81 59 ec 3c b5 a6 6e 3d
       -0.011301065 0.0013028849 0.028851273 0.058264453
000300 82 df 83 be 4f 08 2e be 1c 96 76 3c 11 29 60 bd
       -0.2575646 -0.16995357 0.015050437 -0.054726664
000310 c1 bd 25 3e 17 d6 97 3d d9 a9 d7 bd 93 17 98 3d
       0.16185667 0.07413881 -0.10530443 0.074263714
000320 bb a9 4c bd 62 be d7 bd 6b e4 17 bc d4 b8 08 be
       -0.049966555 -0.105343595 -0.009270768 -0.13351756
000330 43 e8 4c bd 5c e9 07 bc 2d 21 51 bc 8e e7 3a 3d
       -0.05002619 -0.008295383 -0.012764257 0.045630984
000340 90 9b 89 3d 21 45 38 bd 45 47 87 bb 53 2d 92 3d
       0.06719124 -0.0449878 -0.004128369 0.07137551
000350 8d ae e5 bd b4 65 fb 3c 68 92 df bd f4 a1 1e 3e
       -0.112149335 0.030688144 -0.10916597 0.15491468
000360 30 45 d7 3d a5 aa c9 bd fe 0b 7d 3d 34 59 77 bd
       0.10511243 -0.09847001 0.061779015 -0.060387805
000370 55 9e ce bb 16 df 25 bd a0 04 7b 3c b8 17 3e 3c
       -0.0063054957 -0.040495954 0.015320927 0.011602335
000380 fb 97 05 be 6e d8 29 bc 71 23 1e 3e 66 12 73 3d
       -0.13046257 -0.010366542 0.15443207 0.059343718
000390 f9 1d 25 bd 35 42 2f 3e ed c1 cc 3d a5 85 fa bc
       -0.040311787 0.171151 0.09997926 -0.030581305
0003a0 66 b8 01 be 72 3e 9f bc 58 62 5b 3d f0 98 10 bd
       -0.12667999 -0.019438956 0.053560585 -0.035302103
0003b0 e2 45 18 3e 0b b3 cf bb 5d c1 3f 3e 33 97 1d bd
       0.14870408 -0.0063384823 0.18726106 -0.038474273
0003c0 bd f5 60 bd 43 a3 cf bc 70 2f ff 3c b0 92 cc 3d
       -0.054921854 -0.025346404 0.03115055 0.09988916
0003d0 8c c4 b4 3e c6 ff 37 be 9b 0d 92 3d c6 7c 14 be
       0.35306203 -0.17968664 0.07131501 -0.14500722
0003e0 bf bd 36 3e 4a f1 b3 bc 29 5d 56 be c1 94 08 bd
       0.1784582 -0.021965642 -0.20933975 -0.033344988
0003f0 cb 12 ac bd 40 56 bf 3d 5b ae 16 3d 8d 44 63 bd
       -0.08402022 0.09342623 0.036787372 -0.055485297

network_body._body_endoder.seq_layers.2.bias f4 [256]
000000 e1 de c5 3b fd 8d c4 38 8a 38 37 bb 17 79 4f 3b
       0.006038532 9.372456e-05 -0.0027957284 0.0031657869
000010 5a 45 9f 3b a9 ee 17 3b e7 46 83 3b a7 52 a5 3a
       0.0048605623 0.0023183024 0.004006255 0.0012613133
000020 1b a9 f5 3b 69 38 31 3b 92 40 91 3b 9d fc 47 ba
       0.0074969656 0.002704168 0.004432746 -0.000762889
000030 6d 7a 8d bb e8 33 d1 3b aa 70 0f 3a 49 36 97 ba
       -0.004317573 0.0063843615 0.00054718053 -0.0011536564
000040 a2 68 42 ba 5f 61 e6 3b c8 0a 15 3c 7b ee 7b b9
       -0.0007416104 0.0070306505 0.009096809 -0.00024026066
000050 1f 15 79 3b 27 18 28 3b 82 d2 52 3c 15 86 31 3b
       0.0038006974 0.0025649162 0.012867572 0.0027087976
000060 1b 56 14 bb 40 17 1c 3b fb be 9e 3b 91 98 59 ba
       -0.002263433 0.002381757 0.004844544 -0.0008300627
000070 49 64 42 3b 48 a8 29 3b e8 bc 9c ba c9 69 41 3b
       0.0029661825 0.0025887657 -0.0011958154 0.0029512516
000080 92 0d b0 bb 3b 32 16 bb 56 0b a7 bb 23 8f f7 ba
       -0.0053727115 -0.0022918123 -0.005097787 -0.0018887263
000090 40 3f 8a 3b de a1 10 3b 03 01 22 3b f2 1f b1 ba
       0.004218966 0.0022069137 0.0024719841 -0.0013513549
0000a0 19 88 d4 3b ab e4 88 bb 3f 7c 96 bb 0a 6f 6e bb
       0.0064859507 -0.00417765 -0.004592448 -0.0036382102
0000b0 51 f2 9c ba a1 c6 d6 3b a2 df 86 ba 58 5d 8b 3b
       -0.0011974071 0.00655444 -0.0010290036 0.004253071
0000c0 a3 b5 05 3c 31 47 45 bb d8 73 f3 3a 60 08 7a ba
       0.008160981 -0.0030102248 0.0018573953 -0.0009537991
0000d0 34 c3 60 3b 3a c1 ce 3a ce c1 04 bb f8 27 fd 39
       0.0034296038 0.0015774139 -0.0020257118 0.000482857
0000e0 93 44 af 3b 85 36 c5 3b bb 99 c7 ba f3 c9 f9 3b
       0.005348751 0.006018462 -0.001522831 0.007622951
0000f0 77 53 17 3c db 0d 91 bb 34 4e ee 3b 4c 93 18 bc
       0.009236208 -0.0044267005 0.007272506 -0.009312462
000100 da e4 0b bb db f3 3d 3b 47 39 d9 bb 0c 7e e2 3b
       -0.0021346123 0.002898446 -0.0066291424 0.0069119986
000110 f0 56 8e ba a1 b0 b6 39 ed 88 e5 3b 84 0b d6 ba
       -0.001085965 0.00034845344 0.007004848 -0.0016330336
000120 22 ef 71 3b b0 ff 1b 3b aa 74 e5 b9 ef 94 a2 3b
       0.0036916216 0.0023803525 -0.00043765205 0.004961602
000130 86 ea 7b b9 af 19 9b 3b 7b 08 0d 3b 13 08 9f bb
       -0.00024024592 0.0047332863 0.0021519947 -0.0048532574
000140 57 85 9f 3b c0 d6 f8 3b db 2f 97 3a 49 eb 96 3b
       0.0048681903 0.0075939596 0.0011534648 0.004605685
000150 99 a9 f0 3a e9 48 20 ba 71 33 76 3b 8a 97 6e 3b
       0.0018361091 -0.000611438 0.0037567283 0.0036406242
000160 3f 08 90 3b 02 14 81 bb 11 9f 28 3b 66 a7 a4 3b
       0.0043955143 -0.0039391527 0.0025729577 0.0050248383
000170 03 e4 00 ba bb 7e 07 bb 9e 4d fe 39 27 af 12 bb
       -0.0004916789 -0.0020674902 0.00048504485 -0.002238223
000180 1a ce 4a 3b a4 70 c8 3b 09 d7 20 bb 42 3b 12 3b
       0.00309456 0.0061169434 -0.0024542233 0.0022313152
000190 ab 1c f4 3b 19 24 94 bb 92 1a e5 ba f1 26 9e ba
       0.0074497066 -0.0045209047 -0.0017479232 -0.0012066049
0001a0 b6 39 17 3b e7 f5 21 3a 96 4c e4 3a 40 41 e9 3a
       0.002307517 0.0006178305 0.0017417844 0.0017795935
0001b0 09 49 c5 bb c2 43 39 3c 34 0d 41 bb 04 72 d5 ba
       -0.0060206694 0.011307659 -0.0029457333 -0.001628459
0001c0 8b 90 83 3b 06 c8 b3 3b 77 68 fe ba 78 60 3b bb
       0.0040150336 0.005486491 -0.0019409795 -0.0028591435
0001d0 5c cb 5b 3a fd 18 3b 3a 86 33 d0 3b 38 93 f4 b9
       0.000838449 0.00071372074 0.0063537983 -0.00046648993
0001e0 29 30 a5 ba 1f ba ac 3b 20 56 da ba ac 3e 8c 3b
       -0.0012602854 0.005271211 -0.0016657747 0.004279932
0001f0 50 99 ea 3b 63 b2 f0 39 57 2e 0f bc e3 d6 46 bb
       0.0071593896 0.00045909276 -0.008739076 -0.0030340485
000200 40 c8 d6 bb 9b f9 1d 3b f5 84 4e bb 61 79 2b 3b
       -0.0065546334 0.0024105075 -0.0031512354 0.0026164877
000210 40 a9 99 3b 1c 1d 9b bb 86 a7 2f 3c ef 4f 9c 3b
       0.0046893656 -0.0047336947 0.010721093 0.004770271
000220 48 d8 4d bb 7d c2 05 3c f4 78 3d 3b 7f 72 17 bb
       -0.0031409431 0.008164045 0.0028911205 -0.0023109016
000230 be 2f 5a bb e4 5f 38 b7 74 32 07 3b 6b 54 f2 3b
       -0.0033292617 -1.0989581e-05 0.0020629438 0.0073953173
000240 c3 55 fa ba d8 2e f9 3b 65 92 da ba ab c5 86 3a
       -0.0019099045 0.007604461 -0.0016675709 0.0010282298
000250 c1 75 1b 39 51 8f 04 3c ff d2 cb 3b 1b 5d a3 3b
       0.00014825819 0.00809081 0.006220221 0.0049854643
000260 08 d0 22 3b 46 af b7 3b 85 fb 09 3b fd b3 b2 ba
       0.0024843235 0.005605611 0.0021054458 -0.0013633963
000270 6d bf 1f 3b 5a a6 90 bb d3 2f 51 3a ae 20 54 3b
       0.0024375573 -0.004414362 0.00079798436 0.0032368111
000280 71 98 dc bb 55 99 28 3c bb d6 9e 3b 8f e9 28 3b
       -0.0067320396 0.010290463 0.004847375 0.0025773977
000290 bb 1a 18 3c ca 6c 7b 3b 36 a5 b4 3a 94 88 40 b9
       0.009283717 0.0038364404 0.0013782147 -0.00018361426
0002a0 57 14 4a b8 7f 79 92 bb 84 b1 96 bb 48 00 8c b9
       -4.8179496e-05 -0.00447005 -0.004598798 -0.0002670309
0002b0 86 4b b3 3b 3d 60 cb bb 62 3a 45 b8 d0 a9 21 3b
       0.0054716496 -0.006206541 -4.7022833e-05 0.0024667867
0002c0 68 9f bd 3b 4c e9 d7 3a 45 22 85 3b fd a8 b4 39
       0.005786825 0.0016472726 0.004062923 0.00034458181
0002d0 33 55 85 ba f8 df fa bb f0 eb 7c 3a 9a c5 e4 3a
       -0.0010172486 -0.0076560937 0.00096481945 0.0017453909
0002e0 b6 8e ac 3b 53 62 21 3b 0f 54 79 bb db ce 7f 3a
       0.005266036 0.0024625256 -0.0038044488 0.0009758302
0002f0 2a a4 4c bb 59 21 c6 3b 86 81 80 bb 09 1f 3f bb
       -0.003122578 0.006046456 -0.0039216904 -0.0029162786
000300 75 c4 3a 3b b2 b2 07 3c 76 4b 4b 3a 8d 80 36 3c
       0.0028498445 0.00828235 0.000775508 0.011139047
000310 29 8a 69 ba ca f3 95 ba f8 8f a4 3a 58 c6 8a 3b
       -0.0008908832 -0.0011440453 0.0012555113 0.00423507
000320 72 55 1f 3c 6c a8 db 3a 0b 3f f1 3a a0 0d 3d 3b
       0.009724962 0.0016758568 0.0018405629 0.0028847232
000330 5d 8f 3d 3b 1f 34 7d 3b 18 54 86 39 34 55 9d 3b
       0.0028924563 0.0038635803 0.00025621126 0.004801417
000340 62 60 72 3b 2c 3b 9c 3b 53 67 48 3b 96 a7 1b 3c
       0.0036983718 0.004767796 0.0030579164 0.009500405
000350 ff 1e 48 3b 90 83 c6 3b 85 82 18 3a d6 a6 f8 3b
       0.0030536053 0.006058164 0.0005817789 0.007588248
000360 c7 0b cb 3b 95 c4 17 3b c4 dd 02 3c 0f 4e 90 bb
       0.0061964723 0.0023157944 0.007987443 -0.0044038366
000370 5d 0a c1 3a 28 c0 92 3b f0 25 98 39 94 fe 86 3b
       0.001472782 0.004478473 0.00029019965 0.0041197035
000380 74 e6 98 39 9a eb fa b9 e8 48 15 3c 0e 68 87 3b
       0.000291634 -0.00047859253 0.0091116205 0.0041322773
000390 16 ca 34 3a 9d 4c 2f bb 7f 39 0e 3c 1d 29 66 3b
       0.0006896568 -0.0026748546 0.0086807 0.003511972
0003a0 13 59 88 ba a8 12 bb 3a ab a6 cb b9 2f c6 10 bb
       -0.0010402523 0.0014272528 -0.00038843355 -0.0022090783
0003b0 58 31 65 3b 48 7d 91 3b 18 33 02 3c a2 70 6d 3b
       0.0034972038 0.0044399835 0.007946752 0.0036230464
0003c0 93 1e c2 3a 4c 25 33 3c e7 79 ee ba 4c 2e 54 bb
       0.0014810137 0.010934185 -0.0018194289 -0.0032376228
0003d0 7b 03 95 b8 69 12 69 3b dc c8 94 39 9f f7 9a 3b
       -7.105522e-05 0.0035563952 0.00028378412 0.0047292258
0003e0 f7 92 53 3b 32 de 2d 3b 92 87 b3 3a f1 28 2f bb
       0.0032283643 0.0026530144 0.0013697019 -0.0026727284
0003f0 b1 65 67 3b 3a 08 2a 3c 1f e3 21 3c ee 87 c9 3a
       0.0035308416 0.010377938 0.00988081 0.0015375593

network_body._body_endoder.seq_layers.2.weight f4 [256, 256]
000000 2c 6c bf 3d 3a 1f 91 bd 0f 55 ae bb cc 2f 89 ba
       0.09346804 -0.07086034 -0.0053201984 -0.0010466515
000010 7b 74 8d 3d b4 16 df bd 6c 77 1c 3d d1 ab 5d 3c
       0.069069825 -0.10893002 0.038199827 0.013529734
000020 e9 53 31 bd fd 45 80 bc d9 17 d0 bd 2b 5e 72 3d
       -0.043292914 -0.015658373 -0.101607986 0.059171837
000030 83 81 82 3b 96 b6 b3 bd 1e 57 b3 3d 10 a8 cf 3c
       0.003982724 -0.0877506 0.08756851 0.025348693
000040 1f e3 11 3c 38 41 e7 3d f6 ae 03 be 88 c8 2a 3d
       0.008904248 0.11291736 -0.12859711 0.041695148
000050 78 44 01 3e 8a b6 b8 bc 13 09 94 bd a3 9f a3 bd
       0.12623775 -0.022547979 -0.07228293 -0.07989433
000060 15 8c d3 bd c7 46 40 3d e3 0b 0d 3d 24 b2 5e bd
       -0.10329453 0.0469425 0.034435164 -0.054369107
000070 6c 95 44 3c bf f5 92 3d 38 e0 93 bd 41 c9 a7 bd
       0.011998516 0.071757786 -0.07220501 -0.08192683
000080 11 55 b2 bd 58 34 6a bc ae 5a 15 3d cc 9d 07 bb
       -0.087076314 -0.014294706 0.036463432 -0.002069342
000090 cb 80 47 bd 8b 00 34 bd 84 23 b6 bc e0 b2 1d 3d
       -0.04870681 -0.04394583 -0.022233732 0.038500667
0000a0 d4 27 62 b8 e1 0c d3 3d c9 50 a4 bc 0b af 50 3d
       -5.391969e-05 0.10305191 -0.020058053 0.050948184
0000b0 8b 58 be 3d 0a cd b3 bc 55 00 77 3d 7b d3 7e 3d
       0.09294232 -0.021948356 0.06030305 0.062213402
0000c0 8e 68 27 3d b7 9b c5 bd fd 6a 89 3b be 1b 8f ba
       0.040871195 -0.09648841 0.004193662 -0.0010918302
0000d0 1d a8 2b bd 26 0d ef bc 30 53 25 bd 60 dd b8 bb
       -0.041908372 -0.029181074 -0.040362537 -0.0056416243
0000e0 81 7f f5 bc c4 50 e2 bc 63 31 d6 3c ff 3e 8a 3d
       -0.029968025 -0.027626403 0.026146596 0.06750297
0000f0 6e 01 11 bd ee c1 31 bd 65 8a 53 bc 5a c8 16 3e
       -0.035401754 -0.043397836 -0.012911414 0.14724866
000100 c8 1a dc 3d 6b 90 20 3d 36 58 fe ba 24 f6 92 3d
       0.107472956 0.039200228 -0.0019404951 0.07175854
000110 6c 7e 46 3d 15 58 cc bc 4d 55 c9 bd b0 46 4c bd
       0.04846041 -0.024944345 -0.09830723 -0.0498721
000120 10 88 55 3c 01 e7 f9 3d df 10 d7 bb 62 f1 38 3d
       0.013032928 0.122022636 -0.0065632905 0.045152076
000130 ba 2e 23 3e 71 d7 55 bc d1 70 ba bc 12 1a 40 3d
       0.15935794 -0.0130518535 -0.022758873 0.046899863
000140 b0 66 10 3c 9f 15 ad bd 3c a3 2b bd f3 93 7b 3b
       0.008813545 -0.084513895 -0.04190372 0.0038387745
000150 1e 19 28 bd 1e 33 c6 bd 98 17 0e bc f6 3c 79 bd
       -0.04103958 -0.096777186 -0.008672617 -0.060849153
000160 0e 5f 6d 3b 0f fa 6a 3d a4 a2 45 3c 5d a1 b1 bd
       0.0036219987 0.05736738 0.012062702 -0.08673356
000170 d9 47 9a bd 77 18 78 bd 61 d6 99 bd a5 42 a1 3d
       -0.07533235 -0.060570206 -0.07511593 0.078740396
000180 7a 8e cc 3c 6b 8e 95 bc 6a ad c9 bc 84 db 08 3d
       0.024970282 -0.018256387 -0.024618823 0.03341247
000190 57 21 d5 bc 49 40 a1 3b 5d bd 2a bd 2d 37 70 bd
       -0.026016874 0.0049209935 -0.041684497 -0.05864637
0001a0 71 76 c9 bc 88 b1 d2 3c 43 df de 3c 1d 7d 0c 3d
       -0.02459261 0.02571942 0.027206069 0.034299005
0001b0 8f 98 b3 3d ac 0c e7 bd 8c b4 52 bd c9 ed 91 3d
       0.087693326 -0.11281714 -0.051441714 0.07125432
0001c0 c9 eb f4 3c b7 8e 26 3d 04 4f 4f 3d 51 2e 9f bd
       0.029897587 0.040663447 0.050612465 -0.07772506
0001d0 14 ca e4 bc e1 f4 a3 bb f2 f5 0c be d4 a9 c2 bd
       -0.02792839 -0.005003557 -0.13765696 -0.095050484
0001e0 ac d3 b7 3c 47 fc 95 bc 95 e9 fc bd 25 7f df 3a
       0.0224398 -0.018308772 -0.1234924 0.0017051442
0001f0 eb d8 99 bd 60 75 9d bd 01 c3 1e 3c f6 ef 96 bd
       -0.07512077 -0.07688403 0.009690047 -0.07369988
000200 48 50 f0 bb e0 b3 09 bc 6f bb c5 3b 40 0c 38 bc
       -0.007333789 -0.008404702 0.0060343067 -0.011233389
000210 00 c1 46 3d 51 5d a4 3d 65 8d 58 bd 8f f5 6b 3d
       0.048523903 0.08025611 -0.05286922 0.05760723
000220 63 c9 39 bd b6 5e 17 bd 72 55 81 bd fa 55 1f b9
       -0.045358073 -0.036955558 -0.063151255 -0.0001519545
000230 d7 0e 20 bd 4f 45 7c 3d 7a 42 dc 3c 1d 50 a0 39
       -0.039076652 0.061589535 0.026887167 0.00030577267
000240 c8 13 1c 3d d8 1c 87 bc 9f 0c 2d 3d 79 4c 51 bd
       0.038104802 -0.016493246 0.042248365 -0.05109832
000250 11 f4 28 bd 05 bd 67 3c 48 64 be bd 1f 32 d1 bd
       -0.041248385 0.014144187 -0.09296471 -0.10214638
000260 44 18 d0 3d d6 c6 63 3d 47 d3 15 3d 82 41 09 be
       0.10160878 0.055609547 0.036578443 -0.13403895
000270 de 83 fa bd 9c da 0c 3d 1e 52 9b 3d 4f 9d e5 bd
       -0.12232183 0.03438817 0.07584022 -0.11211645
000280 7d be 91 bc b4 08 d1 3c 93 95 cf 3d 1c f9 98 bc
       -0.017791027 0.025516845 0.10135951 -0.018673472
000290 25 3e 80 bd fe ce 61 bc ed bc 74 bc ce 9a a0 bd
       -0.06261853 -0.013782261 -0.014937622 -0.07842027
0002a0 78 3e 88 3c 53 b6 e6 bc 36 c1 6f 3d b1 8b 93 bd
       0.01663135 -0.02816311 0.05853387 -0.072043784
0002b0 02 c3 c3 bd 18 9a a4 bb 07 62 2b bc 1a 65 82 3d
       -0.09558679 -0.005023252 -0.010460383 0.0636694
0002c0 d0 d1 fb bc b0 73 3a bd ff 67 8e bd e6 7e 3f be
       -0.030739695 -0.045520484 -0.069534294 -0.18700752
0002d0 33 b7 b8 3d 91 73 a3 3d 5a aa 5a 3c df 44 30 bc
       0.090193175 0.07981027 0.013346279 -0.010758608
0002e0 a4 ca 79 3d 72 1e c8 bc a6 be b6 3d 0a 75 86 3d
       0.06098427 -0.02442858 0.08923082 0.06565292
0002f0 67 64 6d 3d d3 3c 2b be 33 99 ca 3c fd 9d 02 3d
       0.05795708 -0.16722421 0.024731254 0.03188895
000300 7e 23 4b 3d 5a 36 9b 3c e5 87 18 3d f9 ab 44 3d
       0.049594395 0.018946815 0.037238974 0.04801557
000310 91 91 b2 bc 36 89 80 bd ea 18 93 3c 4f dc 0b bb
       -0.021797927 -0.06276171 0.017956216 -0.002134103
000320 ec 44 b8 bc ec ff 9a 3c 56 6b fa bd 1b 8c 1b bd
       -0.022493802 0.018920861 -0.12227504 -0.03797541
000330 43 9c c0 3d b1 df 76 3d a8 c6 01 be da 4d c0 3d
       0.094048046 0.060271922 -0.12673438 0.09389849
000340 1e a0 35 3e ca 18 8b 3d 0c 51 72 3c c8 fb ef bd
       0.17736861 0.067918375 0.014789831 -0.11717945
000350 d6 41 ad bd a6 56 c1 3d b9 4e 86 bd 18 31 d8 3b
       -0.08459823 0.09440355 -0.06557984 0.0065976493
000360 e8 57 ff 3d c9 2e 7a 3d 0d 82 9d 3d 4b 69 5e 3c
       0.12467939 0.061079774 0.07690821 0.0135749085
000370 d9 b6 00 be aa 4c 66 bd fe 0e 6f bc e7 6f 36 bd
       -0.12569751 -0.056225456 -0.014590977 -0.044540312
000380 4b 4e 25 bd 46 2f 6d bd 3b 5c 47 3d 9f 0f 4b bd
       -0.04035787 -0.05790641 0.048671942 -0.049575444
000390 36 eb 56 bd 72 64 12 3e 1b 47 13 be b6 41 c3 3d
       -0.05247041 0.1429613 -0.14382593 0.09534018
0003a0 44 bb 67 3c 12 5f 33 3d 92 7c 09 be e2 40 16 bb
       0.014143769 0.043791838 -0.13426426 -0.0022926857
0003b0 1e ad 40 bd 18 ee 91 bc a4 44 01 bd 5d 3a 04 3e
       -0.047040097 -0.017813727 -0.0315596 0.12912889
0003c0 3f 53 1e bd 78 e0 0c be 70 13 40 bd 2a 38 c3 bc
       -0.03865361 -0.13757503 -0.046893537 -0.023830492
0003d0 19 35 9f bd ea b7 3b 3d eb 1b b2 3d 9b 79 d5 bd
       -0.077737994 0.04582969 0.08696731 -0.10423585
0003e0 07 c4 09 bd 40 0c c3 bd c8 b9 9a 3d 57 5e 5f bd
       -0.033634212 -0.09523821 0.07554966 -0.05453333
0003f0 e8 25 9a bc 88 ad 16 3b af a8 cb bd e1 90 e1 3d
       -0.018816903 0.0022991616 -0.09944283 0.110139616

network_body._body_endoder.seq_layers.4.bias f4 [256]
000000 06 b2 36 3a 2a 31 96 39 4a 4c 55 3b c9 94 33 3b
       0.00069692766 0.0002864686 0.0032546693 0.0027401915
000010 7f f8 27 3b 93 b7 99 b9 03 a5 c1 3a 51 91 23 ba
       0.0025630293 -0.00029319208 0.0014773909 -0.00062396104
000020 ed 09 1b 3b 4e 74 03 3b a1 af 31 3b 0d cc e5 ba
       0.002365704 0.0020058337 0.002711274 -0.0017532125
000030 33 5f 18 bb 91 53 88 3b 67 c7 1c 3b fc c4 c7 3a
       -0.0023250103 0.0041603525 0.0023922564 0.0015241201
000040 d6 eb 9d 3b ee 48 cf ba 95 31 85 bb f0 d5 0c 3c
       0.0048193736 -0.0015814581 -0.0040647485 0.008595929
000050 fa d6 35 3b 9b 71 3e 3b bb 16 a3 3a c0 39 67 ba
       0.0027746544 0.0029059413 0.0012442687 -0.0008820556
000060 c2 35 34 ba 1f e3 d4 3b 3a a2 28 bb ff 20 c9 38
       -0.00068744656 0.0064968015 -0.002573146 9.590573e-05
000070 65 24 bb 3b e7 66 34 3b 92 c6 dd ba 2f d8 dd 3b
       0.0057111257 0.0027527155 -0.001692014 0.006770156
000080 e2 1b 4c 3b 64 ec 35 36 c3 e0 45 bb 0f 7a 53 3a
       0.003114455 2.71087e-06 -0.0030193783 0.00080671994
000090 fd a1 d5 3a d2 4f 46 3b 69 81 ae 3a e9 aa 6d b8
       0.0016298887 0.003025998 0.0013313714 -5.6664376e-05
0000a0 1a a6 24 3b 3a 5b 84 b9 75 0a af b8 a7 11 59 bb
       0.0025123418 -0.0002524497 -8.346598e-05 -0.0033122094
0000b0 4a db 64 3a 4b 00 04 bb 45 bd 1b ba 9d 27 8e 3b
       0.00087301864 -0.0020141776 -0.0005940984 0.0043382184
0000c0 49 a5 bf 3b 35 dc d1 3a df 4d 1c ba fd 20 6c bb
       0.005848561 0.0016011061 -0.00059625314 -0.0036030405
0000d0 3c a4 9a 3a 54 8b 5f bb 0c d8 bb ba 37 03 fa ba
       0.0011798213 -0.0034110146 -0.0014331355 -0.0019074444
0000e0 5c ed b7 ba 34 f8 8f ba 1d 17 82 3b 95 76 5d bb
       -0.0014032531 -0.0010984004 0.0039700405 -0.0033792604
0000f0 e7 66 30 3b 09 a5 93 ba ac 44 11 bb 18 48 85 38
       0.0026916803 -0.0011264394 -0.0022166176 6.355363e-05
000100 7e 09 da b9 9c 2e a4 ba a8 97 09 3a fb e5 c8 39
       -0.00041587272 -0.0012526098 0.0005248734 0.00038318321
000110 94 b3 23 3a 85 7a b6 ba ec 90 31 3b 7f 5d 90 3b
       0.0006244716 -0.0013922012 0.0027094437 0.004405677
000120 e7 5a 98 3a a5 59 61 b9 73 f2 9e 3b c8 c1 10 3b
       0.0011623771 -0.00021491067 0.0048506795 0.002208816
000130 38 c8 9c 3a 1a 7d c1 3a 0b f6 a0 3a af 5c 1e 3b
       0.0011961525 0.0014762015 0.0012280358 0.002416413
000140 aa f3 b0 39 97 16 7b 3b 1b 9e 62 3b 0f ed d4 ba
       0.0003375088 0.0038313025 0.0034579101 -0.0016244965
000150 b9 92 33 bb 10 ff 77 39 f2 0d 79 b9 9f 04 6b 3b
       -0.0027400686 0.00023650774 -0.00023751686 0.0035860909
000160 ac c2 3d bb c1 45 1b 3a c8 50 7d 3b 9b 39 a2 3b
       -0.0028955145 0.0005923175 0.0038652886 0.0049507148
000170 57 f6 84 38 34 40 a2 3b 9d 4e 6d 3a e7 b2 96 b9
       6.340135e-05 0.0049515013 0.0009052547 -0.00028743522
000180 c2 41 75 bb 4e 65 8d 3b d8 45 31 3b 14 9e 4f 3b
       -0.0037423228 0.004315055 0.0027049687 0.0031679915
000190 58 d5 00 b8 3c 19 60 ba 06 35 a1 3b 7d f3 1e 3b
       -3.071627e-05 -0.0008548682 0.004919651 0.0024254017
0001a0 1d 5f 95 3a b0 d9 1a 3b 45 14 c0 ba 1a 6d 74 3a
       0.0011396144 0.0023628287 -0.0014654478 0.0009324119
0001b0 67 d7 f7 3a 72 53 6b 3b e8 47 90 ba 73 06 83 3b
       0.0018908799 0.0035907892 -0.0011007758 0.0039985715
0001c0 b8 73 e0 3a fa 99 cb 3b 59 33 db 3b ea a3 fb ba
       0.0017124331 0.006213424 0.0066894707 -0.001919863
0001d0 cc b3 b6 3b 07 54 05 bb 97 3b f0 ba 02 5d 79 3a
       0.0055756327 -0.0020344274 -0.0018328306 0.00095124554
0001e0 89 ab d5 3b 96 45 81 3a 6a dd ce 3a c4 f7 68 3b
       0.0065206927 0.0009862657 0.0015782539 0.003554807
0001f0 f0 3a ec 3a 20 04 e0 3b 24 51 83 3b 1c 1e 27 3b
       0.0018022936 0.0068364292 0.0040074755 0.0025500124
000200 b3 ce 0e 3b 9f 75 a0 3b d2 24 c0 3a 44 6a 67 3b
       0.0021790683 0.004896834 0.0014659411 0.0035311142
000210 1e 82 ba 3a 1b a2 93 ba 53 36 aa 3a eb ec 02 3b
       0.0014229452 -0.0011263521 0.001298616 0.001997764
000220 92 4f fb b9 b5 78 49 b9 2d 9c 53 3a 52 7c 8a 3b
       -0.00047933735 -0.0001921382 0.0008072283 0.004226246
000230 44 55 55 3b ab ea 2d 3b 51 d3 92 ba 2e bc 08 3a
       0.0032552043 0.0026537578 -0.0011201893 0.0005216029
000240 62 4e a4 3b 33 51 51 3b 96 43 2b b9 4f e1 40 3b
       0.005014227 0.0031939268 -0.00016333009 0.002943117
000250 f9 d4 aa 3a 77 a0 bf 3a 30 68 95 ba 5d cf 08 3b
       0.0013033442 0.0014619966 -0.0011398848 0.0020875551
000260 92 4f d5 39 f2 2f 1a bb ce e0 f4 ba 87 35 ee 3a
       0.0004068581 -0.0023527113 -0.001868272 0.0018173911
000270 c8 d9 a8 3b 45 fe 54 3a 71 b6 89 3b 9e 04 72 3b
       0.0051529147 0.00081250473 0.004202657 0.0036929022
000280 62 30 83 39 55 f2 e8 ba 7b 20 a7 3b 5e f5 b0 3b
       0.00025022315 -0.0017772416 0.0051003075 0.005400344
000290 da 72 b9 3b d3 55 d0 3a 7b fc bf b8 fa 98 40 3a
       0.0056594433 0.0015894718 -9.154618e-05 0.0007347014
0002a0 8a 22 fd ba d1 7e ed 3b 11 e8 14 3b 8c 44 9d 3a
       -0.0019312662 0.0072477837 0.002272133 0.0011998578
0002b0 f5 c7 8f 3a c2 f8 e7 b9 39 7f d0 b9 38 42 40 bb
       0.0010969626 -0.00044245092 -0.0003976764 -0.0029336344
0002c0 43 09 0c 3b 10 8b 42 39 bb aa e0 3b be a7 e3 3a
       0.0021367825 0.00018553087 0.00685629 0.0017368717
0002d0 66 52 0a ba 44 b3 ea 39 9f ac 9e b9 b2 8f e0 3a
       -0.00052765606 0.0004476552 -0.0003026472 0.0017132668
0002e0 29 8f 05 3b 5b 11 30 bb 5c 96 7c 3b e8 91 08 bb
       0.002037952 -0.0026865813 0.003854177 -0.002083892
0002f0 d5 12 32 3a b7 d7 5b 3a ee 62 fd ba b3 23 eb b8
       0.00067929673 0.0008386331 -0.0019331852 -0.00011212323
000300 12 c9 34 3a f3 a4 51 3b 9d 05 81 ba d0 37 37 b8
       0.0006896417 0.0031989187 -0.0009843592 -4.368258e-05
000310 a0 49 8b 3b 49 87 0b bb 01 6f a6 3b c2 03 25 3a
       0.00425072 -0.0021290353 0.0050791507 0.00062948104
000320 fe 77 dc 3a 9f 18 35 bb de a1 26 3b d8 e2 bc 3b
       0.0016820428 -0.0027633084 0.002542607 0.0057643466
000330 dc ba 8b 3b 96 6e d3 ba f1 2d bc 3a 06 39 0b 3c
       0.0042642187 -0.001613098 0.0014356953 0.008497482
000340 21 17 ab 3a e2 fd d4 3a 22 73 06 bb 96 27 b3 3b
       0.0013053158 0.0016249979 -0.0020515402 0.0054673655
000350 e9 6d ac 3b cc 8b 4d 3b 16 ea 73 3b 4a 8c 00 3b
       0.0052621257 0.0031363843 0.0037218384 0.0019614869
000360 06 89 1b 38 37 0d 3a 3b d5 6b b2 3a 17 1a 01 bb
       3.7082493e-05 0.0028389224 0.0013612459 -0.0019699389
000370 0d 03 8b ba da e4 a2 3b 68 5b 96 39 7f d1 62 3b
       -0.0010605768 0.004971129 0.00028678332 0.0034609733
000380 ae 63 58 3b a8 e3 f9 39 af 6e 9d 3b f3 69 c0 b9
       0.0033018398 0.00047662598 0.0048044543 -0.00036700032
000390 ed 5b 2a bb 14 80 5a 3b a4 b2 18 3b a3 5c ec ba
       -0.0025994733 0.00333405 0.0023299837 -0.0018032979
0003a0 c2 a9 0c 3b d1 6c 82 3b 3a cd 91 3a 3e df 94 3b
       0.0021463488 0.003980257 0.0011123784 0.004543214
0003b0 6e 8f a8 ba 4f 27 05 3b 7c 90 97 3b de a6 a6 ba
       -0.0012860128 0.002031762 0.004625378 -0.0012714525
0003c0 39 cc d9 ba 32 62 60 3b 42 dc 0a 3b 78 3d 0a 3b
       -0.0016616649 0.0034238216 0.0021188413 0.0021093767
0003d0 41 00 43 3b fd 8d 56 ba 67 e7 48 3b 9e b1 01 ba
       0.002975479 -0.000818461 0.0030655505 -0.00049474265
0003e0 80 89 97 3a 72 60 8c 3b 7b 7c 05 3b 07 dd 27 b9
       0.0011561364 0.004283958 0.0020368386 -0.000160087
0003f0 7c a7 94 3b ce a4 c9 3b 4d 3a 2d 3b 87 b9 0e 3c
       0.0045365673 0.0061536795 0.0026432455 0.008711225
