Assets/Training/results/b_treasure_test80_Th64_Lr1e-4Bs4096Bs65536_EndDistanceReward_0.2deltaXZ_10deltaY_TP0.001/TreasureSearch/TreasureSearch-499965.onnx (onnx, 608683 bytes, 13 tensors)

65 f4 [68]
000000 95 86 e8 3e f2 d9 ff 3e 58 ab c9 3e 6f b4 94 3e
       0.45415178 0.49970967 0.39388537 0.2904391
000010 26 66 ec 3e 2b ca ff 3e 93 03 c1 3e 77 b1 91 3e
       0.46171683 0.4995893 0.3769804 0.28455707
000020 5f b7 fa 3e ba 55 f9 3e 82 1e d2 3e 0e 72 a4 3e
       0.48968026 0.48698217 0.410389 0.32118267
000030 f5 6e f5 3e c8 3b ff 3e ea e8 9b 3e 54 03 98 3e
       0.47936216 0.49850297 0.30451137 0.2969004
000040 6f 6c fc 3e 98 ff f5 3e a4 a8 d4 3e c5 3c a4 3e
       0.49301478 0.48046565 0.41534913 0.32077613
000050 94 d6 f2 3e 01 42 fb 3e c8 18 77 3e 7c 5a 9d 3e
       0.47429335 0.49073794 0.24130547 0.30733097
000060 c9 bf e5 3e 6f bb ff 3e 3f af cb 3e 0d dd 92 3e
       0.44872883 0.49947688 0.3978214 0.28684273
000070 c0 bf f5 3e 9e 43 fd 3e ea 5c 7d 3e d2 29 a1 3e
       0.47997856 0.4946565 0.24742475 0.3147722
000080 ee 29 da 3e 8a 08 fb 3e f6 e4 bc 3e 85 98 8e 3e
       0.42610115 0.49029952 0.36893433 0.27850738
000090 9f 2a eb 3e 12 dc fa 3e 36 a7 94 3e 2f 14 98 3e
       0.45930955 0.48996025 0.29033822 0.297029
0000a0 f1 e2 e2 3e 9b 02 fd 3e 52 c8 b7 3e fa ef 96 3e
       0.44313768 0.4941605 0.3589502 0.29479963
0000b0 c8 ad c9 3e da b1 ee 3e 8f 27 3f 3e c1 4a 84 3e
       0.39390397 0.46620065 0.18667434 0.25838283
0000c0 fa 9b e6 3e 0f 0c ff 3e 10 9c 71 3e 08 0d 99 3e
       0.45040876 0.49813887 0.2359469 0.29892755
0000d0 af fa c5 3e c9 f9 fd 3e 53 c7 07 3d 8a 60 51 3e
       0.3866782 0.49604633 0.033149075 0.20446983
0000e0 9c 7c f1 3e ea 1d e3 3e 35 c0 26 3d f9 ed 74 3e
       0.47165382 0.4435876 0.040710647 0.23918904
0000f0 86 db e7 3e 0a 8b ec 3e 0a 28 19 3d 25 b1 4f 3e
       0.4528467 0.46199828 0.0373917 0.20282419
000100 86 db e7 3e 2d 8b ec 3e 0b 28 19 3d 19 b1 4f 3e
       0.4528467 0.46199933 0.037391704 0.20282401

68 f4 [6]
000000 d0 97 fb 3f 72 53 94 40 17 fd 7f 3c b2 d7 23 3c
       1.9655704 4.635186 0.015624306 0.010000156
000010 d9 81 80 40 14 e3 05 43
       4.0158505 133.88702

action_model._continuous_distribution.log_sigma f4 [1, 2]
000000 16 f8 c1 39 16 ed 23 bc
       0.00036996667 -0.010005256

action_model._continuous_distribution.mu.bias f4 [2]
000000 79 fd 89 ba 0d 63 dd 3b
       -0.0010527811 0.0067561925

action_model._continuous_distribution.mu.weight f4 [2, 256]
000000 24 b8 ea b9 52 35 d1 3c 14 a3 8e 3c 30 84 7f 3c
       -0.00044769153 0.02553812 0.017411746 0.015595481
000010 d2 5c fa ba 48 62 32 bc 9f 5c e3 3c 88 d9 11 bc
       -0.0019101149 -0.01088769 0.027754126 -0.008901961
000020 0e 65 45 bb 63 1e 9d bc 0d de 96 bc a6 5c 47 bc
       -0.0030120048 -0.019179529 -0.018416429 -0.012168085
000030 f9 12 a7 bc 24 a6 97 bc f3 c4 8d 3c b4 3b 63 3a
       -0.020394789 -0.01851184 0.017305827 0.0008668259
000040 c4 c7 98 bc 39 15 f2 bc 92 a1 b1 bb 12 e8 0b 3c
       -0.018649943 -0.029551135 -0.005420872 0.008539217
000050 83 b0 3e bb ca 04 52 3b e2 9e 98 bc e5 22 b0 bc
       -0.0029096908 0.0032046312 -0.018630449 -0.021501014
000060 8e 4e a0 bb 75 63 d0 ba 4f 0d 35 bc e6 10 65 3a
       -0.004892177 -0.0015898781 -0.011050536 0.0008738175
000070 a2 2c 59 bc d4 c0 57 3c e3 35 d2 bc d8 fa c2 3b
       -0.01325527 0.013168532 -0.02566046 0.005950313
000080 9d 73 80 bc 74 7e 98 bc 58 31 5d bc 40 53 e1 b8
       -0.015680129 -0.018614985 -0.013500534 -0.000107443426
000090 c6 db 7d 3b ec f4 95 bb c6 a3 06 3d 20 b0 17 bb
       0.0038735732 -0.004576316 0.03287103 -0.002314575
0000a0 40 5b 91 bb 65 12 9e bb 41 0c 4a bc 43 89 e3 3c
       -0.0044359267 -0.00482397 -0.012332023 0.027775412
0000b0 a6 bd f6 3c b0 fd f4 ba d4 98 23 3c b5 81 2d 3b
       0.030119728 -0.0018691327 0.0099851675 0.0026475016
0000c0 1a cd 9e 3c f7 6b 26 3b 3c be 03 3c 32 2a 3e bc
       0.01938491 0.0025393942 0.008040961 -0.01160674
0000d0 46 a1 34 3b 26 d8 04 bc 18 8c 42 bb b0 19 0a 3c
       0.0027561947 -0.008108174 -0.0029685553 0.008428976
0000e0 81 2e cf 3c 88 e0 bd 3c bc da 51 3b 3d 7f 35 3c
       0.02529073 0.023178354 0.0032021245 0.011077699
0000f0 9a 8f 9a 3c 5a f7 98 ba f8 06 91 ba 2b 01 0c bc
       0.018867303 -0.0011670396 -0.0011064699 -0.0085452
000100 68 6a 6f 3b 7d da 60 bb ca 22 b9 3c d8 10 d5 3b
       0.003653193 -0.0034309917 0.022599597 0.006502252
000110 b9 01 b7 3c b3 3e 19 bc 20 08 1e 3c 60 91 b1 bc
       0.022339689 -0.009353328 0.009645492 -0.021675766
000120 08 4f 14 bc f7 81 62 3c 19 e3 75 3c da c1 35 3c
       -0.009052046 0.013824931 0.015007758 0.011093581
000130 51 0f 08 bc 5c d9 8a ba 47 9c 54 3b 28 24 3a bc
       -0.008304433 -0.0010593343 0.0032441781 -0.011361159
000140 18 8b a5 bc c3 de bb bc 25 75 e7 3b 06 80 0f 3c
       -0.020207927 -0.02293337 0.0070635253 0.0087585505
000150 bf d8 5a bb 3b 87 78 3c 40 e2 d6 3c 44 bf c6 b9
       -0.003339335 0.01516896 0.026230931 -0.00037908007
000160 e3 17 b4 bc 55 3d c4 bc 07 4a 82 3c 42 ed 86 3c
       -0.021984046 -0.023955027 0.01590444 0.016470555
000170 34 f2 50 bb 5c d5 7c 3c 02 1e c3 bc 41 30 8b 3c
       -0.0031882646 0.015431728 -0.02381802 0.016990783
000180 c2 55 f2 3c 9b f5 82 3c 96 cc 01 bc 39 b9 9a 38
       0.029581908 0.015986254 -0.007922312 7.377793e-05
000190 5c 08 72 bc 1a 2b 93 bc 72 e5 30 39 49 0a 1d bc
       -0.014772501 -0.017964888 0.00016870143 -0.009584972
0001a0 9e 7c a0 bc ef d0 0d bc 94 46 72 bc ad a0 2c 3c
       -0.019590672 -0.008655771 -0.014787335 0.010536355
0001b0 d2 ec 5e bb 5a 65 a9 3c d9 92 19 3b fe a6 cc ba
       -0.0034015668 0.020678211 0.0023433475 -0.0015613732
0001c0 d1 a9 b7 ba 5e bb 50 bc 5c fd 59 bc 59 98 ba 3a
       -0.0014012401 -0.012739984 -0.0133050345 0.0014236077
0001d0 d7 30 35 bb 84 54 1c bc 62 75 3c 3c a4 04 fb 3b
       -0.002764752 -0.0095416345 0.011502596 0.0076604653
0001e0 03 07 c0 3c f0 18 e4 3b bf 0e bf bb 49 72 af bb
       0.023440843 0.0069609806 -0.0058306153 -0.0053542
0001f0 44 0b 95 3c 9c 41 da bb 56 43 1c 3c fb d8 09 3b
       0.018193848 -0.0066606533 0.0095375385 0.0021033871
000200 d9 72 69 3b f8 ee 82 3c e0 7a 8b 3c d6 3f 99 bc
       0.0035621433 0.01598309 0.017026365 -0.018707197
000210 d6 e4 90 3c b7 cc ab bc b9 97 7b bc 65 72 5a bb
       0.017687242 -0.02097164 -0.015355998 -0.0033332345
000220 41 de ce 3b 0f 9f ac 3c b5 15 da 3b 03 99 38 3b
       0.006313116 0.021071939 0.0066554197 0.0028167374
000230 f2 f4 93 3c ce f9 03 bc a3 15 d1 3b 99 c2 43 bc
       0.018061135 -0.008055164 0.006380753 -0.011948251
000240 28 55 b8 3b 98 63 17 3b 91 46 84 3c 3e 0d a1 bb
       0.005625386 0.0023100134 0.01614693 -0.0049149087
000250 83 ef 05 3b c1 08 3c 3c ce 04 3e bc 87 ff 71 bb
       0.002043695 0.0114766965 -0.011597825 -0.0036925988
000260 43 ba 9c bc a6 37 55 3c c1 df 03 bc 31 33 d1 ba
       -0.019131785 0.013013756 -0.008048953 -0.0015960691
000270 11 71 f7 3c 4b 4c 09 bd aa 96 7a bb c4 61 56 3c
       0.030205281 -0.033520024 -0.0038236775 0.013084833
000280 c4 30 86 bb e9 52 b2 3c 71 cf e9 bb 54 13 29 bc
       -0.004095169 0.02176805 -0.0071353246 -0.01031955
000290 41 76 24 3c 61 6b 1f 3b 48 4f db 3c 3e 09 a9 bc
       0.01003796 0.0024325477 0.026771203 -0.02063429
0002a0 52 0f a3 bc 5c 9a 9c bc 80 33 00 3c 32 07 b1 bc
       -0.019904766 -0.019116573 0.007824779 -0.021609876
0002b0 8e 3e 57 3b a0 6f 67 bb 7b 63 e2 bc 77 a7 c6 bc
       0.0032843682 -0.0035314336 -0.027635327 -0.024249775
0002c0 10 58 2b bc 4d 06 f9 ba 2d 66 01 bb a0 9f 80 3c
       -0.010458007 -0.001899907 -0.001974474 0.015701115
0002d0 ee a2 07 bc 11 1e 5b bc 00 dc b1 bb 2d 2c f6 39
       -0.008278592 -0.013373868 -0.0054278374 0.0004695369
0002e0 e4 a6 5e bc 46 f1 33 3b 88 c9 9f 3c 93 f7 6f bb
       -0.0135895945 0.0027457043 0.019505277 -0.0036616072
0002f0 ba 89 73 bb 61 d1 89 bc 84 a9 af bb f7 a6 53 bc
       -0.003716095 -0.016823472 -0.005360784 -0.0129182255
000300 9e 5a 96 3c a2 28 03 bc ab 7f b7 bc fc d6 f9 ba
       0.018353757 -0.008005293 -0.022399744 -0.0019061263
000310 6a be c6 bc 68 01 cc 3c 0b 45 53 3b 3f a1 f8 3b
       -0.024260718 0.024903014 0.0032237198 0.0075875814
000320 20 a0 eb bb 01 64 20 bc 71 23 3e 3c 22 ec 8e 3c
       -0.0071907192 -0.009789468 0.01160513 0.017446581
000330 fb 82 97 bc 00 72 cc bc 4d 6d a9 3c 07 2d 41 3c
       -0.018495074 -0.024956703 0.020682001 0.0117905205
000340 77 95 5a 3c 53 bf ac 3c 06 01 81 3c ec f1 e1 3a
       0.013341299 0.021087324 0.015747558 0.0017238236
000350 b4 8c 2c bb 8e f0 53 bc 56 7a 5d bc a1 20 82 bc
       -0.0026328983 -0.012935771 -0.013517937 -0.0158847
000360 64 6f 7d bc 18 0b 01 bc 80 be 2a 3c 56 31 5d 3b
       -0.015468452 -0.00787618 0.010421395 0.003375133
000370 32 fe f2 3c b7 86 cf bb fb 5d 69 bc 55 e0 51 bc
       0.029662225 -0.006333198 -0.014243598 -0.012809833
000380 95 c6 bb bc 40 9f 2b bb 06 22 6d bb 82 b8 71 ba
       -0.02292184 -0.002618745 -0.003618361 -0.0009220914
000390 f3 43 e8 3a 6e 54 b6 ba 7c d4 07 bc fe d7 97 3c
       0.0017720446 -0.001391066 -0.008290406 0.01853561
0003a0 cb 80 87 bc 00 8e 4f 38 58 5e d4 3b 68 15 ad 39
       -0.016540905 4.9484894e-05 0.006480973 0.0003301308
0003b0 75 68 6d 3c 2d 51 16 3c da d6 82 bb fa 5f 92 bc
       0.0144902365 0.009174627 -0.0039928975 -0.01786803
0003c0 e3 d9 2b 39 6d 0e 3d 3b 03 c4 2f bc e8 55 c7 bc
       0.00016389 0.002884771 -0.010727885 -0.024332955
0003d0 6b 13 09 bc 7f b8 47 3c df 9c 82 bb 1a 60 37 bc
       -0.008366446 0.012189983 -0.0039859856 -0.011192346
0003e0 2b 00 d9 b9 d2 23 95 bb 99 9a 8b bb e9 44 b9 bc
       -0.0004138959 -0.0045513893 -0.004260373 -0.022615867
0003f0 ec db 32 3c 13 70 4a 3c d9 70 05 bb f7 0d 3b bc
       0.010916691 0.012355822 -0.0020361452 -0.011416904

network_body._body_endoder.seq_layers.0.bias f4 [256]
000000 1f 27 d5 bb 52 81 16 3b 13 fc 9a ba ac 60 ef 3b
       -0.0065049077 0.0022965265 -0.0011824392 0.0073052254
000010 55 ca aa 3b 39 e2 4e 3c 6e 58 db ba 21 b3 e5 3a
       0.005212108 0.012627178 -0.0016734728 0.0017524698
000020 56 8c b0 bb fb 35 1b bb 29 cc a0 ba dc 2e 51 bb
       -0.005387823 -0.0023683298 -0.0012267876 -0.00319188
000030 7e 93 8c 3a 69 3a 97 bb 44 e2 35 3c 03 05 0a 3c
       0.0010725108 -0.0046151173 0.011101309 0.008424046
000040 c9 f2 7a 3b 06 56 0c 3c 9e 81 dc ba f0 af 4a 3b
       0.0038291684 0.008565431 -0.0016823297 0.003092762
000050 e0 22 02 bc 22 ec 61 3b 93 61 b8 3a d2 be 8f 3a
       -0.007942885 0.0034473022 0.0014067165 0.0010966903
000060 41 86 51 3c c4 0a a9 ba f8 4e 61 3b c0 33 0e 3a
       0.012788356 -0.0012896885 0.0034379344 0.00054245815
000070 66 e2 6d 3b d5 0f 0d 3c 0f e7 28 3c 9f ab 86 bb
       0.0036298274 0.008609732 0.010308995 -0.0041098143
000080 d6 ea 6d 3b b9 2a 6e 3b 5a 20 29 3c 7b 7d 40 3c
       0.0036303303 0.0036341383 0.010322655 0.011748667
000090 d7 19 4a bc db 28 2e 3c 89 c2 d5 3a 73 dc bb 3b
       -0.012335262 0.010629858 0.0016308586 0.0057330667
0000a0 a8 62 b5 3b 4a ce 17 3c ca 7d 89 3b 4d ab ac ba
       0.0055354424 0.009265492 0.0041959034 -0.001317361
0000b0 fd 33 9f 3b 65 4b 5d ba 05 03 ad bb f3 2e 38 3c
       0.0048584924 -0.00084417156 -0.005279901 0.011241662
0000c0 40 97 40 3c aa 2f 08 bb 71 86 24 3b e5 0d 4d bc
       0.011754811 -0.0020780363 0.0025104547 -0.01251552
0000d0 87 9a ce ba a7 f6 3a 3b a0 2d 2a 3c 58 45 67 3c
       -0.0015762605 0.0028528364 0.010386854 0.014115654
0000e0 89 14 43 3c 74 44 97 3b 77 5a 32 3c 4a dc 52 bb
       0.011906751 0.0046163145 0.010885826 -0.003217476
0000f0 77 92 14 3c 4b 19 33 bb f4 f9 d4 ba b2 ae 9c b9
       0.009068123 -0.0027328308 -0.0016248808 -0.00029884797
000100 89 e5 05 ba a1 c9 20 3c 56 ef 23 3c 35 d5 28 3c
       -0.0005107751 0.009813697 0.010005793 0.010304739
000110 b4 fd 80 3b 90 ce 94 bb 72 51 1c 3c f8 97 a8 3b
       0.003936494 -0.0045412257 0.009540902 0.005145069
000120 92 5a 2e 3b 73 fc 89 3b 83 4e 5f 3a 10 cc 54 bb
       0.0026604277 0.0042110025 0.0008518474 -0.0032470264
000130 d6 77 53 bb b4 d1 45 3c df 5a 5b 3c d7 d9 f9 3b
       -0.0032267473 0.012073923 0.013388365 0.0076248455
000140 b9 66 03 3b 0e 3d a5 ba 8c 5e 0c 3c 66 d4 5e 3b
       0.002005024 -0.0012606697 0.008567464 0.003400111
000150 5e f0 82 3a d4 5e d7 3b 5a 1e 35 3c d1 d1 db 3b
       0.0009989848 0.0065725837 0.0110546 0.0067083617
000160 c7 f8 35 3b 2d 86 f8 bb 92 70 b5 bb a5 f7 7d bb
       0.002776669 -0.0075843544 -0.005537101 -0.0038752344
000170 ea 8b d0 3b 05 c3 2e 3c bc 01 d3 3b ca 9f a3 3b
       0.0063643353 0.0106666135 0.0064394157 0.0049934136
000180 98 bc 11 3c db ef 8a bb e0 2e cf bb 62 5f 0a bc
       0.008895062 -0.004240019 -0.0063227266 -0.008445593
000190 48 49 98 3b c3 38 ba bb b0 2e cd 3b 6d 92 a8 3b
       0.0046474077 -0.005683036 0.006261669 0.0051444084
0001a0 1a 1e f4 3a bf a1 71 3c 97 4d 88 bb 60 5b 60 3b
       0.0018624694 0.014748036 -0.00415964 0.0034234151
0001b0 d0 cd c8 bb 0c 9c 21 ba e4 7d 2f 3c ed a7 10 3c
       -0.0061280504 -0.00061649154 0.010711167 0.008829099
0001c0 18 f0 8d ba c7 4f 40 3b 64 37 32 3c a2 44 95 3b
       -0.0010829 0.0029344426 0.010877464 0.004555301
0001d0 b3 0b fb 3b 24 7f ea bb fe 56 34 3b f1 b5 b7 3b
       0.0076613068 -0.0071562696 0.0027517672 0.005606406
0001e0 03 ed 52 bc 8f 4d 2c 3c e0 0f 77 3c 17 22 fc 3b
       -0.012873891 0.010516538 0.0150794685 0.0076944935
0001f0 65 95 86 3a aa 13 a9 3b fc d0 fe 3b cf 73 42 bc
       0.0010267912 0.005159815 0.0077763777 -0.011868431
000200 d6 3b 6f 3b 89 9a a7 3a bf 50 6e 3a 3f 75 1c 3c
       0.003650417 0.0012787144 0.00090910116 0.009549438
000210 24 c9 95 3b 7a e9 dd 3b 1a 86 aa 3b 4a 6a 56 3c
       0.004571097 0.0067722173 0.0052039744 0.013086865
000220 ae ad eb 3b c4 ff 51 bb 80 ce 00 3c 72 98 a1 bb
       0.007192335 -0.0032043317 0.007861733 -0.004931503
000230 3f 9b 35 3c ca 5a fb 3b e6 30 1e 3b 2c 18 b2 3a
       0.011084377 0.007670735 0.0024138032 0.0013587526
000240 77 46 ee 3b 61 35 07 3c 24 cf 3d bc 80 6e a0 b7
       0.0072715837 0.008252473 -0.011585031 -1.9124942e-05
000250 30 c4 40 bb 5c ed 1e 3c 42 06 25 3c 92 76 64 3c
       -0.0029413812 0.009700146 0.010072293 0.013944285
000260 24 0d 00 3c 52 15 2f 3a 09 68 93 3b bc f4 fe 3b
       0.007815633 0.0006678897 0.004498486 0.0077806395
000270 c0 75 ea 3b 5a d8 b4 bb 02 82 43 3c 2a 3b 5c bb
       0.00715515 -0.005518955 0.011932852 -0.00336046
000280 46 b4 0b bc bf 82 66 3b 60 59 e8 3b 2c 5e 4a 3c
       -0.008526867 0.0035173146 0.0070907325 0.012351554
000290 c5 06 8f bb e5 43 b0 bb 6e 2b 43 3c a0 e4 25 3c
       -0.0043648207 -0.0053791874 0.01191221 0.010125309
0002a0 52 51 1c 3c c0 aa 94 3b 2f 3e 6f 3b 5f 70 63 3c
       0.009540873 0.0045369565 0.003650557 0.013881772
0002b0 ef 3b a0 bb 8c 92 b8 3b 67 a5 07 3b cd bb 05 3c
       -0.004889957 0.005632704 0.0020697953 0.008162451
0002c0 91 ed e4 3a 42 42 0a 3c 48 e7 42 3c d3 cb 47 3c
       0.001746582 0.008438649 0.011895962 0.012194592
0002d0 ab b0 e0 3b 3e 7f 28 3c 7a d1 08 3c 1c 36 a7 ba
       0.006856998 0.010284243 0.008350724 -0.0012757215
0002e0 fa 95 b7 3b c4 ed 88 3c e2 7e 75 bb c5 d8 f6 3a
       0.0056025954 0.016714938 -0.0037459661 0.0018832913
0002f0 85 90 5a 3a 05 e9 e3 3b 58 d4 0b 3a e8 8a e2 3a
       0.0008337575 0.0069552683 0.0005334071 0.0017283829
000300 34 5c ea 3a 22 51 bf 3b a9 66 0e bc ed 39 fb ba
       0.0017880262 0.005838529 -0.008691468 -0.0019167044
000310 1e dc 0d 3b a7 04 ee 3b 53 27 13 3c 39 5f 79 3c
       0.0021646093 0.007263738 0.008981544 0.015220457
000320 ca d0 80 bb 8f 3d 2f 3a 3f 04 b3 3b 9b c2 cc 3a
       -0.0039311396 0.0006684893 0.0054631527 0.0015621962
000330 45 c4 8c 3b 1e e1 aa 3a 78 c7 34 bc 3d dd 2b 3c
       0.004295858 0.0013037061 -0.011033885 0.010489759
000340 13 94 ff 3b 9a 5c 30 bc c0 28 15 3c d1 b8 16 bc
       0.0077996342 -0.010764265 0.009103954 -0.009199337
000350 4a 9e 3c bb 7d 53 7c 3b e0 64 30 3c 7c 94 a3 3b
       -0.002878087 0.0038501911 0.010766238 0.004992066
000360 d9 5b c8 3b bf a5 76 b9 13 5b dc 3b f1 e4 50 3b
       0.0061144647 -0.00023522133 0.006724724 0.003187474
000370 ec 60 46 ba d9 6e 22 3c d8 31 b0 37 bc 6e 8b 3b
       -0.0007567543 0.009914123 2.1004045e-05 0.004255144
000380 c9 7c d3 3b 28 ad 35 ba ea f4 ed 3b da a8 83 3b
       0.0064540845 -0.00069304043 0.007261862 0.0040179314
000390 48 45 de 3b 14 f7 a6 3b 23 47 83 38 6c 35 09 3c
       0.0067831613 0.005095372 6.259817e-05 0.008374553
0003a0 71 9e 13 3c d4 ad a1 3b 3b 41 85 39 4d 60 26 3c
       0.009009943 0.004934052 0.00025416337 0.010154796
0003b0 eb 78 80 3c 73 e7 04 bc 5d 81 a2 3b 10 29 77 3b
       0.015682658 -0.008111822 0.004959269 0.0037713684
0003c0 48 66 06 3b f2 e3 15 3c 72 74 f8 3b c5 ec 7a 3b
       0.0020507742 0.009148585 0.0075822407 0.0038288098
0003d0 7e 6a 53 3c 8e 67 93 bb 37 86 4f bb c0 c0 22 3c
       0.012903808 -0.0044984287 -0.0031665692 0.0099336505
0003e0 d2 a3 1c b9 f8 82 27 bb df 8a 96 bb 89 8b 2b 3b
       -0.00014938347 -0.0025560241 -0.0045941914 0.0026175699
0003f0 ef d7 ea bb f2 5d 45 3c 6c 4b 17 bc 44 ac 63 3c
       -0.0071668546 0.012046324 -0.009234291 0.013896052

network_body._body_endoder.seq_layers.0.weight f4 [256, 74]
000000 13 11 bf bc 37 98 5f 3e bb 2d e5 3c 20 9d fc bd
       -0.023323571 0.21835409 0.027975908 -0.12334657
000010 c2 e9 5a 3e d6 51 7a 3e f9 fc 5b 3d de bd 3e be
       0.21378234 0.2444528 0.05370805 -0.18627116
000020 39 fa 0e bd c2 33 6e be 2e 9b ff 3d ea cb 2f be
       -0.0349066 -0.23261932 0.1248077 -0.17167631
000030 cb 6a 16 bd df c0 69 be 4a 01 bc bd 16 dc 4c bc
       -0.03672294 -0.2282748 -0.09179933 -0.012503644
000040 3d 83 5f bc bd a7 f3 bd 74 f4 d5 bc 0d e6 f6 3c
       -0.0136421295 -0.11897228 -0.02611754 0.030138994
000050 9c 33 90 be 73 71 08 bd 39 33 bc 3c 16 13 3d 3e
       -0.28164375 -0.03331132 0.022973644 0.18464312
000060 55 68 dd 3d 53 d6 b9 3b 03 8c b6 bc 92 2f 9a bd
       0.108109154 0.0056713014 -0.02228356 -0.075286046
000070 dd 37 68 3d 75 67 0e 3e a1 44 e1 bd 4f dc 88 be
       0.0566939 0.13906653 -0.10999418 -0.26730582
000080 23 6c 1a 3d 00 76 29 be 4f 07 8e 3d c5 19 2a 3e
       0.037700783 -0.1654892 0.06934988 0.16611393
000090 ee 1e 33 bc 34 55 93 bd 74 f1 09 3e 37 c3 9d 3d
       -0.010932667 -0.071939856 0.13471013 0.0770325
0000a0 7a f5 5c bd ea 5a de 3d a1 cd 5f 3e 69 b3 fa bd
       -0.053945042 0.10857184 0.21855785 -0.12241251
0000b0 e3 f8 1f 3d a6 b7 88 bd 65 c5 4d bc 55 da 92 3e
       0.039055716 -0.06675653 -0.01255927 0.286822
0000c0 18 83 30 be 52 cd ef 3b 4b c1 19 3e 8c 84 1f bd
       -0.17237508 0.0073181773 0.15015142 -0.038944766
0000d0 ca 73 9f 3c 19 c6 b5 bd 08 13 7d bd 4e 23 b3 bc
       0.019464392 -0.08875675 -0.061785728 -0.02186742
0000e0 90 92 b8 bd 62 75 bd bd 3f f9 07 bd 29 05 30 be
       -0.090123296 -0.092509046 -0.033196684 -0.17189468
0000f0 f8 c5 74 bc 3b 0b cb 3c 21 a2 f7 bd e0 76 67 be
       -0.014939778 0.024785629 -0.120914705 -0.22603941
000100 66 d4 04 3e 1e d8 4a be 6e 89 f0 3c 12 1e 12 bc
       0.12971649 -0.19809005 0.029362407 -0.008918302
000110 38 45 8a 3d 68 9f 53 bd ef 67 2e be 86 fe 9f 3e
       0.06751484 -0.051665694 -0.17031835 0.31248873
000120 b7 fb 4b be c9 ab 81 bb cb 31 10 3e 49 41 d5 3d
       -0.1992024 -0.003957246 0.14081495 0.10412843
000130 5d c8 11 be 15 82 28 3e 57 f7 3f 3e 57 80 44 3c
       -0.14236589 0.16455872 0.18746696 0.011993489
000140 7d 58 74 be df bd 52 bd ea 96 8e bc ce a0 95 bd
       -0.2386188 -0.051450606 -0.017405946 -0.07306062
000150 e1 9e 0f 3d d6 c7 19 be d4 ae 5f 3e 2f 05 59 3d
       0.035063628 -0.15017638 0.21844035 0.05298346
000160 8b 70 d6 bd ba 57 35 3d 42 e4 d2 bc 39 c2 cc bd
       -0.104706846 0.044273116 -0.025743607 -0.099979825
000170 82 dc a4 bd c2 58 22 3e 55 73 b5 bd 7f 7d 2d bb
       -0.08049871 0.15854171 -0.088598885 -0.0026472507
000180 c6 32 28 3c e1 86 c6 bd d4 65 82 bd 73 92 9b 3d
       0.010266012 -0.09693695 -0.063670784 0.07596292
000190 ea e6 58 bd 69 08 67 bc 90 75 3e 3d f9 8f 8f 3d
       -0.05295459 -0.014101126 0.046498835 0.070098825
0001a0 d9 5a 2c bc ca c0 a7 bc 80 6c 2b be 1b 17 40 be
       -0.010519707 -0.020477671 -0.16740608 -0.18758814
0001b0 11 ce e1 bd ee 27 a2 bc ce 7b ed bc 63 ab a4 3c
       -0.11025632 -0.01979443 -0.028989699 0.020101255
0001c0 51 35 a3 bc e6 67 d3 bd 96 f8 37 3d ba b6 37 be
       -0.019922884 -0.103225514 0.044914804 -0.17940798
0001d0 bc 19 38 3d eb 56 69 3e 9a 83 02 be 4e 5c f0 bd
       0.044946417 0.22787063 -0.12745515 -0.11736356
0001e0 56 b4 94 3d 69 bf 8b 3c ab 64 48 3d 37 66 17 3d
       0.07260959 0.017059045 0.04892413 0.036962714
0001f0 ca 2e 88 3d 9f ad 75 3b 9d 16 ff bc 33 08 9a 3d
       0.06649549 0.003748752 -0.031138713 0.07521095
000200 d2 38 b7 bd a6 29 2d 3e af a1 e5 3c e6 35 99 3d
       -0.089463845 0.16910419 0.028031198 0.074809834
000210 94 c8 0b bd 14 93 05 3e 3d f4 91 be 32 45 97 3c
       -0.034126833 0.13044387 -0.28506652 0.018465612
000220 0a 3f 1e bd f1 5a 97 bd 33 ec 0b be d9 12 b2 3d
       -0.038634337 -0.073903926 -0.13664322 0.08695001
000230 2e 4c 90 3c 5b 1e 1d 3e 26 ff a1 be 4d e3 54 3c
       0.01761445 0.15343611 -0.31639975 0.012993646
000240 5b d2 e2 bc fb 2b b7 3d 26 de 1b be c8 cb c3 3c
       -0.027688196 0.089439355 -0.15221462 0.023900881
000250 9e 80 c0 3c 81 4b c7 3b c2 28 2e be 6c 8f a5 3d
       0.02349883 0.006081999 -0.17007735 0.08083996
000260 20 89 eb 3d 22 4e b5 bc 0f b3 32 bd c9 eb a4 3d
       0.11500764 -0.022131983 -0.043627795 0.08052785
000270 c3 95 06 be 5c b9 57 bd 40 15 98 3d 9f dd a9 bc
       -0.13143067 -0.052667007 0.07425928 -0.02073556
000280 69 6f 1e be 67 d0 37 3d 35 2b 07 be 47 5a 0a bd
       -0.15472187 0.044876482 -0.13200076 -0.0337775
000290 68 2b ec bd e3 9b 98 bc 21 7c ee 3c af e8 e7 3c
       -0.115317166 -0.01862902 0.029111924 0.028309194
0002a0 e0 33 ae 3d 63 14 f4 bc 69 00 20 3e 93 7e 56 3d
       0.08505988 -0.029794877 0.15625156 0.052366804
0002b0 d7 74 de 3d 68 28 2e be c4 05 f9 3c 15 72 2d be
       0.10862129 -0.17007601 0.030398257 -0.1693805
0002c0 59 b7 71 3d 44 f1 9f 3d ab 31 fc 3b b5 37 00 3e
       0.059012745 0.0780969 0.0076963506 0.1252125
0002d0 45 52 8d bb 26 ba 99 bc bd 1e a7 3d 75 ba 21 3d
       -0.004312786 -0.01876552 0.0816016 0.03948446
0002e0 a6 93 f6 bd 41 e5 8c bc 7a 50 be 3b c9 16 86 bd
       -0.120398805 -0.01719916 0.0058079334 -0.06547315
0002f0 67 28 ce bd ac bf df bc a5 ad 69 3d 20 32 2c bd
       -0.100663 -0.027313076 0.057050366 -0.04203999
000300 1d 90 ef bc c6 d6 65 bb 79 2d 95 bd bd 9b af 3c
       -0.029243523 -0.0035070642 -0.07284064 0.021436566
000310 7d 68 0b 3c ec f8 c7 3d 5d 29 11 be 2f e3 c0 bd
       0.008508799 0.09764275 -0.14175935 -0.09418332
000320 fb a2 8a bd 3d 29 5c 3e e5 05 4c be b6 d5 b4 3d
       -0.06769367 0.21500106 -0.19924124 0.088298246
000330 b5 4f a9 bd d4 a4 74 3d 01 79 12 3d 5a 9d d3 3d
       -0.08267156 0.059727505 0.03575993 0.10332747
000340 12 8c f6 3d ec 7a 11 be 05 bc 2a 3e 61 0b 92 3d
       0.12038435 -0.14207047 0.16673286 0.071310766
000350 fc 4a 35 bd 45 06 76 bd 79 20 7e bd 60 6c a6 3c
       -0.044260964 -0.060064573 -0.062042687 0.02031535
000360 64 f7 fc bc 3a 60 3e 3e 37 ee 2d bc 69 de 09 bd
       -0.030879684 0.18591395 -0.010615877 -0.033659372
000370 a2 1c 48 bd 95 ba 4c be 78 3f e8 bd 74 79 ad bd
       -0.04885543 -0.1999305 -0.11340231 -0.08470431
000380 1b ef 64 3d 1d 2c 95 bd cf f3 3f bd 21 f5 3f 3d
       0.05589209 -0.072838046 -0.046863373 0.046864633
000390 1a 28 0e 3e 54 36 bb bc be 3c 14 3d a6 fa 1f bd
       0.13882485 -0.022853054 0.03619074 -0.039057396
0003a0 b3 18 8f 3d 76 cf bd 3d 8c 2c ec 3d c5 8f bf 3d
       0.06987133 0.09268086 0.11531934 0.09353594
0003b0 41 d0 9f bd 2f ee b4 bd 9c b0 51 3e f7 1c ec bc
       -0.07803393 -0.088344924 0.20477527 -0.028822405
0003c0 c8 4a 0c be 8b 09 50 3e 23 21 51 be 6c 5a 41 bd
       -0.13700402 0.2031614 -0.20422797 -0.047205374
0003d0 61 1b fa bd 0d 7c 59 3e fb 04 a2 bd 1d 77 3b 3c
       -0.12212253 0.21238728 -0.07911106 0.011441973
0003e0 b1 9d b7 3d 22 e9 e0 3d 2d 70 99 bc 8b 94 3c 3d
       0.08965624 0.109819666 -0.018730247 0.0460401
0003f0 54 3d 36 3c 6c da d0 3d 21 df 95 3d ff 82 63 be
       0.01112302 0.10197911 0.07317949 -0.2221794

network_body._body_endoder.seq_layers.2.bias f4 [256]
000000 a5 17 6b bb f8 00 19 3c 20 18 52 3a db 8f 02 bb
       -0.0035872248 0.00933861 0.0008014459 -0.001992217
000010 29 ad 8d ba 4b 0f d1 3b e7 2e 8d 3b fc 81 02 3c
       -0.0010809052 0.006379997 0.0043085697 0.007965561
000020 5f 02 0f 3c 22 8b 8c 3b a7 76 62 3b ba 14 1a ba
       0.008728593 0.004289047 0.0034555586 -0.0005877722
000030 58 db d3 3b 70 b0 96 3a 6f db 25 bb b2 1c 0b 3c
       0.006465357 0.0011496674 -0.0025307795 0.008490728
000040 a5 c3 3d bb 68 83 65 bb d4 58 4c bb 73 8f a1 3b
       -0.0028955725 -0.0035020951 -0.0031180875 0.0049304306
000050 ae ba ed 3a 6b a3 1b 3c 6a e8 a5 b9 72 fe 41 3a
       0.00181373 0.009499411 -0.00031644414 0.0007400281
000060 c2 83 de 3b 9b 60 d3 ba b9 62 af 3b af 31 27 3c
       0.006790609 -0.0016126813 0.005352345 0.010204717
000070 7a 79 76 3b 6a fb 93 3b 9b d0 35 3c ce cf bc 3b
       0.0037609027 0.004516055 0.011097099 0.005762077
000080 50 e8 e3 3a 53 6d b8 bb d6 1a c8 3b 7b 86 f5 3b
       0.001738796 -0.005628267 0.0061067147 0.007492838
000090 14 08 e2 bb 89 a7 75 3c a8 d8 5b 3c e7 2f f2 bb
       -0.0068979356 0.014993557 0.013418354 -0.0073909643
0000a0 10 69 83 3b cf b4 14 3b 7e 00 d0 3b f5 25 19 3b
       0.004010327 0.0022690778 0.006347715 0.0023368571
0000b0 d3 c7 5e 3b fe 29 ba 3a 30 6e d8 3b d0 a7 a3 3b
       0.0033993616 0.0014203188 0.0066049322 0.00499437
0000c0 61 1d 0e 3c c5 6c 09 3c 9b 30 c6 3b 79 59 77 bb
       0.008673997 0.008387749 0.0060482747 -0.003774254
0000d0 35 15 21 bb c3 10 fc 3a cc d5 ad 3b b4 4c 17 3c
       -0.002457929 0.001923107 0.0053050276 0.009234596
0000e0 f6 73 a6 bb ab 12 65 3a b8 2d 37 3c 06 e3 00 3a
       -0.0050797416 0.00087384385 0.011180334 0.00049166416
0000f0 8d 49 30 3c 8d dc 86 bb 15 9e e3 3b b5 79 d7 3b
       0.010759723 -0.004115647 0.006946335 0.006575788
000100 ee 8b eb 3b c9 a4 fb bb 39 59 9b 3b 12 b4 19 3c
       0.007188312 -0.007679556 0.004740861 0.009381311
000110 0c 7c de 3b 6f 15 3f 3b 37 3b 9c 3b 21 06 52 3a
       0.00678969 0.0029157063 0.004767801 0.00080117775
000120 2b eb de 3b c6 60 13 3c 0a fb 1d 3c c0 4f c9 3b
       0.0068029366 0.008995241 0.009642372 0.00614354
000130 40 a7 98 3b 21 c6 b0 ba d7 a2 7b 39 65 d8 56 3b
       0.0046586096 -0.0013486781 0.00023997888 0.003278279
000140 3f 8f 0c bb d7 35 30 3c b4 66 b5 3b f9 28 c4 bb
       -0.0021447686 0.010755024 0.005535925 -0.0059863296
000150 ea 73 cd 37 f2 85 27 bc 62 74 c7 3a 47 c6 35 3c
       2.4491881e-05 -0.010224806 0.001521718 0.011094636
000160 46 5a 1e 3c c2 8e 16 3c bc 45 8e 3c fa f6 09 ba
       0.009665078 0.00918931 0.017367236 -0.00052629376
000170 6a dd ed 3b 80 1a 19 3c d9 b8 c0 bb c5 e5 ca 3b
       0.0072590606 0.009344697 -0.0058814106 0.0061919414
000180 e2 58 08 bc c5 dc 05 bb 1f 24 90 3b df 62 32 3c
       -0.008321973 -0.0020425778 0.004398837 0.0108878305
000190 fc 79 c0 3b 31 c0 0a 3a 89 1c 29 3c 3c c9 71 bb
       0.0058739167 0.0005292921 0.010321745 -0.0036893627
0001a0 cf 92 53 3c 00 01 70 3b 91 19 73 bb 9c 30 c8 bb
       0.01291342 0.003662169 -0.0037094096 -0.0061093103
0001b0 f4 df 11 3b d1 c2 74 bb e4 6f 07 bb ba 4e 17 3c
       0.002225873 -0.0037347565 -0.0020666057 0.0092350785
0001c0 83 99 91 3b 99 3c ac ba 12 37 2d bc 81 8c e8 3a
       0.004443349 -0.0013140618 -0.010572212 0.0017742069
0001d0 47 9f 45 bb f1 d2 a2 3b f0 89 00 3c 7c cf 91 bb
       -0.003015475 0.004968994 0.007845387 -0.004449783
0001e0 7c da 80 3b 9a 01 c8 b9 ec 72 d3 3b 50 45 00 3c
       0.0039322954 -0.00038148166 0.0064529087 0.007829025
0001f0 3d e2 dd 3b 3a 55 3e 3c 5e bd 92 bb 91 b9 99 bb
       0.0067713545 0.011616999 -0.0044781407 -0.0046913107
000200 fb 52 f5 3b 78 dc 32 3b 39 6d c2 ba c2 38 38 3c
       0.0074866987 0.0027292054 -0.0014833576 0.011244001
000210 de f8 48 3c 44 cf 0d 3b 12 65 93 bb b5 01 c2 3b
       0.012266366 0.0021638433 -0.0044981325 0.0059206137
000220 2f d6 c5 ba ef 4a 0b bc 73 ca 4c bb ea 39 be bb
       -0.0015093739 -0.008501752 -0.0031248599 -0.0058052437
000230 70 1b 60 ba 0f e5 08 3c 39 c6 d3 3b 0c 88 dc bb
       -0.00085490104 0.008355393 0.006462839 -0.0067300852
000240 53 bc 49 3c f5 a3 f8 3b 22 5b 03 3b d4 fa f7 bb
       0.012312966 0.0075879046 0.0020043333 -0.007567743
000250 e0 a7 8c 3b 8c 5a 2c bb 01 2e fe 3b 02 a5 14 3b
       0.004292473 -0.0026299087 0.007756949 0.002268136
000260 24 7d c8 3b dd 3d 2c 3c b9 70 0d 3b 99 e5 35 3a
       0.0061184336 0.010512796 0.002158208 0.0006938815
000270 ac dd ec bb bb f4 ca 3b 39 0c a4 3b 8b e4 1a 3c
       -0.007228574 0.006193725 0.00500634 0.009453903
000280 28 56 43 3b 83 36 8e 3b d5 05 39 3c 68 b4 dd 3b
       0.0029805992 0.0043399944 0.011292894 0.006765891
000290 1c 9b 99 39 93 f7 d4 3b 30 33 da ba b4 1e 11 bc
       0.00029298 0.0064992397 -0.0016647335 -0.008857418
0002a0 ec 27 20 bb fa 31 bf 39 0d 71 07 3c a5 ae e4 bb
       -0.0024437858 0.00036467594 0.0082666995 -0.006978827
0002b0 df d6 d4 bb 0c 3d 48 3a 35 f9 8c 39 c5 42 9c 3b
       -0.006495341 0.0007638491 0.00026888555 0.0047687017
0002c0 32 a6 61 3b aa 9c bb 3b f7 9a 28 bb 93 57 5f bb
       0.0034431336 0.005725463 -0.0025727132 -0.0034079298
0002d0 09 ea 19 3c 38 80 df bb d7 7e cd 3b c0 4e 6b 3c
       0.009394177 -0.006820705 0.006271224 0.014362037
0002e0 dc 6c 26 3c 0c 9a fe 3b 2d 55 16 bc f6 a5 e8 3b
       0.01015779 0.0077698287 -0.009175581 0.007099862
0002f0 c0 36 3f 3c 71 8e c9 3b 37 59 bd ba 42 7c 81 3c
       0.011670768 0.0061510135 -0.0014446144 0.015806321
000300 3a fe 53 3b 18 9c 23 3a d7 8f a1 3b 52 d8 00 bb
       0.0032347576 0.00062412163 0.004930477 -0.0019660187
000310 88 ed f0 3b 17 cc 2b bc de 35 29 3b 35 a6 88 3b
       0.0073525347 -0.0104856705 0.002581946 0.004170204
000320 41 c4 25 3c 0c 75 4f ba 76 47 67 b9 0f c1 12 3b
       0.010117591 -0.00079138647 -0.00022056498 0.0022392904
000330 3e 0d 90 bb 1d 6d 4a bb 9a 3b d9 3b eb eb 38 3a
       -0.00439611 -0.003088779 0.0066294195 0.00070541975
000340 75 7e dc 3b 89 68 3a ba c7 1b 53 3b 33 af 33 3c
       0.006728942 -0.0007110914 0.0032212602 0.010967064
000350 f5 f7 a0 bb 07 f3 8f bb 8d 30 d8 bb 14 41 9d 3b
       -0.0049123713 -0.004392985 -0.0065975846 0.0047990177
000360 4c 6f 38 3b 67 75 95 bb 80 3a f1 ba 72 64 d9 3b
       0.002814251 -0.0045611146 -0.0018404275 0.0066342885
000370 33 fc 67 3b 9c 9e 67 3c 5b e9 01 bb cb ca 4f 3b
       0.0035398125 0.0141369365 -0.0019822929 0.0031706567
000380 d2 5c b7 3b b8 39 00 ba 43 f8 c7 3b 12 4b d5 bb
       0.005595782 -0.0004891413 0.006102593 -0.006509193
000390 b9 9e 02 3a fd 98 fd 3a 73 5d 17 3c cb 39 97 3b
       0.0004982758 0.0019347962 0.009238589 0.0046150438
0003a0 50 ae 40 3b 06 74 11 bc 35 14 eb ba aa 73 2e bb
       0.0029400773 -0.00887776 -0.0017935099 -0.0026619234
0003b0 cd d7 c7 3b 79 2a fb 3b 8b 4d 6c 3a aa b7 29 3c
       0.0060987235 0.0076649752 0.00090142403 0.01035873
0003c0 c3 38 2b 3c 6a f5 9f b9 39 0c 56 3b ea c1 15 b9
       0.010450545 -0.0003050969 0.0032661094 -0.00014281986
0003d0 5c 35 51 3c 20 ce 87 bb 50 48 0d 3c d5 94 9d 3b
       0.0127690695 -0.004144445 0.008623198 0.004809002
0003e0 6a 91 63 3b ac 45 15 3c 00 e7 9f ba 35 87 24 3b
       0.0034724125 0.009110849 -0.0012199581 0.0025105004
0003f0 78 db 7c 3b 8d 85 49 3c 10 82 cc 3b 6f f5 10 3c
       0.0038582962 0.012299907 0.0062410906 0.008847578

network_body._body_endoder.seq_layers.2.weight f4 [256, 256]
000000 1d 94 50 3c b2 7b 46 bc 80 dc 47 3b ff 63 0c 3e
       0.012730625 -0.012114452 0.0030496418 0.1371002
000010 35 04 18 bd 40 51 1a bc 28 f9 6f 3a 00 66 3a 3d
       -0.037113387 -0.009418786 0.00091542536 0.04550743
000020 f9 bf 2e bd 55 e1 06 3e 2d f0 49 3d 27 72 c2 bc
       -0.04266355 0.13171895 0.049301315 -0.023736073
000030 98 ad 4e 3d 52 be bb bc 22 96 bf bd 10 db f6 3c
       0.05045852 -0.0229179 -0.093548074 0.030133754
000040 a7 02 11 3d 6a 5c 0c 3d 59 58 a7 3d 30 0d 8a 3d
       0.03540292 0.03426782 0.08171148 0.067407966
000050 fd eb 7d 3d 1c ca 9c 3c 75 49 58 3d 85 fc 80 3c
       0.061992634 0.019139342 0.05280443 0.01574541
000060 5e 62 d3 3c 13 67 bd 3d 7c 91 21 3b cd 8c 1c bb
       0.025803741 0.092481755 0.0024653366 -0.0023887635
000070 f4 20 75 3d 4f 2a a5 bd 89 4b 5f bb ab d2 30 bd
       0.05984588 -0.0806471 -0.0034072122 -0.04316966
000080 5f c5 05 3e 86 1a 24 39 ba 6d d1 bd e0 6c bf bd
       0.13063572 0.0001565014 -0.10226007 -0.09346938
000090 e1 d8 16 3d 91 54 5a 3c da 19 88 3d f4 dc 17 be
       0.036827926 0.013325826 0.06645556 -0.1483038
0000a0 5d 1c bb 3d 31 65 9b bd 23 f0 06 bd 11 05 52 bd
       0.09136269 -0.0758766 -0.032943856 -0.051274363
0000b0 1b 6f 3b 3d b1 a8 57 bc 0a e6 37 3d 79 9d 04 bd
       0.045760255 -0.013162778 0.044897117 -0.03237674
0000c0 c7 84 e8 3c dd 3d a6 3d e3 d1 6c bc a7 51 e3 3d
       0.028383626 0.08117268 -0.014454338 0.11099558
0000d0 f9 16 1b 3d 07 4c 16 bd bb c5 1f 3c c5 3a 3b bc
       0.037863705 -0.0366936 0.009751732 -0.011427586
0000e0 b7 11 20 3c 86 97 2d bd 1a 33 a0 3d b6 54 d2 bc
       0.009769849 -0.042380832 0.07822247 -0.025675159
0000f0 71 1a e1 bc 10 6a 9e 3c 99 2b 24 3d 58 9b 93 3c
       -0.027478429 0.019337684 0.04008064 0.01801841
000100 33 b1 3b ba d7 70 0e bd 4a 48 1b 3c 30 8c 93 bd
       -0.00071598886 -0.03477558 0.009477684 -0.07204473
000110 25 a1 8a 3d f9 83 86 bd 35 05 d8 bc ca f3 25 3d
       0.06769017 -0.065681405 -0.02636967 0.0405157
000120 83 2d 27 bd e9 2f 8b bc 32 6e 52 3b 14 75 c3 3b
       -0.040814888 -0.016990619 0.0032109139 0.0059648845
000130 c9 d2 a3 bc 11 bf cb 3c 1b 33 22 3e d4 62 e3 bc
       -0.019997971 0.024871381 0.15839808 -0.027757086
000140 ab a3 c7 bd 19 a9 03 3d bf dd 26 bd 57 b4 50 bd
       -0.09748014 0.032143686 -0.040738817 -0.050953235
000150 80 79 00 3d 74 15 23 3b fe 1a bf 3d 55 ed a0 bd
       0.03136587 0.0024884613 0.0933132 -0.078577675
000160 fe 8b b7 bc d8 da 27 bd a3 d1 78 3d a0 9f 51 bc
       -0.02240562 -0.04098019 0.0607468 -0.012794405
000170 99 d9 ee 3d ae dc cb bd 53 d8 aa bc e1 8e c3 bc
       0.11662597 -0.09954201 -0.020855105 -0.02387184
000180 4f b0 1f bd 2a 0e 6a bd a2 b2 38 3d 18 5f 96 3d
       -0.0389865 -0.057142414 0.045092233 0.073423564
000190 cc 4e 08 bc 7f 1f fe 3c 09 8d a6 3d 7e 01 22 bd
       -0.008319568 0.031020878 0.08132369 -0.039552204
0001a0 53 db 67 3d f0 5c 10 ba cb e9 5e 3d 8f 36 8b bd
       0.05660565 -0.0005507013 0.05442218 -0.067975156
0001b0 9d 17 dc 3d 30 de 31 bd ad 9a 3e 3d 28 71 7a 3d
       0.107466914 -0.043424785 0.04653423 0.06114307
0001c0 0f bf b9 bd c1 55 a3 bd 32 96 49 3d 69 93 ab 3d
       -0.09069645 -0.07975341 0.049215503 0.08377726
0001d0 2b e4 c5 3d 12 c5 e9 3d 50 91 ed 3d 62 8c 22 3d
       0.0966266 0.11414541 0.11599982 0.03968466
0001e0 26 65 28 bd ff 24 91 bd 9d 6d a4 bc 72 c9 a5 bd
       -0.041112088 -0.070871346 -0.020071799 -0.08095063
0001f0 a9 3b 72 bd 3a 17 11 3d 1b aa 95 bc 0d 96 e9 bd
       -0.059138928 0.03542254 -0.01826959 -0.11405573
000200 08 d8 2d 3c a4 1d 14 3e 65 15 08 be 55 75 fc bb
       0.010610588 0.14464432 -0.13289411 -0.0077044168
000210 ba 26 8a 3d 5d 5e 16 be 19 b3 f5 bd 2a 27 ee 3c
       0.06745668 -0.14684434 -0.11997051 0.02907141
000220 01 f9 4d bb 47 fc 0d 3d 90 49 85 3d fd fa b7 3c
       -0.0031428935 0.03466442 0.065081716 0.022458548
000230 b9 d7 4f bd 05 e1 2a bd 7d fd 9b 3d 10 22 de 3d
       -0.05074284 -0.0417185 0.076167084 0.10846341
000240 b9 44 b2 bd a1 ba 86 bc 4e f1 af bc 1b 46 e2 bd
       -0.08704514 -0.016446413 -0.021477368 -0.11048528
000250 6b 43 72 bd 75 47 d1 3d 98 54 ac bd 92 6e e1 3c
       -0.059146326 0.102187075 -0.084145725 0.027518544
000260 6f fd d1 bc 15 4a d3 3d 1c 55 7e bc 6a 48 1c 3e
       -0.025633542 0.103168644 -0.015523221 0.15261999
000270 bb 85 22 3c d2 13 15 3c ee 37 96 3d 6c da 2c 3d
       0.009919579 0.009098964 0.073348865 0.04220049
000280 d3 51 13 bd fe 69 5d 3c 8e 2b 6c bd 0c 71 ad bd
       -0.035966706 0.01351404 -0.057658724 -0.084688276
000290 1b 83 41 3d 73 e9 f1 bc b6 4a 60 3d 33 25 c0 bd
       0.047244173 -0.029530263 0.05475875 -0.09382095
0002a0 af 68 e8 3c 06 ea 2a 3d dc 6a 67 3c 9c d8 c7 bd
       0.02837023 0.04172709 0.014124598 -0.09758112
0002b0 06 cf 6d 3d ed e0 11 bc b7 96 0b 3d a3 be 5c bd
       0.05805876 -0.008903724 0.03407928 -0.053892743
0002c0 b1 1a 70 3d 8f 7b 15 3e 79 f2 f6 3b a4 7f 81 bd
       0.058619205 0.14597915 0.007536229 -0.06323174
0002d0 ec 3d c8 3d d8 c0 6e bd 41 ec d7 bd 37 56 d9 3c
       0.09777436 -0.05828938 -0.10543109 0.026530368
0002e0 53 05 2f 3b fc c9 a7 bd c6 03 85 bc 3a 60 23 bd
       0.0026706054 -0.08192822 -0.01623715 -0.03988669
0002f0 fa 27 42 bd 75 52 84 3c cd 0d 8b bd 34 cd 90 bd
       -0.047401406 0.0161526 -0.06789742 -0.070703894
000300 b3 18 a0 3c f0 80 98 3d d5 de 69 bc a7 b4 fd bd
       0.019543028 0.07446468 -0.014274319 -0.12387972
000310 48 42 da 3d fe 90 c5 bd cf ca d7 bd da f6 26 bd
       0.106571734 -0.09646796 -0.105367295 -0.04076276
000320 ad ce a8 bd e4 47 53 3c 8f 56 4d bc 93 80 bf bc
       -0.08242545 0.012895558 -0.012532844 -0.023376739
000330 b6 7b 52 bc cc d6 73 bb bd ec 26 bc 91 e6 c9 3b
       -0.012846878 -0.0037206886 -0.010188279 0.006161519
000340 24 db df bb 0f 8b 51 3d cb 1e 51 bc 05 a7 8a bc
       -0.0068315435 0.051158007 -0.012763689 -0.016925344
000350 c9 0b 61 bd 7e 4e 4d bd b0 a9 f7 bc bc 39 24 3d
       -0.05494288 -0.050123684 -0.03023228 0.040094122
000360 ba 71 ea bc 63 51 fd 3c 6e 98 a5 bb 49 22 70 3c
       -0.028618682 0.030922597 -0.0050535714 0.014656612
000370 82 9d 72 3d 2d 64 6f bb aa a1 66 3c 74 4f 30 bd
       0.059232242 -0.0036528215 0.01407663 -0.043044522
000380 91 b7 33 3c 8d 8a 16 be 17 94 19 bd 19 46 b1 bc
       0.010969059 -0.1470129 -0.037494745 -0.02163987
000390 81 94 92 3a 3a 49 52 bd 07 3b 58 3d aa 0e 50 bd
       0.0011183174 -0.051339366 0.052790668 -0.050795235
0003a0 20 71 aa bd d1 42 54 bc 46 95 0d 3d d5 ed 31 bd
       -0.08322358 -0.012955383 0.034566186 -0.043439705
0003b0 d2 65 2c 3c a6 1d 57 3c f5 36 54 3d 5a 7d 8a b9
       0.010522323 0.013129627 0.051810224 -0.00026414805
0003c0 63 e0 d0 bb a4 e4 06 bd 39 24 f4 3c 56 e5 d9 bb
       -0.006374405 -0.032932892 0.029802429 -0.0066496534
0003d0 87 35 c1 39 db 90 19 3e bf a7 fe bc 47 8a a8 bc
       0.0003685171 0.14996664 -0.031085847 -0.020573748
0003e0 e6 2e 85 3c 34 b0 95 bd f0 a5 3c bd 98 39 60 3c
       0.016257714 -0.07308999 -0.046056688 0.013685606
0003f0 3c e8 43 bd 6c b7 a1 bc c5 8b 81 bd d6 c8 cc bd
       -0.047828898 -0.019740783 -0.06325487 -0.09999244

network_body._body_endoder.seq_layers.4.bias f4 [256]
000000 52 79 91 bb 16 8b 9a ba dc 65 01 bc 0c fe d1 ba
       -0.0044395113 -0.0011790718 -0.00789782 -0.0016021146
000010 a4 fc 9c 3b 3c f5 43 3c c1 7b 25 b9 ee 86 31 bb
       0.0047908593 0.011960324 -0.00015781728 -0.002708848
000020 15 c1 3a 3c a0 fa 9c 3b 10 c6 8a bb 57 7e 38 3c
       0.011398573 0.004790619 -0.0042350367 0.0112605905
000030 2f 11 e6 b8 d0 30 be 3b c3 5f 08 3c 16 c5 7c bb
       -0.00010970455 0.0058041587 0.008323613 -0.003856962
000040 36 19 bf 39 4d 44 76 bb be 73 50 3b c7 66 44 3b
       0.00036449142 -0.0037577332 0.003180727 0.0029968487
000050 81 cb aa bb 1e 1a 3f 3a 41 b0 db 3a 58 ae db 3b
       -0.005212248 0.00072899635 0.0016760902 0.006704133
000060 3e 3e 5a bb 12 84 0c 3c 29 1f 2c bb d5 a3 eb 3b
       -0.003330126 0.00857641 -0.002626369 0.007191161
000070 e2 1b 8b ba 35 96 35 bb be 15 fc 3b 42 46 f4 ba
       -0.0010613168 -0.0027707939 0.0076930216 -0.0018636661
000080 bd 8a 3c 3b fe f6 f4 3b ea 73 1d ba 5a 4a 46 3a
       0.0028769218 0.007475733 -0.0006006347 0.000756418
000090 a0 63 8e 3b 21 8a bb 3a 62 27 b6 3b 9a 47 ea 3b
       0.0043453723 0.0014308133 0.005558894 0.007149649
0000a0 71 99 a4 3b 4a ed 9b bb 74 51 7b b8 39 6a 9f 3b
       0.0050231745 -0.0047585117 -5.9918922e-05 0.0048649576
0000b0 ae de 23 3b 5f 28 ad b8 2b db df 3b c6 3a c4 3b
       0.0025004554 -8.2568025e-05 0.006831547 0.0059884517
0000c0 d2 13 de bb 1f 11 5c bb c3 dd b1 bb d5 8f 0f 3c
       -0.006777265 -0.003357954 -0.0054280474 0.00876232
0000d0 0e f4 ab bb 63 3a 04 3c 09 28 48 3a 4e 2e 05 bc
       -0.0052475994 0.008070561 0.000763536 -0.008128716
0000e0 a7 40 8a bb 1c af 67 bb 23 14 6b bb 86 1b 7c bb
       -0.004219133 -0.0035352176 -0.0035870157 -0.0038468554
0000f0 ca 1a ca bb f2 56 bd bb 46 e5 36 3a 45 6f 64 bb
       -0.0061677443 -0.005778187 0.00069769134 -0.003485636
000100 33 f6 99 ba 8f 7d b3 bb 58 6f 5b 3a 09 0a 8d bb
       -0.0011746347 -0.0054776142 0.00083707785 -0.004304175
000110 7e 25 10 3b 06 20 55 3c 3b f6 82 bb 57 f6 96 3b
       0.0021995003 0.013008123 -0.003996638 0.0046070027
000120 a3 91 c2 bb 32 f6 82 3b 6f b0 5e bb f4 12 93 bb
       -0.0059377714 0.003996634 -0.0033979674 -0.0044883434
000130 24 73 b0 bb 44 40 d0 bb e4 67 59 b9 f3 a7 d2 b9
       -0.0053848196 -0.0063553173 -0.00020733435 -0.00040179453
000140 aa 90 bf ba 94 ed 9e 3b 02 07 a7 3b 8e 08 86 3a
       -0.0014615257 0.004850099 0.005097271 0.0010225938
000150 94 95 6c bb 96 6a 93 bb 0d 30 c2 bb 70 3a ec bb
       -0.0036099898 -0.00449879 -0.0059261383 -0.0072091147
000160 af 39 09 3c 30 11 81 3a b6 57 15 3c 69 63 a7 3b
       0.008375569 0.0009847041 0.00911515 0.005108286
000170 d4 d1 f7 3b c1 2a 02 bb 2d 71 29 3c 6e 4b fb 3b
       0.0075628553 -0.001986191 0.010341925 0.007668904
000180 2f be 68 3b 30 58 15 3b e5 e3 92 bb f0 13 25 3c
       0.003551375 0.002278816 -0.0044827336 0.010075554
000190 5a 83 cf 3b c0 7e 81 bb 8d af 97 bb 7c 68 93 3b
       0.006332797 -0.0039518774 -0.0046290816 0.0044985395
0001a0 36 ca b8 3a 25 24 14 bb 3f d4 c8 3b 02 79 f1 bb
       0.001409835 -0.0022604552 0.0061288173 -0.0073691616
0001b0 c6 ee 08 3c 5f f3 12 3b 61 44 0b 3c 84 5a 6f 3b
       0.008357709 0.0022422893 0.0085001895 0.0036522457
0001c0 6d ee c4 3b 32 25 09 3c f2 83 a8 bb bf 50 28 3c
       0.006009868 0.008370684 -0.005142682 0.010273158
0001d0 43 b9 28 3c 53 ab 5c ba 54 4c 0e 39 d4 9b 6d bb
       0.010298076 -0.0008417863 0.0001357061 -0.003625621
0001e0 ad 4f c2 3a 91 c9 01 3c 17 b3 95 ba c9 0e ce ba
       0.0014824771 0.007921592 -0.0011421171 -0.0015720959
0001f0 98 a7 db 3b 39 b7 03 3c 87 f1 97 bb f0 ea bc bb
       0.0067033283 0.008039289 -0.0046369466 -0.0057653114
000200 b1 e9 dc bb 48 1e b3 3a 19 50 2d 3b f8 4f a7 3b
       -0.0067417254 0.0013665641 0.0026445447 0.0051059686
000210 f3 a2 88 3a 8e f8 45 3b 6d 00 21 3c f2 61 b1 bb
       0.0010424539 0.0030207965 0.009826762 -0.0054132873
000220 30 30 d1 bb 8b 19 73 3b 9a c9 8b bb c2 d0 09 3c
       -0.006383918 0.0037094082 -0.004265976 0.008411588
000230 c9 17 f3 3a b8 99 4d bb 82 59 21 bb 08 da 48 bb
       0.0018546517 -0.003137214 -0.0024620001 -0.0030647535
000240 0d 77 99 3b 38 0d a5 3b a4 bc 88 bb 8b e2 26 3c
       0.0046833814 0.005036976 -0.0041728783 0.010185848
000250 52 0d ae bb 70 bb 8b 3a 6d 63 cf 39 6a 68 82 bb
       -0.0053116465 0.0010660719 0.00039556195 -0.0039797323
000260 63 e2 e1 3a 65 3a 38 3b 56 17 89 bb 69 f7 49 bb
       0.0017233606 0.0028110978 -0.00418369 -0.0030817634
000270 a3 40 9d 3b d7 ef 36 3b 66 d3 39 3c 91 4f 0f 3c
       0.004798965 0.0027913952 0.011341905 0.008746997
000280 a9 0f 4a 3a 0f bf 8d 3b 29 4a f9 ba 95 55 00 3c
       0.0007708022 0.0043257545 -0.0019019294 0.007832904
000290 29 04 29 bb 75 bb 06 3c 29 03 0a 3c d7 e1 97 3a
       -0.0025789833 0.008223404 0.008423605 0.0011587691
0002a0 89 35 ce 3b 39 52 11 3c f8 0f d7 3b 27 21 1c 3c
       0.006293003 0.008869701 0.006563183 0.0095293885
0002b0 e5 38 b3 bb 2a 34 13 3c 16 90 a2 3b 4e 0b 4d 3b
       -0.005469429 0.008984605 0.004961024 0.0031287256
0002c0 34 39 61 bb 8e 77 c3 bb c2 48 83 bb e6 c9 8b bb
       -0.003436637 -0.0059651798 -0.004006476 -0.0042660115
0002d0 14 dc 1b bb ec 04 df 3b 2b 37 35 3b e5 f4 76 bb
       -0.00237823 0.0068060067 0.002765129 -0.003768259
0002e0 b2 3b 58 bb 12 b0 cf bb fc 07 4e ba 2c 34 f3 3b
       -0.0032994566 -0.006338128 -0.0007859466 0.007421991
0002f0 4a e1 e6 3b f1 01 15 bb db fd c5 bb 2b 37 f1 3b
       0.0070458995 -0.0022736753 -0.006042225 0.007361313
000300 85 b0 a3 3b 90 45 12 3c 79 15 0b bb 93 be 32 bb
       0.004995408 0.008927718 -0.0021222515 -0.0027274236
000310 8e 65 bd 3b d7 1e 76 bb 75 51 05 3b 9d 46 32 ba
       0.0057799285 -0.0037555003 0.0020342742 -0.00068006833
000320 a2 4a d9 3b 4e 30 37 bb bc 54 c7 bb 8e 9c 06 3b
       0.0066312114 -0.0027952376 -0.006083099 0.0020540091
000330 96 82 87 3b 97 7c 24 3b 56 8f 93 bb 42 c6 f9 ba
       0.00413544 0.0025098675 -0.004503171 -0.0019056278
000340 5e 38 94 ba 60 7d 96 3b 9a 09 d0 3b ef c4 76 3b
       -0.0011308303 0.0045925826 0.006348801 0.0037654003
000350 d4 e3 ab 3b 41 8d c0 3b fb 34 04 3c 93 c9 8d ba
       0.005245665 0.005876214 0.008069272 -0.001081752
000360 fb 85 07 3b 41 0e 9d b9 37 30 6b bb 3d e1 4e 3b
       0.0020679224 -0.00029955994 -0.0035886893 0.0031567358
000370 05 07 92 3b e9 e6 4c ba e7 93 92 3b 72 af bb 3b
       0.004456403 -0.0007816391 0.0044731977 0.005727702
000380 38 00 dc 3b d1 9d d7 bb d6 66 02 ba 09 20 bd ba
       0.0067138933 -0.0065800925 -0.000497443 -0.0014429103
000390 87 ad 63 3b 92 d5 42 bb 80 8f 15 39 0a 77 09 3b
       0.0034740882 -0.0029729349 0.00014263205 0.0020975494
0003a0 95 b7 a0 ba 77 f1 ef 3b eb 99 26 bb a5 05 61 bb
       -0.0012261743 0.007322486 -0.0025421332 -0.003433564
0003b0 1c 65 a9 bb 74 a1 e4 3b 2a 2a 76 bb ed 5b e6 3b
       -0.005169524 0.0069772545 -0.0037561753 0.0070300014
0003c0 ef 15 a6 b9 a2 a2 1b 3c 59 8c 4a ba 15 6d 84 bb
       -0.0003167833 0.009499224 -0.0007726602 -0.004041324
0003d0 7b c1 a4 3b de 90 9e bb c6 55 9d bb 94 fe 03 3c
       0.0050279475 -0.004839047 -0.0048014848 0.008056302
0003e0 c7 65 74 bb 71 53 8d 3b 78 b9 22 3c ca 75 57 36
       -0.003729211 0.0043129255 0.0099319145 3.2106059e-06
0003f0 bf 45 00 bc dc 09 cd 3b 80 e7 dc bb 22 a3 f8 3b
       -0.007829129 0.006257279 -0.006741464 0.0075878063
