Assets/Training/results/b_treasure_test80_Th64_Lr1e-4Bs4096Bs65536_EndDistanceReward_0.2deltaXZ_10deltaY_TP0.001/TreasureSearch/TreasureSearch-999938.onnx (onnx, 608683 bytes, 13 tensors)

65 f4 [68]
0.44003028 0.4955354 0.37627235 0.28725657 0.4154315 0.4998319 0.45432806 0.2691448
0.49502283 0.4799637 0.40762788 0.32022768 0.4769641 0.49992096 0.365603 0.27770236
0.49598998 0.47284156 0.4180557 0.3171234 0.46395415 0.49237964 0.29896325 0.30586413
0.45323208 0.499311 0.3879701 0.31113744 0.49862513 0.49881425 0.2562104 0.31843764
0.49199614 0.49905643 0.32394525 0.33080578 0.45155865 0.49093637 0.3217577 0.3053296
0.47571775 0.49918857 0.38439986 0.3340014 0.37472245 0.466145 0.22469932 0.25023344
0.4379794 0.4993684 0.25037792 0.29488397 0.38911211 0.49930257 0.024056079 0.18199463
0.43741876 0.48297867 0.03036747 0.2115346 0.42751092 0.4900827 0.027577214 0.17635472
0.42751092 0.49008304 0.027577216 0.17635463
00000000: a64b e13e d1b6 fd3e c5a6 c03e 4b13 933e
00000010: 70b3 d43e f7e9 ff3e b09d e83e 59cd 893e
00000020: a273 fd3e cdbd f53e 9ab4 d03e e2f4 a33e
00000030: a334 f43e a4f5 ff3e 5130 bb3e 012f 8e3e
00000040: 66f2 fd3e 4a18 f23e 660b d63e 005e a23e
00000050: 668b ed3e 2f19 fc3e b611 993e 399a 9c3e
00000060: 090e e83e b1a5 ff3e 04a4 c63e 684d 9f3e
00000070: cb4b ff3e 9564 ff3e 022e 833e 420a a33e
00000080: ebe6 fb3e 5384 ff3e 27dc a53e 605f a93e
00000090: b232 e73e 035c fb3e 6dbd a43e 2954 9c3e
000000a0: 4791 f33e a595 ff3e 0fd0 c43e 3b02 ab3e
000000b0: 9fdb bf3e 8faa ee3e 9417 663e 991e 803e
000000c0: d63e e03e 37ad ff3e 8931 803e 08fb 963e
000000d0: b439 c73e 96a4 ff3e 4111 c53c cd5c 3a3e
000000e0: 5af5 df3e fb48 f73e 33c5 f83c 879c 583e
000000f0: b6e2 da3e 1fec fa3e 9ce9 e13c 5596 343e
00000100: b6e2 da3e 2aec fa3e 9de9 e13c 4f96 343e

68 f4 [6]
2.1107454 3.9363055 0.011050644 0.0070711533 3.6415863 118.64691
00000000: 7416 0740 6eec 7b40 c30d 353c 22b5 e73b
00000010: c00f 6940 384b ed42

action_model._continuous_distribution.log_sigma f4 [1, 2]
-0.0012192886 -0.012319614
00000000: 89d0 9fba 35d8 49bc

action_model._continuous_distribution.mu.bias f4 [2]
-0.0038247437 0.005525664
00000000: 8da8 7abb a110 b53b

action_model._continuous_distribution.mu.weight f4 [2, 256]
0.0011503835 0.028512405 0.026456978 0.02815166 0.0014887099 -0.024302082 0.042158443 -0.020441648
-0.0035278604 -0.028811278 -0.01993703 -0.015167598 -0.02439916 -0.02909007 0.01923936 0.0021631243
-0.026858056 -0.032153517 -0.005392915 0.01140298 -0.0048530386 0.00016467721 -0.021063497 -0.033000864
-0.00784768 -0.010011061 -0.0121411 0.0025256758 -0.010165833 0.021357156 -0.04007109 0.009133415
-0.021551361 -0.02158099 -0.014098089 -0.005740498 0.012347488 -0.0062309694 0.03696296 -0.0069383793
-0.010222557 -0.00040248144 -0.015885279 0.03651519 0.032203835 -0.0054416065 0.014553441 -0.0021154268
0.026454296 0.008693527 0.0019397374 -0.013417712 0.009999539 -0.014868893 -0.0064612157 0.010781946
0.024344493 0.04358853 0.007928589 0.012430123 0.028094294 0.0038325335 -0.0015446667 -0.0004974731
0.0077253785 -0.007607821 0.029622452 0.012725634 0.026518125 -0.019156924 0.018452093 -0.020203447
-0.0057059606 0.017943665 0.017412342 0.014554016 -0.008111998 -0.004109722 0.0049487655 -0.022391185
-0.026870746 -0.028622918 0.009371355 0.017860325 -0.00024139567 0.015183836 0.03595501 0.0016410771
-0.02349415 -0.033248194 0.013928558 0.026171338 -0.007389026 0.020986777 -0.025151085 0.014413794
0.03631123 0.021846026 -0.0040254677 -0.00511142 -0.0076129343 -0.0178649 -0.0015452551 -0.015622614
-0.023411244 -0.015464311 -0.022125488 0.014693076 -0.0121363625 0.02522208 0.0023330376 -0.00048133862
0.0015509387 -0.01879927 -0.017501296 -0.00014276268 -0.008430844 -0.014506309 0.014962805 0.008790835
0.025846513 0.002506202 -0.0076678325 -0.0023022073 0.020166738 -0.01062439 0.015472504 0.006483269
0.007527979 0.018092908 0.011436074 -0.024917882 0.025048602 -0.029413408 -0.023230735 -0.0017584534
0.0151890265 0.02019495 0.00748776 0.0029480904 0.025998028 -0.0026397505 0.004590225 -0.008069315
0.0063173 0.0026487256 0.01648327 -0.008579336 0.0013835256 0.014422527 -0.012332192 -0.01093449
-0.013307323 0.013544287 -0.00511754 -0.0076883906 0.039259773 -0.04077182 -0.009144245 0.01283928
-0.007177731 0.027597424 -0.011847973 -0.017118452 0.015352914 0.0014115899 0.03606173 -0.028526451
-0.028914839 -0.028528469 0.0055127116 -0.03294941 0.0059431545 -9.139963e-06 -0.031136513 -0.030642845
-0.013932385 -0.0050366167 -0.0035066698 0.025534272 -0.011379723 -0.0120677 0.00025420947 -5.7921283e-05
-0.019494783 0.002219682 0.025387082 -0.00088753755 -0.003830732 -0.020782614 -0.003009273 -0.015421362
0.022606958 -0.0048652864 -0.031965017 -0.004054429 -0.030743644 0.03604259 0.009280692 0.012571554
-0.0074205687 -0.0094340425 0.01380968 0.030367441 -0.020377642 -0.031148368 0.030519152 0.013693401
0.01939729 0.029415634 0.017801773 -0.0025348638 -0.008636608 -0.016967753 -0.010278211 -0.024272602
-0.019604702 -0.0051048608 0.0067181634 -0.0033199615 0.034941077 -0.0013909494 -0.020748487 -0.015686847
-0.032935932 0.0022340212 -0.009427589 0.006344196 0.012665171 -0.0009006645 -0.0120299915 0.018299738
-0.020076556 -0.002398075 0.009493314 -0.002509469 0.014873405 0.009889173 0.002231091 -0.023527313
0.0005057203 0.0066617257 -0.013044857 -0.02489596 -0.016111216 0.013735916 -0.0056419023 -0.021910999
0.0059005506 -0.008201861 -0.009964291 -0.02796787 0.015088234 0.017741723 -0.00015223831 -0.015080716
00000000: 77c8 963a d992 e93c 4ebc d83c 4f9e e63c
00000010: d120 c33a 2915 c7bc 55ae 2c3d 3e75 a7bc
00000020: ad33 67bb a105 ecbc fb52 a3bc 8481 78bc
00000030: bfe0 c7bc 4c4e eebc dd9b 9d3c 34c3 0d3b
00000040: 6d05 dcbc 68b3 03bd 0db7 b0bb 91d3 3a3c
00000050: 3d06 9fbb 34ad 2c39 5b8d acbc ea2b 07bd
00000060: 8e93 00bc 6f05 24bc 77eb 46bc cf85 253b
00000070: 988e 26bc 34f5 ae3c 9521 24bd 52a4 153c
00000080: 7b8c b0bc 9eca b0bc acfb 66bc ca1a bcbb
00000090: 1e4d 4a3c 292d ccbb 7966 173d 585b e3bb
000000a0: 837c 27bc 2504 d3b9 d821 82bc f490 153d
000000b0: 2be8 033d 814f b2bb 8e71 6e3c f9a2 0abb
000000c0: aeb6 d83c 4c6f 0e3c c93e fe3a f7d5 5bbc
000000d0: 1bd5 233c a89c 73bc 9bb8 d3bb c2a6 303c
000000e0: 1a6e c73c e389 323d eae6 013c b7a7 4b3c
000000f0: 0126 e63c 3e2b 7b3b 6a76 caba db68 02ba
00000100: 2c25 fd3b 074b f9bb c9aa f23c 2d7f 503c
00000110: 8a3c d93c fbee 9cbc d828 973c b381 a5bc
00000120: 11f9 babb 98fe 923c 54a4 8e3c f873 6e3c
00000130: 30e8 04bc d9aa 86bb 4129 a23b b86d b7bc
00000140: 0a20 dcbc 9c7a eabc 508a 193c d14f 923c
00000150: 281f 7db9 a0c5 783c 9045 133d 6919 d73a
00000160: ce76 c0bc 422f 08bd 9b34 643c 4665 d63c
00000170: a51f f2bb 76ec ab3c a609 cebc d527 6c3c
00000180: 16bb 143d 70f6 b23c 12e8 83bb b37d a7bb
00000190: ec75 f9bb 6959 92bc 288a caba fef5 7fbc
000001a0: f0c8 bfbc 065e 7dbc 8340 b5bc 3abb 703c
000001b0: 98d7 46bc 899e ce3c e0e5 183b 2d5c fcb9
000001c0: de48 cb3a ed00 9abc e15e 8fbc 91b2 15b9
000001d0: 8621 0abc dfab 6dbc 8e26 753c 6f07 103c
000001e0: 11bc d33c 183f 243b 7142 fbbb a1e0 16bb
000001f0: b734 a53c ec11 2ebc 6380 7d3c 9a71 d43b
00000200: 44ad f63b 9437 943c 5f5e 3b3c 9620 ccbc
00000210: ba32 cd3c 63f4 f0bc 624e bebc e87b e6ba
00000220: 65db 783c e16f a53c e25b f53b c034 413b
00000230: d1f9 d43c aaff 2cbb 9969 963b 2935 04bc
00000240: 5a01 cf3b 3e96 2d3b ec07 873c 5890 0cbc
00000250: 6a57 b53a 764c 6c3c f60c 4abc 9326 33bc
00000260: f506 5abc dbe8 5d3c 09b1 a7bb e5ee fbbb
00000270: dbce 203d 5a00 27bd bed1 15bc d85b 523c
00000280: 2c33 ebbb fe13 e23c 001e 42bc ff3b 8cbc
00000290: ca8a 7b3c 1905 b93a 77b5 133d 4eb0 e9bc
000002a0: d0de ecbc 89b4 e9bc faa3 b43b f6f5 06bd
000002b0: cbbe c23b d857 19b7 0012 ffbc b406 fbbc
000002c0: a844 64bc 340a a5bb 28d0 65bb 402d d13c
000002d0: 0572 3abc 9ab7 45bc 6b47 8539 81f0 72b8
000002e0: 86b3 9fbc 1678 113b 92f8 cf3c a3a9 68ba
000002f0: 050d 7bbb 4d40 aabc 3937 45bb e1a9 7cbc
00000300: 3a32 b93c fb6c 9fbb c0ed 02bd 04db 84bb
00000310: 18da fbbc 65a1 133d 0b0e 183c ebf8 4d3c
00000320: 3e28 f3bb 3e91 1abc ff41 623c 24c5 f83c
00000330: 03ef a6bc dd2a ffbc 4d03 fa3c 495a 603c
00000340: 11e7 9e3c 0ef9 f03c 06d5 913c f51f 26bb
00000350: 8f80 0dbc f5ff 8abc f165 28bc 56d7 c6bc
00000360: 0a9a a0bc ad46 a7bb 0a24 dc3b b693 59bb
00000370: 601e 0f3d 8450 b6ba bbf8 a9bc b481 80bc
00000380: d4e7 06bd a868 123b 2d76 1abc f9e2 cf3b
00000390: 9481 4f3c 921a 6cba 7119 45bc 55e9 953c
000003a0: 9777 a4bc 0629 1dbb d889 1b3c e775 24bb
000003b0: 95af 733c 3306 223c 7f37 123b 5abc c0bc
000003c0: 5192 043a 9b4a da3b 19ba 55bc 9df2 cbbc
000003d0: abfb 83bc 9c0c 613c b5df b8bb b27e b3bc
000003e0: 6859 c13b 1961 06bc 4441 23bc e01c e5bc
000003f0: a434 773c 1757 913c 29a2 1fb9 1c15 77bc

network_body._body_endoder.seq_layers.0.bias f4 [256]
-0.0037295327 0.006196627 -0.002500016 0.011616786 0.008277022 0.014587262 -0.0004709866 0.002800464
-0.00784469 0.0013197395 -0.0057048746 -0.0025425397 0.0032138652 0.001386351 0.00906576 0.008138384
0.008517569 0.008705389 -0.0017234952 0.00908664 -0.006085946 0.0022658017 0.0020374926 -0.00039319292
0.012620273 0.0004574225 0.005825302 0.0052130814 0.00560534 0.01099277 0.009811893 0.0024420768
0.009281944 0.008351014 0.01158775 0.011064445 -0.012364925 0.013138098 0.0009385545 0.00688417
0.003364496 0.012471638 0.010374493 0.0042806943 0.0067708646 -0.0027560038 0.0048655514 0.011620747
0.018688146 -0.0038409766 0.000493196 -0.014178309 -0.00074380543 0.0031608718 0.009215132 0.018965885
0.011338225 0.011735829 0.017005987 0.00021954448 0.013838543 0.002328293 0.0036224984 0.00049503124
0.002053621 0.012069267 0.015120677 0.009005462 0.009910544 -0.0028676596 0.011458978 0.004325451
0.0047179125 0.0034519413 0.009233979 0.0071080355 -0.004867371 0.019281339 0.013472357 0.007720887
0.0016111451 0.00056565687 0.010421163 0.0011116917 -0.0021003922 0.0039557847 0.007938671 0.005003605
0.008467631 -0.008308952 -0.0040857065 -0.0010004644 0.009352682 0.013974778 0.004757766 0.0066520283
0.010900309 -0.0014451027 -0.00614916 -0.014843239 0.0058176713 -0.0027922206 0.008856326 0.009111715
0.0038071007 0.01631788 -0.008096946 0.007716675 -0.005800747 -0.00038605696 0.012127626 0.010058216
-0.0014037007 -0.0009086408 0.013733771 0.0023009726 0.0073389322 -0.006253546 0.0037885287 0.003922323
-0.01241316 0.011904413 0.02072699 0.0109112905 0.003520719 0.0069503733 0.00671342 -0.008910081
0.0073110815 0.0027918776 0.002512656 0.00614634 0.009909358 0.011354396 0.009753292 0.017540382
0.0053591374 -0.00081751624 0.00790106 -0.0026824751 0.016980141 0.01300365 0.0006545806 0.009929331
0.0048005413 0.012159223 -0.0142831225 0.0014202766 0.005525616 0.016836744 0.020380035 0.014975792
0.012549428 0.003191095 0.00792372 0.0086106965 0.008112538 -0.004608756 0.017567659 0.0019274432
-0.013796037 0.007030923 0.0058362414 0.012732714 -0.007659354 -0.003939441 0.016322175 0.018290177
0.011855715 0.012384923 0.0005749142 0.019396339 -0.0035522233 0.00904538 0.004336776 0.00799511
0.00851528 0.013415209 0.011032798 0.011962181 0.010826871 0.016632803 0.011385671 0.0055579627
0.013126445 0.019745326 0.003755845 0.0034978318 0.006379753 0.0042919004 0.006687259 -0.0007481984
-0.0016538149 0.008140249 -0.0049194014 -0.0021839621 -0.0054494385 0.0068214843 0.00884596 0.018498458
-0.00789205 -0.002241065 0.0037002182 0.0017560842 0.004078331 0.00258715 -0.005506445 0.013979639
0.010478675 -0.017450549 0.0053780666 -0.009566478 0.0004565126 0.010680518 0.017649872 0.011824581
0.009733307 0.0012274287 0.010478057 0.010043926 0.0023651533 0.013940731 0.006582915 0.009660448
0.0073856045 0.0026379223 0.009548885 0.0058167023 0.009893911 0.00927747 0.0057317386 0.012381549
0.013618194 0.00473897 0.00090998074 0.018570771 0.020651828 -0.010759467 0.007238331 0.012358168
0.0014514046 0.012102029 0.013296321 0.0053655263 0.019772956 -0.0038168682 -0.0014704186 0.019171553
-0.0008571065 0.009810401 -0.0067834547 0.0072577195 -0.00474675 0.01309444 -0.010253841 0.013041133
00000000: 2d6b 74bb 130d cb3b 4fd7 23bb 5554 3e3c
00000010: 599c 073c 69ff 6e3c c0ee f6b9 fd87 373b
00000020: 0487 00bc 1cfb ac3a f5ef babb bda0 26bb
00000030: b69f 523b 38b6 b53a 8e88 143c db56 053c
00000040: 468d 0b3c 0ca1 0e3c e7e6 e1ba 21e0 143c
00000050: 9e6c c7bb d87d 143b 7487 053b 7625 ceb9
00000060: 43c5 4e3c 35d2 ef39 2de2 be3b 7fd2 aa3b
00000070: 00ad b73b 051b 343c 10c2 203c 400b 203b
00000080: 4b13 183c b1d2 083c 8cda 3d3c a547 353c
00000090: 4196 4abc 2d41 573c 5409 763a 9b94 e13b
000000a0: e07e 5c3b d755 4c3c c7f9 293c 1145 8c3b
000000b0: 21de dd3b 129e 34bb 346f 9f3b f264 3e3c
000000c0: e217 993c e5b8 7bbb d349 013a 234c 68bc
000000d0: f0fb 42ba a126 4f3b 11fb 163c 585e 9b3c
000000e0: f6c3 393c a247 403c 2450 8b3c 8635 6639
000000f0: 0ebb 623c 4696 183b 7067 6d3b fcc4 013a
00000100: 0b96 063b 2dbe 453c b7bc 773c a58b 133c
00000110: d65f 223c 58ef 3bbb 70be 3b3c 83bc 8d3b
00000120: b898 9a3b f739 623b 1d4a 173c 86ea e83b
00000130: 787e 9fbb e6f3 9d3c 29bb 5c3c 7fff fc3b
00000140: 0f2d d33a 9748 143a 87bd 2a3c 2fb6 913a
00000150: bca6 09bb 879f 813b 3311 023c 48f5 a33b
00000160: d2bb 0a3c 4522 08bc 64e1 85bb 0422 83ba
00000170: fe3b 193c 78f6 643c 09e7 9b3b 42f9 d93b
00000180: 3697 323c 9a69 bdba e57e c9bb 0f31 73bc
00000190: 2aa2 be3b b0fd 36bb 201a 113c 4d49 153c
000001a0: 8d80 793b 13ad 853c 0ea9 04bc 29dc fc3b
000001b0: 3114 bebb b067 cab9 f3b2 463c 37cb 243c
000001c0: 61fc b7ba da31 6eba 9c03 613c eacb 163b
000001d0: 6d7b f03b 8cea ccbb f748 783b d586 803b
000001e0: 9160 4bbc ba0a 433c a6cb a93c 45c5 323c
000001f0: ddbb 663b f5bf e33b 40fc db3b 97fb 11bc
00000200: cc91 ef3b eff7 363b 5fab 243b 3d67 c93b
00000210: dc5a 223c ca07 3a3c 46cc 1f3c d9b0 8f3c
00000220: b49b af3b 964e 56ba 7373 013c 77cc 2fbb
00000230: f019 8b3c 430d 553c 2998 2b3a a2ae 223c
00000240: dc4d 9d3b 7a37 473c c203 6abc 9328 ba3a
00000250: 3a10 b53b 36ed 893c 08f4 a63c 065d 753c
00000260: 1e9c 4d3c b121 513b 7ed2 013c e113 0d3c
00000270: 73ea 043c 0c05 97bb 0dea 8f3c 43a2 fc3a
00000280: c608 62bc a863 e63b f13d bf3b e09c 503c
00000290: 51fb fabb 6d16 81bb 15b6 853c 48d5 953c
000002a0: 793e 423c 22ea 4a3c d7b5 163a 12e5 9e3c
000002b0: 6bcc 68bb 1333 143c 841b 8e3b ecfd 023c
000002c0: ac83 0b3c 77cb 5b3c e9c2 343c 06fd 433c
000002d0: 3063 313c 8441 883c f78a 3a3c 921f b63b
000002e0: 4d10 573c f3c0 a13c 9f24 763b e13b 653b
000002f0: 3f0d d13b 12a3 8c3b cb20 db3b bf22 44ba
00000300: d2c4 d8ba ae5e 053c ee32 a1bb ce20 0fbb
00000310: 3491 b2bb c286 df3b a5ee 103c 148a 973c
00000320: a84d 01bc d5de 12bb 5c7f 723b 682c e63a
00000330: 85a3 853b 2d8d 293b 696f b4bb db0a 653c
00000340: c0ae 2b3c 74f4 8ebc 7e3a b03b b8bc 1cbc
00000350: 1558 ef39 57fd 2e3c 7796 903c e3bb 413c
00000360: 7378 1f3c ace1 a03a 28ac 2b3c 478f 243c
00000370: b000 1b3b aa67 643c 7eb5 d73b db46 1e3c
00000380: f102 f23b fee0 2c3b ed72 1c3c 099a be3b
00000390: 121a 223c 8800 183c 4fd1 bb3b fbdb 4a3c
000003a0: d81e 5f3c 5d49 9b3b c68b 6e3a bb21 983c
000003b0: 062e a93c 7a48 30bc 852f ed3b ea79 4a3c
000003c0: 0f3d be3a 9747 463c d0d8 593c 4cd1 af3b
000003d0: e5fa a13c 6c24 7abb 10bb c0ba a90d 9d3c
000003e0: 72af 60ba cebb 203c be47 debb 2ad2 ed3b
000003f0: a08a 9bbb 108a 563c baff 27bc 7aaa 553c

network_body._body_endoder.seq_layers.0.weight f4 [256, 74]
-0.022711975 0.21897288 0.026232123 -0.12577397 0.2145132 0.24332659 0.054024942 -0.18735524
-0.0308108 -0.23518695 0.12309976 -0.17632632 -0.03569503 -0.22867942 -0.09240494 -0.011118395
-0.011792255 -0.118707746 -0.028368399 0.028890116 -0.2862842 -0.03007784 0.024379782 0.18943813
0.10149823 0.013978432 -0.02646576 -0.0692132 0.05469084 0.14190497 -0.113120995 -0.2655792
0.04014305 -0.16756186 0.06725104 0.16272521 -0.01036081 -0.07157913 0.13368292 0.076620705
-0.046127766 0.10345292 0.213626 -0.13079436 0.03710369 -0.068715975 -0.011698827 0.2882582
-0.17067724 0.0050425283 0.14922252 -0.03706867 0.018715573 -0.08790171 -0.063144535 -0.018871147
-0.088095054 -0.090753905 -0.03454844 -0.17185503 -0.015394026 0.026437642 -0.12230996 -0.2248601
0.12926237 -0.1964377 0.02796717 -0.0077390233 0.065356076 -0.0507748 -0.17378499 0.3159528
-0.20036775 -0.007730591 0.14083214 0.1067638 -0.14682442 0.16160156 0.18761873 0.010681852
-0.23764895 -0.054191545 -0.01667264 -0.0726082 0.033816256 -0.15258543 0.21857148 0.057137847
-0.11222294 0.045771435 -0.024161015 -0.09843491 -0.08175068 0.15824819 -0.09204701 0.002349612
0.0052583627 -0.093050994 -0.0765361 0.08950526 -0.05719745 -0.0003552669 0.048556585 0.06886808
-0.014968934 -0.023738502 -0.16498493 -0.19045198 -0.10919042 -0.021432158 -0.030814752 0.02393866
-0.023734465 -0.10211559 0.054962017 -0.18727477 0.03895383 0.2175696 -0.13231833 -0.1184161
0.07455236 0.01999492 0.05766739 0.030616976 0.06649422 0.003736879 -0.031575207 0.07768059
-0.08994373 0.17328599 0.030625578 0.07407583 -0.03782302 0.13222787 -0.28705192 0.018775001
-0.03945176 -0.06919549 -0.13862804 0.08725954 0.016796997 0.15814473 -0.3209895 0.0142364055
-0.032002024 0.093747474 -0.15528542 0.016274543 0.020087231 0.0053757825 -0.16545546 0.084937856
0.12158605 -0.0259604 -0.044379577 0.07549953 -0.13379627 -0.049977068 0.07360961 -0.019506073
-0.14812855 0.048958536 -0.14416936 -0.04367352 -0.11126311 -0.019226462 0.026744071 0.025144067
0.08577523 -0.024261432 0.14726399 0.048037793 0.10004206 -0.16475712 0.0360135 -0.15869166
0.053161107 0.08403294 0.008408971 0.13034077 -0.008905753 -0.017390864 0.09080918 0.045706615
-0.12888733 -0.010304624 0.0067922804 -0.05963852 -0.09445581 -0.031857435 0.055188216 -0.048955847
-0.030137217 0.00089159125 -0.07613748 0.01535743 0.016469702 0.090188734 -0.14485699 -0.09753417
-0.07214438 0.21788253 -0.19800182 0.08826133 -0.07570121 0.05312941 0.036206257 0.10120787
0.1226332 -0.14634836 0.1672135 0.07140958 -0.042012118 -0.06434199 -0.06156204 0.020414125
-0.030757342 0.18399051 -0.009086647 -0.035187077 -0.047974765 -0.20485236 -0.10809323 -0.080190994
0.045187708 -0.079057075 -0.05236712 0.048623476 0.1397887 -0.019346852 0.03734581 -0.042709384
0.07167327 0.09092086 0.11614267 0.08974124 -0.074917145 -0.085710146 0.2032855 -0.03070821
-0.13442706 0.20448667 -0.21497466 -0.03957058 -0.11693405 0.2237906 -0.08237871 0.022968963
0.07756725 0.11110911 -0.015255371 0.042706747 0.0072297896 0.09854551 0.07675864 -0.22585772
00000000: 770e babc 6d3a 603e c0e4 d63c e4ca 00be
00000010: 59a9 5b3e 9b2a 793e 4249 5d3d 0dda 3fbe
00000020: ee66 fcbc d9d4 70be ba1b fc3d e38e 34be
00000030: f434 12bd f02a 6abe cd3e bdbd ee29 36bc
00000040: 4d34 41bc 0c1d f3bd d864 e8bc f7aa ec3c
00000050: d893 92be cd65 f6bc 1cb8 c73c 12fc 413e
00000060: 4ede cf3d cb05 653c b9ce d8bc a6bf 8dbd
00000070: 8103 603d 894f 113e fbab e7bd fff9 87be
00000080: 0a6d 243d 5695 2bbe eaba 893d 70a1 263e
00000090: 63c0 29bc 1498 92bd 2de4 083e 51eb 9c3d
000000a0: 78f0 3cbd 20df d33d c6c0 5a3e f5ee 05be
000000b0: 0afa 173d f6ba 8cbd 70ac 3fbc 9496 933e
000000c0: 04c6 2ebe cb3b a53b cacd 183e 51d5 17bd
000000d0: 6751 993c d005 b4bd ec51 81bd aa97 9abc
000000e0: 2e6b b4bd 2fdd b9bd aa82 0dbd c4fa 2fbe
000000f0: 3a37 7cbc c193 d83c a57d fabd ba41 66be
00000100: 5b5d 043e f726 49be 681b e53c a297 fdbb
00000110: 68d9 853d 3df9 4fbd b1f4 31be 91c4 a13e
00000120: 342d 4dbe e650 fdbb 4d36 103e fba6 da3d
00000130: 2459 16be e17a 253e 201f 403e ef02 2f3c
00000140: 3f5a 73be f4f7 5dbd 0f95 88bc 9cb3 94bd
00000150: ea82 0a3d 5b3f 1cbe 34d1 5f3e 6009 6a3d
00000160: 24d5 e5bd d47a 3b3d 52ed c5bc 3e98 c9bd
00000170: e76c a7bd d00b 223e 2583 bcbd f3fb 193b
00000180: 584e ac3b 8591 bebd f5be 9cbd 894e b73d
00000190: e047 6abd 1e43 bab9 45e3 463d b50a 8d3d
000001a0: 4240 75bc 3f77 c2bc cff1 28be d805 43be
000001b0: 3a9f dfbd 7e92 afbc 386f fcbc 021b c43c
000001c0: c86e c2bc fa21 d1bd da1f 613d f5c4 3fbe
000001d0: 0d8e 1f3d 91ca 5e3e 757e 07be 2484 f2bd
000001e0: e8ae 983d 63cc a33c a434 6c3d 74d0 fa3c
000001f0: 1f2e 883d 6de6 743b 0155 01bd 0017 9f3d
00000200: 6b34 b8bd e271 313e 7ee2 fa3c 12b5 973d
00000210: 50ec 1abd be66 073e 78f8 92be 08ce 993c
00000220: 2b98 21bd 5db6 8dbd 82f4 0dbe 21b5 b23d
00000230: db99 893c b1f0 213e bc58 a4be d03f 693c
00000240: 8e14 03bd adfe bf3d 2403 1fbe 3152 853c
00000250: fa8d a43c 5527 b03b 286d 29be e6f3 ad3d
00000260: 1b02 f93d e8aa d4bc 5cc7 35bd 7f9f 9a3d
00000270: e401 09be c1b4 4cbd a3c0 963d 33cb 9fbc
00000280: 03af 17be bf88 483d 22a1 13be 01e3 32bd
00000290: eadd e3bd d080 9dbc 6216 db3c eefa cd3c
000002a0: ecaa af3d e9bf c6bc 5fcc 163e 47c3 443d
000002b0: dae2 cc3d 17b6 28be e482 133d 1180 22be
000002c0: 76bf 593d 7619 ac3d c8c5 093c 0d78 053e
000002d0: 6fe9 11bc 4977 8ebc 2afa b93d dc36 3b3d
000002e0: 0afb 03be bad4 28bc c791 de3b 8547 74bd
000002f0: 0c72 c1bd f17c 02bd 0a0d 623d ed85 48bd
00000300: 53e2 f6bc adb9 693a f8ed 9bbd bb9d 7b3c
00000310: 78eb 863c dfb4 b83d 6455 14be ffbf c7bd
00000320: 6fc0 93bd 991c 5f3e fdc0 4abe 5bc2 b43d
00000330: 3c09 9bbd 399e 593d 034d 143d 1246 cf3d
00000340: 1d27 fb3d 58dc 15be 043a 2b3e 303f 923d
00000350: e614 2cbd bcc5 83bd 7a28 7cbd 863b a73c
00000360: d2f6 fbbc 0268 3c3e 29e0 14bc 5320 10bd
00000370: 3081 44bd d1c4 51be fc5f ddbd 2d3b a4bd
00000380: bf16 393d ade8 a1bd e87e 56bd 6929 473d
00000390: c524 0f3e 4a7d 9ebc ecf7 183d 09f0 2ebd
000003a0: 6fc9 923d b734 ba3d 35dc ed3d 41ca b73d
000003b0: 296e 99bd cd88 afbd 132a 503e c98f fbbc
000003c0: 3fa7 09be f464 513e 5122 5cbe c314 22bd
000003d0: 1f7b efbd 5d29 653e 2bb6 a8bd 6829 bc3c
000003e0: 94db 9e3d 2c8d e33d aaf1 79bc 45ed 2e3d
000003f0: dfe7 ec3b 3ad2 c93d a233 9d3d 3f47 67be

network_body._body_endoder.seq_layers.2.bias f4 [256]
-0.002738427 0.009458264 0.0043491465 -0.0022460518 0.0040951865 0.009290804 0.0042131986 0.008440003
0.0072051454 0.0083618965 0.004488718 -0.0046154675 0.0030222265 0.00403064 0.0034300275 0.0072244937
-0.003480724 -0.00023357863 0.004290353 0.0037495526 0.008101231 0.013350195 0.0015303 0.0034909653
0.0058741053 0.0010436571 0.012500219 0.010469918 0.0035229712 0.008258767 0.013241225 0.0075981715
0.0014105174 -0.00057233864 0.007072386 0.011963473 -0.006602506 0.017914038 0.015634075 -0.008194267
0.009854586 0.0024548261 0.012245573 0.0030057866 0.0044016717 0.00615932 0.007599279 0.006944733
0.010062494 0.009376438 0.01188725 0.0005126473 -0.0070112874 0.0012055374 0.005011244 0.010147133
-0.0026348908 0.005526536 0.012951134 -0.0011856547 0.017430825 -0.0016761303 0.0077745533 0.007719611
0.013258458 -0.013182909 0.007187417 0.0106789395 0.009426546 0.004346715 0.0048918496 -0.0025041956
0.0031022953 0.01790442 0.012114555 0.0018609088 0.0031688532 -0.0025635418 0.0015827207 0.0025087125
-0.004498501 0.011192454 0.01459879 -0.00089767313 -0.0019361678 -0.010624628 -0.003092407 0.016384162
0.01203786 0.01274306 0.01953703 0.00027348765 0.005802728 0.00837295 -0.0053621116 0.010878239
-0.009082061 0.0041295267 0.009100622 0.015276664 0.006823958 0.0063270186 0.010775633 -0.00093252794
0.015991399 0.007204506 -0.0062104124 -0.006026488 -0.0020261146 -0.0031349168 0.0019457006 0.01228322
0.009154793 0.00061052653 -0.012069531 0.007606381 0.0034451527 0.006723376 0.0075933607 -0.005846196
0.0053544478 0.0023132788 0.0108245965 0.0072235707 0.0059794006 0.015854409 -0.006656493 -0.006621578
0.012352971 0.0061587626 -0.00054073374 0.012127204 0.011477399 0.01429116 -0.0003932005 0.008886975
-0.0019933735 -0.0057491194 -0.0010021456 -0.0031009428 0.0035554643 0.014400615 0.007176715 -0.008352855
0.0137653975 0.008706484 0.008851022 -0.0066769426 0.004645844 0.002889882 0.012104641 0.003236174
0.0070039253 0.016522387 0.0067676674 0.0014174891 -0.0036176508 0.0052507618 0.006106781 0.01447089
0.0003962142 0.0013845565 0.010603843 0.0139650805 0.004856186 0.010519741 0.0035300201 -0.010988821
-0.0024510717 0.004860614 0.008893907 -0.0050850487 -0.008953343 -0.0003002523 0.0021268015 0.0070833187
0.0031847453 0.0065930164 -0.006333427 0.00023908298 0.013677707 -0.0057364213 0.013832798 0.018078478
0.010646165 0.0065116817 -0.010360749 0.00578701 0.01025645 0.010870266 0.0023079016 0.017377302
0.0017906247 0.0032022311 0.010704583 0.0034589113 0.011880636 -0.011316124 0.008068623 0.0028496238
0.010476183 -0.00011154955 0.003147803 -0.0027454973 -0.010769033 -0.0013237175 0.010364097 0.00595468
0.0069650053 0.0015639422 0.003931836 0.018264348 -0.0018607137 -0.0046274816 -0.0069013047 0.011022986
0.0030767168 -0.0024375024 0.0004614981 0.010750533 0.005714897 0.017000202 -0.0037830411 0.0077431477
0.010155597 0.0041700723 0.009684348 -0.0045481543 0.0022333765 0.0023727878 0.0104723675 0.011958751
0.00013758935 -0.009335966 0.0011568727 -0.0013488833 0.008524702 0.0082358355 -0.00053055986 0.00974482
0.014149439 0.001927532 0.0005863794 -0.0027904962 0.0134454835 -0.0006000215 0.0071726926 0.008357442
0.0015259425 0.008647273 0.0004458362 0.0023714034 0.009600409 0.013202643 0.0027410414 0.006318702
00000000: 2e77 33bb d6f6 1a3c 4983 8e3b 7f32 13bb
00000010: ea30 863b 7538 183c df0e 8a3b f047 0a3c
00000020: 2419 ec3b 5600 093c 1916 933b 593d 97bb
00000030: 8c10 463b 7513 843b 50ca 603b 72bb ec3b
00000040: dc1c 64bb c9ec 74b9 1796 8c3b 0ebb 753b
00000050: 07bb 043c c7ba 5a3c 5994 c83a aec8 643b
00000060: 917b c03b 52cb 883a b8cd 4c3c 058a 2b3c
00000070: a6e1 663b c84f 073c b9f1 583c 15fa f83b
00000080: 1ce1 b83a ff08 16ba 79bf e73b 7102 443c
00000090: d659 d8bb 76c0 923c 0813 803c 3f41 06bc
000000a0: 2175 213c 26e1 203b a8a1 483c bbfc 443b
000000b0: e63b 903b 1fd4 c93b 5f03 f93b a590 e33b
000000c0: 29dd 243c a29f 193c bdc2 423c 2e63 063a
000000d0: f1be e5bb 1f03 9e3a 5d35 a43b 2940 263c
000000e0: 22ae 2cbb f217 b53b fe30 543c f867 9bba
000000f0: 17cb 8e3c 9ab1 dbba aec1 fe3b caf4 fc3b
00000100: 013a 593c 21fd 57bc 6c84 eb3b b8f6 2e3c
00000110: cd71 1a3c e36e 8e3b cf4b a03b 6e1d 24bb
00000120: e14f 4b3b 4aac 923c 207c 463c bde9 f33a
00000130: 89ac 4f3b 1801 28bb 4b73 cf3a 3669 243b
00000140: 2968 93bb 8e60 373c c32f 6f3c d351 6bba
00000150: 03c7 fdba eb12 2ebc fba9 4abb 1438 863c
00000160: 723a 453c 44c8 503c 1f0c a03c e462 8f39
00000170: cf24 be3b b32e 093c a7b4 afbb a43a 323c
00000180: edcc 14bc fb50 873b c61a 153c f94a 7a3c
00000190: 829b df3b e152 cf3b 488c 303c e474 74ba
000001a0: 6500 833c c713 ec3b b780 cbbb d879 c5bb
000001b0: 90c8 04bb 2d73 4dbb e106 ff3a 8f3f 493c
000001c0: fcfd 153c be0b 203a 48bf 45bc f33e f93b
000001d0: 12c8 613b c44f dc3b bad1 f83b 7291 bfbb
000001e0: 5d74 af3b 619a 173b a659 313c b4b3 ec3b
000001f0: d9ee c33b 1be1 813c b61e dabb d2f9 d8bb
00000200: 1e64 4a3c 72cf c93b 07c0 0dba 2eb1 463c
00000210: b30b 3c3c 7825 6a3c 7a26 ceb9 ad9a 113c
00000220: 42a3 02bb 1c63 bcbb 6d5a 83ba 3039 4bbb
00000230: cb02 693b 8ff0 6b3c a62a eb3b 6ada 08bc
00000240: 4388 613c a4a5 0e3c e103 113c 41ca dabb
00000250: 2a3c 983b 2d64 3d3b 8b52 463c fd15 543b
00000260: 2f81 e53b f559 873c 4fc3 dd3b 0bcb b93a
00000270: 1c16 6dbb 950e ac3b 641b c83b 5017 6d3c
00000280: f8ba cf39 027a b53a bebb 2d3c cbcd 643c
00000290: a420 9f3b fe5a 2c3c e957 673b 750a 34bc
000002a0: 29a2 20bb c945 9f3b c0b7 113c 7ba0 a6bb
000002b0: 0bb1 12bc 2e6b 9db9 cf61 0b3b 2f1b e83b
000002c0: 29b7 503b 3b0a d83b a388 cfbb 59b2 7a39
000002d0: 7618 603c 97f8 bbbb f6a2 623c 5119 943c
000002e0: 416d 2e3c f25f d53b 22c0 29bc f5a0 bd3b
000002f0: ab0a 283c 3319 323c 2a40 173b d85a 8e3c
00000300: 65b3 ea3a 86dc 513b 4662 2f3c e7ae 623b
00000310: 00a7 423c 4467 39bc 4232 043c c1c0 3a3b
00000320: 4ca4 2b3c b5ef e9b8 5f4b 4e3b cded 33bb
00000330: 9970 30bc 9780 adba 2cce 293c 7a1f c33b
00000340: b33a e43b 31fd cc3a a2d6 803b 1d9f 953c
00000350: 31e3 f3ba 21a2 97bb 5724 e2bb c199 343c
00000360: bea2 493b 81be 1fbb 3af5 f139 0123 303c
00000370: 0844 bb3b 0244 8b3c e6ec 77bb 3bba fd3b
00000380: a963 263c 1aa5 883b 19ab 1e3c af08 95bb
00000390: d75d 123b c680 1b3b 4b94 2b3c a3ee 433c
000003a0: dc45 1039 e1f5 18bc 35a2 973a 03cd b0ba
000003b0: 31ab 0b3c 99ef 063c 4515 0bba bda8 1f3c
000003c0: 0cd3 673c 3ea5 fc3a 41b7 193a c2e0 36bb
000003d0: 724a 5c3c c34a 1dba e808 eb3b a7ed 083c
000003e0: 2202 c83a 4bad 0d3c 1fbf e939 8c69 1b3b
000003f0: 094b 1d3c e64f 583c 0ba3 333b 1d0d cf3b

network_body._body_endoder.seq_layers.2.weight f4 [256, 256]
0.012636264 -0.010351732 0.0006970413 0.14033552 -0.03675601 -0.011025322 -0.0012915151 0.04882975
-0.043833625 0.13389437 0.052468248 -0.022134818 0.050909173 -0.01887164 -0.093868844 0.030251822
0.032567464 0.033971965 0.082768925 0.06836 0.061640624 0.022494642 0.05169342 0.014442353
0.027388848 0.09128142 0.004572497 -0.000983609 0.058225002 -0.07499607 -0.0044388026 -0.03807721
0.1299909 7.293842e-05 -0.104639605 -0.09188657 0.034637425 0.016854849 0.06506618 -0.14967482
0.090295434 -0.071373224 -0.029557621 -0.049178913 0.049101766 -0.015331649 0.046102457 -0.033038326
0.03228602 0.08044825 -0.017017135 0.109389246 0.03775347 -0.0337403 0.009228602 -0.009240791
0.009825799 -0.045564976 0.07467381 -0.02648475 -0.027655693 0.024356171 0.04040397 0.01933277
-0.0037248705 -0.04121266 0.0081117945 -0.07155917 0.06617421 -0.06862562 -0.024198981 0.040276434
-0.039309956 -0.014186884 0.0074960734 0.007297027 -0.019572362 0.030564597 0.15954083 -0.024779623
-0.09943384 0.030633992 -0.041596726 -0.048615344 0.0287273 0.0006657746 0.09378289 -0.07488966
-0.021426711 -0.04031897 0.058268603 -0.015525065 0.11505833 -0.09592214 -0.022877188 -0.026578963
-0.039616846 -0.054226223 0.04180414 0.0689603 -0.0055571767 0.03076086 0.081043504 -0.03517843
0.059037607 0.0014688988 0.05055817 -0.06800069 0.107103445 -0.043499123 0.04578134 0.060606223
-0.091811955 -0.076867364 0.047672704 0.083500594 0.09638529 0.11451883 0.112741485 0.041207034
-0.039496046 -0.07188475 -0.021213174 -0.08424467 -0.053475223 0.03779653 -0.01982799 -0.1163382
0.0076535316 0.14426963 -0.12957217 -0.0049924 0.067557365 -0.15061672 -0.11943635 0.024062367
-0.0012516739 0.032062575 0.06602016 0.021877158 -0.052403234 -0.04365187 0.075430155 0.107683755
-0.08488849 -0.01693437 -0.026586983 -0.110792845 -0.06077844 0.10139368 -0.08571355 0.022530012
-0.02254078 0.101851664 -0.012660153 0.15684724 0.009666984 0.0075458293 0.07017864 0.043754235
-0.034133606 0.018131614 -0.054809902 -0.0823609 0.05288879 -0.031059258 0.052152507 -0.09757599
0.024561988 0.0405434 0.01860481 -0.10164727 0.059001353 -0.008654071 0.034359436 -0.05167397
0.061318617 0.14760038 0.009267427 -0.06427752 0.09683255 -0.05974848 -0.10508245 0.025366982
0.0026510952 -0.0837764 -0.015411243 -0.03973775 -0.044076692 0.016637549 -0.067057736 -0.0708777
0.021645952 0.07627646 -0.016711969 -0.1219915 0.10653228 -0.09595667 -0.1038582 -0.045259513
-0.08365559 0.01477399 -0.011122283 -0.02183437 -0.012529801 -0.0030999081 -0.007252372 0.0019794125
-0.006279414 0.047846276 -0.010238294 -0.01554813 -0.051016234 -0.04884192 -0.028631978 0.043928463
-0.027466122 0.03180035 -0.0053809057 0.013292736 0.060905486 -0.004118459 0.01390202 -0.042578913
0.012595158 -0.14532271 -0.03760514 -0.020407489 -0.0025752515 -0.049908414 0.052371085 -0.05332295
-0.085714206 -0.012012159 0.035334196 -0.04436566 0.0135310665 0.012770386 0.050656863 0.0043746894
-0.009847718 -0.031438604 0.029946333 -0.007018899 0.0010249722 0.15333682 -0.02881134 -0.019744275
0.014960811 -0.07464863 -0.048867546 0.017524768 -0.046984818 -0.017206615 -0.061763935 -0.103194624
00000000: 5508 4f3c 509a 29bc a6b9 363a 1db4 0f3e
00000010: 788d 16bd 8da3 34bc 0e48 a9ba b401 483d
00000020: e38a 33bd 9b1b 093e f2e8 563d 1454 b5bc
00000030: 2386 503d b398 9abc 4f3e c0bd abd2 f73c
00000040: 7665 053d 3026 0b3d c182 a93d 5400 8c3d
00000050: e17a 7c3d af46 b83c 7bbc 533d 9e9f 6c3c
00000060: 945e e03c c1f1 ba3d e3d4 953b 71ec 80ba
00000070: 577d 6e3d 8a97 99bd 6073 91bb d9f6 1bbd
00000080: 561c 053e 84f6 9838 4a4d d6bd 072f bcbd
00000090: f9df 0d3d 2e13 8a3c 6b41 853d 5b44 19be
000000a0: d0ec b83d 202c 92bd d322 f2bc d46f 49bd
000000b0: ef1e 493d 9931 7bbc eed5 3c3d 3253 07bd
000000c0: 593e 043d 0dc2 a43d 8567 8bbc 7807 e03d
000000d0: 62a3 1a3d 4533 0abd 9033 173c b066 17bc
000000e0: 63fc 203c 57a2 3abd 95ee 983d 8cf6 d8bc
000000f0: 318e e2bc 9886 c73c a27e 253d c25f 9e3c
00000100: f51c 74bb 9bce 28bd 55e7 043c 9d8d 92bd
00000110: 5886 873d 978b 8cbd f13c c6bc e7f8 243d
00000120: 7a03 21bd 1b70 68bc 9fa1 f53b e61b ef3b
00000130: 3856 a0bc 9b62 fa3c ac5e 233e a3fe cabc
00000140: f8a3 cbbd 23f4 fa3c 5461 2abd e220 47bd
00000150: 8455 eb3c 6187 2e3a 3e11 c03d c05f 99bd
00000160: 1287 afbc 8125 25bd 0fab 6e3d d85c 7ebc
00000170: b4a3 eb3d d472 c4bd f168 bbbc 20bc d9bc
00000180: 4645 22bd 511c 5ebd d13a 2b3d 0f3b 8d3d
00000190: fa18 b6bb 33fe fb3c 23fa a53d 4217 10bd
000001a0: 6bd1 713d 1188 c03a 1516 4f3d f243 8bbd
000001b0: 0d59 db3d 232c 32bd 3785 3b3d 3b3e 783d
000001c0: e807 bcbd a36c 9dbd 7444 433d 5c02 ab3d
000001d0: a765 c53d d988 ea3d 02e5 e63d b5c8 283d
000001e0: 9bc6 21bd 5038 93bd 40c7 adbc 7888 acbd
000001f0: d608 5bbd 89d0 1a3d 4f6e a2bc b942 eebd
00000200: 7aca fa3b 6bbb 133e 91ae 04be 4997 a3bb
00000210: 845b 8a3d 453b 1abe 0c9b f4bd 711e c53c
00000220: 350f a4ba 0c54 033d 9435 873d ba37 b33c
00000230: c6a4 56bd 4ecc 32bd 207b 9a3d 4d89 dc3d
00000240: 04da adbd f3b9 8abc f2cc d9bc 5ce7 e2bd
00000250: d0f2 78bd 7da7 cf3d 968a afbd dc90 b83c
00000260: 71a7 b8bc 9b97 d03d 886c 4fbc 909c 203e
00000270: 4562 1e3c 0143 f73b d2b9 8f3d a437 333d
00000280: aecf 0bbd c088 943c 5980 60bd d5ac a8bd
00000290: eaa1 583d fc6f febc de9d 553d ecd5 c7bd
000002a0: 3936 c93c d610 263d 1d69 983c 722c d0bd
000002b0: 67ab 713d cec9 0dbc 7bbc 0c3d 16a8 53bd
000002c0: 3b29 7b3d 8e24 173e 68d6 173c efa3 83bd
000002d0: 2550 c63d d2ba 74bd 7835 d7bd 6bce cf3c
000002e0: ffbd 2d3b f692 abbd 707f 7cbc 0dc4 22bd
000002f0: c389 34bd 784b 883c 9155 89bd 5428 91bd
00000300: da52 b13c d536 9c3d 8ae7 88bc aed6 f9bd
00000310: 992d da3d ee84 c4bd 9cb3 d4bd 0a62 39bd
00000320: 9f53 abbd 9b0e 723c 3c3a 36bc fedd b2bc
00000330: cb49 4dbc d427 4bbb 4ea5 edbb 08b9 013b
00000340: 8bc3 cdbb 75fa 433d 84be 27bc 95bd 7ebc
00000350: 66f6 50bd 770e 48bd 9c8d eabc 55ee 333d
00000360: a200 e1bc 1541 023d 4f52 b0bb c7c9 593c
00000370: 0878 793d 23f4 86bb 4cc5 633c 3a67 2ebd
00000380: ec5b 4e3c 7acf 14be d907 1abd 9b2d a7bc
00000390: 8dc5 28bb c46c 4cbd 1083 563d 2a69 5abd
000003a0: ee8a afbd a6ce 44bc 97ba 103d c4b8 35bd
000003b0: 68b1 5d3c e23a 513c 927d 4f3d 8e59 8f3b
000003c0: 5358 21bc c4c5 00bd 0352 f53c cbfe e5bb
000003d0: 5c58 863a 5404 1d3e c205 ecbc bfbe a1bc
000003e0: 301e 753c 62e1 98bd 5629 48bd 1a90 8f3c
000003f0: 2773 40bd e3f4 8cbc 2efc 7cbd b457 d3bd

network_body._body_endoder.seq_layers.4.bias f4 [256]
-0.0003732469 -0.002403291 -0.007621546 0.0009024516 0.0037487212 0.015331347 0.001983459 0.0036535095
0.0122000575 0.010271894 -0.00045296643 0.013749567 0.0037924615 0.012561631 0.007902398 -2.4583856e-05
0.007838035 4.309829e-05 0.0043278188 0.00096575345 -0.0016228423 -0.0011035812 0.00476318 0.011253331
0.0011898897 0.009198722 0.0010125955 0.006360735 0.0010928645 -0.00057018147 0.013022693 0.00038293313
0.007274704 0.008725186 0.0022362515 0.0024276979 0.0035228292 0.005184914 0.0045687105 0.00780694
0.008973545 -0.003540506 0.004072286 0.0046447823 0.0010345817 0.0058889478 0.0055779372 0.0046551037
-0.0051951134 0.00090837316 -0.008177971 0.012721577 -0.002995592 0.01019716 0.0049704756 -0.008428418
-0.0057996903 -0.00013220609 -0.0006094083 -0.004164914 -0.0061992984 -0.0040731733 0.0007610521 -0.00030371727
4.5945817e-06 -0.0017648216 0.00033713153 -0.002710516 -9.243977e-05 0.018811056 -0.001741679 0.0070446073
-0.0037788164 0.0023589728 -0.0034381787 -0.0036673015 -0.0019851148 -0.004395064 0.0033329676 0.0068263104
0.0037941982 0.009293264 0.0029444185 0.0049722134 -0.0019406416 -0.003424461 -0.0043058833 -0.005569997
0.00963227 0.005564467 0.009006633 0.0047279107 0.007617363 -0.0021886814 0.012247983 0.0062442906
0.0027455671 0.0021665634 -0.0016907824 0.010403912 0.006853336 -0.0011648744 -0.0017576788 0.0075496184
0.0074168956 0.0041500195 0.009098136 -0.009145563 0.0085144965 0.001692298 0.007814879 0.0029484804
0.0048192693 0.011318176 -0.0009592197 0.010961282 0.011708681 0.0036441348 -0.00040936904 -0.0016415813
-0.00043422825 0.0066406014 0.0019210275 0.0027001984 0.0052784164 0.009062535 -0.0032964072 -0.0050507537
-0.0067154667 -0.0005551565 -0.0014884013 0.009446136 0.00022315056 0.008468186 0.013071992 -0.0021175174
-0.004314933 0.0009991241 -0.0018337043 0.0075499816 0.0008732156 0.0003192289 -0.0011808089 1.8604707e-05
0.0022404692 0.0048236335 -0.0026254014 0.012253946 -0.0058482443 0.00037424394 0.003283445 0.0009561706
0.0034349188 9.66382e-05 -0.0004326406 0.001841997 0.004148139 0.008348715 0.013364576 0.008302277
0.0017146572 0.0038886762 0.002901756 0.011102972 0.00035869438 0.0078105885 0.009529851 0.007282899
0.010960028 0.013417495 0.005112446 0.0119881695 -0.00373676 0.008715578 0.0075626704 0.008162127
0.0007619091 -0.0037494863 0.00074924494 -0.00040340447 0.0007625504 0.0075892373 0.0054997476 -0.0020164107
0.002029901 -0.008809144 -0.0019886873 0.0075615207 0.0080310255 0.0024209134 -0.0044429502 0.008995197
0.0040992466 0.011526099 0.003130752 -0.00032351047 0.009491072 -0.0015132313 0.004003028 -0.0017762183
0.0057611214 0.00011681576 -0.007836005 0.0033930952 0.0064199325 0.0064524473 -0.0029222271 -0.00060424197
-0.002069361 0.0044089477 0.005781218 0.0032713432 0.0066216425 0.00917675 0.008555108 0.0045623146
0.0055585653 0.004183256 -0.0010880455 0.0014139102 0.0025971145 0.003369705 0.008444995 0.0069704102
0.011412628 -0.0059515885 0.0032055762 0.0029752585 0.009670064 -0.00038623912 0.0049151685 -0.00028743513
0.0024016881 0.007004283 0.0008019231 -0.00093197223 -0.005898389 0.0055907485 -0.00093980215 0.009261154
0.004019969 0.00952266 0.0047455207 -0.0002221753 0.009297645 -0.0068099997 -0.0014822156 0.012561882
-0.0018954821 0.0053362506 0.011995076 0.0043024537 -0.009221505 0.005566263 -0.006048632 0.010185992
00000000: 5ab0 c3b9 8880 1dbb 29be f9bb 8092 6c3a
00000010: 1bad 753b 5430 7b3c ecfc 013b b86f 6f3b
00000020: c0e2 473c 724b 283c 207c edb9 dd45 613c
00000030: f28a 783b 4dcf 4d3c 0f79 013c 6e39 ceb7
00000040: 1a6b 003c 70c4 3438 60d0 8d3b 9e2a 7d3a
00000050: 8db5 d4ba 0aa6 90ba 7314 9c3b e45f 383c
00000060: 13f6 9b3a 3db6 163c 11b9 843a b66d d03b
00000070: 733e 8f3a 3b78 15ba 225d 553c 6ac4 c839
00000080: a460 ee3b 15f4 0e3c 138e 123b 031a 1f3b
00000090: 44df 663b 36e6 a93b 1fb5 953b 5cd1 ff3b
000000a0: c705 133c d507 68bb d070 853b 4233 983b
000000b0: cd9a 873a 13f8 c03b 21c7 b63b d789 983b
000000c0: c53b aabb e41f 6e3a e5fc 05bc 296e 503c
000000d0: b251 44bb fd11 273c 5fdf a23b 5917 0abc
000000e0: 540b bebb cda0 0ab9 b3c0 1fba d579 88bb
000000f0: 7c23 cbbb 4178 85bb 5881 473a 3e3c 9fb9
00000100: 282b 9a36 9651 e7ba 07c1 b039 eaa2 31bb
00000110: 39dc c1b8 a519 9a3c 0d49 e4ba 73d6 e63b
00000120: 05a6 77bb ff98 1a3b 1153 61bb 1c57 70bb
00000130: b318 02bb 7804 90bb eb6d 5a3b 3eaf df3b
00000140: 15a8 783b c642 183c 25f7 403b f3ed a23b
00000150: 205d feba ec6c 60bb 5e18 8dbb 8584 b6bb
00000160: abd0 1d3c 2256 b63b 8f90 133c 97ec 9a3b
00000170: 129b f93b fb6f 0fbb c4ab 483c e89c cc3b
00000180: f9ee 333b e7fc 0d3b 3e9d ddba 2b75 2a3c
00000190: f391 e03b b3ae 98ba ea61 e6ba ca62 f73b
000001a0: 6e09 f33b e3fc 873b 5910 153c 45d7 15bc
000001b0: 6380 0b3c 19d0 dd3a fa09 003c 4b3b 413b
000001c0: f6ea 9d3b df6f 393c 2574 7bba f396 333c
000001d0: c4d5 3f3c 70d2 6e3b 95a0 d6b9 542a d7ba
000001e0: 21a9 e3b9 6799 d93b fdca fb3a d0f5 303b
000001f0: 91f6 ac3b 077b 143c 8908 58bb cb80 a5bb
00000200: 6b0d dcbb ec87 11ba 7616 c3ba f7c3 1a3c
00000210: 86fd 6939 25be 0a3c e92b 563c 0cc6 0abb
00000220: 4864 8dbb 0bf5 823a e858 f0ba d665 f73b
00000230: 82e8 643a 2d5e a739 5fc5 9aba 4e11 9c37
00000240: d6d4 123b 920f 9e3b ed0e 2cbb c6c4 483c
00000250: a1a2 bfbb 2c36 c439 112f 573b 86a7 7a3a
00000260: 601c 613b 3daa ca38 0ad4 e2b9 2a6f f13a
00000270: 1ded 873b 0cc9 083c 18f7 5a3c 4606 083c
00000280: 59be e03a 29d9 7e3b 632b 3e3b 3de9 353c
00000290: 250f bc39 f7ef ff3b 1823 1c3c 63a5 ee3b
000002a0: b091 333c 0ed5 5b3c 4e86 a73b 076a 443c
000002b0: 6ee4 74bb c9cb 0e3c 47d0 f73b 71ba 053c
000002c0: dbba 473a f1b9 75bb fa68 443a 0880 d3b9
000002d0: e4e5 473a 23af f83b 3a37 b43b c225 04bb
000002e0: 1608 053b 3a54 10bc a354 02bb a2c6 f73b
000002f0: 9094 033c 30a8 1e3b 2b96 91bb 9760 133c
00000300: f952 863b f7d7 3c3c 4d2d 4d3b d79c a9b9
00000310: 7180 1b3c 9e57 c6ba d52b 833b ffcf e8ba
00000320: cac7 bc3b fcfa f438 9662 00bc b15e 5e3b
00000330: 4c5e d23b 0d6f d33b d682 3fbb fe65 1eba
00000340: 1e9e 07bb ef78 903b 5f70 bd3b 0864 563b
00000350: 5dfa d83b 145a 163c b92a 0c3c 787f 953b
00000360: a024 b63b b213 893b c09c 8eba f452 b93a
00000370: 5a34 2a3b 45d6 5c3b e05c 0a3c 0a68 e43b
00000380: 08fc 3a3c 8b05 c3bb a514 523b 8efc 423b
00000390: 306f 1e3c 2380 cab9 6c0f a13b e4b2 96b9
000003a0: a465 1d3b 2f84 e53b 2638 523a 994f 74ba
000003b0: 4647 c1bb 9932 b73b 0e5d 76ba 18bc 173c
000003c0: f2b9 833b ee04 1c3c 5080 9b3b baf7 68b9
000003d0: 2655 183c 6b26 dfbb e746 c2ba 5ad0 4d3c
000003e0: d371 f8ba b7db ae3b ff86 443c 99fb 8c3b
000003f0: cc15 17bc 3365 b63b 9a33 c6bb 26e3 263c

network_body._body_endoder.seq_layers.4.weight f4 [256, 256]
0.117340796 0.06842894 0.14616777 -0.05759884 -0.0072938367 0.006807973 -0.021247422 0.00021346746
-0.051567134 -0.10697815 0.01222988 -0.09694445 -0.081549704 0.034338668 0.06450128 0.027040616
-0.017697262 0.07042229 -0.034265094 -0.057519145 0.08819087 0.0021759295 -0.0044668145 0.04019861
-0.107911535 -0.026507866 0.0937386 -0.05637324 -0.09945921 0.07949467 -0.07550683 -0.104121156
0.054407448 0.07882049 0.010622049 -0.0643124 0.00064853067 0.0597926 -0.005756519 0.03772989
0.009571497 -0.03146296 0.13000493 -0.027031636 0.040336084 0.013194789 -0.027636927 0.069350496
0.009535065 -0.012199799 0.09713798 0.05681248 0.097003035 0.03771702 0.050187953 -0.052603893
0.011327416 -0.016761238 -0.0022880535 -0.05446592 -0.042853665 -0.051062558 0.11620167 0.09136921
-0.019047653 -0.09435589 -0.06817648 0.030869741 -0.018943183 0.0391538 -0.03439442 -0.018154325
-0.100096874 -0.022076638 -0.023106286 0.021781875 0.057992246 0.012232898 0.10042803 -0.1459569
-0.06380577 -0.072119504 0.070215315 -0.0017438442 0.012463078 -0.043755073 0.03560506 0.06180665
-0.013957367 -0.066187166 0.02742113 -0.036549505 0.06624835 -0.0021955452 -0.08613967 -0.007186223
0.038503386 -0.12398957 0.111399874 -0.11233362 -0.10647729 -0.034855556 -0.07128905 0.020907883
-0.04530281 0.038056623 -0.0024575323 -0.038733486 -0.03357271 0.0749373 0.0907114 0.038461447
0.13810186 -0.01923326 0.010843729 -0.010185054 0.010396348 0.04623408 -0.09792397 -0.016452527
0.051766083 0.09581838 0.019644909 -0.0010485168 -0.02358232 -0.03574993 -0.07364197 -0.0016423638
0.0005228926 -0.12219613 0.048296213 0.016345266 0.04757581 -0.055640794 0.00053783925 0.09978318
0.0361577 0.0042216186 0.05423805 -0.0079248035 -0.10490987 0.007479011 0.029134331 0.07414981
-0.08143064 0.010426716 -0.10784733 -0.060467612 -0.017649997 0.028853742 0.007396222 0.04724409
0.06405932 0.052345634 -0.015002764 0.0868099 0.052359305 -0.025771093 0.038793303 -0.05750166
0.1552311 0.0018062792 0.07108676 0.110967174 0.102099404 0.06309493 0.026113797 -0.04638594
0.007801902 0.03503343 -0.046136636 0.0841652 0.03957652 -0.041476924 0.022277186 -0.030364202
0.039796196 -0.049989678 -0.011260704 -0.042481698 0.023176476 0.0036281243 0.019118803 -0.07103951
0.07171522 -0.0036356838 -0.043445166 -0.081930935 0.019012773 -0.04620876 0.005393029 -0.03796559
-0.0947608 -0.016003458 0.030629603 0.005679064 0.046750378 0.07479373 0.16050081 -0.14011979
0.06763872 0.01833401 0.0045534503 0.089439824 -0.013223228 0.08908064 0.123487584 0.090234526
0.0015972068 -0.039114244 0.07213084 0.027705308 -0.023082774 -0.089627706 0.07199116 0.09878514
0.037055332 0.04186816 0.019689713 0.0801138 -0.035760175 -0.12355206 0.09538529 0.029816981
0.040598046 -0.046591215 0.06774372 -0.011369227 0.011176291 -0.0626408 0.037490547 -0.0103380205
0.036395207 -0.019771919 0.022672752 -0.047003344 0.024242096 -0.20958233 0.062489502 -0.021462146
-0.0017997124 0.029344296 -0.008613706 -0.11908308 -0.071793206 0.079870336 0.059339195 0.032229472
0.012465337 0.113428056 -0.035660557 0.100039035 0.071229644 -0.039160907 -0.110112265 -0.014885177
00000000: 5f50 f03d 7924 8c3d 01ad 153e c3ec 6bbd
00000010: 2301 efbb 6b15 df3b 130f aebc 3cd6 5f39
00000020: 0f38 53bd 5c17 dbbd d65f 483c d08a c6bd
00000030: 8803 a7bd b4a6 0c3d 3f19 843d 4884 dd3c
00000040: d9f9 90bc 9039 903d 8e59 0cbd 3299 6bbd
00000050: 6a9d b43d 0a9a 0e3b 5b5e 92bb 4ca7 243d
00000060: b900 ddbd 0627 d9bc 06fa bf3d a0e7 66bd
00000070: 45b1 cbbd 1ace a23d 53a3 9abd 793d d5bd
00000080: 58da 5e3d a36c a13d 1a08 2e3c 38b6 83bd
00000090: 2802 2a3a 16e9 743d 2ea1 bcbb a88a 1a3d
000000a0: c5d1 1c3c 4edf 00bd 0320 053e 7371 ddbc
000000b0: 7337 253d f52e 583c d666 e2bc a207 8e3d
000000c0: f638 1c3c aae1 47bc 47f0 c63d 34b4 683d
000000d0: 87a9 c63d 297d 1a3d e291 4d3d 2e77 57bd
000000e0: a096 393c dd4e 89bc 2bf3 15bb a817 5fbd
000000f0: 5387 2fbd f926 51bd 24fb ed3d c81f bb3d
00000100: d309 9cbc a93d c1bd 1ca0 8bbd 8ae2 fc3c
00000110: bc2e 9bbc bc5f 203d 2ae1 0cbd 61b8 94bc
00000120: 97ff ccbd 11da b4bc 6549 bdbc e76f b23c
00000130: 4789 6d3d 7e6c 483c 36ad cd3d ba75 15be
00000140: 99ac 82bd 64b3 93bd 0ccd 8f3d b491 e4ba
00000150: f031 4c3c 8538 33bd 9dd6 113d f828 7d3d
00000160: 71ad 64bc 238d 87bd 47a2 e03c efb4 15bd
00000170: 37ad 873d 23e3 0fbb ff69 b0bd 687a ebbb
00000180: bab5 1d3d 3eee fdbd 9e25 e43d 2b0f e6bd
00000190: c410 dabd b3c4 0ebd feff 91bd 0247 ab3c
000001a0: 708f 39bd 43e1 1b3d 8d0e 21bb 01a7 1ebd
000001b0: 8a83 09bd ba78 993d e6c6 b93d c089 1d3d
000001c0: 936a 0d3e 128f 9dbc e5a9 313c 36df 26bc
000001d0: 7255 2a3c f25f 3d3d 5d8c c8bd 73c7 86bc
000001e0: ac08 543d 6d3c c43d 5cee a03c 636e 89ba
000001f0: b62f c1bc 856e 12bd 9ad1 96bd 9644 d7ba
00000200: ba12 093a f741 fabd 40d2 453d 82e6 853c
00000210: dade 423d 9ae7 63bd c8fd 0c3a 205b cc3d
00000220: 191a 143d 8155 8a3b b828 5e3d 09d7 01bc
00000230: fcda d6bd 7e12 f53b 1fab ee3c dbdb 973d
00000240: 1bc5 a6bd d1d4 2a3c 10df dcbd e3ac 77bd
00000250: ba96 90bc af5e ec3c 025c f23b 0583 413d
00000260: 8831 833d 6068 563d 27ce 75bc 64c9 b13d
00000270: b676 563d e61d d3bc bae5 1e3d dc86 6bbd
00000280: e7f4 1e3e acc0 ec3a ef95 913d c242 e33d
00000290: 7e19 d13d ea37 813d 9aec d53c 2fff 3dbd
000002a0: 19a7 ff3b 377f 0f3d c5f9 3cbd ce5e ac3d
000002b0: fd1a 223d b5e3 29bd a57e b63c 59be f8bc
000002c0: 5601 233d fac1 4cbd d17e 38bc 4a01 2ebd
000002d0: 98dc bd3c d3c5 6d3b 099f 9c3c 2a7d 91bd
000002e0: 6edf 923d a744 6ebb 8ff3 31bd 68cb a7bd
000002f0: adc0 9b3c 6645 3dbd 02b8 b03b ce81 1bbd
00000300: f311 c2bd af19 83bc efea fa3c 7117 ba3b
00000310: 537d 3f3d 752d 993d 535a 243e 907b 0fbe
00000320: 2b86 8a3d 3531 963c 1c35 953b 3a2c b73d
00000330: 3da6 58bc e96f b63d 0fe7 fc3d e1cc b83d
00000340: 5e59 d13a 4236 20bd 55b9 933d 3ef6 e23c
00000350: 1618 bdbc bb8e b7bd 1a70 933d dd4f ca3d
00000360: 55c7 173d f37d 2b3d 524c a13c b412 a43d
00000370: 4379 12bd dd08 fdbd 5d59 c33d be42 f43c
00000380: 234a 263d 6ed6 3ebd 38bd 8a3d ff45 3abc
00000390: c31c 373c d249 80bd b08f 193d cd60 29bc
000003a0: 2413 153d b8f8 a1bc 35bc b93c 9486 40bd
000003b0: 5c97 c63c c09c 56be fef4 7f3d 62d1 afbc
000003c0: 54e4 ebba 7363 f03c 8020 0dbc d4e1 f3bd
000003d0: 5108 93bd 0f93 a33d a80d 733d 0d03 043d
000003e0: 6a3b 4c3c f84c e83d ce10 12bd 44e1 cc3d
000003f0: d9e0 913d 3067 20bd 8a82 e1bd f5e0 73bc

network_body.observation_encoder.processors.0.normalizer.running_mean f4 [68]
0.26256973 0.5666802 0.17072873 0.73197085 0.22175972 0.48699617 0.29122418 0.74775106
0.4296241 0.3598716 0.2104475 0.64088386 0.34997913 0.4910566 0.1589195 0.6706069
0.43679616 0.3374515 0.2257187 0.6341186 0.3135944 0.5869633 0.099223934 0.65832156
0.28885722 0.5262699 0.1845954 0.6927944 0.462939 0.46556583 0.070632406 0.5537737
0.41088876 0.4692882 0.11913249 0.59661967 0.28529924 0.5947779 0.11728125 0.664444
0.34607372 0.47151434 0.18025647 0.649181 0.16896741 0.6808576 0.053333264 0.7057191
0.25880566 0.52515143 0.06720518 0.68169796 0.18600538 0.47357345 0.0005780352 0.60790837
0.25778988 0.37064353 0.0009220547 0.5746628 0.24070387 0.40090725 0.00076004595 0.55051774
0.24070387 0.40090826 0.00076004595 0.5505178
00000000: 8a6f 863e f411 113f 83d3 2e3e 7162 3b3f
00000010: fb14 633e 9057 f93e 561b 953e 9d6c 3f3f
00000020: b1f7 db3e 1741 b83e 8d7f 573e f710 243f
00000030: 7730 b33e c56b fb3e cbbb 223e e5ac 2b3f
00000040: bfa3 df3e 71c6 ac3e ce22 673e 9955 223f
00000050: 728f a03e 3a43 163f eb35 cb3d c387 283f
00000060: 18e5 933e a0b9 063f 9406 3d3e f95a 313f
00000070: 5706 ed3e a55e ee3e b9a7 903d 1dc4 0d3f
00000080: 0360 d23e 8b46 f03e bcfb f33d 11bc 183f
00000090: be12 923e 5d43 183f 2731 f03d 0119 2a3f
000000a0: 9330 b13e 546a f13e 2795 383e ba30 263f
000000b0: cb05 2d3e af4c 2e3f fb73 5a3d 02aa 343f
000000c0: 2d82 843e 5370 063f dfa2 893d c283 2e3f
000000d0: 3278 3e3e 3878 f23e 4987 173a e29f 1b3f
000000e0: 09fd 833e fdc4 bd3e 0bb6 713a 1a1d 133f
000000f0: 137b 763e b743 cd3e d23d 473a bbee 0c3f
00000100: 137b 763e d943 cd3e d23d 473a bcee 0c3f

network_body.observation_encoder.processors.1.normalizer.running_mean f4 [6]
-9.027405 4.9248123 -10.999726 6.999845 3.8582315 170.08672
00000000: 4070 10c1 1098 9d40 e1fe 2fc1 bbfe df40
00000010: 44ed 7640 3316 2a43
