Assets/Training/results/b_treasure_test80_Th64_Lr1e-4Bs4096Bs65536_EndDistanceReward_0.2deltaXZ_10deltaY_NoDeltaYReward/TreasureSearch/TreasureSearch-9999968.onnx (onnx, 608683 bytes, 13 tensors)

65 f4 [68]
0	0x3efccd42	0.4937535
1	0x3ef03261	0.46913436
2	0x3ede2e8e	0.43394893
3	0x3e97ea7b	0.29671082
4	0x3ec8fde2	0.39256197
5	0x3eab5ae3	0.3346778
6	0x3eee9a6c	0.4660219
7	0x3e712781	0.23550226
8	0x3ef88324	0.48537552
9	0x3ed441a7	0.4145634
10	0x3efabe71	0.4897342
11	0x3eb16ec7	0.3465483
12	0x3efb04d0	0.4902711
13	0x3e9038df	0.2816839
14	0x3eedc939	0.46442583
15	0x3e78d100	0.24298477
16	0x3ef992c3	0.48744783
17	0x3ee7d4a6	0.45279425
18	0x3eef7780	0.4677086
19	0x3eb6fde3	0.35740575
20	0x3ee0a056	0.43872327
21	0x3eff8cf0	0.49912214
22	0x3ee32af6	0.44368714
23	0x3e899c0a	0.2687686
24	0x3efe2dc4	0.4964429
25	0x3eff7d10	0.49900103
26	0x3e27e50d	0.1639597
27	0x3eb5ec7c	0.35531986
28	0x3efffa20	0.49995518
29	0x3ef8a891	0.48566106
30	0x3ea00260	0.31251812
31	0x3e9e8c71	0.30966523
32	0x3ef8af9b	0.48571476
33	0x3ef77b3f	0.48336217
34	0x3dc6360a	0.09678276
35	0x3ea3e264	0.3200866
36	0x3eb443b0	0.3520789
37	0x3efc3ea9	0.49266556
38	0x3edabfb4	0.42724383
39	0x3e7710ec	0.24127549
40	0x3eff4912	0.49860436
41	0x3efe342e	0.49649185
42	0x3e151ac5	0.14560993
43	0x3ea59158	0.3233745
44	0x3eb1c25c	0.34718597
45	0x3eebd54d	0.46061173
46	0x3e30a311	0.17249705
47	0x3e55913a	0.20856181
48	0x3edadc2b	0.427461
49	0x3ee2a0a9	0.442632
50	0x3dee737c	0.11643121
51	0x3ea1605f	0.31518838
52	0x3ead9687	0.33903906
53	0x3eed75c4	0.4637891
54	0x3c21bb07	0.009871251
55	0x3e27f1c3	0.16400819
56	0x3e9e4446	0.30911463
57	0x3eb430e5	0.35193554
58	0x3c3559dd	0.011068788
59	0x3e48a4ca	0.19594112
60	0x3e84bacb	0.25923762
61	0x3ecac3e9	0.39602593
62	0x3c0cb44f	0.008587911
63	0x3e2818f2	0.16415766
64	0x3e84bacb	0.25923762
65	0x3ecac3e1	0.3960257
66	0x3c0cb450	0.008587912
67	0x3e2818f1	0.16415764

68 f4 [6]
0	0x3fb465f6	1.4093616
1	0x408ad45f	4.338424
2	0x3b656f1a	0.0035008849
3	0x3b128a60	0.002236031
4	0x4067600b	3.615237
5	0x430390e7	131.56602

action_model._continuous_distribution.log_sigma f4 [1, 2]
0	0xbe0bf2ac	-0.1366679
1	0xbe2fc135	-0.17163546

action_model._continuous_distribution.mu.bias f4 [2]
0	0x3bf1bd4c	0.0073773023
1	0x3baddcad	0.0053058476

action_model._continuous_distribution.mu.weight f4 [2, 256]
0	0x3d20a482	0.039219387
1	0x3cf5a515	0.029985944
2	0x3cf1f96d	0.02953788
3	0xbd2e5327	-0.04255977
4	0xbb9f0e59	-0.0048540053
5	0x3ca02e2a	0.019553263
6	0x3cac7573	0.021052098
7	0x3cc505fb	0.024050703
8	0x3cb0e98b	0.021595737
9	0xbd460064	-0.048340216
10	0xbd155945	-0.036462087
11	0x3a5ee74e	0.0008503095
12	0x3c93fd25	0.018065045
13	0x3c9cd151	0.019142779
14	0x3c07cd40	0.0082886815
15	0xbba41bc5	-0.005008193
16	0x3d50f198	0.05101165
17	0x3d48b1a8	0.04899755
18	0xbc992bc1	-0.018697621
19	0xbd392870	-0.04520458
20	0xbccce97b	-0.025013676
21	0xbd189cc9	-0.037258897
22	0xbbc5d189	-0.0060369414
23	0xbd06df71	-0.032927934
24	0x3ceeee54	0.029166378
25	0xbce065fc	-0.02739238
26	0x3c9b5c95	0.018965045
27	0x3cd9fe62	0.026610557
28	0xbb8a2d08	-0.004216794
29	0x3ad2d692	0.0016085675
30	0x3c97e0fb	0.018539896
31	0xbc38040e	-0.011231435
32	0x3d3ec66c	0.04657595
33	0xbcc0e5fc	-0.023547165
34	0x3ccf370e	0.025294807
35	0xba974bf9	-0.0011543027
36	0x3c56f5d0	0.01312013
37	0x3c4f294d	0.012644124
38	0x3ca99344	0.020700105
39	0xbd2d597b	-0.042321663
40	0xbc950006	-0.018188488
41	0xbc785cf6	-0.015158882
42	0xbd646dd2	-0.055768795
43	0x3c1d70f9	0.009609454
44	0x3cee4ad8	0.029088423
45	0xbd038064	-0.032104865
46	0x3b4f8cdf	0.003166966
47	0xb9a4e1c2	-0.0003144872
48	0xbd322099	-0.04348812
49	0x3d1301dc	0.035890445
50	0x3d0459e4	0.03231229
51	0x3d0679a8	0.032830864
52	0xbd047c7b	-0.032345276
53	0xbd38e2ab	-0.045138042
54	0x3d4d6c4d	0.05015211
55	0x3c561d62	0.013068529
56	0x3c781313	0.015141266
57	0xbbc84e5c	-0.006112857
58	0xbd2dfc3d	-0.04247688
59	0xbcdf2557	-0.027239485
60	0xbcefec84	-0.029287584
61	0xbba0adf1	-0.004903548
62	0xbd7cd7bc	-0.061729178
63	0x3c5bc9e9	0.013414838
64	0xbcae8ebc	-0.021308295
65	0xbd252365	-0.040316958
66	0xbcd13147	-0.025536193
67	0x3d001ca3	0.03127731
68	0x3cc39afb	0.023877611
69	0x3c480b23	0.012209686
70	0x3c22b258	0.009930216
71	0x3c0d9e8b	0.008643757
72	0xbc90025b	-0.017579248
73	0x3b64b989	0.0034900627
74	0x3cfb4a2c	0.030675016
75	0x3be97047	0.00712398
76	0xbcc3569e	-0.023845013
77	0x3bc02c2c	0.0058646407
78	0x3d182dbe	0.037153
79	0x3b82235f	0.0039715017
80	0xbd56f3eb	-0.052478712
81	0x3c211459	0.009831511
82	0xbd2197f3	-0.03945155
83	0xbbe36b0b	-0.0069402508
84	0xbd124646	-0.03571155
85	0xbc78799a	-0.015165711
86	0x3caaabf9	0.020833956
87	0x3af37b5f	0.0018576196
88	0x3d2b54ca	0.041828908
89	0x3c8897d7	0.016673965
90	0x3b8a2011	0.0042152484
91	0x3c38bc72	0.011275398
92	0x3cad57c9	0.021160023
93	0xbc24b75a	-0.01005348
94	0x3d27d234	0.04097195
95	0x3a43a7a7	0.0007463642
96	0xbd3bb54f	-0.045827206
97	0x3c87b830	0.01656732
98	0x3c2761af	0.010216161
99	0x3cb3c997	0.021946711
100	0xbd436b66	-0.047709845
101	0x3bbe3986	0.005805197
102	0x3bd78014	0.0065765474
103	0x3d03c9c7	0.03217485
104	0x3ca98105	0.020691404
105	0xbcada0ea	-0.021194894
106	0xbc380ee0	-0.011234015
107	0x3cf60554	0.030031838
108	0x3c570a18	0.013124965
109	0xbbbe0e47	-0.005800042
110	0x3ce0df7f	0.027450321
111	0xbcf7b396	-0.030237
112	0x3d03f732	0.032218166
113	0xbd0550fd	-0.03254794
114	0x3cee2a1b	0.029072812
115	0x3d02b1af	0.031907734
116	0x3d16c08b	0.036804717
117	0xbcef29a2	-0.029194657
118	0xbc3b8303	-0.01144481
119	0x3b99fa56	0.004699032
120	0xbbd52c8a	-0.0065055536
121	0xbd28c42b	-0.041202705
122	0xbd1feefc	-0.039046273
123	0xbcbc0556	-0.022951763
124	0x3c0b9c42	0.0085211415
125	0xbd1f2ed1	-0.038863007
126	0x3ce812e6	0.028329324
127	0xbba6e067	-0.005092669
128	0x3d2e3501	0.042531017
129	0xbd581159	-0.05275092
130	0xbcaf12b6	-0.021371227
131	0x3ced3481	0.0289557
132	0xbc8412f8	-0.016122326
133	0xbd49a203	-0.049226772
134	0x3ccaefac	0.024772488
135	0xbd0ef5a5	-0.034902234
136	0xbc481f3d	-0.012214479
137	0x3d42c9a8	0.047555596
138	0x3cae4a94	0.021275796
139	0xbcb23a5d	-0.021756345
140	0x3d114a8c	0.035471484
141	0x3bee4a89	0.007272069
142	0xbc334b44	-0.010943238
143	0xbb4a2046	-0.003084199
144	0xbd023add	-0.031794418
145	0xbcb7ddf9	-0.022444712
146	0xbd44845a	-0.047977783
147	0x3c697890	0.014249936
148	0xba20fa52	-0.0006140816
149	0x3c6511a3	0.013981256
150	0x3c923f75	0.017852524
151	0x3ce96b78	0.028493628
152	0xbd545c82	-0.051846035
153	0x3c274a82	0.010210635
154	0x3c1db666	0.009626007
155	0x3d281cb1	0.041042987
156	0xbd22b32e	-0.03972166
157	0xbc75f058	-0.015010916
158	0xbd08bf5a	-0.033385612
159	0xbcdb06f8	-0.026736721
160	0xbb0ce101	-0.0021496417
161	0x3cbffc10	0.023435622
162	0xbd0185ac	-0.03162162
163	0xbcd021ef	-0.025406806
164	0xba68f84e	-0.0008887098
165	0x3d184f62	0.03718508
166	0x3c75c616	0.015000841
167	0x3d1a4558	0.037663788
168	0xbcefd8a4	-0.029278107
169	0xbd2371a5	-0.0399033
170	0x3a850631	0.001014894
171	0x3c71a0df	0.014747827
172	0x3cb503f3	0.02209661
173	0x3c92238a	0.017839212
174	0xbcc8c499	-0.024507808
175	0x3c8ec8cd	0.017429734
176	0xbd29d523	-0.04146303
177	0x3d143cb8	0.03619072
178	0xbcb4a28b	-0.022050163
179	0x3d3d0256	0.046144806
180	0x3c9e3c4a	0.019315857
181	0x3cff631f	0.031175194
182	0x3c1c642f	0.00954537
183	0x3bff3006	0.0077877073
184	0x3d27708c	0.040878817
185	0x3d487a5b	0.048944812
186	0xbc8efaf8	-0.017453656
187	0x3ccce6ee	0.02501246
188	0xbd25806b	-0.040405672
189	0xbc452de9	-0.012034872
190	0x3bf166c5	0.0073669874
191	0xbd5bbbdb	-0.05364595
192	0x3c1e2f91	0.009654895
193	0x3c989f5e	0.01863068
194	0xbc262a49	-0.0101419175
195	0x3d1238dd	0.03569876
196	0x3d290858	0.041267723
197	0xbc25bea7	-0.010116256
198	0xbc57c4f0	-0.013169512
199	0x3d05bbbf	0.03264975
200	0xbd4f2aca	-0.050577916
201	0x3c8d1dcb	0.01722612
202	0x3c63bd7f	0.01390016
203	0x3cc11989	0.023571746
204	0xbcb9e5fc	-0.022692673
205	0xbc33d91e	-0.010977058
206	0xbb88068c	-0.004151171
207	0x3cbd2ad6	0.023091715
208	0x3c0b9c87	0.008521206
209	0x3ca654b0	0.020304054
210	0xbbef4fce	-0.0073032146
211	0xbcf194a7	-0.029489828
212	0xbd498ace	-0.04920464
213	0xbbd3b64c	-0.0064609405
214	0x3d2e622a	0.042574085
215	0xb9ba5aa3	-0.00035544214
216	0xbd3d3a22	-0.046198018
217	0x3c0c4471	0.00856124
218	0x3cfca55c	0.030840568
219	0xbd2754d9	-0.0408524
220	0xbd59b93c	-0.05315517
221	0x3d1d7c55	0.03844865
222	0xbd454369	-0.04815999
223	0xbc9624ac	-0.018328033
224	0xba8ff210	-0.0010982174
225	0xbd808fe9	-0.06277449
226	0xbd54fea9	-0.052000675
227	0x3cdcb56c	0.026941977
228	0x3c8f7fb1	0.017516943
229	0xbb74890c	-0.0037313132
230	0xbd01f8eb	-0.031731527
231	0x3d215f66	0.03939762
232	0x3c9cc69f	0.019137679
233	0x3c6f24b6	0.014596155
234	0xbc87aae9	-0.016560989
235	0xbd523cb1	-0.05132741
236	0xbc159529	-0.009129801
237	0x3cf8b930	0.030361742
238	0xbb7f2c27	-0.003893623
239	0xbd6d5e68	-0.05795136
240	0xbd44c592	-0.04803998
241	0xbce782a2	-0.028260533
242	0xbd2cc54a	-0.042180337
243	0x3c153da6	0.009108936
244	0xbbeff550	-0.0073229447
245	0xbd4d3e21	-0.05010808
246	0xbd70f50c	-0.058827445
247	0x3cf0bec1	0.029387834
248	0xbd146ff1	-0.03623957
249	0xbd289027	-0.0411531
250	0xbd2eb9e9	-0.042657766
251	0x3d227dc7	0.039670732
252	0x3d8edc3e	0.069756016
253	0xbd161286	-0.03663876
254	0x3c8be33e	0.017076131
255	0x3d1f527c	0.038897023

network_body._body_endoder.seq_layers.0.bias f4 [256]
0	0x3c22c2fc	0.009934183
1	0xbb5d4c95	-0.003376757
2	0x3a3bfb96	0.0007170973
3	0x3c58adb4	0.013225008
4	0x3c36e787	0.011163599
5	0x3c39ca7a	0.011339778
6	0x3b976e5b	0.0046213097
7	0x3ba5779c	0.005049659
8	0x3c5f9e10	0.013648525
9	0xbba14d2b	-0.004922529
10	0xba1462e4	-0.0005660488
11	0x3bc7abeb	0.0060934923
12	0x3ba113c6	0.0049156873
13	0x3a77984c	0.0009444996
14	0x3c754386	0.014969712
15	0xbb320b9c	-0.0027167564
16	0x3d05dd47	0.03268173
17	0x3c7f78d6	0.015592774
18	0x3ba3bf6b	0.004997184
19	0x3c59935e	0.013279764
20	0x3c8dc831	0.017307373
21	0x3c9bc884	0.019016512
22	0x3c8ea73f	0.017413734
23	0x3bb72512	0.005589136
24	0x3c1f26b5	0.009713818
25	0x3c840f5c	0.016120605
26	0x3cc492cb	0.023995778
27	0x3c605622	0.013692411
28	0x3cfb0a4a	0.030644555
29	0x3ba314ca	0.0049768435
30	0x3cce72c6	0.025201213
31	0x3baa570a	0.005198364
32	0xbc345b6c	-0.011008125
33	0x3d041720	0.032248616
34	0x3cb95881	0.02262521
35	0x3b28c94f	0.0025754755
36	0x3c8f97a4	0.017528363
37	0x3cb5e3db	0.022203377
38	0x3cb07133	0.021538353
39	0x3c71868d	0.014741552
40	0x3c56081d	0.013063458
41	0x3bfa2039	0.007633236
42	0x3c1c9d9b	0.00955906
43	0x3c2e2b33	0.010630417
44	0x3c2f65bb	0.010705407
45	0x3bf952ea	0.007608761
46	0x3ba56479	0.0050473777
47	0x3b1307c7	0.0022435056
48	0x3c09cde5	0.0084109055
49	0x3cb04d6f	0.021521298
50	0x3c6e816e	0.014557226
51	0x3af0ff51	0.0018386637
52	0x3cc1a8a1	0.023639979
53	0x3c9aee8a	0.018912572
54	0x3c479328	0.012181081
55	0x3c84cfde	0.0162124
56	0x3cc9bd39	0.024626361
57	0x3cea27da	0.028583456
58	0x3c43e710	0.011956945
59	0x3cc52558	0.024065658
60	0x3cc02014	0.023452796
61	0x3cb97368	0.022638038
62	0x3ba0879e	0.0048989793
63	0x3ceaf4e3	0.028681224
64	0x3c3256d1	0.010884956
65	0x3d35f545	0.04442336
66	0xbb89ee06	-0.004209283
67	0x3c986023	0.018600529
68	0xbc532f55	-0.012889703
69	0xb9871d71	-0.00025771142
70	0x3c3efe05	0.011657243
71	0x3aaedde5	0.0013341276
72	0x3c41a230	0.011818454
73	0x3cb70064	0.022339053
74	0x3c629f59	0.013831937
75	0x3cb67b19	0.022275494
76	0x3c9ad92b	0.018902382
77	0x3c8674f0	0.016413182
78	0x3b044bb0	0.0020186715
79	0x3c2d4c9f	0.01057735
80	0x3c608c77	0.013705364
81	0xba547c02	-0.0008105637
82	0x3bfedd24	0.007777827
83	0x3c1b208a	0.009468207
84	0x3bd4fc36	0.0064997924
85	0x3c9ae575	0.018908242
86	0x3c5d093d	0.013490972
87	0x3b9fa4a3	0.004871921
88	0x3c45aa87	0.012064583
89	0x3c051137	0.00812178
90	0xbb826062	-0.003978775
91	0x3ce1fdcb	0.027586838
92	0x3cd22b1f	0.025655327
93	0x3b873141	0.0041257446
94	0x3b755efe	0.0037440653
95	0x3c5e95ec	0.013585549
96	0x3c3fad70	0.011699066
97	0xbbd5c50e	-0.006523735
98	0x3cc71d6c	0.024306022
99	0x3cd397e0	0.025829256
100	0x3bd0cbf1	0.006371968
101	0x3a658276	0.0008755097
102	0x3b8e5e04	0.0043447036
103	0x3c8b9534	0.017038919
104	0x3c5b2bda	0.013377154
105	0x3cc25c6e	0.023725715
106	0x3c93074e	0.01794782
107	0x3b0e760d	0.0021737844
108	0x3ba7cc8b	0.005120819
109	0x3cb7764a	0.022395272
110	0x3ce22e90	0.027610093
111	0x3c8724e7	0.016497089
112	0x3bcd4969	0.0062648547
113	0x3cf29995	0.02961425
114	0x3caf09ec	0.021367036
115	0x3cc39a68	0.023877338
116	0x3c5ef756	0.013608774
117	0x3cfc50e4	0.03080029
118	0x3bbfb094	0.005849907
119	0x3c859065	0.016304204
120	0x3cab8e97	0.020942016
121	0x3c232b48	0.0099590495
122	0x37eebcaa	2.8459664e-05
123	0x3c7293da	0.014805758
124	0x3d08eec1	0.03343082
125	0x3b606ea4	0.0034245634
126	0x3be0d1c1	0.006860942
127	0x3c98644c	0.018602513
128	0x3c423522	0.011853488
129	0x3cb7743b	0.02239429
130	0x3d074d37	0.033032622
131	0x3c5b48b7	0.013384036
132	0x3d3204f8	0.04346177
133	0x3d1a8961	0.03772867
134	0xbbf90be2	-0.0076002935
135	0x3be30bf9	0.0069289175
136	0x3c672bad	0.014109534
137	0x3c5b44d2	0.013383107
138	0x3c60f072	0.013729202
139	0xbb065eca	-0.0020503276
140	0x3c13ae66	0.009013748
141	0x3c94a74d	0.018146181
142	0x3cc515a1	0.024058165
143	0x3b7c7a56	0.0038525066
144	0x3ca23fa3	0.019805735
145	0x3c890bb3	0.016729211
146	0x3bcbf8aa	0.0062247114
147	0xbb7c317e	-0.0038481648
148	0x3c80ac46	0.015707146
149	0x3c4339b5	0.011915614
150	0x3ca34496	0.019930165
151	0x3b71f8fe	0.0036922093
152	0x3c7c535c	0.015400734
153	0x3cc52aee	0.024068322
154	0x3c9e07cb	0.019290825
155	0x3cdad077	0.026710732
156	0x3d192ec5	0.03739812
157	0x3c9498e6	0.018139314
158	0x3cc31d07	0.023817552
159	0x3c44d72b	0.012014191
160	0x3b0721ea	0.002061958
161	0x3d10b006	0.03532412
162	0x3c08d94f	0.008352592
163	0x3ca94caf	0.020666448
164	0x3ce983f1	0.028505297
165	0x3b7e4d9e	0.0038803588
166	0x3b62bb19	0.0034596382
167	0x3c8d8cc2	0.017279033
168	0x3c717cc9	0.014739224
169	0x3be76404	0.0070614833
170	0x3c893ff7	0.016754134
171	0x3ca38952	0.01996294
172	0x3c33e5db	0.010980095
173	0x3cdb941c	0.026804022
174	0x3bc137b9	0.0058965352
175	0xbb1c3d8c	-0.0023840396
176	0x3cd1a432	0.02559099
177	0x3aaed1d1	0.0013337677
178	0x3b0a3cf6	0.0021093464
179	0x3c996256	0.018723648
180	0x3cad093f	0.021122573
181	0x3ce74958	0.028233215
182	0xbb648629	-0.0034870005
183	0x3ca2565d	0.019816572
184	0x3c9fe1fe	0.019516941
185	0x3c020461	0.007935614
186	0x3ce7b3ec	0.028284036
187	0x3ab6543c	0.0013910602
188	0x3d4a5400	0.049396515
189	0x3c44c88a	0.012010703
190	0x3c8e244c	0.017351292
191	0x3c53d4be	0.01292914
192	0x3c816260	0.01579398
193	0x3c86dad3	0.016461765
194	0x3c289a31	0.010290668
195	0x3c85e8d7	0.016346378
196	0x3c341b40	0.010992825
197	0x3c46991b	0.012121464
198	0x3ca45261	0.020058813
199	0x3c9a760a	0.018855114
200	0x3ce8e9bf	0.028431771
201	0x3bf73a1e	0.00754477
202	0x3c60ca0b	0.013720046
203	0x3b5b28ed	0.0033441142
204	0xbaf7d5e7	-0.0018908352
205	0x3cb4c99e	0.022068795
206	0x3b64a63b	0.003488912
207	0x3b185e7f	0.0023249683
208	0x3c88c64f	0.016696123
209	0x3bd450e5	0.00647937
210	0x3bea895b	0.0071574873
211	0x3c0146d7	0.007890425
212	0xbaca2343	-0.0015421886
213	0x3c8f6244	0.017502911
214	0xbb350417	-0.0027620846
215	0x3ce16680	0.027514696
216	0x3bba8627	0.0056922617
217	0xbbf6eccc	-0.0075355526
218	0x3c6dbe87	0.014510757
219	0x3c7a76cd	0.015287113
220	0x3c28a573	0.010293352
221	0x3b58d0e0	0.0033083484
222	0x3cc30c6b	0.023809632
223	0x3c6ff60e	0.014646066
224	0x3cbd2205	0.02308751
225	0xbb0f7cdb	-0.0021894488
226	0x3cd2271f	0.02565342
227	0xbbafdb7a	-0.00536674
228	0x3cb34f73	0.02188847
229	0xbc9f0695	-0.019412318
230	0x3c995ff9	0.018722521
231	0x3cad01de	0.021119054
232	0x3ca27f03	0.019835955
233	0x3c86b27e	0.016442534
234	0x3cd746c3	0.026278859
235	0x3a46a3c5	0.0007577504
236	0x3c56d6da	0.013112748
237	0x3c62e099	0.013847494
238	0xbb6a78d7	-0.0035777593
239	0x3cb22f0c	0.02175095
240	0x3b8b4ed2	0.0042513395
241	0x3c835715	0.016032735
242	0x3c519463	0.012791726
243	0x3c1ef050	0.00970085
244	0x3c14a16d	0.00907169
245	0x3b4f3859	0.003161928
246	0x3c9aa55f	0.018877683
247	0x3c22f4ac	0.00994603
248	0xbb6118f9	-0.003434716
249	0x3be1ad8a	0.0068871425
250	0x3c5ef296	0.013607642
251	0x3cd0f315	0.025506536
252	0x3c29b723	0.010358605
253	0x3d0fc613	0.035101008
254	0x3cb3325b	0.021874597
255	0x3c6b41f6	0.014358988

network_body._body_endoder.seq_layers.0.weight f4 [256, 74]
0	0xbe55b5fe	-0.20870206
1	0x3d1c72cd	0.03819542
2	0xbe531d10	-0.20616555
3	0x3d814a50	0.06313002
4	0xbd530a4d	-0.051523495
5	0x3c69c7f9	0.014268869
6	0x3ddbc321	0.10730577
7	0x3e2b747b	0.16743653
8	0x3deb1f7f	0.11480617
9	0x3e203ef1	0.1564901
10	0xbca5ef69	-0.020255761
11	0xbe136967	-0.14395677
12	0x3de43499	0.11142845
13	0x3c31f816	0.010862371
14	0x3d43e4bf	0.04782557
15	0x3d1c076b	0.03809301
16	0x3e15670c	0.1459009
17	0x3dd551d1	0.10415996
18	0xbdc8e378	-0.09809011
19	0x3db70404	0.08936313
20	0xbdb1ee1f	-0.08687996
21	0x3cd670d1	0.026176842
22	0xbe2ffb2f	-0.17185663
23	0xbe05df9e	-0.13073584
24	0x3df9b8d3	0.121934555
25	0xbe135448	-0.1438762
26	0xbdd97f07	-0.10619932
27	0x3cb0ab96	0.021566194
28	0x3e08de5c	0.13366073
29	0x3cbca7c4	0.023029216
30	0xbda30f18	-0.07961863
31	0x3cee317b	0.029076329
32	0xbe6bd410	-0.23030114
33	0xbd1fe785	-0.039039154
34	0x3d6fb1ed	0.058519293
35	0xbd50a1dd	-0.050935615
36	0x3be462e7	0.006969798
37	0x3ddd4090	0.1080333
38	0xbd785ab9	-0.060633395
39	0xbd54c055	-0.051941235
40	0x3e098da2	0.13432935
41	0x3dcdac3e	0.10042618
42	0xbde6b779	-0.112654634
43	0xbd8fe687	-0.070263915
44	0xbe548811	-0.2075503
45	0x3e705d31	0.2347305
46	0xbdaca5ab	-0.08430036
47	0x3d9ad8d6	0.075608894
48	0x3d899c39	0.0671925
49	0xbceb1a5e	-0.028699096
50	0x3db93c8d	0.09044752
51	0x3d22763c	0.03966354
52	0xbdcf85a6	-0.10132913
53	0x3cef53ce	0.029214766
54	0x3ddf82d9	0.10913629
55	0x3cf58d6d	0.029974664
56	0xbe050db9	-0.12993516
57	0x3dcf6ed4	0.10128561
58	0xbe09920f	-0.13434623
59	0x3d57ed58	0.052716583
60	0x3daeca2b	0.08534654
61	0xb850e415	-4.9803482e-05
62	0xbe2b71c2	-0.16742614
63	0x3eaa466d	0.33256856
64	0xbd6350e6	-0.055497073
65	0x3dfab15e	0.12240861
66	0x3d1b15b7	0.037862506
67	0xbe005961	-0.12534095
68	0x3dfe904c	0.12429866
69	0x3e0d8f65	0.13824232
70	0xbc9d5042	-0.019203309
71	0x3dfe346c	0.124123424
72	0xbe5cd971	-0.21567322
73	0xbda0c203	-0.07849505
74	0xbd18c942	-0.03730131
75	0x3de418ad	0.11137519
76	0xbd8170a7	-0.06320315
77	0xbc836fdd	-0.016044552
78	0xbdb4f0c8	-0.08834988
79	0xbdf7703c	-0.12081954
80	0x3dae8fa2	0.085234895
81	0xb99c1d34	-0.00029776397
82	0x3e45f676	0.19332299
83	0xbc932b5f	-0.017965017
84	0x3ca8124c	0.020516537
85	0x3bb18606	0.005417588
86	0x3c0924c2	0.00837058
87	0xbd72af3c	-0.059249148
88	0x3c0a3792	0.008436101
89	0x3c4c8814	0.012483615
90	0x3e0dea80	0.13858986
91	0xbdbe58b3	-0.09294262
92	0xbe242daf	-0.16033052
93	0x3e018eb4	0.12652093
94	0xbdd4f51c	-0.103983134
95	0xbe1b9957	-0.15195213
96	0x3cab9df6	0.020949345
97	0x3c8560b2	0.01628146
98	0xbdc985f3	-0.09840002
99	0xbe63920a	-0.22223678
100	0x3dc437c2	0.095809475
101	0x3d32c2f3	0.04364295
102	0xbe0571ea	-0.13031736
103	0xbdd9e228	-0.10638839
104	0x3d550195	0.052003462
105	0xbdbd7ff2	-0.09252919
106	0x3be8636e	0.007091931
107	0x3be52a7b	0.0069935895
108	0x3b3e0702	0.0028995876
109	0xbe0d0ed1	-0.13775183
110	0xbe0906ff	-0.13381575
111	0x3ca350f8	0.01993607
112	0x3d027744	0.03185202
113	0xbca285eb	-0.019839248
114	0xbe1f4432	-0.15553358
115	0xbd432025	-0.047638077
116	0xbd1f1c85	-0.038845558
117	0xbcd6401f	-0.026153622
118	0x3ca5988d	0.020214343
119	0xbd9b1da1	-0.07574011
120	0xbcc3a4f0	-0.02388236
121	0xbe03a788	-0.12856877
122	0xbd5269e4	-0.051370516
123	0xbdb66440	-0.0890584
124	0x3daab8c5	0.08336023
125	0x3d51b2ff	0.051196095
126	0x3c938b82	0.018010858
127	0xbd05367b	-0.03252266
128	0xbdb4c941	-0.08827449
129	0xbe0cbdfa	-0.13744345
130	0xbd7d1800	-0.061790466
131	0x3dcd8f13	0.10037055
132	0xbd8a1353	-0.06741967
133	0x3d83f3ce	0.064429864
134	0x3ca98691	0.02069405
135	0xbe09d2d7	-0.13459335
136	0x3c8227d8	0.01588814
137	0x3ca188a0	0.019718468
138	0xbdf7b5f6	-0.12095253
139	0x3cf4e21e	0.029892977
140	0xbd1747f5	-0.036933858
141	0xbd8f6452	-0.070015565
142	0xbdebb863	-0.11509778
143	0x3e3b81fa	0.18311301
144	0x3b86ebf8	0.004117485
145	0xbe5561c9	-0.20838083
146	0x3cf5bf55	0.02999846
147	0x3e649c03	0.22325139
148	0xbe405ca7	-0.18785344
149	0x3d3ad58d	0.045613814
150	0xbdf00707	-0.1172009
151	0x3e62a4ba	0.2213315
152	0xbd989612	-0.07450499
153	0x3e292760	0.16518927
154	0x3cbd1ba4	0.02308447
155	0x3e0f88df	0.14017056
156	0x3debec4c	0.115196794
157	0xbde66e32	-0.11251487
158	0xbe59d154	-0.21271259
159	0xbdae5d85	-0.08513931
160	0xbd962d1d	-0.073328234
161	0x3cc4a810	0.02400592
162	0x3da1cfc3	0.079009555
163	0xbda8850c	-0.08228502
164	0x3bd0a4a1	0.0063672815
165	0x3e155d3a	0.14586344
166	0xbd56c695	-0.052435476
167	0xbdf48ecd	-0.119412996
168	0xbd74c642	-0.059759386
169	0xbd2c549b	-0.042072874
170	0xbe3f4f31	-0.18682553
171	0x3d49c2de	0.049258105
172	0xbe48e0c2	-0.19616988
173	0xbd8586a3	-0.065198205
174	0xbdb9cbdb	-0.090720855
175	0x3dada231	0.08478201
176	0x3c8b9954	0.017040886
177	0x3cc9bf35	0.024627307
178	0xbd642382	-0.055697925
179	0xbdd443a3	-0.10364463
180	0x3e3cca4e	0.18436548
181	0x3d79b859	0.060966823
182	0x3d0dff61	0.034667376
183	0x3e96ee7e	0.2947883
184	0x3ca13c0e	0.019681957
185	0xbe341edb	-0.17589895
186	0x3cd6ea4c	0.026234768
187	0x3e294c28	0.16532958
188	0x3e2b66ca	0.1673843
189	0xbe538ba8	-0.20658743
190	0xb92cf452	-0.00016494215
191	0xbd019639	-0.031637404
192	0x3cdc69e1	0.026905956
193	0xbe058f4d	-0.13042946
194	0xbe1636a1	-0.14669277
195	0x3e1bc278	0.15210903
196	0xbd8de2a5	-0.06927995
197	0xbcd64117	-0.026154084
198	0xbdb0d0cb	-0.08633574
199	0x3dc5fb32	0.09667052
200	0xbe57dc15	-0.21080048
201	0xbe5db7f6	-0.21652207
202	0xbdd3ab37	-0.10335391
203	0xbe035839	-0.12826623
204	0xbde4eb57	-0.111777
205	0x3dd501e1	0.10400749
206	0x3d325ed1	0.043547455
207	0x3e150135	0.14551242
208	0xbdbd233f	-0.09235238
209	0x3d1d52fa	0.03840921
210	0x3e43d71e	0.1912503
211	0xbe26617b	-0.16248123
212	0x3e03edb5	0.12883647
213	0x3e37744e	0.1791546
214	0xbe32117b	-0.17389481
215	0x3caf18fd	0.02137422
216	0xbd2b18cd	-0.0417717
217	0xbd2cd000	-0.04219055
218	0x3c126cee	0.008937104
219	0xbd742163	-0.059602153
220	0xbd6914f9	-0.056904767
221	0xbd63c62e	-0.05560892
222	0xbe198654	-0.14992648
223	0x3cb6c652	0.022311363
224	0xbd112754	-0.035437897
225	0xbd88a54f	-0.06672155
226	0x3c4fe644	0.012689177
227	0x3dac3688	0.084088385
228	0x39c983d6	0.00038435933
229	0x3d84e824	0.0648959
230	0xbe2d0d51	-0.16899611
231	0xbd5da5b4	-0.054113105
232	0x3d8b4e1c	0.068020076
233	0xbd633746	-0.055472635
234	0xbd802d0e	-0.062585935
235	0xbd8040b3	-0.062623404
236	0xbdc815a2	-0.09769751
237	0x3d58864b	0.052862447
238	0xbccaa04f	-0.024734644
239	0xbd9cb942	-0.076525226
240	0xbd275ef7	-0.04086205
241	0x3c639a7f	0.013891815
242	0x3dd8de7d	0.10589311
243	0x3d5ef42c	0.05443208
244	0x3dc909f9	0.09816355
245	0x3e5673f8	0.20942676
246	0x3e09aae4	0.13444096
247	0x3ce33524	0.0277353
248	0xbe3b9f87	-0.18322574
249	0xbe81cacf	-0.25350043
250	0xbdd9c029	-0.10632355
251	0xbdef3faf	-0.116820686
252	0xbdb33b2b	-0.0875152
253	0xbe0ee0ed	-0.1395299
254	0xbdc2d2a2	-0.09512831
255	0x3bf572c4	0.007490488

network_body._body_endoder.seq_layers.2.bias f4 [256]
0	0x3c1944b0	0.009354755
1	0xbc22692e	-0.009912772
2	0x3c0f4199	0.008743667
3	0x3c918c54	0.017767109
4	0x3d0788a5	0.0330893
5	0x3c82f184	0.015984304
6	0x3c76fc28	0.015074767
7	0x3b2fa8d3	0.0026803508
8	0x3cb16ae9	0.021657424
9	0x3be53a17	0.0069954502
10	0xbb911890	-0.004427977
11	0x3b4c0ea5	0.0031136659
12	0x3bc4b9f0	0.006003611
13	0xba756081	-0.00093603885
14	0x3cded92e	0.027203169
15	0x3bca650e	0.0061765974
16	0x3d0d9dbf	0.034574267
17	0x3c384255	0.011246284
18	0x3ccbc9d5	0.024876514
19	0x3c9de75f	0.019275365
20	0x3ca94ae9	0.020665603
21	0x3c059db3	0.008155274
22	0x3c8c571a	0.017131377
23	0x3cb2b112	0.02181295
24	0x3c1c83ed	0.009552938
25	0xbc7eaf17	-0.015544674
26	0x3d018904	0.03162481
27	0x3cb8dfbd	0.022567624
28	0x3c7461e8	0.014915921
29	0x3d205d87	0.039151695
30	0x3a8fafd7	0.0010962439
31	0x3c4eefbc	0.012630399
32	0x3bb6dc0e	0.005580432
33	0x3c33f3ed	0.010983449
34	0x3c9a81c0	0.018860698
35	0x3a7fca5a	0.0009757631
36	0x3c9e2777	0.019305928
37	0x3b600874	0.0034184726
38	0x3c969492	0.01838139
39	0x3c852908	0.016254917
40	0x3ba3cc6b	0.0049987338
41	0x3c81ea21	0.015858712
42	0x3c079820	0.0082760155
43	0x3c921bf8	0.017835602
44	0x3bbc4eb6	0.0057466878
45	0x3c0ae471	0.008477316
46	0x3c682559	0.014169061
47	0xbbb26dde	-0.005445226
48	0x3a93af57	0.0011267465
49	0xbc3a11ed	-0.011356813
50	0x3c4f9078	0.012668721
51	0x3c2446c0	0.010026634
52	0x3ce64957	0.028111143
53	0x3c95861b	0.018252423
54	0x3ca8ac43	0.020589953
55	0x3c29a190	0.010353461
56	0x3c8abd18	0.01693587
57	0xbba1762f	-0.0049274187
58	0x3c9dd096	0.0192645
59	0x3c805085	0.015663395
60	0x3c1c0784	0.009523276
61	0x3c28a376	0.010292878
62	0x3c9f18f0	0.01942107
63	0x3c32ffb8	0.010925226
64	0x3b208704	0.0024494538
65	0x3c9ba85c	0.019001178
66	0x3cba7549	0.022761004
67	0x3cdd5797	0.027019305
68	0x3c13579b	0.008993055
69	0x3c9d99ff	0.01923847
70	0x3c522dc1	0.012828291
71	0x3b4e2b22	0.0031458815
72	0x3c8a00cf	0.016846089
73	0x3c461420	0.012089759
74	0x3c692aaa	0.014231363
75	0xbc445e9d	-0.011985448
76	0x3bc64bef	0.0060515325
77	0x3c022f06	0.007945782
78	0x3ba3dacc	0.005000448
79	0x3c30fb29	0.010802069
80	0x3aec5e38	0.001803345
81	0xbb5890e6	-0.003304535
82	0xbbd55321	-0.006510154
83	0x3c54c235	0.012985756
84	0xbc191b57	-0.009344897
85	0x3c1b770d	0.009488833
86	0x3cf7dd1e	0.030256804
87	0x3c8d09db	0.017216614
88	0x3c4b6c09	0.012415894
89	0x3ce72e08	0.028220192
90	0x3c27ee5d	0.010249701
91	0x3c909b8a	0.017652292
92	0xbbcafc4c	-0.006194627
93	0x3cb4c7e3	0.02206797
94	0x3caffae5	0.02148194
95	0x3c612aa5	0.013743077
96	0x3c07c366	0.008286333
97	0xba7adb5b	-0.00095694297
98	0x3cb3cff1	0.02194974
99	0x3c836cd4	0.016043104
100	0x3c2d7a58	0.010588251
101	0x3b9ef007	0.004850391
102	0x3cc6d3dd	0.024270946
103	0x3c377134	0.011196423
104	0x3c812683	0.015765434
105	0x3c022115	0.007942458
106	0x3c8475f7	0.016169531
107	0x39175d02	0.0001443513
108	0x3c012353	0.007881957
109	0xbca102a7	-0.019654585
110	0x3c1960d9	0.009361469
111	0xbb77fd59	-0.0037840216
112	0x3c25e5fe	0.010125635
113	0xbc848cfe	-0.016180512
114	0x3be500cd	0.006988621
115	0x3d01841a	0.031620122
116	0x3c7c53c0	0.015400827
117	0xbc0a0f98	-0.008426569
118	0xbd07f8cd	-0.03319626
119	0x3b29d950	0.0025916882
120	0x3c5e8f6d	0.013584
121	0x3b7603b5	0.003753883
122	0x3cbe3d59	0.023222612
123	0xbaedbab6	-0.0018137309
124	0xba84b3f0	-0.0010124426
125	0x3c1ec601	0.0096907625
126	0x3c19beed	0.009383899
127	0x3c95e02e	0.018295374
128	0x3bfc0ec1	0.0076921885
129	0x3ce3cf83	0.02780891
130	0x3a0d55f9	0.0005391534
131	0x3c4c181c	0.01245692
132	0x3c847f0e	0.016173866
133	0xbc62a103	-0.0138323335
134	0x3c460199	0.012085342
135	0x3c8de604	0.017321594
136	0x3c685fd0	0.014183
137	0x3c566102	0.013084652
138	0x3c69c4e5	0.014268135
139	0x3aa33bba	0.0012453713
140	0xbbe4427b	-0.006965933
141	0x3ca97b62	0.020688716
142	0x3caa7b4c	0.020810746
143	0x3c9446d7	0.018100185
144	0x3cfda7e5	0.030963847
145	0x3b9f04de	0.004852875
146	0x3c118424	0.008881602
147	0x3cdad218	0.026711509
148	0x3c0a1e5f	0.008430093
149	0x3b4381f8	0.0029832106
150	0xba853726	-0.001016353
151	0x3ca94bdd	0.020666057
152	0xbc97669e	-0.018481549
153	0x3c86a4a6	0.016435932
154	0x3c1a2bdc	0.009409871
155	0xbae1ef59	-0.0017237469
156	0x3bf04ad6	0.00733314
157	0x3c5b2e77	0.013377777
158	0xba0f5c1b	-0.0005468742
159	0x3b1f45c8	0.0024303067
160	0x3ce27d13	0.02764753
161	0x3c32b340	0.010906994
162	0x3c41d162	0.011829706
163	0x3c02dd59	0.007987344
164	0x3c88cadd	0.016698295
165	0x3b93c5ad	0.004509649
166	0x3c5ee96b	0.013605456
167	0x3cd28f40	0.025703073
168	0xbc02abdf	-0.007975548
169	0x3c0381a4	0.008026514
170	0x3c1ede26	0.009696519
171	0x3cb98145	0.022644648
172	0x3ca73b0a	0.020413894
173	0x3c5b0cb7	0.013369731
174	0x3c9bd204	0.019021042
175	0x3c276edf	0.010219305
176	0xbbf8f5f9	-0.0075976816
177	0x3ccefafd	0.025266165
178	0x3c55b6bd	0.0130440565
179	0x3c9bfd03	0.019041544
180	0xbbd26ab9	-0.0064214137
181	0xbbce0aea	-0.006287922
182	0x3c51adc6	0.0127977785
183	0x3c2d7c6e	0.010588748
184	0x3c0c6093	0.008567947
185	0x3c390778	0.011293285
186	0x3c46ba21	0.0121293375
187	0x3c107850	0.008817747
188	0x3cb6cf4f	0.02231565
189	0x3ca9d5d7	0.02073185
190	0xbd294622	-0.04132665
191	0x3b8f7bc0	0.004378766
192	0x3cda9ac3	0.026685124
193	0x3b0865a3	0.0020812533
194	0x3b90bc7e	0.0044170013
195	0x3c24e042	0.010063233
196	0x3c9af61f	0.018916188
197	0x3a844503	0.0010091368
198	0x3cb03cb5	0.021513322
199	0x3c67fa90	0.01415886
200	0x3c1ce11a	0.009575153
201	0x3bb915e5	0.005648362
202	0x3c89a1eb	0.016800841
203	0x3c84a512	0.016191993
204	0x398802f5	0.00025942145
205	0xbb842e15	-0.0040338137
206	0x3b04b1c8	0.0020247567
207	0x3c021980	0.00794065
208	0x3ca56b99	0.020192908
209	0x3cabff99	0.020995902
210	0x3c83ed6e	0.016104426
211	0x3d1475f9	0.03624532
212	0x3b656a6b	0.0035006057
213	0x3cb197b1	0.021678777
214	0x3c4ae941	0.012384714
215	0x3cb837d1	0.022487553
216	0x3c9fcfd4	0.01950828
217	0x3ac3051a	0.001487884
218	0x3c467f94	0.012115378
219	0x3ae25959	0.0017269059
220	0x3cd1c62e	0.025607195
221	0x3caf993b	0.02143537
222	0xbc3bab23	-0.011454376
223	0x3c4d0ee5	0.012515758
224	0xbc11545e	-0.008870212
225	0xba160d0f	-0.0005723992
226	0xbb5eec8f	-0.0034015512
227	0x3b1b3803	0.0023684509
228	0xbb8bfd5e	-0.004272147
229	0x3ca8ac7e	0.020590063
230	0x3c210913	0.009828824
231	0xbb87d38d	-0.004145092
232	0x3be1b391	0.006887861
233	0x3c555440	0.013020575
234	0x3c5f997a	0.0136474315
235	0x3bf0d083	0.0073490753
236	0x3cb83eaf	0.022490827
237	0x3baf8858	0.0053568296
238	0x3bda0877	0.006653841
239	0x3bd74e0e	0.006570584
240	0x3c48b46c	0.012250047
241	0x3c30deeb	0.010795335
242	0x3ca24884	0.019809969
243	0x3c56b863	0.013105485
244	0x3c1d3d9d	0.009597209
245	0x3c3f8865	0.011690234
246	0x3bdc9878	0.006732043
247	0x3cacd56d	0.021097863
248	0x3c674fe1	0.014118166
249	0x3ccb773e	0.024837133
250	0x3c41e495	0.011834283
251	0x3c889ed6	0.016677301
252	0x38fc4778	0.000120296085
253	0x3ba52832	0.005040192
254	0x3b1466cf	0.0022644287
255	0xbbf0d5f0	-0.007349722

network_body._body_endoder.seq_layers.2.weight f4 [256, 256]
0	0xbd97f8c9	-0.07420499
1	0xbe00bbb2	-0.125716
2	0xbd0d9584	-0.034566417
3	0xbd05479c	-0.032538995
4	0x3dbd883c	0.092545
5	0xbd631068	-0.055435568
6	0xbd40361c	-0.046926603
7	0xbd0467b7	-0.032325473
8	0x3d4b6284	0.0496545
9	0xbd943b47	-0.07237869
10	0xbd5f4518	-0.054509252
11	0x3e1c6e09	0.1527635
12	0x3d527dad	0.051389385
13	0x3d59905a	0.05311618
14	0xbd4a0ee4	-0.049330607
15	0xbd39bd16	-0.045346342
16	0x3d3644a4	0.044499055
17	0x3e187258	0.14887369
18	0x3c201d08	0.009772547
19	0xbd80041d	-0.062507845
20	0x3e197ba7	0.14988576
21	0x3da75a00	0.08171463
22	0x3c4a6015	0.012352009
23	0x3d82468a	0.063611105
24	0xbd797acf	-0.060908135
25	0x3d47f8cb	0.04882125
26	0x3db765de	0.089549765
27	0xbd84fe58	-0.06493825
28	0xbd464461	-0.048405055
29	0x3d92d98f	0.07170402
30	0xbc70beb7	-0.014693907
31	0x3de42dfb	0.111415826
32	0xbc5792d1	-0.013157562
33	0xbdddcb44	-0.108297855
34	0x3c45b1e3	0.012066337
35	0x3d80015e	0.06250261
36	0xbd8fc595	-0.07020108
37	0x3d1a3790	0.037650645
38	0xbc6d96fa	-0.014501328
39	0xbccfa34c	-0.02534642
40	0x3cbf705c	0.023369007
41	0x3c938a17	0.018010182
42	0x3c5c1d93	0.013434785
43	0xbdcb95ae	-0.099406585
44	0xbd6b6405	-0.057468433
45	0xbd9a2682	-0.07526876
46	0x3c4a196a	0.012335161
47	0xbc1e4bfb	-0.00966167
48	0x3d3b0731	0.045661155
49	0xbd9f7e1f	-0.077877276
50	0x3c595e70	0.013267145
51	0xb8f40ac4	-0.00011636832
52	0x3d998c20	0.0749743
53	0xbca803ea	-0.020509679
54	0x3dc6e3f7	0.097114496
55	0x3d4c0ed5	0.049818832
56	0x3ca59b91	0.020215781
57	0x3c079ff7	0.008277885
58	0xbd075189	-0.033036742
59	0x3e00aef2	0.12566736
60	0xbd028586	-0.03186562
61	0x3c733dee	0.014846308
62	0x3c7eed2b	0.015559475
63	0x3da3a012	0.07989515
64	0x3cd3d8cd	0.025860215
65	0x3bcb3d37	0.0062023657
66	0x3c6889af	0.014192983
67	0xbd62bef6	-0.055357896
68	0x3da1a170	0.0789212
69	0xbd64537e	-0.055743687
70	0xbd22c605	-0.039739627
71	0xbd7a3c98	-0.061092943
72	0x3d698289	0.057009254
73	0x3cf9dd99	0.030501174
74	0x3dba5bd7	0.09099548
75	0xbcff8332	-0.031190488
76	0x3d0247da	0.031806804
77	0xbce1dca2	-0.027571026
78	0x3cdf80af	0.02728304
79	0x3d1e89f0	0.038705766
80	0xbda61295	-0.08109013
81	0x3d0ed525	0.03487124
82	0xbcc075cf	-0.023493676
83	0x3d02d439	0.031940673
84	0x3e2ef596	0.17085871
85	0x3de8172b	0.11332544
86	0xbbcf5c4f	-0.0063281427
87	0x3d911ba4	0.0708535
88	0x3d2cbcc4	0.04217221
89	0x3d19fc6f	0.037594255
90	0xbdf12ee1	-0.117765196
91	0x3a83aefc	0.0010046656
92	0xbc54ad78	-0.012980811
93	0xbdf6cb7d	-0.12050531
94	0x3bb761d3	0.0055963784
95	0xbcf346b6	-0.029696804
96	0xbda4908e	-0.08035384
97	0x3c9dd5d1	0.019266995
98	0x3da17290	0.07883179
99	0xbd276729	-0.040869866
100	0x3c0daa05	0.008646493
101	0xbd2f9701	-0.042868618
102	0x3ca291c6	0.0198449
103	0x3e31c9a1	0.17362072
104	0x3dc0e04f	0.094177835
105	0x3c271ea3	0.010200175
106	0xbd144683	-0.036200058
107	0xbd6de8d5	-0.058083374
108	0xbd5497f7	-0.051902737
109	0x3cace9de	0.02110761
110	0xbcbd424f	-0.023102907
111	0x3dcf0b29	0.101095505
112	0x3d7d0f7a	0.061782338
113	0xbddc29e0	-0.107501745
114	0x3d69c75a	0.057074882
115	0x3cd2dfc0	0.025741458
116	0xbd33f863	-0.043938052
117	0xbda2fae9	-0.079580136
118	0x3e12cabd	0.14335151
119	0xbd82e43e	-0.0639119
120	0xbd47ae65	-0.0487503
121	0xbd8444f6	-0.06458466
122	0xbbc08051	-0.0058746715
123	0x3cd2e89a	0.025745679
124	0x3d5bb149	0.05363587
125	0x3c52274f	0.012826755
126	0xbdfb33b9	-0.12265725
127	0xbd5aefb6	-0.053451262
128	0xbc360928	-0.011110581
129	0x3dc71c52	0.097221985
130	0x3d8dd1f8	0.06924814
131	0xbc55805a	-0.01303109
132	0xbe04d71c	-0.12972683
133	0xbc68ee2e	-0.014216943
134	0xbd9b2771	-0.07575882
135	0x3d41f62d	0.047353912
136	0xbd2d7b85	-0.042354126
137	0xbd3b1f04	-0.045683876
138	0x3cbdf521	0.023188176
139	0x3d0fd27e	0.03511285
140	0x3d46c68b	0.04852919
141	0x3ba5ad36	0.0050560487
142	0xbdbec85e	-0.09315561
143	0xbd6b07a3	-0.05738033
144	0x3d399e6a	0.04531709
145	0x3cfcecd1	0.030874642
146	0x3de257b8	0.11051887
147	0xbd2aaf58	-0.041671127
148	0xbd649967	-0.05581036
149	0x3d27b50d	0.040944148
150	0x3e05b127	0.1305586
151	0xbd64d52a	-0.05586735
152	0x3b8b75de	0.004255994
153	0xbdb6ed56	-0.08931987
154	0x3caf6299	0.02140932
155	0xbbea1844	-0.007144006
156	0x3b900e84	0.0043962616
157	0x3d9a745e	0.075417265
158	0x3dac4f7d	0.08413599
159	0xbd3d79da	-0.046258785
160	0x3c9700a3	0.01843292
161	0x3db2b0cf	0.0872513
162	0xbb57e2eb	-0.003294165
163	0x3c9dafc7	0.019248856
164	0x3ddf5ec2	0.109067455
165	0xbd59efbf	-0.053207155
166	0x3c5e81d6	0.01358076
167	0xbdf838cc	-0.12120208
168	0xbdc1e3f4	-0.09467307
169	0x3d84b7d1	0.06480373
170	0xbc01fdc5	-0.0079340385
171	0x3e2b77cc	0.16744918
172	0x3e094ce2	0.13408235
173	0x3d23807e	0.03991746
174	0x3c15e813	0.009149569
175	0xbd8ba3b6	-0.06818335
176	0x3c87b199	0.016564177
177	0x3d825942	0.06364681
178	0x3cdb28ed	0.026752913
179	0xbd177cf3	-0.036984395
180	0xbdacdb8b	-0.08440312
181	0xbbb6c14c	-0.005577242
182	0x3e36dd73	0.17857914
183	0x3d172ac2	0.03690601
184	0x3c5872e4	0.013210986
185	0xbdad8ff4	-0.084747225
186	0x3cf6bacf	0.030118374
187	0xbdd426d1	-0.10358966
188	0xbe15bef7	-0.14623629
189	0xbd6983d0	-0.05701047
190	0xbd861162	-0.06546284
191	0xbc93b17f	-0.018028973
192	0xbc805453	-0.015665209
193	0x3c83a32d	0.01606902
194	0xbe2ae803	-0.16690068
195	0x3cddc6b8	0.027072296
196	0x3d0368b4	0.032082275
197	0x3cfe379f	0.031032382
198	0xbbc975a2	-0.006148056
199	0x3deac323	0.114630006
200	0x3d6be9d4	0.057596043
201	0xbda1524f	-0.07877027
202	0x3cb4eb27	0.022084786
203	0x3b05c026	0.002040872
204	0xbdc7d048	-0.09756523
205	0x3d3d1a87	0.046167877
206	0x3a983b9f	0.0011614448
207	0xbc56cbcf	-0.013110115
208	0x3b99bcfe	0.004691719
209	0x3d424a55	0.04743417
210	0xbdcb2785	-0.09919647
211	0xbd5e3f01	-0.054259304
212	0xbbb0457b	-0.0053793765
213	0xbcca3688	-0.024684206
214	0xbd74702b	-0.059677284
215	0xbd95e83d	-0.073196866
216	0xbdb0b877	-0.08628934
217	0x3d9be8f7	0.07612794
218	0x3d160846	0.036628984
219	0x3d039a39	0.0321295
220	0x3daf2e41	0.08553744
221	0xbd6b0766	-0.057380103
222	0xbd18db49	-0.0373185
223	0xbc4e3ba8	-0.012587465
224	0xbcc2bf1f	-0.023772774
225	0xbd19cdd3	-0.037549805
226	0xbced7bdc	-0.028989725
227	0xbde99765	-0.11405829
228	0x3d202ba1	0.039104108
229	0x3ccc2c31	0.024923416
230	0xbb48f963	-0.0030666224
231	0xbda87a9e	-0.08226512
232	0x3d117540	0.03551221
233	0xbdbb7500	-0.09153175
234	0x3d28ed84	0.041242138
235	0xbd211e9c	-0.039335832
236	0x3d131b65	0.035914797
237	0x3dc9eac7	0.09859233
238	0xbdc6e858	-0.09712285
239	0x3d81b0af	0.06332528
240	0x3e5c091c	0.2148785
241	0x3d121483	0.035664093
242	0x3b1964ba	0.0023405985
243	0xbcc707cd	-0.024295712
244	0xbb9e3c62	-0.0048289755
245	0x3ddb8115	0.1071798
246	0xbd73479d	-0.059394468
247	0xbdf8bdfc	-0.12145612
248	0x3d616cc8	0.055035383
249	0x3a3713db	0.00069838547
250	0xbd1c8f36	-0.038222514
251	0xbe08e214	-0.13367492
252	0x3d92c95e	0.07167314
253	0xbcda4dca	-0.02664842
254	0x3e07643c	0.1322183
255	0x3b79e88d	0.0038132996

network_body._body_endoder.seq_layers.4.bias f4 [256]
0	0x3cc1e9e5	0.0236711
1	0x3cdefa8a	0.027219076
2	0x3c42882c	0.011873286
3	0x3badf505	0.0053087496
4	0xb9443a56	-0.00018713748
5	0x3c0a837a	0.008454198
6	0x3ca1803b	0.019714465
7	0x3c74afe8	0.014934517
8	0x3c48cc3b	0.012255724
9	0x3aed91d9	0.0018125131
10	0x3bbc4389	0.0057453555
11	0xbb4fc817	-0.0031704956
12	0x3c552e88	0.013011582
13	0x3c3c891d	0.0115073
14	0x3c96d9aa	0.018414337
15	0x3c9b7255	0.018975416
16	0x3ca039ef	0.019558875
17	0x3c7a6a13	0.015284079
18	0x3c957391	0.018243583
19	0x3c57ab22	0.01316336
20	0x3c055eee	0.008140309
21	0x3b4b308a	0.0031004273
22	0x3c4e9de2	0.012610884
23	0x3c3e8a2b	0.0116296215
24	0x3c20cb77	0.009814135
25	0x3b7aa703	0.003824652
26	0x3c08b922	0.00834492
27	0x3c9f3dd9	0.019438671
28	0x3cb233a3	0.021753138
29	0x3c942c76	0.018087607
30	0x3c85d2b0	0.016335815
31	0xbb758e73	-0.003746894
32	0x3c808c6c	0.015691958
33	0x3b10cfa6	0.0022096424
34	0x3cc778ac	0.024349533
35	0x3c6ee0fa	0.014580006
36	0x3c5fdddb	0.013663734
37	0x3c2ce6c6	0.010553068
38	0x3c8ee6cb	0.017444035
39	0x3bac1acd	0.0052522183
40	0x3c25ab82	0.010111691
41	0x3914f59f	0.00014205881
42	0x3c2cd42a	0.010548631
43	0xba144e75	-0.0005657443
44	0x3ca24af1	0.019811125
45	0x3cc1e288	0.023667589
46	0x3caeda8b	0.021344444
47	0x3c885678	0.016642794
48	0x3c42b930	0.011884972
49	0x3ca37285	0.019952068
50	0x3bcd7aac	0.006270727
51	0x3cd834af	0.026392309
52	0x3b3c04ff	0.0028689501
53	0x3b8ce40f	0.0042996476
54	0x3c8ca375	0.017167786
55	0x3c9d910d	0.019234205
56	0x3bc78861	0.0060892557
57	0x3c91e97a	0.017811526
58	0x3c80a36f	0.015702931
59	0x3b9a72d6	0.0047133965
60	0x3b4a2aa9	0.0030848181
61	0x3b7c4c19	0.0038497506
62	0x3c4d8cc1	0.012545765
63	0x3bd83557	0.0065981555
64	0x3b4bd6bf	0.003110334
65	0x3b2527de	0.0025200765
66	0x3beb2797	0.0071763503
67	0x3c03e757	0.008050761
68	0x3cbf7f84	0.023376234
69	0x3aa4686e	0.001254333
70	0x3c1f5253	0.0097242175
71	0x3bedc685	0.0072563314
72	0x3cc9a8cc	0.024616621
73	0x3bf35e56	0.007427017
74	0x3cb8548c	0.022501253
75	0x3b7e546f	0.003880765
76	0x3ba057b0	0.0048932657
77	0x3c371c85	0.011176233
78	0x3c9dd4bb	0.019266477
79	0x3bc87315	0.0061172345
80	0x3c451190	0.012028113
81	0x3c9d7c97	0.019224448
82	0x3bc1d79b	0.0059155948
83	0x3c1d8900	0.009615183
84	0x3c9a67a6	0.018848252
85	0x3ab6f28c	0.0013957783
86	0x3ccff7d9	0.025386738
87	0x3c8103f8	0.015748963
88	0x3c8c050e	0.017092254
89	0x3c63424b	0.013870786
90	0x3c191144	0.009342495
91	0x3ce43f6c	0.027862273
92	0x3c86ae62	0.016440574
93	0x3c8fde44	0.01756204
94	0x3c93384e	0.017971184
95	0x3c981754	0.018565811
96	0x3bcd1076	0.006258066
97	0x3bc4cc54	0.006005803
98	0x3cb650fd	0.022255415
99	0x3c73b512	0.0148747135
100	0x3ad50851	0.0016253089
101	0x3c9fd42e	0.019510355
102	0x3ba40245	0.0050051534
103	0x3c0f21b7	0.008736066
104	0x3c3a6e88	0.011378892
105	0x3c378b73	0.011202681
106	0x3c92bb1c	0.017911486
107	0x3c762a36	0.015024712
108	0x3c78072c	0.015138429
109	0x3c987b35	0.018613437
110	0x3c60fedd	0.013732639
111	0x3c72de75	0.014823546
112	0x3c322dec	0.010875206
113	0x3bde6d18	0.0067879073
114	0x3cd5388e	0.026027944
115	0x3bce9166	0.006303954
116	0x3c87e8db	0.016590526
117	0x3c34cf2d	0.011035723
118	0x3cd1ff81	0.02563453
119	0x3bdaf9b3	0.0066825985
120	0x3c7d4a0d	0.01545955
121	0x3a6ddaea	0.0009073453
122	0x3c67599f	0.014120488
123	0x3c1f74ef	0.009732469
124	0x3d065b7d	0.032802094
125	0x3a3410fc	0.0006868986
126	0x3c6c10b5	0.01440828
127	0x3bd1bb34	0.00640049
128	0x3c88220b	0.016617795
129	0x3c5f9939	0.013647371
130	0x3a45ba1b	0.00075426855
131	0x3ca22db4	0.019797184
132	0xbb0533bf	-0.0020325033
133	0x3c0fb752	0.008771734
134	0x3c7863b2	0.015160488
135	0x3bdaf923	0.0066825314
136	0x3c1e6fb1	0.009670184
137	0x3cb7e162	0.022446338
138	0x3c8a8bd8	0.016912386
139	0x3c680a80	0.01416266
140	0x3c990d45	0.018683085
141	0x3c1ffbc3	0.0097646145
142	0xbb636bde	-0.0034701745
143	0x3b3c06ad	0.0028690503
144	0x3bc970a0	0.006147459
145	0x3c5064c7	0.01271934
146	0x3bc3699e	0.0059635183
147	0x3c49b1bc	0.012310442
148	0x3c8432b8	0.016137466
149	0x3bd72063	0.00656514
150	0x3c2538d8	0.010084353
151	0x3c92061f	0.017825184
152	0x3b9aef7d	0.0047282563
153	0x3c7d9e7b	0.015479679
154	0x3caad2f0	0.020852536
155	0x3c9537cd	0.018215084
156	0x3b90ca1b	0.004418624
157	0x3ca1aa5e	0.019734558
158	0x3c1aae85	0.009441023
159	0x3c0490c2	0.008091154
160	0x3bd31516	0.0064417226
161	0x3c7e067b	0.015504475
162	0x3baaf48d	0.005217141
163	0x3c58fdc4	0.013244096
164	0x3c165c0f	0.009177222
165	0x3c955fe5	0.018234203
166	0x3beba683	0.0071914806
167	0x3ccdf0e0	0.025139272
168	0x3acdfd89	0.0015715818
169	0x3b9a7c81	0.004714549
170	0x3c6bff61	0.014404149
171	0x3c07218d	0.008247745
172	0x3c40f678	0.011777513
173	0x3c23c38b	0.009995352
174	0x3c8e1142	0.017342214
175	0x3c84e938	0.016224489
176	0x3c4fa0c4	0.012672607
177	0x3cdc13cf	0.026864914
178	0x3bbb733b	0.0057205237
179	0x3c66d29b	0.014088298
180	0x3c2e425d	0.010635939
181	0x3c8c417c	0.01712107
182	0x3c93f30a	0.018060226
183	0x3bfe6577	0.0077635604
184	0x3c6f77f9	0.014616006
185	0x3ca8aef5	0.020591239
186	0x3c3396d8	0.010961257
187	0x3c545526	0.012959754
188	0x3bd8687f	0.006604254
189	0x3bf3e52e	0.007443092
190	0x3cb77b5b	0.022397688
191	0x3c41351d	0.011792448
192	0x3b71c134	0.003688884
193	0x3c8eb552	0.017420445
194	0x3ce6fae7	0.028195811
195	0x3c826e89	0.015921848
196	0x3c8906df	0.01672691
197	0x3c19418d	0.009354007
198	0x3c677ea6	0.014129316
199	0x3c6f8955	0.014620145
200	0x3c657831	0.014005707
201	0x3c86e61d	0.016467148
202	0x3c01f34f	0.007931544
203	0x3cb04e3e	0.021521684
204	0x3be9b4fa	0.00713217
205	0x3c0db8cd	0.008650017
206	0xba531ed3	-0.00080536044
207	0x3c2afc0c	0.010436069
208	0x3c119e52	0.008887844
209	0x3ba2ded9	0.004970413
210	0x3c63d2c3	0.01390523
211	0x3bbbefac	0.005735358
212	0x3bffce78	0.0078065954
213	0xbac3e6fa	-0.0014946156
214	0x3c30cea1	0.010791452
215	0x39eda660	0.00045328122
216	0xba9c731b	-0.001193616
217	0x3c9edc44	0.01939214
218	0x3c3eb926	0.0116408225
219	0x3c20e83b	0.009820993
220	0x3c3fe912	0.011713283
221	0x3c47a56a	0.012185434
222	0x3c7ed86a	0.015554527
223	0xbb6dd536	-0.0036290414
224	0x3b32af9a	0.0027265311
225	0x3c80b34b	0.015710494
226	0x3c015740	0.007894337
227	0x3c900989	0.017582672
228	0x3c633de8	0.01386974
229	0x3c938eea	0.018012483
230	0x3bfc7872	0.007704788
231	0x3c62c67a	0.013841266
232	0x3ce18719	0.02753024
233	0x3c07dbd8	0.008292161
234	0x3c836720	0.016040385
235	0x3c154935	0.009111692
236	0x3caee566	0.02134962
237	0x3ca51609	0.020152109
238	0x3c594b09	0.013262519
239	0x3c5255cd	0.012837839
240	0x3c4adecf	0.012382223
241	0x3bff0c79	0.0077834693
242	0x3c6c966b	0.014440159
243	0x3cb94142	0.022614125
244	0x3c93a037	0.018020732
245	0x3bbd5c89	0.0057788533
246	0x3bf77e98	0.007552933
247	0x3c4131ea	0.011791686
248	0xbb8ddbae	-0.0043291664
249	0x3c84a88d	0.016193653
250	0x3c14e96b	0.009088854
251	0x3c3cc166	0.011520719
252	0x3cc8f83e	0.024532434
253	0x3b5ecf61	0.003399812
254	0x3b81bf42	0.0039595673
255	0x3cbebaa4	0.023282357

network_body._body_endoder.seq_layers.4.weight f4 [256, 256]
0	0xbd6bb64a	-0.05754689
1	0xbc2e5e68	-0.010642625
2	0x3c6ca29d	0.014443067
3	0xbcfc295f	-0.030781446
4	0x3ccdf77e	0.025142428
5	0x3d1b4898	0.037911028
6	0xbcf92520	-0.03041321
7	0xbd1257d2	-0.035728283
8	0xbdadc003	-0.08483889
9	0x3d23f83a	0.04003165
10	0x3b4d219f	0.0031300557
11	0xbb4dcaed	-0.003140147
12	0xbd5b98a3	-0.053612363
13	0x3bf574e4	0.007490741
14	0x3d70e99f	0.05881655
15	0x3c41ed29	0.011836329
16	0x3d133ff4	0.035949662
17	0xbd391300	-0.045184135
18	0x3cdf6564	0.027270027
19	0x3d1f6038	0.03891012
20	0x3b47ee05	0.003050686
21	0xbd5b4117	-0.05352887
22	0x3d04714c	0.03233461
23	0x3de960f7	0.11395448
24	0x3d494831	0.049141113
25	0x3ddfec58	0.10933751
26	0xbb8d4211	-0.0043108542
27	0x3ce4d803	0.027935034
28	0x3db71ad3	0.08940663
29	0x3d80b3d8	0.062843025
30	0x3ce09d18	0.027418658
31	0x3b6c66ad	0.0036071942
32	0x3d6b795a	0.057488777
33	0xbd69769a	-0.056997873
34	0xbd06aaf2	-0.03287787
35	0xbdc5f525	-0.09665898
36	0x3da01991	0.078173764
37	0xbc65a16f	-0.01401554
38	0x3cd2a826	0.025714945
39	0xbd05f6ef	-0.032706197
40	0xbd51af8d	-0.05119281
41	0x3db83f4e	0.089964494
42	0x3d713919	0.058892343
43	0x3cf08d46	0.02936424
44	0x3d3210ed	0.043473173
45	0x3d89c2b0	0.06726587
46	0xbca4840b	-0.020082494
47	0x3d59a4c9	0.053135667
48	0xbe0c2283	-0.1368504
49	0xbdac0fe9	-0.08401472
50	0x3d33acb9	0.043865893
51	0xbc2fc6c0	-0.010728538
52	0x3de9e2b4	0.11420193
53	0x3e33f507	0.1757394
54	0x3d84275c	0.0645282
55	0x3e034f31	0.12823178
56	0x3cc40887	0.023929847
57	0xbd88a32f	-0.0667175
58	0xbd083b47	-0.033259656
59	0xbe0508ce	-0.1299164
60	0x3ded98ea	0.11601432
61	0x3c0ce479	0.008599394
62	0xbc6d6b5d	-0.014490929
63	0x3de3921e	0.11111854
64	0xbd3f4e18	-0.046705335
65	0xbd5425f2	-0.051794
66	0x3e0f8abe	0.1401777
67	0x3ce7226a	0.028214652
68	0xbc252683	-0.010079983
69	0xbd945e22	-0.07244517
70	0x3dec8f3d	0.11550758
71	0x3d609f21	0.054839257
72	0xbcf09987	-0.029370083
73	0x3ca8e63f	0.020617602
74	0x3b738615	0.0037158777
75	0xbd6f21a8	-0.058381706
76	0x3dc70de8	0.09719449
77	0xbdedee2c	-0.11617693
78	0xbd379ed2	-0.044829197
79	0x3d020878	0.031746358
80	0x3cc1f249	0.0236751
81	0x3db6a478	0.08918089
82	0x3cc4fcad	0.024046266
83	0x3e1a1608	0.15047467
84	0xbd89dc48	-0.067314684
85	0xbd251bae	-0.0403096
86	0xbbf459f5	-0.007457013
87	0x3ce73548	0.028223649
88	0xbc6e2ad3	-0.014536577
89	0x3c126955	0.008936246
90	0xbd4e6c6f	-0.05039638
91	0xbdc09ddc	-0.09405109
92	0xbe795bde	-0.24351451
93	0xbdc64b6a	-0.09682353
94	0x3d0ca742	0.034339197
95	0x3ce9014e	0.028443005
96	0xbcbd8ee0	-0.023139417
97	0xbdbb1a39	-0.09135861
98	0x3cb1e5f1	0.02171609
99	0xbd6bc359	-0.057559345
100	0xbda341af	-0.079715125
101	0x3c25a351	0.010109738
102	0x3d693ddb	0.056943756
103	0x3d4b5ccd	0.04964905
104	0xbb8f4dc9	-0.0043732864
105	0x3d2247eb	0.039619368
106	0x3d5c9f59	0.053862903
107	0xbd1d04cc	-0.038334653
108	0xbd0914b3	-0.033467006
109	0xbe06d7cb	-0.13168256
110	0x3c4d25e2	0.012521239
111	0x3dfcdefa	0.12347217
112	0xbd1ec8f2	-0.038765855
113	0x3d8f5c25	0.06999997
114	0xbd596650	-0.05307609
115	0x3d71ea59	0.059061382
116	0x3e01d2d0	0.12678075
117	0x3c4141b4	0.01179545
118	0xbd0d9e2f	-0.034574684
119	0x3abe2e07	0.0014509567
120	0xbc5d0aa1	-0.013491304
121	0xbc5793fe	-0.013157843
122	0xbc1bfd5d	-0.009520856
123	0xbd3b2639	-0.04569075
124	0xbcfbf576	-0.030756693
125	0x3dbafc54	0.09130159
126	0x3d4f0d0f	0.050549563
127	0x3e0deb2f	0.13859247
128	0xbd81dceb	-0.06340965
129	0x3c8ef3f2	0.017450307
130	0x3cfb0553	0.030642187
131	0x3b908f15	0.004411588
132	0x3d3a21f1	0.045442525
133	0x3b79d0dc	0.0038118875
134	0xbd0fb624	-0.035085812
135	0xbde34de9	-0.110988446
136	0x3ce32614	0.027728118
137	0x3c8585fc	0.01629924
138	0x3ca529e1	0.020161571
139	0x3d0fa240	0.035066843
140	0xbe421203	-0.18952183
141	0x3d5d8f0b	0.054091495
142	0x3d5c84fe	0.05383777
143	0x3d8deb51	0.06929649
144	0x3bd2669f	0.006420925
145	0x3d61dbc9	0.055141244
146	0x3d4f7519	0.050648782
147	0xbd35feaa	-0.04443232
148	0xbce1b13a	-0.027550329
149	0x3d6b8dc5	0.05750825
150	0x3d196aeb	0.03745548
151	0x3dc55e3d	0.09637115
152	0xbc4591c2	-0.012058677
153	0x3e0d24fe	0.13783643
154	0x3c8dd25f	0.017312227
155	0x3d2f053f	0.042729612
156	0xbd5900c9	-0.052979264
157	0xbcbfd825	-0.023418495
158	0x3de0ad8e	0.10970603
159	0xbc8618ce	-0.01636925
160	0x3dff24f8	0.12458223
161	0xbcf9a29d	-0.030473048
162	0xbd88becf	-0.06677019
163	0x3d711fd2	0.058868237
164	0x3d919288	0.07108027
165	0xbd34d358	-0.044146866
166	0xbe4e4ed9	-0.20147265
167	0x3c8ac03a	0.016937364
168	0xbd03a9ce	-0.03214436
169	0x3ddff0a6	0.10934572
170	0xbc5f2432	-0.0136194695
171	0xbc0ea7a4	-0.008706961
172	0x3bc6090e	0.00604356
173	0x3e0eab7d	0.13932605
174	0x3c77f4f8	0.015134089
175	0x3b05be0e	0.002040747
176	0x3d5171f3	0.05113406
177	0xbb840928	-0.004029412
178	0x3ce24458	0.02762048
179	0x3dd209f7	0.10255807
180	0x3dbd80ea	0.09253104
181	0xbbf18957	-0.0073711085
182	0x3d75662d	0.059911896
183	0xbccd0244	-0.025025494
184	0x3d8d4181	0.068972595
185	0xbd3679c9	-0.044549737
186	0xbdb73562	-0.08945729
187	0xbd82a743	-0.06379559
188	0xbda4df12	-0.0805036
189	0x3d9c338b	0.076270185
190	0x3ddbdbf2	0.107353106
191	0x3d2fc35e	0.042910926
192	0xbdefa45b	-0.1170127
193	0xbd634b19	-0.05549154
194	0xbd0cc741	-0.03436971
195	0x3c8ef250	0.017449528
196	0xbc113d96	-0.008864781
197	0x3c39749d	0.011319307
198	0x3c2e1b07	0.010626561
199	0xbd845d98	-0.06463164
200	0x3d7ad4c0	0.06123805
201	0xbd323682	-0.043509014
202	0x3d72a88a	0.059242763
203	0xba6b9cae	-0.00089878857
204	0xbc38549d	-0.011250642
205	0xbdbf52e3	-0.09341981
206	0xbd4d8f73	-0.050185632
207	0x3dd4ad83	0.10384657
208	0x3ca6fe56	0.020384949
209	0xbc972cd8	-0.018454
210	0xbd9e1389	-0.0771857
211	0x3d6538a1	0.05596221
212	0x3d802b7e	0.062582955
213	0xbd584500	-0.05280018
214	0xbc39ebec	-0.011347752
215	0x3de5ada3	0.11214759
216	0x3d3cc12d	0.046082664
217	0xbb54b38d	-0.0032455653
218	0xbdfa6c1d	-0.12227652
219	0xbc9a91c1	-0.018868329
220	0x3df26ea0	0.11837506
221	0xbc82a091	-0.015945705
222	0xbd4e37db	-0.050346237
223	0xbde29881	-0.11064244
224	0xbb2115d4	-0.002457966
225	0x3cb630f1	0.022240134
226	0x3c27a9fc	0.0102333985
227	0xbd7bd2a4	-0.06148018
228	0xbcf5c5db	-0.030001571
229	0x3d950541	0.07276393
230	0x3da992b4	0.082799345
231	0xbcb2f93a	-0.021847356
232	0xbd704e24	-0.05866827
233	0x3cb57eeb	0.022155246
234	0xbc2e09eb	-0.010622482
235	0x3c0bd5fb	0.008534904
236	0xbcd5a42a	-0.026079256
237	0xbc2dec79	-0.0106154615
238	0x3c499cee	0.012305481
239	0xbd148c83	-0.036266815
240	0x3e0518e6	0.12997779
241	0x3d68de7a	0.056852795
242	0xbcbd296a	-0.023091037
243	0x3cba585d	0.022747213
244	0xbe042625	-0.12905176
245	0xbc5db6ad	-0.013532323
246	0xbd4327db	-0.04764543
247	0xbd3203f8	-0.043460816
248	0xbe46fbee	-0.19432041
249	0x3c52973e	0.012853442
250	0xbceff6c5	-0.029292474
251	0x3da82a04	0.08211139
252	0xbd40a0e6	-0.047028445
253	0xbd979592	-0.07401575
254	0xbba34963	-0.0049831136
255	0xbdba623b	-0.09100767
