Assets/Training/results/b_treasure_test80_Th64_Lr1e-4Bs4096Bs65536_EndDistanceReward_0.2deltaXZ_10deltaY_NoDeltaYReward/TreasureSearch/TreasureSearch-8999966.onnx (onnx, 608683 bytes, 13 tensors)

65 f4 [68]
0.49276716 0.47484466 0.4278798 0.29669544 0.38480744 0.34026957 0.46430558 0.23110223
0.48466888 0.4125935 0.49096382 0.34425268 0.48948687 0.2819359 0.4628252 0.2425289
0.48711383 0.44874242 0.47135684 0.35632882 0.4355031 0.4997601 0.4391964 0.26893306
0.49632952 0.49898177 0.16571026 0.35652947 0.49961513 0.48513928 0.30120465 0.30768102
0.4833383 0.48059887 0.09829743 0.31884813 0.34861422 0.49369958 0.43417194 0.24048102
0.4979761 0.49549457 0.14577398 0.324821 0.34392565 0.45808694 0.17502303 0.20659104
0.4275647 0.44413394 0.121821925 0.31657958 0.33423436 0.46046737 0.01038384 0.1611719
0.30775356 0.35457435 0.011615047 0.19332722 0.25609344 0.3962207 0.009052455 0.16068201
0.25609344 0.3962204 0.009052456 0.160682
00000000: fa4b fc3e d71e f33e 1013 db3e 77e8 973e
00000010: 7b05 c53e d037 ae3e 76b9 ed3e 10a6 6c3e
00000020: 8526 f83e 753f d33e 9c5f fb3e e341 b03e
00000030: 069e fa3e e759 903e 6df7 ec3e 7f59 783e
00000040: fc66 f93e 91c1 e53e af55 f13e bb70 b63e
00000050: 43fa de3e 8ee0 ff3e 5ade e03e 98b1 893e
00000060: e71e fe3e 8a7a ff3e f3af 293e 088b b63e
00000070: 8ecd ff3e 2d64 f83e 7f37 9a3e 5e88 9d3e
00000080: 1e78 f73e 0e11 f63e 2a50 c93d 1040 a33e
00000090: 907d b23e 31c6 fc3e c94b de3e a840 763e
000000a0: b9f6 fe3e 77b1 fd3e c645 153e f04e a63e
000000b0: 0617 b03e 5f8a ea3e 3d39 333e 9a8c 533e
000000c0: c3e9 da3e 8665 e33e c67d f93d b816 a23e
000000d0: c420 ab3e 61c2 eb3e fb20 2a3c 3f0a 253e
000000e0: e091 9d3e c58a b53e 0a4d 3e3c 92f7 453e
000000f0: ae1e 833e 71dd ca3e c050 143c d389 243e
00000100: ae1e 833e 66dd ca3e c150 143c d289 243e

68 f4 [6]
1.4181242 4.303988 0.00368993 0.0023569842 3.5700982 130.32509
00000000: 1885 b53f 45ba 8940 c1d2 713b a277 1a3b
00000010: 7d7c 6440 3953 0243

action_model._continuous_distribution.log_sigma f4 [1, 2]
-0.1351288 -0.16927853
00000000: 345f 0abe 5a57 2dbe

action_model._continuous_distribution.mu.bias f4 [2]
0.0072219633 0.005184778
00000000: 38a6 ec3b 12e5 a93b

action_model._continuous_distribution.mu.weight f4 [2, 256]
0.038958807 0.029895656 0.029344777 -0.042390566 -0.0049262694 0.019375103 0.020990746 0.023897706
0.021448923 -0.048313163 -0.035873156 0.00073384267 0.017704511 0.018918928 0.008251958 -0.004880296
0.05069298 0.048752114 -0.018662488 -0.044822313 -0.02514765 -0.03711789 -0.006146812 -0.032577172
0.029002769 -0.027324218 0.018747661 0.026412532 -0.0042329375 0.0017107963 0.018442085 -0.011402724
0.04624293 -0.023505552 0.025226317 -0.0011188152 0.012997384 0.012498558 0.020596093 -0.041980896
-0.018115921 -0.015145509 -0.055690482 0.0092598 0.028844852 -0.03167842 0.0031652218 -0.00045450212
-0.043233123 0.03560264 0.03226347 0.03268107 -0.031840768 -0.04494484 0.049951 0.013067662
0.015046743 -0.0059267487 -0.042197872 -0.027322935 -0.028696978 -0.004838456 -0.061309535 0.013319069
-0.021424098 -0.04031979 -0.025449894 0.03112519 0.023761766 0.011863862 0.009883468 0.008508522
-0.017268714 0.0033084345 0.030548988 0.007020937 -0.023919376 0.0058008526 0.036979306 0.003777134
-0.052366138 0.009730849 -0.039010134 -0.006934748 -0.035314165 -0.015298887 0.020815747 0.0017656831
0.041617345 0.016552832 0.0040219706 0.011230296 0.020894362 -0.0099902265 0.040734325 0.000709026
-0.045650784 0.016336683 0.010213349 0.021755094 -0.04747354 0.0058347047 0.0064917505 0.032030795
0.020451011 -0.021317294 -0.011013564 0.029826334 0.0130569795 -0.0057737003 0.027337492 -0.030057402
0.031976905 -0.03222872 0.0287006 0.0318213 0.036612783 -0.029239165 -0.01125617 0.0045496696
-0.0063595776 -0.04065203 -0.03856122 -0.022735024 0.008466426 -0.038593784 0.02809958 -0.0051330235
0.042325325 -0.05260469 -0.021449834 0.028858226 -0.01620367 -0.048956577 0.024645852 -0.03473217
-0.0117985485 0.047228668 0.021098062 -0.021539234 0.03525285 0.0072079767 -0.010861664 -0.0031063713
-0.031531405 -0.022147939 -0.047495913 0.014074254 -0.0005639071 0.013654092 0.017651297 0.028223306
-0.051584225 0.009988555 0.009493931 0.040760666 -0.039519086 -0.01469303 -0.033139005 -0.026475735
-0.002240365 0.023216426 -0.031195318 -0.025175411 -0.0010191299 0.0369993 0.014862781 0.03749584
-0.029069256 -0.039425 0.0009480607 0.014615166 0.022063183 0.017692558 -0.02439139 0.01720188
-0.041003868 0.035967615 -0.022042593 0.0459546 0.019164806 0.030998206 0.009473074 0.007693993
0.0406313 0.04864438 -0.017281452 0.024757648 -0.040288527 -0.011836042 0.007394753 -0.05353038
0.009529176 0.018446038 -0.0100138 0.03546109 0.040922124 -0.009975185 -0.013213802 0.032444425
-0.050271228 0.017195614 0.013789418 0.023385389 -0.02273375 -0.011036645 -0.00422906 0.022927973
0.008425463 0.020112658 -0.0073994896 -0.0290894 -0.049172346 -0.0064854696 0.042167775 -0.00055127806
-0.046078306 0.00841738 0.030641234 -0.04061221 -0.05275403 0.038131822 -0.04807529 -0.018128403
-0.0013298684 -0.06259209 -0.051661585 0.026701562 0.01733237 -0.003559437 -0.031720325 0.03915923
0.019039957 0.014405171 -0.016631005 -0.051062204 -0.009177643 0.030216955 -0.0040017418 -0.05759428
-0.04780401 -0.027900476 -0.042044416 0.009066425 -0.0073283487 -0.050109606 -0.05872776 0.029171782
-0.03604597 -0.040759724 -0.042591527 0.039329026 0.06953057 -0.036147393 0.016914682 0.038711805
00000000: 4593 1f3d bce7 f43c 7564 f03c bba1 2dbd
00000010: 8b6c a1bb 89b8 9e3c c9f4 ab3c 1fc5 c33c
00000020: a7b5 af3c 06e4 45bd bbef 12bd 595f 403a
00000030: 0d09 913c defb 9a3c 3833 073c e4ea 9fbb
00000040: 71a3 4f3d 4cb0 473d 13e2 98bc 9a97 37bd
00000050: 7202 cebc ee08 18bd 326b c9bb a46f 05bd
00000060: 3797 ed3c 0ad7 dfbc b294 993c 185f d83c
00000070: 74b4 8abb cc3c e03a db13 973c 7ed2 3abc
00000080: 3a69 3d3d b78e c0bc 6ca7 ce3c 35a5 92ba
00000090: fbf2 543c c0c6 4c3c 23b9 a83c 29f4 2bbd
000000a0: d767 94bc de24 78bc b41b 64bd 6bb6 173c
000000b0: 0a4c ec3c 3bc1 01bd 9c6f 4f3b 3e4a eeb9
000000c0: 3715 31bd 13d4 113d b326 043d 96dc 053d
000000d0: 776b 02bd 1518 38bd 6b99 4c3d bf19 563c
000000e0: 9d86 763c 2c35 c2bb add7 2cbd 59d4 dfbc
000000f0: ed15 ebbc e98b 9ebb b51f 7bbd 3938 5a3c
00000100: 9781 afbc 5d26 25bd 4c7c d0bc 41fa fe3c
00000110: 09a8 c23c a560 423c 45ee 213c 5467 0b3c
00000120: 1e77 8dbc 52d2 583b df41 fa3c e30f e63b
00000130: 91f2 c3bc 1415 be3b 9d77 173d cb89 773b
00000140: e07d 56bd 246e 1f3c 17c9 1fbd e23c e3bb
00000150: 96a5 10bd 2fa8 7abc c985 aa3c 7e6e e73a
00000160: f376 2a3d ce99 873c bcca 833b 47ff 373c
00000170: a72a ab3c 0cae 23bc 09d9 263d eedd 393a
00000180: 51fc 3abd 82d4 853c e455 273c bd37 b23c
00000190: 9d73 42bd 0d31 bf3b c0b8 d43b b932 033d
000001a0: e188 a73c 9ba1 aebc 3c72 34bc 5b56 f43c
000001b0: f1ec 553c 4f31 bdbb e0f2 df3c f13a f6bc
000001c0: 37fa 023d 4302 04bd 851d eb3c 0d57 023d
000001d0: 49f7 153d f986 efbc cd6b 38bc 6515 953b
000001e0: 0164 d0bb be82 26bd 5ff2 1dbd cd3e babc
000001f0: c4b6 0a3c 8414 1ebd 1731 e63c ec32 a8bb
00000200: 525d 2d3d 0478 57bd 90b7 afbc 1668 ec3c
00000210: 8fbd 84bc b186 48bd 19e6 c93c 5243 0ebd
00000220: b34e 41bc d972 413d d8d5 ac3c 0c73 b0bc
00000230: 4b65 103d e430 ec3b 1ff5 31bc 4394 4bbb
00000240: 1327 01bd 986f b5bc 138b 42bd b397 663c
00000250: 2ad3 13ba 6ab5 5f3c 7499 903c 9034 e73c
00000260: fb49 53bd 09a7 233c 6f8c 1b3c a8f4 263d
00000270: c4de 21bd 09bb 70bc c4bc 07bd a4e3 d8bc
00000280: 16d3 12bb 6030 be3c 538d ffbc aa3c cebc
00000290: 5394 85ba 948c 173d 0683 733c 3d95 193d
000002a0: a622 eebc 1c7c 21bd 4787 783a 7374 6f3c
000002b0: d9bd b43c fcef 903c 74d0 c7bc f5ea 8c3c
000002c0: acf3 27bd c752 133d ab92 b4bc e43a 3c3d
000002d0: 83ff 9c3c f3ef fd3c f434 1b3c e41d fc3b
000002e0: 026d 263d 543f 473d d591 8dbc 8dd0 ca3c
000002f0: 9505 25bd f5eb 41bc af4f f23b ac42 5bbd
00000300: 4320 1c3c 251c 973c ec10 24bc a63f 113d
00000310: f59d 273d f56e 23bc b47e 58bc 72e4 043d
00000320: 34e9 4dbd d1dd 8c3c 03ed 613c b792 bf3c
00000330: 213c babc 0bd3 34bc ed93 8abb 72d3 bb3c
00000340: f40a 0a3c 4dc3 a43c 6b77 f2bb e54c eebc
00000350: f168 49bd 1084 d4bb 1eb8 2c3d a583 10ba
00000360: 9bbc 3cbd 0de9 093c 5303 fb3c fd58 26bd
00000370: 9c14 58bd 1d30 1c3d 98ea 44bd 0482 94bc
00000380: fb4e aeba 4830 80bd 199b 53bd 3cbd da3c
00000390: 9dfc 8d3c 7245 69bb 2ced 01bd 6e65 203d
000003a0: aff9 9b3c ab03 6c3c bf3d 88bc 9a26 51bd
000003b0: d35d 16bc 8c89 f73c 0b21 83bb fbe7 6bbd
000003c0: 23ce 43bd 8a8f e4bc c436 2cbd 588b 143c
000003d0: a522 f0bb bb3f 4dbd 858c 70bd a9f9 ee3c
000003e0: f0a4 13bd abf3 26bd 7474 2ebd 7917 213d
000003f0: 0b66 8e3d 4a0f 14bd a990 8a3c 4590 1e3d

network_body._body_endoder.seq_layers.0.bias f4 [256]
0.010113198 -0.0033500076 0.0007011864 0.013216707 0.011363744 0.01103528 0.0042198724 0.0049306066
0.013658298 -0.004923929 -0.00054267753 0.006046582 0.0049222214 0.0007218512 0.014962534 -0.0026832693
0.032354474 0.015545476 0.0049824542 0.012931431 0.017561032 0.01893029 0.016952328 0.0054889643
0.00941209 0.016101062 0.023820695 0.013496346 0.030236097 0.004649842 0.025304414 0.0052207825
-0.011108584 0.03194807 0.022738043 0.002688013 0.017405273 0.021908207 0.02122332 0.014564356
0.012883655 0.0074301306 0.009627855 0.010715261 0.010518345 0.007610778 0.0048878617 0.002323997
0.008573084 0.021192087 0.014360354 0.001354647 0.023239305 0.018887531 0.011925314 0.016290883
0.024383517 0.027942741 0.011599076 0.023543801 0.02336447 0.022451794 0.0047816215 0.028234769
0.010904522 0.043970577 -0.004048112 0.018537046 -0.012690973 3.1120224e-05 0.011669588 0.0013497587
0.011794642 0.021971462 0.013576898 0.02214907 0.018631985 0.016285244 0.002132034 0.0103547955
0.013491992 -0.00096855353 0.007499657 0.009122997 0.0065343645 0.019151034 0.01336052 0.0045365877
0.012075905 0.007077253 -0.004157985 0.02719858 0.025417088 0.003821473 0.0037353477 0.013423234
0.011799621 -0.0066456096 0.024221672 0.02542341 0.006012481 0.0012116227 0.004207466 0.016847003
0.013118579 0.023327189 0.0178588 0.0018847226 0.0050480077 0.022049576 0.027444404 0.016540788
0.0063704536 0.029295713 0.02102135 0.023976305 0.013497444 0.030640867 0.005844521 0.016035276
0.020719841 0.009717692 -0.00038882287 0.014652792 0.032992978 0.0034317707 0.0067790686 0.018380404
0.011727922 0.02245402 0.03269464 0.012978085 0.043111034 0.03731069 -0.0077456725 0.006466512
0.013925999 0.013134233 0.0134817995 -0.0018788528 0.00905267 0.017704057 0.023859877 0.0038127042
0.01964543 0.016679268 0.0064279772 -0.003965046 0.0153995855 0.011903239 0.019976888 0.0035915286
0.015205373 0.023767121 0.01919458 0.026544381 0.03693087 0.017835997 0.02367161 0.011867541
0.0024048744 0.034904163 0.008274749 0.020489926 0.028226927 0.0039099692 0.0030694753 0.016959816
0.014796255 0.0068455026 0.01656796 0.019553099 0.0109359175 0.026484232 0.0060521117 -0.0021795563
0.025469696 0.0013812373 0.0019489875 0.01829546 0.021190673 0.027974527 -0.0033709838 0.0197458
0.019232046 0.008316213 0.027929947 0.0012451882 0.04917561 0.012015383 0.016837126 0.012898674
0.015634954 0.01614262 0.010019664 0.016140044 0.01106142 0.012112242 0.019639624 0.018701773
0.028037723 0.0072708493 0.0137500595 0.00357836 -0.0018474486 0.021761524 0.0031794058 0.0024675997
0.016295364 0.0067964573 0.0069305776 0.008062943 -0.0019431624 0.017448591 -0.0026998173 0.02722042
0.0051235035 -0.007393571 0.014493822 0.014761894 0.010193617 0.0031851605 0.023619497 0.014446078
0.022651996 -0.0023478996 0.025367757 -0.0054361033 0.021423334 -0.018845076 0.018618315 0.021069478
0.019701581 0.016224774 0.025997706 0.0007234123 0.01280612 0.013707472 -0.003351495 0.021431766
0.004442617 0.015736302 0.012654901 0.009521072 0.009094746 0.0030119878 0.018839277 0.009877187
-0.003632827 0.006766194 0.013388954 0.025507089 0.010581525 0.034747727 0.021598037 0.014144557
00000000: d4b1 253c cd8b 5bbb d3cf 373a e38a 583c
00000010: ff2e 3a3c 52cd 343c db46 8a3b ed90 a13b
00000020: 0ec7 5f3c e958 a1bb 7942 0eba 6822 c63b
00000030: 964a a13b 9d3a 3d3a 6b25 753c cad9 2fbb
00000040: 2086 043d 74b2 7e3c db43 a33b 5ade 533c
00000050: 27dc 8f3c b213 9b3c 9cdf 8a3c c5dc b33b
00000060: 2b35 1a3c 60e6 833c 9e23 c33c c71f 5d3c
00000070: b1b1 f73c b45d 983b 344b cf3c 1913 ab3b
00000080: c700 36bc fbdb 023d 2245 ba3c 6029 303b
00000090: 8195 8e3c d778 b33c 87dc ad3c 569f 6e3c
000000a0: f715 533c 7478 f33b 27be 1d3c 108f 2f3c
000000b0: 2355 2c3c d563 f93b 5b2a a03b 334e 183b
000000c0: 1f76 0c3c 079b ad3c b147 6b3c 698e b13a
000000d0: 5b60 be3c 06ba 9a3c 6462 433c 7574 853c
000000e0: f1bf c73c 2de8 e43c 0d0a 3e3c eede c03c
000000f0: d866 bf3c d3ec b73c 26af 9c3b 9a4c e73c
00000100: e1a8 323c 7e1a 343d 06a6 84bb 01db 973c
00000110: cced 4fbc 1687 0238 cd31 3f3c 63ea b03a
00000120: 503e 413c 7ffd b33c a371 5e3c f771 b53c
00000130: 1ba2 983c a268 853c 98b9 0b3b 29a7 293c
00000140: 840d 5d3c 87e6 7dba afbf f53b 9f78 153c
00000150: 391e d63b a1e2 9c3c 15e6 5a3c a8a7 943b
00000160: 04da 453c 4de8 e73b b53f 88bb 8ecf de3c
00000170: 7f37 d03c ae71 7a3b bccc 743b 20ed 5b3c
00000180: 3353 413c 6ac3 d9bb 876c c63c c144 d03c
00000190: 5904 c53b 50cf 9e3a c8de 893b ba02 8a3c
000001a0: 4fef 563c a918 bf3c 9e4c 923c cc08 f73a
000001b0: c269 a53b 50a1 b43c 16d3 e03c 8c80 873c
000001c0: 3dbf d03b 90fd ef3c f734 ac3c f569 c43c
000001d0: 6224 5d3c 8e02 fb3c 6583 bf3b 695c 833c
000001e0: a8bc a93c f436 1f3c ecda cbb9 4412 703c
000001f0: a523 073d 8fe7 603b f322 de3b 8092 963c
00000200: 7826 403c 7ef1 b73c d1ea 053d 09a2 543c
00000210: 3295 303d 18d3 183d 69cf fdbb 09e5 d33b
00000220: e029 643c f730 573c c4e2 5c3c d743 f6ba
00000230: a651 143c 1908 913c ca75 c33c 90de 793b
00000240: 74ef a03c f6a2 883c c8a1 d23b 37ed 81bb
00000250: 8b4e 7c3c ce05 433c 92a6 a33c da5f 6b3b
00000260: f51f 793c 44b3 c23c f43d 9d3c 9a73 d93c
00000270: d344 173d cc1c 923c f7ea c13c 1370 423c
00000280: 199b 1d3b abf7 0e3d d092 073c 7dda a73c
00000290: 283c e73c 331f 803b 4029 493b 50ef 8a3c
000002a0: fe6b 723c 3d50 e03b 88b9 873c d22d a03c
000002b0: 902c 333c 76f5 d83c cb50 c63b e3d6 0ebb
000002c0: d3a5 d03c a20a b53a 2b75 ff3a 5ce0 953c
000002d0: 1098 ad3c d62a e53c b9eb 5cbb f2c1 a13c
000002e0: 868c 9d3c ba40 083c 58cd e43c 9535 a33a
000002f0: 5d6c 493d 2bdc 443c 03ee 893c f654 533c
00000300: e014 803c 873d 843c 8429 243c 2038 843c
00000310: f53a 353c 6d72 463c 47e3 a03c 7634 993c
00000320: 5eaf e53c 4e40 ee3b ee47 613c eb82 6a3b
00000330: 1726 f2ba 3945 b23c 945d 503b 74b7 213b
00000340: db7d 853c d1b4 de3b e619 e33b 6f1a 043c
00000350: b6b1 feba 59f0 8e3c 6bef 30bb 5cfd de3c
00000360: 10e3 a73b c545 f2bb 7f77 6d3c dfdb 713c
00000370: 2103 273c 20be 503b ad7d c13c 3eaf 6c3c
00000380: ae90 b93c 38df 19bb 0bd0 cf3c 5721 b2bb
00000390: fd7f af3c fd60 9abc 7085 983c e699 ac3c
000003a0: 3665 a13c d1e9 843c 24f9 d43c 61a3 3d3a
000003b0: c3d0 513c 4e95 603c c1a4 5bbb ac91 af3c
000003c0: 5f93 913b 6be9 803c 8056 4f3c 45fe 1b3c
000003d0: 2102 153c c564 453b d454 9a3c edd3 213c
000003e0: b914 6ebb f3b6 dd3b 585d 5b3c 3ef4 d03c
000003f0: 225e 2d3c a253 0e3d 5eee b03c 92be 673c

network_body._body_endoder.seq_layers.0.weight f4 [256, 74]
-0.20867011 0.038077634 -0.20596707 0.063121416 -0.051354613 0.014150606 0.10731796 0.16729937
0.11516093 0.15650076 -0.020732263 -0.14427033 0.11138798 0.010828569 0.047885224 0.03812911
0.14623201 0.104051925 -0.09847637 0.08899239 -0.08700621 0.026233518 -0.17180969 -0.13065153
0.12200503 -0.14389037 -0.10628508 0.021563627 0.13379338 0.022775909 -0.07933811 0.028974105
-0.23033732 -0.03905446 0.058840424 -0.050820928 0.0071107335 0.10817324 -0.060677785 -0.052011356
0.13441068 0.10029757 -0.11241003 -0.07038778 -0.2080615 0.23504369 -0.08474092 0.07610551
0.06699847 -0.028366376 0.09024273 0.03980289 -0.101106 0.029188532 0.10898828 0.029697785
-0.13011585 0.10149048 -0.13453603 0.052898806 0.085162625 -0.00012182886 -0.16758485 0.33279872
-0.05568095 0.12233655 0.03770371 -0.12511124 0.123961404 0.13840955 -0.019396896 0.124317005
-0.21583939 -0.07869638 -0.03725388 0.11115076 -0.06288773 -0.016031548 -0.08815946 -0.12092126
0.085167915 -0.00046515567 0.19354714 -0.01763104 0.02004489 0.0052324417 0.008389385 -0.059264384
0.00842722 0.012475786 0.13867885 -0.092912495 -0.16047524 0.12647325 -0.104054146 -0.15203232
0.021142261 0.01632642 -0.098483495 -0.22213486 0.09578175 0.043724783 -0.13019757 -0.10661123
0.052214168 -0.0926596 0.007090745 0.0069937473 0.002903071 -0.13763273 -0.13389134 0.019872855
0.03194129 -0.019856561 -0.155523 -0.047659595 -0.038804367 -0.026216352 0.020163568 -0.075727895
-0.024028169 -0.1285152 -0.051381372 -0.088857085 0.08317655 0.05107733 0.01801346 -0.03256796
-0.08829133 -0.1373915 -0.06189149 0.100489356 -0.067458175 0.06440155 0.020708628 -0.13449594
0.015867185 0.019787408 -0.12093793 0.029990286 -0.036954794 -0.069946624 -0.11529867 0.18293501
0.004088473 -0.20835166 0.029925192 0.22316062 -0.18821254 0.045623988 -0.11670331 0.22175637
-0.07433425 0.16496105 0.023267396 0.14018229 0.11538858 -0.11236484 -0.2130192 -0.085333906
-0.073229015 0.023883255 0.07898661 -0.08239216 0.0069273 0.14566012 -0.052846972 -0.11997516
-0.060060065 -0.04182382 -0.18681943 0.049482003 -0.19581485 -0.06555383 -0.09069147 0.084522896
0.017111873 0.02434467 -0.055036753 -0.103727795 0.18417832 0.06116453 0.034606505 0.29506233
0.019579759 -0.17546162 0.026410587 0.16546212 0.16760159 -0.20682743 -0.00015308289 -0.031962078
0.026445532 -0.12998089 -0.14674854 0.15258202 -0.069251806 -0.026070694 -0.08648058 0.096621126
-0.21046573 -0.21649398 -0.103333354 -0.12872142 -0.11177277 0.10412276 0.04370149 0.14545472
-0.09231446 0.03814056 0.19126481 -0.16266222 0.12887435 0.17888585 -0.1738803 0.021193363
-0.042322394 -0.04244404 0.008954316 -0.05961938 -0.056903984 -0.0555761 -0.14996545 0.022423659
-0.035519812 -0.06680426 0.012639081 0.08427763 0.00022480707 0.064880565 -0.1693464 -0.054695886
0.06864017 -0.055241413 -0.06244775 -0.06272385 -0.097754225 0.052764993 -0.024994982 -0.07651353
-0.040682454 0.013995674 0.106287085 0.054423355 0.09792929 0.20916694 0.13366075 0.028523957
-0.18312308 -0.25276378 -0.10649074 -0.11663273 -0.08757593 -0.1393008 -0.09510593 0.0075507048
00000000: 9ead 55be 4bf7 1b3d 08e9 52be cd45 813d
00000010: 3759 52bd f1d7 673c 85c9 db3d 8750 2b3e
00000020: 7ed9 eb3d bc41 203e b5d6 a9bc 9abb 13be
00000030: 621f e43d 4f6a 313c 4c23 443d 452d 1c3d
00000040: d8bd 153e 2d19 d53d fbad c9bd a441 b63d
00000050: 5030 b2bd ade7 d63c e1ee 2fbe 84c9 05be
00000060: c6dd f93d ff57 13be feab d9bd 34a6 b03c
00000070: 2201 093e 8b94 ba3c 057c a2bd 1a5b ed3c
00000080: 8cdd 6bbe 92f7 1fbd a802 713d 9b29 50bd
00000090: 2801 e93b ef89 dd3d 4589 78bd dc09 55bd
000000a0: f4a2 093e d068 cd3d 3b37 e6bd 7827 90bd
000000b0: 130e 55be 4baf 703e a68c adbd 35dd 9b3d
000000c0: 7e36 893d 9a60 e8bc 2ed1 b83d 5b08 233d
000000d0: aa10 cfbd ca1c ef3c 3f35 df3d c548 f33c
000000e0: 173d 05be 3eda cf3d d0c3 09be 6bac 583d
000000f0: be69 ae3d 5f7e ffb8 5d9b 2bbe 9864 aa3e
00000100: b511 64bd 968b fa3d 356f 1a3d 291d 00be
00000110: 7adf fd3d 3cbb 0d3e 3de6 9ebc ea99 fe3d
00000120: 0005 5dbe 912b a1bd 8697 18bd 02a3 e33d
00000130: 48cb 80bd 9854 83bc f28c b4bd 91a5 f7bd
00000140: 846c ae3d 23e0 f3b9 3931 463e f96e 90bc
00000150: 2e35 a43c e774 ab3b a273 093c 36bf 72bd
00000160: 5312 0a3c 3d67 4c3c d401 0e3e e848 bebd
00000170: 9f53 24be 3482 013e 571a d5bd 5cae 1bbe
00000180: 8932 ad3c fcbe 853c b7b1 c9bd 5277 63be
00000190: 3929 c43d c218 333d 8352 05be fd56 dabd
000001a0: 86de 553d 51c4 bdbd 7b59 e83b ce2b e53b
000001b0: 7341 3e3b 98ef 0cbe d01a 09be 66cc a23c
000001c0: dfd4 023d 3aaa a2bc 6c41 1fbe b536 43bd
000001d0: 54f1 1ebd adc3 d6bc 112e a53c 3a17 9bbd
000001e0: b9d6 c4bc 7d99 03be 4675 52bd b4fa b5bd
000001f0: 7858 aa3d 7636 513d f790 933c fb65 05bd
00000200: 16d2 b4bd 5bb0 0cbe ee81 7dbd 5dcd cd3d
00000210: 8327 8abd f6e4 833d 24a5 a93c 4eb9 09be
00000220: e6fb 813c 3419 a23c 4eae f7bd 30ae f53c
00000230: e95d 17bd 2d40 8fbd b621 ecbd 5153 3b3e
00000240: 99f8 853b 235a 55be ad25 f53c 3884 643e
00000250: caba 40be 38e0 3a3d 2502 efbd 1a14 633e
00000260: 8e3c 98bd 8deb 283e 449b be3c f28b 0f3e
00000270: d950 ec3d 8a1f e6bd b521 5abe 8bc3 aebd
00000280: 18f9 95bd d1a6 c33c bbc3 a13d 39bd a8bd
00000290: 67fe e23b ed27 153e 1176 58bd 89b5 f5bd
000002a0: 8b01 76bd 744f 2bbd 984d 3fbe a4ad 4a3d
000002b0: b083 48be 1641 86bd 73bc b9bd 571a ad3d
000002c0: 332e 8c3c 796e c73c 386e 61bd 3d6f d4bd
000002d0: 3e99 3c3e a987 7a3d 8dbf 0d3d 6912 973e
000002e0: bb65 a03c 36ac 33be 045b d83c e76e 293e
000002f0: c09f 2b3e 92ca 53be e084 20b9 abea 02bd
00000300: 4da4 d83c b619 05be 4045 16be 763e 1c3e
00000310: e4d3 8dbd 3592 d5bc bb1c b1bd 4ce1 c53d
00000320: 5484 57be 99b0 5dbe 70a0 d3bd 8ccf 03be
00000330: 1fe9 e4bd 503e d53d 5500 333d 15f2 143e
00000340: 5d0f bdbd 4739 1c3d ecda 433e ed90 26be
00000350: a3f7 033e da2d 373e ad0d 32be b49d ad3c
00000360: 3f5a 2dbd cdd9 2dbd 20b5 123c 7333 74bd
00000370: 2714 69bd c4a3 63bd 8b90 19be d2b1 b73c
00000380: 397d 11bd acd0 88bd 2614 4f3c c099 ac3d
00000390: 30ba 6b39 1ae0 843d 2569 2dbe cb08 60bd
000003a0: 3893 8c3d d244 62bd 36c9 7fbd 5d75 80bd
000003b0: 5e33 c8bd 1b20 583d 47c2 ccbc 20b3 9cbd
000003c0: a5a2 26bd 1d4e 653c 0bad d93d 06eb 5e3d
000003d0: 278f c83d dc2f 563e 5dde 083e 13ab e93c
000003e0: 9e84 3bbe 416a 81be d117 dabd 24dd eebd
000003f0: 025b b3bd dea4 0ebe e6c6 c2bd e76b f73b

network_body._body_endoder.seq_layers.2.bias f4 [256]
0.009306562 -0.009783244 0.008479442 0.017726395 0.03286761 0.015717043 0.015216938 0.0027308885
0.021372579 0.006964782 -0.004444436 0.0030331193 0.005896339 -0.0011011597 0.026840864 0.0060971985
0.034256637 0.01104237 0.024547646 0.01894202 0.02043079 0.0078069423 0.01678298 0.021479942
0.009627541 -0.015235309 0.03144809 0.022227539 0.014752623 0.03861257 0.00088196824 0.012394031
0.005576579 0.011166292 0.018565087 0.0011255562 0.018994782 0.0031769245 0.018113729 0.016140016
0.0050286097 0.01556253 0.008009803 0.017300079 0.0055946778 0.008350438 0.014085823 -0.0054211435
0.0012401276 -0.01130829 0.012343712 0.010063401 0.027752466 0.017930727 0.020530738 0.010291168
0.016612537 -0.0047727153 0.019091783 0.015757697 0.0093322145 0.010008033 0.01948471 0.011068916
0.0025046605 0.01849533 0.022389306 0.026991377 0.0089695165 0.019014027 0.012864266 0.00299025
0.016654028 0.011794002 0.013953247 -0.011598717 0.005999052 0.007914998 0.004957986 0.01059532
0.0018730375 -0.0034027896 -0.0065487316 0.012775424 -0.0091059115 0.009310269 0.029951232 0.016921934
0.012382865 0.027736142 0.010073014 0.017464645 -0.0062848753 0.021889413 0.02143661 0.013856517
0.008379367 -0.0009883215 0.021677643 0.015696988 0.010597592 0.0047886097 0.023949081 0.011121954
0.015648795 0.007812813 0.015903084 -6.1411433e-06 0.007809819 -0.02021184 0.009195004 -0.0035941077
0.009935197 -0.016107699 0.0069506024 0.03129651 0.015122564 -0.008622196 -0.032784857 0.0025781153
0.013611065 0.0036553089 0.022783171 -0.0016757925 -0.0009669348 0.009478073 0.009357476 0.018093906
0.007452738 0.027667563 0.0003899277 0.012378753 0.015922261 -0.013755985 0.011943866 0.017112501
0.013884511 0.012875656 0.014185116 0.0009014755 -0.006841021 0.020382905 0.02052705 0.017816404
0.03066429 0.00476471 0.008565173 0.026536077 0.008512856 0.003002843 -0.0011289645 0.020563828
-0.018155795 0.01608489 0.009323975 -0.0018465854 0.0072600967 0.013279718 -0.00049839844 0.0025886463
0.027604705 0.010764485 0.0117482385 0.007841509 0.016502213 0.0045248917 0.013251296 0.025454082
-0.007755548 0.00791304 0.009650352 0.022384467 0.020208824 0.01324637 0.018848147 0.010228588
-0.007723978 0.025033275 0.0131116435 0.018896196 -0.0064078444 -0.0063051535 0.012673997 0.010405773
0.0084656775 0.011223157 0.011923724 0.008555457 0.02190186 0.020347977 -0.04164911 0.0040810825
0.026297431 0.0017051075 0.0044369535 0.009790463 0.01881245 0.0010224385 0.021165885 0.014072103
0.009571304 0.0054805283 0.016471444 0.016048066 0.0002906305 -0.0038650916 0.0020138319 0.0078089526
0.019933194 0.021007625 0.015803602 0.035886485 0.003410002 0.021546166 0.012240565 0.022114407
0.019173358 0.0014364109 0.012036274 0.001675458 0.025046773 0.021247717 -0.011517911 0.012262472
-0.008782499 -0.0007227735 -0.0036038002 0.0024278658 -0.004282144 0.020561688 0.009797791 -0.004058827
0.0068381233 0.012733829 0.013622448 0.0074626436 0.022066124 0.0053181713 0.006425822 0.0066339835
0.012020874 0.01060107 0.0197415 0.013263118 0.009462113 0.01169586 0.0064672288 0.020858737
0.014140782 0.024627974 0.011621428 0.01637206 0.00025285615 0.0050975657 0.0020293146 -0.0073108505
00000000: 8d7a 183c e649 20bc 5ced 0a3c f236 913c
00000010: 30a0 063d 07c1 803c 7750 793c b5f8 323b
00000020: 8c15 af3c d338 e43b a2a2 91bb 4cc7 463b
00000030: 1436 c13b ca54 90ba 5fe1 db3c 02cb c73b
00000040: b050 0c3d 0feb 343c 2518 c93c 4c2c 9b3c
00000050: 795e a73c 61d1 ff3b 767c 893c b4f6 af3c
00000060: d5bc 1d3c 849d 79bc b6cf 003d 8716 b63c
00000070: fcb4 713c 3728 1e3d e333 673a 5510 4b3c
00000080: bcbb b63b d3f2 363c cf15 983c 6687 933a
00000090: f29a 9b3c f333 503b 3e63 943c 1138 843c
000000a0: 09c7 a43b fbf9 7e3c 8c3b 033c e5b8 8d3c
000000b0: 8f53 b73b 47d0 083c 39c8 663c d9a3 b1bb
000000c0: c78b a23a 6846 39bc 483d 4a3c f7e0 243c
000000d0: 2459 e33c 76e3 923c 1430 a83c 499c 283c
000000e0: 0417 883c 7064 9cbb 5f66 9c3c 4916 813c
000000f0: 25e6 183c bcf8 233c 669e 9f3c 665a 353c
00000100: 3b25 243b 8583 973c c769 b73c 051d dd3c
00000110: e1f4 123c 4ec3 9b3c a4c4 523c 12f8 433b
00000120: 076e 883c a13b 413c 299c 643c 8c08 3ebc
00000130: b293 c43b e8ad 013c 9a76 a23b fe97 2d3c
00000140: b680 f53a 5601 5fbb be96 d6bb 0350 513c
00000150: f630 15bc 198a 183c 495c f53c de9f 8a3c
00000160: 80e1 4a3c e836 e33c 4809 253c 0412 8f3c
00000170: 5bf1 cdbb 6d51 b33c d49b af3c 7206 633c
00000180: 9d49 093c 918a 81ba 5095 b13c f896 803c
00000190: 86a1 2d3c c5e9 9c3b dd30 c43c db38 363c
000001a0: e731 803c 5001 003c 2f47 823c 0510 ceb6
000001b0: 83e9 ff3b 4d93 a5bc a4a6 163c 1f8b 6bbb
000001c0: 3dc7 223c 4bf4 83bc e1c1 e33b c530 003d
000001d0: a1c4 773c 1c44 0dbc 6a49 06bd 99f5 283b
000001e0: f200 5f3c e88d 6f3b c6a3 ba3c 44a6 dbba
000001f0: e579 7dba eb49 1b3c 1950 193c ac39 943c
00000200: 1936 f43b 16a7 e23c 366f cc39 41d0 4a3c
00000210: 676f 823c c860 61bc 34b0 433c 842f 8c3c
00000220: dc7b 633c 6af4 523c b068 683c ff50 6c3a
00000230: a52a e0bb 0dfa a63c 5828 a83c b5f3 913c
00000240: ad33 fb3c 4921 9c3b f054 0c3c 3062 d93c
00000250: 8279 0b3c 58cb 443b c3f9 93ba 7975 a83c
00000260: 76bb 94bc 76c4 833c 96c3 183c 2009 f2ba
00000270: 1be6 ed3b 2d93 593c f4a6 02ba 47a6 293b
00000280: 4323 e23c 865d 303c af7b 403c ac79 003c
00000290: a62f 873c 8b45 943b f71b 593c 1485 d03c
000002a0: 4122 febb b2a5 013c 831c 1e3c a15f b73c
000002b0: fa8c a53c 4d07 593c 6e67 9a3c cf95 273c
000002c0: 6c19 fdbb 9512 cd3c 38d2 563c 32cc 9a3c
000002d0: e5f8 d1bb 769b cebb 99a6 4f3c fa7c 2a3c
000002e0: a0b3 0a3c 55e1 373c b95b 433c 302c 0c3c
000002f0: 886b b33c cdb0 a63c 4298 2abd 9aba 853b
00000300: b66d d73c ea7d df3a dd63 913b 2e68 203c
00000310: 911c 9a3c 5803 863a 1464 ad3c ae8e 663c
00000320: f5d0 1c3c 0196 b33b 1fef 863c 3c77 833c
00000330: c45f 9839 7a4d 7dbb 7efa 033b 3ee2 ff3b
00000340: f04a a33c 2f18 ac3c 8e76 813c b5fd 123d
00000350: 577a 5f3b 9681 b03c a78c 483c 4629 b53c
00000360: 7211 9d3c f445 bc3a cb33 453c 0b9b db3a
00000370: e42e cd3c b10f ae3c 9fb5 3cbc 89e8 483c
00000380: 78e4 0fbc 8278 3dba bc2d 6cbb d41c 1f3b
00000390: 3a51 8cbb fc70 a83c ea86 203c e9ff 84bb
000003a0: 5612 e03b 8da1 503c b030 5f3c 3189 f43b
000003b0: 04c4 b43c 0e44 ae3b b48f d23b e361 d93b
000003c0: 33f3 443c 1cb0 2d3c edb8 a13c 8d4d 593c
000003d0: fa06 1b3c fe9f 3f3c 0ceb d33b f1df aa3c
000003e0: bdae 673c 9bc0 c93c cd67 3e3c b31e 863c
000003f0: c791 8439 7b09 a73b 40fe 043b dc8f efbb

network_body._body_endoder.seq_layers.2.weight f4 [256, 256]
-0.07460824 -0.12597315 -0.034651052 -0.03277643 0.09264295 -0.054955777 -0.04648326 -0.032054607
0.04946164 -0.07236595 -0.05475765 0.15303934 0.051211756 0.053466897 -0.04949888 -0.04528663
0.044405106 0.14849895 0.009919548 -0.06304608 0.14978819 0.08187756 0.011663775 0.06446552
-0.060512424 0.04867648 0.08936244 -0.065072864 -0.04826184 0.07135257 -0.014872302 0.1111216
-0.01290616 -0.10759068 0.012218952 0.06238669 -0.07080109 0.037906565 -0.013843075 -0.02543336
0.023027627 0.017515738 0.013268419 -0.09952168 -0.057723753 -0.075015225 0.01247845 -0.0098041305
0.045468524 -0.077773064 0.0132630905 -0.0006353751 0.074796274 -0.020636765 0.09693741 0.049862176
0.02003113 0.008150568 -0.03303482 0.1254972 -0.031858005 0.015150022 0.015576638 0.079850756
0.025800275 0.006139289 0.014100382 -0.05517941 0.07871311 -0.055324856 -0.0395682 -0.0609677
0.05723426 0.030421356 0.090508014 -0.030923463 0.03149562 -0.027850322 0.027392764 0.038239658
-0.08050414 0.03489922 -0.02336682 0.031897776 0.17051858 0.11337417 -0.005859068 0.07177503
0.042453703 0.037792284 -0.117529616 0.0013349892 -0.012747839 -0.1205473 0.00566871 -0.029857416
-0.08056927 0.019038225 0.07894449 -0.040784445 0.008124119 -0.042948026 0.019967183 0.17331137
0.094148554 0.009423569 -0.036361728 -0.057682693 -0.052183524 0.021157384 -0.022960078 0.10111778
0.061603982 -0.10687431 0.05708332 0.025569895 -0.044096906 -0.07972128 0.1433781 -0.06387096
-0.049037673 -0.06450958 -0.005461478 0.02621596 0.05342538 0.012712553 -0.122412816 -0.053615216
-0.010884318 0.09707035 0.06923174 -0.013173832 -0.12964699 -0.014415716 -0.07587814 0.047415104
-0.042247273 -0.046109002 0.023331292 0.035098664 0.048987497 0.0052255485 -0.093360744 -0.057256244
0.04532875 0.030635357 0.11114633 -0.04140044 -0.055834424 0.040600058 0.13024916 -0.055754684
0.003967282 -0.089348145 0.021129169 -0.007000639 0.0039933957 0.074543856 0.08414242 -0.046513464
0.018305542 0.087381795 -0.0034903113 0.0189706 0.10912577 -0.05326651 0.013051881 -0.12106633
-0.095010765 0.06490631 -0.007902821 0.1674244 0.13407351 0.039248586 0.008985248 -0.06857031
0.016310614 0.06380685 0.026588136 -0.037591845 -0.08453764 -0.00540713 0.17827867 0.037213326
0.013859534 -0.08466972 0.030209204 -0.103115715 -0.14673913 -0.057249572 -0.06604646 -0.017935624
-0.01596763 0.01589491 -0.16680644 0.026981466 0.03179277 0.030780734 -0.006404779 0.11434936
0.057707086 -0.079134695 0.021905234 0.0018283391 -0.09740318 0.046381637 0.0007165131 -0.013092541
0.0044122958 0.04759607 -0.09923892 -0.053823233 -0.0046707178 -0.024627011 -0.060171913 -0.073163286
-0.086765945 0.076446705 0.036571555 0.032012627 0.08503153 -0.057170957 -0.0377407 -0.012936569
-0.023780439 -0.037473124 -0.029039832 -0.114333756 0.038943876 0.024398176 -0.0028344616 -0.08248835
0.03527348 -0.09193185 0.04067798 -0.039269775 0.035997864 0.0984337 -0.09758915 0.063297965
0.2148772 0.035711665 0.00281003 -0.024459489 -0.0043628933 0.106624186 -0.059309725 -0.12132246
0.054955345 0.0010000778 -0.038126964 -0.13351394 0.071389675 -0.027074981 0.13214105 0.0037101905
00000000: 34cc 98bd 1bff 00be 43ee 0dbd 9440 06bd
00000010: 96bb bd3d 4f19 61bd 3b65 3ebd b14b 03bd
00000020: 4a98 4a3d 9934 94bd 8f49 60bd 58b6 1c3e
00000030: 6bc3 513d 1b00 5b3d 56bf 4abd 797e 39bd
00000040: 21e2 353d 1c10 183e 9a85 223c 4e1e 81bd
00000050: 1362 193e 6caf a73d 6b19 3f3c 8006 843d
00000060: e0db 77bd fd60 473d a803 b73d ec44 85bd
00000070: 35ae 45bd 4c21 923d f5aa 73bc b993 e33d
00000080: 5c74 53bc 8158 dcbd 0032 483c 3089 7f3d
00000090: 2900 91bd ea43 1b3d 11ce 62bc 9f59 d0bc
000000a0: 6fa4 bc3c 2a7d 8f3c c863 593c 06d2 cbbd
000000b0: be6f 6cbd 95a1 99bd 6a72 4c3c 81a1 20bc
000000c0: 343d 3a3d 7c47 9fbd 6f4d 593c 4d8f 26ba
000000d0: ca2e 993d 6f0e a9bc 1f87 c63d 483c 4c3d
000000e0: 5318 a43c f689 053c 854f 07bd 5782 003e
000000f0: 8a7d 02bd cc37 783c 2835 7f3c cb88 a33d
00000100: 195b d33c 172c c93b 4a05 673c ce03 62bd
00000110: 5734 a13d 519c 62bd 4412 22bd 44b9 79bd
00000120: 796e 6a3d 3536 f93c 445c b93d 3453 fdbc
00000130: 8d01 013d 5c26 e4bc ca66 e03c 30a1 1c3d
00000140: 5bdf a4bd 7cf2 0e3d c66b bfbc 3ea7 023d
00000150: 6c9c 2e3e b830 e83d 6dfd bfbb c9fe 923d
00000160: efe3 2d3d 15cc 1a3d 5eb3 f0bd cefa ae3a
00000170: 50dc 50bc 81e1 f6bd 96c0 b93b 8a97 f4bc
00000180: 8001 a5bd 0df6 9b3c a6ad a13d 970d 27bd
00000190: 061b 053c 45ea 2fbd 3892 a33c 8978 313e
000001a0: f5d0 c03d 5065 1a3c 09f0 14bd b044 6cbd
000001b0: 64be 55bd 4052 ad3c c616 bcbc d716 cf3d
000001c0: 7554 7c3d ebe0 dabd 33d0 693d f577 d13c
000001d0: f59e 34bd e944 a3bd b5d1 123e c7ce 82bd
000001e0: badb 48bd 991d 84bd 33f6 b2bb dac2 d63c
000001f0: 92d4 5a3d 5048 503c 92b3 fabd a19b 5bbd
00000200: 2354 32bc d2cc c63d 5fc9 8d3d 0ed7 57bc
00000210: 2ec2 04be e52f 6cbc 0066 9bbd 5736 423d
00000220: 7a0b 2dbd cbdc 3cbd 4421 bf3c 9ec3 0f3d
00000230: 1da7 483d 143b ab3b eb33 bfbd 8685 6abd
00000240: a4aa 393d 00f7 fa3c b0a0 e33d 8293 29bd
00000250: a3b2 64bd 3f4c 263d 0960 053e 065f 64bd
00000260: f9ff 813b 29fc b6bd 1417 ad3c 9e65 e5bb
00000270: 08db 823b 73aa 983d dc52 ac3d e784 3ebd
00000280: 81f5 953c 3af5 b23d b5bd 64bb 3b68 9b3c
00000290: 557d df3d fc2d 5abd 8fd7 553c a0f1 f7bd
000002a0: 0195 c2bd 99ed 843d d57a 01bc 4d71 2b3e
000002b0: 914a 093e 20c3 203d dd36 133c 976e 8cbd
000002c0: d69d 853c 2aad 823d 5dcf d93c e8f9 19bd
000002d0: 1222 adbd 4b2e b1bb af8e 363e 006d 183d
000002e0: 1913 633c 5167 adbd 4b79 f73c 552e d3bd
000002f0: c842 16be 877e 6abd 5e43 87bd bbed 92bc
00000300: 8cce 82bc 0b36 823c 4fcf 2abe 3c08 dd3c
00000310: 2339 023d e127 fc3c 2edf d1bb ff2f ea3d
00000320: 445e 6c3d 5f11 a2bd 9b72 b33c e1a4 ef3a
00000330: 527b c7bd acfa 3d3d 61d4 3b3a 1982 56bc
00000340: 0595 903b 19f4 423d c63d cbbd c075 5cbd
00000350: d20c 99bb 96be c9bc d376 76bd a2d6 95bd
00000360: 58b2 b1bd 1790 9c3d 0ecc 153d ac1f 033d
00000370: 0325 ae3d 182c 6abd fe95 1abd e7f3 53bc
00000380: 32cf c2bc 6b7d 19bd f1e4 edbc d127 eabd
00000390: 9d83 1f3d afde c73c 60c2 39bb a7ef a8bd
000003a0: ed7a 103d c446 bcbd f49d 263d 58d9 20bd
000003b0: 7f72 133d 9c97 c93d d2dc c7bd 5da2 813d
000003c0: c508 5c3e 6546 123d 7b28 383b 445f c8bc
000003d0: 9af6 8ebb c85d da3d c1ee 72bd e977 f8bd
000003e0: db18 613d 0b15 833a 052b 1cbd e1b7 08be
000003f0: c034 923d 5acc ddbc fc4f 073e ab26 733b

network_body._body_endoder.seq_layers.4.bias f4 [256]
0.023457974 0.02688138 0.011749092 0.0053366628 -0.00024920172 0.008252871 0.019501172 0.01476026
0.012143006 0.0018536865 0.00557353 -0.0031590958 0.012724452 0.0113533465 0.018183675 0.018764583
0.019290827 0.015079247 0.017959189 0.0129986 0.00816369 0.0031263803 0.012594539 0.011495385
0.009725124 0.0037912312 0.008255135 0.01923509 0.021343084 0.017628377 0.016067136 -0.0037300258
0.015469322 0.0021581708 0.024094256 0.01430258 0.013477935 0.010368624 0.017291224 0.005129436
0.009881278 0.00019207224 0.010557356 -0.0007585864 0.019569702 0.023391675 0.02107658 0.016306551
0.0118413195 0.019705987 0.006164518 0.026184978 0.0027029756 0.0042283237 0.016940374 0.018935198
0.0059710885 0.017346447 0.015548181 0.004719693 0.002866311 0.0038336215 0.012330592 0.006590509
0.0031562264 0.0024400747 0.0070401123 0.007931745 0.023116093 0.0011129059 0.009364589 0.0072153425
0.024316955 0.0073658014 0.022270847 0.0038786107 0.0048713363 0.010887725 0.019088145 0.00607431
0.012021486 0.018926293 0.005676445 0.009392048 0.018630391 0.0012944301 0.02523711 0.015614116
0.016906556 0.013623741 0.009223916 0.027509246 0.016204402 0.01727962 0.017681744 0.018372415
0.0062286933 0.005813788 0.021962369 0.0146221705 0.0015880454 0.019247089 0.0049367454 0.008548057
0.011166492 0.011201269 0.017716164 0.014926077 0.014941619 0.01828022 0.013567543 0.014702681
0.010641365 0.006658761 0.025598736 0.0062799673 0.016439382 0.011060138 0.025302947 0.006687693
0.015109785 0.0007969766 0.013846164 0.009652429 0.032503184 0.00074439484 0.014217383 0.0063049765
0.01643429 0.013577994 0.00080926693 0.019620279 -0.0020378395 0.008659155 0.014944109 0.0066744946
0.009389341 0.022254745 0.01663182 0.013931582 0.018430699 0.009675826 -0.003485992 0.0028800962
0.0060374653 0.012467352 0.005811477 0.012231002 0.015887065 0.0062626246 0.009988232 0.017608427
0.004652731 0.015262516 0.02062478 0.018008897 0.004328398 0.019451506 0.0093861325 0.007955608
0.0064287707 0.015281602 0.0050936406 0.013045362 0.009156887 0.018067004 0.0071026874 0.024890544
0.0015408354 0.004590924 0.01432216 0.008082659 0.011590429 0.009927235 0.017076164 0.016053628
0.012526323 0.02664272 0.0057455343 0.013884044 0.010541797 0.016974838 0.017850824 0.0074810763
0.014386934 0.020311128 0.010662261 0.01283817 0.0065939855 0.007185644 0.022125881 0.011795368
0.0035108149 0.01724667 0.027867725 0.015717555 0.016525222 0.009200124 0.013968342 0.014510751
0.01376025 0.01623537 0.007822688 0.021331403 0.007117767 0.008671941 -0.00076872646 0.010327329
0.008829018 0.0048887227 0.013890984 0.005549503 0.007865356 -0.0014872892 0.010551466 0.00049673987
-0.0011770764 0.019126402 0.0114565 0.00969622 0.011514586 0.011960294 0.015549121 -0.0036893531
0.0027306697 0.015618452 0.007742047 0.017372517 0.013667039 0.01770644 0.00772709 0.01345339
0.027041307 0.008133123 0.015795127 0.008978405 0.021052876 0.01992498 0.013014284 0.01262105
0.012321815 0.0075901253 0.014294658 0.02232505 0.01756232 0.0058544786 0.007538303 0.011633347
-0.0042560673 0.016001027 0.00908191 0.011309476 0.024284188 0.0032522418 0.0038804903 0.023050966
00000000: f02a c03c 5736 dc3c 437f 403c 2cdf ae3b
00000010: 4aa7 82b9 0d37 073c ecc0 9f3c 04d5 713c
00000020: 75f3 463c 66f7 f23a 29a2 b63b d508 4fbb
00000030: 387a 503c 6303 3a3c eef5 943c 2fb8 993c
00000040: cc07 9e3c f20e 773c 261f 933c 14f8 543c
00000050: ffc0 053c f5e3 4c3b 5359 4e3c 2457 3c3c
00000060: 2056 1f3c 4e76 783b 8c40 073c e892 9d3c
00000070: b1d7 ae3c 6369 903c 3a9f 833c 7373 74bb
00000080: 0a73 7d3c 1970 0d3b 5161 c53c 5e55 6a3c
00000090: 8fd2 5c3c 29e1 293c 53a6 8d3c d414 a83b
000000a0: 15e5 213c 0067 4939 c3f8 2c3c dfdb 46ba
000000b0: a450 a03c e69f bf3c cba8 ac3c 5195 853c
000000c0: 1802 423c 736e a13c baff c93b e181 d63c
000000d0: 6824 313b c08d 8a3b 8ac6 8a3c fd1d 9b3c
000000e0: 1fa9 c33b 231a 8e3c ccbd 7e3c a8a7 9a3b
000000f0: b8d8 3b3b 7f3d 7b3b 4006 4a3c 32f5 d73b
00000100: b1d8 4e3b a9e9 1f3b beb0 e63b 26f4 013c
00000110: f65d bd3c edde 913a ef6d 193c ae6e ec3b
00000120: 5a34 c73c d25c f13b 5a71 b63c 4a30 7e3b
00000130: bb9f 9f3b 6e62 323c be5e 9c3c 010b c73b
00000140: c4f5 443c 500b 9b3c 7901 ba3b 1be1 193c
00000150: c39e 983c dea9 a93a 0ebe ce3c 59d2 7f3c
00000160: 9e7f 8a3c 1d36 5f3c e81f 173c 125b e13c
00000170: 18bf 843c fd8d 8d3c 4ed9 903c bf81 963c
00000180: 111a cc3b 9781 be3b 6dea b33c d491 6f3c
00000190: f625 d03a 12ac 9d3c 6cc4 a13b 260d 0c3c
000001a0: a9f3 363c 8785 373c 7d21 913c 818c 743c
000001b0: b1cd 743c 66c0 953c 664a 5e3c 84e3 703c
000001c0: 1f59 2e3c bc31 da3b 71b4 d13c 2fc8 cd3b
000001d0: e2ab 863c 9535 353c 2048 cf3c 6f24 db3b
000001e0: 088f 773c 32ec 503a 05db 623c 3925 1e3c
000001f0: 0f22 053d 7e23 433a 07f0 683c fa99 ce3b
00000200: 34a1 863c 3c76 5e3c fc24 543a b5ba a03c
00000210: 468d 05bb 21df 0d3c 23d8 743c b8b5 da3b
00000220: c0d5 193c 954f b63c 743f 883c 4a41 643c
00000230: fafb 963c 5b87 1e3c 3e75 64bb ffbf 3c3b
00000240: eed5 c53b dd43 4c3c 346e be3b 8a64 483c
00000250: 9725 823c b436 cd3b aea5 233c 8c3f 903c
00000260: f075 983b a20f 7a3c 4cf5 a83c 6587 933c
00000270: 3cd5 8d3b c458 9f3c 4bc8 193c 3d58 023c
00000280: 70a8 d23b af5f 7a3c 8ee8 a63b 37bc 553c
00000290: c506 163c 4101 943c a9bd e83b 41e7 cb3c
000002a0: dbf5 c93a 766f 963b 7ea7 6a3c 216d 043c
000002b0: c8e5 3d3c d7a5 223c 50e3 8b3c e682 833c
000002c0: 353b 4d3c d541 da3c 0945 bc3b e779 633c
000002d0: 80b7 2c3c d10e 8b3c e43b 923c d123 f53b
000002e0: 2db7 6b3c 8663 a63c c4b0 2e3c 3057 523c
000002f0: 5c12 d83b 8d75 eb3b 5641 b53c 5c41 413c
00000300: b315 663b e348 8d3c db4a e43c 1ac2 803c
00000310: e75f 873c 1ebc 163c 79db 643c 80be 6d3c
00000320: ac72 613c 0a00 853c bb2a 003c 32bf ae3c
00000330: 283c e93b c214 0e3c 5c84 49ba f533 293c
00000340: 96a7 103c 9431 a03b 0297 633c 9bd8 b53b
00000350: b2dd 003c 25f1 c2ba 0ee0 2c3c a637 023a
00000360: 2148 9aba f9ae 9c3c 0bb4 3b3c e5dc 1e3c
00000370: ada7 3c3c 1cf5 433c bec1 7e3c 13c9 71bb
00000380: 09f5 323b 89e4 7f3c ffb0 fd3b cf50 8e3c
00000390: b7eb 5f3c 190d 913c 8733 fd3b 9c6b 5c3c
000003a0: bb85 dd3c ca40 053c c864 813c 291a 133c
000003b0: 1577 ac3c b639 a33c dd39 553c 85c8 4e3c
000003c0: 70e1 493c 96b6 f83b 2434 6a3c 06e3 b63c
000003d0: dbde 8f3c edd6 bf3b de03 f73b cb99 3e3c
000003e0: 7b76 8bbb 9614 833c 4bcc 143c 614b 393c
000003f0: a2ef c63c 9023 553b d34f 7e3b 61d5 bc3c

network_body._body_endoder.seq_layers.4.weight f4 [256, 256]
-0.057694286 -0.010558474 0.014639628 -0.030522099 0.024918448 0.03740443 -0.030156951 -0.03565601
-0.08484605 0.040204883 0.0037428753 -0.0026497976 -0.05373628 0.007033889 0.058646105 0.012153224
0.03552578 -0.045435455 0.027037293 0.03867827 0.0027778107 -0.053799592 0.03202195 0.1136263
0.049520306 0.10941405 -0.004350263 0.027739119 0.08937036 0.06251642 0.027522191 0.0034105685
0.057782594 -0.05705218 -0.033214908 -0.09660955 0.07778961 -0.014172995 0.025508616 -0.03274247
-0.050976936 0.08968331 0.058742132 0.028921101 0.04338034 0.06720534 -0.019992223 0.05318783
-0.13668282 -0.08406124 0.043455534 -0.010416364 0.114022 0.17543304 0.06439739 0.12779552
0.023742232 -0.06640986 -0.033329077 -0.12998556 0.11603117 0.008492794 -0.014281767 0.111247346
-0.046448566 -0.051532514 0.13959919 0.028149514 -0.010436565 -0.07270931 0.1152742 0.0547495
-0.029590609 0.020427516 0.0034847462 -0.058450513 0.097113855 -0.115970984 -0.044753674 0.03193527
0.023698071 0.08915232 0.02410211 0.14999512 -0.06712868 -0.040170863 -0.0075939447 0.02788565
-0.014788225 0.008756064 -0.050842367 -0.09431423 -0.2431743 -0.09689547 0.03427185 0.028369624
-0.023050832 -0.09139328 0.02160937 -0.057809602 -0.07945928 0.010113581 0.05670099 0.049801752
-0.0046540606 0.039490238 0.05354385 -0.038401328 -0.03355736 -0.13204467 0.01236834 0.12359587
-0.038436066 0.07006482 -0.05296505 0.058958914 0.12667927 0.01191953 -0.034462582 0.0017238684
-0.013191478 -0.013524579 -0.009852168 -0.045529295 -0.030655345 0.09136526 0.050693072 0.13826558
-0.06306902 0.017583039 0.030657163 0.0045210207 0.04519895 0.003911881 -0.03524272 -0.111205034
0.027476344 0.0160939 0.020237125 0.035102423 -0.18935494 0.054061286 0.053223062 0.069081225
0.0061990074 0.055008773 0.050624892 -0.044408306 -0.027336102 0.058023088 0.03754326 0.09620013
-0.011954371 0.1374538 0.017069394 0.04278988 -0.052824453 -0.023611123 0.109782554 -0.016085733
0.12477029 -0.03042721 -0.06682318 0.05895716 0.070994444 -0.044421967 -0.20160891 0.016923662
-0.031997066 0.109562874 -0.013593286 -0.008936852 0.0058395565 0.13921003 0.015281247 0.002056415
0.051111862 -0.0042692525 0.027842974 0.10239111 0.09274405 -0.0072779683 0.059795782 -0.025360333
0.06882954 -0.04421283 -0.08933912 -0.064016014 -0.080528565 0.075824425 0.10758198 0.042640436
-0.117311694 -0.054799926 -0.033974513 0.017229285 -0.008908936 0.011535772 0.010448135 -0.06444767
0.061484918 -0.04338218 0.059067406 -0.0008032419 -0.011321154 -0.09338727 -0.050479643 0.10379618
0.020358765 -0.018229978 -0.07756689 0.05588832 0.062549435 -0.05230623 -0.011460774 0.112193055
0.046018686 -0.0032807933 -0.1218188 -0.019358655 0.118121386 -0.01604458 -0.049905423 -0.11052307
-0.0020662823 0.022033792 0.010716176 -0.061289884 -0.029990653 0.072642356 0.082535155 -0.02175136
-0.058644753 0.02265212 -0.010729073 0.008741376 -0.026198778 -0.010333097 0.012188906 -0.035976358
0.12995835 0.056658898 -0.023218373 0.022765692 -0.12883562 -0.013559756 -0.04782665 -0.043522064
-0.19424924 0.01288947 -0.029225878 0.08198634 -0.047056634 -0.07382031 -0.005259512 -0.09130444
00000000: d850 6cbd 73fd 2cbc 0ddb 6f3c 7b09 fabc
00000010: c621 cc3c 6335 193d b60b f7bc 090c 12bd
00000020: c4c3 adbd e0ad 243d 074b 753b 3aa8 2dbb
00000030: 931a 5cbd 8a7c e63b e636 703d 511e 473c
00000040: 7b83 113d 871a 3abd 507d dd3c 1b6d 1e3d
00000050: ee0b 363b f65c 5cbd 7329 033d e8b4 e83d
00000060: ced5 4a3d 7914 e03d a78c 8ebb 263d e33c
00000070: cf07 b73d 9c08 803d 3876 e13c d883 5f3b
00000080: 71ad 6c3d 8caf 69bd 5b0c 08bd 3adb c5bd
00000090: 2950 9f3d da35 68bc 72f7 d03c f81c 06bd
000000a0: 31cd 50bd e2ab b73d 979b 703d f2eb ec3c
000000b0: 95af 313d f4a2 893d bbc6 a3bc 7bdb 593d
000000c0: 95f6 0bbe 4d28 acbd 6efe 313d 66a9 2abc
000000d0: 5e84 e93d b8a4 333e c7e2 833d d4dc 023e
000000e0: 127f c23c e501 88bd 1284 08bd ef1a 05be
000000f0: c0a1 ed3d 5c25 0b3c 13fe 69bc a6d5 e33d
00000100: da40 3ebd c213 53bd 17f3 0e3e cf99 e63c
00000110: 20fe 2abc 9ee8 94bd e114 ec3d 0341 603d
00000120: 0168 f2bc 9b57 a73c 5760 643b ce69 6fbd
00000130: a1e3 c63d 3282 edbd a14f 37bd 8fce 023d
00000140: 7522 c23c 7e95 b63d ca71 c53c 5298 193e
00000150: c37a 89bd 348a 24bd a0d6 f8bb 7270 e43c
00000160: 504a 72bc 9875 0f3c 1640 50bd d227 c1bd
00000170: af02 79be 2271 c6bd a460 0c3d 6a67 e83c
00000180: 19d5 bcbc 662c bbbd 2206 b13c c3c9 6cbd
00000190: 8cbb a2bd 6fb3 253c 4c3f 683d ecfc 4b3d
000001a0: 1781 98bb 84c0 213d cc50 5b3d b64a 1dbd
000001b0: 7173 09bd b836 07be 94a4 4a3c d51f fd3d
000001c0: 236f 1dbd 257e 8f3d e1f1 58bd e77e 713d
000001d0: 36b8 013e 224a 433c a328 0dbd 6df3 e13a
000001e0: 1221 58bc 3296 5dbc fd6a 21bc ed7c 3abd
000001f0: eb20 fbbc b61d bb3d 8aa3 4f3d 7e95 0d3e
00000200: 552a 81bd 4e0a 903c bb24 fb3c 1225 943b
00000210: 8922 393d 3c2f 803b ac5a 10bd 77bf e3bd
00000220: 1216 e13c 5bd7 833c 54c8 a53c 8fc7 0f3d
00000230: 43e6 41be 5e6f 5d3d 6d00 5a3d 757a 8d3d
00000240: 0b21 cb3b e150 613d 0c5c 4f3d 7ce5 35bd
00000250: f6ef dfbc 9ea9 6d3d f6c6 193d 9304 c53d
00000260: 44dc 43bc b0c0 0c3e 1dd5 8b3c 7144 2f3d
00000270: 745e 58bd 1d6c c1bc add5 e03d 3ac6 83bc
00000280: 9187 ff3d 7c42 f9bc 97da 88bd 107d 713d
00000290: 8965 913d cff3 35bd 9172 4ebe 7ea3 8a3c
000002a0: 5b0f 03bd 8062 e03d 60b6 5ebc e06b 12bc
000002b0: c059 bf3b 138d 0e3e 325e 7a3c ebc4 063b
000002c0: ac5a 513d 16e5 8bbb f316 e43c 6eb2 d13d
000002d0: 98f0 bd3d 067c eebb 6cec 743d 79c0 cfbc
000002e0: 80f6 8c3d 8318 35bd 6ef7 b6bd d41a 83bd
000002f0: 29ec a4bd d649 9b3d f153 dc3d bda7 2e3d
00000300: 1d41 f0bd e375 60bd dc28 0bbd 6e24 8d3c
00000310: c9f6 11bc 8900 3d3c a82e 2b3c 24fd 83bd
00000320: 9cd7 7b3d 83b1 31bd aaf0 713d a790 52ba
00000330: 5d7c 39bc d341 bfbd bec3 4ebd 1793 d43d
00000340: 6dc7 a63c 0957 95bc 64db 9ebd 27eb 643d
00000350: eb19 803d 0f3f 56bd f8c5 3bbc 79c5 e53d
00000360: 177e 3c3d 9402 57bb 237c f9bd 0b96 9ebc
00000370: a0e9 f13d ec6f 83bc a169 4cbd eb59 e2bd
00000380: 776a 07bb 3680 b43c e692 2f3c 1a0b 7bbd
00000390: f5ae f5bc 84c5 943d 3108 a93d e82f b2bc
000003a0: 7b35 70bd f090 b93c fec8 2fbc fd37 0f3c
000003b0: d29e d6bc 264c 29bc fab3 473c f25b 13bd
000003c0: cd13 053e 2913 683d 7534 bebc 1e7f ba3c
000003d0: 7ced 03be bd29 5ebc e1e5 43bd 3144 32bd
000003e0: 46e9 46be 5b2e 533c 1c6b efbc 74e8 a73d
000003f0: 75be 40bd 1a2f 97bd fc57 acbb d2fd babd

network_body.observation_encoder.processors.0.normalizer.running_mean f4 [68]
0.41528574 0.34340113 0.24131435 0.73294514 0.18073684 0.1336517 0.6855845 0.88252246
0.37705228 0.21753561 0.40540287 0.7074347 0.60219795 0.08710099 0.310668 0.7044163
0.38733009 0.27947685 0.33319283 0.6431763 0.25437188 0.48456207 0.26103142 0.8143968
0.43966985 0.5319454 0.028296245 0.50235325 0.5200688 0.37889382 0.10090051 0.6001644
0.6280475 0.362064 0.009745837 0.34911677 0.14157219 0.5792833 0.25201252 0.83189905
0.5446874 0.4331312 0.021752369 0.385567 0.1370731 0.7003961 0.031644475 0.75199616
0.24081564 0.7298409 0.015052571 0.5870691 0.1281304 0.69489175 0.00010777724 0.59519255
0.1059562 0.85241807 0.00013489138 0.56556016 0.07058228 0.80509615 8.188737e-05 0.56547195
0.07058228 0.80509686 8.188736e-05 0.5654719
00000000: 55a0 d43e 46d2 af3e 1c1b 773e 4ba2 3b3f
00000010: 1413 393e fedb 083e 7782 2f3f feec 613f
00000020: ff0c c13e a8c1 5e3e f790 cf3e 711a 353f
00000030: a529 1a3f 0162 b23d e00f 9f3e a054 343f
00000040: 2150 c63e 9717 8f3e 4098 aa3e 34a7 243f
00000050: 083d 823e 8518 f83e e9a5 853e 4f7c 503f
00000060: 681c e13e 932d 083f 87cd e73c 399a 003f
00000070: 3b23 053f 5ffe c13e eda4 ce3d 60a4 193f
00000080: b9c7 203f 7460 b93e 01ad 1f3c 6fbf b23e
00000090: 4df8 103e e94b 143f c907 813e 56f7 543f
000000a0: a270 0b3f 5fc3 dd3e 0632 b23c 0a69 c53e
000000b0: e45c 0c3e 294d 333f a39d 013d d282 403f
000000c0: 6098 763e dad6 3a3f 0f9f 763c 294a 163f
000000d0: 9e34 033e 6de4 313f 7706 e238 8a5e 183f
000000e0: 90ff d83d 1238 5a3f a171 0d39 8dc8 103f
000000f0: 718d 903d c81a 4e3f f2ba ab38 c5c2 103f
00000100: 718d 903d d41a 4e3f f1ba ab38 c4c2 103f

network_body.observation_encoder.processors.1.normalizer.running_mean f4 [6]
-9.765618 4.7542653 -10.999726 6.9998455 3.788996 185.08752
00000000: f93f 1cc1 f122 9840 e1fe 2fc1 bcfe df40
00000010: e97e 7240 6816 3943
