Assets/Training/results/b_treasure_test80_Th128_Lr3e-5Bs4096Bs65536_Curiosity_EndDistanceReward/TreasureSearch/TreasureSearch-1306505.onnx (onnx, 608683 bytes, 13 tensors)

65 f4 [68]
0.46604368 0.48416945 0.46074653 0.29588383 0.4993143 0.44791412 0.39689964 0.30717462
0.46872312 0.49944654 0.39796808 0.28033632 0.49252912 0.4810002 0.41587886 0.32866475
0.45082113 0.4999025 0.40440857 0.30625805 0.4472666 0.48101518 0.279932 0.2931992
0.44607538 0.48140103 0.2856489 0.30807528 0.43407783 0.47141427 0.26464197 0.28962687
0.41073486 0.45511413 0.2637503 0.30131015 0.43622154 0.47510895 0.26119357 0.289049
0.42521697 0.46391523 0.25445285 0.31004265 0.41741836 0.48457724 0.20571324 0.28331167
0.4226022 0.4851957 0.20968135 0.3035636 0.41611904 0.4989855 0.060270015 0.22497717
0.36997926 0.49847877 0.054732677 0.2392751 0.37384838 0.4988466 0.058843017 0.21172681
0.37384838 0.4988466 0.05884302 0.21172686
00000000: 479d ee3e 0fe5 f73e f8e6 eb3e 167e 973e
00000010: 20a6 ff3e 0055 e53e 6e36 cb3e fe45 9d3e
00000020: 7afc ef3e 75b7 ff3e 79c2 cb3e 3e88 8f3e
00000030: c72c fc3e a945 f63e 13ee d43e bf46 a83e
00000040: 07d2 e63e 38f3 ff3e a40e cf3e dbcd 9c3e
00000050: 2100 e53e 9f47 f63e 3f53 8f3e 351e 963e
00000060: fe63 e43e 327a f63e 9340 923e 0bbc 9d3e
00000070: 733f de3e 365d f13e 277f 873e f949 943e
00000080: d74b d23e b804 e93e 480a 873e 5345 9a3e
00000090: 6e58 df3e 7b41 f33e 2abb 853e 3bfe 933e
000000a0: 0ab6 d93e 4c86 ed3e a547 823e e9bd 9e3e
000000b0: dcb7 d53e 821a f83e 7ea6 523e 3a0e 913e
000000c0: 515f d83e 926b f83e b5b6 563e b06c 9b3e
000000d0: 8e0d d53e 077b ff3e b1dd 763d 6a60 663e
000000e0: ec6d bd3e 9c38 ff3e 5f2f 603d 8804 753e
000000f0: 0e69 bf3e d268 ff3e 6005 713d eace 583e
00000100: 0e69 bf3e d268 ff3e 6105 713d edce 583e

68 f4 [6]
2.3118353 7.111435 0.009675006 0.0061861654 4.009881 147.81247
00000000: 1cf5 1340 e090 e340 eb83 1e3c 51b5 ca3b
00000010: f250 8040 fecf 1343

action_model._continuous_distribution.log_sigma f4 [1, 2]
0.08293499 0.019437648
00000000: d2d9 a93d b43b 9f3c

action_model._continuous_distribution.mu.bias f4 [2]
0.0006124796 0.004667298
00000000: cf8e 203a 22f0 983b

action_model._continuous_distribution.mu.weight f4 [2, 256]
0.009241579 0.013552268 -0.010518452 -0.025744027 0.019650554 -0.0027957223 -0.012471884 0.0076231244
0.007815477 -0.0042622644 -0.04783372 0.011707594 -0.0025674254 -0.03333551 0.0068035624 0.015738206
0.0016596344 -0.015283624 0.020925215 -0.03328083 -0.005336395 0.0077780783 -0.028871836 0.038503516
-0.009314412 0.009643521 0.019931652 -0.02706163 -0.006931436 -0.031348936 -0.041326288 0.030354306
-0.03975705 0.013275694 -0.031030802 0.008436997 0.005381854 -0.037579805 0.014018291 -0.0017667131
0.017620634 -0.04469184 0.0019303695 0.029525409 -0.0049713156 -0.012893724 -0.026757263 -0.034001607
-0.005878962 0.012996204 0.0050248015 0.0015453877 0.01800744 0.00014528098 0.031131728 0.020751815
0.015332833 0.011492324 -0.02882871 0.0025447204 0.021406507 -0.012440677 -0.029924856 0.010375379
-0.022241985 -0.024618277 0.036338035 -0.01975153 -0.014812311 -0.01875059 0.018088654 0.026681328
0.025003875 0.004721987 0.012819559 0.008815638 0.027797699 -0.012677766 -0.030571545 0.023321003
0.010721646 -0.023462597 -0.031678557 -0.02243727 0.015281975 -0.014020325 -0.008834967 0.036718033
-0.011151739 -0.0059794537 -0.009526891 0.032140553 -0.022600379 -0.02076663 -0.013434699 0.016823689
0.002060293 0.016640253 -0.011337319 -0.024485445 -0.024198866 0.004420609 -0.01589503 -0.0068155685
-0.0018338705 -0.022506109 -0.006592093 0.014870058 -0.017698782 -0.002546872 0.007844676 -0.0076231244
0.0115475375 0.027657172 -0.0013323152 -0.024116345 0.032666475 0.004263376 0.020630265 0.020213457
-0.015478836 0.033728898 -0.021359278 0.0011158821 -0.020327553 0.026373826 -0.011139673 0.020176046
0.014092693 -0.0056843786 0.01885233 0.024898285 0.024229018 -0.02226711 0.028218137 0.048731435
-0.02555731 -0.006999921 -0.020964952 -0.018352658 -0.012390582 -0.034457847 0.021567907 0.026826737
0.029945914 -0.022278225 -0.0014174503 -0.0026687179 0.013483674 0.0043152752 0.0059237434 -0.04194332
0.01393468 -0.0059587597 0.029328281 -0.016963461 0.011080495 0.053984445 -0.0028846483 -0.017421378
-0.027740506 0.017621426 -0.03019654 -0.035904 0.017010309 -0.038502082 0.018616892 0.008640781
-0.00952143 -0.0060400036 -0.030197065 -0.02406998 0.0039828345 -0.0031146083 2.13101e-05 0.019999772
0.015609985 0.00017661456 0.010583101 0.010391184 -0.014042885 -0.024082365 0.023470983 -0.013814054
0.03002469 0.026912138 0.010748809 -0.011852352 -0.0219796 0.012734677 0.00045522794 0.0045192055
-0.020303788 0.023214582 -0.01862553 -0.028066592 0.0077548996 -0.019469459 -0.018210255 -0.00616264
0.007344532 0.027404781 -0.00025580646 -0.022163698 0.028624628 0.019961163 -0.031263165 -0.009125211
-0.021937178 0.009072498 0.006024836 0.012783309 0.0034250973 -0.021232104 0.0062154275 -0.024517193
-0.025262466 0.001157037 -0.020508952 0.03243245 0.007435482 -0.023416094 0.023814373 -0.031132644
-0.0069343727 -0.021319332 0.008543176 0.020620208 0.018973386 -0.023378072 -0.032276582 0.008225795
0.019767392 -0.00902605 0.019932669 -0.026365265 -0.013592971 0.031700023 0.022530057 0.006974572
-0.038377024 -0.028490681 0.021818861 -0.009383752 0.020757101 0.011018704 -0.005738634 -0.008752168
0.027479488 0.024360823 0.016283456 0.012464096 -0.025970481 -0.019973887 0.016076848 0.0086897975
00000000: fe69 173c 550a 5e3c 9655 2cbc 23e5 d2bc
00000010: 33fa a03c 7038 37bb df56 4cbc 67cb f93b
00000020: 7d0c 003c 77aa 8bbb 4aed 43bd 35d1 3f3c
00000030: 4042 28bb d18a 08bd 6bf0 de3b 69ed 803c
00000040: 1788 d93a 2a68 7abc 5b6b ab3c 7b51 08bd
00000050: eddc aebb 40df fe3b a184 ecbc ddb5 1d3d
00000060: 7a9b 18bc dcff 1d3c b447 a33c 5ab0 ddbc
00000070: 1921 e3bb be67 00bd c145 29bd 98a9 f83c
00000080: 4ad8 22bd 4c82 593c 4f34 febc 553b 0a3c
00000090: 435a b03b 48ed 19bd f9ac 653c 0e91 e7ba
000000a0: 2659 903c ca0e 37bd 7404 fd3a 45df f13c
000000b0: 6be6 a2bb 3340 53bc 0c32 dbbc 4545 0bbd
000000c0: 4fa4 c0bb 08ee 543c 17a7 a43b 9b8e ca3a
000000d0: 5784 933c 9156 1839 f707 ff3c b6ff a93c
000000e0: 9036 7b3c 4d4a 3c3c 302a ecbc 53c5 263b
000000f0: b35c af3c fbd3 4bbc f924 f5bc 7efd 293c
00000100: d334 b6bc 45ac c9bc 31d7 143d f6cd a1bc
00000110: 56af 72bc d69a 99bc a82e 943c cd92 da3c
00000120: edd4 cc3c e6ba 9a3b 2109 523c 776f 103c
00000130: 00b8 e33c 68b6 4fbc 2d71 fabc b00b bf3c
00000140: d8a9 2f3c a234 c0bc 60c1 01bd 5ece b7bc
00000150: 4061 7a3c 81b5 65bc 8ac0 10bc a665 163d
00000160: c9b5 36bc 4bef c3bb ad16 1cbc d0a5 033d
00000170: 6e24 b9bc c81e aabc 361d 5cbc d5d1 893c
00000180: fb05 073b 2451 883c 2ac0 39bc b395 c8bc
00000190: b33c c6bc c2da 903b 4b36 82bc 2255 dfbb
000001a0: 7c5e f0ba bb5e b8bc 7c02 d8bb 8ba1 733c
000001b0: 09fd 90bc 6ce9 26bb f586 003c 67cb f9bb
000001c0: e231 3d3c 4b91 e23c 14a1 aeba a48f c5bc
000001d0: 48cd 053d cab3 8b3b cd00 a93c b196 a53c
000001e0: f29a 7dbc 5027 0a3d a7f9 aebc ca42 923a
000001f0: f885 a6bc ec0d d83c 2d83 36bc 3c48 a53c
00000200: 0ae5 663c 0644 babb 3470 9a3c 7df7 cb3c
00000210: ef7b c63c 8469 b6bc b929 e73c 9d9a 473d
00000220: 905d d1bc 985f e5bb b1be abbc 5058 96bc
00000230: de01 4bbc ac23 0dbd 2eaf b03c bfc3 db3c
00000240: 2251 f53c d380 b6bc bdc9 b9ba a8e5 2ebb
00000250: a1ea 5c3c 2767 8d3b f61b c23b c2cc 2bbd
00000260: 494e 643c b341 c3bb dd41 f03c f5f6 8abc
00000270: f78a 353c cb1e 5d3d 5e0c 3dbb 47b7 8ebc
00000280: 0f40 e3bc cf5a 903c bc5e f7bc 1310 13bd
00000290: 3459 8b3c 5cb4 1dbd 7482 983c 1092 0d3c
000002a0: c6ff 1bbc 39eb c5bb d65f f7bc 682e c5bc
000002b0: 7082 823b 751e 4cbb 17c3 b237 90d6 a33c
000002c0: 06c1 7f3c 9c31 3939 be64 2d3c c93f 2a3c
000002d0: 2114 66bc 6148 c5bc 3846 c03c 5854 62bc
000002e0: 57f6 f53c d876 dc3c c61b 303c 5e30 42bc
000002f0: 900e b4bc 1ba5 503c a9ab ee39 d815 943b
00000300: 2154 a6bc 822c be3c 9194 98bc e9eb e5bc
00000310: d01c fe3b 6a7e 9fbc ac2d 95bc f9ef c9bb
00000320: 66aa f03b fe7f e03c c31d 86b9 a590 b5bc
00000330: 327e ea3c 9885 a33c ce0d 00bd e981 15bc
00000340: 99b5 b3bc d1a4 143c fd6b c53b 1671 513c
00000350: 9977 603b f3ee adbc c9aa cb3b 48d8 c8bc
00000360: 3bf3 cebc b8a7 973a 6402 a8bc e4d7 043d
00000370: 58a5 f33b 1cd3 bfbc 5c16 c33c e309 ffbc
00000380: bc39 e3bb e1a5 aebc adf8 0b3c b6eb a83c
00000390: 136e 9b3c 5f83 bfbc 7334 04bd 7cc5 063c
000003a0: 3aef a13c ffe1 13bc d649 a33c f8fb d7bc
000003b0: 0db5 5ebc e2d7 013d f490 b83c f38a e43b
000003c0: 3a31 1dbd 4a65 e9bc 78bd b23c 4fbe 19bc
000003d0: cc0a aa3c cb87 343c 270b bcbb 4165 0fbc
000003e0: aa1c e13c 5990 c73c e264 853c 3536 4c3c
000003f0: 0cc0 d4bc 47a0 a3bc 98b3 833c a75f 0e3c

network_body._body_endoder.seq_layers.0.bias f4 [256]
0.0074481247 0.008898866 0.0023097976 0.016901815 0.014030844 -0.0025788646 0.0023298475 0.0037642487
0.0071965847 0.0024263416 0.008679068 0.0002689321 -0.009515128 -0.0017543898 0.0019394703 -0.0038610161
0.0030625148 -0.000112815265 0.0057330667 -0.0021641683 -0.004027372 0.006697085 0.0077020857 -0.0046469755
0.00013503649 -0.0023611588 -0.00085288263 0.0069646304 0.008280456 -0.0008474726 0.0031240194 0.00082925893
-0.005118534 -0.0044550975 -0.0030246165 -0.0051311897 -0.007938535 -0.0016813775 0.0047360873 -0.014149134
0.0053241584 0.012600019 -0.0015278577 -0.007395783 0.009832045 -0.0018601762 0.0050499267 0.009670656
0.0015050563 -0.00556445 0.0037670352 -0.000947654 8.280733e-07 0.005313024 0.012841856 5.1270017e-05
0.0074911276 0.0034077484 -0.001498253 -0.0029058482 -0.004455094 0.0068858224 -0.012174413 0.0049604997
0.001991644 0.0021960218 -0.008408153 0.0017017928 -0.0059580496 0.00010826711 -0.0015032905 0.0066958233
-0.0048339088 0.006212955 0.0037547736 0.010222353 -0.001834701 0.012856488 0.0032252742 0.0035842224
0.008451303 0.006519397 0.0021825968 0.0028817537 -0.0063891807 0.0010715226 0.002263134 8.710436e-05
-0.0073161027 0.0070666354 0.004242641 0.009566795 0.0047632037 0.013618508 0.008481472 0.00034910065
-0.006725349 0.00056067586 0.00400762 -0.002647983 0.004120875 -0.004443086 0.0035232815 -0.005943351
0.007078137 0.014291915 0.010480147 -0.004042046 0.01027348 0.0047595934 -0.0009843402 0.0054464187
0.0035889982 0.008733696 0.0017499565 0.00096944463 0.0075853243 0.00050143595 0.008691026 0.008768355
0.002728146 0.006595492 0.0022372163 0.0005926995 -0.0022367921 -0.008260243 -0.003119579 0.005081988
0.010532461 -0.008083212 0.013872211 -0.0070556826 0.00853478 0.0049341065 0.009994907 0.012584072
0.004631144 0.008822807 -0.0022852488 0.0012540104 0.0020583712 0.0010526754 0.0010679499 0.008637428
-0.0014155312 0.0028396877 0.0031626103 -0.0067909304 0.0062244385 0.021258079 0.0019165563 0.001365174
0.00039134154 0.007914297 0.000638763 0.012748121 0.008224244 -0.0006320237 0.0015760732 0.012017881
0.0052131047 0.008548529 0.0049069105 0.004506808 0.001835959 -0.004154913 -0.008314105 0.00948121
0.0052812546 0.0004344905 -0.00848456 0.008245204 0.0071937423 0.0054819225 -0.0027999845 -0.002737435
-0.0013732611 0.009148919 0.008624233 0.0040072952 0.010067229 -0.007735977 0.017228331 -0.0050307247
-0.0010360158 0.0016267139 -0.00038554997 0.006172458 0.005631681 0.0008026296 -0.0029169952 0.003612897
0.000803266 -0.0023852596 0.016585898 0.0041622836 0.010684258 0.0046950774 0.00460709 -0.0016220438
0.013542454 0.0016757868 -0.00094103883 0.005125046 0.0020862382 0.0052641034 0.0033144746 0.009004703
0.0035979575 -0.0120532485 0.010873521 0.009673805 0.00046040857 0.010713488 0.0010040808 0.007791282
0.0045110323 0.0026768672 0.0026737812 0.0026591078 -0.0063488767 -0.009076546 -0.002984587 -0.0027676295
0.0040221037 0.008173718 0.0009915776 -0.0035646758 0.014961092 0.0018335173 0.0014926244 -0.005080646
0.0040587373 0.019678986 0.005338073 -0.0034752993 0.0031176934 -0.0059337756 -0.008559359 -0.010756264
1.5137572e-05 0.0019932499 0.012398818 0.00045497474 0.00086158613 0.00037035267 6.39328e-05 0.000799296
0.005441266 -0.0050973403 -0.002166181 0.012428241 0.009410228 0.0013757395 4.6712878e-05 0.0073915552
00000000: 660f f43b 8dcc 113c f95f 173b ad75 8a3c
00000010: a0e1 653c 2b02 29bb 5bb0 183b 9db1 763b
00000020: 54d1 eb3b 4203 1f3b a632 0e3c 75ff 8c39
00000030: 57e5 1bbc 8ef3 e5ba d335 fe3a 1a09 7dbb
00000040: 79b4 483b 3c97 ecb8 73dc bb3b b8d4 0dbb
00000050: 0cf8 83bb 3973 db3b c761 fc3b a845 98bb
00000060: 9598 0d39 acbd 1abb fc93 5fba 8e37 e43b
00000070: c0aa 073c ec28 5eba 59bc 4c3b a062 593a
00000080: 60b9 a7bb 11fc 91bb a538 46bb 8a23 a8bb
00000090: a110 02bc ab61 dcba 2e31 9b3b c5d1 67bc
000000a0: 4776 ae3b 4f70 4e3c 6642 c8ba 5358 f2bb
000000b0: 9616 213c 28d1 f3ba db79 a53b ac71 1e3c
000000c0: 4f45 c53a fd55 b6bb 5de0 763b fc6b 78ba
000000d0: c448 5e35 e018 ae3b a666 523c c30a 5738
000000e0: 2278 f53b 8854 5f3b 0761 c4ba 0b70 3ebb
000000f0: 0afc 91bb 77a2 e13b 3077 47bc b08b a23b
00000100: 3e86 023b 22eb 0f3b 5ac2 09bc b10e df3a
00000110: be3b c3bb 760d e338 0f0a c5ba a368 db3b
00000120: c465 9ebb 0b96 cb3b a612 763b a87b 273c
00000130: 5a7a f0ba 05a4 523c 1f5f 533b 46e5 6a3b
00000140: 5577 0a3c aaa0 d53b e609 0f3b cedb 3c3b
00000150: 555c d1bb 5572 8c3a 1751 143b ccab b638
00000160: ebbb efbb 3c8f e73b da05 8b3b 0cbe 1c3c
00000170: a614 9c3b 2a20 5f3c dff5 0a3c 7f07 b739
00000180: 5160 dcbb 52fa 123a 5a52 833b c889 2dbb
00000190: 6808 873b 4f97 91bb dbe6 663b 71c0 c2bb
000001a0: b7ef e73b a328 6a3c ecb4 2b3c 2473 84bb
000001b0: 1952 283c 5df6 9b3b fa04 81ba df77 b23b
000001c0: 6635 6b3b c717 0f3c cc5e e53a 5422 7e3a
000001d0: 508e f83b cc72 033a ce64 0e3c 25a9 0f3c
000001e0: b2ca 323b ff1e d83b 439e 123b 645f 1b3a
000001f0: 2597 12bb f855 07bc da71 4cbb ce86 a63b
00000200: 5890 2c3c 736f 04bc 4548 633c 5b33 e7bb
00000210: 76d5 0b3c 49ae a13b aec1 233c 6c2d 4e3c
00000220: dac0 973b 898d 103c 1dc4 15bb 9b5d a43a
00000230: bde5 063b edf9 893a 74fa 8b3a 0084 0d3c
00000240: 5889 b9ba 0e1a 3a3b cc43 4f3b 7486 debb
00000250: 60f6 cb3b 6c25 ae3c f534 fb3a a3ef b23a
00000260: f92c cd39 f8aa 013c a972 273a 7fdd 503c
00000270: fbbe 063c 64ae 25ba 3e94 ce3a a5e6 443c
00000280: b1d2 aa3b 210f 0c3c 26ca a03b d8ad 933b
00000290: 90a4 f03a f025 88bb e237 08bc 1457 1b3c
000002a0: 600e ad3b 54cc e339 d302 0bbc e416 073c
000002b0: 7cb9 eb3b b3a1 b33b f27f 37bb 8a66 33bb
000002c0: fffe b3ba 59e5 153c a84c 0d3c a14f 833b
000002d0: 05f1 243c 147e fdbb 6e22 8d3c c7d8 a4bb
000002e0: ecca 87ba 7637 d53a a423 cab9 5542 ca3b
000002f0: f789 b83b 9067 523a 0f2b 3fbb 5ac6 6c3b
00000300: 4592 523a 0452 1cbb 26df 873c c463 883b
00000310: 070d 2f3c 2ad9 993b 12f7 963b c29a d4ba
00000320: 2be1 5d3c 13a6 db3a 0cb0 76ba 00f0 a73b
00000330: 45b9 083b 807e ac3b a837 593b 7688 133c
00000340: b6cb 6b3b fd7a 45bc da26 323c e17e 1e3c
00000350: fe62 f139 a087 2f3c 5c9b 833a 034e ff3b
00000360: 48d1 933b 616e 2f3b 9b3a 2f3b 6d44 2e3b
00000370: 3d0a d0bb cbb5 14bc 1099 43bb 1e61 35bb
00000380: dacb 833b 0feb 053c d3f7 813a 569d 69bb
00000390: 5e1f 753c a252 f03a 2aa4 c33a 8c7b a6bb
000003a0: 28ff 843b d335 a13c 00eb ae3b d9c1 63bb
000003b0: 3752 4c3b 1e70 c2bb 8e3c 0cbc 0b3b 30bc
000003c0: 60f7 7d37 2fa1 023b 6924 4b3c ad89 ee39
000003d0: 11dc 613a e52b c239 a913 8638 d987 513a
000003e0: a64c b23b 9707 a7bb 7df6 0dbb d29f 4b3c
000003f0: 5b2d 1a3c 2852 b43a 92ed 4338 dc34 f23b

network_body._body_endoder.seq_layers.0.weight f4 [256, 74]
-0.0058392673 0.02743576 0.11631878 0.37931156 -0.21080637 0.13101688 0.025554396 0.06608528
0.066568464 0.059925552 -0.029534679 0.08237702 -0.1025709 -0.0923789 0.25085127 0.0028498725
-0.0064030234 -0.006369252 0.1372402 0.15119669 0.09724833 0.021714669 0.07933554 -0.12754339
-0.055905495 -0.19894767 0.0831965 0.037908416 -0.1609242 0.05792262 -0.12322664 -0.02273854
-0.20392704 0.011166919 0.00951517 0.089000955 0.08011414 -0.0035599135 0.09118957 -0.26569793
-0.1938329 -0.049304917 -0.041131962 0.013652902 -0.025710229 0.08060097 0.05069609 -0.011515144
-0.21727172 -0.15642013 0.098495685 -0.06766342 -0.012024528 0.009971416 -0.018845884 -0.10330462
0.07356548 -0.092956245 -0.2020787 0.045438234 0.06339414 -0.047610972 -0.06769711 0.06599774
0.033141773 0.04167561 -0.11605079 0.08137636 0.10284446 0.13514513 -0.025248367 0.09315463
0.013770143 0.09399227 -0.10310347 0.20424567 0.17067313 0.16875769 0.0367104 0.059352003
0.089361645 0.16643944 -0.048679896 -0.030570697 -0.051587917 -0.10596349 0.028313497 -0.08900679
0.089782014 0.041655757 -0.053659707 0.08078025 0.034767684 0.21295339 -0.19935846 -0.124668196
-0.10357732 0.007489668 -0.17746656 0.081658944 -0.14619254 0.0487182 -0.20445438 -0.07935013
-0.0814622 0.10052235 0.07637954 0.18606348 -0.21493705 -0.09965793 -0.12786609 -0.14172322
-0.049364313 0.0986773 0.056016605 -0.056802906 0.018934203 -0.15360646 0.23761976 0.1851714
0.098700926 0.029832846 -0.051422495 -0.1495336 0.17371005 -0.07776271 0.03793327 -0.062743925
-0.20208393 0.112225674 -0.1704035 0.10193626 0.10712977 0.2134955 -0.06463596 -0.08390283
0.0010357434 -0.0053005265 0.06950473 -0.07974348 -0.047841206 0.1849177 0.095058 0.20788705
0.048704896 0.037551098 0.18474723 -0.0036558881 -0.18616612 0.013812586 0.08420888 0.13907371
-0.029037477 -0.07642268 0.049360897 0.11838665 0.049681455 0.008873758 0.14454328 0.104611136
0.39660507 -0.049585506 0.25459334 0.25355652 -0.26879436 -0.13921861 -0.1664456 0.1494997
0.045720432 -0.034939397 -0.13643181 0.08487251 -0.14981383 -0.0021007697 -0.309894 0.20586397
-0.007321029 -0.01654439 -0.014992248 0.21315831 0.028015602 0.08489046 0.1554072 -0.030420005
-0.15405047 0.007538818 0.10536169 0.02447765 -0.0013451189 0.008535843 0.04702536 0.15292187
-0.081947014 0.11966678 -0.19553588 -0.06951709 -0.17177022 0.0037739577 -0.015090707 -0.13614532
0.04199251 -0.038214587 0.20772356 -0.12227987 -0.04142865 0.11710705 0.052562445 0.01220903
0.21873203 -0.031465583 0.10756617 0.12870936 0.03834659 -0.077241726 -0.059272017 0.1573277
-0.06650742 0.01376458 -0.016298939 0.1640355 0.13630861 -0.024695631 0.0048065297 -0.063830264
0.054281317 0.16821654 0.0059997514 0.012564872 0.033639934 0.12588564 -0.21931536 0.07717899
0.048295498 0.014632316 0.11140714 0.08854713 -0.021477807 0.115703404 -0.12557116 -0.13846163
-0.10179735 -0.14217141 0.032355957 0.015914245 0.17867884 0.00029481054 0.00831426 -0.044352386
0.039458886 0.0071227364 0.07229658 -0.15151478 -0.038502634 -0.099799946 -0.2816247 -0.06563514
00000000: 5357 bfbb f5c0 e03c 8a38 ee3d 2035 c23e
00000010: a0dd 57be 4a29 063e 7457 d13c b857 873d
00000020: 0c55 883d 7f74 753d b6f2 f1bc 48b5 a83d
00000030: b110 d2bd 2631 bdbd 946f 803e edc4 3a3b
00000040: 74d0 d1bb 29b5 d0bb b288 0c3e 4ed3 1a3e
00000050: 222a c73d f6e2 b13c ac7a a23d bc9a 02be
00000060: 29fd 64bd f0b8 4bbe ed62 aa3d db45 1b3d
00000070: 50c9 24be 4540 6d3d 405e fcbd 2d46 babc
00000080: 40d2 50be 74f5 363c 84e5 1b3c 2246 b63d
00000090: e212 a43d 704d 69bb 99c1 ba3d 8f09 88be
000000a0: 227c 46be f4f3 49bd fd79 28bd 6cb0 5f3c
000000b0: 429e d2bc 1f12 a53d b4a6 4f3d 04aa 3cbc
000000c0: 7a7c 5ebe 992c 20be 1bb8 c93d 1f93 8abd
000000d0: 8702 45bc 265f 233c af62 9abc 5f91 d3bd
000000e0: 80a9 963d d85f bebd b8ed 4ebe 711d 3a3d
000000f0: c9d4 813d b903 43bd c8a4 8abd d329 873d
00000100: abbf 073d 0bb4 2a3d 09ac edbd a6a8 a63d
00000110: 1ea0 d23d 7c63 0a3e aad5 cebc dbc7 be3d
00000120: 2a9c 613c 057f c03d e927 d3bd c725 513e
00000130: f0c4 2e3e d1ce 2c3e a55d 163d 161b 733d
00000140: 3d03 b73d 1a6f 2a3e 9264 47bd 666f fabc
00000150: da4d 53bd 6303 d9bd b5f1 e73c 3149 b6bd
00000160: a2df b73d 3a9f 2a3d 48ca 5bbd 1e70 a53d
00000170: 8f68 0e3d 7410 5a3e a024 4cbe 0a52 ffbd
00000180: 5920 d4bd e46b f53b cbb9 35be ce3c a73d
00000190: 7fb3 15be bc8c 473d 7d5c 51be 5282 a2bd
000001a0: a7d5 a6bd a9de cd3d e06c 9c3d 6d87 3e3e
000001b0: 7518 5cbe 7519 ccbd 54ef 02be e41f 11be
000001c0: 3c32 4abd 5317 ca3d ab71 653d 2aaa 68bd
000001d0: e71b 9b3c 034b 1dbe 9852 733e 929d 3d3e
000001e0: b623 ca3d 0364 f43c 65a0 52bd 561f 19be
000001f0: 0ce1 313e 0e42 9fbd eb5f 1b3d e37f 80bd
00000200: 17ef 4ebe 93d6 e53d 417e 2ebe f5c3 d03d
00000210: da66 db3d 909e 5a3e dc5f 84bd 3fd5 abbd
00000220: c8c1 873a 0ab0 adbb 7f58 8e3d 8d50 a3bd
00000230: 24f5 43bd 115b 3d3e c5ad c23d 58e0 543e
00000240: c97e 473d 2ecf 193d 612e 3d3e a097 6fbb
00000250: 55a2 3ebe 2f4e 623c b575 ac3d 5769 0e3e
00000260: 01e0 edbc 7e83 9cbd a72e 4a3d b374 f23d
00000270: c87e 4b3d 3d63 113c 2703 143e 5d3e d63d
00000280: d20f cb3e 2c1a 4bbd 0f5a 823e 29d2 813e
00000290: 6a9f 89be 538f 0ebe b770 2abe 7316 193e
000002a0: 5945 3b3d 9d1c 0fbd c8b4 0bbe a3d1 ad3d
000002b0: cc68 19be 11ad 09bb 6daa 9ebe 01ce 523e
000002c0: 3ee5 efbb 1a88 87bc 0ca2 75bc 2c46 5a3e
000002d0: fa80 e53c 0ddb ad3d 1123 1f3e 6033 f9bc
000002e0: 68bf 1dbe 3008 f73b dfc7 d73d 5a85 c83c
000002f0: b34e b0ba ecd9 0b3c aa9d 403d 8d97 1c3e
00000300: d6d3 a7bd db13 f53d 8f3a 48be fa5e 8ebd
00000310: 88e4 2fbe 8154 773b 033f 77bc ae69 0bbe
00000320: 5700 2c3d e686 1cbd 7cb5 543e de6d fabd
00000330: 17b1 29bd d2d5 ef3d b84b 573d 6208 483c
00000340: 4afb 5f3e 0ee2 00bd a74b dc3d 63cc 033e
00000350: 5011 1d3d e930 9ebd 37c7 72bd 831a 213e
00000360: 0b35 88bd d584 613c 5a85 85bc ecf8 273e
00000370: 7c94 0b3e 7e4e cabc 1880 9d3b 71b9 82bd
00000380: 1656 5e3d f540 2c3e 9099 c43b e5dc 4d3c
00000390: 07ca 093d 2ae8 003e 3594 60be 0510 9e3d
000003a0: 80d1 453d 62bc 6f3c 6d29 e43d 3358 b53d
000003b0: 3af2 afbc e8f5 ec3d ba95 00be e3c8 0dbe
000003c0: 217b d0bd 6295 11be ae87 043d 975e 823c
000003d0: 96f7 363e cd90 9a39 8938 083c d9aa 35bd
000003e0: a49f 213d d865 e93b 3b10 943d b126 1bbe
000003f0: f0b4 1dbd ea63 ccbd 1d31 90be b76b 86bd

network_body._body_endoder.seq_layers.2.bias f4 [256]
-0.019799577 -0.0016974545 0.0011359324 0.011159929 0.00021658273 -0.009582907 -0.0012463303 0.01064608
0.0026604864 0.0068378714 0.0027008427 0.015680924 0.0054964516 0.011565945 0.008954007 -0.00069320016
0.012051511 0.009600359 -0.0008352598 0.009732051 -0.007270556 0.009975112 0.015334774 -0.0051438347
-0.0028137271 -0.01218237 0.007215886 0.008742034 0.005585649 0.0034996225 0.0042814524 0.003697033
0.0034825935 -0.0040150066 -0.0028855868 0.005117894 0.009251354 -0.015803877 -0.0012517512 0.004753866
0.008321829 -0.0004887018 0.006518089 -0.002301111 -0.00868237 0.0080094645 0.014575979 -0.0039761537
0.0053360383 0.01568668 0.005186854 0.0026092948 0.0127508985 -0.0032837342 -0.0006946063 -0.0009727261
0.011446636 -0.005037877 0.0030120465 -0.013144816 -0.00019508305 -0.00022428297 0.006568432 -0.0009571974
0.009094342 0.003141331 0.003506629 0.006144327 0.015456415 -0.00031977525 0.010949083 0.004563564
0.005262099 0.01108276 0.0069302325 0.008459428 0.0062108175 -0.0034788114 -0.0031282867 0.0008981975
0.001967547 0.0037501568 -0.0036365546 -0.00052178063 0.0132232355 0.0013101422 -0.0018217188 0.0060481657
0.0061246776 0.0022875962 0.00026826674 -0.0063741077 -0.0022119505 0.0002555286 0.0041081584 0.004601954
-0.0051509133 0.0049871015 0.004057357 -0.0027450167 0.0023996562 0.0027572534 0.0023488996 -0.00013382456
-0.00235192 0.00289209 -0.0054954067 -0.0017683832 0.0066032815 0.008940102 0.002031532 -0.00050292193
-0.0040273294 0.00030263618 0.008268949 -0.0044568703 0.0021912917 0.00473655 0.011464736 -0.006359443
0.00472989 0.0013989133 0.0029584484 0.0043408517 0.007145762 0.0047077546 0.008674939 0.0002102204
0.008926214 0.0012537901 -0.014885757 0.006081719 0.011392538 0.009759391 -0.01123058 0.005479285
-0.003538436 0.0051951027 0.0005204685 0.0028252963 0.005685116 0.0057673003 -0.003828306 0.007340051
0.0076916907 -0.0060324236 0.0064714993 -0.0052859588 0.008202596 0.001900191 0.00784323 0.0054325573
0.0009522728 0.00079333095 -0.00798694 0.006334822 -0.0061055883 0.0053517953 0.0043613086 0.014566209
0.00400768 0.0054005017 0.010400175 0.0020299496 -0.0017668352 0.0073068934 0.0026959674 0.009503547
0.01363953 0.005863474 -0.006809475 0.00029615124 0.0073928447 -0.0043993387 -0.0036260788 0.0027697629
0.011902734 -0.0023057002 -0.0031964106 0.0003470123 -0.00031502696 0.0043118014 -0.007258084 -0.01170998
0.0080622835 0.007993039 0.008210576 0.0031148754 0.005913594 0.007870701 0.010849473 0.009980559
0.007545693 -0.0013808552 0.0031658406 0.012113122 0.0002750213 -0.0073743723 0.009339214 0.006631045
-0.015045556 0.008766617 0.00494369 0.012284589 -0.0015586453 0.0036185724 0.0039793914 0.0034524607
0.0044995057 0.0014757261 0.014015597 -0.0016920646 0.0048154416 -0.0062049855 0.0010461188 0.007874559
0.008573821 0.009132634 -0.0030411847 0.0040054023 0.002690886 0.00502912 0.010906474 0.005515652
-0.0031432316 -0.004490325 0.0038665908 0.007826399 -0.0043293983 0.0073322067 0.002302706 0.00041778473
0.0031122742 0.0040546446 0.010808831 0.009283127 -0.007965186 0.008560786 -0.0017827173 0.0029289098
0.0056779846 -0.005803615 -0.0037684944 -0.0005327183 -0.013265324 0.0041635605 -2.06464e-05 -0.0067648464
0.007594411 -0.0009108543 0.006265082 0.01674137 0.003137999 0.016695116 0.0075534927 0.008693142
00000000: b932 a2bc 1f7d deba 91e3 943a 23d8 363c
00000010: 7c1a 6339 a001 1dbc e85b a3ba e56c 2e3c
00000020: 8e5b 2e3b 3910 e03b 9f00 313b 4875 803c
00000030: 941b b43b 177f 3d3c d4b3 123c e0b7 35ba
00000040: b373 453c d34a 1d3c 56f5 5aba 2e73 1f3c
00000050: d83d eebb a76e 233c b43e 7b3c 9d8d a8bb
00000060: 8266 38bb 9098 47bc 3d73 ec3b c03a 0f3c
00000070: d207 b73b ec59 653b 6d4b 8c3b ec49 723b
00000080: 393c 643b 5190 83bb 1d1c 3dbb 02b4 a73b
00000090: fe92 173c 2277 81bc cd11 a4ba 51c6 9b3b
000000a0: 4858 083c 391c 00ba b295 d53b 3cce 16bb
000000b0: 8040 0ebc 213a 033c 16d0 6e3c 654a 82bb
000000c0: efd9 ae3b 5a81 803c 7cf6 a93b b400 2b3b
000000d0: 25e9 503c eb33 57bb 3d16 36ba 8bfe 7eba
000000e0: ac8a 3b3c c614 a5bb c165 453b 5b5d 57bc
000000f0: 358f 4cb9 802d 6bb9 003c d73b 6eec 7aba
00000100: 6f00 153c cade 4d3b 79cf 653b 5a56 c93b
00000110: e73c 7d3c 82a7 a7b9 c863 333c f389 953b
00000120: b06d ac3b 7794 353c 0117 e33b 6a99 0a3c
00000130: 1d84 cb3b c5fc 63bb f103 4dbb 0475 6b3a
00000140: f6f1 003b 31c5 753b 4353 6ebb 1bc8 08ba
00000150: 45a6 583c 14b9 ab3a bdc6 eeba b12f c63b
00000160: 85b1 c83b 7feb 153b 27a6 8c39 e4dd d0bb
00000170: 5ff6 10bb 78f8 8539 bb9d 863b fdcb 963b
00000180: fec8 a8bb d76a a33b 94f3 843b bde5 33bb
00000190: 8d43 1d3b 09b3 343b ffef 193b 4253 0cb9
000001a0: ab22 1abb 3889 3d3b d012 b4bb 18c9 e7ba
000001b0: 5760 d83b 8179 123c 7423 053b 85d6 03ba
000001c0: b0f7 83bb 24ab 9e39 7c7a 073c f00a 92bb
000001d0: c69b 0f3b 1035 9b3b 97d6 3b3c e062 d0bb
000001e0: 31fd 9a3b be5b b73a 87e2 413b b43d 8e3b
000001f0: ff26 ea3b 8243 9a3b 5521 0e3c 9c6e 5c39
00000200: 413f 123c 3756 a43a 64e3 73bc 2849 c73b
00000210: c5a7 3a3c dae5 1f3c 7700 38bc 938b b33b
00000220: 1be5 67bb ae3b aa3b 0d70 083a 9b28 393b
00000230: 364a ba3b 9ffb bc3b 51e4 7abb cf84 f03b
00000240: 940a fc3b a3ab c5bb df0e d43b d635 adbb
00000250: 2e64 063c d40f f93a e480 003c 9803 b23b
00000260: f2a1 793a 8af7 4f3a a8db 02bc 5794 cf3b
00000270: 6311 c8bb 1d5e af3b 4fe9 8e3b 1ca7 6e3c
00000280: db52 833b b1f6 b03b 7f65 2a3c e708 053b
00000290: 2795 e7ba aa6e ef3b d4ae 303b c4b4 1b3c
000002a0: 5678 5f3c 6322 c03b 0422 dfbb bf44 9b39
000002b0: ad3f f23b 5428 90bb 82a3 6dbb e984 353b
000002c0: af03 433c 3b1b 17bb df7a 51bb 34ef b539
000002d0: 342a a5b9 034a 8d3b 39d5 edbb 37db 3fbc
000002e0: ab17 043c 3cf5 023c a785 063c f022 4c3b
000002f0: d2c6 c13b 1df4 003c fdc1 313c 8085 233c
00000300: dc41 f73b d0fd b4ba fe79 4f3b 1e76 463c
00000310: bc30 9039 b8a4 f1bb 8103 193c 3d49 d93b
00000320: a381 76bc dba1 0f3c adfe a13b 4d45 493c
00000330: 754b ccba 9225 6d3b 8e65 823b ae42 623b
00000340: 9770 933b 276d c13a ada1 653c 44c8 ddba
00000350: daca 9d3b 3153 cbbb ec1d 893a 4b04 013c
00000360: 3679 0c3c 0ba1 153c 9d4e 47bb c03f 833b
00000370: 9359 303b 51cb a43b 11b1 323c a4bc b43b
00000380: adfe 4dbb 9423 93bb a166 7d3b 4c3a 003c
00000390: a0dd 8dbb 0243 f03b ffe8 163b 1e0a db39
000003a0: 4cf7 4b3b d3dc 843b 8617 313c 4218 183c
000003b0: 6980 02bc 8a42 0c3c 11aa e9ba f4f2 3f3b
000003c0: 630e ba3b 402c bebb d8f8 76bb 1fa6 0bba
000003d0: cd56 59bc 7a6e 883b ce31 adb7 a5ab ddbb
000003e0: 89da f83b 66c6 6eba 514b cd3b 3325 893c
000003f0: e3a6 4d3b 32c4 883c 4a83 f73b ae6d 0e3c

network_body._body_endoder.seq_layers.2.weight f4 [256, 256]
0.052944686 0.036317613 -0.0056943125 -0.08339208 0.0029941413 -0.0010894566 -0.1043307 -0.03849947
0.02955676 -0.108769216 0.0014587552 -0.006037813 -0.018454086 -0.03573645 0.020295713 -0.026083304
0.0010087935 -0.031419396 -0.06377799 -0.04896536 -0.01731321 -0.019524865 0.050509203 -0.01285102
0.039013427 0.069662206 0.0032377471 0.0118313525 -0.0267905 -0.11714766 -0.06145605 -0.052011967
-0.051286947 -0.005181695 -0.020018939 -0.10907699 0.09247276 0.09680251 0.08511247 0.0038510112
-0.09915988 0.04009174 -0.09135132 -0.113802925 0.12321256 0.015346403 0.10260056 0.008007422
0.12682796 0.08585189 0.07181973 0.120108835 0.03581581 -0.025136294 -0.082684 -0.023699172
-0.024477266 0.022805642 0.0015930244 -0.0061930097 -0.026238015 -0.05299091 0.06900723 -0.055071972
-0.013031239 -0.00424266 -0.0795424 0.02119499 0.026388867 0.027590781 -0.06644714 -0.13400693
0.013539433 0.025673864 -0.15583271 0.12947795 0.06475529 -0.0025755663 -0.06691801 0.033351965
-0.01188253 0.0325758 0.03446668 -0.058627285 0.016108463 0.013700047 -0.0043461807 -0.115414776
-0.046795197 0.008437281 -0.050307572 -0.046528358 -0.02741542 -0.034957528 -0.03904906 0.033456653
0.017771123 0.06984338 0.0148130655 -0.00806587 -0.030242398 0.014467949 -0.025386928 0.04370075
-0.0973987 -0.05072122 -0.060349748 0.020049335 -0.012638879 -0.031110762 0.038133085 0.019667007
0.052190293 0.03752976 -0.076792285 -0.039082155 0.012165558 -0.0062139123 -0.106736675 0.13162953
0.014811591 0.03903334 0.064774424 0.038443536 0.045183863 0.050824925 -0.05356661 -0.02109036
-0.0633622 0.055533983 -0.0712105 0.060843974 -0.028784564 -0.024481662 0.031059442 -0.02607607
0.02126379 -0.070400774 -0.01402565 -0.03134332 0.0012247257 0.14813389 0.063768 0.16370334
-0.11465683 -0.011424138 -0.025016833 -0.04793738 0.025284123 -0.0729617 -0.07413381 -0.07322685
-0.055088487 0.038775824 0.092613205 0.030834679 0.012450234 0.095512755 -0.026240874 0.071909375
-0.094035015 -0.056795552 0.023108454 -0.036683988 -0.02662327 -0.006737539 0.097772636 -0.06236246
0.05195683 0.0102785 0.12505895 0.01168269 0.04758307 -0.051936015 -0.051675934 -0.03283414
0.0660304 0.041634973 -0.030652786 0.03674382 -0.0074379984 0.016245438 -0.04354369 0.039904166
-0.08273074 -0.09699825 -0.0020997792 0.013220814 -0.0063048536 -0.03162379 -0.083172835 -0.053122263
-0.03392766 0.0045561446 -0.07338407 -0.033545144 0.020390807 -0.08278797 -0.062984206 0.05982
0.07760935 -0.0053037326 0.010468227 0.016569017 -0.024911236 -0.093162775 -0.03515652 0.098573275
-0.030255022 -0.0059689037 -0.13877897 0.22185008 0.04029945 -0.009502617 0.18983398 -0.09498744
0.013657234 -0.11405542 0.011045209 -0.038397983 0.0475502 -0.16380176 -0.06841197 0.023059705
-0.06587397 0.039259333 0.07077945 -0.06138798 -0.08175752 -0.079817936 0.09350534 -0.0031241751
-0.013824825 0.09617885 0.04550077 0.04086277 0.0009986017 0.018636884 -0.09087784 0.065299086
-0.028099727 -0.10504084 0.02176652 0.007976466 -0.0064060353 -0.03774564 -0.12008476 0.00641724
0.06385633 -0.006628563 -0.065797195 -0.008939929 -0.02761126 -0.08689879 -0.03481277 0.042626023
00000000: 87dc 583d c7c1 143d 5b97 babb 78c9 aabd
00000010: 5b39 443b 19cc 8eba 56ab d5bd 9fb1 1dbd
00000020: 0521 f23c 65c2 debd b433 bf3a d9d8 c5bb
00000030: 062d 97bc 6260 12bd 3243 a63c a7ac d5bc
00000040: 7e39 843a a0b1 00bd 099e 82bd e78f 48bd
00000050: 6fd4 8dbc 9cf2 9fbc bde2 4e3d 168d 52bc
00000060: 8bcc 1f3d 0fab 8e3d 6230 543b 4ad8 413c
00000070: c077 dbbc 1deb efbd 57b9 7bbd 800a 55bd
00000080: 4312 52bd 35cb a9bb c2fe a3bc c263 dfbd
00000090: 5c62 bd3d 6540 c63d 724f ae3d 3f61 7c3b
000000a0: 5614 cbbd 3d37 243d 6716 bbbd 8211 e9bd
000000b0: de56 fc3d 7b6f 7b3c 3e20 d23d 9031 033c
000000c0: 30df 013e 1ed3 af3d 3916 933d 9ffb f53d
000000d0: 99b3 123d a1ea cdbc 3b56 a9bd c424 c2bc
000000e0: 8c84 c8bc e6d2 ba3c 07cd d03a bbee cabb
000000f0: 1bf1 d6bc ff0c 59bd aa53 8d3d 2693 61bd
00000100: fa80 55bc 0306 8bbb 20e7 a2bd 1ea1 ad3c
00000110: 772d d83c 1006 e23c 7015 88bd 1d39 09be
00000120: 7fd4 5d3c ff51 d23c 9c92 1fbe de95 043e
00000130: 6c9e 843d d5ca 28bb 4f0c 89bd 129c 083d
00000140: f1ae 42bc 346e 053d ef2c 0d3d 2a23 70bd
00000150: e5f5 833c 2976 603c 686a 8ebb 955e ecbd
00000160: 52ac 3fbd 853c 0a3c 500f 4ebd 8594 3ebd
00000170: 4e96 e0bc a02f 0fbd e8f1 1fbd d809 093d
00000180: bf94 913c 0c0a 8f3d 80b2 723c b626 04bc
00000190: e8be f7bc fa0a 6d3c 3ff8 cfbc 8fff 323d
000001a0: f878 c7bd 0ec1 4fbd 4c31 77bd 813e a43c
000001b0: 4d13 4fbc ffdb febc 7031 1c3d b41c a13c
000001c0: 7dc5 553d ceb8 193d 4645 9dbd 9c14 20bd
000001d0: 0c52 473c 139e cbbb c298 dabd e4c9 063e
000001e0: 51ac 723c 6ce1 1f3d 74a8 843d f876 1d3d
000001f0: b712 393d cc2d 503d a968 5bbd b1c5 acbc
00000200: 0bc4 81bd 9a77 633d d0d6 91bd 8837 793d
00000210: 9bcd ebbc c48d c8bc 5f70 fe3c 7b9d d5bc
00000220: 6631 ae3c 482e 90bd d7cb 65bc da61 00bd
00000230: fa86 a03a 69b0 173e cc98 823d d9a1 273e
00000240: 33d1 eabd 4f2c 3bbc 1af0 ccbc fc59 44bd
00000250: a620 cf3c f26c 95bd 78d3 97bd f5f7 95bd
00000260: 77a4 61bd 66d3 1e3d feab bd3d 0299 fc3c
00000270: 11fc 4b3c 319c c33d 1af7 d6bc 3945 933d
00000280: 6e95 c0bd 74a2 68bd f14d bd3c f341 16bd
00000290: 0b19 dabc 93c6 dcbb 053d c83d c76f 7fbd
000002a0: afd0 543d 2767 283c 740f 003e c168 3f3c
000002b0: 77e6 423d dcba 54bd 25aa 53bd 177d 06bd
000002c0: f23a 873d 6f89 2a3d 8d1b fbbc b080 163d
000002d0: 74ba f3bb 2715 853c de5a 32bd 8d72 233d
000002e0: bc6e a9bd 05a7 c6bd 739c 09bb 1d9c 583c
000002f0: f298 cebb f287 01bd 8556 aabd bb96 59bd
00000300: bbf7 0abd b64b 953b 634a 96bd a266 09bd
00000310: 9f0a a73c bd8c a9bd ddfd 80bd d105 753d
00000320: a7f1 9e3d efca adbb ed82 2b3c bfbb 873c
00000330: a612 ccbc 20cc bebd 4800 10bd c9e0 c93d
00000340: 61d9 f7bc cb96 c3bb 131c 0ebe ab2c 633e
00000350: 0911 253d ddb0 1bbc d763 423e c688 c2bd
00000360: 97c2 5f3c e395 e9bd f7f6 343c 3447 1dbd
00000370: 00c4 423d a6bb 27be 931b 8cbd b5e7 bc3c
00000380: efe8 86bd 65ce 203d d1f4 903d f671 7bbd
00000390: 7d70 a7bd 9677 a3bd ba7f bf3d f6be 4cbb
000003a0: 8581 62bc 6bf9 c43d 045f 3a3d b85f 273d
000003b0: 83e3 823a 61ac 983c 291e babd 87bb 853d
000003c0: 6631 e6bc a71f d7bd b34f b23c b9af 023c
000003d0: b8e9 d1bb 2c9b 1abd 00ef f5bd b647 d23b
000003e0: 1cc7 823d 6b34 d9bb aec0 86bd c878 12bc
000003f0: 0231 e2bc fef7 b1bd d697 0ebd a098 2e3d

network_body._body_endoder.seq_layers.4.bias f4 [256]
0.002702715 0.00035701966 0.0022046987 0.0011769712 0.0034778374 -0.0038569805 -0.0019402733 -0.0046456982
0.010693145 0.0017715397 0.0024356882 0.005921417 0.011648256 0.0047416515 0.009914731 0.0031779837
-0.0041975006 0.0013741115 0.008630323 0.0028362905 -0.0020433909 0.0054982817 0.0042598667 0.005341285
0.0049425964 0.00403471 0.011581681 0.0053773457 0.009525014 -0.00041302483 0.0025664652 0.004338218
0.0061874664 0.002147181 0.009804848 0.0044062394 0.008341431 0.0074500754 -0.0028835493 -0.004478335
0.0022629502 0.0014837682 -0.002003508 0.0015881993 0.0025989339 0.0052697766 0.007993926 0.0071071773
-0.0032043853 0.0069620116 -0.0027768177 -0.0017225588 0.0048222067 -0.001809725 0.0017329535 0.0049570464
-0.0010882611 0.0058228117 -0.0021126587 -0.002970566 0.004702744 -0.0015930799 0.0060647554 0.008854885
0.003168354 -0.002270301 0.0061482955 0.007773347 0.0033046955 0.0031545921 0.00045280514 0.0066664484
0.0067027817 -0.0023402255 0.0036891275 0.0062194983 0.0015111039 -0.0009417111 0.0053945812 0.0011446819
-0.0028830136 0.0026501673 0.006591699 -0.0015115615 0.0056739068 -0.0021795034 -0.0053434395 0.005836905
0.0038268254 0.0065836385 0.011089274 0.00037081476 0.00210378 0.0077778287 -0.00030568158 0.0062595545
-0.004942344 0.004917408 -0.005234825 0.0069464734 0.005730001 -0.00091547566 0.0009906851 0.0054249633
0.0076266546 0.0021836201 0.006033516 -0.001042913 0.0027719731 0.0057777185 0.014757441 -0.0013094886
-0.005394149 0.0037809305 -0.0009809702 -0.0013174189 0.008608308 0.012482987 0.002206802 -0.00044912554
-0.0010657398 0.010890066 0.0063400487 -0.0037781447 0.0034753496 0.0040900237 0.006940588 0.0061797714
0.007678173 0.0059609124 -0.00046694928 0.0060540293 0.008857386 0.00057257566 0.00569137 0.0047542644
0.008361274 -0.0044520125 -0.002915941 0.0032854713 0.004483649 0.0039166873 0.0018853014 0.004525148
0.006725765 -0.0019749855 0.005406622 0.0034837823 0.0008080174 0.0065730703 -0.0035990488 0.0067269495
0.0031065235 -0.0032192199 0.005105691 0.0076238313 -0.0005115308 0.0078109317 0.0013750194 0.006738561
0.008793155 0.0035825574 0.007664897 0.0013178629 0.001271083 0.0070251403 0.00599618 -0.004631317
0.005448264 -0.006068611 0.008860992 0.004829354 0.0066625467 0.0070682485 -0.001834429 0.0049069137
-0.0014274798 -0.00031317153 0.002620095 0.005534641 -0.0020022872 0.0042491322 0.00070890697 0.0013829032
0.006523278 0.0011415557 0.002839209 -0.0007163664 0.0012566153 0.00089330325 0.0028281375 -0.005176915
0.005656042 0.006963987 0.004309679 0.0020554112 0.0056412388 0.004443861 0.007474627 0.0063740057
0.0039590644 0.0094604725 -0.0044459277 0.0030759305 0.0029898693 -0.0001881967 0.007718808 -0.0040879324
0.00030799638 -0.004344709 -0.0022200216 -0.001903027 -0.0006638828 -0.0003031934 0.006191423 0.0023562992
0.005792616 -0.004789028 -0.0003023436 0.0047409525 -0.00172216 0.0009917308 0.003277399 -0.00029077267
-0.002309682 0.004860477 0.0077816956 0.001096229 0.009091267 0.0022148855 -0.0013464742 0.010271854
0.009803805 -0.0033645506 0.0031368851 0.0020006225 -0.0014076564 0.0057059545 0.0052286997 0.0049331104
0.0021264378 0.0034890783 0.00081579556 0.015846163 0.0033554458 -0.00043360598 -0.0036680903 0.004709125
0.007141534 -0.0010941116 -0.0019794253 0.0019958522 0.0025534574 -0.00054814626 0.001871986 0.0044988026
00000000: 0920 313b 5e2e bb39 b57c 103b 9a44 9a3a
00000010: 6eec 633b 65c5 7cbb c550 feba f13a 98bb
00000020: 4d32 2f3c 0233 e83a 11a0 1f3b 7208 c23b
00000030: 54d8 3e3c db5f 9b3b 6571 223c b845 503b
00000040: 308b 89bb 881b b43a 3366 0d3c 0fe1 393b
00000050: 69ea 05bb ee2a b43b 5a96 8b3b f205 af3b
00000060: 81f5 a13b 9a35 843b 17c1 3d3c 7234 b03b
00000070: ce0e 1c3c 418b d8b9 2432 283b 9c27 8e3b
00000080: 3bc0 ca3b b8b7 0c3b 83a4 203c 3762 903b
00000090: 7faa 083c c31f f43b eef9 3cbb ffbe 92bb
000000a0: 014e 143b 007b c23a 494d 03bb 202b d03a
000000b0: e052 2a3b 17ae ac3b f5f8 023c 53e3 e83b
000000c0: aa00 52bb 9621 e43b 45fb 35bb 7bc7 e1ba
000000d0: 9a03 9e3b 4b34 edba 4524 e33a b86e a23b
000000e0: fca3 8eba 49cd be3b 8874 0abb d4ad 42bb
000000f0: 7a19 9a3b e4ce d0ba dbba c63b 1414 113c
00000100: 29a4 4f3b 55c9 14bb a477 c93b 90b7 fe3b
00000110: 9793 583b 46bd 4e3b 7a66 ed39 3972 da3b
00000120: 02a3 db3b 785e 19bb 4ac5 713b efcc cb3b
00000130: 3c10 c63a 2add 76ba 07c5 b03b 2709 963a
00000140: f1f0 3cbb 6eae 2d3b 2eff d73b 961f c6ba
00000150: 2eec b93b 00d6 0ebb 0518 afbb 8243 bf3b
00000160: 7acb 7a3b 90bb d73b c9af 353c ea69 c239
00000170: 92df 093b 28dd fe3b e343 a0b9 f31c cd3b
00000180: 63f3 a1bb 3522 a13b e588 abbb 3e9f e33b
00000190: bbc2 bb3b 88fc 6fba e0d9 813a e4c3 b13b
000001a0: 04e9 f93b 111b 0f3b cdb4 c53b 5ab2 88ba
000001b0: fea9 353b 0453 bd3b 32c9 713c 25a3 abba
000001c0: 67c1 b0bb 7dc9 773b e693 80ba 3ead acba
000001d0: dc09 0d3c 7185 4c3c fe9f 103b 9c78 ebb9
000001e0: 4bb0 8bba 3f6c 323c 2fc0 cf3b c09a 77bb
000001f0: b1c2 633b 9b05 863b df6d e33b ae7f ca3b
00000200: 2f99 fb3b c253 c33b dfd0 f4b9 e160 c63b
00000210: 921e 113c e718 163a ac7e ba3b a9c9 9b3b
00000220: bafd 083c 30e2 91bb 5f19 3fbb 1051 573b
00000230: 93eb 923b 8e57 803b 381c f73a b147 943b
00000240: ce63 dc3b c26e 01bb 082a b13b 2b50 643b
00000250: 21d1 533a e962 d73b 05de 6bbb be6d dc3b
00000260: d196 4b3b 8cf9 52bb a44d a73b 55d1 f93b
00000270: 4018 06ba d8f2 ff3b ff39 b43a 26cf dc3b
00000280: 2a11 103c 57c9 6a3b d129 fb3b 24bc ac3a
00000290: 789a a63a 2633 e63b 9b7b c43b 4ec2 97bb
000002a0: 5a87 b23b 33db c6bb b22d 113c 8f3f 9e3b
000002b0: 7e51 da3b c49c e73b 3971 f0ba 2dca a03b
000002c0: 461a bbba 2c31 a4b9 e6b5 2b3b ef5b b53b
000002d0: ce38 03bb 4e3c 8b3b f1d5 393a 8842 b53a
000002e0: 39c1 d53b 41a0 953a 0612 3a3b 89ca 3bba
000002f0: 03b5 a43a 912c 6a3a 4658 393b 1ca3 a9bb
00000300: 5256 b93b 2832 e43b 3538 8d3b 14b4 063b
00000310: 24da b83b cf9d 913b b7ed f43b 09dd d03b
00000320: 0abb 813b 1900 1b3c 25af 91bb 8d95 493b
00000330: aff1 433b ab56 45b9 0eee fc3b 10f4 85bb
00000340: 937a a139 105e 8ebb c87d 11bb fd6e f9ba
00000350: 6c08 2eba eef5 9eb9 6ce1 ca3b 246c 1a3b
00000360: fccf bd3b 47ed 9cbb df83 9eb9 fe59 9b3b
00000370: 1aba e1ba f7fc 813a a2c9 563b d972 98b9
00000380: 095e 17bb a344 9f3b 98fd fe3b 57af 8f3a
00000390: 8af3 143c 9d27 113b 2d7c b0ba 474b 283c
000003a0: 23a0 203c cb7f 5cbb 3394 4d3b e01c 033b
000003b0: 1c81 b8ba 04f9 ba3b 8355 ab3b eea5 a13b
000003c0: b55b 0b3b 05a9 643b 1ddb 553a d0cf 813c
000003d0: 0ae7 5b3b 9c55 e3b9 5864 70bb 014f 9a3b
000003e0: 8703 ea3b 4b68 8fba 3fb9 01bb d8cc 023b
000003f0: e857 273b 79b1 0fba 6d5d f53a b16a 933b

network_body._body_endoder.seq_layers.4.weight f4 [256, 256]
-0.06813348 0.026814472 -0.1197951 -0.026130129 -0.0772524 0.0061730403 -0.025229279 -0.05259323
-0.005421317 -0.03820725 -0.09925284 -0.15445039 -0.008668704 0.0063574915 0.042445514 0.093782015
-0.023699993 -0.0218128 0.07179606 0.06211082 0.024160028 -0.030264009 -0.13868177 0.043335266
-0.16490823 -0.005836512 0.00318638 0.080411285 0.10245983 -0.020279316 -0.017198041 -0.07751595
-0.028971542 -0.06769126 -0.03446218 -0.049795497 0.047836013 -0.0011327852 0.11384892 -0.06350872
0.013057144 -0.010386352 -0.07214824 0.05432427 -0.04153331 -0.036642075 0.046156716 -0.07828718
-0.112044334 0.020048138 0.07206324 0.0038533139 0.005884124 -0.013466512 0.12371635 0.033338718
-0.04461544 0.03006297 -0.0016385424 -0.042275768 -0.0668601 -0.06939588 -0.00084855146 0.011518462
0.0003524422 0.05037915 0.08527139 0.008017199 0.034011573 -0.12436602 0.039982382 -0.019007329
-0.046773482 -0.014081942 6.8030204e-07 -0.081203975 0.004798768 -0.12635568 0.037599944 -0.044269353
0.1466485 0.007821831 -0.06605196 0.05316394 0.0394538 0.081967436 -0.0036437362 0.045386385
0.20023036 0.00039328833 0.0324974 -0.030698515 0.014637898 0.047829926 0.059927035 0.08771671
0.11542327 0.060100473 0.028922658 -0.06183859 -0.07744776 -0.105853386 0.08124616 0.104022674
-0.057304148 0.035308268 0.036792677 0.073666334 -0.0048793666 0.020108907 -0.022688057 0.033947714
0.08968082 -0.026493926 0.023016034 0.03599106 -0.08966186 0.017655116 -0.06961542 -0.06699664
-0.021397745 0.032167308 0.04127589 -0.089454755 -0.07969622 0.048859585 0.0119537935 -0.05895785
0.022369787 0.013121208 -0.024636542 -0.07522061 -0.00028512403 -0.06950947 -0.0967249 0.12497565
-0.080895014 0.047349114 0.07011478 -0.08930805 0.084292114 0.054013558 0.021408878 -0.015896572
0.088587016 -0.074411914 0.06211404 -0.027178766 0.043270256 -0.094971456 -0.06492316 0.014282425
0.075224146 0.029016672 -0.07818136 -0.04260422 0.08154544 0.06919481 -0.00021259836 0.05441845
0.014567272 0.08052672 -0.0689713 0.03411343 0.0048759016 0.014037394 -0.09240242 0.11486227
0.08138976 0.041640844 -0.05930384 0.07409526 0.049844433 -0.0002624288 -0.06726676 0.10248892
0.12984133 0.08218157 -0.013142998 0.09045091 -0.026630513 0.067289695 0.013064001 -0.017090924
0.014790437 -0.0078243995 -0.034531947 -0.070827104 0.10817712 -0.073421545 -0.009620621 0.053030957
-0.02087031 0.114535876 -0.09282561 0.09689177 0.027467592 0.01718764 0.06697151 -0.046493746
0.0142493555 -0.060925264 0.10042906 0.03866282 0.09143992 -0.0947235 -0.020963898 0.123936236
0.117483824 0.100288555 0.0016488454 -0.043029256 0.03859812 0.08465217 0.021303598 0.08353078
0.019557623 0.08727971 -0.026041647 0.0070561925 -0.023277903 0.05929722 -0.038386725 0.04931729
-0.03296366 0.048498075 0.05888242 -0.059712708 0.12790923 -0.04886814 -0.047317892 0.02575654
0.042622603 0.053923327 -0.006981333 0.12433758 0.0021382638 0.056460157 0.0073280227 0.19938318
-0.041394938 0.01852774 0.021918494 -0.06619483 -0.06644449 -0.0059388303 0.037026774 -0.014177486
0.022172509 0.010456922 0.013786006 0.07029413 -0.058272183 0.019443046 0.04962106 0.10942412
00000000: 9189 8bbd 06aa db3c 2257 f5bd da0e d6bc
00000010: 8236 9ebd 3747 ca3b a2ad cebc 006c 57bd
00000020: 4ea5 b1bb 357f 1cbd 1345 cbbd 3e28 1ebe
00000030: 2e07 0ebc 8152 d03b 59db 2d3d c910 c03d
00000040: 7d26 c2bc c2b0 b2bc d009 933d ea67 7e3d
00000050: 40eb c53c 3aec f7bc 9802 0ebe 5280 313d
00000060: b4dd 28be 3640 bfbb 96d2 503b acae a43d
00000070: 76d6 d13d cf20 a6bc e8e2 8cbc afc0 9ebd
00000080: ba55 edbc b7a1 8abd 3728 0dbd 5df6 4bbd
00000090: b2ef 433d f779 94ba 9f29 e93d dc10 82bd
000000a0: a2ed 553c 852b 2abc 75c2 93bd 2083 5e3d
000000b0: d51e 2abd 0016 16bd d30e 3d3d 0755 a0bd
000000c0: 8077 e5bd fe3b a43c e495 933d e187 7c3b
000000d0: 9ccf c03b a5a2 5cbc ff5e fd3d 2e8e 083d
000000e0: aebe 36bd 9e46 f63c 5cc4 d6ba 5b29 2dbd
000000f0: f3ed 88bd 6d1f 8ebd 5371 5eba eeb7 3c3c
00000100: fec7 b839 5e5a 4e3d c4a2 ae3d 925a 033c
00000110: b84f 0b3d 9db3 febd 91c4 233d 42b5 9bbc
00000120: 8d95 3fbd f2b7 66bc 009e 3635 454e a6bd
00000130: fc3e 9d3b 6263 01be 6602 1a3d c853 35bd
00000140: 062b 163e 2327 003c 4046 87bd 6ec2 593d
00000150: 4f9a 213d 8bde a73d c0cb 6ebb 13e7 393d
00000160: 3009 4d3e 4432 ce39 fe1b 053d 747b fbbc
00000170: cbd3 6f3c 50e9 433d 0d76 753d d2a4 b33d
00000180: 0963 ec3d ea2b 763d 36ef ec3c 764a 7dbd
00000190: ee9c 9ebd a9c9 d8bd 6364 a63d d709 d53d
000001a0: c1b7 6abd 679f 103d ebb3 163d 60de 963d
000001b0: 18e3 9fbb 6fbb a43c 4edc b9bc c20c 0b3d
000001c0: 94aa b73d ca09 d9bc 1f8c bc3c 5d6b 133d
000001d0: a3a0 b7bd 76a1 903c 8892 8ebd 8935 89bd
000001e0: 534a afbc dec1 033d e810 293d 0e34 b7bd
000001f0: c637 a3bd fd20 483d d8d9 433c c97d 71bd
00000200: d840 b73c 56fa 563c 93d2 c9bc 430d 9abd
00000210: b37c 95b9 fb5a 8ebd b417 c6bd 3cf3 ff3d
00000220: 49ac a5bd 25f1 413d 5698 8f3d 24e7 b6bd
00000230: 58a1 ac3d 523d 5d3d ac61 af3c 8739 82bc
00000240: 1c6d b53d 4665 98bd 4b6b 7e3d 01a6 debc
00000250: 273c 313d 6580 c2bd 6ff6 84bd d500 6a3c
00000260: 1e0f 9a3d 5fb4 ed3c 8d1d a0bd c381 2ebd
00000270: 4c01 a73d 02b6 8d3d f0ec 5eb9 e1e5 5e3d
00000280: 91ab 6e3c 31eb a43d d340 8dbd 86ba 0b3d
00000290: 07c6 9f3b 19fd 653c 7b3d bdbd e93c eb3d
000002a0: adaf a63d 978f 2a3d 95e8 72bd 41bf 973d
000002b0: ad29 4c3d 9996 89b9 28c3 89bd b6e5 d13d
000002c0: 20f5 043e d04e a83d bb55 57bc 543e b93d
000002d0: 3c28 dabc 2ecf 893d 640a 563c 4402 8cbc
000002e0: 9753 723c e931 00bc 5f71 0dbd cd0d 91bd
000002f0: f78b dd3d 095e 96bd cf9f 1dbc fd36 593d
00000300: 36f8 aabc c991 ea3d 5a1b bebd 316f c63d
00000310: b703 e13c 18cd 8c3c 5c28 893d 3a70 3ebd
00000320: 2176 693c c58c 79bd c0ad cd3d e85c 1e3d
00000330: da44 bb3d 65fe c1bd 7bbc abbc 48d2 fd3d
00000340: 5c9b f03d 1664 cd3d 121e d83a 723f 30bd
00000350: 1019 1e3d 1e5e ad3d e284 ae3c 3012 ab3d
00000360: 4f37 a03c b4bf b23d 4b55 d5bc a237 e73b
00000370: 4db1 bebc a4e1 723d 663b 1dbd ed00 4a3d
00000380: e704 07bd eba5 463d b12e 713d 5095 74bd
00000390: a3fa 023e f529 48bd 68d0 41bd 61ff d23c
000003a0: 0a95 2e3d b5de 5c3d aac3 e4bb b3a4 fe3d
000003b0: 1d22 0c3b c442 673d e91f f03b 1b2b 4c3e
000003c0: bd8d 29bd 7dc7 973c 6a8e b33c 2891 87bd
000003d0: 0c14 88bd 859a c2bb 63a9 173d b048 68bc
000003e0: 1fa3 b53c 8353 2b3c b3de 613c 5ef6 8f3d
000003f0: d0ae 6ebd 0647 9f3c 743f 4b3d c119 e03d

network_body.observation_encoder.processors.0.normalizer.running_mean f4 [68]
0.3188856 0.37516764 0.30580008 0.7013821 0.5261643 0.2777993 0.19591019 0.58930373
0.3259351 0.4765191 0.19730937 0.6699202 0.41388118 0.3634697 0.22243169 0.6170948
0.2837589 0.50994056 0.20596443 0.66782796 0.27649695 0.63647527 0.085707515 0.65573865
0.2741413 0.6351178 0.08962805 0.6301546 0.25184858 0.66664416 0.07577884 0.6379669
0.21487278 0.70705545 0.07521962 0.6113798 0.25563914 0.65579623 0.073646486 0.6211734
0.23695566 0.6865013 0.06958637 0.5474803 0.2247555 0.6232246 0.04427697 0.5767455
0.23278232 0.62077934 0.046089362 0.5118394 0.22279103 0.5318546 0.0036448536 0.48266438
0.1636784 0.53898686 0.00300421 0.49040657 0.1679746 0.53393424 0.0034733964 0.46332863
0.16797459 0.53393424 0.0034733962 0.46332875
00000000: f944 a33e f915 c03e d491 9c3e c78d 333f
00000010: b4b2 063f b63b 8e3e ae9c 483e 9cdc 163f
00000020: f7e0 a63e 50fa f33e 780b 4a3e e47f 2b3f
00000030: 3ce8 d33e b318 ba3e 22c5 633e edf9 1d3f
00000040: d948 913e 778b 023f 57e8 523e c6f6 2a3f
00000050: 0291 8d3e 0bf0 223f 6c87 af3d 7dde 273f
00000060: 405c 8c3e 1597 223f e98e b73d d051 213f
00000070: 4cf2 803e 31a9 2a3f f031 9b3d cc51 233f
00000080: 9c07 5c3e 9601 353f be0c 9a3d 6383 1c3f
00000090: 22e3 823e 43e2 273f f8d3 963d 3805 1f3f
000000a0: 81a4 723e 8dbe 2f3f 4c83 8e3d ab27 0c3f
000000b0: 4e26 663e a68b 1f3f c55b 353d 98a5 133f
000000c0: 7d5e 6e3e 65eb 1e3f 33c8 3c3d e807 033f
000000d0: 5523 643e a027 083f 7fde 6e3b c91f f73e
000000e0: 4f9b 273e 0bfb 093f 48e2 443b 9216 fb3e
000000f0: 8901 2c3e eaaf 083f eca1 633b 6939 ed3e
00000100: 8801 2c3e eaaf 083f eba1 633b 6d39 ed3e

network_body.observation_encoder.processors.1.normalizer.running_mean f4 [6]
-7.015267 1.8879933 -10.999614 6.999782 9.0470295 176.81989
00000000: 117d e0c0 c4a9 f13f 6bfe 2fc1 37fe df40
00000010: a2c0 1041 e4d1 3043
