Assets/Training/results/b_treasure_test50_Th64Lr1e-4Bs4096Bs65536_Curisosity_NoDistanceReward/TreasureSearch/TreasureSearch-499956.onnx (onnx, 608683 bytes, 13 tensors)

65 f4 [68]
000000 e6 0d ed 3e d2 d3 ef 3e cb 47 f6 3e 88 2a 9a 3e
       0.46299666 0.46841294 0.4810165 0.30110574
000010 9e 85 f8 3e 70 47 f3 3e 00 bd e4 3e 60 46 99 3e
       0.48539442 0.4751544 0.44675446 0.29936504
000020 7a fe ff 3e 5b db ef 3e 07 ef c3 3e 6d e5 9d 3e
       0.49998838 0.46847042 0.382683 0.308391
000030 2b 8f f0 3e a5 39 ff 3e d6 60 d0 3e 6f 6a a3 3e
       0.46984228 0.49848667 0.4069888 0.3191714
000040 cb b5 ff 3e 74 25 f2 3e 99 84 b0 3e 8b 87 a6 3e
       0.49943385 0.472942 0.34476164 0.32525286
000050 ce e2 c9 3e 88 a6 e8 3e bf ad 97 3e 9c 28 98 3e
       0.3943085 0.45439553 0.29624745 0.29718482
000060 57 ae f2 3e 74 00 ff 3e b6 d2 a0 3e 56 69 a7 3e
       0.47398636 0.49805033 0.3141076 0.32697552
000070 6b 5c b8 3e 02 23 d6 3e 4d b8 7e 3e e0 b9 90 3e
       0.3600801 0.41823584 0.24874993 0.2826681
000080 ff 0c d7 3e a1 cc f2 3e 2f 40 98 3e 51 06 8f 3e
       0.42002103 0.47421744 0.29736468 0.27934507
000090 f2 8a 9e 3e fc 0e c4 3e ab 72 63 3e b8 c0 87 3e
       0.30965382 0.38292682 0.22211711 0.2651422
0000a0 e2 9f c0 3e 59 7a ea 3e 10 63 94 3e d8 00 85 3e
       0.3762198 0.4579647 0.2898183 0.25977206
0000b0 15 1b 8d 3e c7 cd c2 3e c7 61 23 3e 6f a9 83 3e
       0.27559724 0.3804762 0.15955268 0.25715205
0000c0 f2 55 be 3e 1a ad e8 3e ba ce 3d 3e 49 8b 80 3e
       0.37174946 0.45444566 0.18535891 0.25106266
0000d0 6d 9e 95 3e 88 7c e8 3e 50 b2 9a 3d 22 05 6a 3e
       0.29222432 0.4540751 0.07553542 0.2285352
0000e0 dc 8a b8 3e 22 93 f0 3e 4e 67 b1 3d c1 7a 5d 3e
       0.3604344 0.46987253 0.08662282 0.21628858
0000f0 4c 21 a7 3e 7a 2f f0 3e db a2 a2 3d 3d 5f 58 3e
       0.3264259 0.46911222 0.079412185 0.2113008
000100 4d 21 a7 3e 7a 2f f0 3e db a2 a2 3d 3c 5f 58 3e
       0.32642594 0.46911222 0.079412185 0.21130079

68 f4 [6]
000000 bd 25 1d 40 d8 c1 3a 40 8b fd 7f 3c 15 d8 23 3c
       2.4554284 2.9180813 0.015624414 0.010000248
000010 b3 20 2c 40 d1 88 06 43
       2.6894958 134.53444

action_model._continuous_distribution.log_sigma f4 [1, 2]
000000 d5 70 c8 3c 65 7d 40 3c
       0.024467865 0.011748646

action_model._continuous_distribution.mu.bias f4 [2]
000000 14 3b 64 3b ba 19 49 bb
       0.0034825252 -0.00306855

action_model._continuous_distribution.mu.weight f4 [2, 256]
000000 ad e2 d6 bc 68 d3 b9 3b d3 36 a6 bc 41 a8 a1 bb
       -0.026231134 0.0056709535 -0.020289814 -0.0049333875
000010 d1 f8 1a 3d cf 22 4e 38 48 e4 02 3c 1b f0 1f 3c
       0.037834946 4.9146645e-05 0.007988997 0.009761835
000020 08 18 8c bc b8 44 1d 3d 24 48 44 bc 20 65 58 3c
       -0.017101303 0.038395613 -0.01198009 0.013207704
000030 13 89 de 3b be ab 91 bc ca d7 d7 3a 4a 30 4f 3c
       0.006791243 -0.017782088 0.0016467508 0.01264579
000040 62 7d bc bb 91 83 ff bb 33 21 7f bc c6 c1 94 bc
       -0.0057522515 -0.0077976664 -0.01557188 -0.018158805
000050 74 a9 b0 bb 72 e6 3d bc bd 5f b0 3c ec ff aa bc
       -0.005391294 -0.011590587 0.021530027 -0.020873986
000060 ad 07 2d 3d 82 2c c9 bc a9 a3 5d 3b c1 ce d5 3c
       0.04224365 -0.024557356 0.0033819473 0.026099565
000070 76 b0 8f ba ce 27 75 bc 3e 25 18 39 eb e3 a1 3c
       -0.0010962624 -0.014963103 0.00014509723 0.019762
000080 c7 0d 7f 3b 6f 17 f1 3b b9 f5 e7 bc 53 ec 81 3b
       0.0038918124 0.00735753 -0.028315412 0.0039649396
000090 48 db 8b bc dd c4 ce bc 9b e4 91 ba 93 19 92 3c
       -0.017072335 -0.025240356 -0.0011130752 0.01783446
0000a0 13 ef 4f 3c f6 4e 6f bc 42 45 9f bb 7e f6 37 3b
       0.012691277 -0.014606228 -0.004860551 0.0028070505
0000b0 ec 4c ae bc 62 fd 3a 3b b5 37 9c bb 50 b5 9b bc
       -0.021276914 0.0028532376 -0.004767383 -0.019007355
0000c0 bf 5d ef bc 3c c8 a0 bc 34 6a 2f 3c 8a 82 77 3c
       -0.029219506 -0.01962673 0.010706473 0.0151068065
0000d0 15 a4 b8 bb 2e 74 b6 bb c4 db 79 bb fc 90 5a 3c
       -0.0056347945 -0.005568049 -0.0038125375 0.013340231
0000e0 49 6c c1 3c af 7d 8d 3b 15 45 59 3c df 4d 0b 3c
       0.023611205 0.004317961 0.013261099 0.008502453
0000f0 26 fb 62 3c 05 a7 31 3c f5 95 7b bb 1e da 45 3c
       0.013853824 0.010843043 -0.0038388942 0.012075929
000100 bc e3 82 3c cc 5c b5 3b 03 f0 15 bd c3 5b 5e 3b
       0.015977733 0.005534744 -0.036605846 0.0033929206
000110 bf a6 df 3c 2b 71 24 3c ab ef d5 3c 76 88 d8 bb
       0.02730119 0.010036747 0.02611526 -0.0066080643
000120 30 69 b0 bc 27 89 9d 3c b0 45 1b 3c e5 69 83 3c
       -0.021534532 0.019230438 0.009477064 0.016041705
000130 3f 37 6a 3c aa 3e b7 bc c9 f0 d4 bc 1e 97 72 bc
       0.014295398 -0.022368748 -0.025993722 -0.014806537
000140 cd 4e 29 3b c5 6b 33 ba a8 cb 29 bb 10 af a0 bc
       0.0025834322 -0.0006844367 -0.0025908742 -0.019614726
000150 87 e6 e8 bb 90 93 ab bc 65 a5 28 bc fd 34 3f bb
       -0.007107559 -0.020944387 -0.010293339 -0.002917587
000160 8f 1f 9f 3c 33 5f 1f bc 2f 1b 38 3c 6b 68 7b bb
       0.019424228 -0.009727287 0.01123695 -0.0038361799
000170 a4 1d a2 37 ab c9 29 bc dd 15 f8 ba 5e 43 b7 3c
       1.9325707e-05 -0.010363023 -0.0018927414 0.02237099
000180 79 be 3c bc f1 a1 28 3c 53 15 2a bd b7 01 5f bb
       -0.011520022 0.010292516 -0.041524243 -0.0034028122
000190 f0 a7 07 3d 56 c0 23 3c af 72 f5 ba e1 51 f6 bb
       0.033119142 0.009994587 -0.0018726195 -0.007517085
0001a0 dd fd c3 3b 82 4e 1a ba 10 04 55 3c b0 bc 48 bc
       0.0059811906 -0.00058863324 0.013001457 -0.012252018
0001b0 6e 16 38 3c 5b 8a 78 bb 7d 39 15 bc 38 83 e9 3b
       0.011235816 -0.0037924263 -0.009107945 0.007126238
0001c0 ca 48 84 3c 7d 92 59 3c 1f db 72 3a 63 83 8f 3c
       0.01614799 0.013279554 0.0009264219 0.017518705
0001d0 03 bc 95 bc 3a a1 9b bb 6e 72 2b 3b e4 f2 61 bc
       -0.018278128 -0.0047494443 0.0026160735 -0.01379082
0001e0 fa b6 72 3c 55 b2 de bc 82 ac 81 bc 98 8e d4 3b
       0.014814133 -0.027184645 -0.015829328 0.006486725
0001f0 a0 33 97 3c ce 7a 1b bc 6c 92 3b 3c 0a e8 e7 bc
       0.018457234 -0.009489728 0.011448484 -0.028308887
000200 78 7a 04 3c 82 d2 5f 3c f0 24 9a 3c 5f de 5d bc
       0.008085839 0.013661029 0.018816441 -0.013541787
000210 46 63 91 3a c3 93 b6 bb 03 c4 c4 3c 3b 84 4c bc
       0.0011092208 -0.005571814 0.024019247 -0.012482698
000220 a2 ca 10 3c 9b 9a 5f 3b fa 5c 80 3c 5d 99 c5 ba
       0.008837374 0.0034119252 0.015669335 -0.0015075613
000230 91 c5 df 3a 9c 41 8e 3c e6 a3 54 bb 37 78 58 bc
       0.0017072429 0.01736527 -0.0032446324 -0.013212255
000240 0a 16 82 3c 65 e0 1d 3c a8 da b2 bc c8 de d2 3b
       0.01587965 0.009636019 -0.021832779 0.006435249
000250 cc b2 1c bc 29 66 45 bc 80 17 ea bb b5 36 68 3b
       -0.009564113 -0.012048283 -0.0071439147 0.0035432999
000260 54 cd 7a 3c e2 9e 27 3c 28 b9 96 bc 9a 9b 17 3d
       0.015307743 0.010230752 -0.018398836 0.037013628
000270 8f 2c 1f 3c 63 35 ce bc f9 d1 53 3c 81 b8 8a 3b
       0.009715213 -0.025171941 0.012928479 0.0042334204
000280 56 af 61 3b 59 34 00 3d 25 d5 79 3c 2d 08 a9 bc
       0.0034436784 0.031299923 0.0152485715 -0.020633781
000290 23 5d 52 bb 05 84 32 3d d7 11 fa 3c 0c 62 0f bc
       -0.003209897 0.043582935 0.030526085 -0.008751404
0002a0 11 56 18 3c 96 01 15 3c bc 96 0d 3c 27 07 3e 3b
       0.009297864 0.009094616 0.008641895 0.0028995962
0002b0 3c e0 0d 3c 6a 96 cd 3b d4 34 4a 3c e4 44 9a 3a
       0.008659419 0.0062740343 0.012341697 0.0011769799
0002c0 cb 9f 1b 3c 5b 20 ee 3b bd 5d 0d bc f7 5f 06 bc
       0.009498547 0.0072670407 -0.008628306 -0.008201591
0002d0 32 21 03 bb 20 84 e6 3a 41 de 4c bc 8f 11 55 ba
       -0.00200088 0.0017586984 -0.012504161 -0.00081279216
0002e0 67 cc f0 bb af 8d fa 3b 59 54 60 3c 78 c4 7d bc
       -0.0073485854 0.0076462845 0.013691985 -0.015488736
0002f0 f6 c8 8a 3b c9 36 5c ba 7b bf 60 bc 7e 7d de b9
       0.004235382 -0.00084004976 -0.0137175275 -0.0004243664
000300 d6 9e 39 bc 71 43 b9 3b 1d 5d 17 bb 2e ca dd 3c
       -0.011329373 0.0056537916 -0.0023096271 0.027073946
000310 fe 9f fb bb b8 61 9e 3a 09 7f 12 3c b4 3f 19 bd
       -0.0076789847 0.0012083566 0.00894142 -0.037414268
000320 04 cf b4 bc 01 07 c3 3c 12 72 43 3c 11 c2 76 bc
       -0.022071369 0.02380705 0.011929052 -0.0150609175
000330 7b 8d a3 39 f1 e9 ef 3c 5a 4d dd bb 8f d8 96 3b
       0.00031195194 0.029286357 -0.006753606 0.0046034525
000340 69 a2 13 bd 16 56 db 3c 78 84 0e bc e2 5f 06 3c
       -0.03604356 0.026774447 -0.008698575 0.008201571
000350 d0 c4 60 3c 69 df b9 3b 79 41 19 ba 8d 89 d9 3c
       0.013718799 0.0056723845 -0.0005846243 0.026554847
000360 1d db de 3b 40 08 c4 bc 32 3e e4 b9 19 f5 2d bc
       0.0068010227 -0.023929715 -0.00043533888 -0.010617518
000370 a0 84 16 bc 40 cb 82 bc e7 be 03 3c 3c 80 65 bc
       -0.009186894 -0.015966058 0.00804112 -0.014007624
000380 8b 91 ed bb 45 a8 d1 3c 1b 0e 87 3b 08 ca 67 bc
       -0.007250016 0.025592932 0.0041215545 -0.014147289
000390 3d 72 69 3c 3e b2 51 3c 58 53 03 bc ea 27 d4 bc
       0.014248428 0.012798844 -0.008015476 -0.025897939
0003a0 5e 9c bf bc 17 59 b8 3c b7 d0 11 3b 7e e3 b3 bc
       -0.023389991 0.022503419 0.0022249648 -0.021959063
0003b0 0d 07 b3 3c 0d 94 a5 bb 13 0a 89 3c f8 ef 4d 3b
       0.021853948 -0.0050530494 0.016728437 0.003142355
0003c0 28 b2 c6 b8 76 9b eb 3a d9 95 d1 bb da d9 6c bb
       -9.47456e-05 0.0017975408 -0.006396037 -0.0036140592
0003d0 2e e6 96 3c 42 84 0c 3c fe 89 3f bc 67 25 e0 bc
       0.018420305 0.008576455 -0.011690615 -0.027361585
0003e0 03 eb e5 bb f8 f3 d2 3a e0 48 4a 3c 97 bf d6 bb
       -0.007016541 0.0016094437 0.012346476 -0.006553601
0003f0 80 0b ec 3c 5d 93 d8 bc 8d 86 87 3c 82 0a ba ba
       0.028814077 -0.026437456 0.016543651 -0.0014193805

network_body._body_endoder.seq_layers.0.bias f4 [256]
000000 70 3c f1 3a ce 84 4c 3a 56 b6 f5 3a 12 4b cd 39
       0.0018404853 0.0007801772 0.0018746357 0.0003915658
000010 e7 a2 a8 3a d0 e7 34 3b 0f b8 ac 3a 55 17 04 bc
       0.0012865931 0.0027603991 0.0013177412 -0.008062203
000020 2f 71 87 3c a8 68 b3 3a bb 68 25 3b 58 6b 92 3a
       0.016533462 0.0013687806 0.0025239426 0.0011170907
000030 78 9d ae 3b ad bc 08 3b db 79 fb 3b 2e 40 aa 3b
       0.0053288303 0.0020864413 0.0076744384 0.005195639
000040 40 37 9e 3b 1f 4a e2 3a 68 6e 01 3b e2 dc 51 bb
       0.0048283637 0.0017264521 0.0019749645 -0.0032022526
000050 fc cd 0b bc b0 d2 c9 ba fb bf a3 3b 84 3b 0b 3a
       -0.008532997 -0.0015397873 0.004997251 0.0005311298
000060 de 3c a5 bb 7a 46 61 3c 08 7e d5 3b 31 83 e0 3b
       -0.0050426563 0.013749713 0.0065152682 0.0068515767
000070 5b ec 8a ba a1 16 05 3b 36 5e c0 3b b8 74 87 3b
       -0.0010599004 0.0020307677 0.005870606 0.004133787
000080 cc 69 86 3b d7 a6 50 3b 98 ea 71 bb 1c 62 5c ba
       0.0041019674 0.0031837726 -0.003691351 -0.00084069534
000090 53 c3 11 3c 94 a4 e1 3a ab ff 14 3b 66 e9 b4 3b
       0.008896667 0.0017215186 0.0022735398 0.0055209873
0000a0 f6 4a 4f 3b 3c 11 7e 3b e0 1a e9 3a e0 98 11 3a
       0.0031630374 0.0038767597 0.0017784499 0.0005554091
0000b0 92 78 71 3a a1 58 97 bb e6 93 35 3b 97 6e be 3a
       0.0009211387 -0.0046187197 0.0027706563 0.0014528808
0000c0 9f e9 c0 3a d8 93 84 3b 2e ae 5a bb c1 b7 90 3b
       0.0014718062 0.0040459447 -0.003336798 0.0044164364
0000d0 c9 69 ba bb d3 40 a0 bb 99 40 ad ba 23 33 01 bb
       -0.00568888 -0.00489054 -0.0013218104 -0.0019714318
0000e0 84 7d 0b 3b 66 76 18 3b 08 b5 30 3b 1c 3c f2 39
       0.002128453 0.002326393 0.0026963372 0.00046202622
0000f0 de 05 d7 3b f0 d4 86 3a 7c 9e d6 bb 10 c7 71 bb
       0.0065619787 0.0010286849 -0.0065496545 -0.0036892332
000100 c0 a3 78 3a 0b 61 6f bb 2e b1 f2 ba 12 ed e6 39
       0.000948485 -0.0036526348 -0.0018515938 0.0004404565
000110 d1 5f d6 bb a2 f2 c0 3a c6 b0 a6 bb 41 59 26 3a
       -0.006542184 0.0014720748 -0.005086991 0.00063456973
000120 50 34 96 bb 26 e9 7e 3b f9 35 09 3c 8f b8 74 ba
       -0.004583873 0.0038896292 0.0083746845 -0.00093353627
000130 fa 71 68 3a 5b 1d 05 3b 1b 61 c9 38 b7 b7 3a 3b
       0.00088670815 0.0020311687 9.602514e-05 0.002849085
000140 3b 9c 09 3b 3f 4a a9 3a 5d 2f 01 3b 4b f3 1e 3b
       0.0020997662 0.0012915804 0.0019712069 0.00242539
000150 56 63 9e bb c1 e5 3f 3b 99 5f 36 3b 7f 23 bb 3b
       -0.004833619 0.002928123 0.0027827977 0.0057110186
000160 49 e0 28 3a f4 30 82 3a 36 fe 21 3b cc db 0e 3b
       0.00064421125 0.0009932802 0.0024718172 0.002179849
000170 95 ca 74 bb b0 6c 85 3b f9 f9 82 bb af 75 7a 3b
       -0.0037352194 0.0040717945 -0.003997084 0.0038217118
000180 40 10 e0 3b 05 e8 76 3b ff 7b dc 3a b9 14 43 b9
       0.0068378747 0.0037674916 0.0016821622 -0.00018604369
000190 6a cd f0 ba f5 15 8a 3a 4e fe 98 3a 4c 3c f7 39
       -0.0018371765 0.0010535108 0.0011672468 0.00047156436
0001a0 ca 80 0d bb af e7 16 bb ec ea 0b 3c 76 44 91 ba
       -0.0021591657 -0.0023026278 0.008539896 -0.0011083025
0001b0 66 19 6d 3b c6 e0 ba b8 94 a7 e9 b8 cb 28 81 bb
       0.0036178469 -8.9110385e-05 -0.0001114152 -0.0039416305
0001c0 34 8b bb bb 2c 4d 31 3b 1b 4f 1f 3c 9b 14 0d bc
       -0.0057233814 0.0027054055 0.00972345 -0.00861087
0001d0 ab 1f 55 ba 0e 08 c2 ba 95 cd ad bb 41 1e 3c bb
       -0.0008130024 -0.0014803426 -0.0053040483 -0.0028704556
0001e0 b7 60 fc 3a 56 81 0a bc 7d 5f ca b9 26 1d eb 39
       0.0019254897 -0.008453688 -0.00038599587 0.0004484441
0001f0 64 b8 6e 3b 43 30 59 3b e4 44 50 b9 18 0e e3 3a
       0.0036425823 0.0033140338 -0.0001986209 0.0017322926
000200 90 be 63 3a a2 d1 10 3b 78 50 96 3b 04 f1 57 b9
       0.0008687759 0.0022097607 0.0045872293 -0.00020593783
000210 00 7a 66 3b 94 79 b1 3b 2e 4d 2b bc 44 f2 21 3b
       0.0035167933 0.0054161046 -0.010455413 0.0024711052
000220 ca d2 63 3b 17 5f 12 bb 99 3f 24 3c a9 25 1c bb
       0.0034763091 -0.002233451 0.0100249285 -0.0023826158
000230 a6 0c 23 ba cc 1c 06 bb 07 bc 1c bb d7 fd 80 bb
       -0.00062198413 -0.0020463942 -0.0023915784 -0.00393651
000240 42 02 ba ba 2d 53 31 bb 20 1a 70 3b 92 44 69 3b
       -0.0014191347 -0.0027057633 0.0036636665 0.003559385
000250 5c a4 c9 3a 7e 4a 85 bb 26 b4 a0 3b 10 63 87 bb
       0.0015384066 -0.004067718 0.004904288 -0.004131682
000260 b1 e8 72 ba 22 df a6 3a 80 aa a7 39 5b 9d e3 bb
       -0.0009266241 0.0012731294 0.00031979755 -0.0069462485
000270 09 fe c8 3b 35 f2 fe ba d4 f7 01 bb 96 64 8a 3b
       0.006133799 -0.0019450845 -0.0019831555 0.0042234166
000280 c6 03 66 3a 25 a7 a3 39 2d 57 14 3c 2a 47 4a ba
       0.0008774366 0.00031214315 0.009053987 -0.0007716293
000290 65 8c 45 bb d0 0e cb 3b ac a9 02 bc 19 ca 61 3b
       -0.0030143496 0.006196834 -0.007975023 0.0034452735
0002a0 35 d5 00 3b 86 4b dc b9 7a 27 2c bb c5 f9 ae ba
       0.0019658331 -0.0004201794 -0.0026268647 -0.0013349584
0002b0 0e ef 60 3b ad bd 87 3b 92 7a 23 3b c9 f5 84 3b
       0.0034322175 0.004142484 0.0024944884 0.00405762
0002c0 b0 8a a4 3b b2 cc 96 3b cc d9 55 3b a6 16 44 b9
       0.0050214157 0.0046020383 0.0032631038 -0.00018700454
0002d0 86 e3 0a 3b 4a 1b e3 39 32 78 90 3a 59 9e 55 bb
       0.0021192743 0.00043317146 0.0011022149 -0.0032595603
0002e0 76 00 14 3b bc 94 70 3b e6 be d2 3b 62 77 11 39
       0.0022583283 0.0036709746 0.0064314483 0.00013872751
0002f0 a3 96 bb bb 6f 74 84 bb 25 88 28 bb 66 99 ad bb
       -0.0057247444 -0.0040422003 -0.0025715914 -0.0052978275
000300 e7 7a 0b bc fa c9 2f bb 97 4b 4e 3c 0d 11 02 3c
       -0.008513189 -0.0026823268 0.012591264 0.007938636
000310 85 15 09 3c c2 21 1a 3c 9d 2a 8b 3b a6 af 1c ba
       0.008366947 0.009407463 0.0042470233 -0.00059771014
000320 ac 01 18 bb 88 37 02 3a fb 13 6b 3b cf 6f 9f 3a
       -0.0023194356 0.0004967381 0.0035870064 0.0012164059
000330 d8 1c 01 3c 05 e7 97 bb cc fe 2f 3a 22 9b ec ba
       0.007880412 -0.004635694 0.0006713688 -0.0018051604
000340 dc df cb ba 4d 31 3e ba 1c 92 1b 37 26 1d b1 3b
       -0.0015554386 -0.0007255271 9.272739e-06 0.005405086
000350 01 9c e4 bb a2 cd 9d 3b 31 1d 42 3b dd 0e 34 3c
       -0.006976605 0.004815773 0.002961945 0.010989872
000360 80 e7 7e 3a 66 3a 32 3b f7 87 1a 3b 18 55 b2 3b
       0.0009723827 0.0027195453 0.0023579577 0.005442273
000370 23 dd 2f 3b d0 d3 a2 b9 bf 80 a1 ba e8 ac 20 bb
       0.0026834689 -0.0003105686 -0.0012321695 -0.0024517123
000380 f2 b5 c4 3b c3 f1 13 3c 8d 19 26 3a a7 44 a9 39
       0.006003135 0.009029808 0.0006336205 0.00032285342
000390 12 fb 34 ba 45 df f9 bb 1c 2e 0a 3b ce b7 75 ba
       -0.00069038675 -0.0076254928 0.0021084612 -0.00093733973
0003a0 51 e9 86 3a cc e5 6a 3b db 29 3d 3a aa 40 11 bc
       0.0010292922 0.0035842536 0.0007216015 -0.008865515
0003b0 f2 63 8a ba 2e 12 4e bb 1b 14 74 bb 45 58 d2 3a
       -0.001055835 -0.0031443941 -0.003724343 0.0016048035
0003c0 1f 7a 05 3c 8f ec 5a b8 a1 d7 29 3b 9d 66 8c 3b
       0.008146792 -5.2195563e-05 0.0025915878 0.0042846934
0003d0 bd f0 0b 3b c5 f5 17 3b 58 ad 91 bb cb 52 6b ba
       0.0021353208 0.0023187262 -0.004445713 -0.00089768757
0003e0 e0 6b 1e 3b b6 3f f8 3b 56 7f 69 3b be 5c 21 ba
       0.0024173185 0.0075759543 0.0035628877 -0.0006155482
0003f0 d2 58 d5 3b 7a 6b 0d 3c 0a de 13 bc 60 fb 31 bb
       0.0065108323 0.008631581 -0.009025106 -0.0027157888

network_body._body_endoder.seq_layers.0.weight f4 [256, 74]
000000 ea 74 2b bd 3f 29 cf bd 7a 32 9f 3d ac 36 6f 3d
       -0.041859545 -0.10115289 0.077732995 0.05840175
000010 6e 55 0e bc 06 c0 12 bc ae 0d 5b 3c 54 86 79 be
       -0.00868736 -0.008956915 0.013369961 -0.24367648
000020 97 3c 74 bd 7e 02 91 3d 4f f4 16 be 59 1c 5c bd
       -0.059628095 0.070805535 -0.14741634 -0.053737972
000030 8b 9c 81 be 96 ec 1b bd 76 90 98 3c 2e c0 fb bd
       -0.25314745 -0.038067423 0.018623572 -0.12292515
000040 ce 2a bb 3d 0c b5 25 bc 61 7b 55 bd 95 90 8a bd
       0.09139024 -0.010113966 -0.052119616 -0.06765858
000050 4a b5 7e 3c d8 14 9d bd aa ce e4 3c cc 85 5e 3c
       0.015546152 -0.07669991 0.027930576 0.013581704
000060 b9 5c 81 3d 3a 75 33 bd e9 55 91 bb 84 65 94 bc
       0.063165136 -0.043812968 -0.00443529 -0.018114813
000070 12 af 1b be 3d d9 1e 3d 48 62 a1 bd 26 0d 80 be
       -0.15203503 0.038781393 -0.07880074 -0.2501003
000080 aa f0 1e 3d 6f 0b dd 3c 49 83 83 3e 10 ae e1 bd
       0.038803734 0.026982991 0.256861 -0.11019528
000090 63 6b 05 be a1 df 82 3c 81 b0 8c bc 20 f2 5a 3d
       -0.13029246 0.015975775 -0.017174007 0.053453565
0000a0 ca 8d 5b bd 76 47 1b 3e 52 53 f4 3d f2 98 3c 3d
       -0.053602017 0.15163979 0.119299546 0.046044298
0000b0 dc 03 56 bc 17 fd 35 be 1d f5 a9 bd bc 4e de 3d
       -0.013062444 -0.17772327 -0.08298705 0.10854861
0000c0 5d d7 1f bd f4 e0 60 be 18 f0 00 be 49 c2 6b 3d
       -0.039023746 -0.21960813 -0.12591588 0.05755833
0000d0 26 27 46 3d 4f 13 16 3e f8 44 a5 3d 0a 24 ba 3c
       0.04837718 0.14655803 0.08069795 0.022722263
0000e0 ba da 75 3e 2f 49 e9 bc 23 79 76 bd 0b 33 ea 3d
       0.24009219 -0.02847728 -0.06017412 0.11435517
0000f0 93 17 80 3d 0f f1 73 be 97 cc 77 bd 59 ee 1f be
       0.062544964 -0.23822425 -0.060497846 -0.15618266
000100 6d ad bb 3d 71 0f 15 3e 8c 00 8b 3e 38 a3 80 3d
       0.09163938 0.14556672 0.27148855 0.062811315
000110 32 b6 77 3e a0 70 be 3d 2e bb 7c bd 29 7c 22 3e
       0.24190596 0.09298825 -0.061701946 0.15867676
000120 88 44 d2 bd e4 ea bd bd 03 66 3d bd 01 93 fc 3c
       -0.102669775 -0.092733175 -0.046239864 0.030831816
000130 58 e3 c4 3d 92 16 56 3d 76 b9 13 bd d3 11 da bd
       0.09613675 0.05226762 -0.03606554 -0.10647931
000140 b5 29 c0 3d f8 c1 cc 3d ab 28 b8 bd 26 cc a5 3d
       0.09382955 0.09997934 -0.08992132 0.08095579
000150 ff 5a 0c 3d a8 76 92 3e 79 27 82 be b6 92 07 3d
       0.03426647 0.28606153 -0.2542074 0.0330989
000160 4a a6 4e 3d 3f 08 01 3d 9b 47 07 ba 4f 1b 28 bd
       0.050451554 0.031502005 -0.00051605114 -0.04104167
000170 4f cf 10 3d f4 e7 9b 3d e8 03 e3 bd c6 5d c5 bd
       0.035353955 0.07612601 -0.110847294 -0.096370265
000180 3c 52 c1 3d 09 90 44 3d f8 20 05 3e f5 01 dc bc
       0.09439513 0.047988925 0.13000858 -0.026856402
000190 ef 0e 6d 3d b2 98 33 3e 41 0d a9 3d 8a c4 45 bc
       0.05787557 0.17538717 0.08254481 -0.012070784
0001a0 c1 1f 60 be c9 4e 9b 3c 98 33 3b be 77 f4 cc 3c
       -0.21887113 0.018958466 -0.182814 0.025018914
0001b0 c0 2d ca bd 82 71 4d 3e fe 3d 6c 3d 71 bc 00 3d
       -0.09872007 0.20062831 0.057676308 0.03142971
0001c0 de 13 90 bd 52 2f 29 be 88 50 c4 3d af 6d 38 3d
       -0.07035039 -0.16521958 0.095856726 0.045026477
0001d0 21 81 0e 3c bd 27 9c bd b7 0d 4a 3e 3a 1d 48 bd
       0.008697779 -0.07624767 0.19731794 -0.048855998
0001e0 0f 89 34 3d 52 56 60 bc 44 c4 86 bd 5d 8c 49 3d
       0.04407602 -0.013692455 -0.065804034 0.049206126
0001f0 5c 01 61 3e bc f4 9d 3d b6 91 1b 3d 80 df fe 3c
       0.21973175 0.07712695 0.037980758 0.031112432
000200 df 08 a9 bd 18 7b ca bb 6c a7 4f 3d 8d 21 6b 3e
       -0.08253645 -0.0061792247 0.050696775 0.22962017
000210 63 96 5d bd 46 fc f0 bd e8 ef 47 be 60 9f 63 3c
       -0.054098498 -0.11766867 -0.1952511 0.013892978
000220 5d 35 b2 3c 1b 94 22 3e db 24 96 bb 54 f0 d4 bd
       0.021753961 0.1587681 -0.0045820302 -0.103974015
000230 e8 ea 86 bd d1 a8 c2 bc d2 c9 15 3e 02 df 32 bd
       -0.065877736 -0.023762139 0.1462777 -0.043669708
000240 38 1b 08 3e df 38 1c 3c 2b da 6d bd cb 99 3b be
       0.13291633 0.0095350435 -0.05806939 -0.18320386
000250 a8 40 1a bd 25 95 9a 3d 5f 6c 15 3e 7b e3 af bd
       -0.037659317 0.07547978 0.14592122 -0.0858831
000260 cc 82 26 bd 5c a1 5f 3d 84 1f b9 bd cf ec 6b bd
       -0.04065208 0.054597244 -0.09039214 -0.057598885
000270 59 6a 12 3e b7 7f f9 bc 3a f2 22 3e dc 92 17 be
       0.14298381 -0.030456407 0.15912715 -0.14802116
000280 1a 58 20 bc 2a 80 06 3c f6 ce 2b bb c9 4f 96 3d
       -0.00978663 0.008209268 -0.0026215888 0.073394366
000290 b5 2e 73 3e 50 69 43 bd 3e 36 e7 3c 1f 7d 0d be
       0.23748286 -0.047707856 0.028224107 -0.13817261
0002a0 4a df 7a bc 6c b9 0c bb cb 57 f1 bd ed 39 1e 3e
       -0.015312025 -0.0021472825 -0.11784323 0.15451784
0002b0 d7 89 52 be 09 7c 9f bc 4b b5 88 bd 4b 25 a8 3d
       -0.20560394 -0.019468324 -0.06675204 0.08210238
0002c0 04 f8 18 3d 81 a8 fd 3c 55 1a 0a bd e2 a9 c1 bb
       0.0373459 0.030964138 -0.03371652 -0.005910144
0002d0 fa 4e aa 3d f3 6f b5 3d 25 e3 7c bd 29 48 12 3e
       0.08315845 0.08859243 -0.06174006 0.1428534
0002e0 cd 5a 0b be 0b d1 08 3e 7e 0a b4 3d c3 96 ab 3d
       -0.13608856 0.13360994 0.08791064 0.08378365
0002f0 3d 81 dd 3d 52 fa c3 bd ed 54 40 3e 8d ff f6 bc
       0.10815666 -0.09569229 0.18782397 -0.030151153
000300 36 68 65 be 37 3e a1 bc c5 3c 7e bc 58 a6 4e 3d
       -0.22403035 -0.019682987 -0.015517418 0.050451607
000310 61 28 3d 3d a4 88 93 3d 03 4d 58 bd 16 12 78 3d
       0.046181086 0.072037965 -0.05280782 0.060564123
000320 cd 34 a3 3e cc cc 92 3d f7 c6 89 3c c5 34 d9 3c
       0.3187622 0.07167968 0.016818507 0.02651442
000330 73 ac ea 3d 40 b4 da 3d 7f 5e 7f 3d c2 6f d4 bd
       0.11458673 0.10678911 0.062345978 -0.103728786
000340 35 08 2f 3e 13 da 10 3d 86 02 77 3d 88 fd 0f be
       0.17092974 0.03536422 0.06030514 -0.14061558
000350 f4 1e 58 be c1 b5 c7 3d 15 31 6b bd e1 82 66 bd
       -0.21105558 0.09751464 -0.057419855 -0.05627716
000360 e9 7e 85 3b 5f a2 d2 3d 1e eb 21 bc cd 02 a6 3d
       0.0040739668 0.10284876 -0.009882716 0.08106003
000370 17 a8 21 3e 89 6f 4d 3d ad 3c 6a bd f7 61 1c 3e
       0.15786777 0.050155196 -0.05718677 0.15271746
000380 87 64 84 bd fc 36 b2 3b c3 b2 1d 3e fb 06 0e 3c
       -0.064644866 0.0054386836 0.15400223 0.008668656
000390 52 62 4e 3d 45 dc 11 3e b7 8c 01 bc b6 e3 1e be
       0.050386734 0.14244182 -0.007907084 -0.15516552
0003a0 44 58 d8 bd 86 e4 b9 bd 42 54 24 3e 5f 5d d2 bd
       -0.1056371 -0.090767905 0.16047767 -0.102717154
0003b0 51 e6 8e 3d 47 4f 07 3d f2 f1 a3 3d 96 74 59 3e
       0.06977523 0.03303459 0.08005132 0.2123588
0003c0 3f 78 6c bc 5b 64 d5 3d 5c 16 17 be 67 dc 09 be
       -0.014432966 0.10419532 -0.14754623 -0.13462983
0003d0 09 53 0f bd 85 8a 24 be 5e a2 c1 bd fe 6d 76 3e
       -0.034991298 -0.16068466 -0.09454797 0.24065396
0003e0 a1 98 71 3c 07 53 b5 3d fe 94 5e 3c 90 40 fc bd
       0.014745862 0.08853727 0.013585327 -0.12317002
0003f0 e6 0d 06 be fe e0 6f 3d b9 64 b8 bd 1a 78 30 bb
       -0.1309124 0.05856418 -0.09003586 -0.0026927055

network_body._body_endoder.seq_layers.2.bias f4 [256]
000000 3c 23 81 bb 9a 35 25 3b 75 e2 ce 3b 87 70 83 bb
       -0.003940968 0.002520895 0.006313617 -0.004011217
000010 c9 ec 37 3b e0 75 68 ba a0 b7 88 3b 05 94 cb ba
       0.002806472 -0.00088676624 0.0041722804 -0.0015531784
000020 41 6d 2b bb 8c 7e 97 39 50 0b 3e bb ba fd 7d b9
       -0.002615765 0.0002889525 -0.0028998442 -0.0002422248
000030 48 b3 83 bb ad b9 fb 3a 48 e1 d5 b9 65 61 ff ba
       -0.0040191747 0.0019205116 -0.00040794373 -0.0019483982
000040 7e c3 54 3a b0 2d e7 ba 75 1a df 38 fd 3a 8a 3b
       0.0008116289 -0.0017637517 0.000106383966 0.0042184577
000050 f4 f4 e0 3a 1e 13 32 3b cc cb 3a bb 5a 0c cd 3a
       0.0017162845 0.002717204 -0.002850282 0.001564394
000060 8f 91 8a 3a 59 e0 43 bb 4d 2c f1 3a 7a 5c 2a 3b
       0.0010571944 -0.002988836 0.0018400043 0.0025995062
000070 d4 fc b1 bb 82 b9 7a bb f1 e5 a6 3b 47 c9 f1 b9
       -0.005431751 -0.0038257544 0.005093329 -0.00046117065
000080 c9 1d a9 39 8e b6 52 b9 63 64 f1 3b 7b 56 c0 ba
       0.00032256384 -0.00020095168 0.0073667034 -0.0014674211
000090 23 64 85 3a 59 d1 8f bb 04 92 20 3b 32 41 a0 3a
       0.0010176938 -0.00438897 0.0024501095 0.0012226461
0000a0 d9 6b 0d 3a a9 cc ce 3b 8d db 62 bb 42 6d 8f 3b
       0.00053947937 0.0063110185 -0.0034615726 0.004377038
0000b0 85 d9 04 ba ad e2 75 3a 66 d4 30 bb 61 54 6d bb
       -0.00050678133 0.00093797856 -0.0026982068 -0.0036213624
0000c0 d5 ff ee 3b b7 5f a1 3b c4 b5 04 39 26 82 8f 3a
       0.007293681 0.00492474 0.00012656214 0.0010948821
0000d0 40 a3 f8 ba e6 95 1d 3b 08 7d f0 3b 58 72 3b bb
       -0.0018969551 0.0024045645 0.0073391236 -0.002860209
0000e0 bc 53 84 3b 8c e7 c5 3b 21 54 0e 3b 64 0e 1b bb
       0.004038302 0.0060395654 0.0021717625 -0.00236597
0000f0 41 e1 a4 bb b0 10 fe ba 03 ed c1 3a 49 05 f8 3b
       -0.005031735 -0.0019383635 0.0014795366 0.0075689894
000100 ef 6a 1a bb bb 2a 2f bc 22 b8 c3 ba 5e 4c 1f bb
       -0.0023562273 -0.01069134 -0.0014932195 -0.0024306993
000110 41 a0 6b 3b 2b 8c 20 3b e8 e7 68 ba 48 0f ab 3b
       0.0035953673 0.002449761 -0.00088846544 0.0052203275
000120 c4 7f 5b bb 7f 97 bb 3b 67 17 6b b9 30 5a a7 bb
       -0.0033492902 0.005724847 -0.00022420064 -0.0051071867
000130 69 d5 1a 3b 4b 44 b0 39 bf f2 ce bb 4c ed a1 3b
       0.0023625738 0.00033620218 -0.0063155587 0.004941618
000140 63 51 93 3a b6 cf 91 3b 7e 34 8f 3a 30 9c 82 3b
       0.0011239465 0.00444981 0.0010925678 0.003985904
000150 b5 e2 40 3b 59 f7 cf 3b a6 91 86 39 a2 29 a5 3b
       0.0029432003 0.006346625 0.00025666988 0.0050403634
000160 bb 76 8a 3b 9a 11 c3 b9 83 91 b0 3a 62 a2 6c b8
       0.0042255796 -0.00037206413 0.00134711 -5.6418015e-05
000170 20 d8 c8 b9 57 b5 d7 b9 3a d5 a8 b9 b3 a4 ee 3b
       -0.00038307998 -0.00041143104 -0.00032202323 0.0072828173
000180 08 88 a3 3b b2 c3 ae ba 0a 6c cd ba 7e 8b 51 bb
       0.0049905814 -0.0013333468 -0.0015672457 -0.0031974013
000190 7c a8 87 bb 67 96 1a bb 1e 15 89 bb 90 12 0e 3c
       -0.004139958 -0.0023588182 -0.0041834256 0.008671418
0001a0 5d cc 21 bb 9f 80 25 3c 1b 04 ef 3b d7 7b 54 3b
       -0.002468846 0.010101466 0.0072941906 0.0032422447
0001b0 5f e9 fe bb e5 1a cf ba 3e 80 00 bb 75 df c3 3a
       -0.007779285 -0.0015800862 -0.0019607688 0.0014943915
0001c0 c2 d7 4d bb 68 5a 08 3b b2 51 b8 bb 1e c1 0f 3b
       -0.003140912 0.002080584 -0.005624973 0.0021935175
0001d0 75 ba b3 bb 39 cb 86 bb 37 54 56 3b 36 e5 89 3b
       -0.005484874 -0.0041135815 0.0032704005 0.0042082323
0001e0 d3 10 2a bb 27 b5 e2 3a 0a d2 5a 3a f1 cc b1 3b
       -0.002594997 0.0017296419 0.00083473383 0.0054260422
0001f0 d1 d0 0e 3c d1 cd ce bb 9d 75 0a 3c 7f 5c 41 3b
       0.008716778 -0.0063111563 0.008450893 0.0029504595
000200 8f 20 10 3b 8c 68 66 ba fa 96 74 3b 91 c9 0b bb
       0.0021992063 -0.00087893824 0.0037321434 -0.002132986
000210 f5 80 56 3b aa ef 03 3b b1 d2 cc b9 63 72 55 3a
       0.0032730673 0.0020131865 -0.0003906689 0.000814235
000220 b5 ea 99 3a 26 c9 bc ba 21 e3 a1 bb 01 59 4f 3b
       0.0011742922 -0.0014403209 -0.004940406 0.0031638744
000230 3f 2f 00 ba 90 8b 82 ba b9 36 65 39 df 73 18 bb
       -0.0004889853 -0.0009959806 0.00021859528 -0.0023262424
000240 50 11 09 3b 95 e0 84 bb a3 cf 05 bc 60 99 a5 bb
       0.002091486 -0.0040550926 -0.00816718 -0.005053684
000250 29 4f 94 bb 03 e9 83 bb f7 83 38 3b 20 19 43 3b
       -0.004526038 -0.00402558 0.002815483 0.0029769614
000260 40 ca 57 3b 9e 57 cd ba 84 8a 07 ba 25 6e 02 bb
       0.0032926947 -0.0015666371 -0.0005170482 -0.0019902077
000270 30 db 89 bb ff eb 08 3b c2 29 5f 3b 40 2a 9a 3a
       -0.0042070374 0.0020892618 0.003405199 0.0011761859
000280 52 46 dd ba 48 cc 59 bb 1c 7a 7f bb d5 1f 80 3a
       -0.0016881919 -0.0033233333 -0.0038982695 0.0009775112
000290 dc 20 cc 3a 2a 6d d9 3a 23 6a b2 ba 64 8e 26 3b
       0.0015573758 0.001658832 -0.0013611953 0.0025414461
0002a0 09 fa 0e bb 88 c9 7b 3b f0 7f b9 3b f9 88 0c bb
       -0.0021816513 0.0038419683 0.0056610033 -0.0021443947
0002b0 a2 f1 b1 bb c0 e7 c7 3b 73 04 c4 3a 57 82 ed 39
       -0.005430416 0.006100625 0.0014954939 0.00045301273
0002c0 76 5f 38 bb e6 26 4f ba e6 da b6 3b af 11 b2 bb
       -0.002813307 -0.00079022197 0.005580294 -0.005434237
0002d0 00 0c 99 3b cf e7 4a ba 74 c5 6e 38 a6 5d 3d 3b
       0.00467062 -0.00077402306 5.6927514e-05 0.002889493
0002e0 39 29 b9 39 2e 96 88 bb 3a ca 2c 3a 03 b6 62 3b
       0.00035316663 -0.0041682934 0.00065914134 0.003459335
0002f0 79 c1 1b bb f5 4f 0c bc a0 99 18 ba 36 9b f5 3b
       -0.0023766442 -0.008563985 -0.0005821232 0.007495309
000300 7a f3 0c 3b 17 ec d0 3a 28 ff b6 3b a0 b2 85 3b
       0.0021507428 0.0015939501 0.005584616 0.0040801316
000310 8b 56 0f 3c 86 ea 1e 3b 68 43 01 bc ee c7 9b bb
       0.008748661 0.0024248674 -0.007889606 -0.004754058
000320 4c 61 35 3b 0f d6 c4 b9 a7 2b 0f 3c fa 4d b2 ba
       0.0027676402 -0.0003754352 0.008738435 -0.0013603561
000330 e4 d1 81 3b 77 3b 99 3b 16 8e d3 3b 6b 56 0e 3b
       0.0039617885 0.004676278 0.006456147 0.002171899
000340 d6 de 68 3b b5 d7 8d 3b 6d 47 ed 3a 95 b9 4e 3b
       0.0035533211 0.004328693 0.0018102952 0.003154372
000350 6a 0a 11 3b 90 1b f2 3b 93 30 b3 3b dc f1 aa bb
       0.0022131451 0.0073885396 0.005468437 -0.00521682
000360 00 d9 e2 3a 92 4f 40 bb e2 33 21 bb f0 88 0c 3c
       0.0017307103 -0.0029344303 -0.0024597575 0.00857757
000370 9f 81 76 bb 4a 22 c9 3b 06 80 05 ba e2 02 bb bb
       -0.0037613881 0.006138121 -0.00050926243 -0.005707131
000380 b7 b2 46 bb 68 49 4c 39 dd 4d db ba 6e 1f 2a 3b
       -0.0030318925 0.00019482302 -0.0016731579 0.0025958675
000390 3b 54 48 3a 56 38 8e 3b 1c ea cc 3b 98 48 43 3b
       0.0007641946 0.004340212 0.006253494 0.0029797908
0003a0 46 a0 e0 3a 1b 6a e2 3a bb c6 02 bb b2 14 81 ba
       0.0017137609 0.0017274054 -0.0019954878 -0.0009848087
0003b0 c3 ae 1b bb 80 91 3c bb 21 67 7f 3b 44 df 4e ba
       -0.002375529 -0.0028773248 0.0038971382 -0.00078915455
0003c0 45 55 d2 39 3b f0 da 3b b1 90 89 bb db d8 88 bb
       0.00040117852 0.0066814697 -0.0041981568 -0.004176242
0003d0 37 64 58 3a 57 e5 a5 b9 88 82 95 3b 65 ea b4 ba
       0.0008254679 -0.00031642124 0.0045626797 -0.0013802765
0003e0 88 84 c3 bb e6 cc 03 3c 5d 04 41 39 91 ff 2c b9
       -0.0059667267 0.008044457 0.0001840754 -0.00016498404
0003f0 d5 b4 b1 3b 4e e9 fd 3a 29 a3 a4 bb 88 b5 79 3b
       0.005423168 0.0019371898 -0.005024333 0.0038102586

network_body._body_endoder.seq_layers.2.weight f4 [256, 256]
000000 a1 a7 f1 bb ca 4e 97 bd d7 97 3f bd c1 5a 96 bc
       -0.0073747193 -0.07388075 -0.046775665 -0.018353822
000010 2e a0 01 3d f0 24 29 3e 88 b8 70 3d 38 63 00 3d
       0.0316469 0.16517997 0.058769733 0.031344622
000020 5f fa 0d bd 6d 28 65 bd 4d 85 8e 3d eb 69 5c bc
       -0.0346626 -0.055946756 0.06959019 -0.013452987
000030 18 38 98 bc 78 95 4c bc e0 9e 28 3d b7 ec bd 3c
       -0.018581435 -0.012486808 0.04116714 0.023184163
000040 e8 64 4b 3d 12 0b 8e bc df 48 35 3d c5 2f 32 bd
       0.04965678 -0.017339263 0.04425895 -0.043502588
000050 51 c6 2f bd 61 b5 17 bd b7 bd 69 bd 64 cf 03 3e
       -0.04291374 -0.03703821 -0.05706569 0.12872082
000060 ab f2 17 3d 31 49 9d bd 2a 47 e8 3d 54 a4 dd bc
       0.03709666 -0.07679976 0.113416985 -0.027055897
000070 a4 52 cb 3c bd 0b 14 3d 23 93 81 3d c5 f5 9a b9
       0.02481968 0.036144007 0.06326892 -0.00029556282
000080 b0 1b 03 bd ed 50 f1 bc bd 19 8c bd 13 b7 23 b8
       -0.032008827 -0.029457534 -0.06840847 -3.903273e-05
000090 98 6f 3e be 98 76 9f 3d 3a 52 1d 3b a1 cc 30 be
       -0.18597257 0.07786292 0.002400531 -0.1726556
0000a0 97 36 18 bd b9 59 ab 3d 78 a4 c2 bb 7e 08 5a 3d
       -0.037161436 0.083667226 -0.0059400164 0.053230755
0000b0 20 66 fd 3c a6 95 37 bc 19 f4 25 bd 83 dd 66 bd
       0.030932486 -0.011205113 -0.040515993 -0.056363594
0000c0 3d d8 b6 3d 2a 87 d0 bc 72 ea e8 bd 68 0e 3f 3c
       0.08927963 -0.025455076 -0.11372842 0.01166115
0000d0 9c e3 40 bb 53 5b e0 3c df 5c 40 bd ac 86 b8 3d
       -0.002943254 0.027387297 -0.04696357 0.090100616
0000e0 90 59 35 39 26 4b 17 3d 66 2b 4d 3c c2 87 a1 3d
       0.0001729487 0.0369369 0.012522554 0.07887222
0000f0 04 4a 1f bd 5f ea 7f bb d1 a4 3c 3b 25 e9 02 3d
       -0.038888946 -0.0039049608 0.0028784762 0.031960625
000100 26 a0 c4 3d 99 97 8e bc 38 0a 86 3b d5 c7 84 bc
       0.096008584 -0.017406272 0.0040905736 -0.016208569
000110 fa fa 74 bd 72 31 8d 3d 5b cd f6 3d 48 ca 6f 3c
       -0.059809662 0.068941966 0.12050887 0.01463563
000120 0e 04 53 3d a7 3c 2a bd 83 ae a2 3d f1 f8 0c bd
       0.05151754 -0.04156175 0.07943442 -0.034417097
000130 c1 d2 21 3d b2 d3 cc 3c f2 7e d1 3b 39 fa ac 3b
       0.03950763 0.025003288 0.006393307 0.0052788523
000140 7a 04 28 3b 18 5b 46 bd 78 11 3a 3d 3d 36 b6 3d
       0.0025637434 -0.048426718 0.045426816 0.08897064
000150 8b 99 ee 3d 9e 33 96 3d 5e 94 df 3d 90 5c 7b 3c
       0.1165038 0.07334064 0.10916971 0.015341893
000160 35 1b 3f bb 4c 89 89 bc e6 40 88 3d 35 05 1a bd
       -0.0029160504 -0.016789101 0.066530034 -0.037602622
000170 4f 1d 23 bd ae 3d d5 bc 80 d6 93 bd d2 a1 8a bd
       -0.039822873 -0.026030388 -0.07218647 -0.06769146
000180 03 95 b3 bc 19 7e 1d 3b a2 19 e0 bd 8e a9 20 bd
       -0.02192164 0.002403146 -0.10942389 -0.0392242
000190 7d 9f db 3d 1c a8 59 bc 4f b5 41 bd 35 09 a6 3c
       0.10723779 -0.013284709 -0.04729205 0.020268062
0001a0 59 3f 1a 3d 64 7b 95 bd a3 a1 20 bc 89 cf 21 3d
       0.03765807 -0.072989255 -0.009804162 0.03950456
0001b0 83 54 e4 3c ae c9 e9 bc 3a 33 ac bc 65 d4 3d bc
       0.02787233 -0.028538551 -0.02102052 -0.011586283
0001c0 11 ab 5c 3b 41 fd 00 3d 25 f6 07 be 73 3b e6 bd
       0.00336713 0.03149152 -0.1327749 -0.11241808
0001d0 0e 42 bb 3c c9 c1 31 3e 9b a0 33 3d 77 23 c5 3d
       0.022858646 0.1735908 0.043854337 0.09625905
0001e0 ee b3 91 3a 35 32 71 bb 9a d7 5d 3d 8f 59 4b 3d
       0.0011116245 -0.0036803607 0.05416069 0.049645957
0001f0 c9 70 d3 bb 3d e6 72 bc 57 e2 a3 3c 48 03 30 bc
       -0.006452654 -0.014825401 0.020005388 -0.01074297
000200 96 88 ab 3d 21 29 88 bd 25 b5 c0 bc 4d 6e 94 bb
       0.08375661 -0.0664847 -0.023523876 -0.0045297504
000210 a3 d2 93 bd 87 23 0f bd 2a ab 75 3d 6e 05 0d be
       -0.0721791 -0.03494599 0.059977688 -0.13771603
000220 3a 97 31 bd 3d d9 b8 3c e6 0d c4 bd bd 47 49 3d
       -0.04335711 0.022564525 -0.095729634 0.04914068
000230 16 d9 e4 3c 44 f9 b2 bd 1a a6 66 bd cd 34 09 bc
       0.027935546 -0.0873895 -0.05631075 -0.008374405
000240 24 a2 fe bd 4c cd a1 bc fc 27 e8 ba bf 08 52 3d
       -0.124332696 -0.019751213 -0.0017712112 0.051277872
000250 cc c3 34 3c e9 88 c2 3d 30 6f cd bc 2b a6 4f bc
       0.01103301 0.0949877 -0.025077432 -0.012673895
000260 0e 96 cb bc 72 47 d2 3a f2 59 2a be 75 3c a6 bc
       -0.024851825 0.0016043021 -0.16635874 -0.0202925
000270 f6 8c 47 bd 6b a2 b8 bd 79 50 00 3a 08 7f e5 bd
       -0.048718415 -0.09015354 0.0004894804 -0.1120587
000280 5a 26 98 bc e6 54 c4 bc 37 ae a2 3c e3 db 52 bb
       -0.018572975 -0.023966264 0.019858463 -0.003217452
000290 66 1d a7 bc 44 98 74 3c fb 58 d9 3d f6 cb b3 bd
       -0.02039976 0.014928881 0.10612675 -0.08779137
0002a0 04 db e3 3d 4f e8 d1 3c 39 3a e3 bc 07 33 a0 bd
       0.11125758 0.025623469 -0.027737724 -0.07822233
0002b0 f0 63 8a bd e0 bd 1b bd a4 0a 10 3d e2 ae 59 3d
       -0.06757343 -0.038022876 0.035166398 0.053145297
0002c0 9c 23 31 3b 05 0e 07 bd f8 bd eb bc 8e f1 aa 3d
       0.0027029281 -0.032972354 -0.028777108 0.08346854
0002d0 75 cc 3b 3d 76 e7 3a 3c 93 94 c2 3c ff 52 8e bd
       0.045849282 0.011407724 0.023752486 -0.06949424
0002e0 08 41 ae bd da d6 77 3d c2 37 ce bd 85 6e 98 3c
       -0.085084975 0.060507633 -0.10069229 0.018607387
0002f0 26 d0 8f bd 59 8b 5c 3d d7 26 ee bc 6e e7 8b 3c
       -0.07022123 0.05384383 -0.029071255 0.017078128
000300 34 8b 3c bd 63 da f1 3b 20 02 eb 3b 78 2d fb 3d
       -0.046031192 0.00738077 0.007171884 0.12264532
000310 70 17 c5 3c 82 42 d4 b7 65 90 cf bc 18 c7 ce bd
       0.024059027 -2.530334e-05 -0.025337407 -0.10096568
000320 12 66 9e bc 45 5c ef 3d 2a 6e 04 3d c1 e0 13 3e
       -0.01933578 0.11687521 0.032331623 0.14441206
000330 a3 a2 1f bd 29 5d d6 3d 9b 84 a3 bb 6e fe f0 3c
       -0.03897346 0.10466988 -0.004990173 0.029418197
000340 b1 54 43 3b 28 4d 82 3d e5 93 6a 3c 12 92 f3 bd
       0.0029805119 0.06362373 0.014317487 -0.11893095
000350 e6 35 bc bc 07 5a 12 bd 34 c9 82 bd 56 71 22 bd
       -0.02297492 -0.035730388 -0.06386033 -0.039658867
000360 b9 67 7c 3d ed 15 b1 bd e5 05 8f 3d 48 fc f0 3c
       0.061622355 -0.0864676 0.06983546 0.029417172
000370 ec c0 a0 bc b0 a3 44 3c 42 01 4c 3d 04 2a 47 bd
       -0.019623242 0.012001917 0.049805887 -0.048624054
000380 d3 fe 81 bc bc a1 21 3c 4a b5 d7 bc 67 1c f7 3c
       -0.01586858 0.009865221 -0.026331563 0.03016491
000390 d4 87 30 3d a0 d7 d4 bc fc c2 9d bd 7a 76 12 be
       0.043098286 -0.025981724 -0.07703206 -0.14303008
0003a0 4f 2d b4 3d 7d 28 32 3d 1d b0 ef 3c 99 34 60 3d
       0.087977044 0.043495644 0.029258782 0.05473766
0003b0 20 68 1b 3d dc 82 01 3e f2 88 f0 ba 85 7d 0f bd
       0.0379411 0.12647575 -0.001835136 -0.035031814
0003c0 b4 d1 9e 3c a0 10 9c bc 2a e4 51 3d 03 99 d2 3c
       0.019387104 -0.019050896 0.051242985 0.025707727
0003d0 37 84 ea bd cc a5 b5 bd 1b a1 80 3d 75 1e f6 bc
       -0.11450999 -0.08869514 0.062807284 -0.03004382
0003e0 04 a6 c2 3c da 81 af bd 2f 7d d7 3d ac 18 25 3d
       0.023760803 -0.08569689 0.10521924 0.040306732
0003f0 38 c3 ac 3c fc 89 98 3c 42 04 5b 3c 55 de 53 3d
       0.021089181 0.018620484 0.013367714 0.051725704

network_body._body_endoder.seq_layers.4.bias f4 [256]
000000 58 60 88 bb e5 41 c9 ba 09 74 24 bb 3b ff 97 bb
       -0.0041618757 -0.0015354721 -0.0025093576 -0.00463858
000010 b0 49 4f 3b 5a b7 d4 bb 84 e0 99 3b 7b be 05 3b
       0.0031629615 -0.006491584 0.004695954 0.0020407725
000020 02 be ac bb ea af e0 3b f5 4a 88 bb 4c ff ae 3b
       -0.005271674 0.006856908 -0.004159326 0.0053404924
000030 0e d9 0d 3b 42 cf 68 bb 88 18 ef 38 a2 f5 47 ba
       0.0021644267 -0.0035523926 0.000114009774 -0.00076278497
000040 89 62 40 3b 36 e8 57 ba 60 e2 88 bb ad 3f 18 3b
       0.0029355607 -0.0008236201 -0.0041773766 0.0023231313
000050 99 b5 05 bb 38 86 fc ba c6 9d 2a 3b ce c4 0c bb
       -0.002040243 -0.0019266075 0.0026033982 -0.002147961
000060 be ce 24 3b 83 f9 b8 ba a4 e0 9a 3a a7 76 34 3b
       0.0025147642 -0.0014112446 0.0011816216 0.0027536543
000070 de fa 04 bb 54 eb 9b 3a 5e 6a ce 3b 86 d8 bf 3a
       -0.002029113 0.0011895695 0.006299301 0.0014636673
000080 8a bf 0f ba 58 0a 85 3b 12 57 61 bb 77 05 70 3b
       -0.00054835586 0.004060071 -0.0034384173 0.003662435
000090 3d 18 61 bb 20 ce 53 3b a5 ec 68 bb c1 09 90 3a
       -0.0034346723 0.0032318905 -0.0035541442 0.0010989235
0000a0 e2 cf fa 3a 4e 51 1a ba 40 99 5e bb d6 88 01 3c
       0.001913544 -0.0005886749 -0.0033965856 0.007906159
0000b0 41 f9 8a 3a 4d 06 a9 3b 68 46 23 3b 95 48 04 ba
       0.0010602848 0.005158222 0.0024913792 -0.0005046216
0000c0 5f 52 10 bb 80 51 48 bb 08 cc f8 3b 39 ea 70 ba
       -0.0022021753 -0.0030566156 0.007592682 -0.00091901753
0000d0 d0 5e 0c 35 e7 64 c9 3a 42 4b 87 bb 0c 96 6b 39
       5.2292035e-07 0.0015365154 -0.0041288445 0.00022467243
0000e0 7d 40 0f 3b d6 fb fc ba c5 00 18 3b 62 c8 2c 3a
       0.0021858506 -0.0019301127 0.0023193818 0.00065911387
0000f0 e6 54 b7 3a a2 b8 3a 3b 7f 5e 38 3a a9 74 e9 3a
       0.0013987094 0.0028491397 0.0007033124 0.0017811257
000100 af 35 4c 3b 7c 38 15 b9 43 52 ce 38 0d e0 29 3b
       0.0031159928 -0.0001423079 9.838168e-05 0.0025920898
000110 fc 19 9d 39 09 f7 81 3a 60 2a f9 3b 88 25 5d bb
       0.00029964733 0.0009915541 0.0076039284 -0.0033744294
000120 8b 3e 4b bb a2 66 57 3b 7f 23 3a 3b 96 93 09 3b
       -0.003101262 0.003286757 0.0028402505 0.002099251
000130 10 cd 85 3b 1b 81 42 ba ef 7f 48 bb 57 39 71 bb
       0.0040832832 -0.0007419751 -0.0030593832 -0.003680786
000140 26 73 bd 3a d7 cb 95 bb 96 8f 96 bb 38 58 79 bb
       0.0014453873 -0.0045714187 -0.0045947535 -0.0038046967
000150 4e d1 88 bb 2a 55 9a 39 5e 46 2f 3b 1a e1 04 3b
       -0.0041753417 0.0002943662 0.0026744823 0.0020275773
000160 e6 f9 d4 3a 0d e3 f5 3a 76 4b 8d 3a 87 68 50 3b
       0.0016248792 0.0018759683 0.0010779935 0.0031800584
000170 45 67 8a bb bc 5d 30 bb cd e2 a5 bb 10 bc 27 3b
       -0.0042237365 -0.0026911339 -0.005062437 0.0025594272
000180 e0 9e 63 bb 6f 0a f4 3a 5c 63 18 ba 3f 2a 51 ba
       -0.0034732148 0.0018618832 -0.00058131455 -0.00079790124
000190 d3 b2 be 3b b4 ab b2 3b 01 47 96 bb fc e4 17 3a
       0.0058196574 0.0054525975 -0.004586101 0.0005794314
0001a0 38 03 4e bb 97 7e af bb 3d f5 fd 3a 1a cc 4c bb
       -0.0031435024 -0.005355667 0.0019375455 -0.0031249584
0001b0 7e 5d b9 3b 3c 0b 9b bb a2 25 84 bb 9a 48 96 3b
       0.005656897 -0.004731564 -0.0040328065 0.0045862915
0001c0 14 86 6c 3b 48 d3 94 3a 1b c1 99 bb 6d b8 7b 3b
       0.003609066 0.0011354471 -0.0046922094 0.0038409487
0001d0 05 fa c0 ba ab d6 a7 bb d2 5d a3 3b 3f 8d 64 bb
       -0.0014722949 -0.005122026 0.0049855495 -0.0034874228
0001e0 ae ec 6b 3a cc cb 2d bb 9c 0f 2f 3b bd 9c 30 bb
       0.00089998066 -0.0026519177 0.0026712185 -0.0026948892
0001f0 c7 20 4b 3b a0 cd 68 39 e7 b5 59 b9 25 ea c9 39
       0.0030994879 0.00022201845 -0.00020762497 0.0003851216
000200 4d 0d 90 3b 23 cf ad 3b 98 b8 97 3b 3c be 8b bb
       0.004396117 0.0053042336 0.0046301596 -0.004264621
000210 e0 72 97 bb 32 d4 93 bb d7 db a8 3b 82 d4 25 38
       -0.0046218485 -0.0045113796 0.00515316 3.953698e-05
000220 ee 2a 4e ba 32 ab 2e bb a3 e1 8b 3b 0a 1e a5 3b
       -0.00078646734 -0.0026652333 0.0042688414 0.0050389813
000230 cd 7c b3 ba ce aa 62 3b fd 9d 8c 3b 1b e2 50 bb
       -0.001369381 0.003458667 0.0042912946 -0.003187305
000240 c6 d7 52 3b af 2c 4c 3b c7 e7 93 ba 1f b7 88 3a
       0.0032172068 0.0031154563 -0.0011284285 0.0010430551
000250 09 e4 fe b9 bd b9 58 bb 35 7b 2b bb 9e 55 dc 3b
       -0.00048616555 -0.0033069693 -0.0026165966 0.0067240736
000260 c7 9d b5 3b 2d e0 1c 3b 2d 9a 4a bb bf 1a 72 3b
       0.00554249 0.002393733 -0.003091465 0.0036942211
000270 85 94 01 3b 53 fd 77 bb 1e 37 84 3a 16 32 88 3b
       0.0019772362 -0.0037840202 0.0010087227 0.0041563613
000280 ef c6 e4 ba 0a f4 36 3b 6b d2 db 3b f3 73 0b ba
       -0.0017454306 0.0027916455 0.0067084334 -0.0005319707
000290 78 70 1b 3b 3c 7d 8c 3b f2 b5 54 3b ee b8 a4 bb
       0.002371816 0.00428739 0.003245708 -0.005026928
0002a0 aa 70 7c ba 47 67 2d 3a ba a8 10 3b 60 fa 5f bb
       -0.00096298254 0.0006614816 0.0022073225 -0.0034176335
0002b0 35 60 81 3b 6b d6 3f bb 89 fe 12 3b 5d 29 2d bb
       0.0039482363 -0.002927209 0.0022429547 -0.002642236
0002c0 f1 b3 14 ba 88 99 a9 3b 7b b0 c8 ba 88 a0 63 3b
       -0.00056725653 0.005175773 -0.0015311384 0.0034733135
0002d0 fe 92 6f bb 57 9e 31 3b 33 d3 05 bb a8 8d 38 3b
       -0.003655612 0.0027102435 -0.0020420074 0.0028160606
0002e0 21 21 89 3b be 54 95 3b b4 0b 68 3b e8 72 c1 b9
       0.0041848575 0.004557221 0.0035407366 -0.0003689744
0002f0 ed b3 93 3b 6c bd b3 3b b7 c9 fc b9 f8 e5 2b bb
       0.004507533 0.0054852273 -0.00048215475 -0.0026229601
000300 7d 0f 2c bb b4 60 22 bb 8f ff ab bb 46 56 5f 3b
       -0.002625435 -0.0024776878 -0.005248971 0.0034078523
000310 0c 0b 13 bb a0 6f 66 3b bd c8 9d 3b 8d 33 85 ba
       -0.0022437004 0.0035161749 0.0048151896 -0.0010162458
000320 7f 28 07 bb 0e c5 b1 3b b3 ad c5 3b 99 f6 67 bb
       -0.0020623503 0.005425102 0.0060326695 -0.0035394786
000330 65 af 8b 3b 6a 58 55 3b 42 b3 33 bb 15 75 03 bb
       0.004262852 0.003255392 -0.0027420078 -0.00200588
000340 48 be 70 ba 24 6d 59 3b 33 88 42 bb 51 3b 64 3b
       -0.00091836276 0.0033176625 -0.0029683232 0.0034825394
000350 1a e4 4c 3b e8 ea bb 3b 8b c9 9d bb 61 ca 8e 3a
       0.0031263889 0.00573479 -0.0048152856 0.0010894054
000360 78 7d ff 38 85 35 19 3b 1c f9 79 bb 78 e5 1b bb
       0.00012182718 0.0023377847 -0.0038142866 -0.0023787897
000370 b6 d1 b4 bb 99 7d 62 bb 93 16 0c 3a 40 ff 77 bb
       -0.0055181636 -0.0034559725 0.000534394 -0.003784135
000380 fb f7 3d bb 83 88 f1 3b b1 35 91 b9 d7 0d 5f bb
       -0.002898692 0.00737101 -0.00027696558 -0.0034035349
000390 83 14 a7 3b 63 8e e7 3a 89 f2 64 bb c1 7f 0c bb
       0.0050988807 0.0017666336 -0.0034934601 -0.0021438452
0003a0 c2 c6 5b ba 10 06 3b 3b e7 9b 88 bb 06 8c a9 3a
       -0.0008383804 0.002853755 -0.0041689756 0.0012935407
0003b0 97 1e 26 3b 4f fb c4 3b 8f 2f c8 3b f1 cf 13 bb
       0.0025347823 0.0060114036 0.006109185 -0.0022554363
0003c0 d5 f9 73 3b f8 bb 11 bb ca 43 87 bb 59 28 46 3b
       0.003722777 -0.0022237282 -0.004127954 0.0030236451
0003d0 3b 2b ac 3b f1 86 96 3b ed 2d 98 3a a4 4f 56 39
       0.005254177 0.004593723 0.0011610367 0.00020438299
0003e0 0d 8f 90 3b 5e 03 3e bb 4a 6d 0a 3b 9a f7 1f 3b
       0.004411584 -0.0028993706 0.002112227 0.0024409057
0003f0 6d 67 ba 3b f1 53 fd 3a 0c 1e 50 3b b1 f0 54 bb
       0.005688599 0.0019327385 0.003175619 -0.0032492096
