Assets/Training/results/lrdec/parking/parking-5999972.onnx (onnx, 608683 bytes, 13 tensors)

65 f4 [68]
0.35745305 0.40505478 0.23076642 0.2100669 0.3380125 0.3830297 0.21172859 0.1940863
0.4088795 0.43602604 0.20290728 0.2267896 0.40005285 0.43940154 0.2398967 0.26388934
0.37150976 0.4708673 0.3724471 0.24722816 0.49861354 0.4824419 0.29176787 0.36622846
0.4235672 0.48692787 0.35901794 0.28308913 0.47749272 0.45726624 0.2249085 0.3435188
0.49990022 0.49128434 0.2753536 0.29907164 0.49928892 0.49794704 0.25605515 0.37125465
0.41638544 0.49982205 0.4533496 0.2555343 0.48123282 0.44817933 0.30941975 0.34261212
0.46796638 0.43990907 0.33429152 0.25542876 0.4997147 0.25306746 0.028620154 0.22305503
0.39549375 0.31565645 0.020558044 0.17625594 0.47606006 0.23221087 0.023409262 0.18113242
0.47606006 0.2322109 0.023409262 0.1811324
00000000: 1604 b73e 5763 cf3e 084e 6c3e c71b 573e
00000010: f90f ad3e 781c c43e 61cf 583e 8fbe 463e
00000020: a758 d13e ce3e df3e edc6 4f3e 883b 683e
00000030: bad3 cc3e 3df9 e03e 7ba7 753e 811c 873e
00000040: 8736 be3e 8515 f13e 63b1 be3e 6129 7d3e
00000050: 464a ff3e a002 f73e 9962 953e 4c82 bb3e
00000060: cddd d83e 9c4e f93e 33d1 b73e 0ff1 903e
00000070: ed79 f43e cd1e ea3e 6a4e 663e b2e1 af3e
00000080: ecf2 ff3e 9f89 fb3e 26fb 8c3e eb1f 993e
00000090: cca2 ff3e eaf2 fe3e a919 833e 1715 be3e
000000a0: 7930 d53e ade8 ff3e 701d e83e 64d5 823e
000000b0: 2664 f63e c377 e53e 446c 9e3e db6a af3e
000000c0: 4a99 ef3e c33b e13e 4228 ab3e 8fc7 823e
000000d0: 9bda ff3e 0f92 813e d074 ea3c 8a68 643e
000000e0: 287e ca3e b99d a13e 5869 a83c 707c 343e
000000f0: 25be f33e b0c8 6d3e c8c4 bf3c c77a 393e
00000100: 25be f33e b2c8 6d3e c8c4 bf3c c67a 393e

68 f4 [6]
1.9535981 3.0730588 0.004522096 0.0028867049 2.561783 95.777794
00000000: 810f fa3f ffac 4440 172e 943b df2e 3d3b
00000010: 41f4 2340 3b8e bf42

action_model._continuous_distribution.log_sigma f4 [1, 2]
0.011515468 0.004384489
00000000: 60ab 3c3c c2ab 8f3b

action_model._continuous_distribution.mu.bias f4 [2]
0.00044639074 0.0022852912
00000000: 8d09 ea39 d3c4 153b

action_model._continuous_distribution.mu.weight f4 [2, 256]
-0.033890713 0.018896492 -0.0025340132 0.008099321 0.028536184 -0.010156141 -0.037795123 -0.02178577
-0.017824814 -0.010734972 -0.027155273 0.009375195 -0.019974232 0.007755182 -0.020692838 0.022684395
0.0030804542 0.0050601577 0.01347229 -0.002306118 0.02375246 -0.017367689 0.0044548144 -0.021451654
0.013254737 0.021800084 0.020630931 -0.011174541 -0.045438424 0.030805552 0.028682575 -0.01965534
0.030144589 0.010476543 0.00452531 0.020266898 -0.03583604 0.0039087343 0.013625929 0.020772535
0.002660664 0.005225683 -0.014279292 -0.008445398 -0.021679085 0.008129603 0.02047938 -0.010905334
0.021387722 0.031441454 -0.009029728 -0.02691519 0.0022984755 -0.006470858 -0.041630425 -0.01659433
-0.014671393 -0.015603232 -0.024712784 0.0071561355 -0.015057585 0.016167164 -0.035483334 -0.022512587
-0.0140539585 0.01165236 -0.0023513983 -0.030408103 0.04151775 0.014814042 0.0041502565 -0.00012981438
0.0021488008 -0.020551287 0.027431805 0.012105954 -0.02850956 0.012498214 -0.008333255 -0.02334452
0.020364052 -0.017532568 0.0006651243 -0.008635343 0.008082199 0.011088029 -0.012578297 0.007561136
0.0011367921 -0.040265005 0.03421187 -0.0023917933 -0.00857052 0.040484507 -0.016266 0.0063026985
-0.009651444 -0.031115603 -0.028956834 0.02988043 -0.011420842 0.0027017042 -0.007990319 -0.025561262
-0.0060456386 -0.0197174 -0.0069054486 0.021043379 -0.011609403 -0.027317867 -0.016906157 -0.018619882
-0.028233645 -0.02012169 0.01153123 -0.021282436 -0.025378034 0.009663614 -0.030019056 0.0029812776
-0.014619709 0.001836946 0.016155602 -0.0046920944 -0.023296982 0.031996753 -0.011647394 -0.023535755
0.017201962 0.0167961 0.009004792 -0.03570121 -0.009208986 0.023768216 -0.015920583 0.0024863817
-0.03561718 -0.012260678 -0.016126253 -0.010036432 0.029468268 0.0014359569 -0.017808935 -0.012017355
0.0016648829 0.031198254 0.022208592 0.01141242 0.022288123 -0.02745208 -0.011027451 0.028382823
0.0034071226 -0.009068445 0.0044547915 -0.01178016 -0.019975519 -0.027125679 -0.02678776 -0.011401482
-0.039090876 0.015199409 0.04647587 -0.025950404 0.012737258 -0.010575246 0.0006105992 -0.016656417
-0.011916337 -0.011719653 0.0011614527 -0.010368248 0.021953218 -0.014951161 0.0016508517 -0.011545114
0.0074996315 0.019399637 -0.0049635745 0.0007274614 -0.041188687 -0.007222618 0.012982865 0.014422512
0.02429866 -0.018370394 -0.021509334 0.0054194005 -0.036252648 -0.014937349 -0.0033242973 -0.018629003
-0.02247353 -0.027388375 -0.009271186 -0.014235859 -0.040372502 -0.0077830963 0.02479092 -0.011959862
0.010204648 -0.010616888 -1.7250793e-05 -0.019438485 0.013906332 -0.02897919 0.0057785655 0.0058595394
-0.0033737011 0.009474668 0.027302077 0.011299619 -0.014666476 0.002610996 -0.04719118 0.032327745
0.045329183 0.014516237 -0.02005852 -0.007184975 -0.017709725 -0.01873941 -0.0062277648 -0.016442852
-0.021644104 -0.017351666 -0.0321762 0.015858352 0.026934067 -0.020339938 -0.021237677 -0.0002808572
-0.017345464 0.027567385 -0.025099877 0.030266324 0.018464038 -0.030526314 0.0027724747 -0.046120506
0.003599073 0.04501493 -0.011076478 -0.023269434 -0.030798567 0.013161382 -0.030170536 0.026637195
-0.038017653 0.010860185 -0.00860375 0.014143393 -0.014564569 0.030271007 -0.030203955 -0.014824448
00000000: fdd0 0abd d1cc 9a3c b011 26bb 04b3 043c
00000010: b7c4 e93c f165 26bc 0fcf 1abd 1278 b2bc
00000020: 5805 92bc bce1 2fbc bc74 debc 6b9a 193c
00000030: 00a1 a3bc 2f1f fe3b 0784 a9bc a0d4 b93c
00000040: 72e1 493b aecf a53b e1ba 5c3c 3d22 17bb
00000050: 8594 c23c af46 8ebc b1f9 913b 61bb afbc
00000060: 652a 593c 1796 b23c 3302 a93c 6c15 37bc
00000070: a41d 3abd ed5b fc3c b8f7 ea3c 3c04 a1bc
00000080: c9f1 f63c cea5 2b3c 0d49 943b c406 a63c
00000090: d0c8 12bd d714 803b 4a3f 5f3c 2a2b aa3c
000000a0: 895e 2e3b 353c ab3b b1f3 69bc 915e 0abc
000000b0: 5698 b1bc 0732 053c 5fc4 a73c 49ac 32bc
000000c0: 4e35 af3c c1c8 003d 6df1 13bc 3f7d dcbc
000000d0: 05a2 163b 7e09 d4bb aa84 2abd d5f0 87bc
000000e0: 4860 70bc b3a4 7fbc 7772 cabc 047e ea3b
000000f0: 17b4 76bc 0071 843c f956 11bd 516c b8bc
00000100: 9342 66bc 8ae9 3e3c eb19 1abb 6a1a f9bc
00000110: 840e 2a3d 98b6 723c e0fe 873b c81e 08b9
00000120: e5d2 0c3b 2c5b a8bc aab8 e03c 0d58 463c
00000130: e18c e9bc 4fc5 4c3c 3488 08bc 023d bfbc
00000140: 83d2 a63c 76a0 8fbc bc5b 2e3a 417b 0dbc
00000150: 336b 043c 90aa 353c 3415 4ebc 68c3 f73b
00000160: 6a00 953a ebec 24bd bf21 0c3d a2bf 1cbb
00000170: 5e6b 0cbc 15d3 253d 4640 85bc de86 ce3b
00000180: 1721 1ebc 26e6 febc e236 edbc cec7 f43c
00000190: 7c1e 3bbc 130f 313b d4e9 02bc da65 d1bc
000001a0: 7e1a c6bb 6386 a1bc 1a47 e2bb 2a63 ac3c
000001b0: 5e35 3ebc b8c9 dfbc c87e 8abc b988 98bc
000001c0: 3f4a e7bc 3ed6 a4bc 7ced 3c3c 8158 aebc
000001d0: 98e5 cfbc 2354 1e3c 86ea f5bc 8a61 433b
000001e0: 8187 6fbc aec5 f03a c158 843c 24c0 99bb
000001f0: 50d9 bebc 070f 033d b6d4 3ebc 0ece c0bc
00000200: 21eb 8c3c fa97 893c d688 133c 6f3b 12bd
00000210: 49e1 16bc 90b5 c23c e26b 82bc 90f2 223b
00000220: 52e3 11bd 03e1 48bc 341b 84bc d96f 24bc
00000230: 7067 f13c b836 bc3a 0be4 91bc 71e4 44bc
00000240: 3338 da3a 7b93 ff3c cbee b53c 29fb 3a3c
00000250: 9595 b63c 2fe3 e0bc 7bac 34bc 1883 e83c
00000260: 084a 5f3b d193 14bc 80f9 913b 9201 41bc
00000270: b3a3 a3bc ac36 debc 0172 dbbc 48cd 3abc
00000280: c11d 20bd f106 793c 7b5d 3e3d f195 d4bc
00000290: efaf 503c cc43 2dbc 9e10 203a 0a73 88bc
000002a0: bd3c 43bc ca03 40bc e33b 983a 96df 29bc
000002b0: 3cd7 b33c b7f5 74bc 6461 d83a b827 3dbc
000002c0: 78bf f53b fdeb 9e3c 7ba5 a2bb 1cb3 3e3a
000002d0: 78b5 28bd b6ab ecbb 15b6 543c 664c 6c3c
000002e0: fc0d c73c 827d 96bc 5834 b0bc 3a95 b13b
000002f0: a87d 14bd c8bb 74bc 74dc 59bb da9b 98bc
00000300: 691a b8bc 965d e0bc 2ce6 17bc 853d 69bc
00000310: a35d 25bd 5809 ffbb 5416 cb3c 4cf3 43bc
00000320: 6531 273c 75f2 2dbc ccb5 90b7 753d 9fbc
00000330: 62d7 633c c465 edbc 1f5a bd3b 6101 c03b
00000340: 5019 5dbb a33b 1b3c 9ba8 df3c 0a22 393c
00000350: a94b 70bc 3e1d 2b3b 8a4b 41bd 196a 043d
00000360: 18ab 393d 83d5 6d3c c451 a4bc f06f ebbb
00000370: fc13 91bc 6483 99bc 4712 ccbb 29b3 86bc
00000380: fa4e b1bc 1525 8ebc 31cb 03bd 60e9 813c
00000390: d5a4 dc3c f19f a6bc a3fa adbc 0440 93b9
000003a0: 1318 8ebc ffd4 e13c 429e cdbc 15f1 f73c
000003b0: e541 973c 5212 fabc 68b2 353b dbe8 3cbd
000003c0: 6dde 6b3b 9361 383d 1e7a 35bc 8a9f bebc
000003d0: 474d fcbc d6a2 573c 3328 f7bc 3f36 da3c
000003e0: 66b8 1bbd ebee 313c bef6 0cbc b1b9 673c
000003f0: 3ba0 6ebc e7fa f73c 496e f7bc 3ee2 72bc

network_body._body_endoder.seq_layers.0.bias f4 [256]
-0.0002843596 0.0055258763 0.01340626 0.0046426244 -0.0029607213 0.013414052 -1.6385526e-05 -0.00366933
0.0038110926 0.004373365 0.0003235236 -0.012687714 -0.00926968 0.004237308 0.013417647 0.0045162616
0.0104058115 0.0033636806 0.011934782 -0.0037022892 0.0041350247 0.012712178 0.008413426 0.0054795407
0.009603895 0.0049120737 0.0134750735 0.0027263127 -0.00510165 0.003909428 0.012956611 0.016944496
0.0024290506 -0.0010431921 0.008421791 0.0050801747 0.0027036157 0.0044191084 0.008422186 0.0024638346
0.009641023 0.0043413695 0.011754031 0.01415932 0.008087806 0.0064393347 0.002245554 -0.005882602
0.0061163544 0.0076276436 0.013587895 0.013736905 0.0187044 0.010257794 0.013707711 0.0044472455
0.0071066245 0.008504491 0.015170076 0.015387053 -0.0068087336 0.016029548 0.011276584 0.009195724
0.011639987 0.0052860472 0.0050572157 -0.0020282897 0.010525569 0.00633089 0.012586189 0.014937746
0.01427596 0.0059971814 0.000863156 0.0062969932 0.005345177 0.0008211708 0.010995452 0.004138615
0.00823757 0.01294046 0.008280791 0.009828844 -0.009781629 0.016048495 0.013932907 0.010952618
0.017404014 0.005753779 0.015479307 0.014343286 0.0112380935 0.008660249 0.01354326 0.001397066
0.0019671076 0.016939636 0.006200956 0.00062030426 -0.00082620245 -0.00048734405 0.014697307 -0.009756012
0.002871178 0.0071292743 0.009694147 0.0023053417 0.009701219 0.01221281 0.0067701694 0.00706224
0.003353929 0.007090927 0.018588584 0.017091967 -0.0055729495 -0.0012608068 0.0087513095 0.016379388
0.008648981 0.008761047 0.0037337819 0.01579928 0.010706357 0.016925756 0.009669971 0.0068915063
0.017866263 0.006786967 0.0012041008 0.012263347 0.009998657 0.0070199054 -0.0065360037 0.009466604
-0.0036395004 0.005809779 0.008655192 0.0062474394 0.00798407 0.0040922775 0.009417857 0.013138455
0.008381081 -0.0025828588 0.0108330455 0.00202525 0.005828839 0.013212442 0.00667131 0.009946914
0.010708117 0.010954327 0.0065146694 0.009202479 -0.0077749137 0.00055496785 0.0038336355 0.0032104275
-0.0054259603 0.020774502 0.010070859 0.011416536 0.0044843126 0.0062092817 0.0070999307 0.016408684
-0.0097427685 0.011030539 -0.0020813346 0.0033558619 0.0023960182 0.021973021 0.012884283 -0.005836607
0.004408444 0.0032904863 0.011365604 -0.0043680556 0.013888788 -0.011528696 0.006261971 0.009275349
0.008824909 0.010677006 0.0063784993 0.013774806 0.006911242 0.007680265 0.016494317 0.005040716
0.005361518 0.004195118 0.0138677135 0.011524978 -0.0019769368 -0.009622594 0.0050904546 0.006233076
0.007627436 0.005485054 0.014125969 0.014890914 0.018708613 0.0004992146 0.02003876 0.012436752
0.0023962078 0.014911933 0.017559797 0.005969995 0.02076549 0.009512924 0.0008100993 0.0038186205
3.318471e-05 0.003850848 -0.010610684 0.0031874138 0.005538753 -0.014566596 0.0030782404 0.008260202
0.0029692885 0.018675135 0.009293794 0.019363677 0.003256863 0.01013689 0.01598382 0.013685245
0.012405321 0.018633941 0.010666217 0.005198324 -0.01669623 0.018340204 0.01628856 -0.008746321
0.0073056556 0.016054953 0.022269953 -0.005274158 0.005912622 0.009572722 -0.0010410307 0.008905184
-0.00015571482 0.01178364 0.0049197 0.022564724 0.011426522 0.0009457853 0.008067442 0.005301167
00000000: 1916 95b9 6912 b53b eea5 5b3c 2821 983b
00000010: a908 42bb 9dc6 5b3c a673 89b7 2479 70bb
00000020: 86c3 793b 724e 8f3b 9a9e a939 21e0 4fbc
00000030: dbdf 17bc 1ed9 8a3b b1d5 5b3c 26fd 933b
00000040: 237d 2a3c 3271 5c3b 1b8a 433c 1ba2 72bb
00000050: 1a7f 873b bd46 503c 77d8 093c b88d b33b
00000060: a859 1d3c 76f5 a03b 8ec6 5c3c f0ab 323b
00000070: be2b a7bb a91a 803b f747 543c 2fcf 8a3c
00000080: b530 1f3b b8bb 88ba 8dfb 093c 9877 a63b
00000090: 252f 313b 2bce 903b 35fd 093c 4978 213b
000000a0: 62f5 1d3c 0c42 8e3b fb93 403c 7efc 673c
000000b0: b882 043c 0e01 d33b 252a 133b d8c2 c0bb
000000c0: b36b c83b 50f1 f93b c39f 5e3c c110 613c
000000d0: f839 993c 4e10 283c 4f96 603c 33ba 913b
000000e0: b0de e83b 6c56 0b3c e98b 783c fa19 7c3c
000000f0: cc1b dfbb 6650 833c 6cc1 383c a9a9 163c
00000100: a5b5 3e3c 9436 ad3b 00b7 a53b 0eed 04bb
00000110: 7073 2c3c 5b73 cf3b 4e36 4e3c 73bd 743c
00000120: b7e5 693c 0184 c43b 6b45 623a 0257 ce3b
00000130: 9826 af3b d743 573a 4526 343c 389d 873b
00000140: dff6 063c 3904 543c 28ac 073c 2909 213c
00000150: 2043 20bc 2278 833c d946 643c 9c72 333c
00000160: dd92 8e3c 328a bc3b eb9c 7d3c 1a00 6b3c
00000170: fb1f 383c b8e3 0d3c 8de4 5d3c c21d b73a
00000180: 97ea 003b fec4 8a3c 6431 cb3b ea9b 223a
00000190: 8295 58ba 3682 ffb9 f9cc 703c aed7 1fbc
000001a0: 602a 3c3b b09c e93b 33d4 1e3c 3715 173b
000001b0: ddf1 1e3c 3d18 483c 4cd8 dd3b 5d6a e73b
000001c0: 97cd 5b3b 025b e83b 1647 983c 7404 8c3c
000001d0: 4a9d b6bb a841 a5ba a761 0f3c 112e 863c
000001e0: 75b4 0d3c 7f8a 0f3c 77b2 743b 7e6d 813c
000001f0: b769 2f3c e2a7 8a3c cc6e 1e3c 25d2 e13b
00000200: 455c 923c 3565 de3b ebd2 9d3a 35ec 483c
00000210: 68d1 233c 3c07 e63b f92b d6bb d119 1b3c
00000220: af84 6ebb f55f be3b 82ce 0d3c 52b7 cc3b
00000230: 9ecf 023c 8318 863b 5b4d 1a3c ad42 573c
00000240: cd50 093c 2e45 29bb 167d 313c 0fba 043b
00000250: d8ff be3b 0079 583c 019b da3b 62f8 223c
00000260: 1971 2f3c c779 333c 0279 d53b ffc5 163c
00000270: b4c4 febb 437b 113a bb3d 7b3b 0966 523b
00000280: 41cc b1bb 4a2f aa3c 3f00 253c 6c0c 3b3c
00000290: 24f1 923b 3b77 cb3b 89a6 e83b 816b 863c
000002a0: 22a0 1fbc 6fb9 343c 0067 08bb 05ee 5b3b
000002b0: 8406 1d3b c400 b43c 9a18 533c 0241 bfbb
000002c0: b574 903b 33a5 573b cc36 3a3c e821 8fbb
000002d0: cd8d 633c dbe2 3cbc 3831 cd3b a2f7 173c
000002e0: 5a96 103c 9cee 2e3c bb02 d13b b9af 613c
000002f0: b377 e23b bbaa fb3b 171f 873c 972c a53b
00000300: acaf af3b 3377 893b 6835 633c 43d3 3c3c
00000310: 7f8f 01bb 16a8 1dbc d4cd a63b d53e cc3b
00000320: 92ef f93b f8bb b33b 9c70 673c 05f9 733c
00000330: ce42 993c badd 023a 5328 a43c 85c3 4b3c
00000340: b209 1d3b 2e51 743c 90d9 8f3c f39f c33b
00000350: 641c aa3c 18dc 1b3c d85c 543a d241 7a3b
00000360: d02f 0b38 825e 7c3b 6fd8 2dbc eee3 503b
00000370: 6d7e b53b bba8 6ebc 4ebc 493b cc55 073c
00000380: 6598 423b 99fc 983c ff44 183c 93a0 9e3c
00000390: 1871 553b 3315 263c 80f0 823c 1438 603c
000003a0: b03f 4b3c 35a6 983c 5bc1 2e3c b456 aa3b
000003b0: 88c6 88bc 323e 963c 966f 853c bb4c 0fbc
000003c0: 4864 ef3b ad85 833c 7a6f b63c d8d2 acbb
000003d0: abbe c13b e8d6 1c3c 3273 88ba 0de7 113c
000003e0: 6147 23b9 2b10 413c 6f35 a13b a8d9 b83c
000003f0: 4f36 3b3c 94ee 773a 4e2d 043c 69b5 ad3b

network_body._body_endoder.seq_layers.0.weight f4 [256, 74]
-0.010173132 0.073990546 -0.07679049 0.06815847 0.084758066 0.08653652 -0.0610133 -0.093133114
0.06806436 0.13547955 -0.026813269 0.17295843 -0.0483398 0.094315305 -0.018953454 0.047268797
-0.08200924 -0.039038833 -0.14012443 -0.17822586 0.033631466 0.014357387 0.10489714 -0.034143124
0.030057617 0.08221552 -0.13667774 0.13233925 0.03955856 -0.24187717 0.12868765 -0.06622607
-0.10377634 -0.12862793 -0.10695889 -0.18101509 -0.082640536 -0.009648665 -0.1447547 0.009148171
0.075383686 -0.12639123 0.1941636 -0.08264925 0.08426814 0.19601049 0.0688158 -0.16823465
-0.113628246 -0.10299587 0.06603261 0.0953461 0.0072079105 -0.014799847 0.21601538 0.14378065
-0.18540204 0.24652846 0.075076506 -0.0324804 -0.054929193 -0.023097811 0.18702093 0.24035925
-0.017557532 0.13693433 -0.048822444 0.116897866 -0.020375308 -0.010273022 -0.03200452 0.04403335
-0.05271969 -0.03428212 -0.10366374 0.016297748 -0.04872056 -0.017654033 -0.14818671 -0.013359101
-0.068023264 0.06958851 -0.056129225 0.18283531 -0.08236646 0.007133185 0.1058447 0.07876915
-0.16402829 0.09244563 0.130853 0.10019078 -0.02719587 0.15900777 -0.05741618 -0.10589431
-0.011785314 0.044704966 -0.111061335 0.17197181 0.09872487 -0.043218106 -0.03560844 -0.031600434
0.02364873 0.08968944 -0.09530496 0.11607442 0.04346046 0.07466339 0.17042492 0.0031907512
-0.07569686 -0.16172428 0.04015636 -0.13728382 0.06350374 0.029823221 0.09639273 0.10308944
-0.0073184334 0.005943077 0.09651145 -0.15701884 0.002291316 -0.016784439 -0.038156234 0.07112878
-0.1289253 0.19855231 0.0016439145 0.08394009 0.14055684 -0.09408854 -0.058201734 0.08179005
0.043769673 -0.0288483 0.0016997032 0.14418788 0.072817445 0.029334255 -0.012088648 -0.03224734
-0.050565757 0.20143022 0.12734099 -0.035004564 0.13629232 -0.13738376 0.026129216 -0.05301939
-0.16095813 0.09988506 0.150481 -0.004569467 0.07008182 0.06390659 0.011492214 -0.19435906
0.21793139 -0.027096732 -0.18942432 0.046829928 0.09541498 0.051145095 -0.041871864 -0.18477784
-0.1332507 -0.02304672 -0.13021961 0.074185535 0.118085735 -0.032222897 0.25148228 0.15085384
0.22031072 -0.0055329176 -0.02107373 0.015372279 0.09205324 0.050687764 -0.03981406 -0.052477974
0.2833929 0.06919187 0.068077914 -0.037990738 -0.027105033 -0.13240871 0.08724159 -0.015662417
0.037696887 -0.058592733 -0.0021755272 0.012886636 0.28270358 0.017468363 -0.07084423 -0.065375164
0.044329207 0.05588608 -0.0827874 -0.05074186 -0.07901196 -0.22858472 0.039821666 0.084203415
0.16477393 -0.076289326 -0.049788818 0.19444086 -0.11016171 -0.10440737 -0.0530212 -0.08679033
0.25277022 0.109930985 0.12945543 -0.07738159 -0.20242228 -0.07255505 0.055986274 0.13022317
-0.009464547 -0.3181696 -0.086731724 -0.06168047 0.014463307 -0.019068686 0.17910565 0.029691473
0.025970045 -0.15917958 0.09505972 0.025254957 -0.08755435 -0.16154931 0.029976286 0.11865301
-0.21516891 -0.013501658 -0.08417454 -0.013423476 -0.23528373 0.04604018 -0.10863898 -0.006206449
0.026263587 -0.20716421 0.036479693 -0.0031044357 0.1603619 0.07168494 0.17295614 0.037174936
00000000: 35ad 26bc 5b88 973d 5544 9dbd ab96 8b3d
00000010: a395 ad3d 0f3a b13d 15e9 79bd 93bc bebd
00000020: 5465 8b3d 27bb 0a3e 80a7 dbbc 041c 313e
00000030: f4ff 45bd 6228 c13d 4644 9bbc ed9c 413d
00000040: 76f4 a7bd 2fe7 1fbd c77c 0fbe d780 36be
00000050: 26c1 093d 3f3b 6b3c 50d4 d63d a9d9 0bbd
00000060: 643b f63c 9c60 a83d 40f5 0bbe f183 073e
00000070: 2808 223d a6ae 77be b2c6 033e 89a1 87bd
00000080: b188 d4bd 0ab7 03be 430d dbbd 055c 39be
00000090: 713f a9bd 6f15 1ebc 933a 14be 36e2 153c
000000a0: c362 9a3d b46c 01be d3d2 463e 0344 a9bd
000000b0: c694 ac3d f9b6 483e 4cef 8c3d b445 2cbe
000000c0: edb5 e8bd 80ef d2bd 1b3c 873d d144 c33d
000000d0: 5630 ec3b 0f7b 72bc 2333 5d3e 3c3b 133e
000000e0: 08da 3dbe f571 7c3e b6c1 993d 2b0a 05bd
000000f0: 6ffd 60bd 9f37 bdbc 6a82 3f3e bc20 763e
00000100: d0d4 8fbc 8338 0c3e 0bfa 47bd 2668 ef3d
00000110: 1eea a6bc 2d50 28bc 2c17 03bd 505c 343d
00000120: 9af0 57bd 696b 0cbd a84d d4bd db82 853c
00000130: 368f 47bd 319f 90bc 42be 17be 21e0 5abc
00000140: c84f 8bbd 6c84 8e3d c2e7 65bd 2e39 3b3e
00000150: bfaf a8bd 7ebd e93b 1bc5 d83d b851 a13d
00000160: 08f7 27be 2254 bd3d 54fe 053e d330 cd3d
00000170: e0c9 debc efd2 223e 3a2d 6bbd 1edf d8bd
00000180: 3117 41bc 8e1c 373d 2074 e3bd 6119 303e
00000190: 4430 ca3d 7805 31bd 28da 11bd 756f 01bd
000001a0: fbba c13c 19af b73d 3f2f c3bd 6db8 ed3d
000001b0: 9803 323d 1fe9 983d df83 2e3e ec1b 513b
000001c0: f506 9bbd 0d9b 25be ff7a 243d 2194 0cbe
000001d0: 400e 823d d44f f43c 8d69 c53d 8e20 d33d
000001e0: 78cf efbb 25be c23b cca7 c53d 8cc9 20be
000001f0: e729 163b 857f 89bc b649 1cbd f7ab 913d
00000200: fe04 04be 4c51 4b3e 9e78 d73a c8e8 ab3d
00000210: 22ee 0f3e 7eb1 c0bd f164 6ebd 8b81 a73d
00000220: d447 333d 4553 ecbc 93c8 de3a fda5 133e
00000230: 5021 953d 644e f03c 770f 46bc c915 04bd
00000240: 0a1e 4fbd b943 4e3e ad65 023e f260 0fbd
00000250: 3790 0b3e 54ae 0cbe f00c d63c dc2a 59bd
00000260: 35d2 24be 8a90 cc3d b117 1a3e 78bb 95bb
00000270: 0f87 8f3d 75e1 823d d749 3c3c 1006 47be
00000280: 6829 5f3e f7f9 ddbc 73f8 41be bdd0 3f3d
00000290: ee68 c33d 857d 513d d581 2bbd 6736 3dbe
000002a0: df72 08be 7acc bcbc 4a58 05be 96ee 973d
000002b0: efd6 f13d 28fc 03bd 49c2 803e 6e79 1a3e
000002c0: 2299 613e 7a4d b5bb d1a2 acbc 03dc 7b3c
000002d0: 6986 bc3d f99d 4f3d 1114 23bd 25f3 56bd
000002e0: e018 913e 78b4 8d3d 6f6c 8b3d 2d9c 1bbd
000002f0: 600b debc 2696 07be b8ab b23d 784e 80bc
00000300: 0d68 1a3d effe 6fbd 4a93 0ebb 7822 533c
00000310: 86be 903e d019 8f3c c816 91bd 6ae3 85bd
00000320: 8b92 353d cde8 643d 718c a9bd b2d6 4fbd
00000330: 06d1 a1bd 1d12 6abe 0b1c 233d d772 ac3d
00000340: 7fba 283e 943d 9cbd 5cef 4bbd 811b 473e
00000350: 769c e1bd 88d3 d5bd c22c 59bd 21bf b1bd
00000360: 196b 813e 7f23 e13d f78f 043e 3d7a 9ebd
00000370: c947 4fbe be97 94bd dd51 653d 3959 053e
00000380: 3011 1bbc 20e7 a2be 67a0 b1bd a9a4 7cbd
00000390: 82f7 6c3c ef35 9cbc 7967 373e 883b f33c
000003a0: 22bf d43c f9ff 22be acae c23d 7ce3 ce3c
000003b0: b24f b3bd 2f6d 25be d490 f53c 5900 f33d
000003c0: 3d55 5cbe 0f36 5dbc b463 acbd 24ee 5bbc
000003d0: 38ee 70be a194 3c3d 1d7e debd 785f cbbb
000003e0: bc26 d73c db22 54be bb6b 153d ca73 4bbb
000003f0: e935 243e 8ecf 923d 6a1b 313e bf44 183d

network_body._body_endoder.seq_layers.2.bias f4 [256]
0.011177899 -0.004365416 0.0033590435 0.008518441 0.008972303 0.0113621475 0.005063583 -0.003020912
0.0111745205 0.0058660046 0.0071281893 0.007615016 0.010197908 -0.0136196315 0.0038657465 0.01183959
0.007431131 0.00678042 0.009648637 -0.0019240848 0.0040038466 0.00843984 0.0012349301 -0.00050998025
0.010233264 0.0068116956 -0.00281491 0.0027278163 -0.0048222654 0.0035116682 -0.0043655788 0.0038378655
0.015500612 0.0067198644 0.0010095051 0.0022456301 0.006191334 -0.0010969802 0.011890231 0.005917935
0.0065849787 -0.0005824274 0.004848234 0.0070279557 0.010940772 0.009751552 0.0030549504 0.0073619355
0.008513857 0.007639555 0.0014223288 -0.0042362153 0.011746903 -0.014624256 0.0032552762 0.00888661
0.002453488 -0.0032964994 0.006197586 0.010344336 0.0036480187 0.0047117644 0.007219512 0.0083177965
0.0028336435 0.0028524594 0.0025668708 0.0062977276 0.008355609 0.009253513 0.0047299983 0.0057933843
0.004281717 0.0035639904 0.013113803 0.007974677 0.011733745 0.004643397 0.008734631 0.008388511
0.0016943906 0.006770479 0.007284741 -0.0117653515 0.0008265915 -0.0005673872 -0.004966805 0.014014285
-0.007504016 0.0018415303 0.0037442977 0.0015164915 0.008259312 0.010740465 0.0067304457 0.011791578
0.015143567 0.0038091948 0.0064872354 0.007105525 -0.008767928 0.018560432 0.0055619376 0.007058011
0.007271156 0.005219417 0.017345874 0.0014492001 0.003598516 -0.0012709881 0.01176134 0.009292345
0.009459954 0.0074278773 0.007963623 0.010376075 0.0144807 0.0016051421 0.005775207 0.019560046
0.004352541 0.014377226 0.0094617475 0.0031591696 0.007730935 0.010275787 0.0135967 0.012764867
-0.021099584 0.013082085 0.00088635687 0.009282314 0.00048291046 0.004766267 0.00797348 0.0008985658
0.008949618 0.008638167 -0.0014731609 0.0039401436 0.0071675708 0.0054793553 0.00503812 -0.002616941
-0.00066708727 0.00067349785 -0.005356102 0.0026082394 0.008361787 0.0033019476 0.011134903 0.00016451211
0.011825094 0.0035570157 -0.00048802872 0.008696996 0.006752605 0.013512274 0.010001929 0.018836997
0.0018821988 0.009926964 0.0045721927 0.008022152 0.01003082 0.0032514508 0.006514697 0.00837526
0.006552312 0.003624233 -0.0011563854 -3.106142e-05 0.009378553 -0.00021772276 0.0064796316 0.01294769
0.016489895 -0.0028341261 0.0042104255 0.009965859 0.009152316 -0.0074534607 0.009719548 0.008914564
0.013257988 0.0017203111 0.009587538 0.008937286 0.0087306155 -0.000508432 0.0058386037 -0.0002978304
0.0079041645 0.0057382453 0.0016781614 0.002950586 -0.013073281 0.009827851 0.0010802321 0.0075463853
0.015022296 0.0044588735 0.01676482 0.009352618 0.006313151 0.006997843 0.0072961776 0.0031547074
-0.0023030462 -0.002946614 0.003813056 0.0029109598 0.0093185855 0.011635609 0.0039428486 0.011168198
0.004427722 0.0049718535 0.009684214 0.0064931395 0.0017730675 0.00018321138 0.0037571166 0.014632866
0.009121998 0.017524209 -0.0062973574 0.007792064 0.011287882 -0.0018111788 0.009697337 0.00034976107
0.0048791426 0.008594153 0.006749787 -0.0050137807 0.0059373854 0.0069846576 -0.0057451664 -0.0012449459
0.011146476 0.01222235 0.0071714832 0.008150749 0.012128551 0.014217687 -0.007497901 0.0057642474
0.010675776 0.006433645 -0.0063995724 -0.0052596354 0.007624828 0.0030971298 0.008590651 0.0019311865
00000000: 8223 373c c30b 8fbb 6623 5c3b ee90 0b3c
00000010: 9100 133c 4d28 3a3c 6aec a53b 7efa 45bb
00000020: 5615 373c 9d37 c03b 9693 e93b 6287 f93b
00000030: 2015 273c e024 5fbc 7758 7d3b d7fa 413c
00000040: d880 f33b 492e de3b 5115 1e3c 9331 fcba
00000050: b332 833b 4147 0a3c 61dd a13a 32b0 05ba
00000060: 6ca9 273c a534 df3b 5a7a 38bb 2ac5 323b
00000070: 1804 9ebb 0424 663b 210d 8fbb b384 7b3b
00000080: 47f6 7d3c 4f32 dc3b 5f51 843a 6c2b 133b
00000090: ade0 ca3b 8cc8 8fba 3ecf 423c 3deb c13b
000000a0: cec6 d73b 0bae 18ba efdd 9e3b c44a e63b
000000b0: ec40 333c f9c4 1f3c 9035 483b 643c f13b
000000c0: b47d 0b3c 3b55 fa3b 6f6d ba3a f3cf 8abb
000000d0: 1576 403c 939a 6fbc 7956 553b 2599 113c
000000e0: b3ca 203b 150a 58bb 1f15 cb3b 4a7b 293c
000000f0: 9913 6f3b 2565 9a3b a891 ec3b 5e47 083c
00000100: a6b4 393b 54f0 3a3b f238 283b 2b5d ce3b
00000110: f7e5 083c 0c9c 173c 1afe 9a3b 6ed6 bd3b
00000120: a54d 8c3b d691 693b 47db 563c 38a8 023c
00000130: e53e 403c a327 983b b31b 0f3c f76f 093c
00000140: 5016 de3a e5da dd3b d6b4 ee3b 76c3 40bc
00000150: 9eaf 583a b6bc 14ba 95c0 a2bb 2c9c 653c
00000160: 40e4 f5bb 815f f13a e462 753b 03c5 c63a
00000170: 1152 073c c6f8 2f3c 128b dc3b 7631 413c
00000180: b91c 783c afa3 793b e092 d43b 77d5 e83b
00000190: 5ba7 0fbc 0c0c 983c ea40 b63b e346 e73b
000001a0: e142 ee3b a507 ab3b ef18 8e3c 16f3 bd3a
000001b0: 15d5 6b3b 4997 a6ba a3b2 403c eb3e 183c
000001c0: ecfd 1a3c 8d65 f33b db79 023c 6a00 2a3c
000001d0: 7540 6d3c a263 d23a f33d bd3b 643c a03c
000001e0: c39f 8e3b 758e 6b3c 7205 1b3c 120a 4f3b
000001f0: c853 fd3b c65b 283c b1c4 5e3c bc23 513c
00000200: 09d9 acbc 3e56 563c 675a 683a d914 183c
00000210: 252f fd39 582e 9c3b 33a3 023c bb8d 6b3a
00000220: 6ba1 123c 1987 0d3c 1417 c1ba 521c 813b
00000230: f1dd ea3b 2a8c b33b d016 a53b fc80 2bbb
00000240: 78df 2eba ad8d 303a 3d82 afbb ffee 2a3b
00000250: e0ff 083c 7d65 583b 2b6f 363c e280 2c39
00000260: 0abe 413c d21c 693b 1bde ffb9 d87d 0e3c
00000270: f544 dd3b 9662 5d3c 21df 233c 0c50 9a3c
00000280: 1db4 f63a b4a4 223c 55d2 953b 586f 033c
00000290: 4f58 243c 4b16 553b 3d79 d53b 6338 093c
000002a0: c7b4 d63b 8a84 6d3b db91 97ba f247 02b8
000002b0: 81a8 193c 824c 64b9 1753 d43b 8c22 543c
000002c0: d115 873c bfbc 39bb 9cf7 893b d847 233c
000002d0: 98f3 153c 293c f4bb bd3e 1f3c 640e 123c
000002e0: 0838 593c 107c e13a 0d15 1d3c b26d 123c
000002f0: db0a 0f3c 4b48 05ba c251 bf3b 1f26 9cb9
00000300: 7880 013c e407 bc3b c1f5 db3a 9e5e 413b
00000310: 5131 56bc ff04 213c 9396 8d3a ab47 f73b
00000320: 1420 763c be1b 923b 6056 893c b93b 193c
00000330: 8dde ce3b 294e e53b c614 ef3b 35bf 4e3b
00000340: b4ee 16bb fb1b 41bb 77e4 793b cdc5 3e3b
00000350: fbac 183c 48a3 3e3c 0333 813b d1fa 363c
00000360: 6d16 913b eeea a23b 8aaa 1e3c 67c4 d43b
00000370: 4666 e83a 6e1c 4039 f539 763b b0be 6f3c
00000380: 6f74 153c ee8e 8f3c 105a cebb 9254 ff3b
00000390: cff0 383c 1365 edba 94e1 1e3c 2360 b739
000003a0: 37e1 9f3b 7ece 0c3c 512d dd3b a44a a4bb
000003b0: 668e c23b 8edf e43b f341 bcbb 742d a3ba
000003c0: b59f 363c 4040 483c c3fe ea3b b88a 053c
000003d0: d4b6 463c 4df1 683c f4b0 f5bb 03e2 bc3b
000003e0: 73e9 2e3c 53d1 d23b 81b3 d1bb 0559 acbb
000003f0: b1d9 f93b 37f9 4a3b cdbf 0c3c de1f fd3a

network_body._body_endoder.seq_layers.2.weight f4 [256, 256]
0.006104359 0.008168993 0.016834743 -0.013466144 -0.064580075 0.07727488 -0.06990944 -0.09279095
0.021082945 0.061884776 0.057957936 -0.08339257 0.00736789 0.093684204 0.10164862 -0.0042100875
0.057060614 0.078401506 -0.08671392 -0.04386863 0.092426054 0.025407828 -0.02765551 -0.051720507
-0.1454815 0.04041558 -0.01447253 -0.01687712 0.019788612 0.002073585 0.028573127 -0.0006597593
0.001343651 0.014369976 0.023292053 0.11435346 -0.024279699 -0.041681223 -0.13844585 -0.086512625
-0.08599333 0.112131186 -0.021411087 0.1602864 0.09516996 0.1311954 0.058407113 -0.02059097
-0.048063584 -0.032646637 0.08843421 -0.1128119 0.004901247 -0.051424723 0.083327316 -0.023787418
-0.15479083 0.017816387 -0.07415262 0.014559928 -0.053147696 0.016626218 -0.021626158 0.06569881
-0.016488157 0.09240093 0.07600465 -0.06306189 0.13923672 -0.08880263 -0.008604873 -0.06338009
0.011001457 0.038557846 0.061199814 -0.044476926 -0.10458102 0.028904693 0.022409223 0.07992627
0.044987723 0.049987126 -0.088203505 -0.022032188 -0.027163427 -0.04625755 0.04227983 -0.053542193
-0.048347194 -0.052766584 -0.10499527 0.0050849346 0.057679985 -0.003075845 -0.030667754 -0.010370023
-0.006795763 -0.11475957 -0.07061141 -0.0375391 -0.044034887 -0.023522634 -0.021071946 -0.017090721
-0.079936355 -0.15928409 -0.13589342 0.022001302 0.020218201 -0.0068258797 0.06571296 -0.06018079
-0.031804975 -0.08200411 0.014659727 -0.03550398 -0.056129687 -0.056999266 0.0021323357 0.02772055
-0.052794613 -0.08554646 -0.108870976 0.105597734 -0.07697983 0.08646676 0.04578955 0.053755112
-0.049616728 -0.17733078 -0.029523427 0.06363997 -0.005987713 -0.0939713 0.03345167 0.03873227
-0.07532598 0.020776026 0.008311132 -0.08965202 0.041560408 -0.0034698062 0.045360886 -0.022345684
0.033655312 0.048105817 0.0759509 -0.12347235 -0.025677675 0.05548867 0.06446912 -0.16534302
-0.09394324 -0.06430762 -0.010719542 0.09579997 0.014085498 0.029794525 0.018207261 0.026435638
0.05673255 -0.060251445 0.106887944 0.010565693 0.118830726 0.058134384 -0.049606893 0.054566626
0.0063216113 0.046284243 0.028828504 0.09674759 0.044788975 0.054986212 -0.02860143 0.008029921
0.043811593 -0.059113376 -0.07993362 0.052528925 0.03875391 -0.078756884 -0.030662265 -0.16595282
-0.05966203 0.039403092 0.008712081 0.003867604 0.049439177 -0.026840342 0.019831618 -0.01633594
0.04377203 -0.10189262 -0.06261974 0.08177076 -0.054434486 -0.024991848 -0.123078935 -0.050405584
0.08425299 -0.0002192335 0.034512334 0.13289864 -0.07513931 -0.06517875 -0.04065958 -0.0029736338
-0.12867673 -0.09133264 0.0238202 0.028543992 0.0042265537 -0.04647948 -0.021637218 0.020879103
-0.036328968 -0.047590572 -0.0028531183 -0.11437542 0.03150492 0.052051693 0.07179518 -0.035483353
0.043271374 -0.0049019232 0.07967684 0.033353973 -0.015068284 0.028177291 0.06796337 0.08284422
0.013613247 -0.019689787 -0.013094992 -0.023725763 -0.046739414 -0.06523324 0.04435657 -0.0021867245
-0.024170814 0.028761365 0.009412239 -0.0051899278 -0.03452064 0.007857269 -0.0086104665 -0.06008998
-0.008884835 0.01034457 -0.07513679 0.011398511 0.0036706978 0.042673737 -0.074787 -0.05686224
00000000: 1307 c83b 3dd7 053c 04e9 893c 1aa1 5cbc
00000010: 8f42 84bd 4b42 9e3d ae2c 8fbd 2e09 bebd
00000020: 24b6 ac3c e47a 7d3d 4d65 6d3d b9c9 aabd
00000030: 576e f13b 81dd bf3d 272d d03d c6f4 89bb
00000040: 64b8 693d f890 a03d 1197 b1bd 98af 33bd
00000050: df49 bd3d 1424 d03c cf8d e2bc e2d8 53bd
00000060: 1af9 14be cf8a 253d 311e 6dbc e341 8abc
00000070: ba1b a23c fce4 073b 3112 ea3c b2f3 2cba
00000080: 721d b03a 0c70 6b3c face be3c 2632 ea3d
00000090: 38e6 c6bc eeb9 2abd c0c4 0dbe 882d b1bd
000000a0: 451d b0bd 09a5 e53d 4e66 afbc 1e22 243e
000000b0: 78e8 c23d 1658 063e 4c3c 6f3d 65ae a8bc
000000c0: 52de 44bd 7bb8 05bd ff1c b53d ed09 e7bd
000000d0: a49a a03b bba2 52bd 83a7 aa3d d5dd c2bc
000000e0: 7d81 1ebe acf3 913c 54dd 97bd c48c 6e3c
000000f0: 66b1 59bd b533 883c 5729 b1bc 198d 863d
00000100: 2c12 87bc b33c bd3d 53a8 9b3d 9826 81bd
00000110: 1294 0e3e 27de b5bd 74fb 0cbc 6ccd 81bd
00000120: 753f 343c d5ee 1d3d a8ac 7a3d 702d 36bd
00000130: 932e d6bd 89c9 ec3c 8c93 b73c 62b0 a33d
00000140: 0c45 383d 4dbf 4c3d 0aa4 b4bd d97c b4bc
00000150: d685 debc 8f78 3dbd 9d2d 2d3d 0f4f 5bbd
00000160: b507 46bd c621 58bd c307 d7bd 869f a63b
00000170: d941 6c3d 1e94 49bb f13a fbbc 07e7 29bc
00000180: feae debb 1107 ebbd b79c 90bd 99c2 19bd
00000190: ed5d 34bd 8ab2 c0bc 139f acbc d701 8cbc
000001a0: acb5 a3bd 5e1b 23be a527 0bbe 133c b43c
000001b0: a4a0 a53c a1ab dfbb 8494 863d 2280 76bd
000001c0: ef45 02bd c5f1 a7bd 5a2f 703c 9f6c 11bd
000001d0: 3ee8 65bd 1078 69bd a8be 0b3b 3516 e33c
000001e0: 2a3f 58bd fb32 afbd bff7 debd a043 d83d
000001f0: 9aa7 9dbd 7c15 b13d d38d 3b3d 522e 5c3d
00000200: e93a 4bbd 3396 35be 1ddb f1bc ac55 823d
00000210: 9434 c4bb 0674 c0bd 9e04 093d bba5 1e3d
00000220: 8244 9abd 7c32 aa3c 6a2b 083c 7a9b b7bd
00000230: 3f3b 2a3d b065 63bb 56cc 393d 4c0e b7bc
00000240: 27da 093d 9b0a 453d 258c 9b3d 12df fcbd
00000250: fd59 d2bc 1648 633d 6308 843d ae4f 29be
00000260: 5065 c0bd b7b3 83bd 05a1 2fbc c632 c43d
00000270: dcc6 663c a613 f43c 6527 953c 8d8f d83c
00000280: 6460 683d 38ca 76bd 11e8 da3d ba1b 2d3c
00000290: 865d f33d 521e 6e3d 9930 4bbd 4181 5f3d
000002a0: 8525 cf3b 8c94 3d3d c129 ec3c 9a23 c63d
000002b0: a574 373d 3939 613d 8c4d eabc ee8f 033c
000002c0: c973 333d de20 72bd 3db4 a3bd 9228 573d
000002d0: 6cbc 1e3d 4a4b a1bd 6e2f fbbc 89ef 29be
000002e0: 2c60 74bd 2365 213d 1ebd 0e3c a177 7d3b
000002f0: bc80 4a3d 47e0 dbbc eb75 a23c f3d2 85bc
00000300: 4d4a 333d 14ad d0bd c73e 80bd 6e77 a73d
00000310: b2f6 5ebd b4bb ccbc cf10 fcbd 1676 4ebd
00000320: d58c ac3d 0be2 65b9 ce5c 0d3d 9516 083e
00000330: a3e2 99bd 707c 85bd a98a 26bd 4ce1 42bb
00000340: d5c3 03be 9b0c bbbd 9422 c33c 17d5 e93c
00000350: e77e 8a3b 4461 3ebd 8940 b1bc a70a ab3c
00000360: afcd 14bd 55ee 42bd 62fb 3abb a93d eabd
00000370: 4e0b 013d 2834 553d 5a09 933d fe56 11bd
00000380: 533d 313d 50a0 a0bb 9c2d a33d 2d9e 083d
00000390: f7e0 76bc 10d4 e63c 6130 8b3d 3baa a93d
000003a0: 190a 5f3c 7a4c a1bc 618c 56bc 885c c2bc
000003b0: d471 3fbd 0199 85bd 3caf 353d 264f 0fbb
000003c0: df01 c6bc f49c eb3c cb35 1a3c 4510 aabb
000003d0: 8465 0dbd c6bb 003c ea12 0dbc e920 76bd
000003e0: b391 11bc 457c 293c 51e1 99bd d2c0 3a3c
000003f0: 1790 703b a8ca 2e3d ed29 99bd 61e8 68bd

network_body._body_endoder.seq_layers.4.bias f4 [256]
0.010430856 0.003584165 0.005021196 0.009875461 0.005872055 0.0049101445 0.009691052 0.00078256376
0.009598895 0.0023233152 0.0057823323 0.010695909 0.0074537797 0.006342947 0.0069154655 0.0076334695
0.008577215 0.007142041 0.009525131 0.009411973 0.009564294 0.006864714 0.0058592963 0.008208552
0.0077590225 0.005792304 0.017607637 0.0042445185 0.006856911 0.005400737 0.0074737715 0.008213893
0.010828636 -0.001988661 0.00083255855 0.0016325932 0.008906532 0.008076636 0.0070707155 0.0003034675
0.0062449146 0.0045273225 0.008756749 0.0043524588 0.0013908759 0.0016646835 0.0049334965 0.006696049
0.010408223 0.0074339956 0.0040502134 0.001739717 -0.0023477883 0.006505508 0.008822078 0.0003635993
0.001699353 0.0012419552 0.0072082933 0.0063676704 0.000579773 0.0049793134 0.006612582 -0.00048081775
0.0046541034 0.010127864 0.0087503325 0.005765947 0.009662912 0.003741475 0.0055636363 0.0027386572
0.0063022366 0.004472216 0.007291503 0.007318164 0.008306916 0.004116889 0.008619884 0.0070962347
0.004376442 0.0021712906 0.008744411 0.008159252 0.012654499 -0.0018532187 0.0061443085 0.009178346
0.0018874583 0.0032221815 0.005938677 0.00997834 -0.00036236987 0.013999468 0.006937628 0.005632125
0.000852165 0.0029847042 0.00794836 0.002529774 -0.0018239596 -0.0032941618 0.0046138614 0.004480734
0.0037421235 0.0044410774 0.004554919 0.0013132383 0.0058659725 0.0027176063 0.0051254625 0.0040231813
0.008874695 0.0025765141 0.002735157 0.005307437 0.0031474854 0.006985693 0.01144622 0.0047859545
0.0029363725 0.009532354 0.005067424 0.005043803 0.0030503122 0.0035082572 -0.00227471 0.007030387
0.010956005 0.0032073825 0.0012410766 0.011563785 0.00631029 0.0053791525 -0.00029261093 0.0074218246
0.0030050464 0.0041480116 0.009789761 0.008051858 0.005582545 0.009574518 0.0070508113 0.009846899
0.008786737 0.008697068 0.0030953086 0.010293142 0.0045214947 0.00072204426 0.0009782518 0.005564119
0.0108230505 0.004923207 0.0085795615 0.0072295377 0.002791945 0.00271983 0.0038377056 0.007014608
0.004452971 0.0032067106 0.011143593 0.0038452642 0.00781837 0.0015636564 0.005920662 0.0034164789
0.001218542 0.0009748346 0.010050767 0.008532627 0.0034339922 -0.00048248342 0.0026294987 0.0034427443
0.0042494503 0.0025498024 0.004839473 0.0026755063 0.0054593734 0.0045865253 0.007496007 0.0022667386
0.0073935497 0.0007612846 0.007891819 0.0031808785 0.010389852 0.004272237 0.003402037 0.0031461525
0.0074647283 0.004567422 0.0036333464 0.007228599 0.006845153 0.00881596 0.0113602895 -0.00075107376
0.0008344224 -0.0008956939 0.0052267495 0.00079824665 0.008386206 0.0071985307 0.0007624509 0.0049487604
0.0015294681 0.003524473 0.00979183 0.0035732533 0.0012124438 0.0035304092 0.0054023825 0.005688116
0.0066536283 0.0036073155 0.0069411625 0.011012352 0.0067961942 0.0088449735 -0.0010872458 0.005072911
0.0039646076 0.009213901 0.003677288 0.00549693 0.0058275145 0.0008212479 0.008816807 0.0027305312
0.009279253 0.009492707 0.0029876763 0.004314707 0.013726216 0.00740606 0.008695371 0.00088815
0.0050296183 0.005066452 0.0052875145 0.00061643805 0.0018917249 0.010867048 0.0053428607 0.0036992412
0.0076322705 0.0025596214 0.0041588126 0.0058208685 0.0034550896 0.007408945 0.0048411503 0.006366517
00000000: 2ee6 2a3c 4fe4 6a3b d888 a43b b0cc 213c
00000010: 5e6a c03b 47e5 a03b 38c7 1e3c f724 4d3a
00000020: af44 1d3c c342 183b b879 bd3b e53d 2f3c
00000030: d63e f43b 7fd8 cf3b 219b e23b 2f22 fa3b
00000040: 7287 0c3c c807 ea3b 4c0f 1c3c ad34 1a3c
00000050: 8eb3 1c3c 65f1 e03b 57ff bf3b 2a7d 063c
00000060: 663f fe3b 5ecd bd3b e43d 903c 9a15 8b3b
00000070: f0af e03b aaf8 b03b 8ae6 f43b 9093 063c
00000080: 976a 313c 3254 02bb 0f40 5a3a bdfc d53a
00000090: b4ec 113c de53 043c 76b1 e73b b81a 9f39
000000a0: 24a2 cc3b ef59 943b 7878 0f3c 129f 8e3b
000000b0: 0d4e b63a 8231 da3a 2ba9 a13b 886a db3b
000000c0: 4087 2a3c e098 f33b a7b7 843b 3707 e43a
000000d0: 5add 19bb 282c d53b 7a8a 103c 79a1 be39
000000e0: d3bc de3a 1ac9 a23a 8c33 ec3b e4a7 d03b
000000f0: e8fb 173a 8229 a33b 5cae d83b 4416 fcb9
00000100: 7381 983b 57ef 253c 8e5d 0f3c 45f0 bc3b
00000110: 3151 1e3c 8933 753b 2a4f b63b 0b7b 333b
00000120: fe82 ce3b ab8b 923b 8fed ee3b 36cd ef3b
00000130: bb19 083c f8e6 863b 6a3a 0d3c 8887 e83b
00000140: 4268 8f3b 364c 0e3b b844 0f3c 62ae 053c
00000150: d154 4f3c b3e7 f2ba 3256 c93b c660 163c
00000160: 9764 f73a 3c2b 533b 3c99 c23b 317c 233c
00000170: 76fc bdb9 065e 653c 0b55 e33b b08d b83b
00000180: d363 5f3a 079b 433b d739 023c 91ca 253b
00000190: ee11 efba dde2 57bb e02f 973b 1fd3 923b
000001a0: 6a3e 753b 7586 913b 6e41 953b f720 ac3a
000001b0: 5837 c03b de19 323b 7ff3 a73b e4d4 833b
000001c0: 2b67 113c bcda 283b 5240 333b 02ea ad3b
000001d0: 0b46 4e3b 3de8 e43b ed88 3b3c 7fd3 9c3b
000001e0: 2870 403b 972d 1c3c a20c a63b 7c46 a53b
000001f0: bfe7 473b caea 653b 4d13 15bb 295f e63b
00000200: d180 333c f332 523b 9fab a23a 0876 3d3c
00000210: 8dc6 ce3b 9a43 b03b 9369 99b9 c732 f33b
00000220: 50f0 443b 0bec 873b 3c65 203c f1eb 033c
00000230: c8ed b63b 70de 1c3c 7e0a e73b e354 213c
00000240: 3ff6 0f3c 267e 0e3c a9da 4a3b 91a4 283c
00000250: 0c29 943b 9247 3d3a af38 803a 3753 b63b
00000260: 2a53 313c db52 a13b 4a91 0c3c c2e5 ec3b
00000270: 10f9 363b 2d3f 323b 0482 7b3b ccda e53b
00000280: 3aea 913b ad27 523b 9e93 363c d400 7c3b
00000290: 9f18 003c 9af3 cc3a 1d02 c23b 01e7 5f3b
000002a0: 7cb7 9f3a 0b8c 7f3a f9ab 243c 6ecc 0b3c
000002b0: d40c 613b d4f5 fcb9 ab53 2c3b aa9f 613b
000002c0: f93e 8b3b 961a 273b 7194 9e3b 8c57 2f3b
000002d0: 8be4 b23b 904a 963b 10a1 f53b 908d 143b
000002e0: 9745 f23b f290 473a b04c 013c 4976 503b
000002f0: 333a 2a3c 1ffe 8b3b b6f4 5e3b ae2f 4e3b
00000300: ae9a f43b 50aa 953b 701d 6e3b e2dd ec3b
00000310: 4e4d e03b d170 103c 8220 3a3c b5e3 44ba
00000320: 24bd 5a3a 00cd 6aba 2745 ab3b 6d41 513a
00000330: 4c66 093c a7e1 eb3b 37df 473a 3629 a23b
00000340: 6f78 c83a d8fa 663b e96d 203c 3e2d 6a3b
00000350: ddea 9e3a 705e 673b 7806 b13b 6063 ba3b
00000360: ae06 da3b b668 6c3b b172 e33b 276d 343c
00000370: 9cb2 de3b 82ea 103c ea81 8eba a93a a63b
00000380: 8ae9 813b e7f5 163c a8fe 703b 971f b43b
00000390: bcf4 be3b 0349 573a 5e74 103c b6f2 323b
000003a0: 0208 183c 4d87 1b3c e4cc 433b 6362 8d3b
000003b0: ece3 603c 89ae f23b 0877 0e3c bdd2 683a
000003c0: 7fcf a43b 7b04 a63b e342 ad3b 7598 213a
000003d0: c1f3 f73a b40b 323c 2a13 af3b f86e 723b
000003e0: 2018 fa3b 52bf 273b a646 883b fcbc be3b
000003f0: c96e 623b bcc6 f23b 83a2 9e3b 379e d03b

network_body._body_endoder.seq_layers.4.weight f4 [256, 256]
0.036999065 0.069131576 0.02692095 -0.07819714 -0.046999216 0.10703465 -0.05807224 -0.054144755
0.098376565 0.05088931 0.020837834 0.005676023 0.034048814 0.11768868 0.0010297663 0.07434816
-0.08452337 0.11371306 0.072481066 -0.086226575 -0.01614776 -0.10758995 0.026375934 -0.14783916
-0.026914177 -0.06220512 -0.0728047 0.12873971 -0.018791365 0.11280486 -0.103672676 -0.030271644
0.06754338 -0.04839628 -0.024822751 0.030094609 -0.06408758 0.092770144 -0.077032484 -0.006336844
0.06634011 -0.031135302 -0.12324338 -0.080805354 0.013691914 -0.038201466 0.030370101 0.042935178
-0.10492783 0.02187251 0.0014368303 0.06751393 -0.05408243 0.08095868 0.05033411 0.018143527
-0.07827346 -0.030494874 -0.0007265379 -0.01800564 -0.056431606 -0.03992622 -0.009388051 -0.040093116
0.13233015 -0.062335048 0.01465985 -0.0908239 -0.06753845 0.016802987 -0.12856475 0.08691956
0.06739266 -0.023215707 -0.041468583 -0.024156062 -0.023095887 0.032745037 -0.08395501 0.037811127
-0.11816546 0.03650335 -0.009723558 -0.036522117 0.0030268477 -0.09957061 0.046114795 0.03547678
-0.10200008 -0.086029395 -0.031289104 -0.016560948 -0.004065806 -0.013593993 -0.036272343 0.069014445
-0.04301842 0.038330466 -0.053434357 0.13194425 -0.057674143 0.05676854 0.04859596 0.09990557
0.096696444 0.055225026 0.06277459 -0.032167677 -0.0010925313 0.017616063 0.027766079 -0.030897513
0.09602383 -0.0417362 0.089960255 0.086789265 -0.044336144 0.010375576 -0.017964086 -0.0076091
-0.023669817 0.022774892 0.028931355 0.03597164 0.091493286 0.16111787 -0.06284042 0.094331935
-0.003365528 -0.021914983 -0.0836564 -0.052140187 -0.0077932826 -0.0385555 0.066167384 -0.12821162
0.09881513 0.10569378 -0.022509335 -0.034306616 -0.024257764 -0.044219855 0.058981773 0.022144297
0.0679926 0.06523207 0.09522834 -0.09514687 0.11429383 0.027042232 -0.008976759 0.11505246
-0.033272065 -0.08172783 0.021286717 -0.08985438 0.08098497 0.019603116 0.15609996 0.059469104
0.00632814 0.102750905 0.04346842 -0.00936293 -0.089493215 0.052534677 -0.05618576 0.010534352
0.06630426 0.017476045 -0.054126006 -0.036268897 0.13809843 0.059452187 0.05547791 -0.120731905
-0.024498397 0.048342917 -0.12875366 0.0223633 0.07914232 -0.08661221 0.13324374 0.08153698
-0.001418296 0.013280959 -0.009443663 0.025599042 0.037166324 -0.007084116 -0.022284945 -0.052908204
0.037474018 -0.045469463 0.009329715 -0.073793076 -0.07833584 -0.1483424 -0.022006975 0.017125994
-0.110686146 -0.032048866 0.03863127 0.032390583 -0.03783271 -0.084207684 -0.08847433 -0.049293593
-0.05695679 0.08327015 0.023891674 0.11169431 0.026170362 0.08391156 0.023461498 0.023656202
-0.01591179 0.1258861 0.06814215 0.097710334 -0.070602626 0.0716405 0.09165343 0.103800476
0.0476951 0.073192425 -0.12628211 -0.047456514 0.018484756 0.02588194 0.093586825 0.076950595
-0.02473409 -0.0798534 -0.01179466 -0.07595112 -0.06685946 0.020854838 -0.018064559 0.025053453
0.03601431 0.06248216 0.011669102 -0.13727689 -0.0030910915 -0.01673201 -0.03866616 0.05270698
0.04688148 -0.020560225 -0.010278827 -0.06662082 -0.009048774 0.033691853 -0.06665396 -0.02072051
00000000: 558c 173d db94 8d3d 5389 dc3c d225 a0bd
00000010: 4082 40bd fc34 db3d 28dd 6dbd e4c6 5dbd
00000020: a779 c93d 4f71 503d 1bb4 aa3c effd b93b
00000030: c576 0b3d c306 f13d 39f9 863a d943 983d
00000040: 971a adbd 65e2 e83d f470 943d 8f97 b0bd
00000050: 4f48 84bc 1f58 dcbd 5812 d83c 2663 17be
00000060: 1f7b dcbc ccca 7ebd a11a 95bd 58d4 033e
00000070: 59f0 99bc 3c06 e73d 5752 d4bd 3dfc f7bc
00000080: 2f54 8a3d 2d3b 46bd 1559 cbbc f888 f63c
00000090: 5940 83bd 46fe bd3d 35c3 9dbd 4da5 cfbb
000000a0: 53dd 873d 760f ffbc 0667 fcbd 477d a5bd
000000b0: 0d54 603c 2479 1cbd b8ca f83c ccdc 2f3d
000000c0: 67e4 d6bd fa2d b33c 0654 bc3a be44 8a3d
000000d0: 8a85 5dbd aacd a53d 242b 4e3d bca1 943c
000000e0: d64d a0bd 63d0 f9bc 2275 3eba 9080 93bc
000000f0: d424 67bd ad89 23bd 57d0 19bc ae38 24bd
00000100: 8e81 073e 0953 7fbd de2f 703c e201 babd
00000110: 9951 8abd 6ba6 893c 7aa6 03be e202 b23d
00000120: 2a05 8a3d de2e bebc f6da 29bd efe2 c5bc
00000130: 9633 bdbc a91f 063d 9bf0 abbd d7df 1a3d
00000140: bc00 f2bd 8984 153d 8f4f 1fbc 3798 15bd
00000150: 145e 463b adeb cbbd dee2 3c3d 1a50 113d
00000160: 6be5 d0bd 2e30 b0bd 0129 00bd d3aa 87bc
00000170: 743a 85bb 57b9 5ebc 4f92 14bd 7257 8d3d
00000180: 1534 30bd 6800 1d3d fcdd 5abd 651c 073e
00000190: b93b 6cbd 2186 683d 8f0c 473d 4b9b cc3d
000001a0: c908 c63d a333 623d f78f 803d 41c2 03bd
000001b0: 4433 8fba 904f 903c b075 e33c c81c fdbc
000001c0: 24a8 c43d 94f3 2abd 153d b83d 92be b13d
000001d0: d199 35bd 52fe 293c 6b29 93bc c255 f9bb
000001e0: 34e7 c1bc 6992 ba3c 7301 ed3c 0057 133d
000001f0: d560 bb3d 15fc 243e 7ab2 80bd 1a31 c13d
00000200: 3190 5cbb 0d87 b3bc 0c54 abbd f390 55bd
00000210: cb5e ffbb 5fec 1dbd c482 873d e849 03be
00000220: 965f ca3d fb75 d83d 7f65 b8bc 1885 0cbd
00000230: 38b8 c6bc e11f 35bd df96 713d f567 b53c
00000240: b43f 8b3d 6498 853d 1307 c33d 5ddc c2bd
00000250: e212 ea3d ac87 dd3c 4213 13bc a0a0 eb3d
00000260: 4a48 08bd ec60 a7bd 7b61 ae3c 9305 b8bd
00000270: 73db a53d b796 a03c abd8 1f3e e095 733d
00000280: 495c cf3b 116f d23d f10b 323d fa66 19bc
00000290: 3848 b7bd 9a2e 573d 0a23 66bd 4698 2c3c
000002a0: 87ca 873d ec29 8f3c 3bb3 5dbd b28e 14bd
000002b0: ad69 0d3e 2384 733d ce3c 633d 4a42 f7bd
000002c0: ddb0 c8bc 3903 463d 00d8 03be 3d33 b73c
000002d0: 5e15 a23d be61 b1bd 0c71 083e dcfc a63d
000002e0: 1ee6 b9ba 6198 593c 98b9 1abc 15b5 d13c
000002f0: b73b 183d df21 e8bb eb8e b6bc 46b6 58bd
00000300: 5b7e 193d 303e 3abd a9db 183c d320 97bd
00000310: 8a6e a0bd 12e7 17be f947 b4bc d04b 8c3c
00000320: 6baf e2bd ac45 03bd d33b 1e3d fdab 043d
00000330: 79f6 1abd 1475 acbd 0832 b5bd 14e8 49bd
00000340: 864b 69bd 8a89 aa3d 79b8 c33c fdbf e43d
00000350: 3a63 d63c d3d9 ab3d 5432 c03c a7ca c13c
00000360: 7159 82bc 49e8 003e 1d8e 8b3d 5b1c c83d
00000370: 1c98 90bd 41b8 923d cbb4 bb3d 5895 d43d
00000380: f05b 433d e9e5 953d 1950 01be c361 42bd
00000390: 586d 973c 5d06 d43c 73aa bf3d 4698 9d3d
000003a0: 259f cabc 2e8a a3bd 643e 41bc 438c 9bbd
000003b0: 9ded 88bd c4d7 aa3c 20fc 93bc e63c cd3c
000003c0: be83 133d 4bed 7f3d c32f 3f3c 5092 0cbe
000003d0: e993 4abb 9111 89bc 6860 1ebd 46e3 573d
000003e0: cb06 403d eb6d a8bc 8668 28bc 7f70 88bd
000003f0: 4f41 14bc 7800 0a3d df81 88bd 0fbe a9bc

network_body.observation_encoder.processors.0.normalizer.running_mean f4 [68]
0.15039039 0.79313505 0.05644042 0.64276886 0.13155977 0.82138056 0.047033023 0.66660166
0.21220975 0.7446988 0.043020282 0.639436 0.20007122 0.7385758 0.06129361 0.6994399
0.16535442 0.6681765 0.16640621 0.7714029 0.5372511 0.36863935 0.09395413 0.50193626
0.23431705 0.6135921 0.15199393 0.7486117 0.6484234 0.2977434 0.053440012 0.3969216
0.51006943 0.40704197 0.082647674 0.57544994 0.4732454 0.4547769 0.07054009 0.5243874
0.22319266 0.4866342 0.28910875 0.80230266 0.36429217 0.27832913 0.107245915 0.6647501
0.32390362 0.2623335 0.12817991 0.74078894 0.48302022 0.06877157 0.00081999786 0.5429895
0.19408043 0.11223174 0.00042283704 0.6595698 0.34711835 0.05719134 0.00054849836 0.5652962
0.34711832 0.05719134 0.00054849836 0.5652961
00000000: f0ff 193e e60a 4b3f 122e 673d 808c 243f
00000010: 9bb7 063e ff45 523f b3a5 403d 68a6 2a3f
00000020: 834d 593e 95a4 3e3f 0936 303d 14b2 233f
00000030: 78df 4c3e 4e13 3d3f 020f 7b3d 7e0e 333f
00000040: ab52 293e 9d0d 2b3f 6466 2a3e a97a 453f
00000050: 4a89 093f 4cbe bc3e 066b c03d e57e 003f
00000060: cff0 6f3e 5f14 1d3f 4ca4 1b3e 04a5 3f3f
00000070: 13ff 253f d371 983e eae3 5a3d 4f39 cb3e
00000080: e993 023f ce67 d03e 2f43 a93d b050 133f
00000090: 394d f23e 85d8 e83e 5377 903d 413e 063f
000000a0: 9e8c 643e 1e28 f93e 1006 943e b563 4d3f
000000b0: 8184 ba3e 2881 8e3e bfa3 db3d 102d 2a3f
000000c0: b2d6 a53e 9450 863e 9841 033e 58a4 3d3f
000000d0: 6d4e f73e 1cd8 8c3d 20f5 563a 5c01 0b3f
000000e0: 05bd 463e c1d9 e53d 3ab0 dd39 91d9 283f
000000f0: 7fb9 b13e 7741 6a3d 1ac9 0f3a 40b7 103f
00000100: 7eb9 b13e 7741 6a3d 1ac9 0f3a 3fb7 103f

network_body.observation_encoder.processors.1.normalizer.running_mean f4 [6]
-9.557587 6.71965 -10.999726 6.9998455 2.9760149 234.58885
00000000: e0eb 18c1 5f07 d740 e1fe 2fc1 bcfe df40
00000010: 0777 3e40 bf96 6a43
