Assets/Training/results/lrdec/parking/parking-6534831.onnx (onnx, 608683 bytes, 13 tensors)

65 f4 [68]
00000000: 4b57 b33e 9644 cc3e d937 6a3e 13c8 533e
00000010: bc4e a83e 7776 bf3e 98e3 533e 50aa 423e
00000020: dd99 d13e 1531 df3e b5a0 4d3e b855 663e
00000030: 2e63 c93e 8fae de3e c1f6 763e 4f37 853e
00000040: 9770 bd3e 15cf f33e 734f c63e bdfd 7b3e
00000050: e85a ff3e 53bd f73e fcbb 923e 3007 bb3e
00000060: f3b0 da3e 6fc8 f93e 50f7 b63e 050a 913e
00000070: 0dd7 f43e a878 eb3e bc75 5e3e c6d2 af3e
00000080: b8ea ff3e 9c91 fa3e 411b 923e 9462 9a3e
00000090: dfe3 ff3e ea8f fe3e c6fa 7e3e 0fb0 be3e
000000a0: 41a6 d83e 2664 ff3e 2b96 ea3e 78cd 813e
000000b0: 3c23 f93e 75d7 e23e 7896 9b3e 3b05 b43e
000000c0: 4558 ed3e 69f5 df3e 0069 ae3e 9ba6 813e
000000d0: 33f1 ff3e 937e 7f3e 8b07 ec3c 26aa 673e
000000e0: dec7 ca3e 2c1e a53e c3b3 a23c 6915 333e
000000f0: ff00 f43e 4bdc 6b3e 12ac b83c c1f4 383e
00000100: ff00 f43e 4cdc 6b3e 12ac b83c c1f4 383e
0.35027537 0.39896077 0.22872867 0.20681791 0.3287257 0.3739507 0.20692289 0.19010282
0.409377 0.43592134 0.20080836 0.22493637 0.3933348 0.43492553 0.24117567 0.2601876
0.36999962 0.4761893 0.3873249 0.24608512 0.49874043 0.4838663 0.28659046 0.3652892
0.42713127 0.4878573 0.3573556 0.28327957 0.4782032 0.4599049 0.217246 0.34340495
0.49983764 0.48939216 0.28536418 0.30153334 0.4997854 0.49719173 0.2490035 0.37243697
0.42314342 0.49881095 0.45817694 0.25352073 0.48659694 0.44305006 0.30388236 0.3516024
0.46356407 0.4374192 0.34064484 0.25322422 0.49988708 0.24950628 0.02881219 0.226235
0.39605612 0.32249582 0.019861108 0.17488636 0.4765701 0.23033254 0.022542987 0.18062116
0.4765701 0.23033255 0.022542987 0.18062116

68 f4 [6]
00000000: e9bd f83f 7691 4140 c805 8e3b 9846 353b
00000010: 7242 2040 e784 bd42
1.9432956 3.0245032 0.0043341853 0.0027660485 2.5040555 94.759575

action_model._continuous_distribution.log_sigma f4 [1, 2]
00000000: 28eb 403c c71c 903b
0.011774816 0.004397962

action_model._continuous_distribution.mu.bias f4 [2]
00000000: da0c c539 6f4a 2b3b
0.00037584343 0.0026136895

action_model._continuous_distribution.mu.weight f4 [2, 256]
00000000: 884a 0cbd a278 a23c 604e 2bbb 80c5 043c
00000010: f9f0 f33c a203 2cbc dda2 1dbd 8b89 b8bc
00000020: 8140 97bc a21a 37bc 56b5 e4bc 40bb 203c
00000030: 04e6 a7bc 6529 f93b fee3 adbc cba5 c13c
00000040: a1d4 573b 7a1c ae3b 730d 653c 7c2c 17bb
00000050: 2809 c83c 655b 94bc 98d1 993b 4bd1 b4bc
00000060: cd5d 653c 5b30 b93c 4937 b33c 5ad4 3cbc
00000070: 1641 3ebd 978d 013d 0ce7 f33c 42fe a3bc
00000080: 19e8 ff3c 1b5e 333c 2ca7 a43b 99ff ae3c
00000090: 142d 15bd 3dd8 883b 0485 6c3c 53c6 b33c
000000a0: 7681 443b 8671 b93b d45d 71bc c7b4 10bc
000000b0: 0198 b5bc f476 0a3c ad50 ad3c 0fd1 31bc
000000c0: 4403 b43c f197 053d 1bb0 15bc 4186 e1bc
000000d0: 7ae1 5a3b eafa d1bb 18c3 2dbd 55b8 8abc
000000e0: 5b91 7cbc 7f7f 81bc 04bb d0bc 98cb e53b
000000f0: 8370 7abc 4daa 893c 5fda 13bd 2e35 bfbc
00000100: 7853 6dbc 0ef2 453c 4584 17bb 9a02 ffbc
00000110: c83c 2f3d b641 783c 604d 873b bd33 c839
00000120: d605 313b 663d afbc 1e27 e43c bd9a 4f3c
00000130: 7b77 f1bc f9be 583c 4351 06bc 939b c6bc
00000140: cfef b03c b348 94bc 2cee 0c3a a402 13bc
00000150: 188f 093c fdd5 3c3c 23ea 4fbc cb17 073c
00000160: 5067 023b f8ee 27bd 98ef 103d cebc 20bb
00000170: c360 14bc ded8 283d 7a4e 88bc 2acd e23b
00000180: f63b 21bc ef5c 02bd dbeb efbc 5028 fc3c
00000190: ddad 3cbc 54f0 3d3b e666 03bc 0bb7 d3bc
000001a0: 6e16 d4bb 87c2 a5bc 141d f3bb 8e8c af3c
000001b0: 616d 45bc e685 e5bc 48f6 8dbc e6e0 9ebc
000001c0: b54e edbc 3643 a9bc a405 3c3c b78e b3bc
000001d0: c256 d7bc b364 263c 9b27 fabc ba9c 463b
000001e0: 3100 77bc 3527 eb3a 795b 883c 390a 94bb
000001f0: dbe2 c1bc 3781 063d c1cc 4ebc d187 c8bc
00000200: e6a1 913c 52da 8c3c cfa5 1d3c 892a 15bd
00000210: cd70 1ebc 63dd c63c 7de0 89bc 742f 333b
00000220: 1e91 16bd c2d2 4fbc cfef 89bc e814 27bc
00000230: f466 f73c fff9 d43a 98c6 93bc 876b 47bc
00000240: 4b29 f43a c0aa 023d 9a30 bd3c fdcc 433c
00000250: 4d6f bd3c 4eaa e6bc b5cb 3cbc 3dd4 ee3c
00000260: 9f01 653b c4c8 14bc 2737 963b 3baf 42bc
00000270: acfe a7bc 1f4b e0bc 5efa e1bc 0cab 3bbc
00000280: 241f 24bd 7b18 823c ecce 413d bc9a d9bc
00000290: f727 583c cb89 34bc bc4d 0b3a dd6d 8bbc
000002a0: 86f7 4abc 55ec 4cbc b289 be3a 13d9 2bbc
000002b0: a3df bd3c 6eff 7dbc d946 bf3a 621c 40bc
000002c0: 5a48 053c ffd3 a03c 31e4 adbb cfd8 9f3a
000002d0: 073f 2abd b0c6 febb 75fc 5d3c 4ba7 7b3c
000002e0: a160 cc3c 6cd5 9abc 8eb2 b3bc 4b28 c53b
000002f0: 8c4f 17bd b966 7ebc 4614 7ebb ca9b 9abc
00000300: 2d21 bebc f972 e3bc d75f 1abc 754d 73bc
00000310: 4ec3 26bd a83f 03bc dd22 d13c b89c 4cbc
00000320: 8ed8 2e3c 8447 37bc 1acc 3439 7dec a3bc
00000330: 3ec9 643c 4afc f1bc 13cb be3b cab2 d43b
00000340: 5293 7abb 44f0 243c 74f3 e83c 14b0 3b3c
00000350: c09e 7ebc 5f8f 393b 2996 44bd c421 083d
00000360: c053 3e3d e36e 7a3c 8254 a7bc 4ece f2bb
00000370: da56 97bc 042b 9fbc 1442 f2bb cdda 89bc
00000380: 3f2f b5bc 0181 95bc b64c 08bd 1ddc 873c
00000390: 1e43 e53c d5f6 abbc 52d1 b2bc d6ef 3239
000003a0: e29a 92bc e9e0 e73c 39f9 d2bc 2c0a 013d
000003b0: f34a 9c3c 7266 01bd 6ff8 2a3b 2045 41bd
000003c0: 65ff 733b 4047 3d3d 71d8 3cbc ef5d c3bc
000003d0: 5c2f 01bd 01a5 653c 7dac f9bc 5613 e23c
000003e0: b5ea 1ebd 3fe0 313c a0ac 11bc b174 713c
000003f0: 7d0e 72bc 0fcf 003d 20b4 fdbc 2a9e 7ebc
-0.034250766 0.019832913 -0.0026139244 0.008103728 0.02977799 -0.010498913 -0.038485397 -0.022526523
-0.018463375 -0.011175783 -0.027918499 0.009810269 -0.020495422 0.0076038116 -0.02122688 0.023638627
0.0032933133 0.0053134533 0.013980257 -0.0023067286 0.024418429 -0.018109987 0.004694175 -0.022072455
0.013999415 0.022606065 0.021876948 -0.011525238 -0.04644879 0.03162917 0.029773258 -0.0200187
0.031238602 0.010947729 0.0050248113 0.021362113 -0.036419943 0.0041761682 0.01443601 0.021945154
0.0029984391 0.005659285 -0.014731843 -0.008832163 -0.022167208 0.008451212 0.021156633 -0.010853066
0.021974213 0.032615606 -0.009136225 -0.027529838 0.0033398555 -0.006408085 -0.042422384 -0.0169336
-0.015415515 -0.015807865 -0.025479801 0.0070127957 -0.015285614 0.016804839 -0.036096927 -0.023340788
-0.0144852325 0.012081636 -0.002311961 -0.03112917 0.042782575 0.015152385 0.004129097 0.0003818552
0.0027011535 -0.021391582 0.027850684 0.01267117 -0.029475918 0.013229125 -0.008198085 -0.024244105
0.021598725 -0.018101072 0.00053760665 -0.008972798 0.008395933 0.011525628 -0.0126901 0.008245419
0.0019898005 -0.040999383 0.035384744 -0.00245266 -0.009056273 0.041222446 -0.016638983 0.00692143
-0.009840956 -0.03182691 -0.02928727 0.030780941 -0.011516062 0.0028982358 -0.008020138 -0.025844118
-0.0064724004 -0.02023436 -0.007419238 0.021429326 -0.012050004 -0.02801795 -0.01732935 -0.01939435
-0.028968194 -0.020661931 0.011475954 -0.021918638 -0.026286487 0.0101558445 -0.030536463 0.0030305819
-0.015075729 0.0017940762 0.01664518 -0.00451782 -0.023667743 0.032838073 -0.012622059 -0.024478825
0.017777395 0.017193947 0.009622051 -0.036417518 -0.0096704485 0.024275487 -0.016830677 0.0027341517
-0.03675949 -0.012684526 -0.016837982 -0.0101978555 0.030200459 0.0016248821 -0.018039033 -0.012171633
0.0018628029 0.03190112 0.023094464 0.0119507285 0.023124361 -0.02815738 -0.011523177 0.029153937
0.0034943593 -0.009081069 0.0045842114 -0.0118825985 -0.02050718 -0.02737957 -0.027585205 -0.011454355
-0.04006876 0.015880814 0.047316477 -0.02656304 0.013193122 -0.0110191805 0.00053140125 -0.01702016
-0.012388116 -0.012507518 0.0014536886 -0.010488766 0.023177927 -0.015502794 0.0014593258 -0.011725517
0.008134926 0.019632338 -0.0053067436 0.0012195351 -0.041564014 -0.0077751502 0.01354896 0.01535971
0.02494842 -0.018900596 -0.021935727 0.006016766 -0.036941096 -0.015527421 -0.0038769408 -0.018873114
-0.023209179 -0.027764784 -0.009422264 -0.01485001 -0.0407136 -0.008010782 0.02552932 -0.012488537
0.010671748 -0.011186484 0.00017242171 -0.020010227 0.0139639955 -0.029539246 0.005822548 0.00649104
-0.0038234782 0.010067049 0.0284364 0.0114555545 -0.015540779 0.0028314216 -0.047994766 0.033235326
0.04646659 0.0152852265 -0.020426039 -0.0074098473 -0.018474031 -0.019429691 -0.007393131 -0.016827965
-0.022117255 -0.01824999 -0.033276282 0.01658445 0.027986106 -0.020991722 -0.021828327 0.00017064749
-0.01789612 0.028305488 -0.025753604 0.03150384 0.019078707 -0.03159184 0.002608802 -0.047185063
0.0037231084 0.046210527 -0.011526213 -0.023848502 -0.031539306 0.014016391 -0.030477757 0.02759711
-0.038798053 0.010856687 -0.008891255 0.014737294 -0.014773962 0.031447466 -0.03096968 -0.015540639

network_body._body_endoder.seq_layers.0.bias f4 [256]
00000000: 3269 ebb9 9ca8 b13b d1c4 5c3c 3aa2 953b
00000010: 970e 23bb 245c 5c3c 15ac 9a38 5c58 82bb
00000020: bfa2 6d3b eafe 8b3b 686f 8f3a 00ad 4cbc
00000030: a3d0 10bc 0529 953b 580d 5f3c 3bce a23b
00000040: c86d 323c e697 513b 67cf 483c 6551 8bbb
00000050: db67 833b 5450 503c 7f2e 113c 6c6f c13b
00000060: c9df 223c 5a24 9e3b feea 643c 5a6c 2f3b
00000070: 91a2 a8bb c0ff 793b 5ca5 533c 773f 8a3c
00000080: 0690 193b 2ba3 7fba 4495 0c3c 4b31 b73b
00000090: bbce 223b 9be9 ae3b d48c 053c fef9 403b
000000a0: c091 263c 051b ab3b 963b 4a3c 3b93 703c
000000b0: 70b7 013c be76 ca3b 4e36 243b 6623 c3bb
000000c0: d4e6 d63b 6c68 053c df09 5c3c 1141 6a3c
000000d0: 5489 9a3c bbe4 343c 89a3 683c fce4 a03b
000000e0: 9756 fd3b e89b 0f3c fae6 823c 08e6 813c
000000f0: 112a e1bb 5dac 883c 7b2c 3e3c e7dc 153c
00000100: 13b9 3a3c f47d c63b b0b1 a53b f0ac 07bb
00000110: 8a7b 2f3c d192 e53b 5682 543c cf2a 773c
00000120: 5006 6e3c 7f14 bf3b 3c95 3b3a 409e c53b
00000130: bd84 ba3b 46dc 813a 99a9 3b3c 1943 983b
00000140: 3230 113c 7a8b 5c3c 4521 073c 905c 283c
00000150: 270c 1dbc c7bd 823c a118 723c 6f1e 323c
00000160: 4ac4 933c 8991 d23b 1f94 833c 88cd 703c
00000170: fddd 3c3c b367 1e3c 8563 693c 46b5 ec3a
00000180: fd49 1f3b 3aac 8d3c 6972 db3b 7104 8f3a
00000190: 96bf 7fba 630b 55ba 9360 723c ed36 27bc
000001a0: 814c 423b c9b9 f23b a6f3 1d3c 11b3 163b
000001b0: d5aa 203c e91a 4a3c 4d22 e93b 266c ec3b
000001c0: 093e 553b 5846 e63b 9ecf 9e3c e898 8c3c
000001d0: ae52 a7bb b6bf b8ba f651 0c3c 3edd 873c
000001e0: 246e 073c 5f5e 153c a5b6 813b e07f 823c
000001f0: b437 3a3c 60af 883c 5f08 253c 2cd6 de3b
00000200: 516b 963c 9092 e83b d6ad 9e3a b0b1 513c
00000210: ba2b 293c 256c ef3b d0a0 d3bb 3eb7 193c
00000220: 31af 54bb e45e c93b 63df 123c 7773 d83b
00000230: f64a 0c3c 9b09 983b 30e8 1f3c 3677 603c
00000240: 9bd4 123c 264c 2abb 1e5e 303c 2a66 143b
00000250: 87f1 c73b 793d 5e3c 76e9 e53b 6911 273c
00000260: f00c 393c a920 3c3c 146a ce3b d78f 1d3c
00000270: a37e 00bc 64be 343a 7141 7c3b 4ae4 623b
00000280: 7405 bbbb 01e1 af3c 811d 253c 651e 403c
00000290: f021 8a3b 8022 c73b a485 f43b a3b9 873c
000002a0: 3c86 24bc 0c58 3b3c 8b0f 05bb d939 5b3b
000002b0: db27 2a3b f54f b73c cfc0 5c3c 08b4 c7bb
000002c0: d689 8f3b d83f 563b 078d 433c bbf3 8bbb
000002d0: 1605 663c 6b38 3dbc d606 d33b 95e7 1c3c
000002e0: 7270 133c d2a1 363c ed8b e13b 256b 683c
000002f0: c589 dc3b da80 f33b b6e6 883c 67da a43b
00000300: dd3f a93b 06ee 9e3b 5a97 613c 759a 423c
00000310: 5f63 0ebb dfbe 1cbc 9816 b33b 7611 e03b
00000320: 455c 003c d938 ba3b 9ced 6a3c 3516 803c
00000330: 086c a03c 7231 3d3a 9b67 aa3c 8a3e 553c
00000340: 6c21 313b b15d 7c3c 418a 943c 23e9 d23b
00000350: 7e12 ad3c e380 243c a427 ff39 c9d6 763b
00000360: a018 f939 f4a7 763b a8df 31bc e06e 343b
00000370: 9068 c73b 3d44 75bc 470d 533b be04 093c
00000380: 7b33 3b3b 183d 9c3c e5d4 203c 650e a23c
00000390: a2a0 663b 263b 2c3c 4db6 893c 3ebe 683c
000003a0: 3b47 4a3c 84d7 983c 1f90 333c 2413 b93b
000003b0: 6800 8cbc d854 9b3c 69f7 893c 4625 10bc
000003c0: 9536 043c be51 873c 97b8 b73c 881c a6bb
000003d0: 783a d83b 5920 213c 60f0 abba 8691 143c
000003e0: 99d6 4638 ce16 473c af73 a53b 28da bf3c
000003f0: 35eb 383c a008 a83a 81e7 063c b1a0 d23b
-0.0004490107 0.005421711 0.013474659 0.004566458 -0.0024880522 0.013449702 7.375345e-05 -0.0039778184
0.0036260334 0.0042723315 0.0010943236 -0.012492418 -0.008838805 0.004552009 0.013614021 0.0049684322
0.010890432 0.0031981408 0.01225648 -0.0042516463 0.0040101833 0.012714464 0.008861183 0.005903175
0.00994105 0.004826111 0.013972042 0.0026767463 -0.0051463326 0.0038146824 0.012917843 0.016875966
0.0023431792 -0.0009751792 0.00858051 0.005590593 0.002484246 0.0053379065 0.008151252 0.0029445882
0.010166585 0.005221727 0.012343308 0.01468354 0.00791727 0.006178706 0.0025056782 -0.0059551476
0.0065582786 0.008142572 0.013430088 0.01429774 0.018864311 0.011040862 0.014199146 0.0049101096
0.0077312696 0.008765198 0.015979279 0.015856758 -0.00687147 0.016683752 0.011607285 0.0091469055
0.011396664 0.0060574953 0.0050565824 -0.0020702444 0.010710606 0.0070060273 0.012970528 0.01508589
0.014527872 0.0058313007 0.00071557215 0.0060308278 0.005692093 0.0009907566 0.011454009 0.0046466705
0.008861588 0.013460988 0.008247678 0.010275975 -0.009585417 0.015959634 0.01477638 0.010871514
0.018037934 0.0064260405 0.01606184 0.01469744 0.0115275355 0.0096682785 0.014244919 0.0018059395
0.0024305575 0.017294038 0.0066969884 0.0010911358 -0.00097560266 -0.0008127002 0.014793533 -0.010205966
0.002964765 0.007407401 0.00964061 0.0022994915 0.0098063545 0.012335517 0.0071146847 0.0072150407
0.0032538197 0.0070274286 0.019386109 0.017162755 -0.0051062917 -0.001409522 0.008564463 0.016584989
0.008266006 0.009116738 0.0039585405 0.015930116 0.01136582 0.016685188 0.010072797 0.0068004336
0.01836172 0.0070975497 0.001210625 0.012798712 0.010325367 0.007306593 -0.0064583793 0.009382067
-0.0032453055 0.006145345 0.008964392 0.0066055614 0.008562794 0.004639817 0.009759948 0.013700297
0.008961822 -0.002598533 0.010764627 0.0022643902 0.0061017903 0.013564461 0.007016356 0.010197022
0.011294588 0.011482396 0.0062992666 0.009616814 -0.007842693 0.00068948255 0.0038491155 0.0034620934
-0.005707437 0.021469595 0.010077835 0.011725997 0.0042154714 0.006077111 0.0074622203 0.01656801
-0.01004177 0.011434566 -0.0020303454 0.0033451228 0.0025963697 0.022376994 0.0134737035 -0.0060944594
0.004380445 0.0032691862 0.011935479 -0.0042709983 0.0140392985 -0.011549096 0.006440024 0.009576698
0.008998977 0.011146979 0.0068831355 0.0141857015 0.0067302906 0.007431132 0.016711574 0.0050309184
0.005165084 0.004850152 0.013768995 0.011877646 -0.002172671 -0.009566992 0.00546534 0.006838019
0.007834499 0.0056830463 0.014338877 0.01563559 0.019582763 0.0007217146 0.020801356 0.013015399
0.0027027978 0.015403197 0.01813233 0.0064364835 0.021126982 0.010040495 0.00048666925 0.0037664643
0.00047511328 0.003763673 -0.010856546 0.0027531907 0.006085463 -0.014969883 0.0032203959 0.008362947
0.002856462 0.0190721 0.009816383 0.019782254 0.003519096 0.010512149 0.01681056 0.0142055135
0.012346084 0.018657453 0.010959654 0.0056480337 -0.017090037 0.018961355 0.016841607 -0.008797949
0.008069654 0.01651847 0.022426886 -0.005069319 0.006598767 0.009834372 -0.0013117902 0.009067899
4.740674e-05 0.012151433 0.005049191 0.023419455 0.0112865465 0.0012819953 0.008233906 0.0064278473

network_body._body_endoder.seq_layers.0.weight f4 [256, 74]
00000000: 91d1 24bc 6417 973d 8ca4 9cbd c735 8d3d
00000010: 0e72 ad3d 1f56 b13d eae1 79bd 23d3 bdbd
00000020: 5a2e 8d3d 5bf6 093e a4e6 dabc ab55 303e
00000030: 69fd 45bd 43a3 c03d fbbb 98bc 8ecf 413d
00000040: 5837 a6bd 9aba 21bd a47c 0fbe 5bb2 36be
00000050: fa82 0a3d 2d3b 663c fc43 d73d 285e 0cbd
00000060: a6b6 f83c a3be a73d afd4 0bbe 683c 073e
00000070: 3493 1f3d 7303 77be d7e3 033e 6699 86bd
00000080: 9e75 d4bd 39ba 03be 3846 dbbd 9e6d 39be
00000090: 3f66 a9bd 3d91 1bbc 9656 14be a46e 153c
000000a0: 739a 993d 796b 01be ed5c 473e ff6b a8bd
000000b0: 2ef0 ab3d b59a 483e 0f99 8d3d be15 2cbe
000000c0: 63f4 e8bd 1790 d1bd f9a6 863d c75c c33d
000000d0: 56e2 dc3b f12c 71bc d865 5d3e 5992 133e
000000e0: d0db 3dbe 23ce 7d3e 92c0 993d fd7c 05bd
000000f0: 4560 61bd 68e9 b8bc 7cb5 3f3e 4f40 763e
00000100: 7b9a 90bc 51c2 0c3e 832d 47bd 57a7 ef3d
00000110: 09e8 a2bc 567e 33bc 9261 02bd ada6 333d
00000120: 1cb0 56bd 83ca 10bd 08d1 d3bd 9c73 833c
00000130: 27d5 46bd 5666 90bc 028f 17be e528 5abc
00000140: 45b7 8bbd a758 8e3d 02bf 63bd cfb6 3a3e
00000150: f22b a8bd 065d d43b ba9d d83d 3c77 a13d
00000160: 11f4 27be c683 bd3d 6781 063e 7935 cd3d
00000170: 74f7 e1bc 897a 223e 5728 6bbd ea15 d9bd
00000180: 5a57 3ebc b81d 373d b2e4 e3bd f440 303e
00000190: e748 ca3d 0f5f 30bd 1a21 13bd 63f5 ffbc
000001a0: 1cb1 c13c 071c b83d 861e c3bd 21a5 ed3d
000001b0: df17 323d 72c7 983d 0a95 2e3e 2e32 553b
000001c0: c773 9bbd 18b2 25be a974 233d 12aa 0cbe
000001d0: 3702 833d 7f77 f63c 71e1 c43d d4f4 d23d
000001e0: 5e6c e8bb 6461 c93b dcd9 c53d f856 20be
000001f0: ae34 113b e15f 8abc cd33 1dbd 23d2 913d
00000200: 59e5 03be 0e84 4b3e cc79 dc3a 8a8a ad3d
00000210: 76dd 0f3e 3eab c0bd cef6 6ebd 700e a83d
00000220: 86b3 333d 817c ebbc 158c cc3a 6bec 133e
00000230: 3857 953d 2825 f13c 61b8 42bc e08d 05bd
00000240: 65ab 4ebd 0f27 4e3e da95 023e 3ee9 11bd
00000250: c4ca 0b3e 7fd1 0cbe a766 d53c d6a0 5abd
00000260: c3b6 24be 409d cc3d 1ae6 193e f077 99bb
00000270: bee5 8f3d ba92 823d d940 3c3c 65c7 47be
00000280: 4929 5f3e ca0a dfbc 84b2 41be 4321 403d
00000290: dd68 c33d e0b9 523d b5b0 2dbd cf7f 3dbe
000002a0: 70ad 08be e69c babc eb86 05be 6c66 983d
000002b0: 79d6 f03d 7be1 02bd dcd3 803e f2ee 1a3e
000002c0: 3588 613e ecae b3bb f006 acbc 15a1 7c3c
000002d0: 71f3 bc3d 9ab0 4e3d 703e 23bd 13d1 57bd
000002e0: eb24 913e 4f74 8d3d 4d88 8b3d a2e9 1bbd
000002f0: fcfd debc 859f 07be 1d08 b33d af8c 7fbc
00000300: b51f 1a3d d31e 70bd 26aa 0abb 3d7c 543c
00000310: ecd1 903e a03b 903c 7e14 91bd 852d 86bd
00000320: 1715 353d b8bd 643d 754a a9bd e92c 4fbd
00000330: cf2b a2bd fdc6 69be c0ad 223d dad4 ac3d
00000340: 1a85 283e d845 9cbd 43ea 4bbd e551 473e
00000350: 4707 e2bd ccdb d5bd a927 59bd 5c52 b1bd
00000360: e864 813e 3ad6 e03d 3a7d 043e ab54 9ebd
00000370: da4b 4fbe ebfa 94bd 505b 673d 4ef1 043e
00000380: b3d4 19bc 9a24 a3be b0cc b0bd ae43 7dbd
00000390: bbd1 683c 20f0 9fbc 8a9b 373e ddea f03c
000003a0: ff2a d93c 65eb 22be 2680 c23d b5cd cf3c
000003b0: 7686 b3bd a27a 25be 797f f63c 1ffc f23d
000003c0: c56e 5cbe b655 60bc 150b adbd b4d8 57bc
000003d0: cdc2 70be 91c1 3d3d 6bee debd 480d c8bb
000003e0: 0385 d83c 52fc 53be cfae 143d 67a0 40bb
000003f0: a34e 243e 0614 933d a5ff 303e 60a9 183d
-0.01005973 0.07377508 -0.07648572 0.06895023 0.0846902 0.086590044 -0.061006464 -0.09268787
0.068936065 0.13472883 -0.026721306 0.1722018 -0.048337374 0.0940614 -0.018644324 0.04731708
-0.08116025 -0.039484598 -0.1401239 -0.17841475 0.033816315 0.014052195 0.10511014 -0.034269482
0.030360531 0.08190658 -0.13655351 0.13206637 0.038958743 -0.2412241 0.12879883 -0.06572227
-0.10373996 -0.12864007 -0.107067525 -0.18108222 -0.08271455 -0.009495077 -0.14486155 0.009120617
0.07500162 -0.12638654 0.19469042 -0.082237236 0.0839542 0.19590266 0.06913959 -0.16805169
-0.11374738 -0.10232561 0.06574816 0.0953918 0.0067408485 -0.0147201875 0.21620882 0.14411296
-0.18540883 0.24785666 0.07507433 -0.0325899 -0.05502345 -0.022572234 0.18721575 0.2404797
-0.017651787 0.13746001 -0.048627388 0.117018394 -0.019886034 -0.010955414 -0.03183133 0.043860126
-0.052414045 -0.03534938 -0.10342604 0.016046338 -0.04854312 -0.017626923 -0.14800647 -0.013315414
-0.06822065 0.06950503 -0.05560208 0.18233798 -0.08211507 0.006480816 0.10576959 0.0788407
-0.16401698 0.092536494 0.131353 0.10019965 -0.027583815 0.15867056 -0.057411518 -0.10599883
-0.011617506 0.044706076 -0.111276045 0.17212278 0.09877186 -0.043059405 -0.03592024 -0.03124494
0.023644023 0.08989721 -0.09527306 0.116037615 0.043479796 0.07459916 0.17049041 0.003253113
-0.07590442 -0.16181219 0.039906178 -0.13736752 0.06396907 0.030086277 0.09613312 0.103006035
-0.0070929965 0.006145643 0.09660694 -0.15658176 0.0022156644 -0.016891422 -0.03837948 0.071201585
-0.12880458 0.19874594 0.0016820966 0.0847369 0.14049324 -0.09407662 -0.05834084 0.08205879
0.04387238 -0.028745892 0.0015605713 0.14445655 0.07292026 0.029436663 -0.01188478 -0.032606006
-0.050456423 0.20132087 0.12752476 -0.035622828 0.13651568 -0.13751791 0.026049925 -0.05337604
-0.16085343 0.099909306 0.15029183 -0.004683487 0.07026242 0.06375642 0.01149007 -0.19509657
0.21793093 -0.027226824 -0.18915755 0.04690672 0.095414855 0.051446795 -0.04240485 -0.18505786
-0.13347411 -0.022779893 -0.13039748 0.074414104 0.117596574 -0.031953316 0.25161636 0.15130213
0.22024615 -0.005483499 -0.020999402 0.015419264 0.0922612 0.05046139 -0.039854467 -0.052689623
0.2834848 0.0690695 0.06813107 -0.038064606 -0.027220719 -0.13244446 0.08741782 -0.015597506
0.037627894 -0.058623146 -0.0021158545 0.012969074 0.28285158 0.017606556 -0.07083987 -0.06551651
0.044209566 0.055844992 -0.08266155 -0.05057994 -0.07918512 -0.22829814 0.039716482 0.08439036
0.16457024 -0.07630509 -0.049783956 0.19464834 -0.11036544 -0.104423136 -0.05301634 -0.08658287
0.25272298 0.109783605 0.12938395 -0.07730993 -0.20243779 -0.07274421 0.056483567 0.12982675
-0.00938909 -0.31863862 -0.08632791 -0.061832123 0.01421016 -0.01952368 0.17930427 0.029408867
0.02650976 -0.15910108 0.094970986 0.025366643 -0.08765881 -0.16160062 0.03009008 0.118644945
-0.2152663 -0.01369231 -0.08449379 -0.013174225 -0.2351181 0.046327177 -0.10885318 -0.006105099
0.026430612 -0.20701721 0.036299523 -0.0029392482 0.16045623 0.071815535 0.1728502 0.037270904

network_body._body_endoder.seq_layers.2.bias f4 [256]
00000000: 7f77 303c 5b44 87bb 9a88 673b 4c8c 0c3c
00000010: f876 133c ac27 423c 3670 b03b b954 25bb
00000020: c494 3c3c e678 ce3b bfe0 e73b 561a 043c
00000030: 53de 2c3c 9f94 5dbc 479f 833b b347 473c
00000040: 1898 fc3b 26c7 dd3b 75f0 223c dfc1 05bb
00000050: 99a4 9d3b 74f4 073c 5f97 9a3a 6b78 45ba
00000060: f9bd 273c 6125 dd3b 934c 23bb 610b 323b
00000070: 472b b1bb 36d3 5f3b 2193 95bb 3b74 753b
00000080: 3d14 7d3c e663 eb3b d44a 933a 2466 013b
00000090: 0c84 d53b 28dc 98ba d0ce 443c 51dd cd3b
000000a0: d2d4 e93b d466 f8b9 f0f6 ab3b 6a90 f53b
000000b0: d9f4 383c 6449 263c 134f 5e3b 9075 fc3b
000000c0: b115 0a3c f9bf 033c 4edc a33a 0005 89bb
000000d0: e897 473c 2418 6fbc 8330 363b ef54 1d3c
000000e0: 3665 2a3b 1fe3 41bb efb1 db3b 3896 283c
000000f0: 7c0d 5d3b 6457 9e3b a908 f83b 86ac 053c
00000100: c098 5f3b 37e8 313b e6b8 1c3b 9eb0 d93b
00000110: 2a60 0c3c 6b00 213c cb2f 953b 685a c03b
00000120: 9917 923b 4112 643b 2f13 603c a0c3 093c
00000130: 3929 453c 6e1e a23b 1865 133c 8561 103c
00000140: d4b9 b13a 8764 ea3b bc66 f63b 2f57 44bc
00000150: 8d0b 603a 19be 3aba 218c a1bb 1fc9 713c
00000160: 46a1 edbb 4411 da3a 402e 8c3b bc4f b83a
00000170: 93de 063c 999a 353c 3ea7 d63b 813c 493c
00000180: 55f8 7d3c ee5d 843b 1add e73b f607 f43b
00000190: 80c2 0cbc 8452 9c3c d307 af3b 13bf e43b
000001a0: c23f fa3b 3b0e b93b c27d 913c 5569 bb3a
000001b0: f804 813b 21d9 d1ba adb4 4a3c 7b56 193c
000001c0: 12ac 213c af65 f23b f7de 083c 5b51 343c
000001d0: b1aa 753c f32c b53a e8ea b13b 3746 9e3c
000001e0: a626 8e3b 708d 6c3c ae13 203c 66d7 413b
000001f0: fb3c 023c ac40 283c be98 5e3c 8dd1 5a3c
00000200: 00b0 b1bc c756 543c b0dd 883a 53f7 163c
00000210: 0914 503a 28bd a73b 704d 093c 1acd 903a
00000220: 1c4a 1c3c 9b69 143c 9f10 98ba c3b9 7d3b
00000230: e808 f13b 04c9 c93b f429 b33b 408d 23bb
00000240: f044 46ba 3a0c 733a 0a51 bebb c0db 1a3b
00000250: 6e94 0b3c e9ec 763b 6d5a 3e3c 21ff c3b8
00000260: 3702 493c 9550 5e3b 9270 e9b9 a780 113c
00000270: 1a18 d33b 520b 653c 6e14 2b3c a0fc 9c3c
00000280: f644 193b 603d 293c 8b6f 8f3b 87dd 063c
00000290: 3d3e 233c 54aa 573b 84ca d23b 198c 143c
000002a0: 48ba e43b 39e5 7a3b 095a 8cba cc10 2239
000002b0: e31b 213c eb0a fc38 6bda e43b 8d0e 553c
000002c0: 2e51 8d3c 55ec 39bb 2806 993b 56cb 233c
000002d0: f59f 223c c5ec f6bb 0048 263c 3ca4 173c
000002e0: 3908 603c d690 e23a 9475 203c d4a0 1e3c
000002f0: 729c 173c 1fa5 19ba ea4c c13b 0ff7 27ba
00000300: 2013 083c e376 c53b a6c1 113b f661 433b
00000310: 519d 59bc 39f2 1f3c 1b43 903a c0f7 ff3b
00000320: 8d38 803c d751 a43b d49e 8e3c fb56 1f3c
00000330: 11ab cf3b 5a94 ed3b 40c4 e43b 760a 603b
00000340: a6a7 c4ba a3f4 19bb bc2d 903b 5a06 4f3b
00000350: d7fc 153c 44ba 463c 0148 6b3b 3377 393c
00000360: 71c3 993b 36ac a03b ade3 283c 92ba db3b
00000370: 0981 a83a 67b5 1b3a 0811 5c3b b922 783c
00000380: 050c 1a3c f849 943c 3c5a d0bb 3e2d 053c
00000390: 8d03 3e3c f293 01bb 96b2 263c 8c08 563a
000003a0: c7c9 ad3b 58d4 133c 5e98 d43b 8349 9abb
000003b0: 0876 cf3b 8a49 e83b 664c b8bb a201 9bba
000003c0: ab90 3f3c 7731 4f3c ecae ef3b f47f 013c
000003d0: e70d 4e3c d477 733c abc2 00bc 3702 cc3b
000003e0: 0ee7 333c 2e74 dd3b 5076 cbbb f339 b5bb
000003f0: 6927 fc3b f3dd 653b 576b 1a3c 889a eb3a
0.010770678 -0.0041280217 0.0035329224 0.008578371 0.009000532 0.011850279 0.0053844703 -0.00252275
0.011510078 0.0063010333 0.0070763524 0.00806292 0.010551053 -0.013524204 0.00401679 0.0121630905
0.0077085607 0.006768125 0.009945025 -0.0020409746 0.0048108813 0.008298028 0.001179438 -0.0007532897
0.010238164 0.0067488407 -0.0024917468 0.0027167427 -0.0054067704 0.003415299 -0.0045646583 0.0037453312
0.01544672 0.0071835397 0.001123751 0.0019744718 0.0065159854 -0.0011662291 0.012012199 0.0062824865
0.007135966 -0.0004737886 0.005247943 0.007494022 0.011288845 0.010149334 0.0033921644 0.007704444
0.008428023 0.008041375 0.0012501569 -0.0041815042 0.012182213 -0.014593158 0.0027799911 0.009602769
0.0026000268 -0.0029584838 0.006704561 0.010289721 0.003372996 0.004832195 0.0075693917 0.008158809
0.0034118146 0.0027146467 0.002391392 0.006643369 0.008567849 0.00982676 0.0045528165 0.0058701523
0.0044583795 0.003480092 0.013676449 0.008408457 0.012033754 0.004947475 0.008996271 0.008812313
0.0013559409 0.007153097 0.007519571 -0.011983677 0.0008546643 -0.00071236637 -0.0049300347 0.014757424
-0.0072518913 0.0016637226 0.0042779744 0.0014061849 0.008231777 0.011084222 0.0065506985 0.012282492
0.0155011015 0.0040395176 0.007075918 0.007447238 -0.008591294 0.019082315 0.005341509 0.0069807856
0.007636995 0.0056474484 0.017760161 0.0014298359 0.00393736 -0.0016010144 0.012372178 0.009358997
0.009867685 0.0073973755 0.00835394 0.011005725 0.014994309 0.00138226 0.0054296143 0.01932059
0.0043381033 0.014438018 0.009770317 0.002957785 0.007949109 0.010269325 0.013586221 0.013355625
-0.021690369 0.012960142 0.0010442045 0.00921424 0.0007937556 0.0051189847 0.008380279 0.0011047453
0.009539153 0.009058381 -0.0011601633 0.003871546 0.007355798 0.006157996 0.0054676477 -0.0024956018
-0.0007563373 0.0009271536 -0.0058080005 0.0023629516 0.008519275 0.003767783 0.011618239 -9.345846e-05
0.0122685945 0.0033922542 -0.00044525095 0.008880771 0.006442082 0.01397975 0.010441883 0.01916343
0.0023387051 0.010329574 0.0043773106 0.008231527 0.009963569 0.003290792 0.006432833 0.009066605
0.0069802143 0.00382836 -0.0010707985 0.00015455781 0.009833309 0.0001201833 0.0069840453 0.013003957
0.017250624 -0.0028369625 0.0046699233 0.0099972095 0.009925832 -0.0075355493 0.010149002 0.009255465
0.013673835 0.0017285596 0.009793658 0.009681899 0.009253608 -0.0005861092 0.0058990614 -0.0006407359
0.008305341 0.0060261353 0.0022240668 0.0029813028 -0.013282136 0.00976234 0.0011006327 0.0078115165
0.015651966 0.005014639 0.01740972 0.009725328 0.0063375314 0.007250351 0.0069814026 0.0034185923
-0.0015003576 -0.0023491762 0.004399983 0.003158948 0.00915452 0.01212937 0.0035901072 0.011319923
0.004692488 0.0049033416 0.010308188 0.0067055905 0.0012855838 0.0005939812 0.0033579487 0.015144997
0.00940228 0.018101677 -0.006358413 0.008128462 0.011597526 -0.001977202 0.010174414 0.0008164726
0.0053035947 0.009022795 0.00648789 -0.0047084703 0.006331209 0.0070888447 -0.005624342 -0.0011826048
0.011692206 0.012646071 0.0073145535 0.007904042 0.012576557 0.014860112 -0.007858912 0.00622585
0.010980381 0.0067582345 -0.0062091723 -0.0055305897 0.0076951277 0.003507492 0.009425006 0.0017975131

network_body._body_endoder.seq_layers.2.weight f4 [256, 256]
00000000: 21f3 ba3b e7f2 013c ed87 863c c3f9 5cbc
00000010: bf47 85bd d539 9d3d 79e9 8ebd a090 bdbd
00000020: d423 a63c 5964 7d3d c8ed 6a3d 20bd abbd
00000030: 0a14 ef3b 92b0 bf3d 3ece cf3d 544e 97bb
00000040: 7500 6b3d 620c a03d 934f b2bd 57d0 34bd
00000050: 4b2c bd3d cbc1 d03c 44ab e3bc 39ef 55bd
00000060: ba47 15be afe8 243d c05b 69bc e664 8abc
00000070: 7b88 9e3c 43a5 bb3a dc4f e53c 90a2 1cba
00000080: e6b5 833a ef13 6b3c b3db be3c ac83 e93d
00000090: 0f1e c1bc a0c0 2cbd 13f4 0dbe 9e50 b2bd
000000a0: c6c0 afbd 38ab e43d 082f b1bc 480d 243e
000000b0: 3aa5 c13d 69ba 053e 6e64 6f3d 74c5 a9bc
000000c0: c616 42bd ab10 08bd 8643 b53d 1648 e6bd
000000d0: cbe7 a93b 6410 52bd c0ea aa3d a674 c7bc
000000e0: 5022 1ebe c5d4 923c 28e4 98bd 7750 623c
000000f0: bf62 5abd 74c7 8a3c bf64 b3bc e47b 863d
00000100: 588f 88bc 82f7 bb3d 5b06 9b3d 155b 81bd
00000110: a06f 0f3e f92d b7bd 3c26 0ebc 4d23 82bd
00000120: e1ad 393c 4677 1d3d 1482 7d3d ab8d 35bd
00000130: a7e1 d6bd 7c6a ed3c 4b61 b43c 3fa5 a23d
00000140: d0eb 373d edff 483d 2101 b5bd 3054 b1bc
00000150: f816 e1bc 58dd 3fbd 5dba 2b3d a4db 5abd
00000160: e299 46bd 7ac3 5abd 9cd4 d7bd 28ad a43b
00000170: e8aa 6c3d f037 1dbb e6e1 00bd a5fb 31bc
00000180: ec5f f2bb b231 ebbd fd21 90bd e27b 1abd
00000190: b14f 37bd 6ae4 c4bc aa9f a8bc 7f0c 90bc
000001a0: fdff a4bd f26e 23be 481c 0bbe 4dd0 b63c
000001b0: d6a5 a13c af95 d0bb 1cab 863d c92d 74bd
000001c0: 33a7 03bd 44bb a7bd 417a 743c c8cb 0dbd
000001d0: 3e2a 63bd d4b7 67bd 37b0 153b 119a e73c
000001e0: 4773 5abd 10d8 afbd c9f3 ddbd 61ed d73d
000001f0: 1dc3 9ebd 79b3 b03d f435 3c3d 99ff 5d3d
00000200: 1717 4bbd 8305 36be c7ee f4bc 27d4 813d
00000210: d690 d1bb 03f6 c0bd daac 053d b3b3 1e3d
00000220: e36f 9bbd b035 a73c 4c19 093c 8d39 b8bd
00000230: 85d6 273d 3e15 89bb bbac 373d 4adf b6bc
00000240: 399a 063d 2977 453d 9270 9b3d 3442 fdbd
00000250: 7521 d6bc 844a 623d f059 833d e8e1 28be
00000260: 1329 c1bd 1a06 83bd 14dc 34bc ea7b c33d
00000270: 5f69 6b3c fb02 f23c a128 933c 7f1a d63c
00000280: 753f 673d 90ae 77bd 9884 db3d 4eca 223c
00000290: 7d13 f33d 7fd8 6d3d 9209 49bd 19f0 5e3d
000002a0: 0bcc ec3b 8e03 3d3d 91b4 ea3c 8f49 c63d
000002b0: 3c17 393d 9571 5d3d 5fd1 efbc c58a ff3b
000002c0: e8d8 343d f8d0 6fbd 8a1c a4bd 5d3c 553d
000002d0: be59 1f3d b657 a2bd 4f6a fbbc 9b92 2abe
000002e0: e58b 71bd 6d53 1f3d d4b6 043c 7f1d 863b
000002f0: fac2 493d 6411 ddbc d0b7 a23c 7e54 89bc
00000300: a35d 313d 5ded d1bd 09bc 7fbd 09bc a73d
00000310: 419d 5dbd fa1b cabc 32fd fcbd 4e93 4ebd
00000320: 34a6 ac3d 7be2 20b9 ed42 0d3d 9e1a 083e
00000330: fcd4 9abd 0268 85bd 1c70 29bd 770e 4ebb
00000340: 57de 03be 24b0 bbbd 535e c53c ce64 e53c
00000350: 8266 693b 5094 3ebd 37bd b7bc 71c7 b03c
00000360: d8ca 18bd 02fc 42bd 1793 2dbb 35a8 eabd
00000370: f4a8 ff3c 9954 553d b7fc 923d aa32 11bd
00000380: 82d0 343d bdc2 bbbb f60f a23d 1eed 083d
00000390: 26d4 77bc 25a2 e73c cbc5 8b3d e518 a93d
000003a0: a21a 623c 96ab 9abc 616f 58bc fb66 c4bc
000003b0: cd79 3dbd 139f 85bd 4289 323d c2a9 09bb
000003c0: ff99 cabc 63a0 eb3c 8b04 1e3c 2093 a0bb
000003d0: 3b25 0cbd 881c fa3b 70a6 10bc 6f27 74bd
000003e0: 4d58 0cbc b865 283c 8cbe 9abd ffc0 383c
000003f0: e9ad 7a3b 1f82 2c3d 5a53 98bd 4f7d 6abd
0.0057052528 0.007931448 0.016422236 -0.013487282 -0.06507825 0.07677046 -0.06978125 -0.09256101
0.020280756 0.061863277 0.057355672 -0.08385682 0.00729609 0.0935985 0.101467595 -0.0046174917
0.057373483 0.07814862 -0.08706584 -0.044144 0.09236964 0.025483033 -0.027791627 -0.052230094
-0.14578143 0.040260967 -0.014243066 -0.016893815 0.019352188 0.001431622 0.027992181 -0.00059751514
0.0010048717 0.014348014 0.02329812 0.114020675 -0.023573903 -0.04217589 -0.13862638 -0.08706783
-0.085816905 0.1116547 -0.021628872 0.16020691 0.094553426 0.13059391 0.058445387 -0.020724036
-0.047385 -0.03321902 0.0885077 -0.11244218 0.0051851026 -0.051285163 0.08345556 -0.024347614
-0.15442777 0.017923722 -0.07465392 0.01381313 -0.053316828 0.01694081 -0.021898625 0.06566599
-0.016669914 0.09178068 0.075695716 -0.06316201 0.14007425 -0.089443155 -0.008676108 -0.06354389
0.01133296 0.038443826 0.06189163 -0.04432456 -0.104922585 0.02898144 0.02201905 0.079416744
0.044902623 0.049072195 -0.08838106 -0.021646589 -0.027476773 -0.04684195 0.041925777 -0.053432122
-0.048486598 -0.053409077 -0.10538599 0.0050255246 0.057780176 -0.002398964 -0.031465434 -0.010863219
-0.0073966887 -0.11484088 -0.07037733 -0.0377158 -0.044753734 -0.024034698 -0.020583946 -0.017584084
-0.080566384 -0.15960291 -0.13585007 0.022316122 0.019732397 -0.0063655 0.06575605 -0.059613977
-0.032141875 -0.08190015 0.014921726 -0.03461817 -0.055460207 -0.056571797 0.0022840628 0.028271707
-0.053332593 -0.085861325 -0.10837514 0.10543323 -0.07752059 0.08627982 0.04594989 0.054198835
-0.049582567 -0.1777554 -0.029899014 0.06339293 -0.0063954396 -0.09421923 0.032635547 0.038745593
-0.075897 0.020411342 0.008367848 -0.08995352 0.040976066 -0.0041834405 0.044842463 -0.02232327
0.032861922 0.048209343 0.075898305 -0.12366143 -0.026139 0.055246845 0.064136386 -0.16492426
-0.094316624 -0.06397648 -0.011038799 0.09545119 0.014368384 0.029542437 0.01796371 0.026135681
0.056457 -0.06046921 0.107186496 0.0099359285 0.118689515 0.058067795 -0.049081393 0.054428194
0.0072264723 0.04614597 0.028650554 0.09681999 0.045188174 0.0540634 -0.02927464 0.007798525
0.04415217 -0.058548898 -0.08013256 0.05205952 0.038903944 -0.07926886 -0.03069034 -0.16657488
-0.058971304 0.03889792 0.00810023 0.0040928717 0.04925821 -0.026985832 0.01986304 -0.016763922
0.04330219 -0.102503516 -0.062435184 0.08190162 -0.054105047 -0.024671543 -0.12352981 -0.05043345
0.08430138 -0.0001534316 0.034487654 0.13291404 -0.07560155 -0.065139785 -0.04136668 -0.0031441727
-0.12877785 -0.091644555 0.024092829 0.028002169 0.0035614078 -0.04652816 -0.022429092 0.021579476
-0.037302822 -0.047603615 -0.0026485377 -0.11457864 0.031208493 0.05208263 0.07177108 -0.035448708
0.04414416 -0.0057300017 0.079132006 0.033429258 -0.015126264 0.028275559 0.068248354 0.082567014
0.013800295 -0.018880647 -0.013210149 -0.023974886 -0.046258736 -0.065244816 0.04358793 -0.0021005725
-0.024731634 0.028763002 0.009644638 -0.004900351 -0.034215193 0.0076327957 -0.008828744 -0.05960792
-0.008565974 0.010278158 -0.07555875 0.011276483 0.0038250631 0.04211628 -0.07437773 -0.05724841

network_body._body_endoder.seq_layers.4.bias f4 [256]
00000000: 5b05 343c 84e1 7a3b 025d b03b 555e 283c
00000010: 1548 cf3b 9a08 af3b 431b 2a3c 7808 4f3a
00000020: 193a 233c 65fb 0d3b fff9 c63b 347f 353c
00000030: bc24 f53b 12ed c73b 8f66 e03b ca59 043c
00000040: 5728 133c 94ea f53b f738 223c f728 223c
00000050: 086e 233c 5a18 f43b a141 cb3b e0da 083c
00000060: 2106 053c 5be0 c83b a2b9 953c 1bff 843b
00000070: d34a f03b 831e bb3b 68f1 013c c3fc 0e3c
00000080: e085 393c 83ad 0ebb cb10 1f3a d346 013b
00000090: fece 1c3c 091c 0c3c db10 f73b e645 0a3a
000000a0: cb00 d53b cd9d a23b 0164 173c 815a 8a3b
000000b0: bfb0 b63a 295e c73a cec0 a43b b7f5 e83b
000000c0: 66b2 303c ed94 013c be42 933b 9f4d f53a
000000d0: edb8 03bb f639 e23b 0a58 1c3c e57f ae39
000000e0: 32a8 083b f34a 923a f97b 003c c706 de3b
000000f0: 6076 083a 7fbd a33b 6362 d93b 7f29 b6b9
00000100: a73b 993b 1479 2c3c a78b 153c 898c c33b
00000110: 9d2d 293c 63ab 6b3b 14fb c43b 885f 4e3b
00000120: c2e6 d73b d196 a83b 363b fb3b 53c7 fb3b
00000130: 4935 0e3c f003 863b 6065 133c f627 fd3b
00000140: dfdc 943b 9cfb 283b 6eb7 163c facf 0e3c
00000150: eca8 553c 0478 deba 65a2 d83b c7b2 1c3c
00000160: 0911 f53a 9a59 583b dcc2 d03b 9760 2a3c
00000170: c131 e7b6 adb4 6c3c fa35 fc3b ff9b c63b
00000180: 5a23 3f3a e9eb 613b 9b86 093c 38e7 2d3b
00000190: 6dd4 e0ba 947c 6bbb 4804 933b 14d7 903b
000001a0: 166d 703b 4742 913b 1c25 903b b4bf 9c3a
000001b0: 701f bb3b 242c 363b aac9 b63b e840 883b
000001c0: 7cf1 1c3c 2e8f 513b 7829 273b ba11 b13b
000001d0: 4184 663b efa1 e73b 8d3e 3f3c f840 983b
000001e0: c4ad 673b 2764 233c 3e50 af3b e49c b43b
000001f0: 5435 5a3b 89bf 6f3b ad4b 0dbb 556b fa3b
00000200: 17a0 393c 96d3 4c3b 3105 923a 0b9c 423c
00000210: f3c5 c73b 9ac8 bb3b a3b6 2938 26a0 ff3b
00000220: 91ba 673b 42fa 953b 107b 233c 1962 013c
00000230: 76a4 c23b 3136 223c 680f f63b 4422 203c
00000240: 632a 173c e471 143c 9a75 5a3b 08df 2e3c
00000250: 7428 9a3b 87fc 7f3a fcc3 473a c1d6 bd3b
00000260: 0e02 393c 90e5 ae3b b2da 123c 0b43 fa3b
00000270: 4980 4e3b 375e 4a3b 425e 883b cc59 f13b
00000280: f092 a33b ab05 623b 6c0c 3d3c 3558 783b
00000290: 195b 023c 00ed b63a 7de7 bb3b bbb2 803b
000002a0: 7c15 933a 86dd c03a 66bd 243c e9ef 123c
000002b0: 2b43 7a3b ded5 04ba 09b8 1d3b bd3f 593b
000002c0: 95a8 983b 2daf 183b 6cb6 ae3b 22b6 2a3b
000002d0: 2c96 c13b ab22 943b a874 003c 31eb 163b
000002e0: 09b9 ff3b d5c7 383a c565 013c b7e8 533b
000002f0: b400 323c b132 8c3b 8f82 4b3b 6927 6e3b
00000300: 7bb1 fb3b 5ecb a13b e561 623b a1f7 f53b
00000310: 5346 ed3b 414a 183c 73c2 403c a80f fab9
00000320: db45 9b3a 3c9c acb9 0b36 a53b fd2b 583a
00000330: e8ec 0f3c 5f5b ee3b ca59 ed39 7b30 a33b
00000340: dc76 a73a 0639 7e3b 500f 293c 9ae2 5f3b
00000350: 4b61 af3a 5d67 803b 70cf c33b 3276 c73b
00000360: 8dc0 eb3b 65db 7d3b cb60 f43b b9ce 3d3c
00000370: 343c f53b eb3a 133c afdb a7ba 7691 b73b
00000380: 0abf 7f3b d554 233c ba50 8d3b bc60 c03b
00000390: 6afc c73b 8325 b53a e816 113c fe24 313b
000003a0: ad7f 173c 70a7 223c de43 4a3b a7d8 983b
000003b0: 1c5e 673c 33e1 003c 75c0 0b3c 3b0e ae3a
000003c0: 0f76 b03b 7610 b43b e18e c03b baa0 2d3a
000003d0: 6a79 213b 0b40 383c 869a af3b 511a 813b
000003e0: a98a 073c 849c 1e3b aa10 833b 599e be3b
000003f0: 8480 5f3b 593a 003c 931e a93b be65 cf3b
0.010987605 0.003828139 0.005382181 0.010276397 0.0063257315 0.0053416016 0.010382476 0.0007897685
0.009962582 0.0021664735 0.0060722823 0.011077691 0.0074811857 0.006101259 0.0068481634 0.008078048
0.008981786 0.0075047705 0.009901277 0.009897462 0.009974964 0.007449192 0.006202892 0.008352965
0.008119137 0.006130261 0.018276993 0.0040587313 0.0073331385 0.0057104244 0.007931091 0.008727255
0.011323422 -0.0021770902 0.0006067871 0.0019726052 0.009570835 0.008551606 0.007539851 0.0005274698
0.0065003387 0.004962659 0.009240151 0.0042222147 0.0013938172 0.0015210557 0.005027867 0.0071093696
0.010784721 0.007909042 0.0044940403 0.001871515 -0.0020099238 0.006903882 0.0095424745 0.00033283155
0.0020852205 0.0011161253 0.007842057 0.0067757103 0.00052056275 0.004996955 0.006634043 -0.00034744662
0.0046763006 0.010526914 0.009127534 0.005967681 0.010325816 0.0035960309 0.006011376 0.0031490047
0.006588788 0.005144932 0.0076669706 0.0076836734 0.008679696 0.004089825 0.008996338 0.007725711
0.0045429314 0.0025784736 0.0091990065 0.008716578 0.013040762 -0.0016973023 0.006611156 0.009564108
0.0018697093 0.003301239 0.0063708853 0.010399005 -6.8901286e-06 0.014447373 0.007696864 0.0060610767
0.00072913396 0.0034472889 0.008393909 0.0026535522 -0.0017153152 -0.0035932409 0.0044865943 0.0044201706
0.0036686114 0.0044329497 0.004398955 0.0011958987 0.0057105348 0.0027797306 0.0055782394 0.004158128
0.009579059 0.003197621 0.0025506895 0.0054037245 0.0035174044 0.0070688645 0.011672628 0.0046464168
0.0035351375 0.009972609 0.005350142 0.005511867 0.0033295946 0.003658267 -0.002156 0.0076421895
0.011329672 0.0031254045 0.0011140463 0.011878024 0.0060965954 0.0057307007 4.0462834e-05 0.0078010736
0.0035359005 0.004576952 0.009978071 0.007896923 0.0059400154 0.009900616 0.007509161 0.009773795
0.009226414 0.009060357 0.0033334256 0.010673292 0.0047045294 0.00097651075 0.00076204515 0.005793423
0.011291994 0.0053374246 0.008963274 0.0076373867 0.003150957 0.003087891 0.004161627 0.007365441
0.0049918815 0.0034488242 0.011538606 0.0037894372 0.00795629 0.001395613 0.0057343827 0.0039275563
0.0011221613 0.0014714457 0.010054922 0.008968332 0.0038187008 -0.0005067269 0.0024065992 0.0033149563
0.0046587684 0.0023297772 0.005331805 0.00260485 0.0059077945 0.0045207343 0.007840313 0.0023028369
0.0078040403 0.000704882 0.007897799 0.0032334754 0.010864425 0.004278504 0.003105316 0.0036339408
0.0076810694 0.0049375733 0.0034543213 0.0075063263 0.0072410493 0.009295047 0.01176511 -0.0004769538
0.001184638 -0.000329228 0.005041843 0.0008246301 0.00878451 0.007274076 0.0004527106 0.0049801446
0.0012776512 0.0038791313 0.010318592 0.0034162165 0.0013380436 0.003918572 0.005975656 0.006087088
0.0071945847 0.0038735506 0.0074578277 0.011584931 0.0074839834 0.008986215 -0.001280656 0.005602057
0.003902378 0.009968956 0.004312602 0.0058709066 0.006103088 0.0013820383 0.008855559 0.0027030106
0.009246749 0.0099276155 0.0030863206 0.004664499 0.0141215585 0.007866192 0.008529772 0.0013279387
0.0053851674 0.0054951264 0.0058764075 0.00066233764 0.0024639019 0.011245738 0.005358997 0.0039399047
0.008272805 0.0024202177 0.0039997892 0.0058172164 0.00341037 0.007826411 0.0051611154 0.0063292673

network_body._body_endoder.seq_layers.4.weight f4 [256, 256]
00000000: a037 163d 3abc 8d3d 013b e03c 65bd 9fbd
00000010: ac9b 3ebd e6cf dc3d 3e39 6dbd 1659 5ebd
00000020: f493 c93d 5441 513d 7efe af3c 47d8 a23b
00000030: a37f 0c3d 7f87 f13d 086a 983a 774b 993d
00000040: 0fca acbd 3611 e83d 6353 943d 7966 afbd
00000050: 2781 81bc 8d1f ddbd 92e0 db3c 8acb 16be
00000060: ae48 d7bc e26f 7dbd 60ff 93bd ec44 043e
00000070: d91a 9cbc 59cb e53d 0fd9 d3bd 2948 f7bc
00000080: ad58 8b3d ebc0 44bd 8b61 cabc ab07 fc3c
00000090: d268 83bd 7f81 bd3d 328b 9ebd 55fb c8bb
000000a0: a57c 883d 6c90 fcbc 45c4 fdbd 12a3 a6bd
000000b0: 9dbf 623c 4406 1bbd 754a f63c feb0 313d
000000c0: 9080 d6bd 9f95 ae3c f395 123b d213 893d
000000d0: 466b 5cbd 2510 a43d f5bf 4e3d d62f 993c
000000e0: 96ec 9ebd 2d14 00bd 6065 55ba b653 93bc
000000f0: 87ef 69bd 11d0 1fbd b755 16bc c974 24bd
00000100: 9227 083e 3aa8 7ebd 0b30 693c 1c58 b9bd
00000110: afb6 88bd 0c29 8c3c 61e0 03be 230a b13d
00000120: f1e3 893d 1340 bebc a4db 27bd c1ef c3bc
00000130: e910 bebc 1ea9 043d e532 acbd 3f0e 1c3d
00000140: 287e f0bd 9496 163d dd2c 21bc cdce 18bd
00000150: 6dec 183b 57fe ccbd 5484 3c3d 6986 143d
00000160: b181 d2bd 4e75 afbd 2c6d fabc 75b1 8fbc
00000170: 446c 85bb 509f 68bc e444 15bd 261c 8e3d
00000180: bff2 2ebd 5c71 1d3d fd0a 59bd ef9a 073e
00000190: 00ae 6abd ccf2 673d d8ed 443d 5103 ce3d
000001a0: c2d7 c63d 0620 653d 18b5 813d 1fe4 08bd
000001b0: fa08 ecba a8f1 8d3c 9981 e63c 3523 f7bc
000001c0: 3ac6 c43d 60ff 2bbd 58b4 b63d eaa3 b23d
000001d0: d66b 34bd 6f41 2f3c 63ce 92bc 6710 01bc
000001e0: 39af c0bc 7dff bf3c a763 ee3c 81e4 123d
000001f0: f55c bc3d a605 253e 9616 80bd 7982 c03d
00000200: ec12 86bb 76f1 b3bc d758 abbd 2b93 55bd
00000210: 68c1 02bc 8481 1dbd 6b64 883d f96e 03be
00000220: 1638 cb3d 2ecf d73d e90d b7bc a84a 0dbd
00000230: c93b cbbc d033 31bd c89a 723d d67a b23c
00000240: 5a64 8c3d 5211 853d 8581 c43d 57c0 c3bd
00000250: 8bb7 e83d a4ca e23c e568 0ebc 2fd0 eb3d
00000260: 5a9e 06bd d9f9 a5bd 72c3 ad3c f11e babd
00000270: 0bcf a63d d5c6 a33c e85b 203e 74f0 723d
00000280: 24d8 df3b f76e d23d 80ec 333d 18f0 16bc
00000290: 9a21 b8bd c8e2 563d d4da 62bd 9e4f 323c
000002a0: ce92 863d 73b2 903c ba60 5cbd 4171 15bd
000002b0: e5d3 0d3e dfc5 753d 9606 663d 922c f7bd
000002c0: 12e5 c3bc b2fc 413d 5904 04be 9fa6 b93c
000002d0: 05ef a23d 2d00 b2bd dbe3 083e b656 a73d
000002e0: 8700 f4ba d8a9 5c3c 3063 27bc e00c d43c
000002f0: 8d25 1a3d b6bc edbb eba0 b5bc d6e1 58bd
00000300: 5df0 1a3d c44c 3abd 1b1f 103c ee47 99bd
00000310: 3957 a1bd dea8 17be 7717 babc 2b68 8f3c
00000320: cfb3 e0bd 3379 03bd da8d 1f3d ef5d 063d
00000330: d811 1abd 2e49 adbd 59a4 b5bd 798c 4abd
00000340: b2ed 66bd d8a2 a83d 331a c03c 088c e43d
00000350: 530f da3c 7271 ac3d a329 c03c ece3 c53c
00000360: a25f 7fbc 7ae0 003e 32a4 8c3d 87a4 c83d
00000370: 3823 90bd c5a0 933d 001e bc3d 170a d53d
00000380: 625c 473d 79d4 963d 9961 02be cd1e 42bd
00000390: b317 963c c083 d33c 4241 c13d c2b5 9e3d
000003a0: e861 c9bc 3c66 a3bd 2b6d 42bc 313a 9cbd
000003b0: 6848 8abd d478 b23c fec6 98bc 18dd cb3c
000003c0: 6785 0f3d bc0c 803d 682c 473c 9449 0cbe
000003d0: 2e93 33bb e738 82bc 0dc9 1fbd 4c25 5a3d
000003e0: 1213 413d a016 a8bc 213a 24bc d1b7 88bd
000003f0: 68b9 0abc 48d8 083d a095 87bd d170 a8bc
0.036674142 0.06920667 0.027371885 -0.07799796 -0.04653518 0.10781841 -0.05791592 -0.054284178
0.09842673 0.051087692 0.021483656 0.00496963 0.03430141 0.11793422 0.001162828 0.07485097
-0.08436977 0.11331408 0.07242467 -0.08564467 -0.015808655 -0.107970335 0.026840482 -0.14726081
-0.026279774 -0.061874278 -0.07226443 0.12916917 -0.01905577 0.11220426 -0.10344135 -0.030185776
0.06804023 -0.048035543 -0.024704715 0.030765375 -0.06416477 0.09253215 -0.07741393 -0.0061334767
0.06664399 -0.030830584 -0.12390951 -0.08136572 0.0138396295 -0.037847772 0.0300648 0.043381684
-0.1047374 0.02131158 0.0022367209 0.066932335 -0.05381324 0.08010892 0.050476033 0.018699568
-0.07759969 -0.03126924 -0.0008140411 -0.017984252 -0.057113197 -0.039016787 -0.009175709 -0.040150438
0.13296345 -0.062172152 0.014232646 -0.09050009 -0.06675469 0.017109416 -0.12878563 0.086445116
0.067329295 -0.023223912 -0.04098095 -0.023918035 -0.023201423 0.032387845 -0.08408145 0.038099524
-0.117428124 0.036764696 -0.009837356 -0.037306596 0.002333428 -0.10009449 0.046024635 0.036260996
-0.10278643 -0.08567296 -0.030569635 -0.017540673 -0.004071744 -0.014198139 -0.036442652 0.06938963
-0.04271197 0.038438186 -0.052988995 0.13242696 -0.057294846 0.056628034 0.048078388 0.10059226
0.09709121 0.055938743 0.06333369 -0.03342068 -0.0018008046 0.017327145 0.028137969 -0.030168155
0.09608121 -0.04199159 0.089211166 0.087226704 -0.044048153 0.010696753 -0.017920678 -0.007877446
-0.023521053 0.023437256 0.029100252 0.03586245 0.09197418 0.16115436 -0.06254308 0.09399886
-0.004091611 -0.021965723 -0.08366554 -0.052142303 -0.007980682 -0.038453594 0.06659778 -0.12835301
0.09922807 0.10537563 -0.0223455 -0.034495026 -0.024808781 -0.043262303 0.059229642 0.021787088
0.06855078 0.06497444 0.095950164 -0.0955817 0.11363133 0.027684517 -0.008692001 0.11514317
-0.03286586 -0.08104295 0.02121136 -0.09087933 0.08144959 0.019992271 0.1566006 0.059311345
0.006831186 0.10275071 0.043926716 -0.009212516 -0.08990784 0.05246237 -0.055384472 0.01088324
0.065709695 0.017663216 -0.053803183 -0.03648496 0.13850363 0.060003158 0.056158625 -0.12069048
-0.02391294 0.04736013 -0.12892283 0.022662459 0.079557456 -0.0869144 0.1336817 0.08170836
-0.001861588 0.013468228 -0.010216519 0.025885046 0.037633467 -0.007255162 -0.022171458 -0.05294975
0.037826885 -0.045483366 0.008796479 -0.074844226 -0.078779645 -0.14810511 -0.022716267 0.017505726
-0.10971796 -0.032098006 0.03895364 0.032804426 -0.037614673 -0.084612235 -0.088692375 -0.04945037
-0.056379028 0.08234185 0.023449993 0.11159521 0.026618635 0.084200755 0.023457354 0.024156533
-0.0155867655 0.12585631 0.06867255 0.09797006 -0.070379674 0.07208399 0.091854095 0.10402315
0.048672087 0.07364745 -0.12732543 -0.047392655 0.018321848 0.02581966 0.09436275 0.07749511
-0.024582818 -0.07978484 -0.011866848 -0.07628287 -0.06752092 0.021786131 -0.018649574 0.0248857
0.03503933 0.06252429 0.012156583 -0.13699943 -0.0027400958 -0.015896274 -0.039010096 0.053258225
0.047137327 -0.020518601 -0.010023625 -0.06675685 -0.008467056 0.033409387 -0.066203356 -0.020561608

network_body.observation_encoder.processors.0.normalizer.running_mean f4 [68]
00000000: 13a3 123e 7a27 4d3f 54df 623d 4506 253f
00000010: 7969 fc3d adf7 543f 839d 373d ebd4 2a3f
00000020: 300e 5a3e 47b1 3e3f d06b 2c3d 47c4 233f
00000030: fce6 433e 3524 3f3f aee9 7d3d 2479 333f
00000040: 009c 273e a207 273f b836 3c3e 124e 473f
00000050: dd1c 093f 087a bf3e c7e4 b83d 2c45 003f
00000060: abd9 753e de0a 1c3f 88e3 193e 0500 403f
00000070: f069 253f 948f 9b3e 656c 4b3d eaed c93e
00000080: 2f47 033f 1e8a cb3e eb25 b73d 0a12 143f
00000090: 3766 f83e e3ea e43e 5604 883d 9321 033f
000000a0: ba3d 6f3e 4d58 ee3e bf80 993e 58c7 4d3f
000000b0: 961e c53e 6958 893e 02d6 d23d ef94 253f
000000c0: c610 a03e c2fe 833e f434 093e 308f 3f3f
000000d0: 8b81 fa3e 3d9c 883d c4dc 593a 01d8 093f
000000e0: 2379 473e ec71 f13d e5e9 ce39 34f2 283f
000000f0: 7a8a b23e 9734 663d d456 053a fdc9 103f
00000100: 798a b23e 9734 663d d456 053a fcc9 103f
0.1432002 0.8013836 0.055388764 0.6446269 0.12324805 0.83190423 0.04482795 0.6673114
0.21294475 0.74489254 0.042095006 0.6397137 0.19131082 0.7466462 0.061990432 0.7010672
0.16368103 0.6524602 0.18380249 0.778535 0.53559667 0.3739779 0.09028011 0.5010555
0.24008815 0.6095408 0.15028203 0.7500003 0.6461477 0.3038298 0.04966392 0.39439327
0.5128049 0.39753813 0.08942779 0.57840025 0.48515484 0.44710454 0.06641452 0.51223105
0.2336339 0.46551743 0.29981038 0.803823 0.38499898 0.26825264 0.10294725 0.6468038
0.31262797 0.25780302 0.13399106 0.7482786 0.48926958 0.06670425 0.00083107897 0.5384522
0.19479804 0.11789307 0.00039465647 0.6599457 0.34871274 0.056202497 0.0005086486 0.5655821
0.3487127 0.056202497 0.0005086486 0.56558204

network_body.observation_encoder.processors.1.normalizer.running_mean f4 [6]
00000000: 70ff 19c1 a020 d940 e1fe 2fc1 bcfe df40
00000010: eb95 3b40 f9c2 6943
-9.624863 6.7852325 -10.999726 6.9998455 2.9310253 233.76161
